.archive/piae_sde/experiments/2024-11-25_17-32-49-240331/best_model.pth (torch, 25314 bytes, 28 tensors)

encoder.0.weight f4 [16, 18]
000000 b1 23 86 3e af 90 af 3d 43 f8 d6 be 54 f8 8b bb
       0.26199105 0.08572518 -0.41986284 -0.0042715464
000010 25 e6 d2 3d d8 7c 2c be af ff a4 3d 09 1d 64 bd
       0.10297803 -0.16844499 0.0805658 -0.055691753
000020 25 1a 3f bb fb d2 ac be 1d 0d 47 3e ad 1f 83 3e
       -0.002915987 -0.33754715 0.19438596 0.25610104
000030 e9 20 5e be 28 1e 75 3d 97 a9 a9 3d de c8 98 bc
       -0.21692242 0.059843212 0.082843 -0.018650468
000040 e2 e7 bf bd 1c 74 23 be f7 d0 10 3c 8f 31 1a 3e
       -0.093704 -0.15962261 0.008838884 0.15057968
000050 bf 8c 19 3e 04 85 a4 3d 30 65 cb 3e b7 b5 9f be
       0.14995097 0.08033183 0.39725637 -0.31193325
000060 a1 e3 9c be e4 ab 7b 3e 75 b5 41 be 9f 58 87 be
       -0.30642417 0.2457729 -0.18916877 -0.264348
000070 cd e2 5c 3c 2c 98 0b 3e cb ed 99 be 64 1b 9c be
       0.013481808 0.13632268 -0.30064234 -0.30489647
000080 c2 a8 c1 be d7 6c 91 bd 6a 34 8f 3e 4d 5a 7d be
       -0.37824064 -0.07100838 0.27969676 -0.24741478
000090 61 6d 3b 3e dd d5 1a be 6c c1 cb 3d 8b 14 0c be
       0.18303443 -0.15120645 0.09949002 -0.13679712
0000a0 53 8b 11 be ec 1b c6 bd 8d a2 2c be 34 e7 b5 bd
       -0.14213304 -0.096732944 -0.16858883 -0.08881989
0000b0 cc 95 ac be 7c 65 6f be 9e 27 73 3e 0f a9 5c 3e
       -0.33708036 -0.23378557 0.23745582 0.21548866
0000c0 f8 f6 91 3c ca 84 0f 3e d0 77 a8 3d 3c 82 cb 3e
       0.01781796 0.14015499 0.082259774 0.39747798
0000d0 b4 1b ed 3e cd 7b 06 3e ba 7d 51 3e 0f 35 8b 3e
       0.46310198 0.13133164 0.20458117 0.27188918
0000e0 69 fd 44 bd 94 74 0f be ef 44 70 3d c9 b5 e9 bc
       -0.048093233 -0.14009315 0.05865949 -0.028529065
0000f0 78 0e 38 be bf b1 75 be 2a 88 bd 3e c6 c5 84 3e
       -0.1797427 -0.23993586 0.37017947 0.2593214
000100 8c 63 89 be 1c 13 ba be 3a 62 0a be 9d ab ae be
       -0.2683376 -0.36342704 -0.13514033 -0.34115306
000110 ec de d3 be fe 71 8e bd d9 18 2c 3d 40 28 b1 39
       -0.41381013 -0.06955336 0.042015884 0.0003379006
000120 5d fc 99 3d 7d 63 45 3d c4 0e 1a 3d ee fe 29 be
       0.075188376 0.048190583 0.037611738 -0.16601154
000130 4a f7 19 be 01 0a bc be 92 a4 6e 3e 3b ee 3f 3e
       -0.1503574 -0.36726382 0.23304966 0.18743221
000140 0d 3b 86 3e 06 d5 93 be 73 d0 1b 3e 52 47 cf bd
       0.26216927 -0.2887346 0.15216236 -0.10121025
000150 34 69 8a 3e c0 5c bf 3c 00 40 43 be b6 b6 e7 be
       0.2703339 0.023359656 -0.19067383 -0.45256585
000160 9e c6 83 3e 50 7c 52 be d1 60 00 be a6 2c 3f be
       0.2573747 -0.20555234 -0.12536933 -0.18669376
000170 03 59 6b 3e 04 59 c6 3e c2 66 5c bd 34 0e a2 bd
       0.22983174 0.3873979 -0.053808935 -0.07912865
000180 c3 08 f4 3e 20 d2 eb bd 2d a2 ad 3e d4 88 49 3e
       0.47662935 -0.115146875 0.33912793 0.19681102
000190 62 f3 c7 bc e4 af 26 bd 27 47 9e 3e 47 3c cd be
       -0.024408046 -0.040695086 0.3091366 -0.4008505
0001a0 62 e6 e6 bb aa 77 96 3d 99 05 76 3e 27 9e c6 be
       -0.0070465067 0.07347043 0.24025573 -0.38792536
0001b0 ba 68 be be d6 a9 c8 3e a2 49 a1 be 29 37 95 be
       -0.37189275 0.39192075 -0.3150149 -0.29143646
0001c0 a2 bd cb 3e 0e 56 35 3e 0e 46 ba be f6 ee 24 3e
       0.39793116 0.17708609 -0.36381572 0.16106781
0001d0 27 44 96 3e 9f 9f 09 3e ec c2 99 3d 5f 23 84 3d
       0.2934887 0.13439797 0.075078815 0.06452059
0001e0 f4 35 a5 be df df d2 bd 57 57 67 bd 37 1f 2a 3e
       -0.32267725 -0.10296606 -0.05647978 0.1661347
0001f0 79 28 56 be 0b 19 89 be a9 5c bd be 10 17 ff 3e
       -0.20913877 -0.2677692 -0.36984757 0.49822283
000200 4c 9e 5b 3e d5 64 50 be e9 b9 b2 3e c2 23 e3 3c
       0.21447104 -0.20350964 0.34907463 0.027727012
000210 13 33 f4 bd 73 f2 fa bd 89 66 c4 bd bf aa d6 bd
       -0.11923804 -0.12253275 -0.095898695 -0.10481786
000220 ac 66 aa 3d 11 33 22 bd 04 bf df bd 87 76 bb bc
       0.08320364 -0.039599482 -0.10925105 -0.022883667
000230 b8 76 66 3e 67 3a 85 3e 06 e7 c7 3e 8a e6 f9 bd
       0.22506225 0.2602112 0.39043444 -0.12202175
000240 bd 9b 10 3d a7 3f bb 3e cb f6 32 be d0 62 7c 3c
       0.035304774 0.36572 -0.17476957 0.015404418
000250 9e 3d 1f be 1d 35 31 3e 82 b0 a1 be 8f 1f 4f bd
       -0.15550849 0.17305417 -0.31579977 -0.050567206
000260 8d 5f e4 be 79 4c 8a bc f6 34 23 3e ec a7 c6 bd
       -0.4460415 -0.016882168 0.15938172 -0.09699997
000270 ba c4 b1 be bc 65 bb 3e e6 41 bb be 50 ac 01 bf
       -0.34720403 0.36601055 -0.36573714 -0.50653553
000280 1d a6 7e 3e 79 80 00 bd a8 05 dc 3d 1f f7 9d be
       0.24868055 -0.03137252 0.10743266 -0.308526
000290 ba 61 96 3e 01 68 5b be 70 23 e9 3d aa 9a d4 bd
       0.29371434 -0.21426393 0.11383712 -0.10381062
0002a0 8e 55 1f 3e f3 eb 5b be 31 53 d7 3d e6 c0 90 3e
       0.1555998 -0.21476726 0.105139144 0.2827217
0002b0 cd 6f d0 3e f3 70 99 be 97 99 14 3e c1 34 77 3e
       0.40710297 -0.29968986 0.14511715 0.24141218
0002c0 b0 c1 10 3e 1b b0 7a 3e cf be ae be 15 3a 13 be
       0.14136386 0.24481241 -0.3412995 -0.14377625
0002d0 a4 2f c9 3d 3f b7 bf 3e 26 1b d1 be 75 bb 1a 3d
       0.0982354 0.37444493 -0.40841025 0.03777643
0002e0 66 ec 9c be b9 f7 61 3e e5 93 07 3e 4f 85 0d 3e
       -0.30649108 0.22067155 0.13240011 0.13820384
0002f0 36 eb 67 3d 41 9b 61 be 58 67 3b 3e 82 2e 2b be
       0.0566208 -0.22031881 0.18301141 -0.1671696
000300 97 23 7c 3b 67 8b d0 be ea a1 c1 3a 54 09 a8 3e
       0.0038473362 -0.40731356 0.0014772986 0.32819617
000310 f4 82 99 be 63 7d 60 bd 69 9b b7 be 61 3b d4 3e
       -0.29982722 -0.054807078 -0.35860756 0.41451553
000320 f5 30 b8 3e fb 81 26 bd 84 f2 1c 3c 55 e4 52 be
       0.3597485 -0.040651303 0.009579305 -0.20594914
000330 42 61 0c 3e c4 4c cd be c6 69 c3 3e fd 4c bf 3e
       0.13708976 -0.4009763 0.38166636 0.37363425
000340 6b ef eb bd 34 63 8f 3d 96 ff 8e 3e 5b 36 5a 3d
       -0.11520275 0.07001343 0.27929372 0.053274494
000350 74 ca c8 be 49 2b d9 bd 90 e4 c3 be 79 6f 53 be
       -0.3921696 -0.10603959 -0.38260317 -0.20647992
000360 61 a2 34 3e d0 d3 24 be 49 1d 00 3e 3f f2 bf 3e
       0.17640068 -0.16096425 0.12511171 0.37489507
000370 ab 83 bc be e6 b8 86 bc fb 51 5e be 82 ed 02 3d
       -0.36819205 -0.016445588 -0.2171096 0.031964786
000380 96 f7 a5 bd 1f 7f 81 be ae a3 36 be a6 3a be 3e
       -0.08103864 -0.25292298 -0.17835876 0.3715412
000390 6a a2 c8 bd 88 5e 00 3e ca 30 3d be 85 2a a0 be
       -0.09796603 0.12536061 -0.18475643 -0.3128244
0003a0 9d c2 aa be 61 70 b6 be 69 bf 01 be ac 83 79 be
       -0.33351603 -0.35632613 -0.12670673 -0.24366635
0003b0 8b 09 ab bd ab 12 48 3e e4 16 79 be da d5 82 bd
       -0.083514296 0.19538371 -0.24325138 -0.06388445
0003c0 c0 a0 62 3d ee 60 22 3e 64 0d b6 bd 90 41 72 bc
       0.055329084 0.15857288 -0.08889273 -0.014786139
0003d0 ad 71 b6 3e d1 5f b5 3d cb ef ea bd 4a 49 f4 3d
       0.35633603 0.08856166 -0.11471518 0.11928041
0003e0 d9 c8 a4 3d c1 18 26 3d 59 54 1d 3e 67 bc 62 bd
       0.08046121 0.04055095 0.15364207 -0.055355456
0003f0 85 76 58 3e a4 8d b7 3e 06 d9 95 3d 6e 80 9e 3e
       0.21138962 0.3585025 0.073167846 0.3095736

encoder.0.bias f4 [16]
000000 00 00 00 00 a9 5d 6e bc 00 36 33 3d e4 f7 3b 3d
       0.0 -0.0145486975 0.04375267 0.045890704
000010 8f 94 85 3c b5 30 d6 3c 00 00 00 00 93 e1 95 3c
       0.01630619 0.026146272 0.0 0.018296039
000020 0c ff e1 bc 00 00 00 00 00 00 00 00 00 00 00 00
       -0.027587436 0.0 0.0 0.0
000030 00 00 00 00 25 37 2f 3d 00 00 00 00 00 00 00 00
       0.0 0.0427772 0.0 0.0

encoder.2.weight f4 [16, 16]
000000 8d 8d bf bd 3d ee e0 3d dc e3 ae be da 5d de bd
       -0.093531705 0.1098294 -0.34158218 -0.108577445
000010 ee ec f1 3c 1b e5 e6 bd f4 e7 75 be af 5b 72 be
       0.029531922 -0.11274167 -0.24014264 -0.23667787
000020 3f 22 c8 3e f2 fd 92 3e e6 ce 92 3e 31 b0 aa 3e
       0.39088628 0.2870937 0.28673476 0.33337548
000030 d1 9d f0 bd 2a ad d8 3e 1b 88 b9 3d 43 a0 8d 3e
       -0.11748851 0.42319614 0.09059163 0.27661332
000040 17 e7 d5 be 6e 58 64 3e 19 fb a0 be 6e 16 21 3e
       -0.4177787 0.22299358 -0.31441572 0.15731212
000050 ef 4a 52 3e 89 25 cf 3d 1f ad 73 be 88 0b df 3d
       0.20536397 0.10114581 -0.23796509 0.10890871
000060 61 68 26 3e 48 fa 30 be 13 ae a4 be 6f 08 24 3d
       0.16250755 -0.17282975 -0.32164058 0.040047105
000070 5f 69 d2 3e 0d e6 cf be ea af b7 be c4 65 c6 be
       0.41096017 -0.40605202 -0.358764 -0.38749516
000080 57 12 ad be 11 39 35 be d4 c2 8d 3c 5f a2 65 be
       -0.33803055 -0.1769755 0.017304815 -0.22425221
000090 e7 08 76 3e 84 03 a9 3e dd 59 dc be 51 e8 2c 3c
       0.24026833 0.33010495 -0.4303731 0.010553435
0000a0 47 1a 88 3d bc 1e 97 be bf be 50 3d e2 3f 88 be
       0.06645637 -0.29515636 0.05096316 -0.2661124
0000b0 cd c6 41 3d 7c e3 c7 3e 7d f5 eb 3c 3e 19 ce bd
       0.04730873 0.39040744 0.028803581 -0.10063408
0000c0 72 d1 79 be c7 92 4a 3e 68 99 32 be 91 95 a6 be
       -0.24396303 0.19782554 -0.17441332 -0.32535985
0000d0 22 f1 4f 3e 57 fb 9d be 2d 8f cb 3e 6c 23 9b be
       0.20306829 -0.3085582 0.39757672 -0.30300462
0000e0 0a a8 02 be 2c 61 ab bc 06 ea bc 3e bd 70 b8 3e
       -0.12759414 -0.020920359 0.36897296 0.36023512
0000f0 d6 2c 81 be 81 2d 2d be 50 af 44 bd bf 36 89 3c
       -0.2522952 -0.1691189 -0.048018754 0.016749738
000100 9e 62 dc be c3 4e 98 bd 1a 44 f3 bd 5e 9c c3 be
       -0.4304399 -0.074368976 -0.11878224 -0.38205236
000110 01 8c ce be a5 c4 36 be c9 10 08 be 0b d6 4a be
       -0.4034119 -0.17848451 -0.13287653 -0.19808213
000120 17 3a b6 be 69 f4 bc 3e 18 63 a7 be fa f2 d0 be
       -0.35591194 0.3690522 -0.3269279 -0.40810376
000130 4a 8b 9a bd 34 b4 45 3d d5 52 cc 3e f1 45 73 3e
       -0.075460985 0.04826756 0.39906946 0.2375715
000140 c2 47 c1 3e 43 85 78 3e 12 a9 c3 3e a6 ce 58 be
       0.3775006 0.24269585 0.38214928 -0.2117258
000150 c8 fc a7 be c3 48 f8 bd b7 fd 06 bd 6c 24 c9 3e
       -0.32810044 -0.12123253 -0.032956805 0.392856
000160 d7 a0 30 be 11 0a fe bd 3e c0 13 be 38 37 ad be
       -0.17248856 -0.12404264 -0.14428803 -0.3383119
000170 62 e9 a1 3e 6a 36 d0 3e 88 66 a1 bd 53 bf 94 be
       0.3162337 0.40666515 -0.078808844 -0.2905222
000180 c6 89 68 be ba a9 c2 bd 4b 7e 12 be 72 36 9c 3e
       -0.22708806 -0.09505029 -0.1430599 0.30510288
000190 90 7f 8a 3d db b8 b7 be da 30 94 3e e5 8f 94 3e
       0.06762612 -0.3588322 0.2894352 0.29016033
0001a0 05 94 3b 3e 80 a7 7f 3e 57 74 eb 3d d6 25 a7 3e
       0.18318184 0.2496624 0.114967994 0.32646054
0001b0 56 54 b3 3e 88 6c 2c 3c b6 9f 59 3e df 63 90 3e
       0.3502528 0.010523923 0.21252331 0.28201196
0001c0 aa 6c 1c be ce ac f0 3e c2 6e b3 3e 7d 9e 8d 3e
       -0.15275827 0.4700684 0.3504544 0.2765998
0001d0 2f 51 26 3e 18 c6 80 be c8 a7 bc 3e 57 f1 a9 be
       0.16241907 -0.25151134 0.36846757 -0.3319194
0001e0 ca b1 4a 3e ba 28 18 3e 1f fa 5a be 74 03 48 3e
       0.19794384 0.14859286 -0.21384476 0.19532567
0001f0 63 76 2d be 52 71 f0 bd ad 78 33 3e 71 0b c9 3e
       -0.16939692 -0.11740364 0.17526503 0.39266542
000200 da 96 99 bd 42 cc 11 be c9 60 be 3d 3a de 86 be
       -0.07499476 -0.14238074 0.09295804 -0.2634142
000210 ee 37 25 3e ce 1e b4 3d f2 04 34 bd 5a 3b 96 3d
       0.16134617 0.08794938 -0.04395003 0.07335539
000220 82 02 8e 3e 1e fb 0b 3e 9d 94 ae be 27 62 9d 3e
       0.27736288 0.13670012 -0.34097758 0.30738947
000230 59 e7 8b 3d 5e ff 36 bc d6 41 62 3e 69 1a 25 be
       0.068312354 -0.011169283 0.22095427 -0.16123356
000240 7a 29 a0 3e 37 09 11 be 86 f5 d5 3d a7 63 de be
       0.31281644 -0.14163671 0.104472205 -0.43435404
000250 a0 82 b5 3e 62 f0 85 3e f9 e6 8c be a1 8e 2e bd
       0.3545122 0.2615996 -0.27519968 -0.04261649
000260 9e 3d 6c 3e 86 58 a8 be b6 89 92 be 09 7c 5d be
       0.2307038 -0.32880038 -0.2862069 -0.21629347
000270 66 c6 dc be 4a 26 55 3e 52 ef a3 3d bc d4 6a be
       -0.43120116 0.20815387 0.08004631 -0.22932714
000280 fe 19 a8 be 4a 04 42 be 3e 06 d8 3e 0f 6d ef 3e
       -0.3283233 -0.18946949 0.42192262 0.46762893
000290 7f 14 38 3e 93 f3 ed 3e d0 57 7c be c4 ba b3 3e
       0.17976569 0.46474895 -0.24642873 0.35103428
0002a0 7b ad 5e 3e 9f 77 55 3e 4d 68 95 3e a8 88 90 3e
       0.21745865 0.20846413 0.29181138 0.2822926
0002b0 7a 3c bf be b0 3e 2e be 19 03 a4 be d2 49 4b be
       -0.37350827 -0.17016101 -0.32033613 -0.19852379
0002c0 74 54 ab bd 08 e0 ab be 74 66 b9 be 4e ae 8a be
       -0.083657175 -0.3356936 -0.36210978 -0.2708611
0002d0 06 56 fc 3d c8 6e c2 3d 0a 49 f8 bd e1 59 8c 3d
       0.12321095 0.09493786 -0.12123306 0.068530805
0002e0 e9 56 81 3e f7 c3 d7 3d b3 a3 91 3e 3e 79 20 be
       0.2526162 0.10535424 0.28445205 -0.1567125
0002f0 c9 ef f7 3d c6 67 42 3d d6 a4 c5 be 0b 03 2b 3d
       0.12106282 0.047462247 -0.38602322 0.04175095
000300 b5 f7 9c 3e 3a a6 aa bd a4 24 8a 3e 37 a0 ee 3e
       0.30657735 -0.083324865 0.2698108 0.4660661
000310 f2 08 b9 3c 78 df 73 3e db 91 81 bc 5a 38 0f 3e
       0.022587273 0.23815715 -0.01581662 0.1398634
000320 ce df 3c be 69 62 51 3e 9e 62 1b 3e 24 8b 8b bd
       -0.1844475 0.20447697 0.15174338 -0.06813648
000330 68 a2 76 be 2e b3 e7 3e 43 09 60 be 8f 5a a4 3e
       -0.2408539 0.4525389 -0.21878533 0.3210034
000340 ac 7b 1a be af 46 41 3e 4e 7b bf be 03 99 51 3e
       -0.1508624 0.1887462 -0.37398762 0.20468526
000350 ea 4a b6 be 9b 84 5b 3d c4 e4 a6 3d 52 fa 93 be
       -0.3560403 0.05359326 0.08149102 -0.28901917
000360 72 a7 a3 3e c3 3c a9 bc f2 24 9c 3e e6 a5 ac be
       0.31963688 -0.020658856 0.30496937 -0.3372032
000370 1e a1 e3 ba 57 b8 f6 3d 31 fd c5 bd 53 96 0f 3e
       -0.0017366742 0.12046879 -0.09667433 0.14022188
000380 d8 29 82 3c 31 30 dd be 96 60 44 3e dd 8d 09 be
       0.015889093 -0.4320083 0.1917747 -0.13433023
000390 96 05 5e be b1 24 b3 be 1f b0 b5 be c7 20 65 be
       -0.21681818 -0.3498893 -0.35485932 -0.22375785
0003a0 96 44 98 bd a9 94 71 3e dc 0a c6 bb 73 05 54 be
       -0.07434957 0.23591866 -0.006043775 -0.20705204
0003b0 7d b6 ce be 4f e6 ce be 39 8d a8 3e 68 2b de 3d
       -0.40373603 -0.40410087 0.32920244 0.10848123
0003c0 a8 c2 b7 3e 1d 62 13 be 20 8f 7e 3e d8 6b 52 bd
       0.35890698 -0.14392896 0.24859285 -0.05137238
0003d0 db c7 4b be 53 05 57 be c7 8f be be b7 fa d3 3e
       -0.19900458 -0.20998125 -0.37219068 0.41402218
0003e0 b9 01 9f be c7 fe 85 3e 78 98 b4 3e 85 ab a7 be
       -0.31056002 0.26170942 0.35272574 -0.32748047
0003f0 d0 59 14 be 1f 77 e0 3e 61 f8 d9 3e ea 2a be be
       -0.14487386 0.43840882 0.4257231 -0.37142116

encoder.2.bias f4 [16]
000000 d9 1c f3 bb f6 ef af bc 9c a4 30 3d 00 00 00 00
       -0.0074192104 -0.021476727 0.043125734 0.0
000010 00 00 00 00 a4 ce e0 3c ba c8 8e bc bf 3c 0e 3d
       0.0 0.027442284 -0.017429698 0.0347259
000020 39 56 06 3c 63 cf 25 bd 2c 9a 26 3d 00 00 00 00
       0.008199268 -0.040480983 0.040674374 0.0
000030 f2 68 31 3d 00 00 00 00 00 00 00 00 eb bd d9 3c
       0.043312974 0.0 0.0 0.026579818

encoder.4.weight f4 [32, 16]
000000 82 d1 16 3d 7c f0 fa bd 63 72 00 3b 18 4f 66 3e
       0.036820896 -0.122529 0.001959943 0.2249111
000010 98 5f 39 be bc e9 75 3e 31 72 76 be 8b 70 a4 be
       -0.18102872 0.24014944 -0.24066998 -0.32117113
000020 e0 bf 91 be 83 56 9c bd 59 06 e7 bc 2a f7 85 3d
       -0.28466702 -0.07633688 -0.028201269 0.065412834
000030 0f d3 6c bd 46 b8 3c 3d 07 eb 1f be 4d 91 e7 3d
       -0.05781847 0.046074174 -0.15617 0.11307011
000040 fd 5e 23 3e 80 7c 1d 3e a0 aa 4c 3e 68 b9 65 3e
       0.15954204 0.15379524 0.19986963 0.22434008
000050 c9 91 af bd a9 b3 a0 be bc fa 05 3e 21 a8 a4 be
       -0.08572728 -0.3138707 0.13083929 -0.32159522
000060 3c 4d b9 3d 44 ea 8c bd 47 11 c0 3d 1b 77 28 3d
       0.090479344 -0.0688062 0.093782954 0.041129213
000070 2f 98 7d 3e a0 b1 ea bc af 34 8a bd fb 98 60 bc
       0.24765085 -0.028649151 -0.0674833 -0.013708348
000080 32 07 b0 3e 97 9f 20 3e 0b c0 98 3c f9 68 80 be
       0.3438049 0.15685879 0.01864626 -0.25080088
000090 78 b9 90 3e 4e 6b 6a be 31 85 4c 3e 01 67 88 be
       0.282665 -0.22892496 0.19972683 -0.26641086
0000a0 3a bb 79 3e 64 34 34 3e 0b ae 92 3d 0d cd 8c be
       0.24387828 0.1759811 0.07162102 -0.2750019
0000b0 bd 43 20 be 6c b2 90 be 36 93 72 be 34 e4 49 be
       -0.1565084 -0.28261125 -0.23688969 -0.19715959
0000c0 00 7b 5f 3e 9a b3 6a be c4 3e 17 3e 02 f3 3c bd
       0.21824265 -0.22920075 0.14770037 -0.046130188
0000d0 d3 17 17 be e9 3a 9b be 32 d5 5d 3e cf 83 7a 3e
       -0.14755182 -0.30318382 0.21663359 0.24464343
0000e0 b2 98 3e be df 50 89 be c6 1f 93 be ae 7f ae be
       -0.18612936 -0.26819512 -0.2873518 -0.34081787
0000f0 d1 bb 61 3e 7a 36 c4 3c 9c 6b ab 3e 1b 50 5e 3e
       0.22044303 0.023951758 0.33480537 0.21710245
000100 37 af b3 3d bd 91 2e be f5 98 2a be b8 78 85 be
       0.08773654 -0.17047782 -0.16659911 -0.26068664
000110 ab e7 95 3e 35 8c 24 be 1c 80 42 be 4b 06 07 3e
       0.2927831 -0.1606911 -0.18994182 0.13185994
000120 04 85 84 be 20 54 c5 be 44 61 f0 3d 6e 7d 34 be
       -0.25882733 -0.38540745 0.11737302 -0.17625973
000130 2d 6f 08 3e 61 1b e3 bd ce de 07 3e 7f d0 f8 bd
       0.1332366 -0.110892065 0.13268587 -0.121491425
000140 ef 45 b0 be b7 54 b7 3d 5e 6a 8d bd f7 b3 96 bd
       -0.34428355 0.08951705 -0.069050536 -0.07358544
000150 3e 22 2a bc 26 70 14 3e d0 54 97 3e cf 47 b6 be
       -0.010384141 0.14495906 0.29556894 -0.3560166
000160 60 04 2e 3e a2 a8 26 bc 78 46 0f be 3e f6 95 3d
       0.16993856 -0.010172041 -0.13991725 0.073223576
000170 4c a0 b4 3d 92 16 9d be 31 c6 ef 3d 28 b7 39 be
       0.08819637 -0.30681282 0.11707724 -0.18136275
000180 49 5c 07 be 30 f1 32 be a1 48 8e 3d ae 92 57 3c
       -0.13218798 -0.17474818 0.069474466 0.01315753
000190 2e 2a a6 3e c9 25 5d be da 12 91 be 6c 10 a2 be
       0.32454056 -0.21596445 -0.28334695 -0.31653154
0001a0 b0 eb 29 be ab 64 55 be b7 2c c1 be 49 7d b2 3e
       -0.16593814 -0.20839183 -0.37729427 0.3486121
0001b0 a7 ae a0 be 5f 32 8d 3d 28 31 04 3d 7e 2d 8f 3e
       -0.3138325 0.06894373 0.03227344 0.27964395
0001c0 d7 62 1f 3e ca f8 9f 3e 6b 9a c3 be f4 0c 5a 3d
       0.15565048 0.31244498 -0.3820375 0.05323501
0001d0 7e 2b b3 be e7 eb 98 be 90 8f 85 be 62 e3 75 be
       -0.3499412 -0.2986748 -0.26086092 -0.24012521
0001e0 cf 1b 19 bd c1 6b 02 3e 5b d3 c1 be 18 48 ed bc
       -0.037380036 0.12736417 -0.37856564 -0.028965041
0001f0 b8 8c 95 bc 38 68 2b ba 22 e1 ae be 19 84 04 bc
       -0.018255576 -0.0006538662 -0.34156138 -0.008088135
000200 9e 43 3e be 5e ef b3 bd be 1e 54 3e 5e 55 93 be
       -0.18580481 -0.0878589 0.20714852 -0.28776067
000210 99 e4 9e 3e 43 0b 70 3e 52 47 86 3e 8c 29 3f 3e
       0.3103378 0.23441796 0.26226288 0.18668193
000220 cb 00 9f be 5a 63 a5 3e ec 8f aa be 0b fa 3d 3e
       -0.31055292 0.32302362 -0.3331293 0.18552415
000230 42 7b ac 3e 5d e0 b3 bd 8b 14 71 bd d9 07 77 be
       0.33687788 -0.08783028 -0.058857482 -0.24124087
000240 cc 64 94 3e 13 6c 70 bd f2 b4 88 be 0e 7f 99 3e
       0.28983152 -0.058696818 -0.2670055 0.29979748
000250 d2 90 fd 3d 23 6f b5 3e 0b d7 6e be 13 1e 90 3c
       0.12381138 0.35436353 -0.2332422 0.017592466
000260 e5 ed ad 3e 34 26 d8 bd 3a da 35 3e fa 4d d3 bd
       0.33970562 -0.10554162 0.17759028 -0.10317607
000270 ac 78 9e 3e 89 08 5a bd d1 05 27 3d c3 61 f8 bd
       0.3095144 -0.053230796 0.04077703 -0.121280216
000280 f9 5d 97 be 2e 35 81 be 43 9a 99 3e 5f d0 64 bc
       -0.29563883 -0.25235885 0.30000505 -0.013965695
000290 3c 47 49 be 1b 3c 05 3b a3 b1 7e 3d 39 7c ab 3e
       -0.1965608 0.0020330015 0.062181126 0.33493212
0002a0 e2 0a c2 3d 87 19 00 be 6b 15 2f bd aa ac a0 3e
       0.09474732 -0.12509738 -0.042745035 0.31381732
0002b0 96 a2 ac 3e 42 9d 83 be 4a 67 44 be 7c 16 62 3e
       0.33717793 -0.25705916 -0.19180027 0.2207889
0002c0 e5 9b 52 bb 18 e1 8d be de 48 5b 3e 09 27 95 3e
       -0.0032136377 -0.27710795 0.21414515 0.29131344
0002d0 2a 3b 48 be a4 89 93 be e9 fb aa bc ca f8 46 be
       -0.1955382 -0.2881595 -0.020872073 -0.19430843
0002e0 82 6f 6e 3c 89 c4 82 be 53 62 a1 3e f9 05 92 bd
       0.014552953 -0.2554057 0.31520328 -0.071300454
0002f0 30 08 b4 bd 25 9f a8 bd 56 e8 16 3d d9 41 02 be
       -0.08790624 -0.082334794 0.036842667 -0.12720431
000300 15 09 a0 be 17 99 3e 3e c7 3a 7c 3c bd 31 6a be
       -0.3125693 0.18613087 0.015394873 -0.22870536
000310 da 06 4a 3c b9 ae 70 3e 80 ce 22 be 33 97 99 3e
       0.012330735 0.23504151 -0.15899086 0.29998168
000320 70 83 8e 3e b9 ed 0c be 02 2f 7c 3e b7 29 a0 3e
       0.27834654 -0.13762559 0.24627307 0.31281826
000330 75 3b 20 3e 77 43 91 3e 27 41 84 be c3 d4 1e 3e
       0.15647681 0.28371784 -0.25830957 0.1551085
000340 a2 c3 93 3e 60 f4 12 3e c1 a9 c8 bd 87 13 9f be
       0.28860193 0.14351034 -0.09798003 -0.31069586
000350 f4 64 a6 3d 79 29 58 3d ad a6 a8 3e 0d b1 97 be
       0.08124724 0.052773926 0.32939664 -0.29627267
000360 ce c3 41 3d 96 05 13 3d df 9b 6d be a2 73 98 be
       0.047305875 0.035894 -0.23203991 -0.2977572
000370 c7 7d 9b be b2 ca 46 3e a6 29 cf bd 7d 79 aa 3b
       -0.30369398 0.1941326 -0.10115366 0.005202471
000380 66 6e d5 3d 8a e6 1b be 51 52 a3 be 77 ad b2 3e
       0.104214475 -0.15224662 -0.3189874 0.34897968
000390 75 2f 88 bd 2e 28 a2 3e c7 fb 96 be f0 17 18 be
       -0.06649677 0.3167128 -0.29488966 -0.14852881
0003a0 25 ad 85 be 31 1c 86 be 94 cd e0 bd 60 26 8c be
       -0.2610866 -0.26193383 -0.10976711 -0.27373028
0003b0 92 16 a3 3d e4 22 af 3e dc f3 ae 3e 2d 46 bb bc
       0.07963289 0.34206307 0.34170425 -0.02286061
0003c0 e6 72 91 3e da f5 05 bd 6c 69 65 3d f9 25 ff bd
       0.28407973 -0.032705165 0.05600874 -0.124584146
0003d0 5c 7e 9b 3e 2b dc 45 be 13 53 84 be 7c 0d 8e be
       0.30369842 -0.19322269 -0.2584463 -0.27744663
0003e0 ba 29 2d 3c 95 7a 25 3e ed 41 0f be ce bd 15 be
       0.01056903 0.16160043 -0.13989992 -0.14623186
0003f0 f4 0e 56 3a 08 d3 a4 3e a5 12 88 3e c8 6a 43 be
       0.00081656803 0.32192254 0.26576725 -0.19083703

encoder.4.bias f4 [32]
000000 e4 70 6c 3d 50 92 94 bd 07 b2 05 bd 1d 7b 27 3d
       0.05772485 -0.072544694 -0.032640483 0.040888894
000010 f8 0f 23 bd 11 d0 1d bd 05 fb 11 bd d3 37 0c bd
       -0.03981015 -0.038528506 -0.03563978 -0.034232926
000020 1f b5 36 bb e4 75 0e 3d 43 f3 42 3d 50 7b 9b 3c
       -0.0027878953 0.034780398 0.047595274 0.018979698
000030 a1 b5 3a 3d 69 b0 0a bd b9 a5 f0 bc 5a 57 b7 39
       0.04558337 -0.033859644 -0.029375898 0.00034969562
000040 cd 84 19 bd 8a f3 62 3c 59 61 c3 3c c9 c8 fe bc
       -0.037480164 0.01385201 0.02385013 -0.031101601
000050 f8 56 a0 3b e8 fb 0d 3b 6b 0b f1 bc 9d b5 8e 3c
       0.00489318 0.002166504 -0.02942439 0.017420584
000060 fe 2d 0a bd 5b b4 2e 3d 8a d5 58 bc ca 40 f6 3c
       -0.033735268 0.04265247 -0.013234505 0.03006019
000070 3a c0 7c 3c ed 98 50 bd 21 ea 03 3d 43 79 d1 bc
       0.01542669 -0.05092709 0.032205705 -0.025570517

nee_decoder.0.weight f4 [16, 32]
000000 76 57 8c 3e 19 7f 91 be 72 3d 4b be 71 7f 86 be
       0.27410477 -0.2841728 -0.19847658 -0.26269105
000010 a4 4e 8d 3e c7 fb 94 bc 2b 49 e7 3d c2 33 84 3e
       0.2759906 -0.018186463 0.112932526 0.25820738
000020 8d 36 91 3e fb 81 b7 bc a5 7d 10 3e 49 9c 8e 3e
       0.2836193 -0.022400847 0.1411043 0.2785361
000030 e5 84 47 3c 04 29 a1 be f8 12 b8 3e d0 b9 90 bc
       0.012177681 -0.31476605 0.35951972 -0.017666727
000040 27 3e 20 be c2 de 16 be 0b 6b da 3d 36 7b 99 3e
       -0.15648709 -0.14733413 0.10664948 0.29976815
000050 cc f4 1a be 35 f3 ac 3e 85 3e b4 3d aa 81 a1 be
       -0.15132445 0.33779302 0.08800987 -0.31544238
000060 da a7 97 3e e0 71 2e 3e 02 db f1 3e 97 91 af 3e
       0.29620248 0.17035627 0.47237402 0.34290764
000070 d4 2f 93 3d fc 49 09 be 5b 94 62 be 8a 80 d8 bd
       0.07186857 -0.13407129 -0.22126906 -0.10571392
000080 93 e4 fd 3d 87 27 a0 3e 6c 9e 28 3d 97 91 80 3e
       0.12397113 0.31280157 0.041166708 0.25111076
000090 46 14 ca 3c 77 21 0e be c6 0d 21 3e 61 04 a3 3e
       0.02466787 -0.13879953 0.1572791 0.31839278
0000a0 08 56 31 be 4f 6f a7 3e 5a db aa 3e 60 71 d0 be
       -0.17317975 0.3270211 0.33370477 -0.40711498
0000b0 f3 cc 81 bd d9 6b 61 3e 71 3b bd 3d b7 4b 0c be
       -0.06337919 0.22013797 0.09239853 -0.13700758
0000c0 c0 8d 1a 3e 22 e8 01 3f 68 50 af 3e 64 c1 92 3e
       0.15093136 0.5074483 0.34241033 0.2866317
0000d0 bd f1 a4 be e6 9e d3 bc a2 41 2e 3e 45 01 45 3e
       -0.32215682 -0.025832605 0.17017224 0.19238766
0000e0 e6 b8 31 3e 68 0c b3 3d 5e 0d db 3e 7c 3a 87 3e
       0.1735569 0.08742601 0.42783636 0.26411808
0000f0 1b 10 c0 bd b1 85 8e be 76 8a b4 3d 8e d5 c2 be
       -0.09378072 -0.27836373 0.08815472 -0.38053554
000100 87 94 00 bd b4 5e 4a be 3b 93 7f 3e 3b 3d f2 3d
       -0.031391647 -0.19762689 0.24958508 0.11828085
000110 f3 18 9a 3d 72 1d 6e 3e fd 18 a8 be af d0 d9 bd
       0.0752429 0.2325342 -0.32831565 -0.10635506
000120 b9 b1 8c be 3c 8e 7b be 3a 68 48 be d0 ed 96 be
       -0.27479342 -0.24565977 -0.1957101 -0.29478312
000130 d0 23 89 be e7 59 86 3e 66 34 4f 3e ca 34 fb bc
       -0.26785135 0.26240465 0.20234832 -0.03066482
000140 92 25 98 bd 55 6a 0a be a6 cf 4c be 4e 76 78 bd
       -0.07429041 -0.13517125 -0.20001087 -0.0606597
000150 1c 0a 5c be 18 da 4a 3e b0 cd 08 3e 2b 74 e2 ba
       -0.21488231 0.19809759 0.13359714 -0.0017277052
000160 8a 94 45 bc 01 ab 98 3e 34 61 99 bd bc 40 58 be
       -0.01205934 0.29817966 -0.07489243 -0.21118444
000170 9e 5b af 3d 9f b7 25 be df 81 cb bd f4 72 a4 3c
       0.085623965 -0.16183327 -0.0993688 0.020074345
000180 ab 42 e7 bd 2c 34 61 3e 08 b8 3a be d8 77 6e bd
       -0.11292013 0.21992558 -0.18234265 -0.05821976
000190 46 14 a2 3d c6 9c 8f be 80 f3 61 3d 16 6e 6a be
       0.07914023 -0.28049296 0.05516386 -0.22893557
0001a0 92 b5 5b 3e d3 ed ae bd 1d e8 81 bc cb c3 7a be
       0.21455982 -0.08541455 -0.01585775 -0.24488752
0001b0 e4 44 7a be 1f b1 08 3e 54 a6 9e be ee c7 a6 3e
       -0.24440342 0.13348816 -0.30986273 0.3257441
0001c0 ee 8c 5c be 9b 8d 1c 3e 6f 57 a7 3e e8 6e e3 3d
       -0.21538135 0.15288393 0.32683894 0.11105138
0001d0 15 96 0b be aa a6 cd bc b8 8a 71 bd 81 cf 93 3e
       -0.1363147 -0.025103886 -0.058970183 0.2886925
0001e0 2a eb c0 bc 65 ef 1f be 79 cc af be 94 ed 56 3e
       -0.023549635 -0.15618666 -0.34335688 0.20989066
0001f0 69 7d b1 3e ac 81 16 3e 19 58 aa 3e 06 c3 94 3d
       0.34665993 0.14697903 0.33270338 0.0726376
000200 3b b9 2f be ea a1 a1 3e ca a9 1a 3e 88 c0 b7 3e
       -0.17160504 0.31568843 0.15103832 0.35889077
000210 b8 fa ad be f4 10 9d be 66 e2 31 be 63 d6 9c 3e
       -0.33980346 -0.30676997 -0.1737152 0.30632314
000220 8f 1b 23 be 30 86 5b be bc 85 d7 3e 07 40 90 3e
       -0.15928482 -0.21437907 0.4209422 0.2817385
000230 e6 61 52 3e ad 98 84 3e 01 14 90 be bb 92 78 be
       0.20545158 0.25897732 -0.28140262 -0.24274723
000240 8d c5 aa 3e 97 95 81 3e 7e 83 be 3e 00 f7 78 3b
       0.33353844 0.2530944 0.37209696 0.003798902
000250 f7 bb 3b 3d 36 a6 4d be 4b a0 60 3e 1a 55 09 3e
       0.045833554 -0.20082936 0.21936147 0.1341137
000260 ce 70 9b 3e 71 86 fc 3d 46 99 87 3e 26 4f dc bd
       0.303595 0.1233033 0.26484126 -0.10757284
000270 53 46 30 be 46 f5 4d 3e 35 1d 50 bd 8a 07 ba be
       -0.17214327 0.20113096 -0.050809104 -0.36333877
000280 67 40 aa bd c8 74 9c 3d 46 bb 78 3d 53 0c 71 bc
       -0.08313065 0.07639462 0.060725473 -0.014712411
000290 0b 2d 40 bd 26 bb 82 be ae b6 fc 3d 53 bb d1 3d
       -0.046917956 -0.25533408 0.12339531 0.102408074
0002a0 a1 06 a2 3e da 5f 8b 3e af 33 0f be 66 13 83 3c
       0.31645682 0.27221566 -0.1398456 0.01600046
0002b0 c0 2b 79 be db 88 86 be 81 7e 37 be 0b a6 60 3e
       -0.24333096 -0.26276287 -0.17919351 0.2193834
0002c0 59 02 1b 3e 4c 8a aa 3e fc b6 87 bb 4b e7 50 be
       0.15137614 0.33308637 -0.0041416865 -0.20400731
0002d0 58 27 8d be a4 b3 9c be d7 39 8d bd f9 44 ab be
       -0.2756908 -0.30605805 -0.06895798 -0.3345106
0002e0 2b c1 a3 3e c3 63 0c be 3c bc dd 3c 88 c9 16 3e
       0.31983313 -0.13709931 0.027067296 0.14725316
0002f0 48 c0 82 3e 97 5e 49 be d3 6b 81 be c1 47 1f be
       0.25537324 -0.1966499 -0.25277576 -0.15554716
000300 1d 92 85 3e f0 99 c8 3d 8b c0 9e 3e f7 97 02 bd
       0.26088038 0.09794986 0.31006274 -0.031883206
000310 e1 84 37 be 03 90 a6 be 2c 59 6e 3d 05 75 45 3e
       -0.17921783 -0.32531747 0.05819051 0.1928292
000320 f9 14 ac 3d 39 84 77 be e7 e4 7d bd a7 65 38 3e
       0.08402438 -0.24171533 -0.061985876 0.18007527
000330 c2 81 9f bd fb c8 af 3d 64 63 1c 3e 27 c5 b0 3c
       -0.07788421 0.08583256 0.1527229 0.021578385
000340 e6 df a0 be 81 a1 10 3e b0 14 08 be bc f8 af be
       -0.3142082 0.14124109 -0.13289142 -0.34369457
000350 ee a0 b1 3d c2 2f 10 be db a9 79 be 75 4f a6 3e
       0.08673273 -0.14080718 -0.24381201 0.32482496
000360 80 b1 58 3e 53 f7 b2 3d d3 cb aa be 9b ec 82 be
       0.21161461 0.087385796 -0.3335863 -0.2557114
000370 a0 dc 81 3d 77 33 00 be aa f7 f8 3d a8 e0 b4 be
       0.06340909 -0.12519632 0.12156613 -0.3532765
000380 ba 00 9e be 19 c6 aa be 3c 2b 3f be 4c de 95 3e
       -0.3085993 -0.33354262 -0.18668836 0.29271162
000390 97 9c 0b be 10 e0 72 3e 59 ed eb 3d 76 ae b1 3e
       -0.13633953 0.23718286 0.1151988 0.34703416
0003a0 5d 31 ab 3e f7 db 1e 3d fa 0a 8d be bc 21 8c 3c
       0.334361 0.038783994 -0.27547437 0.01710593
0003b0 e4 87 7e bb ad 5a a6 be e4 cd 04 3e b0 30 59 3c
       -0.0038838321 -0.32491055 0.12969166 0.013256237
0003c0 f2 0b 50 3e d4 5a dd bb 0f 0e 9e 3e 76 37 99 be
       0.20317057 -0.0067552123 0.308701 -0.29925126
0003d0 ae f9 9f be a7 ed 8b 3d 85 08 cc 3d 00 e2 61 3d
       -0.31245178 0.06832438 0.099625625 0.05514717
0003e0 b8 0c 8f be 71 7b 53 be d8 4d a1 be a3 f2 e5 3b
       -0.2793939 -0.20652558 -0.31504703 0.00701745
0003f0 c4 51 23 3e f1 c1 d3 bd 36 7e 17 3e ec 48 8f 3e
       0.1594916 -0.10339726 0.1479424 0.27985322

nee_decoder.0.bias f4 [16]
000000 51 50 d1 3c 59 e9 6f 3d f4 d3 a6 bc 00 00 00 00
       0.025550993 0.058572147 -0.020364739 0.0
000010 1e 5f 1b 3c 00 00 00 00 00 00 00 00 00 00 00 00
       0.009483127 0.0 0.0 0.0
000020 00 00 00 00 de 47 99 3c 0d fe 8f bc 00 00 00 00
       0.0 0.018711027 -0.017577196 0.0
000030 70 bb b4 bc 92 c2 1c 3d 2b bc 14 bc 4d b6 4f bc
       -0.022062033 0.038271494 -0.009078066 -0.012677741

nee_decoder.2.weight f4 [16, 16]
000000 c7 c6 28 be 8d 72 36 3f f6 02 49 3d 27 c2 7e bd
       -0.16482078 0.7126854 0.04907509 -0.062196877
000010 42 73 d5 bd 7e 9a 62 3d 08 41 9a 3e d1 cd 87 be
       -0.10422374 0.055323116 0.3012774 -0.26524213
000020 ae ff a3 be c7 97 de 3e 70 d5 f7 bd 7a 9d 2d be
       -0.32031006 0.43475172 -0.12101257 -0.16954604
000030 07 b6 14 be f9 37 46 3d d7 e9 ba be 2b f3 f5 bd
       -0.14522563 0.048393223 -0.3650653 -0.12009271
000040 16 0a 44 3e 2c b1 b8 3b ef ff 91 be 6a e3 b2 3e
       0.19144472 0.005636355 -0.28515574 0.34939128
000050 f4 9e 1b be 15 e7 cc be c7 59 fd bd 31 9d 95 3e
       -0.15197355 -0.40020052 -0.12370639 0.2922149
000060 ca 0d ac 3e 96 65 a2 3d 17 c3 fb 3d 10 f6 ae 3e
       0.3360427 0.07929532 0.1229307 0.34172106
000070 ad 35 1d be af 29 d6 3e c5 d3 eb bc 74 c4 b0 3e
       -0.15352507 0.41828677 -0.028787503 0.34524882
000080 ac 19 1a be 0f 92 0b bf 9a 94 dd be b5 a2 82 3e
       -0.15048856 -0.5451974 -0.43277436 0.2551476
000090 7a 06 40 3e 85 56 23 be 92 07 12 be 82 18 3b bd
       0.1875247 -0.15950973 -0.142607 -0.04567767
0000a0 62 24 a6 be fe e6 50 3c eb c9 94 be 28 04 8c be
       -0.32449633 0.012750385 -0.290603 -0.2734692
0000b0 60 d8 43 bc 04 c4 6c 3e 2f 82 44 be 14 f7 9b 3d
       -0.011953443 0.23121649 -0.19190286 0.07615486
0000c0 70 24 c5 be 07 28 9e 3e f0 35 28 bd 32 15 b1 be
       -0.38504362 0.30889913 -0.041067064 -0.34586483
0000d0 7a 15 a9 3e e4 5a cf 3e f3 4e 7a 3b 0c 92 87 bd
       0.33024198 0.40499032 0.003819403 -0.06619653
0000e0 a3 c7 9a 3e 06 fd e7 3d 9b ed c4 3e 29 ca 93 bd
       0.30230436 0.11327557 0.3846253 -0.07216293
0000f0 be 28 77 3e b8 7b a3 be 1e 0d 17 bd 86 9e c9 be
       0.24136636 -0.31930327 -0.036877744 -0.39378756
000100 c9 e1 60 3d f1 77 25 bf e6 49 26 3e 00 c6 1f 3e
       0.054902826 -0.6463614 0.16239128 0.15602875
000110 04 0f 41 3e 1a b6 2f 3e 31 e2 2d 3e bf 2d d1 be
       0.18853384 0.1715931 0.16980816 -0.40855214
000120 78 7f 1e be aa ce c2 be 88 6d aa 3e 54 db 1a be
       -0.15478313 -0.38048297 0.3328669 -0.1512273
000130 29 0e ba 3d b5 82 25 3e ed 05 3d be e9 bc 24 bd
       0.09084732 0.16163142 -0.18459292 -0.04021922
000140 d0 3f a3 bc af c0 2c bf 98 f5 bd 3e 4c 1d c6 be
       -0.01992789 -0.6748151 0.37101436 -0.38694227
000150 7c e4 23 be 0b 62 d4 be 4d cb 40 be 45 f4 61 bd
       -0.16005129 -0.4148105 -0.18827553 -0.055164594
000160 11 02 98 3d 40 53 6a be 84 e9 af bd 69 d0 d2 3e
       0.07422269 -0.2288332 -0.085894614 0.4117463
000170 fc 94 55 3e 65 72 ce 3e 73 67 bd be 64 c7 23 be
       0.20857614 0.4032165 -0.36992988 -0.1599403
000180 f5 3f 8d be 71 87 0f be db 7a 48 be fe b0 8a 3e
       -0.27587858 -0.1401651 -0.19578116 0.2708816
000190 a7 56 5e 3a e6 a2 cf 3e 31 d3 6a 3e 3b 13 19 3e
       0.000848154 0.4055397 0.22932126 0.14948742
0001a0 52 50 18 3e 59 4b dd 3d e7 1f d7 3e 16 b9 95 3e
       0.1487439 0.10805387 0.42016527 0.29242772
0001b0 b8 65 da be b6 3f 05 bd 8a 04 0d 3e 99 c8 c8 3e
       -0.4265573 -0.032531463 0.13771263 0.39215544
0001c0 27 71 88 3e cc 24 0f 3f 83 4c 73 3e 99 71 96 be
       0.26648828 0.5591552 0.23759656 -0.29383543
0001d0 3c 7b d6 3e 7c f4 db 3d b8 b5 a4 3d a8 a8 b2 3e
       0.41890895 0.10739991 0.080424726 0.348943
0001e0 6b b2 43 3e 14 e4 cb be 36 e7 10 be 36 f1 99 be
       0.1911103 -0.39822447 -0.141507 -0.30066842
0001f0 3e 63 85 be bb 58 d8 3e 2c 9b a7 be 41 20 ac be
       -0.26052278 0.42255196 -0.32735574 -0.33618358
000200 bf 21 be 3e 52 45 b6 3d cb d6 80 bd d0 2e b9 3e
       0.3713512 0.088999406 -0.062909685 0.36168528
000210 2a 30 0a 3e da 87 75 bd 6e e7 ba 3e a9 0e 88 be
       0.13494936 -0.05994401 0.36504692 -0.26573685
000220 41 97 c4 bd 76 7d b2 bd 06 0e 39 3d 62 46 97 3d
       -0.09599162 -0.08715336 0.04517939 0.07386471
000230 53 57 cb be e3 14 62 bc e6 a0 7d be a5 30 81 3e
       -0.3971506 -0.013798925 -0.24768409 0.25232425
000240 7a 70 4b be 2a 03 4d bc 67 af a4 3e b4 64 88 be
       -0.19867125 -0.012512961 0.3216507 -0.2663933
000250 f6 30 8d be 6c 81 7a be 71 3e 1d be 61 89 6d 3d
       -0.27576417 -0.24463433 -0.15355851 0.057992343
000260 e4 58 ae 3c 9a 1e 1a 3e 13 79 b8 be b3 a3 b7 be
       0.02128262 0.15050736 -0.36029872 -0.3586708
000270 f6 5a e2 3e c4 e2 c5 bd b5 37 6a be 88 76 b5 bd
       0.44210023 -0.09662393 -0.22872813 -0.08860499
000280 57 fc c0 be c3 54 9a be 8d 69 a3 3e 28 45 e3 bd
       -0.3769252 -0.30142793 0.31916466 -0.11097175
000290 e4 23 ea bd 93 95 d9 be b8 ac da 3e 62 01 3b 3e
       -0.11432627 -0.4249693 0.427099 0.18262246
0002a0 78 e4 38 be e3 9e 84 3e 35 27 b5 be 55 e2 1e be
       -0.18055904 0.2590247 -0.35381475 -0.15516026
0002b0 cb 2b 9c 3d bd d0 3a be 02 4f e6 b9 e6 c3 3d be
       0.0762554 -0.1824369 -0.00043927884 -0.1853176
0002c0 9f 3e 37 3e 69 53 27 3e 84 86 cf be c8 98 32 bd
       0.17894982 0.16340412 -0.40532315 -0.043602735
0002d0 75 98 a7 be 4e 76 b0 3e e4 03 63 be fa 03 b5 be
       -0.32733503 0.3446526 -0.22169453 -0.35354596
0002e0 fd 3d 42 be 62 f9 75 be 78 09 cc be dd 24 97 be
       -0.18968959 -0.24020913 -0.39850974 -0.29520312
0002f0 13 61 61 3e 78 26 6b be 96 4f d8 be a5 d2 3a be
       0.22009687 -0.22963893 -0.4224822 -0.18244417
000300 bf 94 b1 be 79 19 a2 be d4 26 4e 3d c0 ca ef bd
       -0.34683797 -0.3166006 0.050329998 -0.11708593
000310 54 6f d4 be 96 65 f2 bd 63 ea 93 3e 22 c0 cd be
       -0.41491187 -0.11835782 0.2888976 -0.40185648
000320 28 08 4c be 4a a1 31 3e ed ab b8 3e 7b 38 54 bd
       -0.19924986 0.17346683 0.3606867 -0.051811676
000330 44 e8 bf bd b6 bf 86 be c0 1f 93 3e e7 a4 39 3e
       -0.09370473 -0.2631814 0.2873516 0.18129312
000340 df f9 f6 3c b0 01 87 3e 90 93 35 be 97 d2 81 bd
       0.030148445 0.26368475 -0.17732072 -0.06338995
000350 6e 76 42 3e e5 0b 04 be 79 3b ae 3d 4a 55 66 3c
       0.1899049 -0.12895162 0.08507437 0.01405842
000360 6d d2 b2 3d 36 04 a5 bd 53 14 e6 3e 4f 22 41 3e
       0.08731542 -0.08057444 0.4493738 0.18860744
000370 b7 4e 65 be 2b 80 e1 3e 38 d8 5a be 7d e2 cb bd
       -0.22393309 0.44043097 -0.21371543 -0.099553086
000380 68 c1 8d 3e 2b 65 12 3f 0a c9 df 3e d4 e4 5e be
       0.2768662 0.5718562 0.43708068 -0.21766979
000390 b6 4d 8c be 4d 59 a7 3e 3b b9 83 be d5 b4 15 be
       -0.2740304 0.3268532 -0.25727257 -0.14619763
0003a0 f3 17 20 bd 12 07 9e 3e af 8d 63 3e 64 cb 92 3e
       -0.03908534 0.3086477 0.22222017 0.286708
0003b0 fd de 20 3e b0 7f ae bd 72 52 cf 3e e9 74 49 ba
       0.15710063 -0.08520448 0.40492588 -0.00076849625
0003c0 73 94 d6 be fd 66 db be be 34 77 3e 58 cc fc bb
       -0.41910133 -0.4285201 0.24141213 -0.0077147894
0003d0 81 37 95 3e 99 ad ab bd a2 33 d4 3d b3 2b fc 3c
       0.2914391 -0.083827205 0.10361411 0.030782556
0003e0 99 95 a3 3e 3c fa 17 be 64 87 4a be e5 e0 b0 3e
       0.3195007 -0.1484155 -0.1977821 0.3454658
0003f0 30 e2 9d 3e 3e 69 bb 3e ef b0 0a 3e 1d bb c1 3b
       0.3083663 0.3660373 0.13544057 0.005912198

nee_decoder.2.bias f4 [16]
000000 27 25 c2 3c 57 a2 bd 3c a2 c9 b5 bc dd 34 c6 bb
       0.023699356 0.023148699 -0.022190873 -0.0060487823
000010 93 e0 91 bc 71 87 bb bc 00 00 00 00 6e ac bd 3c
       -0.01780728 -0.022891732 0.0 0.02315351
000020 d3 01 a4 bc e6 05 be 3c 00 00 00 00 c3 c5 0e bd
       -0.020020401 0.023196172 0.0 -0.03485657
000030 00 00 00 00 7b 26 bd 3c 8b 78 bf 3c 08 1c bb bc
       0.0 0.023089638 0.023372909 -0.022840515

nee_decoder.4.weight f4 [1, 16]
000000 0d 28 06 3e a8 0b 03 3e 3e c1 4a bd c6 47 5a be
       0.13101216 0.12797415 -0.049500696 -0.21316442
000010 20 b8 0b bf cc b4 ac be 7b 66 03 bc 9e c1 fd 3e
       -0.5457783 -0.33731687 -0.008020039 0.4956178
000020 50 43 38 be e4 c6 fe 3d c4 67 f1 3e b7 52 eb be
       -0.17994428 0.12440279 0.4714948 -0.45961544
000030 1a af 5f 3e 52 6e ae 3e af 3f 4c 3e 20 d5 7c be
       0.2184414 0.34068543 0.19946168 -0.24690676

fc_mu.0.weight f4 [4, 32]
000000 28 73 15 3e ad 8c a8 3e f8 21 1d be 42 39 64 3e
       0.1459471 0.32919827 -0.1534499 0.22287467
000010 02 c6 66 be ef 33 26 3e 76 8e af be 68 a4 7c 3e
       -0.22536471 0.16230749 -0.34288377 0.24672091
000020 6c 82 ce bc a6 8c d0 be 23 96 85 3e 62 57 75 be
       -0.025208674 -0.40732306 0.26091108 -0.23959115
000030 0f 99 b9 3e 0f 38 bf 3d 50 92 b9 3e f1 28 ad 3e
       0.36249587 0.09336864 0.3624444 0.33820298
000040 9d 31 cb 3e 79 9d fa 3d b4 a0 bd 3c 37 da 5e 3e
       0.3968629 0.12237067 0.023147918 0.2176293
000050 7d 45 9c be 17 90 87 bd 60 89 b7 3d 9e 2f 92 3e
       -0.30521765 -0.0661928 0.08961749 0.28551954
000060 6d 28 95 3e e8 0b f1 bd 52 45 39 3d c7 4b ac be
       0.29132405 -0.11769849 0.045232125 -0.33651564
000070 51 96 62 bd 1e 7f 09 3d 57 c9 c7 be 17 ee 67 be
       -0.055319134 0.033568494 -0.39020798 -0.22649418
000080 06 87 54 3d 2e 1b b8 3e af 61 b5 3d c9 09 29 be
       0.05188658 0.35958236 0.08856522 -0.16507639
000090 c9 33 8f be c4 32 88 bc 2d bb a0 3d 3b e0 b2 3e
       -0.27969196 -0.01662577 0.07848201 0.349367
0000a0 cb 3d 8f be 7a db 52 bd 5e b2 50 3e 48 c4 89 be
       -0.27976832 -0.05147884 0.20380542 -0.26907563
0000b0 45 74 92 3b 45 d6 7f be 9e 56 b6 be 3a b1 bc be
       0.004469427 -0.24984081 -0.3561296 -0.36853963
0000c0 c9 13 b0 3e fc be 7d 3e 11 00 cf 3d 3b cc 76 be
       0.34390095 0.24779886 0.101074345 -0.24101345
0000d0 cf 6a a4 be cf 6e ff 3d 84 eb dd bc 48 4a 5d be
       -0.32112738 0.12472307 -0.027089842 -0.21610367
0000e0 80 32 3b be 77 5e ba be 3c bd ec bd 61 6b c0 3d
       -0.18280983 -0.36400196 -0.11559531 0.09395481
0000f0 58 f6 a8 3d 5a 7f b0 bd 7d f3 9b 3d b0 4f 93 be
       0.08250111 -0.086180404 0.07614801 -0.28771734
000100 ec 9d c7 3e 40 d6 ce be c3 f5 c3 3e a1 a7 c5 3e
       0.38987672 -0.40397835 0.3827344 0.38604453
000110 b3 d5 14 3e 81 6d 89 be c8 67 41 3e d9 67 b7 be
       0.14534645 -0.26841357 0.18887246 -0.35821417
000120 64 7b 45 be 1b 3c 8f be 5c 6e 55 be 5d c8 b8 3e
       -0.19285351 -0.27975544 -0.2084288 0.36090365
000130 ae 14 7b 3e a0 05 9e be 0a 5b 8e be 5c 61 22 3e
       0.24519607 -0.30863667 -0.27803832 0.15857452
000140 19 e6 32 be 9d 2a 36 bc fa 44 86 be a8 99 12 bd
       -0.17470588 -0.011118558 -0.262245 -0.03579107
000150 d7 f6 da bc e4 80 69 bd 42 b4 79 be 19 fc b1 3e
       -0.02672903 -0.057007685 -0.24385169 0.34762648
000160 9a 19 b3 be f5 1d 94 be 41 5c fa bd 30 79 aa 3e
       -0.3498047 -0.28929105 -0.12224627 0.33295584
000170 d7 95 0e 3e 78 d5 be bd e4 54 a2 3e 1b 21 e0 3d
       0.13924347 -0.0931806 0.3170539 0.10943814
000180 cc 62 9f be 80 3b 86 3e 8a 77 c7 3e 8b 80 2b be
       -0.31130064 0.2621727 0.3895839 -0.16748254
000190 82 07 3f 3e b5 6f 84 be e1 b6 08 3e 31 a9 5e 3e
       0.18655208 -0.25866476 0.13351013 0.21744229
0001a0 79 69 08 3e 52 27 65 be d2 af a5 be 0c c2 d6 bd
       0.13321485 -0.22378281 -0.32360703 -0.1048623
0001b0 61 f3 d1 bd ae 0b be 3e 53 72 80 3d 92 8a bd be
       -0.10251499 0.37118286 0.062718056 -0.37019783
0001c0 55 77 8e bd 67 28 a7 be 6e b2 b5 bd 19 f5 ee 3d
       -0.069563545 -0.32648012 -0.088719234 0.116678424
0001d0 04 fb ba 3e bc 28 d5 be 2e 34 8e 3d 5b ae 1d be
       0.36519635 -0.4163264 0.06943546 -0.15398543
0001e0 14 c3 5d bd 25 ce c3 3d 8f 6f 40 3d 38 e2 b8 3d
       -0.05414112 0.09560803 0.04698139 0.09027523
0001f0 33 6b c4 be cd 5f a9 be e0 76 cd 3d 67 cb 88 bd
       -0.38363037 -0.33080903 0.10032439 -0.06679421

fc_mu.0.bias f4 [4]
000000 00 00 00 00 fb ba c7 3b 00 00 00 00 a2 6c 88 bc
       0.0 0.006095288 0.0 -0.016653363

fc_mu.2.weight f4 [1, 4]
000000 a4 ed 7e 3f 57 dd ba 3d b2 17 24 bf d4 77 72 bd
       0.9958136 0.091242485 -0.64098656 -0.05919631

fc_logvar.0.weight f4 [4, 32]
000000 28 73 15 3e ad 8c a8 3e f8 21 1d be 42 39 64 3e
       0.1459471 0.32919827 -0.1534499 0.22287467
000010 02 c6 66 be ef 33 26 3e 76 8e af be 68 a4 7c 3e
       -0.22536471 0.16230749 -0.34288377 0.24672091
000020 6c 82 ce bc a6 8c d0 be 23 96 85 3e 62 57 75 be
       -0.025208674 -0.40732306 0.26091108 -0.23959115
000030 0f 99 b9 3e 0f 38 bf 3d 50 92 b9 3e f1 28 ad 3e
       0.36249587 0.09336864 0.3624444 0.33820298
000040 9d 31 cb 3e 79 9d fa 3d b4 a0 bd 3c 37 da 5e 3e
       0.3968629 0.12237067 0.023147918 0.2176293
000050 7d 45 9c be 17 90 87 bd 60 89 b7 3d 9e 2f 92 3e
       -0.30521765 -0.0661928 0.08961749 0.28551954
000060 6d 28 95 3e e8 0b f1 bd 52 45 39 3d c7 4b ac be
       0.29132405 -0.11769849 0.045232125 -0.33651564
000070 51 96 62 bd 1e 7f 09 3d 57 c9 c7 be 17 ee 67 be
       -0.055319134 0.033568494 -0.39020798 -0.22649418
000080 06 87 54 3d 2e 1b b8 3e af 61 b5 3d c9 09 29 be
       0.05188658 0.35958236 0.08856522 -0.16507639
000090 c9 33 8f be c4 32 88 bc 2d bb a0 3d 3b e0 b2 3e
       -0.27969196 -0.01662577 0.07848201 0.349367
0000a0 cb 3d 8f be 7a db 52 bd 5e b2 50 3e 48 c4 89 be
       -0.27976832 -0.05147884 0.20380542 -0.26907563
0000b0 45 74 92 3b 45 d6 7f be 9e 56 b6 be 3a b1 bc be
       0.004469427 -0.24984081 -0.3561296 -0.36853963
0000c0 c9 13 b0 3e fc be 7d 3e 11 00 cf 3d 3b cc 76 be
       0.34390095 0.24779886 0.101074345 -0.24101345
0000d0 cf 6a a4 be cf 6e ff 3d 84 eb dd bc 48 4a 5d be
       -0.32112738 0.12472307 -0.027089842 -0.21610367
0000e0 80 32 3b be 77 5e ba be 3c bd ec bd 61 6b c0 3d
       -0.18280983 -0.36400196 -0.11559531 0.09395481
0000f0 58 f6 a8 3d 5a 7f b0 bd 7d f3 9b 3d b0 4f 93 be
       0.08250111 -0.086180404 0.07614801 -0.28771734
000100 ec 9d c7 3e 40 d6 ce be c3 f5 c3 3e a1 a7 c5 3e
       0.38987672 -0.40397835 0.3827344 0.38604453
000110 b3 d5 14 3e 81 6d 89 be c8 67 41 3e d9 67 b7 be
       0.14534645 -0.26841357 0.18887246 -0.35821417
000120 64 7b 45 be 1b 3c 8f be 5c 6e 55 be 5d c8 b8 3e
       -0.19285351 -0.27975544 -0.2084288 0.36090365
000130 ae 14 7b 3e a0 05 9e be 0a 5b 8e be 5c 61 22 3e
       0.24519607 -0.30863667 -0.27803832 0.15857452
000140 19 e6 32 be 9d 2a 36 bc fa 44 86 be a8 99 12 bd
       -0.17470588 -0.011118558 -0.262245 -0.03579107
000150 d7 f6 da bc e4 80 69 bd 42 b4 79 be 19 fc b1 3e
       -0.02672903 -0.057007685 -0.24385169 0.34762648
000160 9a 19 b3 be f5 1d 94 be 41 5c fa bd 30 79 aa 3e
       -0.3498047 -0.28929105 -0.12224627 0.33295584
000170 d7 95 0e 3e 78 d5 be bd e4 54 a2 3e 1b 21 e0 3d
       0.13924347 -0.0931806 0.3170539 0.10943814
000180 cc 62 9f be 80 3b 86 3e 8a 77 c7 3e 8b 80 2b be
       -0.31130064 0.2621727 0.3895839 -0.16748254
000190 82 07 3f 3e b5 6f 84 be e1 b6 08 3e 31 a9 5e 3e
       0.18655208 -0.25866476 0.13351013 0.21744229
0001a0 79 69 08 3e 52 27 65 be d2 af a5 be 0c c2 d6 bd
       0.13321485 -0.22378281 -0.32360703 -0.1048623
0001b0 61 f3 d1 bd ae 0b be 3e 53 72 80 3d 92 8a bd be
       -0.10251499 0.37118286 0.062718056 -0.37019783
0001c0 55 77 8e bd 67 28 a7 be 6e b2 b5 bd 19 f5 ee 3d
       -0.069563545 -0.32648012 -0.088719234 0.116678424
0001d0 04 fb ba 3e bc 28 d5 be 2e 34 8e 3d 5b ae 1d be
       0.36519635 -0.4163264 0.06943546 -0.15398543
0001e0 14 c3 5d bd 25 ce c3 3d 8f 6f 40 3d 38 e2 b8 3d
       -0.05414112 0.09560803 0.04698139 0.09027523
0001f0 33 6b c4 be cd 5f a9 be e0 76 cd 3d 67 cb 88 bd
       -0.38363037 -0.33080903 0.10032439 -0.06679421

fc_logvar.0.bias f4 [4]
000000 00 00 00 00 fb ba c7 3b 00 00 00 00 a2 6c 88 bc
       0.0 0.006095288 0.0 -0.016653363

fc_logvar.2.weight f4 [1, 4]
000000 e1 bf c9 be a3 21 84 bf e0 2f 2f 3f c0 2a fd be
       -0.39404204 -1.0322765 0.68432426 -0.49446678
