.archive/piae_sde/experiments/PIAE_sampling_night_best/best_model.pth (torch, 25122 bytes, 28 tensors)

encoder.0.weight f4 [16, 18]
0	0xbc44cc82	-0.012011649
1	0xbe7e080a	-0.24807754
2	0x3f0ad1b7	0.5422625
3	0xbce4215a	-0.027847935
4	0xbd03e004	-0.03219606
5	0xbccdec04	-0.025136955
6	0x3d993699	0.07481117
7	0xbee5ed25	-0.4490749
8	0xbef7ebab	-0.48421988
9	0xbdb81a28	-0.08989364
10	0x3de7db48	0.113211215
11	0xbe2f8bfc	-0.17143244
12	0x3d0eee30	0.034895122
13	0x3f261445	0.6487468
14	0xbe4e51a1	-0.20148326
15	0x3e91bfe1	0.28466704
16	0x3e14cfa2	0.1453233
17	0xbeba537e	-0.36391824
18	0xbefcab9d	-0.4934968
19	0x3e02140b	0.12702958
20	0xbe587745	-0.21139248
21	0xbe02112e	-0.12701866
22	0xbec8642a	-0.3913892
23	0xbe84082c	-0.25787485
24	0xbea6b992	-0.32563454
25	0x3e4c29c6	0.1993781
26	0x3ee39168	0.44446874
27	0xbe84d2b1	-0.25941995
28	0xbdfa5775	-0.12223712
29	0xbe1044c3	-0.1408873
30	0x3e3d9e76	0.1851748
31	0xbdf475ad	-0.119365074
32	0xbdfab81f	-0.122421496
33	0xbdfd5fd4	-0.123717934
34	0x3e4d211e	0.20032164
35	0x3c11efdf	0.008907287
36	0x3e7850a3	0.2424951
37	0xbe55f75f	-0.20895146
38	0x3ebf340b	0.37344393
39	0x3de314ef	0.11087977
40	0xbf25fb44	-0.64836526
41	0xbeaa7cff	-0.3329849
42	0xbe0ecaec	-0.13944596
43	0xbefcfff7	-0.49414036
44	0x3dd4db17	0.103933506
45	0xbf95b473	-1.1695694
46	0xbcc70481	-0.02429414
47	0x3e693ebc	0.22777838
48	0xbd0aa34a	-0.03384713
49	0xbf884f2a	-1.0649159
50	0xbdbb7653	-0.09153428
51	0xbe9843a7	-0.29739115
52	0x3cccd61c	0.025004439
53	0x3ee1229c	0.43971717
54	0x3ee6eaf2	0.45101124
55	0x3ecdcdd1	0.40196088
56	0xbd973623	-0.07383373
57	0xbd2eaa02	-0.0426426
58	0x3e0150c2	0.12628463
59	0x3f0716d7	0.52769226
60	0x3d9ca615	0.07648865
61	0xbe6009a4	-0.21878678
62	0xbeec0b45	-0.46102348
63	0x3caf00da	0.02136271
64	0x3d4d0dc4	0.050061956
65	0x3e8ff90c	0.28119695
66	0xbe7bf704	-0.24605948
67	0xbf478e2a	-0.779513
68	0xbeddf763	-0.43352804
69	0x3dfc5078	0.12320036
70	0x3e4fd723	0.20296912
71	0x3eb554b1	0.35416177
72	0xbcc2d614	-0.023783721
73	0x3f0b632d	0.54448205
74	0xbf102384	-0.5630419
75	0xbf091743	-0.5355112
76	0xbe613c5f	-0.21995686
77	0x3ec34b67	0.38143465
78	0xbe2f2758	-0.17104852
79	0x3ea19e92	0.31566292
80	0x3e7f02ab	0.24903361
81	0xbf0c9998	-0.54921865
82	0xbdcb5112	-0.09927572
83	0xbd2e18b3	-0.042504024
84	0xbed05c1b	-0.4069527
85	0x3eed6684	0.46367276
86	0xbdfd87d3	-0.12379422
87	0x3f132166	0.57472837
88	0xbb9aebe2	-0.0047278265
89	0x3e786ef0	0.2426107
90	0xbe85db9b	-0.26144108
91	0xbd01a553	-0.031651806
92	0xbe099bf5	-0.13438399
93	0xbe6d1485	-0.23152359
94	0x3e25330b	0.16132753
95	0xbdd126bc	-0.10212466
96	0x3e6f7535	0.23384555
97	0x3e86157e	0.26188272
98	0x3e95c40f	0.29251143
99	0xbf237ee3	-0.6386549
100	0xbe93bf93	-0.28857097
101	0x3c057130	0.008144662
102	0x3f212582	0.6294786
103	0x3d8b6156	0.06805675
104	0xbedd2261	-0.43190292
105	0xbf37dec3	-0.7182428
106	0xbe112680	-0.14174843
107	0xbe956ac4	-0.29183018
108	0xbe53d80f	-0.20687889
109	0xba6e19b7	-0.00090828113
110	0xbdf5a156	-0.11993663
111	0x3e979b24	0.2961055
112	0xbd539c16	-0.051662527
113	0x3d962265	0.07330779
114	0x3ce9b8ef	0.028530566
115	0xbe8c6e9f	-0.27428147
116	0x3ed5c6a1	0.41753104
117	0xbf12c553	-0.5733234
118	0xbc1fcf93	-0.009754079
119	0xbe497506	-0.19673547
120	0x3cc91f5a	0.024551082
121	0xbeb82f07	-0.3597338
122	0xbe17542b	-0.14778201
123	0x3e8059f3	0.25068626
124	0xbd351679	-0.044210885
125	0x3d4bf17b	0.04979084
126	0xbedc630b	-0.43044314
127	0x3e1e776f	0.15475248
128	0x3e5e7d19	0.21727408
129	0x3e8b3f83	0.27196893
130	0xbcfb52f6	-0.030679207
131	0x3ec7b35f	0.39004037
132	0xbe544e5e	-0.2073302
133	0xbf1ea18b	-0.61965245
134	0x3e4d29fe	0.2003555
135	0xbe1c0090	-0.1523459
136	0xbd1fb2e6	-0.03898897
137	0x3efe5038	0.49670577
138	0x3d5512ad	0.052019764
139	0xbe871074	-0.2637974
140	0x3ee77340	0.45205116
141	0xbe9d69eb	-0.30744871
142	0x3e7168ee	0.23575184
143	0x3df946fb	0.121717416
144	0x3e911b99	0.28341368
145	0x3e855595	0.26041856
146	0xbf0831e0	-0.53201103
147	0xbf16b73c	-0.58873343
148	0xbed5e15e	-0.41773504
149	0x3f10a471	0.5650092
150	0xbe171d1b	-0.14757197
151	0x3e9d9b0a	0.30782348
152	0xbef0845c	-0.46975982
153	0xbebbcca8	-0.36679578
154	0xbd8b1348	-0.06790787
155	0xbe1496bd	-0.14510627
156	0xbf409727	-0.7523064
157	0x3e0f9571	0.14021851
158	0xbe798fb7	-0.24371229
159	0xbec4d944	-0.3844701
160	0x3df3f26a	0.11911471
161	0x3e8f6e88	0.28014016
162	0xbec1fdeb	-0.37889037
163	0xbe3f8cab	-0.18706004
164	0x3ed41e0f	0.41429183
165	0x3eb17970	0.34662962
166	0x3d81de57	0.06341236
167	0x3eb4a96a	0.35285503
168	0xbe753dc8	-0.23949349
169	0x3e850990	0.25983858
170	0x3cef4f92	0.029212747
171	0xbebb40db	-0.36572918
172	0xbd3e0224	-0.04638876
173	0xbf19912e	-0.5998715
174	0xbe92e213	-0.28688106
175	0xbe65f757	-0.22457634
176	0xbf0345ba	-0.5127827
177	0x3e9dba50	0.30806208
178	0xbeb40578	-0.35160422
179	0xbed62c1a	-0.41830522
180	0xbc52fd44	-0.012877766
181	0xbe6eb574	-0.23311406
182	0xbc6ffcf6	-0.014647713
183	0xbf3b00c4	-0.73048043
184	0xbe8b8318	-0.27248454
185	0x3e496664	0.19667965
186	0xbe0a1abb	-0.1348676
187	0x3d91e4c1	0.071237095
188	0x3d9b0756	0.075697586
189	0x3c0ae550	0.008477524
190	0xbe01ea66	-0.12687072
191	0xbe9abfea	-0.30224544
192	0x3ee54614	0.44780028
193	0x3e938ff0	0.28820753
194	0x3e5789ac	0.21048611
195	0xbd8d5ac4	-0.06902078
196	0xbea47808	-0.32122827
197	0x3edb935a	0.42885858
198	0x3e5b8ff7	0.21441637
199	0xbe0e582d	-0.13900824
200	0x3eb2bd8e	0.34910244
201	0x3e8bc82a	0.2730115
202	0x3e01494e	0.1262562
203	0xbe3c8ddd	-0.18413492
204	0xbf2c8046	-0.6738323
205	0xbe3b8bd1	-0.18315054
206	0x3e375074	0.17901784
207	0x3e77be58	0.24193704
208	0x3c06cf6c	0.008228164
209	0xbf0087a6	-0.50206983
210	0x3edf6597	0.43632194
211	0xbf06eb95	-0.5270322
212	0x3e5cf30f	0.21577094
213	0xbd6f6364	-0.058444396
214	0x3eebf390	0.4608426
215	0xbec212ec	-0.3790506
216	0x3efba47a	0.49148923
217	0x3e9f930b	0.31166872
218	0x3efa74da	0.48917276
219	0xbe2cb6c4	-0.16866595
220	0xbccd1fa8	-0.025039509
221	0xbdf263ca	-0.118354395
222	0xbf2f616f	-0.68508047
223	0x3f03c53e	0.5147284
224	0xbe86dbb4	-0.26339495
225	0x3f158993	0.58413047
226	0x3e73901c	0.23785442
227	0x3dd585e2	0.10425927
228	0xbd64f8aa	-0.055901207
229	0xbe1a3111	-0.1505778
230	0x3ed89b9a	0.42306215
231	0x3dd7a8a0	0.105302095
232	0xbebe3514	-0.3714987
233	0xbe83a410	-0.25711107
234	0x3e45bf0b	0.19311158
235	0xbe39c299	-0.1814064
236	0xbdab0c7b	-0.0835199
237	0xbe80d713	-0.2516409
238	0x3f2ee22e	0.6831387
239	0x3d626619	0.05527315
240	0x3ed1143a	0.40835744
241	0x3ec18cc8	0.3780272
242	0xbef64e97	-0.48106834
243	0x3efb3bfa	0.49069196
244	0x3e3edeb3	0.1863964
245	0xbdaa6684	-0.083203346
246	0xbe66ec53	-0.22551088
247	0x3c9579ab	0.018246492
248	0x3de74152	0.11291756
249	0x3e943c4c	0.28952253
250	0x3e106d50	0.141042
251	0xbc0c66f6	-0.00856947
252	0x3f6a5da4	0.91549134
253	0xbe000420	-0.12501574
254	0x3d4f9dfc	0.050687775
255	0x3ef17067	0.4715607

encoder.0.bias f4 [16]
0	0x3f79b8cd	0.9754761
1	0x3f49fcf7	0.7890162
2	0x3f80514f	1.0024813
3	0x3f6b60f6	0.91944826
4	0x3fc8235e	1.5635793
5	0x3f7af1d3	0.98025244
6	0x3f7548b8	0.95814085
7	0x3f676a93	0.90396994
8	0x3f755322	0.95829976
9	0x3f800000	1.0
10	0x3f800000	1.0
11	0x3f7effef	0.99609274
12	0x3f800000	1.0
13	0x3f764b9f	0.9620914
14	0x3f7b28d7	0.9810919
15	0x3f8104b4	1.007956

encoder.2.weight f4 [16, 16]
0	0xbe47cc07	-0.19511424
1	0xbf3c8e27	-0.7365441
2	0x3f2541d7	0.6455359
3	0x3d8374c2	0.06418754
4	0x3eb82ac3	0.35970125
5	0xbef175b8	-0.47160125
6	0x3e92b2b4	0.28651965
7	0x3d348bac	0.044078514
8	0x3db59368	0.08866006
9	0xbf22cf13	-0.6359722
10	0x3ee64741	0.44976237
11	0x3b55e631	0.0032638425
12	0x3ece762e	0.4032454
13	0xbe01fcc2	-0.12694076
14	0x3d3db3dd	0.04631411
15	0x3ec97ed1	0.39354566
16	0xbf0ad997	-0.54238266
17	0x3f344a40	0.70425797
18	0xbe8d62ee	-0.2761454
19	0xbe99cb99	-0.30038145
20	0xbefea057	-0.49731705
21	0x3f154b1c	0.5831773
22	0x3e16c1dd	0.1472239
23	0x3eca5064	0.39514458
24	0x3ebe24c1	0.37137416
25	0x3c9c5141	0.019081714
26	0xbe73e2f5	-0.23817046
27	0xbe017192	-0.1264098
28	0x3dfb7cfe	0.122797
29	0x3f095746	0.53648794
30	0x3f0402d6	0.5156683
31	0xbf49f8c5	-0.7889522
32	0x3e070922	0.13187078
33	0x3f03d878	0.5150218
34	0x3e923210	0.2855382
35	0xbd81e4e2	-0.06342484
36	0x3e9d49d2	0.30720383
37	0xbca7a89b	-0.02046614
38	0xbe8f6c3f	-0.28012273
39	0x3f1debdb	0.6168801
40	0xbe28e790	-0.16494584
41	0x3f24d1ad	0.6438244
42	0x3e59cbaf	0.21269105
43	0xbf940cf7	-1.1566457
44	0x3e15b02b	0.14617984
45	0xbe02f7a9	-0.12789787
46	0x3e9ba0e0	0.30396175
47	0xbe6c7634	-0.23091966
48	0xbedadf91	-0.42748693
49	0x3cef961d	0.029246384
50	0xbc732e53	-0.0148425875
51	0x3eea76df	0.45793816
52	0x3e81d8fe	0.25360864
53	0x39ec29ed	0.00045044665
54	0x3dae376a	0.08506663
55	0xbf1ab7be	-0.6043662
56	0x3ec64c66	0.38730162
57	0xbe86bf85	-0.26317993
58	0x3eda182f	0.42596576
59	0x3d4dbcd2	0.0502289
60	0x3e91c8bd	0.28473464
61	0xbdc7b4ad	-0.09751258
62	0x3cce7c92	0.025205884
63	0xbd5581a0	-0.052125573
64	0xbcc07793	-0.023494517
65	0xbe7df991	-0.24802233
66	0x3eebfbf8	0.46090674
67	0x3d6b2266	0.05740585
68	0x3cd216d4	0.02564565
69	0xbe9085a5	-0.28226963
70	0x3f34ee79	0.7067638
71	0xbc77ea9f	-0.015131622
72	0xbe84bf83	-0.25927362
73	0x3df9fe98	0.12206763
74	0xbf24105c	-0.6408746
75	0x3d0e5d78	0.034757107
76	0xbe5c5487	-0.2151662
77	0x3da01b0e	0.0781766
78	0x3ee80da7	0.45322916
79	0xbc38d32b	-0.011280815
80	0xbe448a7e	-0.19193456
81	0xbedf70cd	-0.43640748
82	0xbe7d4073	-0.24731617
83	0xbe1aa353	-0.15101366
84	0xbef78cc9	-0.48349598
85	0x3d95221c	0.072818965
86	0xbec6d241	-0.38832286
87	0x3d59a1ee	0.053132944
88	0x3e4e89b0	0.20169711
89	0xbf0c3291	-0.5476466
90	0x3e923f76	0.28564042
91	0x3ed37fac	0.41308343
92	0x3de993a4	0.11405113
93	0x3e8245be	0.25443834
94	0xbe940351	-0.2890878
95	0x3dc60143	0.096682094
96	0xbf047538	-0.5174136
97	0x3eaf8b2f	0.34285876
98	0xbe999b34	-0.30001223
99	0xbddf4f10	-0.10903752
100	0xbe153029	-0.14569153
101	0x3e8a0ec2	0.26964384
102	0xbe713330	-0.23554683
103	0xbea064a8	-0.31326795
104	0xbb363842	-0.0027804528
105	0x3e6a6856	0.22891364
106	0xbf0becf7	-0.54658455
107	0xbd263da5	-0.040586133
108	0x3f1b8e7f	0.60764307
109	0x3eadf925	0.33979145
110	0xbe74b7a8	-0.23898184
111	0xbd56a2c0	-0.052401304
112	0xb9ddb90b	-0.00042290273
113	0xbe1e31e3	-0.15448718
114	0xbdf14310	-0.11780369
115	0xbeea2906	-0.45734423
116	0xbe2ae57d	-0.16689105
117	0x3e97d252	0.2965265
118	0xbdfca799	-0.12336654
119	0x3e9bf7ff	0.30462644
120	0x3e320255	0.17383702
121	0x3ef9cc2b	0.4878858
122	0x3edb8f36	0.428827
123	0x3d36faae	0.04467266
124	0xbe6edd32	-0.23326567
125	0x3e2acc61	0.16679527
126	0x3de2b862	0.110703245
127	0xbd160133	-0.036622237
128	0x3e98a01c	0.29809654
129	0xbdd8c2f6	-0.10584061
130	0x3e459d83	0.19298367
131	0x3f001a5b	0.50040215
132	0xbecb35c9	-0.39689472
133	0xbe2a09a0	-0.16605234
134	0xbe4b07cb	-0.19827192
135	0x3eda1258	0.4259212
136	0x3f26e6f7	0.65196174
137	0xbe3d6569	-0.18495716
138	0xbe2e0b6b	-0.16996543
139	0xbe9ea517	-0.3098533
140	0xbf19adac	-0.6003063
141	0x3dec3876	0.115342066
142	0x3f010663	0.5040037
143	0x3f5c52a6	0.8606361
144	0xbed13f37	-0.40868542
145	0x3f03ecaf	0.51533026
146	0x3f2688f0	0.650527
147	0xbe00d8ed	-0.1258275
148	0x3e66f2bf	0.22553538
149	0x3ecdc283	0.40187463
150	0x3f058071	0.5214911
151	0x3eef207a	0.46704465
152	0xbf3de560	-0.74178123
153	0x3e854b09	0.2603381
154	0x3d907085	0.070527114
155	0xbf5ee62e	-0.87069976
156	0x3dce4405	0.100715674
157	0x3ee9dbf8	0.45675635
158	0x3db0fbd1	0.0864178
159	0x3dd5766a	0.10422976
160	0x3ec0975f	0.37615487
161	0x3f0fb145	0.56129867
162	0x3e14ea1a	0.14542428
163	0x3d44e929	0.04807392
164	0x3f12e7c7	0.57384914
165	0xbe505751	-0.20345809
166	0x3f3b9cb0	0.7328596
167	0xbf6c9632	-0.9241668
168	0x3e360c23	0.17778067
169	0x3ede3337	0.4339845
170	0xbd6b5836	-0.05745717
171	0x3d4beeab	0.04978816
172	0x3ea0fa94	0.31441176
173	0xbecaa834	-0.39581454
174	0xbe240728	-0.16018355
175	0xbe77d3c5	-0.24201877
176	0xbe2895f9	-0.1646346
177	0xbe865e35	-0.2624375
178	0xbf12bc2c	-0.5731838
179	0xbe771f81	-0.24133112
180	0xbf500a20	-0.8126545
181	0x3e61acf6	0.22038636
182	0x3dc08176	0.09399693
183	0xbec065a4	-0.37577546
184	0x3f25c401	0.64752203
185	0x3e30f1e4	0.17279774
186	0xbe8dca00	-0.27693176
187	0x3da794e1	0.08182693
188	0xbeff9b35	-0.499231
189	0x3ec32be2	0.38119417
190	0xbe810176	-0.25196427
191	0xbdf6eb99	-0.120566554
192	0xbd772527	-0.060338166
193	0x3f391084	0.72290826
194	0x3f07f8e2	0.5311414
195	0x3f451cd0	0.7699709
196	0x3f7d8688	0.99033403
197	0x3f30e973	0.69106215
198	0x3ddfd5a5	0.10929421
199	0x3f5fd175	0.8742898
200	0xbcc3d56d	-0.02390548
201	0xbbfa7514	-0.0076433513
202	0x3ea29158	0.31751513
203	0xbf5e5c54	-0.8685963
204	0xbe330199	-0.17481078
205	0x3f40b3ed	0.75274545
206	0x3e49f37b	0.19721787
207	0x3e3e87d4	0.18606502
208	0xbef6eaf3	-0.48226127
209	0x3e04a504	0.12953573
210	0x3de5f8d9	0.112291045
211	0x3dcad135	0.09903184
212	0xbe81463a	-0.2524889
213	0xbe2b5777	-0.16732584
214	0xbeff3d25	-0.49851337
215	0x3e8f153d	0.2794589
216	0x3dbbaf9c	0.09164354
217	0x3ab518c9	0.0013816591
218	0x3e8d1008	0.27551293
219	0x3df954ea	0.12174399
220	0x3e9bf85c	0.3046292
221	0xbf6677e8	-0.9002671
222	0xbee7c1ab	-0.45264944
223	0x3d70fb8c	0.058833644
224	0x3ec628a9	0.38702896
225	0xbefa0f57	-0.48839828
226	0xbeff8ce7	-0.49912187
227	0x3e214bea	0.15751615
228	0xbecbf71d	-0.3983697
229	0xbed5b6ac	-0.4174093
230	0x3e5320b4	0.20617944
231	0xbef88be9	-0.48544243
232	0xbc6e7139	-0.014553362
233	0xbeb2ff2c	-0.34960306
234	0xbd82df07	-0.06390195
235	0x3c7430fd	0.014904258
236	0x3f2173c9	0.630673
237	0xbec2329e	-0.37929243
238	0xbf0a840e	-0.5410775
239	0xbeea9540	-0.45816994
240	0x3ebc6a5f	0.36799905
241	0xbe652ecf	-0.22381137
242	0xbd946bce	-0.072471246
243	0xbca792fa	-0.020455826
244	0x3cf80a22	0.03027827
245	0x3cd5219f	0.026017008
246	0x3e422fd6	0.1896356
247	0xbe8871ce	-0.26649326
248	0x3f0d7d4c	0.5526931
249	0xbe7beca9	-0.24601997
250	0xbee7e950	-0.4529519
251	0xbe32c487	-0.17457782
252	0x3e056792	0.1302779
253	0xbdbd071e	-0.09229873
254	0x3eeee6b7	0.46660396
255	0xbe17552d	-0.14778586

encoder.2.bias f4 [16]
0	0x3f8694b7	1.0514134
1	0x3f77dc70	0.96820736
2	0x3fa0c0c1	1.2558824
3	0x3f88f444	1.0699544
4	0x3f76f2a3	0.96463984
5	0x3f48b80b	0.7840583
6	0x3f8013b1	1.0006009
7	0x3f84467a	1.0334008
8	0x3f728db7	0.9474749
9	0x3f80756d	1.0035836
10	0x3f7b6e61	0.982153
11	0x3f82017f	1.0156707
12	0x3f62615e	0.8842982
13	0x3f804e95	1.0023981
14	0x3f83dc75	1.0301653
15	0x3f7bf709	0.9842382

encoder.3.weight f4 [32, 16]
0	0x3f33ed0b	0.70283574
1	0xbdc2853f	-0.09498071
2	0xbec882bd	-0.39162245
3	0xbe5be167	-0.21472703
4	0x3e2d8188	0.16943944
5	0x3eafa586	0.34305972
6	0xbf072b90	-0.52800846
7	0x3c07f4d6	0.0082981195
8	0xbe303670	-0.17208266
9	0xbf49019a	-0.7851807
10	0x3d91ea4d	0.071247675
11	0x3ac58825	0.0015070481
12	0x3ed2af93	0.41149577
13	0xbe7db8d8	-0.24777544
14	0xbdaa76a4	-0.0832341
15	0x3e66194f	0.22470592
16	0x3e422c58	0.18962228
17	0x3edafd49	0.42771366
18	0xbf3b784c	-0.73230433
19	0x3d288cdc	0.04114996
20	0x3cb0b2de	0.021569666
21	0xbe8c7140	-0.27430153
22	0x3f10f7d5	0.5662816
23	0xbf0637c7	-0.5242886
24	0xbedbded4	-0.42943442
25	0x3ec14333	0.3774658
26	0x3e90796c	0.28217638
27	0xbb503237	-0.0031768212
28	0xbc863df8	-0.01638697
29	0xbecc207e	-0.3986854
30	0xbe82a118	-0.2551353
31	0x3d859d6b	0.06524166
32	0xbdc05389	-0.09390933
33	0xbf13d911	-0.5775309
34	0x3efe590e	0.49677318
35	0x3e32cacf	0.17460178
36	0xbf464d36	-0.77461565
37	0x3f9e144f	1.2349948
38	0xbcde9cd0	-0.027174383
39	0x3eb76f12	0.35826927
40	0xbf66adf7	-0.901092
41	0xbe3f4892	-0.18680027
42	0xbe9a8fbe	-0.30187792
43	0xbec24c3c	-0.37948787
44	0x3f1ae9d8	0.6051307
45	0xbec7fcd3	-0.39060077
46	0x3ceeb022	0.029136721
47	0x3e6dded9	0.23229541
48	0x3e828010	0.2548833
49	0xbec1e9d8	-0.3787372
50	0xbddcadb9	-0.107753225
51	0x3f1c8a8b	0.611489
52	0x3f67f5d4	0.9060948
53	0x3e981894	0.29706252
54	0x3e71882a	0.23587099
55	0x3e2e7843	0.17038064
56	0x3f074dd2	0.5285312
57	0x3e649e84	0.22326094
58	0x3eee5eb5	0.4655663
59	0xbe917c42	-0.28415114
60	0xbec4118f	-0.38294646
61	0xbec227f1	-0.37921098
62	0xbca0ebb7	-0.019643648
63	0x3eb55cdb	0.35422406
64	0x3eac31d7	0.33631775
65	0x3ebec143	0.37256822
66	0x3cbeeada	0.023305345
67	0xbf23cba5	-0.6398261
68	0x3f15a47e	0.5845412
69	0xbdf908ef	-0.12159907
70	0xbef8a94b	-0.4856666
71	0xbde05843	-0.109543346
72	0x3d0957ba	0.03353093
73	0xbdc73077	-0.09726041
74	0x3c2380cd	0.009979439
75	0x3dfcf2e2	0.12351014
76	0xbdd327e9	-0.10310347
77	0x3e4eadeb	0.20183532
78	0x3df3b272	0.1189927
79	0xbc8423e7	-0.0161304
80	0xbf46fccc	-0.7772949
81	0x3e7a09d9	0.24417819
82	0xbe861e8a	-0.26195174
83	0xbeba4548	-0.36380982
84	0x3f36c26c	0.71390414
85	0x3e61e5ff	0.22060393
86	0xbeadf7b7	-0.33978054
87	0x3e006621	0.12538959
88	0x3e3afb95	0.18260033
89	0x3d2aab55	0.0416673
90	0x3edfb915	0.43695894
91	0x3eed7ecb	0.46385798
92	0x3ed2e296	0.41188496
93	0x3df798bd	0.120896794
94	0xbd67673c	-0.056494936
95	0xbe0410bc	-0.12897009
96	0xbb65046a	-0.0034945258
97	0x3ea81e98	0.3283584
98	0xbcb79294	-0.022408761
99	0x3e9887f8	0.29791236
100	0xbf2e84f5	-0.68171626
101	0xbd371a52	-0.044702835
102	0x3ee7fb6b	0.45309004
103	0xbc8e72d9	-0.017388748
104	0x3eab7abb	0.33492073
105	0x3f0ce4b2	0.5503646
106	0xbefac46b	-0.4897798
107	0xbe7d3305	-0.24726494
108	0x3e812b60	0.25228405
109	0x3dd7fb9e	0.10546039
110	0x3e9dbd27	0.30808374
111	0x3e678a92	0.22611454
112	0x3f7e2f84	0.99291253
113	0x3e05c9ea	0.13065305
114	0x3e735943	0.2376452
115	0x3f0086a2	0.50205433
116	0xbca84661	-0.020541372
117	0xbf29bf72	-0.6630775
118	0xbe53530a	-0.20637146
119	0x3d6dca43	0.05805422
120	0x3e338528	0.17531264
121	0x3e129ee5	0.14318426
122	0x3f5615ee	0.8362721
123	0x3e784817	0.2424625
124	0x3ed16f54	0.4090525
125	0xbe277bbc	-0.16355795
126	0xbd2f1217	-0.04274186
127	0x3e55c90f	0.20877479
128	0x3f294922	0.66127217
129	0x3d1eba3c	0.038751826
130	0xbf0e6047	-0.5561566
131	0xbdc8fa4c	-0.09813365
132	0xbe433c9a	-0.19066086
133	0xbe89f19f	-0.26942155
134	0xbe9bbc4e	-0.30417103
135	0x3e034c8d	0.1282217
136	0xbe3e7fb7	-0.18603407
137	0x3d0a4ed4	0.033766583
138	0x3eca8235	0.39552465
139	0x3e7dba33	0.2477806
140	0xbf3b78a1	-0.7323094
141	0x3e9cf7ea	0.30657893
142	0x3ecc5cef	0.39914653
143	0xbe94c235	-0.29054418
144	0xbe077dad	-0.13231535
145	0x3e9186f2	0.28423268
146	0x3e1acfa1	0.15118267
147	0x3e1d00ff	0.15332411
148	0x3d7ac607	0.06122401
149	0x3e818c50	0.25302362
150	0xbf0a8ce5	-0.5412124
151	0x3ea4bead	0.32176724
152	0x3eb2adf9	0.34898356
153	0xbf2c9126	-0.6740898
154	0xbe0068de	-0.12540004
155	0x3e83b0ee	0.25720924
156	0x3d550ba7	0.052013066
157	0xbe0aa25c	-0.13538498
158	0xbdb11946	-0.08647399
159	0x3cda3afb	0.026639452
160	0x3c5df61e	0.013547448
161	0x3ddaba27	0.10680037
162	0xbcba8354	-0.0227677
163	0x3f231873	0.6370918
164	0xbe3f7f27	-0.18700849
165	0xbd71e57d	-0.059056748
166	0xbef99899	-0.48749235
167	0x3ea515a2	0.32243067
168	0x3e5863ef	0.21131872
169	0xbe8eeff2	-0.2791744
170	0xbe125f83	-0.14294247
171	0xbe900b42	-0.2813359
172	0xbc05c69e	-0.00816503
173	0xbe2fa52c	-0.17152852
174	0xbe76364a	-0.24044147
175	0x3f0867e9	0.53283554
176	0x3d19be6d	0.03753512
177	0xbe4a466d	-0.19753428
178	0xbd8d10ab	-0.06887945
179	0x3edb96fa	0.42888623
180	0xbeea1fe8	-0.45727468
181	0xbee2c851	-0.44293454
182	0x3e866c88	0.26254678
183	0xbeaad888	-0.33368325
184	0x3c62007c	0.013794061
185	0xbdbf7f42	-0.093504444
186	0x3eaa31ce	0.33241123
187	0x3eeda9b9	0.4641855
188	0x3e7c070e	0.24612066
189	0x3ec4be5c	0.38426483
190	0x3d005318	0.031329244
191	0xbdf065c0	-0.11738157
192	0xbf41feff	-0.7577972
193	0xbd10ec08	-0.035381347
194	0xbe8f4881	-0.27985004
195	0xbdb05c84	-0.08611396
196	0xbdafa4bb	-0.08576342
197	0x3d457c6a	0.048214354
198	0xbe2dbe9c	-0.16967243
199	0xbe37a15e	-0.1793265
200	0xbf0d47d4	-0.55187726
201	0x3e0d4ab9	0.13798036
202	0xbe941be8	-0.2892754
203	0xbeb4ca04	-0.35310376
204	0x3c7e1a4f	0.015509202
205	0x3f4ced2b	0.8004939
206	0x3e9ca744	0.30596364
207	0x3d9a2f42	0.07528545
208	0xbcdb23c7	-0.026750458
209	0xbe183ae3	-0.14866214
210	0x3e9e9a8e	0.3097729
211	0xbe8b0f40	-0.27160072
212	0xbf1fc186	-0.6240467
213	0xbc6375c3	-0.013883057
214	0x3eb7a41f	0.35867402
215	0xbeb64d81	-0.35606006
216	0xba619bc8	-0.0008606282
217	0xbe4403ca	-0.1914207
218	0x3f18ee16	0.5973829
219	0x3e95fbe8	0.29293752
220	0x3f57f6f1	0.8436118
221	0x3edc5a30	0.43037558
222	0xbe1a9d1e	-0.15098998
223	0x3e8219c4	0.25410283
224	0x3e41a376	0.18910012
225	0xbe0e1532	-0.13875273
226	0xbe9e8500	-0.30960846
227	0xbdfae886	-0.122513816
228	0xbdb7c71d	-0.08973525
229	0xbdc88b1e	-0.097921595
230	0x3e36670d	0.17812748
231	0xbee8ea1b	-0.45491108
232	0xbf15036c	-0.58208346
233	0xbe5fa0ed	-0.21838732
234	0x3ed8fc8a	0.42380172
235	0x3e7e4c70	0.24833846
236	0x3c9f0cd0	0.01941529
237	0xbd91e6ed	-0.07124124
238	0x3d61a46d	0.05508845
239	0x3ea45a84	0.32100308
240	0xbe385cf5	-0.1800421
241	0x3e9a935f	0.3019056
242	0xbedb58ab	-0.42841086
243	0xbe4fb13c	-0.20282453
244	0xbf2aeb6e	-0.6676549
245	0x3e45f0fc	0.1933021
246	0x3dcff7dd	0.10154698
247	0x3e8a439a	0.270047
248	0x3f33988e	0.70154655
249	0xbebde2d9	-0.37087134
250	0x3d23ec50	0.040020287
251	0xbc5db9a4	-0.01353303
252	0x3c96f745	0.018428454
253	0xbe57ad1c	-0.2106213
254	0x3d557ee7	0.052122977
255	0x3ef6d928	0.48212552

encoder.3.bias f4 [32]
0	0x3f81fda2	1.0155528
1	0x3f6cd13f	0.92506784
2	0x3f81e609	1.0148326
3	0x3f7e2f7a	0.99291193
4	0x3f7723c5	0.96538955
5	0x3f75fd34	0.9608948
6	0x3f834c22	1.0257609
7	0x3fa5c69d	1.2951237
8	0x3f84843f	1.0352858
9	0x3f7b25b5	0.9810441
10	0x3f7b7b10	0.98234653
11	0x3f77eb12	0.96843064
12	0x3f7802db	0.9687936
13	0x3f7d0da3	0.98848933
14	0x3f7b8998	0.98256826
15	0x3f70d330	0.94072247
16	0x3f856a8c	1.042314
17	0x3f858fb9	1.0434486
18	0x3f8247ce	1.0178163
19	0x3f8bab39	1.0911628
20	0x3f8413d5	1.0318552
21	0x3f806e14	1.0033593
22	0x3f7d4978	0.9894023
23	0x3f851a52	1.0398657
24	0x3f86382c	1.0485892
25	0x3f8520bf	1.0400618
26	0x3f8c13ee	1.0943582
27	0x3f7a987e	0.97888935
28	0x3f76fb01	0.9647675
29	0x3f904a1f	1.127262
30	0x3f80ef48	1.0073023
31	0x3f7e5c1f	0.99359316

nee_decoder.0.weight f4 [16, 32]
0	0x3dcc1408	0.09964758
1	0x3e8cf02d	0.2752699
2	0xbeb49f2c	-0.35277689
3	0xbe942748	-0.2893622
4	0x3e8a4869	0.2700837
5	0x3e5d2386	0.21595582
6	0xbda5c6d2	-0.080945626
7	0xbe1160fb	-0.14197151
8	0xbd40cc1c	-0.047069654
9	0xbdfc2e56	-0.123135254
10	0xbec2bc1b	-0.38034138
11	0xbe33f753	-0.17574815
12	0xbee129f8	-0.43977332
13	0xbe1e8258	-0.1547941
14	0xbf1eaf10	-0.61985874
15	0x3e413549	0.18867983
16	0xbe964b03	-0.29354104
17	0x3e15a34b	0.14613073
18	0xbda67db8	-0.08129448
19	0x3c5cb749	0.013471433
20	0x3e3bb630	0.18331218
21	0xbde005bf	-0.10938596
22	0x3c5c3d08	0.013442285
23	0x3d930ba7	0.07179957
24	0xbe42458c	-0.18971843
25	0x3ebffc25	0.3749706
26	0x3ee309f5	0.44343534
27	0x3e11dab6	0.14243588
28	0xbd1f6262	-0.038912185
29	0xbe324f2e	-0.17413017
30	0x3e98fcc5	0.29880348
31	0x3f00d04e	0.5031785
32	0x3ea8ba4e	0.3295464
33	0xbe8f1e12	-0.2795263
34	0xbe16118f	-0.14655136
35	0x3c957322	0.018243376
36	0xbf153674	-0.58286214
37	0x3a470e9a	0.00075934234
38	0xbe16c9e1	-0.14725448
39	0x3da0f654	0.07859483
40	0x3e3ba25b	0.18323652
41	0x3ef3e146	0.47632807
42	0xbeda2814	-0.42608702
43	0xbe93faa9	-0.28902176
44	0xbebf5361	-0.373683
45	0xbe07d057	-0.13263069
46	0xbf2ed560	-0.68294334
47	0xbec48388	-0.383816
48	0x3d96fe7c	0.07372758
49	0x3e9be9bc	0.30451763
50	0xbec910a8	-0.3927052
51	0x3d84430c	0.06458101
52	0x3e2c1567	0.1680504
53	0x3e5f01a8	0.21777976
54	0x3ec4f047	0.38464567
55	0x3d8eef86	0.06979279
56	0x3efbc55e	0.49174017
57	0x3e8af2aa	0.27138263
58	0xbeab548c	-0.33462942
59	0x3e9bceb1	0.3043113
60	0xbd51ce74	-0.05122228
61	0xbe02835f	-0.12745427
62	0x3d29aca1	0.041424397
63	0xbf374223	-0.7158529
64	0xbc36d95b	-0.01116022
65	0x3ead0ad7	0.33797333
66	0xbc02425e	-0.0079503935
67	0xbec1791a	-0.37787706
68	0xbefa3caa	-0.48874408
69	0x3e7bfbe9	0.24607815
70	0xbd8eb7b7	-0.069686346
71	0x3daa61f3	0.083194636
72	0x3e0f6a98	0.14005506
73	0xbd76bd40	-0.060239077
74	0xbe08def6	-0.13366303
75	0x3e793f2a	0.24340501
76	0xbeb497b9	-0.35272005
77	0xbb172550	-0.0023063011
78	0xbdf7d583	-0.12101271
79	0xbe51e8b9	-0.20498933
80	0xbe2b0747	-0.16701995
81	0xbe0cd8f3	-0.13754635
82	0x3e02b14e	0.12762949
83	0xbdf45550	-0.119303346
84	0x3ca261f6	0.019822102
85	0x39804e0a	0.00024472206
86	0xbecbd0f5	-0.3980786
87	0x3ea4c95d	0.32184878
88	0xbcc99e9b	-0.024611762
89	0x3f05b7c0	0.52233505
90	0xbe7eafce	-0.24871752
91	0x3e5bd89a	0.21469346
92	0x3ef45756	0.47722882
93	0x3e3773d6	0.17915282
94	0xbcaf2d7a	-0.02138399
95	0xbbf0c27f	-0.0073474045
96	0xbe3be9d4	-0.18350917
97	0x3d95adcd	0.073085405
98	0x3e14a624	0.14516503
99	0xbe4942e7	-0.19654427
100	0x3e8b92ea	0.27260524
101	0x3dd18778	0.10230917
102	0xbe5633a9	-0.20918144
103	0x3e28742a	0.16450563
104	0x3ea17d7d	0.31541052
105	0xbe39630f	-0.18104194
106	0xbd522136	-0.051301204
107	0x3d8fa440	0.0701375
108	0xbc0f4ed3	-0.0087468205
109	0xbcb7a254	-0.022416271
110	0x3e8c1c8e	0.27365535
111	0xbbcf522c	-0.0063269343
112	0xbd9bd898	-0.07609671
113	0xbc9e1fbb	-0.01930224
114	0xbe433e1e	-0.19066665
115	0xbdec5127	-0.11538916
116	0xbf03539d	-0.5129946
117	0xbe997473	-0.29971656
118	0x3e06c9e2	0.1316295
119	0xbe2647ab	-0.16238277
120	0xbe43a3a9	-0.191054
121	0x3dac2363	0.08405187
122	0xbebf2261	-0.37330917
123	0xbd56919c	-0.052384958
124	0xbc890ac6	-0.01672877
125	0x3dded045	0.10879568
126	0x3e9ea107	0.3098223
127	0xbd425818	-0.047447294
128	0x3de58a67	0.11208039
129	0x3de200e4	0.11035326
130	0xbe7c1829	-0.24618591
131	0xbdd6a20e	-0.10480128
132	0x3ef2915a	0.4737652
133	0xbdb6cbd9	-0.089255996
134	0xbe1bb3ee	-0.15205356
135	0xbe9885a4	-0.2978946
136	0xbe0ad4e7	-0.13557778
137	0xbebfbfd8	-0.37451053
138	0x3e51227f	0.20423315
139	0x3d169b5f	0.036769267
140	0xbe60a1c2	-0.21936706
141	0x3e318f22	0.17339757
142	0xbe753228	-0.23944914
143	0x3cf7e864	0.03026218
144	0xbcd4459b	-0.025912097
145	0xbf022d3d	-0.5085028
146	0xbd91e0b8	-0.0712294
147	0xbc275e87	-0.010215408
148	0xbec4ccf4	-0.38437617
149	0x3eac21e4	0.33619606
150	0x3daf4f2b	0.08560022
151	0xbdd3ddb3	-0.1034502
152	0x3df1b91d	0.11802886
153	0x3e651380	0.2237072
154	0xbe12b635	-0.14327319
155	0x3d78f4ac	0.060780212
156	0xbf29a6b9	-0.66270024
157	0x3c64c7a2	0.013963612
158	0x3eb7f655	0.35930124
159	0x3e866515	0.26248994
160	0x3e5385e3	0.20656542
161	0x3e37e54a	0.1795856
162	0x3e9e7302	0.3094712
163	0xbe3d6098	-0.18493879
164	0x3d80b5fa	0.06284709
165	0x3eab1980	0.33417892
166	0xbddabe3b	-0.10680815
167	0x3e756875	0.23965628
168	0xbd2d7992	-0.042352267
169	0x3e93add4	0.28843558
170	0x3e711cf4	0.23546201
171	0xbe9a9c8d	-0.30197564
172	0xbdbab965	-0.091173925
173	0xbd0efc61	-0.034908656
174	0xbd885433	-0.06656685
175	0xbf175b0d	-0.5912331
176	0xbdd35c55	-0.10320345
177	0xbeb07ab9	-0.3446863
178	0x3e1f029d	0.1552834
179	0x3d8b942f	0.06815373
180	0x3e6d7314	0.2318843
181	0xbdea6391	-0.11444772
182	0x3c90fcaf	0.017698614
183	0xbe5e5b3e	-0.21714494
184	0x3e43a63c	0.19106382
185	0x3e9973bb	0.29971108
186	0xbd858ef4	-0.06521407
187	0xbdb962d0	-0.0905205
188	0x3dd932a3	0.10605361
189	0x3e25c795	0.16189416
190	0xbebd2378	-0.36941123
191	0x3ed94107	0.42432424
192	0xbf21d672	-0.6321784
193	0xbe8c252e	-0.27372116
194	0x3c56501d	0.013080624
195	0xbdd24d17	-0.1026861
196	0x3c28bc4e	0.010298802
197	0x3d46c472	0.04852719
198	0xbdeda977	-0.116045885
199	0x3e274861	0.16336204
200	0x3ed1b351	0.4095712
201	0xbb27e211	-0.0025616924
202	0x3c3eacad	0.011637849
203	0xbebe03e6	-0.3711235
204	0xbe9148dd	-0.28375903
205	0xbe1c0b70	-0.15238738
206	0xbe47bb8a	-0.19505134
207	0xbf00834a	-0.5020033
208	0xbd9c7966	-0.076403424
209	0xbeaf9700	-0.3429489
210	0xbeac8bf2	-0.3370052
211	0xbc9747a1	-0.018466773
212	0xbef3df84	-0.47631466
213	0x3d11a9a4	0.035562173
214	0x3e16fd61	0.14745094
215	0xbeeb16c1	-0.45915797
216	0x3d9a0d7d	0.07522104
217	0x3c3edcc0	0.011649311
218	0x3f066ede	0.5251292
219	0xbe0e001b	-0.13867228
220	0xbe2e7aa5	-0.17038973
221	0x3e77d7c4	0.24203402
222	0xbce25852	-0.027630005
223	0x3daf4fbd	0.08560131
224	0xbdf2e2c3	-0.118596576
225	0x3e558db8	0.20854843
226	0xbe2a0924	-0.1660505
227	0x3edf6ee5	0.43639293
228	0xbe5ed1b0	-0.21759677
229	0x3ec15c55	0.37765756
230	0x3d7fbe02	0.062437065
231	0x3d71458d	0.05890422
232	0x3ee97de1	0.4560385
233	0x3c234e9a	0.009967471
234	0x3e8daa7a	0.27669126
235	0xbea755ba	-0.32682592
236	0xbe332bd6	-0.17497191
237	0xbdc9722e	-0.09836231
238	0xbe3795d5	-0.1792825
239	0x3ddd17ce	0.10795556
240	0x3eebde79	0.4606817
241	0x3dca979b	0.09892198
242	0x3ee50277	0.44728443
243	0xbe80dbf1	-0.25167802
244	0x3f1637cc	0.5867889
245	0xbe617fe7	-0.22021447
246	0x3e09142b	0.133866
247	0xbe996f83	-0.2996789
248	0xbddcc262	-0.10779263
249	0x3e40245e	0.18763873
250	0x3f20de40	0.62839127
251	0x3db71c86	0.08940987
252	0x3e037db7	0.12840925
253	0xbeba2327	-0.36354944
254	0xbdc9ad9d	-0.09847567
255	0xbe82641b	-0.25467

nee_decoder.0.bias f4 [16]
0	0x3f829a7f	1.0203398
1	0x3f845e43	1.0341266
2	0x3f78f452	0.97247803
3	0x3f7c0e86	0.9845966
4	0x3f7f65fe	0.99765
5	0x3f6be098	0.9213958
6	0x3f800000	1.0
7	0x3f81f360	1.0152397
8	0x3f776a4f	0.9664659
9	0x3f7b9637	0.98276085
10	0x3f810c83	1.0081943
11	0x3f733505	0.95002776
12	0x3f800000	1.0
13	0x3f6bbf97	0.9208922
14	0x3f73673e	0.9507941
15	0x3f6813a9	0.90655

nee_decoder.2.weight f4 [16, 16]
0	0xbe4c7762	-0.19967416
1	0xbdb18d43	-0.08669522
2	0x3cca669b	0.02470713
3	0x3dee5792	0.116377965
4	0xbbfc2b85	-0.0076956176
5	0x3f6c1406	0.92218053
6	0xbee68783	-0.45025262
7	0x3ed8374a	0.42229682
8	0x3e4863a0	0.19569254
9	0x3e951f9b	0.29125676
10	0x3f0c87d8	0.5489478
11	0x3e9f54d0	0.31119394
12	0x3bb9757e	0.005659758
13	0xbeb56d7d	-0.35435095
14	0xbda5f4a7	-0.08103304
15	0x3ea66e88	0.32506204
16	0xbea3512d	-0.3189787
17	0xbe98ecb5	-0.29868093
18	0x3e2349f1	0.15946175
19	0x3e9c12c7	0.30483076
20	0xbf3f1e9b	-0.74656075
21	0xbeb34e78	-0.35020804
22	0xbe8cdcfb	-0.27512345
23	0xbf039f8c	-0.51415324
24	0xbf0304dd	-0.51179296
25	0xbe10d21b	-0.14142649
26	0xbe38b78b	-0.18038766
27	0xbef9de29	-0.48802307
28	0xbe143b59	-0.14475764
29	0x3e268eb0	0.16265368
30	0xbe67040a	-0.22560135
31	0x3e164da6	0.14678058
32	0xbe0d02fb	-0.13770668
33	0xbcd55110	-0.02603963
34	0x3e163ade	0.14670894
35	0x3e4cd679	0.2000369
36	0x3e9d9739	0.30779436
37	0x3f020725	0.5079215
38	0xbe518c60	-0.20463705
39	0x3e8366a2	0.2566424
40	0xbf0ecf73	-0.5578529
41	0xbe264c17	-0.16239963
42	0xbf7ac16f	-0.97951406
43	0xbf1ad866	-0.6048645
44	0xbe715216	-0.2356647
45	0xbec313ce	-0.38101047
46	0x3f3e35fd	0.7430113
47	0x3c58de37	0.013236574
48	0x3e99c3ff	0.30032346
49	0x3e28e072	0.16491869
50	0xbeb785be	-0.35844225
51	0x3e813ae2	0.25240237
52	0xbee76daf	-0.4520087
53	0x3e98a2eb	0.29811797
54	0x3db79b8f	0.08965217
55	0xbdf85379	-0.12125296
56	0xbd865f8c	-0.06561193
57	0xbef7af24	-0.4837581
58	0x3e185cbb	0.14879124
59	0x3f0a9f98	0.5414977
60	0xbcc87210	-0.024468452
61	0x3e5d82aa	0.21631876
62	0xbdf526b9	-0.119702764
63	0x3ed31d7c	0.41233432
64	0xbf0f3006	-0.5593265
65	0x3d87f634	0.066387564
66	0xbe80f5eb	-0.2518762
67	0x3e3e77e2	0.18600419
68	0x3f697014	0.9118664
69	0x3cf75a41	0.030194404
70	0xbe6baa84	-0.23014265
71	0x3d188983	0.037240516
72	0xbd96f039	-0.073700376
73	0x3f6a9527	0.9163384
74	0x3eef2809	0.46710232
75	0x3e680f1d	0.22662015
76	0x3ca155d2	0.019694243
77	0x3e40fe1a	0.18846932
78	0xbf4eb52d	-0.807452
79	0x3ec2a84e	0.3801903
80	0x3cf448a7	0.0298198
81	0xbee51a8a	-0.4474681
82	0xbe0715e3	-0.13191943
83	0xbe84c975	-0.2593495
84	0x3f0929bd	0.5357931
85	0xbeed344b	-0.4632896
86	0x3db549cb	0.088519655
87	0x3e3f7754	0.18697864
88	0x3ca996f1	0.020701857
89	0xbe0d6128	-0.13806593
90	0xbc92884b	-0.017887255
91	0xbef128f5	-0.4710156
92	0x3e05ddf6	0.13072953
93	0x3e490c64	0.19633633
94	0x3e094299	0.13404311
95	0xbf1032b6	-0.5632738
96	0x3e852e4c	0.26011884
97	0xbc810e3c	-0.015753858
98	0xbdf11d3b	-0.117731534
99	0x3ebe6c10	0.3719182
100	0xbd96b0f2	-0.073579684
101	0x3e94750b	0.28995547
102	0xbe900f0c	-0.2813648
103	0xbed3b89c	-0.41351783
104	0xbf4977ab	-0.78698224
105	0x3db4ed73	0.08834352
106	0xbe1ad3f4	-0.15119916
107	0x3dbd10c3	0.09231713
108	0x3def0c0f	0.11672222
109	0x3e9a25d8	0.30106997
110	0xbd3030f7	-0.043015447
111	0x3e93c9db	0.2886494
112	0x3e066b31	0.13126828
113	0x3df20bd2	0.11818661
114	0x3e66b696	0.22530589
115	0xbe2b8797	-0.16750942
116	0x3d55e099	0.052216146
117	0x3e24eb8c	0.16105479
118	0x3f1b3502	0.6062776
119	0x3edd1824	0.4318248
120	0x3d1ca3d7	0.038242187
121	0x3aaa8719	0.0013010233
122	0xbda26edb	-0.079313
123	0xbf12ca5b	-0.5734002
124	0x3e90953a	0.2823885
125	0xbe33cf82	-0.17559627
126	0x3eff672d	0.49883404
127	0xbe369a53	-0.17832308
128	0x3c422354	0.011849243
129	0xbcb76abc	-0.022389762
130	0xbea3dd29	-0.3200467
131	0xbf3036d4	-0.6883366
132	0xbf5d38e9	-0.86414963
133	0x3ebc76fc	0.36809528
134	0xbf56d6e6	-0.8392166
135	0x3d40dfd4	0.04708846
136	0x3ed74fc0	0.42053032
137	0x3d89af9d	0.06722949
138	0xbec0d482	-0.3766213
139	0x3ec41609	0.3829806
140	0xbe68ceaa	-0.22735086
141	0x3f86b93a	1.0525277
142	0xbf4d3b65	-0.80168754
143	0xbf07ec8b	-0.5309531
144	0x3e6e8808	0.2329408
145	0xbe84ec88	-0.2596171
146	0x3e9aed17	0.3025901
147	0xbe5cfcd5	-0.21580823
148	0x3dfd1785	0.123580016
149	0xbec2d23a	-0.38051015
150	0x3ead831e	0.33889097
151	0x3cb2f623	0.021845883
152	0xbebd796e	-0.37006706
153	0xbe0ffc3a	-0.1406106
154	0x3ee0c720	0.4390192
155	0xbe9e8257	-0.30958816
156	0x3de27200	0.110569
157	0xbe69012e	-0.22754356
158	0x3f0c779f	0.5487003
159	0x3dd1ef9b	0.10250779
160	0x3e9c2107	0.30493948
161	0x3bc6a5e1	0.006062255
162	0x3c564f43	0.013080421
163	0xbda8aebe	-0.082364544
164	0x3db0c87a	0.08631988
165	0x3d4743a7	0.048648503
166	0x3ec1537b	0.37759003
167	0xbda0d3c4	-0.07852891
168	0x3da20365	0.07910804
169	0x3ea53e7a	0.32274228
170	0xbf0f6363	-0.5601103
171	0xbf329477	-0.6975779
172	0xbf07808c	-0.5293052
173	0xba87fcbb	-0.0010375002
174	0x3e3efd08	0.18651211
175	0x3e0112c9	0.12604822
176	0xbe4e98c0	-0.20175457
177	0xbf12492b	-0.57142895
178	0xbdb21f1e	-0.086973414
179	0x3d8c52a4	0.068517
180	0x3f2d484e	0.67688453
181	0xbe3a2219	-0.1817707
182	0x3d2be5c6	0.041967176
183	0xbe59e3b1	-0.21278264
184	0x3e63b6c8	0.22237694
185	0x3e0febe5	0.1405483
186	0x3ea936f7	0.33049747
187	0xbe6ae82c	-0.22940129
188	0x3e60a48f	0.21937774
189	0x3f1abbc0	0.60442734
190	0x3f0441de	0.51663005
191	0xbf03cc62	-0.5148374
192	0xbee06082	-0.4382363
193	0x3e189f97	0.14904629
194	0x3e05af7e	0.13055226
195	0xbf15c292	-0.58500016
196	0xbd97bfd0	-0.07409632
197	0x3de204cf	0.110360734
198	0x3ebbe21b	0.36695942
199	0x3f028809	0.50988823
200	0x3ed27c4c	0.41110456
201	0x3ee11f48	0.43969178
202	0x3e21596a	0.15756765
203	0x3f3f1d9b	0.7465455
204	0xbe3f8074	-0.18701345
205	0x3e401358	0.18757379
206	0xbc159239	-0.0091291005
207	0xbe4e9c99	-0.20176925
208	0xbe4db2d8	-0.20087755
209	0xbed70548	-0.41996217
210	0xbeac63d8	-0.33669925
211	0xbe399b8e	-0.18125746
212	0x3e71be1a	0.23607674
213	0x3e9c4f70	0.30529356
214	0xbea096c0	-0.31365013
215	0xbec1cac1	-0.3785
216	0x3de1016a	0.10986598
217	0xbe901d0c	-0.2814716
218	0x3f199538	0.59993315
219	0xbf1da4c8	-0.6157956
220	0x3edc9c3b	0.43087944
221	0xbd6bd499	-0.057575796
222	0x3e24474e	0.16042826
223	0xbe5e5c83	-0.21714978
224	0xbf06b4de	-0.5261973
225	0x3eae10bc	0.33997142
226	0x3ec19c61	0.3781462
227	0xbf4772ae	-0.7790936
228	0xbdbe9365	-0.09305457
229	0x3f0374e6	0.5135025
230	0xbf0c0c61	-0.5470639
231	0xbecbed48	-0.3982947
232	0xbcc83a10	-0.024441749
233	0x3eb63d62	0.35593706
234	0x3ea66a09	0.32502773
235	0xbebb1689	-0.3654063
236	0x3e31563f	0.17318057
237	0xbd2a8fcc	-0.04164104
238	0xbbdc9ec8	-0.0067327954
239	0x3e7e605d	0.24841447
240	0x3dee2cfe	0.11629675
241	0xbed40423	-0.41409406
242	0x3ee27be4	0.44235146
243	0x3ed2397a	0.41059476
244	0x3eb1dab6	0.34737176
245	0x3da48f07	0.08035093
246	0x3c20d20f	0.009815707
247	0x3f330733	0.6993286
248	0x3eded5c5	0.43522468
249	0x3e939ed5	0.28832117
250	0xbdb2e032	-0.08734168
251	0xbe4c0319	-0.19923057
252	0x3edd9081	0.4327431
253	0x3edf8bee	0.43661445
254	0xbea3cf0d	-0.31993905
255	0x3de31010	0.11087048

nee_decoder.2.bias f4 [16]
0	0x3f80a8f5	1.0051562
1	0x3f7eda65	0.99551994
2	0x3f83d030	1.0297909
3	0x3f7ae4a1	0.9800511
4	0x3f8002ad	1.0000817
5	0x3f80ae60	1.0053215
6	0x3f7c8158	0.9863486
7	0x3f80c9b2	1.0061553
8	0x3f7f13a8	0.9963937
9	0x3f8134f5	1.0094286
10	0x3f78833f	0.97075266
11	0x3f7ef843	0.9959757
12	0x3f7c48ad	0.98548394
13	0x3f7f0af7	0.99626106
14	0x3f7831d3	0.96951026
15	0x3f7ce7f5	0.9879144

nee_decoder.3.weight f4 [1, 16]
0	0xbe705fec	-0.23474091
1	0x3db88246	0.09009223
2	0xbdbda04f	-0.09259092
3	0xbd7d2d68	-0.06181088
4	0xbe4910b5	-0.1963528
5	0x3d7a4e74	0.061109975
6	0x3e9833da	0.2972706
7	0xbe8d6e7e	-0.2762336
8	0xbe675edb	-0.22594778
9	0xbf1b4ad8	-0.6066108
10	0x3d958587	0.07300859
11	0xbe6ef1a5	-0.23334368
12	0x3ea27073	0.31726417
13	0x3eb93b8c	0.36178243
14	0xbd30a8f9	-0.043129895
15	0x3ea1a252	0.31569153

fc_mu.0.weight f4 [4, 32]
0	0x3d1e9493	0.03871591
1	0xbe086f63	-0.1332374
2	0xbd858935	-0.06520311
3	0xbe0c142e	-0.13679573
4	0x3e38212e	0.17981407
5	0x3e4143dd	0.18873544
6	0x3e87eeae	0.26549286
7	0x3e580bf9	0.21098317
8	0x3cd5f318	0.026116893
9	0xbf094c86	-0.5363239
10	0xbd8cfc07	-0.06884008
11	0xbe4fc985	-0.20291717
12	0xbebbaeb3	-0.36656722
13	0x3d3d9a79	0.046289895
14	0xbf1674db	-0.5877206
15	0x3d93ab1d	0.07210372
16	0x3e43598f	0.19077133
17	0xbc1852a6	-0.009297049
18	0x3e4ca377	0.19984232
19	0x3d444347	0.047915723
20	0xbe2c7c3f	-0.16844271
21	0xbdcef1ad	-0.1010469
22	0xbe61f9fa	-0.22068015
23	0x3c8e6461	0.017381849
24	0x3ed71884	0.4201089
25	0xbf57cac5	-0.84293777
26	0x3e1ae545	0.15126522
27	0xbe8f539e	-0.27993482
28	0x3dbd0939	0.09230275
29	0x3f1b54db	0.60676354
30	0xbea86d42	-0.32895857
31	0x3f09b1c2	0.5378686
32	0xbc83962a	-0.016062815
33	0x3db1c432	0.086799994
34	0xbecd498c	-0.40095174
35	0xbdc6ffe4	-0.09716776
36	0xbdafaeb7	-0.08578246
37	0xbe8ef0bb	-0.27918038
38	0x3cc1103d	0.023567313
39	0x3e22a42e	0.15882942
40	0xbf2e4f48	-0.68089724
41	0xbc58ed4d	-0.013240171
42	0x3e08bfad	0.13354369
43	0xbde7ca58	-0.11317891
44	0x3e96cf72	0.29455143
45	0x3e9005cb	0.2812942
46	0xbd826f66	-0.06368904
47	0xbea27a6a	-0.3173402
48	0x3e439cd5	0.19102795
49	0xbd794f12	-0.060866423
50	0xbef8bbdc	-0.48580825
51	0x3e52c509	0.20582975
52	0xbd09170c	-0.033469245
53	0x3ef806bb	0.48442635
54	0xbdb1bc3b	-0.0867848
55	0xbe1c519a	-0.15265504
56	0xbd3a8164	-0.045533553
57	0xbc94fff6	-0.018188458
58	0x3dee278e	0.11628638
59	0x3e04f5a8	0.12984335
60	0xbdb876af	-0.09007012
61	0xbdaed2e6	-0.085363194
62	0xbe0fdd95	-0.1404937
63	0x3e8c7bf0	0.27438307
64	0x3e8d1ea7	0.27562448
65	0x3e98244d	0.29715195
66	0xbd0d797b	-0.03453968
67	0xbed0b186	-0.4076044
68	0xbe716560	-0.23573828
69	0x3cd533d9	0.0260257
70	0xbe07550f	-0.13216041
71	0xbdc61f29	-0.09673912
72	0xbed734f8	-0.420326
73	0xbdb71d09	-0.08941085
74	0x3e8adbeb	0.2712091
75	0xbe93b043	-0.28845415
76	0xbddf93ff	-0.109169
77	0x3d7fe473	0.062473726
78	0xbeb79db7	-0.35862514
79	0xbd2777bf	-0.040885683
80	0x3da0913c	0.07840201
81	0xbd40c944	-0.04706694
82	0xbe13e4e3	-0.14442782
83	0xbe6c506e	-0.23077556
84	0xbb8fa569	-0.004383732
85	0xbe5c1412	-0.21492031
86	0xbe3d0c00	-0.18461609
87	0xbdef9a6b	-0.11699375
88	0x3d48710f	0.048935946
89	0x3e8afba4	0.27145112
90	0xbcb3a1e5	-0.021927783
91	0x3eb81d3a	0.35959798
92	0x3e4b0ee8	0.19829905
93	0x3e92e921	0.28693488
94	0x3ea58927	0.323312
95	0xbd97bbb0	-0.074088454
96	0x3e47d425	0.1951452
97	0xbe5d586a	-0.21615759
98	0xbe171e8b	-0.14757745
99	0x3dc798dc	0.097459525
100	0x3e7efdc8	0.24901497
101	0xbe965a3b	-0.29365715
102	0xbe1abdd7	-0.1511148
103	0x3d4dd10e	0.0502482
104	0x3ca4d92b	0.020123085
105	0xbcae72f5	-0.02129505
106	0x3d49ad12	0.04923732
107	0xbe36c0f8	-0.17847049
108	0xbe6807c9	-0.2265922
109	0xbeb4b354	-0.35293067
110	0x3f0aa9bf	0.5416526
111	0x3e11432c	0.1418578
112	0xbd82c627	-0.06385451
113	0x3eba7e26	0.3642437
114	0x3f31949b	0.6936738
115	0x3e243314	0.1603511
116	0x3e5d4ff3	0.2161253
117	0xbd559cb6	-0.052151404
118	0x3e58c891	0.2117026
119	0xbe3ac859	-0.18240489
120	0x3e85e6fb	0.26152787
121	0xbeb21705	-0.34783188
122	0x3e9802b2	0.29689556
123	0x3d0793d4	0.033099964
124	0xbdf679af	-0.12034928
125	0xbe5d70fb	-0.2162513
126	0xbc8f82f5	-0.0175185
127	0xbe274fe8	-0.16339076

fc_mu.0.bias f4 [4]
0	0x3f8bcebc	1.0922465
1	0x3f70a89b	0.9400727
2	0x3f7512b8	0.9573169
3	0x3f7676cf	0.9627504

fc_mu.1.weight f4 [1, 4]
0	0xbf325809	-0.6966558
1	0x3f438aa5	0.7638343
2	0x3ebdfe8a	0.3710826
3	0x3f4b9b05	0.79533416

fc_logvar.0.weight f4 [4, 32]
0	0x3d1e9493	0.03871591
1	0xbe086f63	-0.1332374
2	0xbd858935	-0.06520311
3	0xbe0c142e	-0.13679573
4	0x3e38212e	0.17981407
5	0x3e4143dd	0.18873544
6	0x3e87eeae	0.26549286
7	0x3e580bf9	0.21098317
8	0x3cd5f318	0.026116893
9	0xbf094c86	-0.5363239
10	0xbd8cfc07	-0.06884008
11	0xbe4fc985	-0.20291717
12	0xbebbaeb3	-0.36656722
13	0x3d3d9a79	0.046289895
14	0xbf1674db	-0.5877206
15	0x3d93ab1d	0.07210372
16	0x3e43598f	0.19077133
17	0xbc1852a6	-0.009297049
18	0x3e4ca377	0.19984232
19	0x3d444347	0.047915723
20	0xbe2c7c3f	-0.16844271
21	0xbdcef1ad	-0.1010469
22	0xbe61f9fa	-0.22068015
23	0x3c8e6461	0.017381849
24	0x3ed71884	0.4201089
25	0xbf57cac5	-0.84293777
26	0x3e1ae545	0.15126522
27	0xbe8f539e	-0.27993482
28	0x3dbd0939	0.09230275
29	0x3f1b54db	0.60676354
30	0xbea86d42	-0.32895857
31	0x3f09b1c2	0.5378686
32	0xbc83962a	-0.016062815
33	0x3db1c432	0.086799994
34	0xbecd498c	-0.40095174
35	0xbdc6ffe4	-0.09716776
36	0xbdafaeb7	-0.08578246
37	0xbe8ef0bb	-0.27918038
38	0x3cc1103d	0.023567313
39	0x3e22a42e	0.15882942
40	0xbf2e4f48	-0.68089724
41	0xbc58ed4d	-0.013240171
42	0x3e08bfad	0.13354369
43	0xbde7ca58	-0.11317891
44	0x3e96cf72	0.29455143
45	0x3e9005cb	0.2812942
46	0xbd826f66	-0.06368904
47	0xbea27a6a	-0.3173402
48	0x3e439cd5	0.19102795
49	0xbd794f12	-0.060866423
50	0xbef8bbdc	-0.48580825
51	0x3e52c509	0.20582975
52	0xbd09170c	-0.033469245
53	0x3ef806bb	0.48442635
54	0xbdb1bc3b	-0.0867848
55	0xbe1c519a	-0.15265504
56	0xbd3a8164	-0.045533553
57	0xbc94fff6	-0.018188458
58	0x3dee278e	0.11628638
59	0x3e04f5a8	0.12984335
60	0xbdb876af	-0.09007012
61	0xbdaed2e6	-0.085363194
62	0xbe0fdd95	-0.1404937
63	0x3e8c7bf0	0.27438307
64	0x3e8d1ea7	0.27562448
65	0x3e98244d	0.29715195
66	0xbd0d797b	-0.03453968
67	0xbed0b186	-0.4076044
68	0xbe716560	-0.23573828
69	0x3cd533d9	0.0260257
70	0xbe07550f	-0.13216041
71	0xbdc61f29	-0.09673912
72	0xbed734f8	-0.420326
73	0xbdb71d09	-0.08941085
74	0x3e8adbeb	0.2712091
75	0xbe93b043	-0.28845415
76	0xbddf93ff	-0.109169
77	0x3d7fe473	0.062473726
78	0xbeb79db7	-0.35862514
79	0xbd2777bf	-0.040885683
80	0x3da0913c	0.07840201
81	0xbd40c944	-0.04706694
82	0xbe13e4e3	-0.14442782
83	0xbe6c506e	-0.23077556
84	0xbb8fa569	-0.004383732
85	0xbe5c1412	-0.21492031
86	0xbe3d0c00	-0.18461609
87	0xbdef9a6b	-0.11699375
88	0x3d48710f	0.048935946
89	0x3e8afba4	0.27145112
90	0xbcb3a1e5	-0.021927783
91	0x3eb81d3a	0.35959798
92	0x3e4b0ee8	0.19829905
93	0x3e92e921	0.28693488
94	0x3ea58927	0.323312
95	0xbd97bbb0	-0.074088454
96	0x3e47d425	0.1951452
97	0xbe5d586a	-0.21615759
98	0xbe171e8b	-0.14757745
99	0x3dc798dc	0.097459525
100	0x3e7efdc8	0.24901497
101	0xbe965a3b	-0.29365715
102	0xbe1abdd7	-0.1511148
103	0x3d4dd10e	0.0502482
104	0x3ca4d92b	0.020123085
105	0xbcae72f5	-0.02129505
106	0x3d49ad12	0.04923732
107	0xbe36c0f8	-0.17847049
108	0xbe6807c9	-0.2265922
109	0xbeb4b354	-0.35293067
110	0x3f0aa9bf	0.5416526
111	0x3e11432c	0.1418578
112	0xbd82c627	-0.06385451
113	0x3eba7e26	0.3642437
114	0x3f31949b	0.6936738
115	0x3e243314	0.1603511
116	0x3e5d4ff3	0.2161253
117	0xbd559cb6	-0.052151404
118	0x3e58c891	0.2117026
119	0xbe3ac859	-0.18240489
120	0x3e85e6fb	0.26152787
121	0xbeb21705	-0.34783188
122	0x3e9802b2	0.29689556
123	0x3d0793d4	0.033099964
124	0xbdf679af	-0.12034928
125	0xbe5d70fb	-0.2162513
126	0xbc8f82f5	-0.0175185
127	0xbe274fe8	-0.16339076

fc_logvar.0.bias f4 [4]
0	0x3f8bcebc	1.0922465
1	0x3f70a89b	0.9400727
2	0x3f7512b8	0.9573169
3	0x3f7676cf	0.9627504

fc_logvar.1.weight f4 [1, 4]
0	0x3d4f4c58	0.050609916
1	0xbf38730e	-0.7205056
2	0xbf2e5e24	-0.681124
3	0xbf97a2b7	-1.1846532

temp_derivative_decoder.0.weight f4 [16, 32]
0	0xbd186c58	-0.0372127
1	0x3e07c177	0.13257395
2	0x3d2d4760	0.042304397
3	0xbd64a4a4	-0.055821076
4	0xbdc7d00e	-0.0975648
5	0xbd71a8cf	-0.05899888
6	0x3ecb3671	0.39689973
7	0xbe9746b7	-0.2954614
8	0xbd22475a	-0.039618827
9	0xbd324d0b	-0.043530505
10	0xbdf01996	-0.1172363
11	0xbdbd1a4f	-0.092335336
12	0x3e4de912	0.2010844
13	0xbdb4c8b5	-0.08827344
14	0x3ecb40c7	0.3969786
15	0xbde83cbb	-0.113397084
16	0xbe32cabf	-0.17460154
17	0xbd552c8d	-0.05204444
18	0xbea57641	-0.32316783
19	0x3e34b37f	0.17646597
20	0xbee377ad	-0.44427243
21	0x3da36405	0.079780616
22	0x3c64d2cc	0.0139662735
23	0x3e8e6c50	0.2781701
24	0x3e5e75cc	0.21724623
25	0xbdbfe9ac	-0.09370741
26	0x3e84ce07	0.25938436
27	0xbe24cfed	-0.16094942
28	0x3ee49984	0.44648373
29	0xbd69ffde	-0.05712878
30	0xbe98b3fc	-0.29824817
31	0x3d2dc235	0.04242154
32	0xbe1a9f87	-0.15099917
33	0x3e456121	0.19275333
34	0x3e8332e6	0.2562477
35	0x3d2d931f	0.042376634
36	0x3d72ce73	0.059278917
37	0x3aa374dc	0.001247074
38	0xbe9691ea	-0.294082
39	0x3ed9df1d	0.42553034
40	0xbe5bd8bd	-0.21469398
41	0x3ec0da55	0.37666574
42	0xbd9949be	-0.07484768
43	0x3de3c2d0	0.11121142
44	0x3f0be9b4	0.5465348
45	0xbe4d5fa0	-0.2005601
46	0x3e9f0c3e	0.31064028
47	0xbeb7b32c	-0.35878885
48	0x3e59ec77	0.2128161
49	0xbe9f6533	-0.31131896
50	0xbebfb33a	-0.37441427
51	0x3e0da247	0.13831435
52	0xbe2989c3	-0.16556458
53	0xbdd74cd9	-0.105127044
54	0x3e89812b	0.2685636
55	0x3d7b3237	0.061327185
56	0xbe00a1e3	-0.12561755
57	0xbcf59d9d	-0.029982382
58	0x3c51aa8f	0.012797012
59	0x3e902867	0.28155825
60	0xbe561899	-0.20907821
61	0x3d2bbd29	0.041928444
62	0x3e06703e	0.13128754
63	0x3d8be800	0.0683136
64	0xbe9f031c	-0.3105706
65	0x3c152a26	0.009104287
66	0xbe996dbc	-0.29966533
67	0x3dfccb39	0.12343449
68	0xbebb68cb	-0.36603388
69	0x3db30253	0.08740678
70	0xbd2817a4	-0.04103817
71	0xbb1271e1	-0.002234571
72	0x3d7344bf	0.059391733
73	0xbc8b4bab	-0.017003855
74	0x3db39147	0.08767944
75	0x3eafbcec	0.34323823
76	0x3e2f3f03	0.17113881
77	0xbe044803	-0.12918095
78	0xbdc61f51	-0.09673942
79	0xbe201864	-0.15634304
80	0x3e17bf75	0.14819129
81	0xbf0155c1	-0.50521475
82	0x3d8bcbab	0.06825956
83	0xbd9d0fff	-0.07669067
84	0xbd96dda4	-0.07366493
85	0x3ce5147d	0.027963871
86	0xbc7a12b6	-0.01526325
87	0x3e9cdfb6	0.30639428
88	0x3e7590b9	0.23980989
89	0x3cb5b4bb	0.022180906
90	0x3ea62b1b	0.32454762
91	0x3dc719a1	0.09721685
92	0x3ef3f1c7	0.476454
93	0x3d6f1a57	0.05837473
94	0x3e0396d4	0.12850505
95	0xbd781f73	-0.060576867
96	0x3eabaf4e	0.33532184
97	0xbe23c0bb	-0.1599149
98	0x3e8772f5	0.26454893
99	0xbd9947a8	-0.074843705
100	0xbedf8f80	-0.4366417
101	0xbdd24596	-0.10267179
102	0xbb63a643	-0.003473655
103	0xbe87650c	-0.2644428
104	0xbea1a7b9	-0.31573275
105	0x3e8da47a	0.27664548
106	0x3e2ce1ff	0.16883086
107	0x3ec476a3	0.38371763
108	0xbc3ab1a8	-0.011394896
109	0xbe83b2c5	-0.25722328
110	0x3dc5aeb4	0.096524626
111	0xbe328513	-0.17433576
112	0xbec746da	-0.38921243
113	0x3eec63db	0.46169934
114	0x3d7772f5	0.060412366
115	0x3e68ea16	0.22745547
116	0xbd73460b	-0.05939297
117	0xbe870f2f	-0.26378772
118	0x3ee4bd08	0.4467547
119	0x3d9efc41	0.07762957
120	0xbe10a706	-0.14126214
121	0x3ca00632	0.019534204
122	0x3c604eff	0.013690709
123	0xbdd8c88c	-0.10585126
124	0xbe155e5b	-0.14586775
125	0xbe2a9e0b	-0.16661851
126	0xbe99de46	-0.30052394
127	0x3e359340	0.17731953
128	0xbe38282d	-0.17984076
129	0x3da1d266	0.079014584
130	0xbe4b211c	-0.19836849
131	0xbeaf7544	-0.34269154
132	0x3e3c5056	0.1839002
133	0x3ed93d53	0.424296
134	0xbe3db909	-0.18527617
135	0x3e776908	0.2416116
136	0x3efbc803	0.49176034
137	0x3de08377	0.10962575
138	0x3dbddc6a	0.09270556
139	0x3e881dc2	0.26585203
140	0xbe047338	-0.12934577
141	0x3de8b4c5	0.11362604
142	0xbeeb3f88	-0.45946908
143	0xbd05e2c0	-0.03268695
144	0xbe06f578	-0.13179576
145	0xbc16ab49	-0.009196111
146	0xbd4021c6	-0.04690721
147	0x3e03bb4b	0.12864415
148	0xbea47917	-0.32123634
149	0xbe91f2f6	-0.28505677
150	0x3ea03b47	0.31295225
151	0xbeb905e9	-0.36137322
152	0x3cadb1ad	0.021202886
153	0xbefeadf5	-0.49742094
154	0xbd48f4c0	-0.049061537
155	0xbea8d9b1	-0.32978585
156	0x3d6fbfeb	0.058532637
157	0x3e8e4756	0.277888
158	0xbd1941bf	-0.037416216
159	0x3d99647d	0.0748987
160	0x3d12873e	0.03577351
161	0x3d203460	0.03911245
162	0x3dc0b332	0.09409179
163	0x3d2a6fe1	0.041610602
164	0x3e23cc9d	0.15996023
165	0x3ec0aad4	0.37630332
166	0xbe3f38e0	-0.1867404
167	0x3d20b620	0.039236188
168	0x3efd68e1	0.4949408
169	0xbe2a935d	-0.16657777
170	0xbe240df4	-0.16020948
171	0x3d5e0b73	0.054210138
172	0x3d5c1a9c	0.053736314
173	0x3e5d3704	0.21603018
174	0xbe86f835	-0.26361242
175	0xbe342f39	-0.17596139
176	0x3e5f1b2e	0.21787712
177	0xbe49bbcc	-0.19700545
178	0x3d50225e	0.050814025
179	0xbd846db4	-0.06466237
180	0x3d18167c	0.037130818
181	0xbd1292df	-0.0357846
182	0xbeeee6a2	-0.46660334
183	0x3e192228	0.14954436
184	0xbd989ac9	-0.07451398
185	0xbe50bd59	-0.2038473
186	0xbe330672	-0.17482927
187	0x3e683dda	0.22679844
188	0xbde10fec	-0.10989365
189	0x3e79b714	0.24386245
190	0xbe8dcc20	-0.27694798
191	0xbd7b0254	-0.061281517
192	0x3e0d176b	0.13778464
193	0xbd276899	-0.040871236
194	0x3e23aec4	0.15984637
195	0x3e9556ab	0.29167685
196	0xbd8cd73c	-0.0687699
197	0x3e8ad002	0.27111822
198	0x3cb83da5	0.022490332
199	0x3e4b4080	0.19848824
200	0x3e93730a	0.28798705
201	0x3e634a62	0.22196344
202	0xbe20b23f	-0.15692995
203	0xbecbff66	-0.3984329
204	0x3f1494e8	0.5803971
205	0xbe4346ff	-0.19070052
206	0x3ec39f92	0.3820768
207	0x3e8c8cd1	0.27451184
208	0xbd99ba3f	-0.07506227
209	0x3e93e849	0.28888157
210	0xbdaa3309	-0.083105154
211	0xbe668ff4	-0.22515851
212	0x3ccdd759	0.0251271
213	0x3ef7aa76	0.4837224
214	0x3e6192d6	0.2202867
215	0xbde876e4	-0.113508016
216	0x3ead037c	0.3379172
217	0xbd0e92a9	-0.034807835
218	0xbe401d54	-0.18761188
219	0x3eafbdbd	0.34324446
220	0x3b1372b4	0.0022498788
221	0xbe1629e8	-0.14664423
222	0xbd3defa7	-0.04637113
223	0xbe9b0ce4	-0.30283272
224	0x3c80783b	0.01568233
225	0xbe474304	-0.19459158
226	0x3f355eae	0.70847595
227	0x3f6376bc	0.8885305
228	0x3ee561d7	0.44801208
229	0x3e5d04d1	0.21583869
230	0x3de92844	0.11384633
231	0xbdede39a	-0.11615677
232	0xbe228024	-0.15869194
233	0xbddfbfaa	-0.10925229
234	0x3e643759	0.22286738
235	0xbd43d436	-0.047809802
236	0xbe0c1eb6	-0.1368359
237	0xbd0ad434	-0.03389378
238	0xbe0ec7ea	-0.13943449
239	0x3cb35196	0.02188949
240	0xbd8a00e2	-0.0673845
241	0x3e4d1e60	0.20031118
242	0xbf21c0e5	-0.6318496
243	0xbc193889	-0.009351858
244	0xbea7a5b7	-0.32743618
245	0xbea32106	-0.31861132
246	0x3ec104f6	0.37699097
247	0xbc0daf31	-0.008647726
248	0xbf17cb2f	-0.5929441
249	0x3e382107	0.17981349
250	0x3e6d9c16	0.23204073
251	0xbcf86084	-0.03031946
252	0x3da643cc	0.081184
253	0x3e349b13	0.17637281
254	0xbd51be84	-0.05120708
255	0x3eada82b	0.33917364

temp_derivative_decoder.0.bias f4 [16]
0	0x3f7ba8a3	0.98304194
1	0x3f737d87	0.95113415
2	0x3f6e7645	0.93149215
3	0x3f7a82e6	0.97855985
4	0x3f9274c4	1.1441884
5	0x3f7b9237	0.9826998
6	0x3f78374a	0.96959364
7	0x3f76878f	0.96300596
8	0x3f7a2f35	0.9772828
9	0x3f7b3cd0	0.9813967
10	0x3f7c2f8c	0.9851005
11	0x3f7e9d71	0.99458987
12	0x3f6b6f9d	0.91967183
13	0x3f80abc0	1.0052414
14	0x3f817fea	1.0117161
15	0x3f7aece9	0.98017746
