.archive/piae_sde/seed_experiments/AE0/best_model.pth (torch, 17378 bytes, 17 tensors)

encoder.0.weight f4 [16, 18]
00000000: 9a0e 493e 0639 47be b8cc 133e 1e55 4abe
00000010: 80f5 293e 3ac9 973e a6fe 493d 974c bfbc
00000020: bef8 213e 4f82 b1be 2839 923e 1a36 65be
00000030: 199c 0e3e 3cd3 ccbd a9e6 82be eaa4 3dbe
00000040: 57eb 933e 51cf 64be 30d6 c63c a948 f73d
00000050: 1435 cbbd b061 9cbe 60ad 55be 4a9e 8abd
00000060: d531 a63e cd6a 93be 9f22 41bc 33b8 e73d
00000070: b85f 54be 626a 89be 9be3 47be 7a70 1a3e
00000080: c448 64bd c5b1 583d 7f20 4e3e 035b 993e
00000090: f80e 97be 267b 563d 5cc4 8fbc 7ee8 463a
000000a0: dea2 3fbe d047 8cbe bbf4 fb3d 3fce 7dbd
000000b0: 65e6 5bbd fb9b 97be c5fe 0dbf 2851 70be
000000c0: f248 8cbe 3a69 7fbe e920 ba3d a83a 03be
000000d0: 18fe 383e f73b 633e 7dc4 45be 3eb7 53be
000000e0: 9de1 acbd 27b5 11bd 2927 57be 588d cebd
000000f0: b062 46bc acf4 403e a1fc c63e 5845 9f3e
00000100: 3f1b 363d 85dc d8bc 5e60 dc3d 147b 8cbc
00000110: 80d0 61bd dfeb 133e d9fd aebe 1cea b6be
00000120: 3b57 d03d 8e2b 4cbd 3a2a b3bd c0ec 65be
00000130: 9cf4 7a3e 0b9e 3b3d f99c 1dbd 35c3 dcbd
00000140: 1183 773e 4bb7 80be 6710 ed3d 9e4c d23d
00000150: d41c 873d c6a2 ef3d fb9f 6ebe 8573 383e
00000160: 72c6 9b3e c33e 283c af65 9ebe a620 8d3c
00000170: 69bf 643e cf03 3a3e 9884 9aba 8da1 253e
00000180: 1fc5 12be 63ed 58bd 13e0 833c 8759 92be
00000190: 6bb4 09bd 76ab d4bd 7b86 0ebd f981 efbd
000001a0: 5a8e f0bc 31c0 99be 27c5 dc3e ad8d 103e
000001b0: a1e9 74be e801 08be 9faa 983d 1228 a53d
000001c0: 4933 89bb 8baa 443d d50b ac3d 2f3d 34be
000001d0: 3b0b b03d 68b6 5e3e a102 a3be 4646 c93d
000001e0: aa51 9a3e c6ec 0fbd 546a 373e 18c7 9339
000001f0: 70ce a73e 8a60 dd3c 73b3 89be a357 a33e
00000200: d0dd ff3d 6efc b63e 5b92 d53d d76b 643e
00000210: 521b 863e 55de 903d 73ff c7bd 32b0 b13d
00000220: 76f7 95be 4322 6b3c f842 0abe 5d93 d93c
00000230: 394b aabe ad6b 833e 3470 c6be 0437 383e
00000240: 29a5 8d3e 6a1f c5be 6654 c23e a8e3 9fbe
00000250: baf0 a8bd 40e9 5e3e 2868 08be c4ad bf3e
00000260: d7c4 3dbe b45e 66bd ba98 8cbe 0f91 47be
00000270: 4de3 d13e 8fc1 a13e 1163 fd3c 2d7a 0d3d
00000280: b884 b6be 5d60 a23e cb44 bf3d 7e19 88bd
00000290: 29c4 99bb 4201 f6bc ab53 073e acca 853d
000002a0: f90d 473e 7745 dfbd 4737 a63e 6c39 8f3e
000002b0: e413 1c3d 2783 49bd c36a 223c 5fcf 383e
000002c0: 0a11 dabd d9d6 84bd 5de3 1d3d c123 29be
000002d0: 3f52 2abd eb53 8c3e 0b7a 01be 65ac 023e
000002e0: 167b acbd ab2c 80be baa8 9bbe fcaa 2f3e
000002f0: c578 0abf 0959 b03d 9844 a7be 8556 dc3d
00000300: c312 57be f38f 88bd 049a a4bd e75c 573e
00000310: 61dc f63c ce1c d73d bc32 c53c 57da 703e
00000320: 0310 0f3d 834f 40be b9db 463e 0a52 02be
00000330: dbf0 98be 5c1c 6a3e d0c5 92bd 48ef 053e
00000340: 5b4c 023e c6c0 593d 123a 2a3e e3f1 e83c
00000350: 4e3a b6be 73a0 adbe c4e3 203e 0fd1 563d
00000360: a24e 29bc 6910 983e 3115 ba3e 050d 9f3c
00000370: e665 cfbc aad1 5fbd 3f54 a7be 5368 303d
00000380: 6a8a e4be 4c20 593e cd53 7dbd b7dc 5cbe
00000390: 3181 25be f911 18be 3b42 2ebe bda9 32be
000003a0: f79a 983e ec63 893e aa4c b8be 3eec 9cbd
000003b0: 0fef 363d 2113 af3e 31b2 a7bd 5e4f 953e
000003c0: 3961 a0bd 5225 56be 3918 4e3e a11f b8be
000003d0: a501 8a3e 49c9 853e 61e0 44bd 3e36 263e
000003e0: e045 aa3e 9444 2d3e ab8b 3a3e e3fa 553e
000003f0: ecfd 2fbe 6f01 d23d 6544 65be 94a9 b73e
0.19634476 -0.19455346 0.14433563 -0.19759032 0.16597557 0.2964571 0.049315117 -0.02335195
0.15817544 -0.3466973 0.28559232 -0.2238392 0.13926734 -0.10001227 -0.25566605 -0.18519941
0.28890488 -0.2234471 0.024272054 0.12074406 -0.09922233 -0.3054328 -0.20866919 -0.067684725
0.32459894 -0.2879242 -0.0117880395 0.1131443 -0.20739639 -0.26838976 -0.19520418 0.15081969
-0.055733457 0.05290391 0.20129584 0.2995225 -0.29503608 0.052363537 -0.017549686 0.00075877446
-0.18714473 -0.2739854 0.12302538 -0.06196427 -0.05368652 -0.2961119 -0.5546687 -0.23468459
-0.27399403 -0.24942484 0.09088308 -0.12815344 0.18065679 0.22190844 -0.19313236 -0.2067537
-0.0844147 -0.03557315 -0.21011032 -0.10085553 -0.01210849 0.18843335 0.38864616 0.31107593
0.044459578 -0.02647234 0.10760568 -0.017148532 -0.05513048 0.14445446 -0.34178045 -0.35725486
0.10172888 -0.049846224 -0.087482885 -0.22453594 0.24507374 0.04580502 -0.03847978 -0.1077942
0.24171092 -0.2513984 0.11575394 0.1026852 0.065972954 0.117009684 -0.23303215 0.18012817
0.3042484 0.01026887 -0.30936953 0.017227482 0.22338642 0.18165515 -0.0011788784 0.16174908
-0.14333008 -0.052960765 0.016098058 -0.2858393 -0.033619326 -0.10384266 -0.03479622 -0.11694712
-0.029364754 -0.30029443 0.43119165 0.14116545 -0.23917247 -0.13281977 0.074544184 0.080642834
-0.004187022 0.048014205 0.08400694 -0.17601465 0.08595892 0.2174927 -0.31837943 0.09827857
0.3014043 -0.035137914 0.17911655 0.0002818636 0.32774687 0.027023572 -0.2689472 0.319028
0.12493479 0.35739464 0.10428306 0.22306763 0.2619272 0.070736565 -0.0976552 0.08676185
-0.2929036 0.01435143 -0.13502109 0.026559526 -0.33260515 0.25668088 -0.3875748 0.17989737
0.2766507 -0.3850053 0.37955016 -0.31228375 -0.0824904 0.21768665 -0.13320982 0.3743726
-0.1853212 -0.05624266 -0.2746027 -0.19488929 0.4099373 0.31592986 0.030931028 0.034540344
-0.3564813 0.31714144 0.09339293 -0.06645487 -0.0046925736 -0.030029897 0.1321551 0.06532797
0.19438924 -0.10901921 0.32464048 0.27973497 0.038104907 -0.049197342 0.009913149 0.18047856
-0.10647781 -0.064862914 0.03854691 -0.16517545 -0.041582342 0.27407774 -0.12644212 0.12761076
-0.08421914 -0.2503408 -0.30402166 0.17155069 -0.5409053 0.08610732 -0.3266952 0.1075869
-0.21003251 -0.06668081 -0.08037189 0.21031533 0.030134382 0.10503541 0.024072044 0.2352079
0.03492738 -0.18780331 0.19419755 -0.12726608 -0.29871258 0.2286238 -0.07166636 0.1307956
0.1272444 0.05316236 0.16623715 0.028435653 -0.35591358 -0.33911476 0.15711886 0.052445468
-0.010333689 0.2970002 0.36344293 0.019415388 -0.025317144 -0.05464331 -0.32681462 0.04306824
-0.44636852 0.21203727 -0.061847497 -0.21568571 -0.16162564 -0.14850606 -0.17017452 -0.17447563
0.2980573 0.26834047 -0.3599599 -0.07662247 0.044661578 0.34194282 -0.08188284 0.29162115
-0.07831044 -0.20912674 0.20126428 -0.3596163 0.2695438 0.2613013 -0.048065547 0.16231629
0.33256435 0.16920692 0.18217342 0.20896487 -0.17186707 0.1025418 -0.22389372 0.35871565

encoder.0.bias f4 [16]
00000000: e109 a23a c756 123c 90a4 8dbc 0000 0000
00000010: 73df e13b eb8f ff3e b5f3 01bc 0000 0000
00000020: 0000 0000 5d40 24bc 0fc7 37bd adae 383c
00000030: 4423 57ba 479b e43b 0000 0000 9d1d 4abc
0.0012362563 0.008931822 -0.017290384 0.0 0.0068930923 0.49914488 -0.007931639 0.0
0.0 -0.010025111 -0.04486757 0.011272115 -0.0008206854 0.0069765183 0.0 -0.012336162

encoder.2.weight f4 [16, 16]
00000000: fb96 823d e387 b03e 2c26 54be 0f0a 0a3d
00000010: 33ad 36be 13d9 b8be cf42 5f3e ff26 b13e
00000020: 078b 6fbe bf64 be3d e632 033e 8568 213e
00000030: 861f 6c3e b339 c93e b545 a83e dc11 c9be
00000040: acd3 2dbe 5e7e 6b3e 9120 7dbe 9321 ae3d
00000050: ea16 3ebe 3521 b03d f45a 583e 115e 0b3e
00000060: 790d a13e c26d 55bd 36b6 703e 0e59 0f3e
00000070: 6dbd 0bbe bc94 9cbe bfd4 ca3e b133 04be
00000080: 400f b43e 8385 993e 754f 3d3c cc20 b7be
00000090: 8292 7f3d b020 14bf 3ff1 0e3e 8f3f 30be
000000a0: b7e0 aa3e 9f43 c8be 4f3a a1bd f304 bb3d
000000b0: 115d 903d eba7 c43e a519 0cbe 82c7 a3be
000000c0: b83b 9f3e b41a 143e cfee 9c3e 4237 83be
000000d0: f484 6bbe fe55 b5be d0ac 613d 7a40 163e
000000e0: 05ce 7ebe b324 04bd 3c22 68bd d540 d73e
000000f0: 6821 06be d72e e23e 11fa 87be fb2a 1dbe
00000100: 0dec b2be 1f4e a33e 7162 9ebe 3f8a 373e
00000110: a044 2bbe f4ba fbbc 003a 4d3d b987 c0be
00000120: 8c9f 983d 1083 62bc b6c3 c8be 151f 5d3d
00000130: 49bc cd3e 17dd fa3d 42ea 16bb 24f5 ddbd
00000140: a2aa d13d e8c1 53be b496 d33e 0da7 bf3e
00000150: cec2 423e ac28 25be db8a d6be 9841 7fbe
00000160: 678f d73e f77e cbbe 33af d3be a5aa 36bd
00000170: 2c3a 013e 05c2 e2be 59d5 cdbe 9501 1abc
00000180: b0bb 14be a874 9a3e e39c fe3d 5971 c0be
00000190: 90d2 c7be 2c41 983e 0740 9dbd 81f8 41be
000001a0: 02aa 0b3e 104a aebd ab0e 543e e1e2 e03d
000001b0: 90fb 3fbe 35b1 b1be a808 703e 8533 85be
000001c0: 8219 a0bd ff25 ee3c f389 90be 9a88 713e
000001d0: 4385 abbe fcad b03d f814 833c adb0 223e
000001e0: 2895 d9be 27a7 a8bb fc35 393e 0ff0 8dbe
000001f0: c464 9d3d c16c eabc d014 bc3e 2908 fabd
00000200: eadf 413b 78da 40be 928e dabd 94df fd3d
00000210: e1d1 d5be 662f a83e 2f6d 9f3e b4c7 3b3e
00000220: 46f7 a53e a906 0abe 4bfe c93d fe76 b43c
00000230: 5b4e 99be 1377 2abe d069 1dbe 4d44 dbbd
00000240: bd3e ccbe d74e a3be ee85 63bd 7fe7 86bd
00000250: f1a2 d0be 45ef 9f3d 5ca8 623e 0ba3 b83e
00000260: ee95 ba3e 184e a2be 98e0 1cbe 9859 52be
00000270: 401a 853d d016 d03d 9b4d c53d bc56 743e
00000280: e1f4 543e a9cf 7abe cadd 883e b68d 953e
00000290: 652c 2b3d 17e6 2ebe e111 91be ff21 f73d
000002a0: c84d 193e 75bf ba3e 6c02 433e 6c49 033e
000002b0: a536 1bbd cd62 8b3e aa64 21be ed78 233e
000002c0: 2a30 53be 296f 84bb 6706 833e e474 4b3e
000002d0: 1b01 c7bd bea9 b3bb 1b26 76be 7262 4d3e
000002e0: f42d 953e 41a1 183e 7d88 d6be dbb4 9ebe
000002f0: 886b 943e 6bf4 7dbd 6627 883e 216b a33e
00000300: b8e2 01be e513 82be 8c93 d0be 569c 293e
00000310: 576a 633e 1fbe 99bd 003c d7be 07cd 8ebe
00000320: 9820 bfbc 1a5f 4a3e c893 14be 291f 8fbe
00000330: 0158 9abe 205d c63e 2a91 203e 0401 b4be
00000340: dbea 88be bf33 bcbe 2e4e 803d 290d 34be
00000350: 0c21 c0ba b24a 8cbd c410 c2be 7b1e c6be
00000360: 75f5 abbe e2b3 39be 05ee 893d ea85 50be
00000370: 90e1 7cbc 2773 54bd 7bc1 ca3e 8f22 4abe
00000380: 6992 ca3e 19c1 b1be c28c bcbe 4731 103e
00000390: ed37 88be 848b 623e 5fc5 7ebe 3995 ae3e
000003a0: 3aac d63e 9c62 04be 34f5 473e 26f6 ce3e
000003b0: 6d50 873e 5068 c2be 041a 63bc fc94 d3be
000003c0: bfb5 ab3e 47d3 9fbd ab46 8cbb 3236 88be
000003d0: 9a95 6bbe 8e9a 21bf 5e64 b83e f9e0 5ebe
000003e0: 8698 273d c5a2 c93e 7540 c53e 12a7 a4bd
000003f0: 52c4 d13e e409 213e 1deb c93e dc8c a83c
0.063764535 0.34478673 -0.20717686 0.033701 -0.17839508 -0.36103114 0.21802829 0.34600064
-0.23392878 0.092965595 0.12812385 0.15762527 0.230589 0.39301834 0.32865682 -0.39271438
-0.16975278 0.22997424 -0.24719454 0.085024975 -0.18563429 0.08600084 0.21128446 0.13610102
0.3145559 -0.052106626 0.23507008 0.13998815 -0.13646479 -0.30582225 0.39615437 -0.12910344
0.35167885 0.29984674 0.011554589 -0.3576721 0.06239558 -0.5786238 0.13959216 -0.17211746
0.3337457 -0.3911409 -0.078724496 0.09131803 0.07049001 0.3840936 -0.13681658 -0.3198815
0.3110025 0.14463311 0.30650946 -0.25628096 -0.22999936 -0.3541717 0.055096447 0.14673033
-0.24883278 -0.03226156 -0.056673273 0.4204165 -0.13098681 0.4417636 -0.26557973 -0.15348427
-0.34945717 0.3189554 -0.3093448 0.1792383 -0.16725397 -0.030728795 0.05010414 -0.37603548
0.07452306 -0.013825193 -0.39211816 0.05398472 0.40182713 0.12249201 -0.0023027812 -0.108377725
0.10237624 -0.20679438 0.41325915 0.37432137 0.19019625 -0.16128796 -0.41902813 -0.24927366
0.42101595 -0.39745304 -0.41344604 -0.044596333 0.12619847 -0.4428865 -0.40201834 -0.009399791
-0.14524722 0.30167127 0.124322675 -0.37586477 -0.39027834 0.29737222 -0.07678228 -0.18942453
0.13639072 -0.0851022 0.2070872 0.10980774 -0.18748307 -0.3470551 0.23440802 -0.2601587
-0.07817365 0.029070852 -0.28230247 0.23587266 -0.33500108 0.08626935 0.01600121 0.15887709
-0.4249661 -0.0051468792 0.18087 -0.27722213 0.07685235 -0.028616311 0.3673463 -0.12208588
0.0029582926 -0.18833339 -0.106717244 0.1239616 -0.41761687 0.32848662 0.31137988 0.183379
0.32415217 -0.13479103 0.09862956 0.022029396 -0.29942593 -0.16646986 -0.15372396 -0.10706387
-0.39891616 -0.31896088 -0.055547647 -0.06587123 -0.40749314 0.07809309 0.22134537 0.36061892
0.36442512 -0.31700206 -0.1532005 -0.2054199 0.064991474 0.10160601 0.09633943 0.23861212
0.20796539 -0.24493279 0.26731712 0.2920968 0.041790385 -0.1707996 -0.28333953 0.12067031
0.14971077 0.36474195 0.19043893 0.12820977 -0.03789391 0.27223817 -0.15761057 0.15964098
-0.20623842 -0.0040415716 0.25590822 0.19868809 -0.09717008 -0.0054828813 -0.24037974 0.20057085
0.29136622 0.14905263 -0.41901007 -0.30997357 0.2898829 -0.062000673 0.2659256 0.3191767
-0.12684143 -0.25405803 -0.4073757 0.16563544 0.22208534 -0.07506966 -0.42037964 -0.27890798
-0.023330972 0.19762841 -0.14509499 -0.2795346 -0.30145267 0.38742924 0.15680376 -0.35157025
-0.2674168 -0.3675823 0.062649116 -0.17583145 -0.0014658286 -0.068501845 -0.37903416 -0.3869513
-0.33585706 -0.18135026 0.06734852 -0.20363584 -0.015434638 -0.05186763 0.3960074 -0.19739746
0.39564827 -0.34717634 -0.3682614 0.14081298 -0.26605168 0.22123533 -0.24879979 0.34098223
0.41928273 -0.12928241 0.19527131 0.4042217 0.26428548 -0.3797021 -0.013861183 -0.41324604
0.335371 -0.0780397 -0.004280885 -0.26603848 -0.23006287 -0.63126457 0.36014074 -0.21765508
0.040916942 0.39381996 0.3852574 -0.08039679 0.40970093 0.15726429 0.3943719 0.02057498

encoder.2.bias f4 [16]
00000000: 238b aebc 0000 0000 a85e f33c 88d5 33bb
00000010: ac1e ef3c 52e1 3dbc 0000 0000 b99d f8bc
00000020: 0000 0000 b260 6cbc 8469 0fbd 0000 0000
00000030: 0000 0000 0000 0000 aa3e 0bbc d932 65bc
-0.02130658 0.0 0.029708222 -0.0027440507 0.02918943 -0.011589365 0.0 -0.030348646
0.0 -0.014427351 -0.035012737 0.0 0.0 0.0 -0.008498827 -0.013989174

encoder.4.weight f4 [32, 16]
00000000: fdaa 93be c118 c5bd 89fa e03d 4425 9d3e
00000010: 77eb bbbe fe1c 8a3e 5863 a2be 7ade 4c3e
00000020: 0b9b b23e baf7 cf3d df18 04bc 2857 473e
00000030: 6ce8 d6bd 4116 86be 97a1 92be ac89 643e
00000040: b346 8f3e 278f 6a3c 98d7 a7be f0cb 80be
00000050: 4b7a 99bd 5c7a 3d3e c542 71be 7757 e53d
00000060: 27e1 45be 60aa 9a3e cba0 93bd aae5 96bd
00000070: bdc4 9ebe 3323 a2be cb87 6fbd 3b7a bc3d
00000080: 5ac1 203e e049 9ebe c90e e43c 4004 77bd
00000090: abd0 2b3e b42a 2cbe ddb8 d73d 932e 213e
000000a0: 9cdd 353e 56ce dabd f488 b33d 08e8 8dbd
000000b0: a5fa c23d 639e 5ebe 547a 9dbe 2352 a2be
000000c0: 1a71 66be 8b39 19be 5ce2 733d f6ec 71bb
000000d0: 6097 59be 139a dfbb 48a9 e4bd e158 6f3e
000000e0: a816 95be 64ba edbd 9f40 3bbe 6bb0 323d
000000f0: a902 9e3c f29c a6bc 0e16 d03e c629 d7bd
00000100: 9d8a 21be 1612 bb3d a45f 253e 23fb 873c
00000110: 26c7 dcbd c1aa 10be 70df ed3d 2079 543e
00000120: 8b3e f7bb 7606 383e 22a7 273e 0bf8 41be
00000130: 8813 a0bd 78f9 a2be 40ed 1abe 92ac c53d
00000140: 5873 26bd 9914 673d 96c7 0d3e 1804 23bc
00000150: 10c7 9f3e 6070 7a3d a3ee b1be 2cf9 9dbe
00000160: 0259 b3be 8c7b 1839 1823 473e 440e 3fbd
00000170: bfc1 a23e 7d43 82bd 31b3 5c3d 5426 ab3e
00000180: 334c d13d 28cd 38bc c50d 873e 2dba bdbe
00000190: b88c 993d 7532 5e3e db2b 60be 080d 9bbe
000001a0: dc9a e73d ca29 f5bd 0e89 8ebe da05 903d
000001b0: 0851 83be 3acf a23e c6f2 aebc 481c 68be
000001c0: 24fe 933e fc9c c93d 6fea 8e3d 2cc0 8abe
000001d0: 3fa2 b03e e116 cebd 2a8f 963e 679c a138
000001e0: b99c 353e 36aa 863e ce6d aabe c84c 71be
000001f0: 7100 b3be fe8f 823e 487a 8f3e 31ca 35be
00000200: a64d 77be 2d68 723d b826 f13d 8c95 abbc
00000210: ed89 0ebe 2edc 70be edd1 9a3e c06c 57be
00000220: 37eb aebe a3c7 01be b31a 7c38 0491 063e
00000230: 0efd 0b3e 82ba 51be 220b 9ebd e9f6 79be
00000240: bdc4 35be bf77 98be 6042 843d 5145 d0bd
00000250: 5254 b2be e719 5ebe be6b 59be bf49 0cbe
00000260: 88b4 5fbe 970c 40bd c074 ca3d 6080 92be
00000270: 7c1c f8bc cb61 d0bd 7f14 0fbe 1ba3 b5bd
00000280: b516 4ebe 4138 3a3c 0e51 9cbe c91e 023d
00000290: a66a 853e eab6 903e c752 22be fe18 003e
000002a0: a819 abbe 60cb 9f3e 7bc0 bbbe 7dc3 a1be
000002b0: fd7c a2be b51a a8be 23f0 1c3e 6103 0abe
000002c0: e171 843d e934 b3bc eaec babc 6be1 dabd
000002d0: 9630 77be 5aad 9abe c7ad 363e ede5 28be
000002e0: 1143 93bd cd9c 3e3e 1e5e 94bd a490 b6bd
000002f0: f959 71be 58e1 9abe 2ee9 413e 1dc3 a7bd
00000300: 18ab 503e 00a0 be3c 02ee 5ebc 1acc 64be
00000310: 2119 b5bc ec73 b4bd 7a97 4ebe b202 8bbd
00000320: 5b6a 973c 3202 81be d87a bd3d 74e9 7b3e
00000330: 190a 8f3d e2ca ac3e 0b10 753e d180 85be
00000340: 58f1 30be 7c3e aebd cef3 a13d 68b2 81ba
00000350: ed87 7a3e 21c5 013d 6d48 65be 0b32 e9bd
00000360: df99 96be c61a aabd 96ac 323e 2fbf 5f3b
00000370: ee9e acbe b9a2 9cbe 8b41 3a3e 8562 a5be
00000380: 733f 4bbe 54da 57be 12f8 d83e 2026 9d3c
00000390: 3bf8 fabc 0653 6dbe 4499 673e f639 83bd
000003a0: 9aa0 8b3d 7f83 ca3d 09f9 1a3e 9fbc 673e
000003b0: af4c 963c 27cb 153d 74c6 4cbe ee09 43be
000003c0: 8dc1 babd 3249 ac3e d4a4 7dbe f52d 1dbe
000003d0: 80c4 b8be 60d6 503c ba4f a9be b71d 29be
000003e0: 74cc a63e cbb6 243e c134 623e 1df8 773d
000003f0: 99d3 99be b876 28be aa0f 37be c2a0 49be
-0.2884139 -0.09623862 0.10985286 0.30692494 -0.36703083 0.26975244 -0.31716418 0.20006743
0.34883913 0.10154672 -0.00806257 0.19466841 -0.1049355 -0.26188853 -0.28638908 0.22318143
0.27983627 0.014316357 -0.32781672 -0.25155592 -0.07494029 0.18503708 -0.23560627 0.11198323
-0.1932417 0.3020811 -0.07208403 -0.07368024 -0.31009474 -0.3166748 -0.05847911 0.09203001
0.15698758 -0.30915737 0.027839081 -0.060306787 0.1677882 -0.16813165 0.10533307 0.15740423
0.17760319 -0.10683887 0.08766356 -0.06929022 0.09520463 -0.21740107 -0.3075739 -0.3170329
-0.22504082 -0.14963357 0.059542045 -0.0036914921 -0.21249151 -0.006823787 -0.111651 0.23373748
-0.29118848 -0.11607817 -0.1828637 0.043625277 0.019288378 -0.02033851 0.40641826 -0.105060145
-0.15775533 0.09134309 0.16149765 0.016599244 -0.10780172 -0.14127637 0.11614883 0.2074933
-0.0075452975 0.17971215 0.1637235 -0.18942277 -0.07816225 -0.31830955 -0.15129566 0.09652056
-0.040637344 0.056416128 0.13845667 -0.0099497065 0.3120656 0.061142325 -0.34752378 -0.30854166
-0.35028845 0.00014541874 0.19446981 -0.046644464 0.31788442 -0.063605286 0.053881828 0.3342768
0.10219612 -0.011279382 0.26377693 -0.37056103 0.07497543 0.21698935 -0.2189173 -0.3028338
0.11308834 -0.11970861 -0.2783894 0.07032366 -0.2564776 0.31798726 -0.021355998 -0.22667038
0.2890483 0.098443955 0.069783084 -0.2709974 0.34498784 -0.100629576 0.294061 7.7062105e-05
0.17735566 0.26301736 -0.332869 -0.23564446 -0.34961274 0.25500482 0.2802298 -0.17752911
-0.24150714 0.05918138 0.11774963 -0.020945333 -0.13919802 -0.23521492 0.30238286 -0.21037579
-0.3416383 -0.12673812 6.0106348e-05 0.13141257 0.13670751 -0.20481303 -0.07716967 -0.24410595
-0.17750831 -0.2977886 0.064579725 -0.10169471 -0.34829956 -0.21689568 -0.21232507 -0.13700007
-0.21846211 -0.046887007 0.098855495 -0.28613567 -0.03028702 -0.101749025 -0.13972662 -0.088690005
-0.2012585 0.011365951 -0.3053059 0.03176764 0.2605793 0.28264552 -0.1585189 0.12509534
-0.33418012 0.3120985 -0.36670288 -0.31594458 -0.31735983 -0.32832876 0.1532598 -0.13477851
0.06467033 -0.021875815 -0.022818048 -0.10687526 -0.24139628 -0.30210382 0.17839728 -0.1649396
-0.07190526 0.18614502 -0.07244514 -0.08914307 -0.23569478 -0.3025005 0.18936607 -0.08191512
0.20377767 0.023269653 -0.01360655 -0.22343484 -0.022106709 -0.08811173 -0.20174971 -0.067876235
0.018483331 -0.25196987 0.09251946 0.24600774 0.06984348 0.33748537 0.23931901 -0.26074842
-0.17279565 -0.08508012 0.0790783 -0.0009895088 0.24465914 0.031682137 -0.2239091 -0.11386498
-0.2941427 -0.08305888 0.17448649 0.0034141054 -0.33715004 -0.30592898 0.18189065 -0.32301727
-0.19848423 -0.2107938 0.42376763 0.019183218 -0.030635944 -0.23176202 0.2261706 -0.064075395
0.06817742 0.09888362 0.15134062 0.22630547 0.018347112 0.036570694 -0.19997579 -0.19046757
-0.09118948 0.33649594 -0.24769908 -0.15349562 -0.36087418 0.0127464235 -0.3306864 -0.16515242
0.3257786 0.16085355 0.22090437 0.060539354 -0.3004425 -0.16451538 -0.17877069 -0.1969023

encoder.4.bias f4 [32]
00000000: 09cf 533d 54ae 703e c28f ef3c 5c17 9d3d
00000010: 0d9a a4be 842d edbc 9e6b d0bd c00f 90bc
00000020: 876b 10be 5f24 003e 78d1 13bd 7e06 833c
00000030: 1362 643e 6cdd d13c 00c5 ff3d 964a 863d
00000040: a3eb 5dbc cbb7 033d 1100 febd 3035 06be
00000050: fc6a 6b3d 181c 493e 153b ffbd ff4b 9bb9
00000060: 4bb8 b5bd 36ad 603e 43e5 81be 5bea b2bc
00000070: 8505 303d 33be 3d3e 6edf 05be 6cf9 1fbe
0.051711116 0.23504001 0.029243354 0.07670471 -0.3214878 -0.028952368 -0.10176776 -0.017585635
-0.14103518 0.12513874 -0.036088437 0.015994307 0.22303037 0.025618277 0.12488747 0.06557195
-0.01354495 0.0321577 -0.124023564 -0.13106227 0.057475075 0.19639623 -0.12462441 -0.00029620525
-0.08873042 0.21941075 -0.25370225 -0.021840265 0.042974014 0.18529586 -0.13073513 -0.1562249

nee_decoder.0.weight f4 [16, 32]
00000000: c4ef 213e 7449 87be 3ae8 4e3e bee4 9f3d
00000010: de00 2e3e 4d7f 94be 2990 503e 38d9 bcbe
00000020: 6c49 67be 3507 703e 2957 333d 9786 3cbe
00000030: aa57 6abd 6d98 8ebe 5e30 86be cc79 6fbd
00000040: cdda 6d3e 6131 103e 02a0 353d c0f2 12be
00000050: fe7a af3e f5cd d83c 0eb0 bf3d ef96 453d
00000060: 50a7 9a3d bd47 ac3d a9af 6a3e 4a3f b13e
00000070: c56f 833d 4adb 273e 9e90 10be 7929 8d3e
00000080: 6805 973d 5ff5 963e e9d3 d7bc 7a31 86be
00000090: 46d1 443d 2f3c ed3d efbf a23e 1429 1a3e
000000a0: 2783 263e 937b 9f3e 9402 c0bd 8027 ae3e
000000b0: 919d 563e bc79 873e a58c 6c3e 6651 85be
000000c0: 8bdb 213e f517 ac3e dbec 8dbe 1892 4cbd
000000d0: d192 3fbe 4496 63bd 63be fb3c 9644 2e3e
000000e0: d4f8 93bd 914b b8be 1b54 5c3e 8379 213e
000000f0: b1b7 16bd 6cdc 8b3e 6306 9e3e 0fc3 49bd
00000100: 83b0 5f3c c917 7f3d ade3 8dbd e662 b2bd
00000110: 946c 23be f1e2 4dbe 94ce 343e fd01 d7bd
00000120: 10af 2dbe 8075 9f3e 5c89 673d 059c 823e
00000130: 33f6 a43e 7a00 4cbd 3203 583d 82d4 a73e
00000140: 6718 79be 2219 d9bd 0312 4e3d 9a7e c4bc
00000150: edc6 c03d ba5e 3e3e 0ef3 14be 5385 e13c
00000160: 52c5 a33e 57dc 4cbe 1a82 75be f4d2 8abe
00000170: 6b69 583e 6609 a6be 4b0f 30be d384 743e
00000180: 0608 63be 5a5f 553e 6d68 5ebe deef efbd
00000190: e850 293e 3406 f93d f803 443e 2589 023f
000001a0: 12ad bdbe bdd8 3f3c 203f 89bd 9d3d dabd
000001b0: 7de8 a6be 69e8 08bd de1a a0bc 9d7a e6be
000001c0: 2c05 0ebe 3176 2dbf f71b 753e b39a 933e
000001d0: d1a6 86be 5fe4 f73d 20ad 033e 3377 d8be
000001e0: 83e5 11be b086 00bd 41d2 12be ea5b 3b3e
000001f0: 9575 9ebc 781a 0cbe 3332 8b3e 277e 883d
00000200: e8b1 0bbf 85dd b83e 05aa 5e3e 1ce6 97be
00000210: cfe3 b4be 35a5 87be addf 393f b392 f23e
00000220: d668 d63d cdf8 2cbe 393a 6a3e b8a2 9d3d
00000230: fa8e 33be 87bd cdbd c58e 3d3e 935e 883d
00000240: d482 ba3c d68a b6be c2f7 5abe e5d0 c93e
00000250: e6d6 55be 0936 6e3e f230 60be 1675 e4bd
00000260: de89 bbbe 32fa 19bd ae0b d73e a485 33bf
00000270: 8737 4a3e 12ea 67be e9ea 803e 067a c6be
00000280: 164d 8fbe f022 92be f212 fbbd 4e2d 453d
00000290: e4b7 84be e681 b73d 5a0d 5a3e 1691 933e
000002a0: 6948 a03e c05c 6e3e e036 d5bd e575 05bd
000002b0: 4c29 a03e 6d19 343e 1d05 c0bd 5fab 883e
000002c0: 8232 9ebe bced 9a3e 1390 4a3e 4bc5 84be
000002d0: 48a4 93be d28f 8d3e ef93 b23e afbd fc3c
000002e0: 1976 0dbe 4326 4e3e dc54 233e 96bb 34bd
000002f0: 5bed 903e 0caa 6a3e 5a83 b43d 11fb 3b3e
00000300: ecf6 d3be 1d15 f2bd c85d e23d c67f 113e
00000310: baae adbd e6a2 a73d e456 d03d 914d 95be
00000320: de66 4c3e 6301 0c3d ec5e 3fbe 2e63 783d
00000330: ccce 00bd 8fad fbbd f2dc 92be e4ff b13e
00000340: 2d62 8bbe 221c b63d 2eec 693e 1d48 c4bd
00000350: 3e6c 34be b94f 92be 4286 c13c 2980 0abe
00000360: 016c c93d d46a 6e3d 7d1f ebbd 87de 8c3e
00000370: 21f2 ffba e498 2dbe 38d0 29be b5d2 2e3e
00000380: 4263 7fbe c749 d73d bacd 61bc 5e40 593e
00000390: 36ec 11be 8ced 51be e055 73bc 51b0 7cbe
000003a0: e19a 293e e411 cabd 151b 343e 95a5 713e
000003b0: 76fa 723e 5a8d 0bbd 2f28 653e 0021 20be
000003c0: 7f93 a4be acae 38bb a60a 93be fde9 78be
000003d0: c325 f73d 4a76 aa3e cdcc ddbd 9a92 313c
000003e0: d5b6 66be e997 fd3c c1ca 063e e84e aebd
000003f0: 6f7f 993e 0f7a a1be 73f8 87bc 6560 29be
0.1581412 -0.26423228 0.20205775 0.07807301 0.16992518 -0.29003373 0.20367493 -0.36884475
-0.22586602 0.2344025 0.043784294 -0.18410717 -0.05721251 -0.27850667 -0.26208776 -0.058465764
0.23227997 0.14081337 0.04434205 -0.14350414 0.34273523 0.026465395 0.09359752 0.048239645
0.075514436 0.084121205 0.22918572 0.34618598 0.06417803 0.16392246 -0.14117667 0.27570704
0.07374078 0.29484078 -0.026346164 -0.26209623 0.04805114 0.11583745 0.3178706 0.15054733
0.16260968 0.31148967 -0.09375492 0.3401451 0.20958544 0.26460063 0.23100527 -0.26038665
0.15806405 0.33612028 -0.2771977 -0.049944013 -0.1870835 -0.055563226 0.030730432 0.17018351
-0.072251946 -0.35995153 0.21516459 0.1576901 -0.036796276 0.27316606 0.30864248 -0.049258288
0.0136529235 0.062278543 -0.06928191 -0.0871027 -0.15959388 -0.20106103 0.17656928 -0.10498426
-0.16961312 0.31144333 0.05652748 0.25509658 0.32219085 -0.049805142 0.052737422 0.32779318
-0.24325715 -0.10600497 0.050310146 -0.02398615 0.09412942 0.18590823 -0.14545843 0.027529394
0.3198648 -0.20005928 -0.23975411 -0.2711407 0.21133964 -0.32429045 -0.17193334 0.23878793
-0.2217103 0.20837155 -0.21719523 -0.11715673 0.1653477 0.12159386 0.19142139 0.50990516
-0.37046105 0.011709389 -0.06701493 -0.10656283 -0.3259925 -0.03342477 -0.019544061 -0.45015422
-0.1386916 -0.6775847 0.23936449 0.28828964 -0.26299146 0.12104105 0.1285901 -0.42278442
-0.14247708 -0.031378448 -0.14338018 0.18296781 -0.019343177 -0.13681972 0.27186736 0.06664687
-0.5456834 0.36106506 0.21744545 -0.29667747 -0.35330054 -0.2649323 0.7260693 0.47377548
0.104692146 -0.16891785 0.22873773 0.07697052 -0.1753501 -0.10045915 0.18511494 0.066586636
0.022767462 -0.35652798 -0.21383575 0.39417186 -0.20882758 0.232628 -0.21893671 -0.11155145
-0.36628622 -0.03759212 0.42001098 -0.70125794 0.19747745 -0.22647884 0.25179222 -0.38764971
-0.279885 -0.2854228 -0.12259473 0.04813891 -0.25921547 0.08960323 0.21294156 0.2882163
0.31305245 0.23277569 -0.10410857 -0.032583136 0.31281507 0.17587824 -0.09375975 0.26693246
-0.3089791 0.30259502 0.19781522 -0.25931773 -0.28836274 0.2764879 0.3487849 0.030852167
-0.13814582 0.20131783 0.1595034 -0.04412421 0.28306088 0.2291643 0.08814116 0.18357493
-0.41399324 -0.11820433 0.110530436 0.14208898 -0.08480592 0.08185367 0.10172823 -0.2916074
0.19961116 0.03418101 -0.18688554 0.06064146 -0.031447217 -0.12288963 -0.28684193 0.34765542
-0.2722334 0.08892085 0.22844002 -0.09584067 -0.17619416 -0.2857645 0.02362359 -0.13525452
0.09835053 0.058207348 -0.11480615 0.27513525 -0.0019527116 -0.16952854 -0.16583335 0.17072566
-0.24940208 0.10512119 -0.013781959 0.2121596 -0.14250264 -0.20500773 -0.014852017 -0.24676634
0.16562988 -0.098666936 0.17588456 0.23598321 0.23728356 -0.03407035 0.2237861 -0.15637589
-0.3214378 -0.0028180284 -0.28719062 -0.2430801 0.12067749 0.33293372 -0.10830078 0.010838175
-0.22530682 0.030956225 0.13163282 -0.08511144 0.29980037 -0.31538436 -0.016597962 -0.16540678

nee_decoder.0.bias f4 [16]
00000000: 2e1a 0bbd 41d9 ccbc 0000 0000 1e91 54be
00000010: 2e94 313e 0000 0000 a3c5 aebd 3fa0 fcbc
00000020: 9958 8a3e 9578 0f3e 49de a3bb ecb0 4c3e
00000030: 0000 0000 844e 9bbb f662 60bd 0000 0000
-0.033960514 -0.025005938 0.0 -0.20758483 0.17341682 0.0 -0.0853379 -0.03083813
0.2702072 0.14010842 -0.0050008637 0.19989365 0.0 -0.0047395844 -0.054781877 0.0

nee_decoder.2.weight f4 [16, 16]
00000000: 9236 bcbe 5dde aa3d cc90 4e3e 83d2 d83e
00000010: 3ed5 6bbf 4593 a0be 5c2a 6dbe f6b7 5b3e
00000020: 421b 6ebe b83c 343e 5f58 c03c 83ba c63e
00000030: bf27 ae3d 3794 cd3e ccf5 1f3d 9106 cc3e
00000040: 5848 0a3e caad 6cbe cf85 6d3c 995a 2bbe
00000050: 4781 a0be 21b9 a4bd 7f5f 85be b2bd bb3e
00000060: 2359 6ebd a221 a73e 0b59 e2bd 6cfc 89bd
00000070: 94b1 df3d f6ed 87be 49d8 38be 177c d9be
00000080: af4f 9e3e c3f2 c03e 3983 dbbe 6202 9cbe
00000090: 7db2 8e3e 49fd 33be 01ec 9b3e 265a 863e
000000a0: 575b 433d 34b2 063e 6c30 a13d 795b 393e
000000b0: 0329 b2be 806b b33d efe9 dcbe 5bce 91be
000000c0: 973c 25be 7fcd 2cbd c138 d1be d08f 303c
000000d0: c395 8d3d f0f8 2fbe e1d1 0f3e 93ba c13e
000000e0: e97a 97bd e425 6cbe ef63 c4be 46e3 a1be
000000f0: e33d 75be 22e6 a3be 2753 2ebe dd43 743e
00000100: 51c0 0a3e 67d3 c73e db1d dc3e 55ac 1fbe
00000110: 57a5 2dbe 05b6 723d aa89 b0be 282d 713e
00000120: 309b 9fbd 4ea3 b9be 9e61 a7be a7c4 98be
00000130: dcbd f33d 5af3 a93e f7a4 af3e 0330 f4bd
00000140: 356a 7cbe 2d58 6cbe 0473 97be 3d3c 533d
00000150: a678 81bf b5ff 6c3e 4136 a8be e4b1 99be
00000160: e72c 553e 3f1b 11be 5148 863e fa35 053f
00000170: 0389 da3e a726 1b3f 1706 ebbd 9960 7d3e
00000180: 6847 e7bc 37b8 08be a1d7 b83a 67eb c63d
00000190: eaa7 943e 2320 3a3e 55e5 443e 22aa 843d
000001a0: ca89 b2bc 2c71 2b3e eb9c b73d 8685 dbbe
000001b0: 0d60 8f3d f501 58be 0123 6bbe 687a 2b3e
000001c0: 2994 923d 23d5 6d3d 1158 52be ccc1 1e3d
000001d0: b6a7 813f c3fa 583d dd56 1c3e 8dbc b2be
000001e0: cf87 ad3e 242b c53d 5038 133e a67b fe3d
000001f0: b940 e9bd a4cb 95bd bb90 cb3e 4a3a a23e
00000200: 70ce 18bf 594a b43e 33a5 dc3e bfc2 613e
00000210: 037e 78bf 59e6 ab3d aec9 dabd 60a2 8f3e
00000220: 5af2 b9be 61e0 833e 0ffb e13d 6f1b 4f3e
00000230: e381 983e 6fcb 3a3f 3308 acbe ce53 81be
00000240: 9e34 29be b5ed 7c3d 251c 2b3e 756d a63d
00000250: 226e 48bf a491 423e 5f85 cbbe e423 8b3e
00000260: c4c9 07be 530b ba3e 7f13 c73e f596 e93d
00000270: d942 0c3e 6063 28be f47f a93e eac2 813e
00000280: 24fd 50bd 1620 3e3e 3eb1 c6bc c31a 003f
00000290: 372e debe aca1 a13e cbf8 bbbe 5e3a c83e
000002a0: a01e a23d e11d 8a3e ff2a 1c3e 5f76 b13e
000002b0: 2bb7 d03e 097e 823c 8a50 abbe ce94 cb3e
000002c0: edc5 bfbc fc18 56be 157a 883e 75d4 793e
000002d0: a183 333e 17ab debc 20c0 9ebd 890f db3e
000002e0: e873 a93e bfa2 723e 936c 833e 0712 81be
000002f0: 6329 b93d f810 15bf 4ff4 603e d4c0 dbbe
00000300: 0692 ddbe 2026 dbbe 7bb7 883e 9e94 383d
00000310: 9a10 813a 250d 8d3d a2ce 27be 57a5 06be
00000320: 4956 95be f292 d8bd f16b 88be e6a8 3a3c
00000330: 6b31 ae3e 9d47 b7be ca0d 5a3e e2e6 a4be
00000340: 9bb6 37be 2369 ad3d 4497 983d 8c59 b03e
00000350: 67d9 29b9 04e1 28be 4623 67be ecfe 4f3c
00000360: 2a3d a6be da27 b6be a6f7 49be ed19 42ba
00000370: 8eb9 95be 9827 80be 664b 9e3e 25e1 cc3e
00000380: 0fa2 0dbe a794 b7be 58c2 29be a6aa ac3e
00000390: 3c3e f3be 9674 09be c2d4 b8be 58e4 24be
000003a0: 9b9d 4bbe 584a a13e af86 19be d544 ab3e
000003b0: ac08 763d c673 4f3d dc00 bbbe 2fe1 da3e
000003c0: f0d6 f3bd ec88 883e 025c 65be b142 abbe
000003d0: aed2 a9be 103d 63be f081 38be 7d75 7abd
000003e0: 8fad 063f a8a0 dcbe ef84 3e3e 5e29 a93e
000003f0: 94a5 363b 5ee0 93be 116c 2a3e c562 d23d
-0.36760384 0.08343194 0.20172423 0.42348108 -0.92122257 -0.31362358 -0.2316069 0.21456894
-0.23252586 0.17601287 0.023479639 0.38814172 0.08503675 0.4015214 0.03905277 0.3984876
0.1350416 -0.2311317 0.0144972345 -0.16733779 -0.3134863 -0.08043123 -0.2604942 0.36668164
-0.058190476 0.32642847 -0.1105214 -0.06737599 0.10922542 -0.26548737 -0.18051256 -0.42477486
0.3092017 0.37685212 -0.42873552 -0.30470568 0.2787055 -0.1757709 0.30453494 0.26240653
0.04769453 0.13153917 0.07870564 0.181013 -0.34796914 0.087607384 -0.43147227 -0.2847775
-0.16136394 -0.042188164 -0.40863612 0.010776475 0.069133304 -0.17184806 0.14044906 0.37837657
-0.0739649 -0.23061329 -0.38357493 -0.31618708 -0.23949389 -0.32011515 -0.17023908 0.23854013
0.13549925 0.39028475 0.42991528 -0.15593083 -0.16957603 0.05925562 -0.3448003 0.23552382
-0.077932715 -0.36257404 -0.32691664 -0.29837534 0.11901447 0.33193475 0.34305546 -0.1192322
-0.2464989 -0.23080511 -0.29579937 0.05157112 -1.0114944 0.2314442 -0.32853892 -0.30018532
0.2081791 -0.1417055 0.26227048 0.52035487 0.42682657 0.60605854 -0.11475771 0.2474388
-0.028232291 -0.13351522 0.0014102348 0.09712868 0.29034358 0.18176322 0.19228108 0.06477763
-0.021794219 0.1674239 0.089654766 -0.42875308 0.07000742 -0.21094497 -0.22962572 0.16745913
0.071571656 0.05806459 -0.20541407 0.038759038 1.0129306 0.05297352 0.1526751 -0.34909478
0.33892676 0.09627369 0.1437695 0.12425928 -0.11389298 -0.07314232 0.39758858 0.31685096
-0.5969 0.35212973 0.43094787 0.22046946 -0.9706728 0.08393545 -0.106829986 0.2805357
-0.36317712 0.25757125 0.11034214 0.20225309 0.29786596 0.72966665 -0.33600006 -0.2525925
-0.16523978 0.061750133 0.16709955 0.08126346 -0.7829305 0.1900087 -0.39750192 0.2717582
-0.13260561 0.36336765 0.38882062 0.11405746 0.13697375 -0.16444159 0.33105433 0.2534402
-0.051022664 0.18566927 -0.024254438 0.50040835 -0.43394634 0.31568658 -0.3671325 0.3910703
0.079159975 0.2697592 0.15250777 0.34660622 0.40764746 0.015929239 -0.33459884 0.39761966
-0.023409808 -0.20907968 0.2665564 0.24397452 0.17530681 -0.027181191 -0.07751489 0.4278529
0.33096242 0.23694895 0.25668773 -0.25209066 0.09041097 -0.5822902 0.21968196 -0.42920554
-0.4327547 -0.42802525 0.26702484 0.045063607 0.0009846867 0.06887273 -0.16387418 -0.1314901
-0.29167393 -0.105749026 -0.26644853 0.011392808 0.34022078 -0.35796824 0.21294323 -0.322074
-0.17940752 0.08467319 0.07450727 0.3444332 -0.00016198085 -0.16492087 -0.2257205 0.012695055
-0.3246854 -0.3557728 -0.19723377 -0.0007404376 -0.2924313 -0.25030208 0.309169 0.40015522
-0.13831352 -0.358556 -0.16578043 0.33723944 -0.4750842 -0.1342338 -0.3609982 -0.16102731
-0.1988434 0.31502032 -0.14992784 0.33450952 0.060066864 0.05064752 -0.36524093 0.42749926
-0.119062304 0.26666963 -0.2239838 -0.3344932 -0.33168548 -0.22191262 -0.18018317 -0.0611472
0.5260858 -0.4309132 0.18605398 0.33039373 0.0027869688 -0.28882116 0.16642787 0.10272745

nee_decoder.2.bias f4 [16]
00000000: 354b 773d bb83 48be 509d e5bd 0000 0000
00000010: 0000 0000 b82c 3e3e 063b 85bc b0a1 e8bd
00000020: 26db 0a3e 02e8 273e 5843 fb3d 55c0 26be
00000030: 0000 0000 9940 0cbc ff33 4e3e fb64 9b3d
0.060374457 -0.19581501 -0.112116456 0.0 0.0 0.18571746 -0.016263496 -0.113589644
0.13560161 0.16397098 0.12268704 -0.16284306 0.0 -0.008560323 0.20137022 0.0758762

nee_decoder.4.weight f4 [1, 16]
00000000: ee56 223f ef3c 4dbe 0062 2bbe 0680 8fbe
00000010: b219 13bf 1230 3e3f 79f7 e4be b0d2 7abe
00000020: edfc 883e f40a 0c3f 3bd7 203f 9bf5 ecbe
00000030: 1ee7 033f 4b22 063f 7125 253f dedb c0bc
0.63413894 -0.20042776 -0.16736603 -0.28027362 -0.5746108 0.742921 -0.44720057 -0.24494433
0.26755467 0.54704213 0.62828416 -0.46281132 0.5152453 0.52396077 0.64510256 -0.02354234

k_decoder.0.weight f4 [16, 32]
00000000: f091 923e 2401 483e 2c05 6fbe 1d27 25be
00000010: 1195 92bc e8f3 8bbe 93f3 0ebe d055 8e3e
00000020: 97f0 3b3e 317a aa3e 66d4 bc3c 884c 1fbe
00000030: eca1 833e 10e1 403d 303c b53d e9b1 02be
00000040: 47dc ff3d 3ab7 74be 12fa 843e 8f0c 993e
00000050: 706f 1a3e c99b 993e d69c 3f3e 0619 e9bd
00000060: a8b1 93be 546f db3c 24f7 423e d090 90bd
00000070: 8f73 5c3d 9f71 783e c3fa 083e cc16 913e
00000080: c606 563e 823f 50bd a715 43be 77bc 07be
00000090: 5746 fcbd 5239 a23e 226f 433d ce8e 85bd
000000a0: 8411 cabd 7041 56be 1da6 d9be e659 1fbe
000000b0: c822 b1be d250 b0be 2bc3 00be 4c2a 19be
000000c0: 4370 0e3e 9f97 9dbe b0f1 ab3e 6dce 97be
000000d0: 44f1 82be aeeb 5bbe 7b23 af3d 1e33 c03d
000000e0: 4737 3ebe 5fa8 f13d 120f 82bd eba3 4b3e
000000f0: ceb7 03be 3d01 253e 29c5 18bf c885 a3be
00000100: 4bbd 0f3f 98a3 cf3d 0a88 d8bd 18d6 a1bc
00000110: d783 9e3d 3c8c 013e 7008 39bf 25ad 00bf
00000120: f3fa c5be 555d a1be aae3 d8bd 193d d4bd
00000130: c5c3 4d3e 8c84 633c 53c2 93bd cb88 31bd
00000140: 5833 5c3e 1f87 bdbd 9c08 d6bc 52b3 1cbe
00000150: b92a acbe 8ba6 94bd 131b 9bbe 263a 48be
00000160: f611 84be 6096 843e 47bd c7be e707 3f3f
00000170: c2bd ab3d 3866 48be 2427 afbd 2c72 b9bd
00000180: 57b9 ae3e 5084 53be 595b 86bd 024b e9be
00000190: 90b9 943d cd1c 943e e9a9 4dbf 4d38 3dbf
000001a0: 9cb0 aebe ea1f c0be c0b8 083e 690a d1be
000001b0: 6988 53be d6d3 35bd f170 8fbe b5e4 1c3d
000001c0: a948 53be cd7d a23e a05a 9c3e fbf7 87be
000001d0: 4d51 eabe 1aee c6bd b362 563e 026a 7dbe
000001e0: bbe4 51be 6c79 9bbe 1fa2 0bbf 5856 013f
000001f0: 890d 263e b64f f73d f6e6 10bf a52d 73be
00000200: be0d 35be a963 a2bb 85b4 0cbe 2254 733e
00000210: 0ea1 4f3e f9bc 99be 7db9 2f3e 48f6 d9bd
00000220: 54ee 29be 8930 44bc bdd2 b0bd 3781 2fbe
00000230: bd85 b33d 5eb5 6b3e 2119 2abd ca5b 803b
00000240: abd2 eb3b 9336 0ebe 066b 223e 2eb3 a23e
00000250: b9da 33bb a567 533d 6230 893e 915e 9a3e
00000260: db18 65be c86a 3abe d4f6 b1be bf2a 213e
00000270: b4a5 993e 2547 24be 22c7 293e 56d8 e03d
00000280: adcf 8dbe 097d 2c3e 048d 4d3e 0d84 0f3d
00000290: 27c5 133c e5d7 603d 195c 903e 8bfc 913e
000002a0: 2de7 9f3d 193d 363e dc9a 85bd afc3 733e
000002b0: 3efc e4bd 5841 87be e6bd 453e 9931 223e
000002c0: 9219 4f3d a2f2 353e e79a 723c 3ed8 be3d
000002d0: 5271 2f3e 1562 27be 9334 3dbd 1540 d53c
000002e0: b160 d8bc a727 a6be eb01 793d 275b 413e
000002f0: 27b5 25be b9c4 a33e 6af4 dc3d 03e5 353e
00000300: d358 133f c192 eabe d5c7 cbbe af67 d8bd
00000310: aab3 8ebd 4920 f03e b0c6 90bf 6e02 9bbf
00000320: 28ff b8be fa99 283e 8753 a0be 0c14 1c3e
00000330: 3ceb 54bd 9fc3 67be a514 d83d 890c 053d
00000340: ea93 d4bd e8d9 84bd 2ae0 ff3e 7b61 b9bc
00000350: 2c60 b6be 5eca 53be 952a 913e bcdb 123e
00000360: 08f5 15be be65 50be 310c fbbe ce0f 2a3f
00000370: bd41 36bc 0f8f e63d 63a4 8dbf 40e5 2fbe
00000380: d8fa 023f df69 c1be ecbb bfbe a1f4 1b3e
00000390: aaba d53e 9f23 87be be91 14bf 27cc b6be
000003a0: 33a3 853e f28f 8fbe 1d1c 2fbd 2a2a 513e
000003b0: d668 5cbe 04d7 3ebe 8eaa 96be d664 74bd
000003c0: 6647 ca3e fff8 c23d e2cf a53e 6de8 43bb
000003d0: f5ac 0cbe ab02 0abe 3f5d 883e 3896 cdbd
000003e0: 1f42 c2be 7b74 88bd cccc 273e 42f1 193f
000003f0: 72b4 11be df67 69be 563b f8be 0aee afbe
0.28626966 0.19531685 -0.23341817 -0.16128202 -0.017893346 -0.27334523 -0.13960104 0.27799845
0.18353496 0.3329635 0.023050498 -0.15556538 0.25709474 0.047089636 0.088493705 -0.1276318
0.124931864 -0.2389802 0.25972039 0.29892394 0.15081573 0.30001667 0.18712172 -0.11381726
-0.28846478 0.026786484 0.19039589 -0.07058871 0.053821143 0.24262093 0.13376908 0.28337705
0.20901021 -0.050841816 -0.19051228 -0.13255487 -0.12318104 0.31684357 0.047713406 -0.065213785
-0.09866622 -0.209234 -0.42509547 -0.15561637 -0.34596848 -0.3443666 -0.1257445 -0.14957541
0.13910012 -0.3077974 0.3358283 -0.29649678 -0.25574696 -0.21476623 0.08551689 0.0938475
-0.18575774 0.11799692 -0.06350531 0.19886748 -0.12863085 0.16113754 -0.5967584 -0.31938004
0.56148213 0.10138625 -0.105728224 -0.019755408 0.0773999 0.12651151 -0.722785 -0.502642
-0.38668022 -0.3151652 -0.105902985 -0.10363216 0.20094211 0.013886582 -0.07214799 -0.043343347
0.21503961 -0.09254288 -0.026127152 -0.1530278 -0.33626345 -0.07258328 -0.30294093 -0.19553432
-0.25794953 0.25895977 -0.39011595 0.74621433 0.08385803 -0.19570243 -0.08552387 -0.0905498
0.34125778 -0.20655942 -0.06560392 -0.4556504 0.07261956 0.28928223 -0.8033739 -0.73914033
-0.34119117 -0.37524348 0.13351727 -0.40828255 -0.20657505 -0.044391476 -0.28015855 0.03830405
-0.20633186 0.31736603 0.3053789 -0.26556382 -0.45765153 -0.09713383 0.20936088 -0.2474747
-0.2049741 -0.30366075 -0.5454425 0.50522375 0.16216101 0.120757505 -0.5660242 -0.23747881
-0.17681023 -0.004955728 -0.13740738 0.23762563 0.20276281 -0.30026987 0.17160602 -0.106426775
-0.16594821 -0.011974462 -0.08633945 -0.17139135 0.08765743 0.23018405 -0.04152787 0.003917192
0.0071967444 -0.13888006 0.15861139 0.31777328 -0.0027443601 0.051612515 0.26794726 0.30150273
-0.22372763 -0.18204796 -0.34758627 0.15738963 0.30009234 -0.16042764 0.1657987 0.10978763
-0.27697507 0.16844572 0.20073324 0.035038043 0.009019173 0.054893393 0.28195265 0.28512987
0.07807765 0.17796744 -0.06523678 0.23805116 -0.11180924 -0.2641704 0.19310722 0.15839233
0.050561495 0.17768338 0.014807439 0.09318589 0.17133072 -0.16346009 -0.046192717 0.026031533
-0.026413294 -0.32452127 0.060792845 0.18882428 -0.16182385 0.31986025 0.10788806 0.17763142
0.5755741 -0.4581509 -0.39800897 -0.10566651 -0.06967862 0.46899632 -1.1310635 -1.2110116
-0.3613217 0.16464987 -0.31313726 0.15242022 -0.05198215 -0.22633217 0.10550813 0.032482658
-0.10379775 -0.06486875 0.4997571 -0.02262949 -0.35620248 -0.20682666 0.283528 0.14341635
-0.14644253 -0.20351312 -0.4903274 0.66430366 -0.011124072 0.11257755 -1.1065792 -0.17177296
0.5116401 -0.37776086 -0.3744806 0.15230037 0.41743976 -0.26394364 -0.58034885 -0.3570263
0.26101074 -0.2803951 -0.04275142 0.2042624 -0.21524367 -0.1863671 -0.29426998 -0.059666477
0.39507598 0.095201485 0.32385164 -0.0029893175 -0.13737853 -0.1347758 0.2663364 -0.100384176
-0.3794107 -0.06662842 0.16386718 0.60133755 -0.1422899 -0.2279353 -0.4848277 -0.34361297

k_decoder.0.bias f4 [16]
00000000: 1903 d63c 0508 143e 0178 f93d 99a5 e23e
00000010: 2945 88bd f949 dfbc 8a41 e63e d7cc d23d
00000020: d8cf 443e ef73 3abd 13ea e5bc 62f2 3c3e
00000030: a55b 0e3e 0000 0000 c3ad 3f3f 20c8 9cbd
0.026124524 0.14456184 0.12181092 0.44266966 -0.06653816 -0.027256953 0.44971877 0.10292976
0.19219911 -0.04552072 -0.028065717 0.18451837 0.13902147 0.0 0.74874514 -0.07655358

k_decoder.2.weight f4 [16, 16]
00000000: ff67 ca3e 0f83 2bbe 0f43 e5be 1428 9e3d
00000010: 2ae3 1fbe 48da 90be 6241 a43d 207d 9bbd
00000020: edb0 92bd 0edb c63e 6a8c 9bbd 4985 6d3e
00000030: 29cb 22be 41f8 a43e b3d1 cf3d 1b19 013f
00000040: 3f80 143e 853a 23be dc12 3b3e 3c9f a83e
00000050: dec7 9b3d 246c 4c3e 3aab b5be 0f13 6a3e
00000060: 23a8 d4be 62fd c33e 0423 373e 849c b63c
00000070: 0e9d d2be 8e9b c93e d426 703e 4b4e c93e
00000080: ae2a 593e 58e9 6c3e 2913 4e3c b510 313e
00000090: 18b7 2b3e b5c6 fb3d 0d52 df3e f97d 283e
000000a0: 9687 6f3e 5fd4 d1be 62b3 b5be db29 a4ba
000000b0: f9ff cd3e 5654 583e 2abf 973e ce37 b8bd
000000c0: 7cc5 adbd eb38 ab3d c254 9b3e 4881 60bd
000000d0: 4794 aebe c0a7 d93c 5563 88be efaa a5be
000000e0: 57f9 3b3e 124a 6ebd 5284 513e 889e 893e
000000f0: f221 c2bc 4cbf 793e 50d4 9bbe 9a7c 523e
00000100: e6aa 743d 041e b33e bdf1 033f 64c8 24be
00000110: b0a8 c83e 5a49 9b3e 9cfa d2bd 5698 533e
00000120: a1cc 93be e8fd 163e d48c c23d 9189 aebe
00000130: 22a4 6c3e d696 f3bd 7191 443f 50eb e33e
00000140: 96dc 453e a510 df3e c75f a03e c473 493f
00000150: 921e 40bd 2c66 a33d 1c74 d33e d4fd d03d
00000160: 38e0 0fbd c0af 26be ad9b 8e3e 7cfa 9f3e
00000170: 2b7e 92bd 0263 c3be bdb3 743f 9d7d b6be
00000180: 3af8 9cbc 27c3 bebe 6aa3 b93e f986 b43e
00000190: 5334 b6be c91f cebe bb14 83be 1cb5 f43d
000001a0: 76bc 5dbe b830 d3bd b6c9 e0bd 90ab a23d
000001b0: aebb 51be ceaa 493e bba5 9ebe 6ee0 1dbd
000001c0: 5de9 bc3e 6eb0 6ebe 3f2b ad3e 4ac6 663e
000001d0: 563a 0fbe d1c1 193e e0c6 95be 0f58 273d
000001e0: adbf 033e 9ac3 bf3e be1e 78be 4c06 76be
000001f0: f027 57be faf9 d7be 5c56 b33d a671 b4be
00000200: 9e65 bfbd 784f 8fbd 5ad3 ab3e d997 303f
00000210: 0ae1 90be ac06 cebd 8fd2 183f f972 d8bd
00000220: 2990 6a3e f917 513e 26a3 8fbe 5317 053f
00000230: b730 ef3e b335 05be df2e 823f f9f2 d73d
00000240: 1f41 16bd 59cb 74be 028c f53e 4486 eb3e
00000250: 0f37 babe 74c7 b9be 14f9 3e3f 4414 173e
00000260: 643a 2dbd e19b 993e 921c 1c3e 51ef 653e
00000270: c24e d33e 616d 0abd 71a3 663f 72ac a0be
00000280: 4558 64be b440 223e 024a 8a3d 74ae 223f
00000290: db36 eebd 3d6c 273d fd14 cb3e e552 d63e
000002a0: 4126 653d 5fbf 8d3c 1cc8 b03e 478b 093f
000002b0: 5bcd 053f 8ac3 d8be 48f8 033f a18d 5dbd
000002c0: d353 f8bd bd0c 4a3e de1a 143e aad7 eabd
000002d0: 93b3 6b3c 7b01 be3d 55e9 803e 9193 2d3e
000002e0: 11e2 89be 028e 51be c139 0c3e 1f94 e3bd
000002f0: 47df aebe 9994 d6be a71d fabd 4d32 21be
00000300: 9b09 91be 73be 993c 4e55 b93e 2792 953e
00000310: 4dfa 5a3e 6535 a7be 66b2 403e 82d8 2d3e
00000320: 3fd1 aa3d 733c 1cbe de5d a73c 2a86 a4be
00000330: 556c 2dbe 5afb 91bd 8e23 bcbe 7365 f0be
00000340: 806d 1c3e b786 c4be 86f5 b4be 05de 153e
00000350: 287b b5be 2c80 d33e 3221 c53e 082d 2bbe
00000360: 5263 d5bd 589d a9be 6c4c db3c 1015 4b3d
00000370: 1ac2 88be 640b 0b3e 3693 3dbd cff3 20be
00000380: 6144 8e3f d9ec 0abe be54 adbe 469b 9abb
00000390: ee1f 833e 7968 83be b025 3a3e 6ba4 2f3d
000003a0: ba67 953d 1dbd f839 5f94 543e 0291 883e
000003b0: 55c3 043f e0d5 a7bd cf08 8cbe 227c 1440
000003c0: 2cc9 adbd c310 b83e 0cc1 cc3e 83ae 023f
000003d0: b15e aebe 89b6 cbbe 29a7 3a3f bd41 493e
000003e0: a3c8 ab3e 0228 adbe 826e 01bd 5b06 fd3e
000003f0: cea9 ac3e 093e b83e b3ef 923f 0bb4 87bd
0.39532468 -0.16749214 -0.44777724 0.07722488 -0.15614 -0.28291535 0.08020283 -0.07592225
-0.07162652 0.38839 -0.07595141 0.23195376 -0.15897812 0.32220653 0.10147419 0.5042893
0.14502047 -0.15940292 0.18268913 0.32933986 0.07606481 0.19963127 -0.35482198 0.22858833
-0.41534528 0.38279253 0.17884451 0.02229143 -0.41135448 0.3937649 0.23452312 0.39317545
0.21207687 0.23135889 0.01257781 0.1729153 0.16769063 0.1229376 0.43617287 0.16454305
0.23391566 -0.4098234 -0.3548842 -0.0012524681 0.40234354 0.21125922 0.29638034 -0.08995019
-0.08484933 0.083604656 0.30338103 -0.054810792 -0.34097502 0.026569247 -0.26638284 -0.32356974
0.18356834 -0.058176108 0.20460632 0.26878762 -0.023697827 0.2438938 -0.3043542 0.20555344
0.059733294 0.34983838 0.5154074 -0.16092068 0.39191198 0.303294 -0.10301706 0.2066358
-0.28867057 0.14745295 0.09499517 -0.3408933 0.23109487 -0.11894004 0.76784426 0.44515467
0.19322428 0.43567386 0.31323072 0.7869227 -0.046904154 0.07978472 0.41299522 0.10204664
-0.03512594 -0.16277981 0.27853146 0.31245792 -0.07152971 -0.38161474 0.9558676 -0.3564271
-0.019161332 -0.37258264 0.36257488 0.35259226 -0.35586795 -0.40258625 -0.25601754 0.11948606
-0.21653923 -0.10312027 -0.10975973 0.07942879 -0.2048175 0.19694063 -0.30985817 -0.03854411
0.36896792 -0.2330949 0.33822057 0.22536579 -0.13987097 0.15015341 -0.29253292 0.040855464
0.12866087 0.3745392 -0.24230477 -0.2402584 -0.21011329 -0.42182904 0.08756706 -0.35242957
-0.09345554 -0.06997579 0.33559686 0.689817 -0.2829669 -0.10059866 0.59696287 -0.10568804
0.22906555 0.20419301 -0.2805416 0.51988715 0.46716854 -0.13008766 1.0170554 0.1054439
-0.036683198 -0.23905696 0.4795838 0.46000874 -0.3637013 -0.36284983 0.74598813 0.14753824
-0.042292014 0.3000174 0.15245274 0.22454573 0.41271025 -0.033795718 0.9009314 -0.31381565
-0.22299297 0.15844995 0.06752397 0.63547444 -0.116315566 0.04087471 0.3966445 0.41860119
0.055944685 0.017303167 0.3452767 0.53728145 0.5226647 -0.42336684 0.5155072 -0.054090146
-0.12125363 0.19731422 0.14463374 -0.11466916 0.014386076 0.09277626 0.25178018 0.16950823
-0.26930287 -0.20464328 0.13693906 -0.11112236 -0.34154722 -0.41910246 -0.12212687 -0.15741844
-0.2832764 0.018767571 0.36197895 0.29213068 0.21384545 -0.32657924 0.18818054 0.16977122
0.08340692 -0.15257435 0.020430502 -0.3213361 -0.16935857 -0.0712802 -0.36745876 -0.469524
0.15276146 -0.3838403 -0.3534357 0.14635475 -0.35445523 0.41308725 0.3850189 -0.16716397
-0.104193345 -0.33127856 0.02676984 0.049580634 -0.26710588 0.13578564 -0.04628297 -0.15718006
1.1114618 -0.13566913 -0.33853716 -0.004718217 0.25610298 -0.25665644 0.18178439 0.04288141
0.07295175 0.00047443146 0.20759724 0.26673132 0.51860553 -0.0819509 -0.2735047 2.3200765
-0.08485636 0.35950288 0.39991033 0.51047534 -0.3405662 -0.397877 0.72911316 0.19653983
0.3355151 -0.33819586 -0.03159953 0.4941891 0.337233 0.3598483 1.14794 -0.06626137

k_decoder.2.bias f4 [16]
00000000: 2744 a2bd b474 c7bb 2510 cb3d b0f0 3bbd
00000010: 33e8 833c d880 f83d 0000 0000 d8c9 c43b
00000020: d98f a33e 756b 1a3d e44a d13d 9d55 2cbd
00000030: 0e33 d8bd f19e f2bc 8c67 053f 079d dc3d
-0.07923155 -0.00608691 0.09915189 -0.045883834 0.016101932 0.1213395 0.0 0.006005507
0.31945685 0.037700135 0.102193624 -0.042073835 -0.10556613 -0.029616805 0.52111125 0.10772138

k_decoder.4.weight f4 [2, 16]
00000000: 1b27 e5be 7d30 adbe ef64 9e3e 4af6 37be
00000010: e656 dd3d 65fd 943e f180 b73e 08ef a73e
00000020: ecd2 533f f2b0 d73e 7bc6 ea3e 6385 75be
00000030: 695b f3bd d3ec 7dbd 6ccb 633e 9a87 273f
00000040: 37e0 31be 94b0 313e 619b 89bd 639f 54bd
00000050: d6b4 b0be b5a5 d0bd 3735 04bf 2049 8abe
00000060: 6766 ba3e 2978 1fbf 4591 2c3d de8a a33d
00000070: 057e 20bf 36a7 aa3d 3473 c73f 71cb ba3e
-0.44756398 -0.33826056 0.3093638 -0.17965046 0.1080759 0.29099575 0.35840562 0.32799554
0.82743716 0.42127186 0.45854554 -0.23976664 -0.118826695 -0.06199343 0.22245568 0.65441287
-0.17370687 0.17352515 -0.06719089 -0.051909816 -0.34512967 -0.10187856 -0.516437 -0.27008915
0.36406252 -0.62292725 0.042130727 0.07985471 -0.6269229 0.08332674 1.5582032 0.36483338

k_decoder.4.bias f4 [2]
00000000: eb77 b33d ca6f 803d
0.08763107 0.06271322
