.archive/piae_sde/experiments/2024-11-25_16-27-49-927202/best_model.pth (torch, 25122 bytes, 28 tensors)

encoder.0.weight f4 [16, 18]
-0.110431105 0.15638888 -0.24821219 -0.47252715 -0.118912265 0.079302095 0.39305767 0.08356951
0.59188265 0.21419592 0.32067803 -0.17228603 -0.28661335 0.657756 0.147561 -0.31492323
0.022696158 0.16603275 -0.027870525 -0.6209818 -0.44971812 -0.030802475 0.035322376 0.38553047
0.5538129 -0.44809628 0.27918494 -0.14797455 0.13254653 0.3511214 0.5520945 -0.038293958
0.0013512266 -0.12002885 -0.025741175 -0.10002283 0.5559466 -0.045448285 0.9725721 -0.42926985
0.40084904 0.41607824 -0.2794732 -0.21378484 -0.055856872 -0.73898923 0.37175906 -0.19808787
0.10859593 -0.42631263 -0.24233119 -0.10458907 -0.029991608 0.17476225 0.25312823 -0.059393052
0.41675594 -0.33265862 0.38145223 -0.09219144 -0.05891264 -0.3195899 -0.09592229 0.031197289
-0.028371898 0.040971648 0.3821184 0.027919697 0.11066988 0.41779324 -0.11588705 0.4971787
0.15997638 -0.39121994 -0.17170185 -0.04956275 -0.18842207 0.26527506 0.041202754 0.24302314
0.059331786 0.43470404 0.31495887 0.02113334 -0.22129965 -0.5174493 -0.058143448 -0.25409696
-0.13896333 -0.07411316 -0.093712315 -0.38745087 0.2763573 0.27615628 0.39722574 -0.32053462
-0.25592935 -0.10850277 -0.35984442 -0.5850295 -0.024096651 0.16419598 -0.4828224 0.85180914
0.5188768 0.1411815 -0.38813958 -0.3618302 0.06317994 0.29120797 -0.09033233 -0.25703388
-0.06423381 -0.37345815 0.066417456 0.20337161 0.06208618 -0.09874239 -0.6951742 0.021761037
0.32440883 0.13355081 0.25585967 -0.25246456 -0.37164152 -0.288791 -0.20222493 -0.8991277
0.029873054 -0.37751892 -0.709299 -0.3670177 0.20873143 -0.1362284 0.88882846 0.23369482
-0.17390417 0.149515 -0.39710793 0.10258636 -0.06674459 0.22875343 0.2950223 -0.42507735
-0.21608534 -0.41883492 0.08641418 0.00799385 0.15439776 0.03493282 0.00524087 0.5966831
-0.23858605 0.15762219 0.023361841 0.14720783 0.26666233 -0.13777295 0.7257786 -0.28246376
-0.1213795 0.22048365 -0.20787567 -0.5459195 -0.17339063 0.06376391 0.15169221 0.6773254
0.111324795 0.033159144 -0.10482777 0.14890082 -0.29980636 0.122765906 -0.06209269 0.406975
0.33666995 0.47397727 0.46157086 0.09135914 0.08386705 -0.20636792 0.6746544 -0.04910386
0.5000901 -0.098298706 0.3833641 0.4447325 0.31951037 -0.12057264 -0.057893634 0.005961986
-0.4491942 -0.14547557 -0.24393989 0.05343136 0.43639067 0.114751965 -0.088536434 0.6396673
0.15705627 0.03384249 -0.13886605 -0.18270265 0.48292068 -0.106008366 -0.015873568 0.34805748
0.021235362 -0.1951117 -0.16839187 0.3336453 0.026642842 0.72586447 0.41415623 0.016512547
-0.26723787 0.6497338 0.5558442 -0.006618679 -0.0698465 0.11498081 0.7317842 -0.14400803
-0.17473844 -0.28386182 -0.59544283 -0.09233605 -0.44198003 -0.1555591 -0.37284938 0.70674694
0.1570012 -0.081919394 0.30854425 0.5807362 -0.059841968 -0.23400299 -0.43220267 -0.15032944
-0.09571558 0.094431356 -0.2755352 -0.6160319 0.30385566 0.07153859 0.3533164 0.4224354
0.072072834 -0.30854768 -0.26069883 0.13877423 0.40434226 0.2949251 0.09868292 -0.42616004
00000000: b429 e2bd 6824 203e 562b 7ebe 14ef f1be
00000010: 4688 f3bd 2369 a23d db3e c93e 7e26 ab3d
00000020: 9f85 173f 2d56 5b3e e92f a43e c06b 30be
00000030: fcbe 92be b262 283f 3b1a 173e 9e3d a1be
00000040: 4bed b93c 7d04 2a3e ba50 e4bc aaf8 1ebf
00000050: 7441 e6be 7955 fcbc 32ae 103d 4064 c53e
00000060: afc6 0d3f e06c e5be 54f1 8e3e a486 17be
00000070: 47ba 073e 2fc6 b33e 1156 0d3f 20da 1cbd
00000080: a41b b13a b0d1 f5bd 28df d2bc c5d8 ccbd
00000090: 8452 0e3f fb27 3abd 7cfa 783f 42c9 dbbe
000000a0: 163c cd3e 3508 d53e 1c17 8fbe 6aea 5abe
000000b0: 2dca 64bd 662e 3dbf 3457 be3e 8cd7 4abe
000000c0: 8b67 de3d a645 dabe ab25 78be cb32 d6bd
000000d0: f6b0 f5bc e0f4 323e 069a 813e 2146 73bd
000000e0: 0961 d53e 3b52 aabe b54d c33e dece bcbd
000000f0: 614e 71bd 4aa1 a3be e872 c4bd 7591 ff3c
00000100: 2f6c e8bc e3d1 273d 06a5 c33e d9b7 e43c
00000110: e4a6 e23d ffe8 d53e 3156 edbd 358e fe3e
00000120: d9d0 233e fb4d c8be 9cd2 2fbe 4f02 4bbd
00000130: b7f1 40be 22d2 873e 38c4 283d 0fdb 783e
00000140: e305 733d 8791 de3e 4a42 a13e d41f ad3c
00000150: 609c 62be 8f77 04bf d327 6ebd ff18 82be
00000160: 674c 0ebe a4c8 97bd 3eec bfbd f65f c6be
00000170: b47e 8d3e 5b64 8d3e 2c61 cb3e 1d1d a4be
00000180: 2c09 83be b336 debd 873d b8be 7ec4 15bf
00000190: 5766 c5bc fe22 283e 7f34 f7be 2a10 5a3f
000001a0: 1cd5 043f e291 103e 3bba c6be cf41 b9be
000001b0: 7c64 813d 3619 953e 2800 b9bd f299 83be
000001c0: 048d 83bd e835 bfbe e005 883d a640 503e
000001d0: 144e 7e3d 7339 cabd f0f6 31bf 3444 b23c
000001e0: ea18 a63e 8bc1 083e 0a00 833e 0943 81be
000001f0: cc47 bebe 6adc 93be 0d14 4fbe 3c2d 66bf
00000200: 56b8 f43c 294a c1be 9f94 35bf bee9 bbbe
00000210: b1bd 553e 757f 0bbe 438a 633f b24d 6f3e
00000220: ef13 32be 761a 193e bb51 cbbe cc18 d23d
00000230: 63b1 88bd 573e 6a3e 2a0d 973e bda3 d9be
00000240: 7a45 5dbe 8871 d6be ebf9 b03d a3f8 023c
00000250: 721a 1e3e b715 0f3d 9bbb ab3b 39c0 183f
00000260: e74f 74be b667 213e 5561 bf3c a6bd 163e
00000270: f787 883e 5a14 0dbe a0cc 393f 179f 90be
00000280: d195 f8bd 77c6 613e 5cdd 54be 61c1 0bbf
00000290: 508d 31be a796 823d 3455 1b3e 3365 2d3f
000002a0: 41fe e33d e2d1 073d f1af d6bd 7579 183e
000002b0: 3880 99be b16c fb3d e854 7ebd 075f d03e
000002c0: 0160 ac3e 26ad f23e 0453 ec3e 801a bb3d
000002d0: 7dc2 ab3d 1d52 53be 27b6 2c3f 2121 49bd
000002e0: e805 003f d550 c9bd 4d48 c43e fab3 e33e
000002f0: dd96 a33e caee f6bd e021 6dbd c35c c33b
00000300: c8fc e5be 8cf7 14be 61cb 79be d7da 5a3d
00000310: 996e df3e 1403 eb3d 9752 b5bd 3cc1 233f
00000320: 5cd3 203e 6c9e 0a3d e732 0ebe 6716 3bbe
00000330: 6141 f73e ea1a d9bd 4909 82bc 9734 b23e
00000340: c8f5 ad3c 5dcb 47be eb6e 2cbe 8fd3 aa3e
00000350: 1742 da3c 41d2 393f 490c d43e 5245 873c
00000360: 67d3 88be f454 263f ce4b 0e3f 81e1 d8bb
00000370: af0b 8fbd 0f7b eb3d 3656 3b3f d776 13be
00000380: a2ee 32be 5656 91be f16e 18bf af1a bdbd
00000390: 354b e2be e24a 1fbe 1de6 bebe 5eed 343f
000003a0: ecc4 203e 5bc5 a7bd 83f9 9d3e 21ab 143f
000003b0: da1c 75bd 7b9e 6fbe ab49 ddbe f6ef 19be
000003c0: 8806 c4bd 3a65 c13d f312 8dbe 44b4 1dbf
000003d0: f892 9b3e d382 923d e3e5 b43e 7449 d83e
000003e0: ec9a 933d f6f9 9dbe 517a 85be d51a 0e3e
000003f0: f305 cf3e 6c00 973e 451a ca3d a631 dabe

encoder.0.bias f4 [16]
0.0058118636 -0.0003271401 -0.0026046645 0.0045176665 0.01 0.01 0.01 -0.003402533
0.01367481 0.0055664997 -0.003092835 0.0007988517 0.023673363 0.01 0.024841474 -0.0036132396
00000000: 7271 be3b 0084 abb9 05b3 2abb ef08 943b
00000010: 0ad7 233c 0ad7 233c 0ad7 233c 08fd 5ebb
00000020: 4f0c 603c 2f67 b63b 29b1 4abb 086a 513a
00000030: a4ee c13c 0ad7 233c 5980 cb3c 1acc 6cbb

encoder.2.weight f4 [16, 16]
0.036792215 0.6410756 -0.17316268 -0.4377063 -0.46805334 -0.07604225 -0.26746085 0.37881514
-0.22565028 0.58375597 0.44278836 -0.69988674 -0.18487966 -0.15135172 -0.19555792 -0.4226678
-0.17388356 -0.5343335 -0.23574427 0.19623625 -0.084406346 0.11150408 -0.5547093 -0.2930292
0.27919737 0.66310865 0.23048672 0.032858603 0.33581108 -0.54949415 -0.10267848 -0.31119406
0.1659726 0.20151974 -0.051935866 -0.35382834 0.17940946 0.55331737 0.116070166 0.43019074
-0.5838543 -0.68817234 0.38131338 -0.112315424 0.44205105 0.39286998 0.032604173 -0.024232242
-0.09419655 0.075785875 0.2040695 -0.08949709 -0.03385253 -0.27752247 -0.09505147 -0.38921162
0.4502004 0.5404548 0.3750811 -0.41322032 -0.21215993 -0.12805277 0.16115586 -0.040141296
-0.034802817 0.35812974 0.2224786 0.26995912 0.060141046 -0.29352504 0.23421296 0.62464935
-0.23551126 0.08267416 0.3635232 0.5312106 -1.0164211 -0.52070934 -0.341494 0.08568436
-0.49850637 -0.33062232 0.53061724 0.4655615 -0.23500006 0.6206766 0.04572295 -0.109804064
-0.55342 0.2773252 0.09475782 0.08510914 0.36162126 0.10402788 0.1838552 -0.11870278
-0.36359322 -0.09060013 0.3158714 -0.5234368 -0.2967305 0.367298 0.4597229 -0.42582545
-0.80293274 -0.30935273 0.038047176 0.21414597 0.45884132 0.34274393 -0.8708216 -0.82311124
-0.060069084 -0.019947257 0.55051893 0.30924425 -0.40204194 0.008960764 -0.23358871 -0.6190388
0.052466832 0.34290826 -0.404023 -0.35289237 -0.2875202 -0.32652658 0.23207672 -0.056876384
0.36408347 0.47435403 0.2142096 0.1338244 0.5103422 0.69004077 -0.6186387 -0.30980614
-0.70253503 -0.4040367 0.8407709 0.4557443 0.18542321 0.1254367 0.42884836 0.66444737
0.15596114 -0.050489474 0.4299728 0.35298017 0.19315085 -0.40954065 -0.029827295 0.9942057
-0.30556872 -0.35639542 0.0995368 -0.11767672 0.377274 0.15810168 0.016390847 0.19890189
0.09623483 -0.29375187 -0.15016319 0.091981106 -0.11531701 0.65590364 0.14083163 0.24026029
0.076982774 -0.19354795 0.06980062 -0.63057446 -0.049012847 -0.32390848 -0.19160956 -0.6831684
-0.19500445 -0.9033957 0.2564411 0.02826234 1.2168387 -0.21494001 -0.38272738 0.13278553
0.1522916 0.060474224 0.16437171 0.67823756 0.4689038 0.2778525 0.37749088 -0.52013046
0.12202924 -0.6394743 -0.24703985 0.038781907 0.12229134 -0.3432617 0.26249716 0.44587433
-0.13764948 0.20093372 0.04500772 1.0623854 0.45649633 0.40189636 0.12284594 -0.34999818
-0.2519134 0.12368234 0.19571458 0.4624224 0.51196605 0.2331716 0.35801023 -0.015954124
-0.23569709 0.51202077 -0.30572864 0.109490134 0.21283916 0.3206138 0.032892838 0.24775286
0.32036996 0.22664863 -0.8187144 0.28518814 0.094936594 0.48910132 0.3319895 0.49555686
0.38324273 0.21990193 -0.46516564 -0.18852292 -0.09652143 -0.29419133 0.16379616 -0.7469421
-0.31575605 0.037158288 0.25980368 -0.2359148 0.2809571 0.29685324 0.07487856 -0.22721313
0.025246631 0.22525659 -0.35907838 -0.391176 0.0613164 0.27028888 -0.31024414 -0.057641044
00000000: 6fb3 163d 881d 243f 8f51 31be 0a1b e0be
00000010: b0a4 efbe 0abc 9bbd a1f0 88be 0ff4 c13e
00000020: de10 67be 0871 153f 28b5 e23e c72b 33bf
00000030: 1851 3dbe f2fb 1abe 5640 48be ea67 d8be
00000040: 880e 32be 15ca 08bf f266 71be 28f2 483e
00000050: 3cdd acbd 405c e43d 6e01 0ebf ec07 96be
00000060: f5f2 8e3e 7dc1 293f b604 6c3e be96 063d
00000070: 6eef ab3e a6ab 0cbf 1849 d2bd d454 9fbe
00000080: b9f4 293e 315b 4e3e b4ba 54bd fd28 b5be
00000090: 1db7 373e 35a6 0d3f 32b6 ed3d f641 dc3e
000000a0: 7a77 15bf 102c 30bf 823b c33e a105 e6bd
000000b0: 8454 e23e 4126 c93e f48b 053d b282 c6bc
000000c0: 1fea c0bd a035 9b3d 98f7 503e 404a b7bd
000000d0: f3a8 0abd 6d17 8ebe 58aa c2bd bf46 c7be
000000e0: ab80 e63e 3f5b 0a3f a10a c03e 9d91 d3be
000000f0: 7440 59be 4420 03be 0b06 253e 336b 24bd
00000100: 668d 0ebd c85c b73e 6ed1 633e 1538 8a3e
00000110: 7556 763d ea48 96be 86d5 6f3e 05e9 1f3f
00000120: dd29 71be 1251 a93d b61f ba3e 6bfd 073f
00000130: 161a 82bf 354d 05bf 4dd8 aebe 487b af3d
00000140: 3a3c ffbe 5447 a9be 88d6 073f 145e ee3e
00000150: dba3 70be a9e4 1e3f fd47 3b3d f4e0 e0bd
00000160: efac 0dbf 92fd 8d3e 6310 c23d b34d ae3d
00000170: 6c26 b93e 920c d53d 8a44 3c3e 711a f3bd
00000180: e428 babe 908c b9bd e5b9 a13e f4ff 05bf
00000190: 0fed 97be 7c0e bc3e cd60 eb3e cb05 dabe
000001a0: 008d 4dbf 7b63 9ebe 5bd7 1b3d 1549 5b3e
000001b0: 40ed ea3e 227c af3e 2aee 5ebf 6bb7 52bf
000001c0: 000b 76bd 6e68 a3bc cfee 0c3f 4355 9e3e
000001d0: 71d8 cdbe 2bd0 123c e131 6fbe 5479 1ebf
000001e0: 76e7 563d ac91 af3e 1adc cebe 4fae b4be
000001f0: d935 93be 7e2e a7be 85a5 6d3e 36f7 68bd
00000200: 2669 ba3e 88de f23e c359 5b3e 4309 093e
00000210: c9a5 023f 83a6 303f 1b5f 1ebf e99e 9ebe
00000220: 56d9 33bf e6dd cebe c33c 573f 5157 e93e
00000230: 95df 3d3e 7a72 003e 0392 db3e 3919 2a3f
00000240: 47b4 1f3e 0dce 4ebd 6525 dc3e d1b9 b43e
00000250: 56c9 453e 50af d1be 5f58 f4bc 4484 7e3f
00000260: 8173 9cbe 7679 b6be f3d9 cb3d 7e00 f1bd
00000270: 0f2a c13e 68e5 213e 1946 863c f0ac 4b3e
00000280: c416 c53d a566 96be 61c4 19be 9760 bc3d
00000290: 532b ecbd 4de9 273f 2b36 103e cb06 763e
000002a0: 25a9 9d3d 6f31 46be a1f3 8e3d 546d 21bf
000002b0: b2c1 48bd 55d7 a5be 4c35 44be 20e4 2ebf
000002c0: 3faf 47be f144 67bf 3f4c 833e 6c86 e73c
000002d0: 5fc1 9b3f 3c19 5cbe d8f4 c3be eef8 073e
000002e0: 54f2 1b3e d2b3 773d 0f51 283e faa0 2d3f
000002f0: 2914 f03e af42 8e3e 7c46 c13e 4527 05bf
00000300: 77ea f93d 96b4 23bf 04f8 7cbe c7d9 1e3d
00000310: e273 fa3d ffbf afbe 0766 863e a449 e43e
00000320: fcf3 0cbe 92c1 4d3e 045a 383d 3ffc 873f
00000330: e3b9 e93e 5cc5 cd3e a796 fb3d f632 b3be
00000340: cbfa 80be 2b4d fd3d 6769 483e a1c2 ec3e
00000350: 3510 033f 89c4 6e3e 1e4d b73e 39b2 82bc
00000360: 945a 71be cb13 033f 7788 9cbe 5d3c e03d
00000370: 82f2 593e 7e27 a43e a4ba 063d edb2 7d3e
00000380: 8807 a43e 9416 683e 4497 51bf 2e04 923e
00000390: 1e6e c23d 7d6b fa3e 87fa a93e a1b9 fd3e
000003a0: 6438 c43e f92d 613e 312a eebe 270c 41be
000003b0: 07ad c5bd 3fa0 96be 2eba 273e 9937 3fbf
000003c0: c7aa a1be 4a33 183d fd04 853e a693 71be
000003d0: 9cd9 8f3e 26fd 973e ee59 993d 8faa 68be
000003e0: 06d2 ce3c aaa9 663e 1fd9 b7be 3848 c8be
000003f0: e826 7b3d 4e63 8a3e 52d8 9ebe 0419 6cbd

encoder.2.bias f4 [16]
-0.00257827 0.024092807 0.009547744 0.024435636 -0.0035507337 0.0034733457 0.018166954 -0.0005088024
0.0024783781 -0.0028656549 0.023187503 -0.001790441 0.024168923 -0.0019328113 -0.0038998905 -0.0045084613
00000000: 31f8 28bb 475e c53c 246e 1c3c 3e2d c83c
00000010: 6db3 68bb 12a1 633b ddd2 943c 2761 05ba
00000020: 496c 223b b6cd 3bbb b8f3 bd3c 3bad eaba
00000030: e8fd c53c 6356 fdba 4e95 7fbb b7bb 93bb

encoder.3.weight f4 [32, 16]
0.18804605 -0.6378881 0.62234366 -0.18527012 0.7461855 -0.42369536 0.45673376 -0.49645102
0.26272616 0.3406039 -0.07134843 -0.20745622 0.053752325 -0.03442967 0.08393864 0.110291414
-0.573326 -0.15226963 -0.22105923 0.47149065 0.2755504 0.09362411 -0.21595243 -0.35981688
0.7400743 -0.78387785 0.15136203 0.4389225 -0.069225796 -0.19360188 -0.14619918 0.27675465
0.5138885 -0.06347529 0.33271578 -0.34517878 -0.05562472 -0.121253304 0.24577896 0.47224864
0.87150234 0.031640694 0.08714892 -0.08967659 0.42315522 -0.47631106 -0.49680045 -0.4163977
-0.43832427 0.4256735 0.114795454 -0.17658918 -0.0979407 -0.31539565 -0.2513562 -0.23477502
0.05548063 0.21506515 0.0989458 0.26424307 -0.1989914 -0.53361356 -0.36321238 0.3138223
-0.68941486 0.017128948 -0.0069099567 -0.33183023 -0.048860207 0.2535926 -0.35875985 -0.23331082
-0.41936937 0.11515855 0.50855285 -0.6995035 -0.18419227 -0.49282858 0.6809988 0.5920125
0.26355046 -0.46149206 -0.4482564 -0.7787925 -0.6163782 0.2121791 0.01691457 -0.21659729
-0.05576025 -0.7976293 -0.3151407 0.17113884 -0.12538488 0.47429648 -0.007628929 0.27007377
0.24333164 0.37880537 -0.030450497 0.008872806 -0.0035448654 -0.2827854 -0.2776256 0.1820787
-0.10375968 0.50155276 0.10443407 -0.15627939 -0.35513964 -0.01919435 -0.013019151 -0.18852483
-0.8239246 0.45455194 -0.29157245 -0.40222245 0.7170246 -0.045369595 -0.5216926 -0.20997766
-0.30507758 -0.1924757 0.031141695 -0.6669702 -0.4204525 0.105024144 -0.44987756 0.31184682
-0.29277843 -0.17802715 0.8640505 -0.42122045 0.04858698 -0.13303415 0.21935637 -0.19687872
0.08437898 -0.09133846 0.048771273 0.3211801 -0.21006912 0.36491537 -0.1640405 0.20382583
0.5857613 0.49008334 -0.33519873 -0.622781 0.28841308 0.30688575 0.32282513 0.35509402
0.1372155 0.51974046 -0.3159671 -0.16453564 -0.44580394 0.03140578 -0.115043476 0.04914735
0.15266332 -0.19254349 0.071103595 -0.71894366 -0.1490379 -0.3423859 -0.092478156 -0.3391488
-0.040201195 -0.3325092 0.81318426 -0.5491135 0.46575728 0.06557982 0.50037605 0.5041502
-0.082415044 0.10355681 -0.038530305 -0.10878801 0.7151082 -0.22885598 -0.08752751 -0.4593566
0.2611702 0.06738873 -0.6245039 0.090108275 -0.3979761 -0.7251266 0.03576935 0.11022244
-0.2284092 -0.2554064 -0.28223854 -0.29552644 -0.52662605 0.2377033 0.4915852 0.24857862
-0.354456 1.1159838 -0.8765977 0.30749786 0.3790788 0.41550505 0.37586674 0.22691515
-0.17765321 -0.029951705 -0.39293274 0.12998612 -0.36703137 0.33463734 0.016321471 0.2847206
0.17534599 -0.5057489 -0.10201977 0.44815347 -0.027705282 0.24519826 -0.329972 -0.3116047
-0.18056986 0.26140684 0.61873335 -0.25460875 0.53640264 -0.67653203 0.08661187 0.13879053
-0.18619867 -0.51434153 -0.117182255 -0.12616335 -0.22186357 -0.4307722 0.20254834 -0.07898851
0.106723316 -0.012760184 -0.4349365 -0.054521084 0.20308645 0.39096123 0.85280377 0.40170634
-0.05824556 0.37004116 -0.21168923 0.255621 0.22402398 -0.11663964 -0.30409664 -0.02743124
00000000: 258f 403e a24c 23bf ea51 1f3f 73b7 3dbe
00000010: 0306 3f3f 99ee d8be 02d9 e93e d42e febe
00000020: 0b84 863e a263 ae3e 201f 92bd 676f 54be
00000030: 662b 5c3d 2006 0dbd 06e8 ab3d 77e0 e13d
00000040: 7ec5 12bf 92ec 1bbe 5a5d 62be 3967 f13e
00000050: f114 8d3e ffbd bf3d a222 5dbe eb39 b8be
00000060: 8275 3d3f 38ac 48bf a6fe 1a3e 73ba e03e
00000070: 41c6 8dbd 923f 46be 3db5 15be c9b2 8d3e
00000080: 328e 033f 55ff 81bd b959 aa3e 46bb b0be
00000090: bfd6 63bd a753 f8bd 7bad 7b3e 93ca f13e
000000a0: c71a 5f3f ac99 013d 227b b23d 5ca8 b7bd
000000b0: cda7 d83e 0bdf f3be a15c febe 1432 d5be
000000c0: 0a6c e0be e1f1 d93e e119 eb3d cbd3 34be
000000d0: 2295 c8bd 8a7b a1be c3b1 80be dd68 70be
000000e0: a83f 633d 0a3a 5c3e 18a4 ca3d de4a 873e
000000f0: 67c4 4bbe e69a 08bf f9f6 b9be 51ad a03e
00000100: 7e7d 30bf 0252 8c3c eb6c e2bb a7e5 a9be
00000110: a421 48bd e4d6 813e 5faf b7be 08e9 6ebe
00000120: 95b7 d6be 3fd8 eb3d 8530 023f a912 33bf
00000130: e69c 3cbe 0754 fcbe f055 2e3f 228e 173f
00000140: 16f0 863e b048 ecbe dd81 e5be f25e 47bf
00000150: f6ca 1dbf 7a45 593e 6d90 8a3c aecb 5dbe
00000160: dc64 64bd 6f31 4cbf 1f5a a1be 053f 2f3e
00000170: e564 00be fdd6 f23e 18fc f9bb 1c47 8a3e
00000180: ee2b 793e c7f2 c13e 5273 f9bc 3f5f 113c
00000190: f950 68bb 3fc9 90be f124 8ebe d772 3a3e
000001a0: f57f d4bd c365 003f 88e1 d53d b407 20be
000001b0: ddd4 b5be 783d 9dbc 474e 55bc a70c 41be
000001c0: b9ec 52bf 08bb e83e fc48 95be 1af0 cdbe
000001d0: ed8e 373f 78d5 39bd a58d 05bf 6204 57be
000001e0: 2133 9cbe 5a18 45be de1c ff3c 8fbe 2abf
000001f0: 8d45 d7be e616 d73d 5a56 e6be 63aa 9f3e
00000200: 0ee7 95be c04c 36be 6a32 5d3f 35aa d7be
00000210: 2403 473d 1b3a 08be f59e 603e 939a 49be
00000220: e3ce ac3d a90f bbbd 63c4 473d b871 a43e
00000230: 5c1c 57be 30d6 ba3e 3cfa 27be b8b7 503e
00000240: 74f4 153f 34ec fa3e 2b9f abbe 936e 1fbf
00000250: e1aa 933e 2120 9d3e 5649 a53e e2ce b53e
00000260: 3882 0c3e b60d 053f 71c6 a1be 087c 28be
00000270: 6a40 e4be 59a3 003d ea9b ebbd bb4e 493d
00000280: c653 1c3e 1f2a 45be c39e 913d b10c 38bf
00000290: 649d 18be 344d afbe 3065 bdbd e9a4 adbe
000002a0: 02aa 24bd a53e aabe d82c 503f b492 0cbf
000002b0: bd77 ee3e b64e 863d a518 003f fd0f 013f
000002c0: 38c9 a8bd 9815 d43d f4d1 1dbd 40cc debd
000002d0: 5511 373f 3959 6abe a041 b3bd ca30 ebbe
000002e0: 1ab8 853e 1a03 8a3d 7ddf 1fbf b08a b83d
000002f0: 86c3 cbbe e6a1 39bf e282 123d 4dbc e13d
00000300: 1ae4 69be a1c4 82be 9281 90be 3e4f 97be
00000310: f7d0 06bf 7e68 733e 0eb1 fb3e 658b 7e3e
00000320: 427b b5be 8fd8 8e3f b568 60bf 5c70 9d3e
00000330: 9e16 c23e 14bd d43e 9b71 c03e 725c 683e
00000340: b9ea 35be 475d f5bc 7b2e c9be 151b 053e
00000350: 89eb bbbe 9655 ab3e 9bb4 853c e6c6 913e
00000360: e68d 333e c378 01bf beef d0bd 5f74 e53e
00000370: 30f6 e2bc 4115 7b3e 17f2 a8be a78a 9fbe
00000380: 4ee7 38be 1ed7 853e 4f65 1e3f 145c 82be
00000390: af51 093f 3431 2dbf 9061 b13d 1b1f 0e3e
000003a0: ddaa 3ebe e3ab 03bf 40fd efbd f730 01be
000003b0: 3430 63be 2c8e dcbe d568 4f3e bac4 a1bd
000003c0: c191 da3d 1710 51bc ffaf debe 8051 5fbd
000003d0: e5f5 4f3e 122c c83e 5951 5a3f 74ac cd3e
000003e0: e592 6ebd 0976 bd3e 10c5 58be c1e0 823e
000003f0: 8b66 653e c3e0 eebd 8eb2 9bbe 7bb7 e0bc

encoder.3.bias f4 [32]
-0.0033193238 -0.003447452 0.023595994 0.023197498 0.023356419 -0.003787948 0.023850074 0.023759967
-0.0038459755 -0.0035045366 0.022896994 -0.0041008913 0.024140956 0.024206664 -0.001832612 0.023513619
0.023213083 0.023727432 0.023891361 0.023824215 0.016123865 -0.0033908973 -0.0034164037 -0.0031062034
-0.0030673344 0.023841785 0.022530079 0.0041983747 -0.004067771 0.023593565 0.0243197 0.022971697
00000000: 0389 59bb a6ee 61bb 634c c13c ae08 be3c
00000010: f655 bf3c 393f 78bb 3b61 c33c 43a4 c23c
00000020: c30c 7cbb 5eac 65bb 7a92 bb3c c560 86bb
00000030: 41c3 c53c 0e4d c63c 4134 f0ba a29f c03c
00000040: 5d29 be3c 0860 c23c d1b7 c33c 002b c33c
00000050: 3216 843c d139 5ebb bee5 5fbb 7291 4bbb
00000060: 5505 49bb d94f c33c 0091 b83c 8592 893b
00000070: f04a 85bb 4b47 c13c 1c3a c73c 242f bc3c

nee_decoder.0.weight f4 [16, 32]
0.12942924 0.09958467 -0.05126956 0.10744666 -0.1501909 -0.010155403 0.06330813 0.05241932
-0.016751705 0.10018236 -0.0074496954 0.20072065 -0.052211713 0.12106486 -0.46147358 -0.2932858
0.16538592 0.28719735 0.1041539 -0.015279207 0.24534997 0.32830575 -0.06534092 0.138925
0.21900368 -0.38128698 -0.1561332 0.09092128 0.28566793 0.19335291 -0.28403813 -0.23461935
0.062755585 -0.089724205 0.1553631 -0.030827677 0.10741065 -0.018891728 0.07756658 -0.28198394
-0.09984275 0.49329805 0.29990792 0.061887775 -0.19742464 -0.26789498 -0.34578112 0.32755372
0.03803595 0.07263516 -0.12602198 0.28887692 0.19899148 0.28210646 0.39721122 0.031044483
0.40625325 0.03961847 -0.16362466 0.15122966 -0.31026208 -0.050268628 0.09672435 0.55087346
-0.283532 -0.10655049 0.115798414 -0.13858458 0.026302444 0.42695192 -0.068782896 -0.2714849
0.3185083 0.009159577 0.26089308 0.5419692 -0.35624138 -0.2609565 -0.3415851 -0.3529556
0.4638797 -0.144657 -0.38432923 0.25110322 -0.086348146 -0.078406304 0.17161112 -0.49709162
-0.0185147 0.13207306 -0.20078942 -0.1600938 -0.16578883 0.17233157 -0.008356637 0.6719799
-0.013783593 -0.67757714 0.1919214 0.13789198 -0.019550161 -0.044206623 -0.105496906 0.18117103
-0.53973335 0.062294222 -0.032374427 0.03553741 0.09433167 0.18917765 0.33418155 0.41773206
-0.4871726 -0.1715727 0.025164872 -0.1941014 0.24379885 0.16232374 0.3135117 -0.37723544
-0.030079938 0.426692 0.08182321 0.13002244 -0.5217504 -0.1243139 0.23422934 0.030171994
-0.35026208 0.008285618 -0.03597522 0.08612216 -0.19890335 0.10926961 -0.24036096 -0.34101537
-0.30501714 -0.04695761 0.07845529 -0.528442 0.047326557 0.08146024 0.60660523 -0.13163643
0.20793077 -0.25833797 -0.09060861 0.061518535 -0.3610005 -0.18205492 0.41249636 -0.15850364
0.020847432 -0.15223366 0.17564353 -0.5150201 -0.17989358 0.27683374 -0.20135672 0.05796437
0.0013633363 -0.015693208 -0.050644457 -0.093691885 -0.22284733 -0.40208808 -0.016995065 -0.35231277
0.23541968 0.0169281 -0.016160304 -0.21974523 -0.2222422 0.23996328 0.46765685 0.4010363
0.054823812 -0.11035675 0.07127119 -0.27972555 -0.02141307 0.2763634 -0.4460699 0.28075927
-0.5983138 0.19356951 0.028751437 -0.15320262 0.22310977 -0.25261825 0.21431966 0.33634296
0.46377164 0.009630623 0.5846984 0.17693062 -0.7177899 -0.274607 0.20148882 -0.023243159
0.24604872 -0.2661894 -5.1198054e-05 0.21134686 -0.26395696 -0.37161332 -0.5091876 -0.0861793
-0.17567657 0.1461259 -0.13453478 0.09381628 -0.21286394 0.066596724 -0.15836981 -0.26168254
0.14238074 0.25644124 -0.026312618 -0.5627535 0.047478803 -0.12068951 0.37423003 -0.2792068
-0.30250227 0.066015005 -0.15124957 -0.0053744516 -0.19955438 0.09605894 0.005852633 0.2717294
0.022396252 -0.22252561 0.18412568 -0.14480372 0.13969482 0.20152247 0.15099587 0.13965818
-0.25640845 -0.08593862 -0.4342734 -0.17238976 -0.097339906 -0.09912749 0.11281682 0.15744878
-0.17882934 -0.22468191 -0.040066402 -0.205335 0.052969646 -0.41014183 0.226173 -0.10596876
00000000: 1989 043e 0cf3 cb3d 0800 52bd ff0c dc3d
00000010: a5cb 19be d962 26bc b1a7 813d a4b5 563d
00000020: df3a 89bc 692c cd3d 931c f4bb b789 4d3e
00000030: f3db 55bd daf0 f73d 4446 ecbe 8e29 96be
00000040: ed5a 293e 880b 933e a44e d53d a455 7abc
00000050: 063d 7b3e b117 a83e 76d1 85bd 5b42 0e3e
00000060: 8042 603e 0c38 c3be 62e1 1fbe f034 ba3d
00000070: 1143 923e 4efe 453e 726d 91be 0e40 70be
00000080: 0086 803d 53c1 b7bd 8117 1f3e 538a fcbc
00000090: 1dfa db3d d3c2 9abc 3adb 9e3d 3360 90be
000000a0: 5b7a ccbd 9091 fc3e 888d 993e 097e 7d3d
000000b0: af29 4abe 8829 89be 390a b1be 1fb5 a73e
000000c0: 96cb 1b3d bec1 943d e80b 01be ade7 933e
000000d0: 6cc4 4b3e 4270 903e 455f cb3e 0051 fe3c
000000e0: 6d00 d03e fa46 223d 398d 27be f3db 1a3e
000000f0: acda 9ebe 7ae6 4dbd 6a17 c63d 0b06 0d3f
00000100: 1b2b 91be 2537 dabd b827 ed3d 1ee9 0dbe
00000110: 3978 d73c 7199 da3e 0cde 8cbd 1200 8bbe
00000120: 8513 a33e 0d12 163c c793 853e 7ebe 0a3f
00000130: 4565 b6be 179c 85be 3ee4 aebe 99b6 b4be
00000140: a481 ed3e f720 14be cdc6 c4be 9a90 803e
00000150: 4cd7 b0bd 7c93 a0bd d3ba 2f3e cb82 febe
00000160: 24ac 97bc 293e 073e be9b 4dbe a1ef 23be
00000170: 8cc4 29be b077 303e 47ea 08bc e006 2c3f
00000180: 94d4 61bc b275 2dbf 0b87 443e 8e33 0d3e
00000190: a927 a0bc 0112 35bd c30e d8bd e684 393e
000001a0: f72b 0abf 3a28 7f3d 0c9b 04bd ad8f 113d
000001b0: f630 c13d c9b7 413e d819 ab3e fae0 d53e
000001c0: b06e f9be c1b0 2fbe 9026 ce3c 84c2 46be
000001d0: 68a6 793e 3238 263e 9b84 a03e 0125 c1be
000001e0: 346a f6bc 6077 da3e ed92 a73d 9a24 053e
000001f0: 6f91 05bf 4998 febd d1d9 6f3e 422b f73c
00000200: 8d55 b3be 67c0 073c c15a 13bd d160 b03d
00000210: 52ad 4bbe bfc8 df3d 2f21 76be 9199 aebe
00000220: 352b 9cbe 9f56 40bd 2bad a03d fa47 07bf
00000230: 7ed9 413d a0d4 a63d 7b4a 1b3f b3cb 06be
00000240: ceeb 543e e044 84be 0291 b9bd dcfa 7b3d
00000250: 0fd5 b8be 9b6c 3abe b932 d33e c74e 22be
00000260: 3cc8 aa3c 24e3 1bbe e6db 333e 5bd8 03bf
00000270: 0636 38be 27bd 8d3e 7530 4ebe 0c6c 6d3d
00000280: fab1 b23a 0b8f 80bc 9070 4fbd 88e1 bfbd
00000290: 1732 64be 7dde cdbe 3c39 8bbc 5762 b4be
000002a0: db11 713e ccac 8a3c 9d62 84bc e504 61be
000002b0: 7693 63be efb8 753e b870 ef3e a154 cd3e
000002c0: ef8e 603d b802 e2bd a1f6 913d 3038 8fbe
000002d0: 766a afbc 817f 8d3e 4663 e4be aebf 8f3e
000002e0: 182b 19bf 1637 463e 2288 eb3c 26e1 1cbe
000002f0: e376 643e 2e57 81be 9d76 5b3e 2535 ac3e
00000300: 7a73 ed3e c3c9 1d3c cbae 153f 4d2d 353e
00000310: 14c1 37bf 4a99 8cbe 1653 4e3e 7068 bebc
00000320: 32f4 7b3e fa49 88be 7ebd 56b8 506b 583e
00000330: 5e25 87be 1a44 bebe 1e5a 02bf c67e b0bd
00000340: 8fe4 33be 07a2 153e 7cc3 09be c022 c03d
00000350: 01f9 59be dd63 883d b22b 22be 41fb 85be
00000360: 42cc 113e 444c 833e 8f8d d7bc 9d10 10bf
00000370: 2279 423d 102c f7bd 149b bf3e 32f4 8ebe
00000380: 94e1 9abe e032 873d 2be1 1abe 2b1c b0bb
00000390: fc57 4cbe 8dba c43d 72c7 bf3b 1e20 8b3e
000003a0: 5878 b73c c1dd 63be 718b 3c3e 6d47 14be
000003b0: 290c 0f3e e85b 4e3e a99e 1a3e 8e02 0f3e
000003c0: f847 83be 9600 b0bd 1559 debe f186 30be
000003d0: 255a c7bd 5a03 cbbd 810c e73d 413a 213e
000003e0: 0a1f 37be 0413 66be ab1c 24bd 5743 52be
000003f0: b3f6 583d 1cfe d1be e599 673e 2606 d9bd

nee_decoder.0.bias f4 [16]
0.01 0.01 0.01 0.01 0.01 0.01 0.01 0.01
0.01 0.01 0.01 0.01 0.01 0.01 0.01 0.01
00000000: 0ad7 233c 0ad7 233c 0ad7 233c 0ad7 233c
00000010: 0ad7 233c 0ad7 233c 0ad7 233c 0ad7 233c
00000020: 0ad7 233c 0ad7 233c 0ad7 233c 0ad7 233c
00000030: 0ad7 233c 0ad7 233c 0ad7 233c 0ad7 233c

nee_decoder.2.weight f4 [16, 16]
-0.21634735 -0.19252789 0.35959485 0.72264093 -0.11360825 -0.08023051 -0.08087318 -0.14938052
0.6008042 -0.05133673 0.46629575 0.08783958 -0.06636679 0.37683138 0.20790114 -0.03693279
0.37411624 0.46962383 0.12067394 0.11249767 0.02950323 -0.16746476 0.6192788 0.5852137
-0.10742135 0.11221324 0.02044141 0.5439895 0.5863295 0.4667296 0.7084082 -0.26791975
0.23678447 -0.8220363 0.26664716 0.18022135 -0.27674747 -0.53311443 0.25429088 -0.42960328
-0.50740826 0.11405252 0.6892328 0.10948696 -0.13217187 -0.30565548 -0.30795264 -0.56884146
-0.09577147 -0.04855114 0.09755796 -0.37983984 -0.41948742 0.18097395 -0.58849156 0.079140425
0.037848003 0.2844269 -0.7717621 -0.07511262 -0.029180022 0.28598577 -0.52923286 -0.27140132
0.13301532 0.24966149 0.3644864 0.056459773 -0.14476764 0.062354624 -0.1933549 0.07545575
0.30026802 -0.09369367 -0.2936348 -0.36137158 -0.23306853 0.16153659 0.05606544 -0.3681555
0.42471418 0.03505057 0.6981767 1.1751713 0.053608824 -0.55308175 0.18116783 0.74035496
-0.20821805 0.03198388 0.22472082 -0.105273455 -0.41771913 -0.015722321 0.16206098 0.3854767
0.031108677 0.05537028 -0.18760039 -0.090982355 0.13225192 -0.05182347 -0.19297574 -0.57375234
0.05373746 0.5376301 0.26027355 0.24371651 0.1715789 -0.40570295 0.07853528 -0.40872803
-0.23270488 0.3254608 0.24131407 -0.36895874 0.8877131 -0.6606887 -0.46414778 -0.83006877
0.020588527 -0.21115638 -0.5129192 0.26781628 -0.6704781 -0.8437505 0.7876011 -0.36992395
-0.232523 0.109647796 -0.08238334 0.662882 0.14018752 0.25262436 0.54855394 -0.28636953
0.086577825 -0.18519653 0.06805119 0.0717139 0.10357193 0.07081844 0.40299353 -0.29802406
-0.44981644 0.06424463 -0.03683372 0.2096837 -0.39092875 -0.49533862 0.09972318 0.21581867
0.50499123 0.5446663 0.15868542 0.4190265 -0.29001474 0.38062027 0.07923856 0.06079638
-0.15230079 -0.7941824 0.22498131 -0.07167812 -0.45828938 -0.40544266 -0.45221716 -0.32504636
0.2940536 0.15273091 -0.08789364 0.57426536 0.33057517 -0.15427317 0.33497757 -0.36593112
-0.16715686 -0.13217887 0.25256377 0.19476016 0.26501855 0.36800423 -0.3016752 -0.24648593
0.4859087 -0.046188716 0.25997195 -0.40189722 0.008279358 -0.3135156 0.074226566 -0.33384433
0.010698406 -0.27350655 0.24613148 -0.4551268 0.28846318 0.21083225 -0.42667055 -0.38904336
0.16186675 0.2704603 0.15035823 0.40947852 0.51338995 0.09473604 -0.4919925 0.116640545
-0.2761393 0.09864886 -0.28270653 -0.35313547 -0.34547153 0.18330313 0.09628974 -0.14985223
-0.19410564 0.08791202 -0.19570436 0.1999669 -0.017795863 -0.6906475 -0.45756683 0.4685238
-0.17124435 -0.27157992 -0.18863349 -0.2555836 0.07369417 0.30888715 0.15429835 -0.25897214
-0.120168895 0.5383835 0.19838117 -0.26883075 0.123202614 -0.13224496 -0.20499742 -0.016838001
-0.5236995 -0.1635493 0.1264891 0.12385073 -0.09947637 0.49567398 0.34379244 -0.12964249
0.28850514 -0.3097796 0.104842216 0.49531493 -0.103384204 -0.6275494 0.2654099 -0.20434427
00000000: 298a 5dbe 0826 45be d11c b83e fffe 383f
00000010: 71ab e8bd e54f a4bd d6a0 a5bd 35f7 18be
00000020: 4ece 193f 7746 52bd 51be ee3e 3de5 b33d
00000030: 50eb 87bd 0bf0 c03e 09e4 543e d646 17bd
00000040: 2a8c bf3e 8972 f03e e623 f73d 2e65 e63d
00000050: c2b0 f13c e27b 2bbe 0e89 1e3f 91d0 153f
00000060: baff dbbd 0ed0 e53d be74 a73c e542 0b3f
00000070: b119 163f 2ff7 ee3e 3d5a 353f c72c 89be
00000080: a177 723e f970 52bf fa85 883e f28b 383e
00000090: d8b1 8dbe 307a 08bf 6a32 823e f6f4 dbbe
000000a0: 82e5 01bf 5e94 e93d 9071 303f b33a e03d
000000b0: 1058 07be e07e 9cbe f8ab 9dbe 989f 11bf
000000c0: d523 c4bd 8fdd 46bd 78cc c73d 5e7a c2be
000000d0: 0ec7 d6be 3c51 393e 62a7 16bf 6014 a23d
000000e0: 8206 1b3d 67a0 913e 3392 45bf a5d4 99bd
000000f0: f10a efbc ba6c 923e ce7b 07bf 1df5 8abe
00000100: 2b35 083e 43a7 7f3e f69d ba3e 5d42 673d
00000110: f83d 14be 9067 7f3d d4fe 45be 8b88 9a3d
00000120: bbbc 993e 78e2 bfbd 4d57 96be b205 b9be
00000130: 84a9 6ebe d969 253e e0a4 653d e17e bcbe
00000140: 2374 d93e 3091 0f3d b5bb 323f 036c 963f
00000150: ed94 5b3d c496 0dbf 0f84 393e e787 3d3f
00000160: 1d37 55be 8701 033d 371d 663e 9c99 d7bd
00000170: 48df d5be 19cc 80bc 50f3 253e 345d c53e
00000180: a0d7 fe3c f2cb 623d 511a 40be f554 babd
00000190: 0c6d 073e d944 54bd 6f9b 45be 6fe1 12bf
000001a0: d01b 5c3d 20a2 093f 9342 853e d290 793e
000001b0: 61b2 2f3e 4cb8 cfbe 1bd7 a03d cd44 d1be
000001c0: 304a 6ebe cca2 a63e 091b 773e 29e8 bcbe
000001d0: 2a41 633f e522 29bf c7a4 edbe 637f 54bf
000001e0: 45a9 a83c 6139 58be ac4e 03bf 371f 893e
000001f0: 74a4 2bbf 0800 58bf 3aa0 493f ac66 bdbe
00000200: 821a 6ebe 068f e03d 99b8 a8bd a2b2 293f
00000210: 518d 0f3e fb57 813e 086e 0c3f 079f 92be
00000220: b74f b13d 29a4 3dbe 6c5e 8b3d bdde 923d
00000230: 851d d43d 4209 913d 2b55 ce3e 9c96 98be
00000240: 574e e6be b092 833d f4de 16bd 53b7 563e
00000250: d027 c8be 069d fdbe ab3b cc3d 92ff 5c3e
00000260: 1b47 013f 406f 0b3f 6e7e 223e a48a d63e
00000270: d07c 94be a9e0 c23e d347 a23d a005 793d
00000280: bdf4 1bbe 8a4f 4bbf 8061 663e facb 92bd
00000290: e8a4 eabe 2e96 cfbe 0289 e7be 7a6c a6be
000002a0: 328e 963e 7e65 1c3e 9501 b4bd 0e03 133f
000002b0: 2641 a93e c9f9 1dbe 2e82 ab3e 535b bbbe
000002c0: 2b2b 2bbe e659 07be 0a50 813e 356f 473e
000002d0: 83b0 873e 0d6b bc3e 2c75 9abe cf66 7cbe
000002e0: 06c9 f83e 6130 3dbd 0b1b 853e 79c5 cdbe
000002f0: 25a6 073c 1e85 a0be 1904 983d a5ed aabe
00000300: 5e48 2f3c 0d09 8cbe e409 7c3e 6106 e9be
00000310: 72b1 933e 69e4 573e 9074 dabe b130 c7be
00000320: 66c0 253e c679 8a3e 82f7 193e 2ba7 d13e
00000330: 866d 033f f804 c23d 71e6 fbbe 3de1 ee3d
00000340: 2162 8dbe 6a08 ca3d e9be 90be 2cce b4be
00000350: a5e1 b0be d1b3 3b3e 8e33 c53d dd72 19be
00000360: a1c3 46be 380b b43d b966 48be 1fc4 4c3e
00000370: a1c8 91bc 46ce 30bf 3346 eabe 5ae2 ef3e
00000380: ae5a 2fbe 860c 8bbe 2329 41be dbdb 82be
00000390: f8ec 963d 7526 9e3e 6300 1e3e ff97 84be
000003a0: 1c1b f6bd 80d3 093f 6f24 4b3e 2fa4 89be
000003b0: a751 fc3d 396b 07be d8ea 51be d9ef 89bc
000003c0: 2c11 06bf 7879 27be 5c86 013e 74a5 fd3d
000003d0: 44ba cbbd fbc8 fd3e 9005 b03e 00c1 04be
000003e0: f2b6 933e 6f9b 9ebe 84b7 d63d eb99 fd3e
000003f0: 19bb d3bd 14a7 20bf cee3 873e a03f 51be

nee_decoder.2.bias f4 [16]
0.01 0.01 0.01 0.01 0.01 0.01 0.01 0.01
0.01 0.01 0.01 0.01 0.01 0.01 0.01 0.01
00000000: 0ad7 233c 0ad7 233c 0ad7 233c 0ad7 233c
00000010: 0ad7 233c 0ad7 233c 0ad7 233c 0ad7 233c
00000020: 0ad7 233c 0ad7 233c 0ad7 233c 0ad7 233c
00000030: 0ad7 233c 0ad7 233c 0ad7 233c 0ad7 233c

nee_decoder.3.weight f4 [1, 16]
-0.07986759 0.0008065463 -0.3187804 -0.21108536 -0.15253118 -0.086936645 -0.17811204 0.062069878
0.080396414 0.07242929 -0.2964688 -0.24554716 0.6390976 -0.10284088 0.0061590034 0.7638172
00000000: 9e91 a3bd 686e 533a 2f37 a3be c326 58be
00000010: 2231 1cbe d70b b2bd 0163 36be fc3c 7e3d
00000020: e0a6 a43d cf55 943d c2ca 97be b770 7bbe
00000030: e69b 233f 3d9e d2bd 77d1 c93b 8689 433f

fc_mu.0.weight f4 [4, 32]
0.12993978 0.47269583 0.33652592 0.14681445 0.36587676 0.31788743 0.114505224 0.32066554
-0.044509023 0.2797087 0.15215108 0.4089832 0.2054594 0.045361076 -0.27326643 -0.021526542
-0.25374347 0.38018224 -0.0734612 -0.06484453 -0.0052020834 -0.18372306 0.23010814 -0.004085597
-0.41556722 0.21822323 -0.1920258 -0.25949407 0.04345101 -0.11519802 -0.020806866 -0.03402465
-0.23727466 -0.15700977 0.15445212 -0.11450199 -0.040332012 -0.18734454 0.10891927 0.28458282
-0.63968396 0.013860177 -0.13382651 -0.06566816 0.28592655 -0.38127157 -0.04477559 -0.23981687
-0.01935772 0.62112635 -0.2326335 0.10213052 0.33299056 -0.0694367 0.17913847 -0.14780189
0.13572018 0.03823656 0.030915644 0.16115779 0.2687621 -0.21549913 -0.59563696 -0.045236953
0.27099445 -0.09931437 -0.015328612 0.21540868 0.21882872 -0.21565855 -0.21889177 -0.21706264
-0.024657106 -0.055534 0.19469887 0.09917268 -0.16595678 0.032983728 0.089105435 -0.08221162
0.20947434 0.59467506 0.107039034 0.2427025 0.034618683 -0.17000875 0.05116589 0.30701545
0.31888312 0.18259451 -0.29652274 -0.07431869 -0.01574425 0.09060474 0.0865041 -0.09085952
0.16608493 0.0019882561 0.26012552 -0.101663776 0.15572384 0.060495637 -0.3514912 -0.12878086
-0.37795988 -0.18186 -0.18494682 -0.13066635 0.07592548 -0.1040489 0.42801335 -0.38030562
0.20250146 -0.19382918 -0.46460217 -0.23072942 0.13478056 -0.009454379 0.23756546 0.27874556
0.09071879 -0.31202054 -0.13581307 -0.27346906 -0.038568098 0.054687057 0.15255232 -0.29483858
00000000: ef0e 053e 3005 f23e 204d ac3e 8756 163e
00000010: 3354 bb3e 24c2 a23e b781 ea3d 462e a43e
00000020: 184f 36bd fb35 8f3e 7ecd 1b3e 3f66 d13e
00000030: f363 523e 89cc 393d 94e9 8bbe 6e58 b0bc
00000040: aaea 81be 3fa7 c23e d372 96bd 35cd 84bd
00000050: 3d76 aabb e621 3cbe 78a1 6b3e 79e0 85bb
00000060: 3ac5 d4be e975 5f3e 69a2 44be 68dc 84be
00000070: b0f9 313d f1ec ebbd 2973 aabc 6e5d 0bbd
00000080: 21f8 72be 2bc7 20be b228 1e3e 0580 eabd
00000090: 2e33 25bd 3fd7 3fbe 1111 df3d d7b4 913e
000000a0: 54c2 23bf cc15 633c d109 09be 077d 86bd
000000b0: f764 923e 0736 c3be 9c66 37bd 8e92 75be
000000c0: 1594 9ebc 2302 1f3f 7a37 6ebe ce29 d13d
000000d0: bd7d aa3e d434 8ebd 1370 373e 6159 17be
000000e0: 3bfa 0a3e f09d 1c3d ce42 fd3c 8c06 253e
000000f0: 309b 893e ceab 5cbe aa7b 18bf 624a 39bd
00000100: c9bf 8a3e 5565 cbbd dc24 7bbc 1894 5c3e
00000110: a314 603e 98d5 5cbe 2a25 60be ab45 5ebe
00000120: b3fd c9bc 9f77 63bd 245f 473e 0c1b cb3d
00000130: 93f0 29be f219 073d e97c b63d 915e a8bd
00000140: 7180 563e a03c 183f 4837 db3d 0187 783e
00000150: 52cc 0d3d c616 2ebe 5393 513d 2131 9d3e
00000160: a644 a33e 0efa 3a3e d4d1 97be 6634 98bd
00000170: 16fa 80bc fa8e b93d 1029 b13d 8e14 babd
00000180: 2b12 2a3e 674d 023b 2c2f 853e 1935 d0bd
00000190: 1276 1f3e 46ca 773d a8f6 b3be 21df 03be
000001a0: f583 c1be 8239 3abe b362 3dbe 66cd 05be
000001b0: d17e 9b3d 9717 d5bd 9124 db3e 6bb7 c2be
000001c0: 8b5c 4f3e 287b 46be 56e0 edbe 5544 6cbe
000001d0: ea03 0a3e 8ae6 1abc 5c44 733e bdb7 8e3e
000001e0: c6ca b93d 28c1 9fbe 9512 0bbe 2304 8cbe
000001f0: 95f9 1dbd 89ff 5f3d ad36 1c3e 15f5 96be

fc_mu.0.bias f4 [4]
0.01 0.01 0.01 0.01
00000000: 0ad7 233c 0ad7 233c 0ad7 233c 0ad7 233c

fc_mu.1.weight f4 [1, 4]
-0.91580856 1.5626874 0.14998047 0.9617387
00000000: 6e72 6abf 2406 c83f 7b94 193e 8234 763f

fc_logvar.0.weight f4 [4, 32]
0.12993978 0.47269583 0.33652592 0.14681445 0.36587676 0.31788743 0.114505224 0.32066554
-0.044509023 0.2797087 0.15215108 0.4089832 0.2054594 0.045361076 -0.27326643 -0.021526542
-0.25374347 0.38018224 -0.0734612 -0.06484453 -0.0052020834 -0.18372306 0.23010814 -0.004085597
-0.41556722 0.21822323 -0.1920258 -0.25949407 0.04345101 -0.11519802 -0.020806866 -0.03402465
-0.23727466 -0.15700977 0.15445212 -0.11450199 -0.040332012 -0.18734454 0.10891927 0.28458282
-0.63968396 0.013860177 -0.13382651 -0.06566816 0.28592655 -0.38127157 -0.04477559 -0.23981687
-0.01935772 0.62112635 -0.2326335 0.10213052 0.33299056 -0.0694367 0.17913847 -0.14780189
0.13572018 0.03823656 0.030915644 0.16115779 0.2687621 -0.21549913 -0.59563696 -0.045236953
0.27099445 -0.09931437 -0.015328612 0.21540868 0.21882872 -0.21565855 -0.21889177 -0.21706264
-0.024657106 -0.055534 0.19469887 0.09917268 -0.16595678 0.032983728 0.089105435 -0.08221162
0.20947434 0.59467506 0.107039034 0.2427025 0.034618683 -0.17000875 0.05116589 0.30701545
0.31888312 0.18259451 -0.29652274 -0.07431869 -0.01574425 0.09060474 0.0865041 -0.09085952
0.16608493 0.0019882561 0.26012552 -0.101663776 0.15572384 0.060495637 -0.3514912 -0.12878086
-0.37795988 -0.18186 -0.18494682 -0.13066635 0.07592548 -0.1040489 0.42801335 -0.38030562
0.20250146 -0.19382918 -0.46460217 -0.23072942 0.13478056 -0.009454379 0.23756546 0.27874556
0.09071879 -0.31202054 -0.13581307 -0.27346906 -0.038568098 0.054687057 0.15255232 -0.29483858
00000000: ef0e 053e 3005 f23e 204d ac3e 8756 163e
00000010: 3354 bb3e 24c2 a23e b781 ea3d 462e a43e
00000020: 184f 36bd fb35 8f3e 7ecd 1b3e 3f66 d13e
00000030: f363 523e 89cc 393d 94e9 8bbe 6e58 b0bc
00000040: aaea 81be 3fa7 c23e d372 96bd 35cd 84bd
00000050: 3d76 aabb e621 3cbe 78a1 6b3e 79e0 85bb
00000060: 3ac5 d4be e975 5f3e 69a2 44be 68dc 84be
00000070: b0f9 313d f1ec ebbd 2973 aabc 6e5d 0bbd
00000080: 21f8 72be 2bc7 20be b228 1e3e 0580 eabd
00000090: 2e33 25bd 3fd7 3fbe 1111 df3d d7b4 913e
000000a0: 54c2 23bf cc15 633c d109 09be 077d 86bd
000000b0: f764 923e 0736 c3be 9c66 37bd 8e92 75be
000000c0: 1594 9ebc 2302 1f3f 7a37 6ebe ce29 d13d
000000d0: bd7d aa3e d434 8ebd 1370 373e 6159 17be
000000e0: 3bfa 0a3e f09d 1c3d ce42 fd3c 8c06 253e
000000f0: 309b 893e ceab 5cbe aa7b 18bf 624a 39bd
00000100: c9bf 8a3e 5565 cbbd dc24 7bbc 1894 5c3e
00000110: a314 603e 98d5 5cbe 2a25 60be ab45 5ebe
00000120: b3fd c9bc 9f77 63bd 245f 473e 0c1b cb3d
00000130: 93f0 29be f219 073d e97c b63d 915e a8bd
00000140: 7180 563e a03c 183f 4837 db3d 0187 783e
00000150: 52cc 0d3d c616 2ebe 5393 513d 2131 9d3e
00000160: a644 a33e 0efa 3a3e d4d1 97be 6634 98bd
00000170: 16fa 80bc fa8e b93d 1029 b13d 8e14 babd
00000180: 2b12 2a3e 674d 023b 2c2f 853e 1935 d0bd
00000190: 1276 1f3e 46ca 773d a8f6 b3be 21df 03be
000001a0: f583 c1be 8239 3abe b362 3dbe 66cd 05be
000001b0: d17e 9b3d 9717 d5bd 9124 db3e 6bb7 c2be
000001c0: 8b5c 4f3e 287b 46be 56e0 edbe 5544 6cbe
000001d0: ea03 0a3e 8ae6 1abc 5c44 733e bdb7 8e3e
000001e0: c6ca b93d 28c1 9fbe 9512 0bbe 2304 8cbe
000001f0: 95f9 1dbd 89ff 5f3d ad36 1c3e 15f5 96be

fc_logvar.0.bias f4 [4]
0.01 0.01 0.01 0.01
00000000: 0ad7 233c 0ad7 233c 0ad7 233c 0ad7 233c

fc_logvar.1.weight f4 [1, 4]
-0.1691576 0.9673042 0.17364644 0.17271477
00000000: a637 2dbe 40a1 773f 5fd0 313e 24dc 303e

temp_derivative_decoder.0.weight f4 [16, 32]
-0.12309001 -0.3427629 0.546785 0.13731639 0.07523834 -0.08911255 -0.14838216 0.011788459
0.013278157 -0.18044583 -0.10875764 -0.2731663 -0.080169044 0.02787082 0.34900433 0.007924191
-0.15361285 0.048861764 -0.26209626 0.025632055 -0.36019835 -0.18371552 -0.61606824 -0.10657353
0.054714803 -0.43375662 0.017094545 -0.073499635 0.060089894 -0.060774703 -0.30288205 0.12464083
0.21544057 0.002848392 0.6587197 -0.09269655 -0.07350874 -0.25855154 0.25263408 0.35183126
0.15343611 -0.061191186 -0.10376459 0.12571824 0.14929432 0.01358401 0.16496556 -0.14674655
-0.26831496 -0.09151647 -0.023739016 -0.06689095 -0.17524478 -0.009069074 0.04827734 -0.14265046
-0.36489928 0.13471079 -0.02975266 -0.030991059 -0.22364421 0.29428414 0.16668692 0.25229627
-0.0902557 0.0904928 0.022325844 0.7463779 -0.07483916 -0.17673072 -0.22086158 0.2610548
-0.06809707 -0.30634773 -0.11102084 -0.3372121 0.039112467 -0.101246744 0.5553192 -0.077086225
-0.49837556 0.033626184 -0.03878134 -0.07058075 0.06850263 0.115305714 -0.13300192 -0.070984885
-0.03188715 0.40669772 0.33888415 -0.20507571 -0.053776123 0.2956405 -0.17849101 0.36210835
-0.12908044 -0.17451708 0.028605528 0.19727553 0.07039479 -0.19159745 -0.5342139 0.15419184
0.05447171 -0.13425387 -0.29032242 -0.19642574 0.12706985 0.07664137 -0.14859855 0.20491983
0.19830336 -0.21058747 0.0829787 0.11006436 -0.1111387 0.44550428 0.01622803 -0.19725901
0.1170413 0.29355264 -0.008036765 -0.5250733 -0.009430815 0.10687783 0.098215245 0.15293986
-0.48014602 -0.31210068 0.07433185 0.32339045 -0.0740877 0.39069605 -0.4288945 0.407598
0.04514021 0.03599987 0.041971866 0.12561625 0.29535085 0.102119505 -0.56973666 -0.3755317
-0.26956302 -0.39789626 -0.058086097 -0.5494051 0.3042003 -0.101327494 -0.3437987 0.22267538
0.36070684 0.43192255 0.08645388 -0.30226463 0.15117234 -0.24328235 -0.07314525 -0.2450998
0.0051933993 0.05930732 -0.04323694 0.03583082 0.25730646 -0.30283114 -0.38830116 -0.10410047
-0.09530494 0.08276395 0.3391108 -0.121765226 0.12493542 -0.49110076 -0.06722373 0.102439426
-0.18281046 0.41358083 -0.32829225 0.24601652 -0.011318072 0.09773653 -0.29069242 0.10995503
0.13477613 0.7535814 -0.079480864 0.09298381 0.2752897 0.16229402 0.12515117 0.7041906
-0.2324656 -0.3386041 0.41264373 0.19558397 -0.4091157 0.05096914 -0.12623608 -8.894521e-05
0.024164073 0.23191166 0.31925198 -0.4554869 0.26166674 -0.15658195 -0.035618823 0.37581295
0.08467312 0.17472336 0.28298306 0.015127179 -0.2547894 -0.07618833 0.556821 0.2544067
0.1474886 -0.34390756 0.7599818 -0.042929936 -0.3559268 0.16739279 0.12538755 0.14577632
-0.012343588 -0.056732014 0.013779668 -0.20858625 0.2609187 -0.21373872 -0.39398915 0.09343136
-0.19019198 -0.075039044 0.044755597 -0.35455182 0.07832587 0.10263552 -0.027249089 -0.20555983
0.41313252 -0.15831758 -0.0017034314 -0.23900166 0.033263456 -0.19291593 -0.19243632 -0.1852088
-0.55007446 -0.3898272 -0.06349784 0.05002411 0.04191857 0.41562757 -0.07671328 0.20002091
00000000: 9d16 fcbd 9e7e afbe 1afa 0b3f ab9c 0c3e
00000010: 8f16 9a3d a480 b6bd 7ef1 17be 6124 413c
00000020: a18c 593c cbc6 38be 53bc debd 74dc 8bbe
00000030: ab2f a4bd 5951 e43c b2b0 b23e 77d4 013c
00000040: b04c 1dbe 4623 483d 7b31 86be 51fa d13c
00000050: eb6b b8be ec1f 3cbe a6b6 1dbf 3943 dabd
00000060: a11c 603d 5915 debe dc09 8c3c fa86 96bd
00000070: d220 763d e5ee 78bd 5b13 9bbe b143 ff3d
00000080: 749c 5c3e 16ac 3a3b dba1 283f b0d7 bdbd
00000090: c08b 96bd de60 84be 4159 813e 3a23 b43e
000000a0: 5b1e 1d3e 9ca3 7abd 8882 d4bd 48bc 003e
000000b0: 9ce0 183e 788f 5e3c bbec 283e ba44 16be
000000c0: 9460 89be fd6c bbbd 5378 c2bc 1ffe 88bd
000000d0: 5e73 33be 7496 14bc 76be 453d f612 12be
000000e0: 14d4 babe a0f1 093e dabb f3bc f6e0 fdbc
000000f0: fd02 65be 69ac 963e faaf 2a3e fa2c 813e
00000100: fbd7 b8bd 4a54 b93d b0e4 b63c 9f12 3f3f
00000110: 4645 99bd e6f8 34be 8a29 62be faa8 853e
00000120: 7a76 8bbd 9cd9 9cbe e55e e3bd 10a7 acbe
00000130: 6534 203d 745a cfbd 6629 0e3f 62df 9dbd
00000140: 152b ffbe 9cbb 093d 2fd9 1ebd a48c 90bd
00000150: 1b4b 8c3d 6725 ec3d a831 08be 8660 91bd
00000160: 1a9c 02bd af3a d03e 3982 ad3e 5eff 51be
00000170: 5a44 5cbd 315e 973e 59c6 36be 4466 b93e
00000180: aa2d 04be 9bb4 32be 2456 ea3c 9902 4a3e
00000190: 252b 903d 1f32 44be 3ec2 08bf 77e4 1d3e
000001a0: ba1d 5f3d d979 09be 24a5 94be d423 49be
000001b0: 991e 023e 27f6 9c3d 382a 18be 81d6 513e
000001c0: 0910 4b3e 3ea4 57be bdf0 a93d 6c69 e13d
000001d0: b09c e3bd 2319 e43e a5f0 843c 44fe 49be
000001e0: 59b3 ef3d 884c 963e a3ac 03bc 346b 06bf
000001f0: b483 1abc c4e2 da3d 1325 c93d 449c 1c3e
00000200: b3d5 f5be a9cb 9fbe 4c3b 983d 6f93 a53e
00000210: 4bbb 97bd 5009 c83e 0f98 dbbe afb0 d03e
00000220: f1e4 383d 9a74 133d b1ea 2b3d 8ca1 003e
00000230: 3a38 973e 0824 d13d 43da 11bf b145 c0be
00000240: 2a04 8abe 0fb9 cbbe b0eb 6dbd d0a5 0cbf
00000250: 24c0 9b3e ca84 cfbd 6206 b0be 0405 643e
00000260: 91ae b83e f424 dd3e bb0e b13d 6ec2 9abe
00000270: eccc 1a3e 021f 79be 2dcd 95bd 71fb 7abe
00000280: 642d aa3b 3bec 723d 3819 31bd 57c3 123d
00000290: acbd 833e af0c 9bbe 69cf c6be a132 d5bd
000002a0: 3d2f c3bd 2580 a93d ee9f ad3e 0c60 f9bd
000002b0: 24de ff3d 8f71 fbbe 98ac 89bd c3cb d13d
000002c0: aa32 3bbe dec0 d33e ec15 a8be c1eb 7b3e
000002d0: 6f6f 39bc 172a c83d a3d5 94be 1a30 e13d
000002e0: c102 0a3e b6ea 403f ddc6 a2bd 4c6e be3d
000002f0: c6f2 8c3e 6730 263e a127 003e d645 343f
00000300: 760b 6ebe 845d adbe 0a46 d33e 2a47 483e
00000310: 9d77 d1be 04c5 503d 0844 01be 1988 bab8
00000320: bcf3 c53c 407a 6d3e ff74 a33e 9435 e9be
00000330: 2ff9 853e 0557 20be 0be5 11bd 8e6a c03e
00000340: 1a69 ad3d aeea 323e 28e3 903e fdd7 773c
00000350: c273 82be a108 9cbd d28b 0e3f 9841 823e
00000360: 4007 173e a714 b0be 2b8e 423f 4dd7 2fbd
00000370: 0a3c b6be 0469 2b3e 9865 003e 6346 153e
00000380: c33c 4abc d45f 68bd 1ec4 613c a297 55be
00000390: 2397 853e 53de 5abe f2b8 c9be f158 bf3d
000003a0: b0c1 42be 12ae 99bd a551 373d d187 b5be
000003b0: 5069 a03d 9232 d23d 7b39 dfbc 477e 52be
000003c0: 1b86 d33e 011e 22be ac45 dfba dabc 74be
000003d0: 433f 083d c18b 45be 070e 45be 60a7 3dbe
000003e0: aed1 0cbf 6e97 c7be 280b 82bd 15e6 4c3d
000003f0: ceb2 2b3d 23cd d43e da1b 9dbd 48d2 4c3e

temp_derivative_decoder.0.bias f4 [16]
0.01 0.01 0.01 0.01 0.01 0.01 0.01 0.01
0.01 0.01 0.01 0.01 0.01 0.01 0.01 0.01
00000000: 0ad7 233c 0ad7 233c 0ad7 233c 0ad7 233c
00000010: 0ad7 233c 0ad7 233c 0ad7 233c 0ad7 233c
00000020: 0ad7 233c 0ad7 233c 0ad7 233c 0ad7 233c
00000030: 0ad7 233c 0ad7 233c 0ad7 233c 0ad7 233c
