.archive/piae_sde/experiments/2024-11-25_17-38-12-135891/0/best_model.pth (torch, 25314 bytes, 28 tensors)

encoder.0.weight f4 [16, 18]
000000 99 18 9d 3e 4f 15 96 3e b8 f8 42 be 9d 85 82 be
       0.3068283 0.29313132 -0.19040191 -0.25492564
000010 ba 18 38 bd a3 1c 93 3d c0 2c c5 3b 0e 41 1a 3e
       -0.044945456 0.071831964 0.0060172975 0.15063879
000020 00 9b 80 3e a3 d1 f4 bd 9a 4d 21 3e 49 94 b5 3d
       0.25118256 -0.119540475 0.15752259 0.08866174
000030 ad b7 7f 3e f0 e8 ea 3d 28 22 25 be 4c 34 51 be
       0.2497241 0.114702106 -0.16126311 -0.20430106
000040 94 e8 29 3e 00 f4 94 be f1 2b a9 3d a8 e5 75 be
       0.16592628 -0.29092407 0.08260334 -0.24013388
000050 b5 fc 86 3e 21 29 3f 3e c3 2c e8 bd 02 03 a6 3d
       0.26364675 0.18668033 -0.113366626 0.081060424
000060 5e 88 12 be b1 26 17 3d 85 0f 11 bb c9 2c b0 bd
       -0.14309832 0.036902133 -0.0022134495 -0.08602292
000070 be b4 fc bc 6a 2c ee bc 60 02 fb bd a5 78 c9 3d
       -0.030847903 -0.029073913 -0.12256312 0.09837464
000080 2f 89 1d 3d c6 16 16 3e d6 76 9a 3e df c4 61 be
       0.038460907 0.14657125 0.3016879 -0.22047757
000090 8d 5d cd 3d 78 47 7a be 10 a0 6f 3e 36 39 0c be
       0.10027609 -0.24441326 0.23400903 -0.13693699
0000a0 b0 33 eb 3d b1 21 12 3e 1b 5c 85 be da 2d 34 be
       0.11484468 0.14270665 -0.26046833 -0.17595616
0000b0 a5 22 08 3f fd 7e 8d 3e 24 91 59 3d 98 c5 8b bd
       0.53177863 0.27635947 0.053116933 -0.068247974
0000c0 34 5e df bc 79 72 bd 3d 3a fa 09 be fc 58 aa 3e
       -0.0272666 0.092503496 -0.1347436 0.33271015
0000d0 2a 07 9b 3c 67 80 e4 3e f0 84 ab be bf 83 5d be
       0.018924315 0.44629213 -0.3349986 -0.21632288
0000e0 4e c2 d5 bc 55 80 82 be fe b8 a4 3e f0 2c 95 3e
       -0.026093628 -0.25488535 0.32172388 0.29135847
0000f0 3d 7e b2 3e 38 e7 8b be 96 f1 91 3e ad 1a 8e 3e
       0.34861937 -0.27324843 0.28504628 0.27754727
000100 03 b8 2f be 86 e1 db 3c 58 a9 2f 3e 6c c8 93 3e
       -0.17160039 0.026840936 0.17154443 0.28863847
000110 2a c2 d1 be 62 53 d7 3e 3d 9b d8 bd c3 fc 2a 3e
       -0.40968448 0.42055804 -0.10576484 0.16697983
000120 ff 45 70 be ca 6c 96 be ab 56 a1 be 2b a7 f0 3d
       -0.23464201 -0.29379874 -0.31511435 0.11750635
000130 0a 81 37 be 5a 56 79 3e 5b 61 14 3e 99 a8 0d 3e
       -0.17920318 0.24349347 0.14490263 0.13833846
000140 62 28 8c bd 66 d9 dc bd b7 0e 2a be 43 60 59 be
       -0.0684364 -0.10783653 -0.16607176 -0.21228127
000150 9f d1 ba 3e 65 88 dc 3b 29 20 19 be 8c 44 d2 be
       0.36488053 0.0067301267 -0.14953674 -0.41067922
000160 49 c0 fc 39 75 ca de be c0 c2 87 bc c1 8b 52 3e
       0.0004820845 -0.43513837 -0.016572356 0.20561124
000170 12 d5 61 be fb 13 39 3d 40 23 b0 bd 98 fb 90 be
       -0.22053936 0.04518507 -0.086004734 -0.2831695
000180 4c 08 cc be e7 12 70 3e 12 46 96 be a6 30 6b 3e
       -0.3985008 0.2344471 -0.29350334 0.22967777
000190 5b c5 a5 3d bf e5 8e 3e ba 88 81 be 3f fd c6 3e
       0.08094283 0.27909657 -0.25299627 0.38865086
0001a0 08 6a c8 be 74 dc b0 be e8 0d 61 3e f2 db a7 bc
       -0.39143395 -0.34543192 0.21977961 -0.02049062
0001b0 03 d4 83 be 08 06 87 bc a1 99 cb be c0 05 50 be
       -0.2574769 -0.016482368 -0.39765647 -0.20314693
0001c0 13 19 21 be 0a f6 75 3e c9 a9 c0 3d 4a 49 13 3d
       -0.15732221 0.24019638 0.09407384 0.035958566
0001d0 f9 72 2a be 7d 88 a8 3e 73 55 16 bd 09 ee b1 3d
       -0.16645421 0.32916632 -0.036702584 0.0868798
0001e0 fa 72 ea bc f2 c9 01 3d 49 1d d3 3d c1 ea b3 3e
       -0.028619278 0.03168673 0.1030832 0.3514004
0001f0 d2 81 8e 3e ba 78 b1 3d 8c 3f df 3d e6 f4 3e bd
       0.2783342 0.08665605 0.109007925 -0.046620272
000200 5c 0a 87 3e d1 2b 8c 3e 55 96 47 3e 96 49 35 be
       0.2637509 0.2737718 0.19490941 -0.17703852
000210 cf 48 c2 be 1f dc fa 3c 1a 4e 98 3d b3 3a 7a 3e
       -0.37946174 0.03062254 0.07436772 0.24436454
000220 d2 69 97 3d 8c e4 c8 3d bf 6d 92 3e 40 d9 65 be
       0.073932305 0.09809217 0.28599355 -0.22446156
000230 ba 0f 94 3e fa 42 6f 3e 9c 12 a1 3e 39 18 a7 3e
       0.28918248 0.23365393 0.3145951 0.32635668
000240 79 2c a9 3d f9 bc f0 3e 3a 23 a2 3e d2 27 a5 bd
       0.082604356 0.47019175 0.316675 -0.08064236
000250 92 61 a8 bd 91 2a 2b be 90 93 17 be ef 95 76 3a
       -0.08221735 -0.16715457 -0.14802384 0.0009406497
000260 6b 5c 91 3d c3 f4 50 be 39 be 8d be 6c bf 09 be
       0.070977055 -0.20405869 -0.2768419 -0.13451928
000270 1c 4b 31 be 81 f1 c0 bd a5 e2 35 3e 46 7d 9d 3e
       -0.17313808 -0.09421063 0.1776224 0.3075964
000280 0d 5b 38 3b ae dc 10 3e 3b 8c 97 3d f6 96 a8 bd
       0.0028130442 0.14146683 0.07399794 -0.082319185
000290 5d f4 d3 bd 44 2d 42 be 2f a1 74 be a7 d4 56 3e
       -0.10349343 -0.1896258 -0.23889612 0.20979558
0002a0 a0 77 ff bd fe 5d 4e be 2c 77 bd 3e 9f 8d 89 3d
       -0.124739885 -0.20153043 0.37004983 0.06716465
0002b0 e9 2f 9b 3e f5 00 c4 3e ed 63 72 bd 9e 54 80 3d
       0.3030999 0.3828198 -0.059177328 0.062661394
0002c0 72 69 c7 3e 14 fc 93 be bd f9 00 be 1b d9 74 3d
       0.38947636 -0.28903258 -0.12595268 0.05977736
0002d0 ca 7b c8 3b d6 39 7e 3d 0b dd 78 3e 54 e2 20 be
       0.0061182724 0.062066875 0.24303071 -0.15711337
0002e0 ff 67 fd 3d cc f0 da 3e 25 f0 49 be 25 af 7c be
       0.12373351 0.42761838 -0.19720514 -0.24676187
0002f0 30 3e 84 be 03 be a0 3e d3 af a9 be 20 d7 24 be
       -0.25828695 0.31394967 -0.33141956 -0.16097689
000300 09 61 99 3e a8 28 4a be 29 6d cb 3e 66 1b 61 be
       0.29956844 -0.19742072 0.3973172 -0.21983108
000310 d7 13 fc 3c f2 cd c3 3c a3 63 db bd c2 26 4e 3e
       0.03077118 0.023901913 -0.107123636 0.20131972
000320 d3 86 ba 3e aa 83 5e be 56 1a e8 3d 06 1e 9a 3d
       0.36430988 -0.21729913 0.11333148 0.07525258
000330 00 4e 3d 3d 97 80 9b be 94 73 ed 3c c2 13 52 3e
       0.046216965 -0.30371544 0.028985776 0.2051535
000340 1b 41 e6 be 8f 93 b4 be 2a 9b bc be 62 87 a9 3b
       -0.44971547 -0.35268828 -0.3683713 0.0051736096
000350 de 68 4e be b9 dc 0a be 04 ca d2 3e 61 12 be bd
       -0.20157191 -0.13560762 0.4116975 -0.09280849
000360 14 43 40 be 04 38 b1 3c 6d c6 44 be e4 84 f6 bc
       -0.18775588 0.021633156 -0.19216318 -0.030092664
000370 50 90 06 3e 97 db 31 3e 43 17 a1 be 49 c6 da 3e
       0.13140988 0.17368923 -0.3146306 0.42729405
000380 9a 21 8e 3e 01 89 94 be 4e 85 0a 3e 2c 7e 40 3e
       0.2776001 -0.29010776 0.13527414 0.18798131
000390 fd a7 8c be 9e 9a 7a be 7d 50 9d be 15 50 30 3e
       -0.27471915 -0.24473044 -0.3072547 0.17218049
0003a0 13 b5 23 3d f8 3c 10 3e 9f 9d 36 be 5e 90 9e 3e
       0.039967608 0.14085758 -0.17833565 0.30969518
0003b0 d5 01 75 3d 5e 75 a8 be dd 31 e5 bd 99 da 61 3e
       0.0598162 -0.32902044 -0.11191151 0.22056045
0003c0 14 d2 c9 3d 28 ef 6d bd 69 1b 93 be 5c a2 82 be
       0.09854522 -0.058089405 -0.2873185 -0.25514495
0003d0 a1 ad bc 3e 1f bd 7c be 3b 41 95 3e b9 a8 09 be
       0.36851218 -0.24681519 0.2915133 -0.13443269
0003e0 48 fc 29 3c 9a 9b d4 be e5 27 12 be ff 25 b2 3e
       0.01037509 -0.41524965 -0.14273031 0.34794614
0003f0 f2 86 28 be 87 f2 7d 3d 33 4b 39 be 55 fd 4b 3d
       -0.16457728 0.06199887 -0.18095092 0.049802143

encoder.0.bias f4 [16]
000000 fd 84 91 bc 0a b2 3f 3c 65 88 50 3e cc b2 74 bb
       -0.017763609 0.011700163 0.2036453 -0.0037338017
000010 36 b1 a2 bc a2 0a 09 bd bc 88 17 3d c7 0f 08 3d
       -0.019859891 -0.033457406 0.036995634 0.03321817
000020 b8 5c 8b 3e 00 00 00 00 e9 3f 10 bd 20 e1 50 3c
       0.27219176 0.0 -0.0352172 0.0127489865
000030 1a d3 f3 bc f2 60 ca bb 6d 7b ed bc ac ec bf 3c
       -0.029763747 -0.0061761076 -0.028989518 0.023428284

encoder.2.weight f4 [16, 16]
000000 7b 3a 66 3e fe aa cf be dc b1 4f be e3 6b 42 3d
       0.22483246 -0.40560144 -0.20282692 0.04746617
000010 61 29 f1 3d 05 79 72 bd 96 6c 27 3e fd 12 07 3e
       0.117754705 -0.059197444 0.16350016 0.13190837
000020 f9 e5 cc be a8 db 0b 3e 64 34 10 bd 45 90 98 be
       -0.40019205 0.13658011 -0.035206214 -0.2979757
000030 bb 6c 6f 3c f5 19 da bd 3d 77 6b be 05 06 ca be
       0.014613326 -0.10649482 -0.22994705 -0.39457718
000040 d2 77 b9 3e 9f a3 86 be 8f 37 6e 3d 19 9b b1 3e
       0.36224228 -0.26296708 0.058158454 0.34688643
000050 f3 71 5f bd 92 4e 91 be df 7c d6 be bd 58 93 3d
       -0.05455203 -0.28380257 -0.41892144 0.0719466
000060 dd 7b 5e be c7 57 01 3d 09 a2 0d 3e 86 43 fb bd
       -0.21726938 0.03157785 0.13831343 -0.122687384
000070 3a 53 96 3e 49 cd 66 bd 08 f5 30 be d6 96 92 be
       0.29360372 -0.05634812 -0.17280972 -0.28630704
000080 d8 b9 24 3e 36 11 74 be 61 93 e5 3c b8 c3 5b bd
       0.16086519 -0.2383469 0.028024377 -0.05365345
000090 d4 34 ae 3e 66 4c 39 be 48 0f 3d be 97 9d e1 bc
       0.3402468 -0.1809555 -0.1846286 -0.027540965
0000a0 d9 d3 1b bd a4 0b 29 3e 6e 41 f6 bd 7f 81 54 3e
       -0.03804383 0.16508347 -0.120241985 0.20752524
0000b0 66 1d 90 3e 36 9f 84 3e 01 4e a6 3c 18 63 87 3e
       0.2814743 0.25902718 0.020300867 0.2644279
0000c0 7f db 49 be 84 30 d0 be 2e 7d c7 3b dc 9a a6 be
       -0.19712637 -0.40662014 0.0060879206 -0.32540023
0000d0 82 f4 99 be 4f 07 0d 3e c9 d2 ca 3e 8a f4 15 be
       -0.30069357 0.1377232 0.3961394 -0.14644065
0000e0 fb 77 00 3c 4b 9f a0 be cb 2e 01 3e 75 c0 19 3e
       0.007841106 -0.3137153 0.12615506 0.15014823
0000f0 6d d3 49 bd ee d6 ab 3e b4 83 92 be 3c 31 fc bc
       -0.049273897 0.33562416 -0.28616107 -0.030785196
000100 c2 80 5b be e4 ac ce 3e 56 64 31 3e e2 8e a8 3e
       -0.21435836 0.4036628 0.17323431 0.3292151
000110 5a 4b d7 3e 74 63 4b 3e 92 14 9e be 39 d2 8a be
       0.42049676 0.19862157 -0.3087507 -0.27113512
000120 2b 13 27 3c cc ef c5 be 76 e5 9c 3e 48 7e 5a 3e
       0.010197441 -0.38659513 0.30643815 0.21337235
000130 d1 df 00 3e 3e 58 be be 22 b7 02 3f 4c 26 c1 bc
       0.12585379 -0.37176698 0.5106069 -0.023577832
000140 85 e7 21 be f6 a2 7f 3e 72 9f 87 3c cd f6 78 be
       -0.15810974 0.24964508 0.016555522 -0.24312897
000150 f1 1f fd 3d 4d 5c 87 be d4 34 da 3e eb 89 ce 3e
       0.12359608 -0.26437607 0.4261843 0.40339598
000160 ef ab 08 3e d3 92 6a 3e 87 3f d0 be 04 bf 5d be
       0.13346837 0.22907571 -0.40673468 -0.21654898
000170 8f a0 c9 be f3 c7 60 be 58 b0 72 3e 64 47 af 3e
       -0.3938031 -0.21951275 0.23700082 0.34234154
000180 df 47 7d 3e 99 7b 89 3e 18 3b d1 be ed 9a 9f 3e
       0.24734448 0.2685211 -0.40865397 0.31172886
000190 0d d4 35 bd 83 a6 c6 bd d4 d3 7b 3e 3e 3b 99 3e
       -0.04439168 -0.09699728 0.24592525 0.2992801
0001a0 5e a5 1d 3c 3b 11 d3 3e 7a 4b d2 bc 1e 81 04 3e
       0.009621946 0.41224083 -0.025670756 0.1293988
0001b0 49 c2 d6 be 12 bf 5e 3d 01 0d a9 be 66 95 84 be
       -0.41945103 0.054381438 -0.33017734 -0.25895232
0001c0 b1 19 4a be e4 65 a0 bc 03 43 1e be aa 79 9b be
       -0.19736363 -0.019579835 -0.1545525 -0.3036626
0001d0 91 89 99 3e d6 96 e5 3d 9a 7b d7 be b6 4a 95 3d
       0.29987767 0.1121041 -0.42086488 0.072896406
0001e0 2f 7f 2c bd 64 58 82 3c b6 84 ba 3d 35 fc 5b bd
       -0.04211348 0.015911289 0.09107344 -0.05370732
0001f0 74 b5 31 3e f4 12 9c be cc 8f 6a be d6 f7 9c 3e
       0.17354375 -0.3048321 -0.22906417 0.30657834
000200 95 75 8e be 79 d3 50 3e 66 86 0c 3e f8 e6 33 be
       -0.27824083 0.2039317 0.13723144 -0.17568576
000210 23 74 49 be 13 d6 b7 3e 83 fe 11 bd ef 47 9a 3d
       -0.19673209 0.35905513 -0.035643112 0.075332515
000220 ae d9 c6 3e 10 ba 36 3e 8c 45 42 be 89 07 3e 3d
       0.3883795 0.17844415 -0.18971843 0.046393905
000230 14 7c 90 3e a9 ec 2e bd 10 c0 80 bf 67 02 0f 3e
       0.28219664 -0.042706165 -1.0058613 0.1396576
000240 b9 d2 ab bd af ec 82 bd ec c1 70 3e 22 e6 af 3c
       -0.083898015 -0.063928 0.23511475 0.02147204
000250 34 d9 70 be 03 5c 30 be eb 69 1d bd 44 ba a2 bd
       -0.23520356 -0.172226 -0.03843109 -0.079456836
000260 4d 17 c9 bc 20 89 97 be c1 6a ae 3e 9c 0d 81 3e
       -0.024547243 -0.29596806 0.34065822 0.25205696
000270 49 4b e4 3d ef 70 d5 3d e8 c8 bf 3e e8 a5 b3 3e
       0.11147172 0.10421931 0.37457967 0.35087514
000280 15 ab c8 3d f0 16 87 3d 9e be 73 be 87 ea 13 3e
       0.09798256 0.06596172 -0.23803183 0.14444934
000290 bc 69 cf be 46 d8 0b 3e 5b 2b c0 be 47 83 37 be
       -0.40510356 0.1365672 -0.37533078 -0.17921172
0002a0 33 17 6a 3e 76 0c 84 be 28 89 b0 3e 85 fd 74 be
       0.22860412 -0.25790757 0.34479642 -0.23924835
0002b0 9d fe d1 3e ab a9 08 3e c2 26 40 be 30 36 87 3e
       0.41014567 0.13345973 -0.18764785 0.2640853
0002c0 93 b8 b2 be e6 53 75 be ce 1a 9d be e5 30 2c 3d
       -0.34906444 -0.23957786 -0.30684513 0.042038817
0002d0 8c 45 95 3d 35 80 ac be 05 90 e7 3e 0d a0 0b 3d
       0.07288656 -0.33691564 0.45227066 0.034088183
0002e0 e2 3f 3d bd cf 75 29 3c 24 d5 19 be 09 45 1e 3e
       -0.0462035 0.010343029 -0.15022713 0.15456022
0002f0 00 d7 42 3e ad e7 ee bd 49 cf a9 3e c3 5e 95 3e
       0.19027328 -0.116652824 0.3316596 0.2917386
000300 c1 21 83 be 77 70 99 bd 93 bc ab bd ac 78 e7 be
       -0.2561169 -0.07492154 -0.08385577 -0.45209253
000310 bc 6f 54 3d e7 f3 36 3d 34 fc a7 be d2 26 e4 3d
       0.05186437 0.044666197 -0.32809603 0.11140217
000320 e7 af 01 3e 27 d8 6b 3e 5f 6b 46 be 5e 9f d7 3e
       0.12664758 0.23031674 -0.19376896 0.42113775
000330 af 5b 8b be 8a 1f 5b be c8 41 3f 3f 83 2d bb 3e
       -0.27218387 -0.2139875 0.7470975 0.3655816
000340 08 ef e3 3e b3 cc ce 3e 4d 41 bf be 44 6c f2 3c
       0.44518304 0.40390548 -0.37354508 0.02959264
000350 54 a7 78 be a7 7c 2d 3d a0 4b c7 3e 64 41 79 3e
       -0.2428258 0.042355206 0.38924885 0.24341351
000360 07 da b5 be 51 d4 3e be 4a 92 a8 be 10 64 71 3e
       -0.35517904 -0.1863568 -0.3292411 0.23573327
000370 46 3c cd bc 50 e8 9e be f2 11 72 bd c8 24 30 3e
       -0.025053155 -0.31036615 -0.059099145 0.17201531
000380 30 0a 96 3d 19 20 e1 3e 34 92 0e bd c7 e1 17 3e
       0.07326162 0.439698 -0.0348074 0.14832221
000390 e2 23 cf bd fb 9d b0 3d 42 60 46 3d 5c 52 cf 3e
       -0.10114266 0.086238824 0.048431642 0.40492523
0003a0 62 6a d1 3e 67 b1 7c be 39 9f b2 be 05 a3 c1 be
       0.40901476 -0.24677049 -0.34887102 -0.37819687
0003b0 9e 04 ff bd 6f 44 65 3d 25 31 24 3f e0 d9 23 bc
       -0.124520525 0.055973466 0.6413749 -0.010000676
0003c0 29 19 1c 3e 4e a9 4f 3e ed 6e f2 be 68 08 c9 be
       0.15243973 0.20279428 -0.47350255 -0.39264226
0003d0 7b 7b 11 3e ba 59 3d 3e 43 48 60 be 27 bf 4c 3d
       0.1420726 0.18491259 -0.21902566 0.049986985
0003e0 b2 e7 ad be 08 d9 b2 3b 93 a9 b5 3d 08 a8 4f bc
       -0.33965832 0.005458001 0.08870234 -0.012674339
0003f0 e0 93 b4 bd ee e1 3e 3e cb 79 38 be 98 d7 9b 3e
       -0.088172674 0.18640873 -0.1801521 0.30437922

encoder.2.bias f4 [16]
000000 00 00 00 00 00 00 00 00 65 65 f8 3c 9c d6 83 3c
       0.0 0.0 0.030321786 0.016093545
000010 e6 84 76 3c c0 0f cb 3c 03 2e 53 3c be 62 93 bc
       0.015046334 0.024787784 0.012889388 -0.01799142
000020 27 16 c8 bb a3 17 e1 3c 00 00 00 00 41 1d 10 3d
       -0.0061061564 0.027477091 0.0 0.03518415
000030 c5 89 ac b9 c5 07 d7 3c 59 87 0e 3d d5 1c cd bc
       -0.00032909043 0.026248822 0.034797046 -0.025038162

encoder.4.weight f4 [32, 16]
000000 d3 ea 9b be 6a e7 4e be d8 b9 4a be 80 25 85 be
       -0.30452594 -0.20205465 -0.19797456 -0.26005173
000010 52 fd 98 3e d5 98 72 bd e5 1f 82 be 71 dd c7 3d
       0.29880768 -0.059227783 -0.2541496 0.097590335
000020 c3 10 7b be 20 ed 4a 3d 51 1b 2c 3e bf c1 d9 bc
       -0.24518113 0.049542546 0.16807295 -0.026581643
000030 36 e8 5a 3e ce 77 c9 3d 57 1d 7f be 7a 37 bf 3d
       0.21377644 0.09837304 -0.24913536 0.09336753
000040 97 62 69 3e fd da a7 bd 59 92 99 3c 29 c2 52 bc
       0.22791515 -0.081960656 0.018746542 -0.012863674
000050 92 be 65 bc 87 e4 63 3d ab 06 c0 be 3d 5b 6e 3e
       -0.014022486 0.055637863 -0.37505087 0.23276992
000060 e2 e2 f0 3d 89 df ac 3b d1 c0 83 3d a7 e3 a3 be
       0.117620245 0.005275671 0.06433261 -0.32009622
000070 ea 09 0f be e8 37 58 bd 40 cd 3d 3d 02 a5 6c be
       -0.13968626 -0.05278769 0.04633832 -0.2310982
000080 d2 a7 19 3d 39 b7 e0 bd 7d b8 8a 3e d5 5a 19 be
       0.03751356 -0.10972447 0.27093878 -0.14976056
000090 a4 b1 9a 3d 02 a1 8b 3e 08 7d 77 be 3c 86 a3 3c
       0.075534135 0.27271277 -0.2416879 0.019961469
0000a0 62 c3 47 3e 64 2c 35 3e a4 4d 2a 3d 39 fb 34 3e
       0.19508126 0.17692715 0.04157795 0.17673959
0000b0 d8 a7 58 be d4 af a7 3e aa 34 2e 3d 42 0d 85 3e
       -0.21157777 0.32751334 0.042530693 0.25986677
0000c0 29 2e a0 3d 7d 1a 21 bd 29 b8 14 3e 9e 90 8f 3e
       0.07821304 -0.0393319 0.14523377 0.28040022
0000d0 35 22 b3 3e 22 66 94 be bd 8a f9 3c 7f 5c 7a be
       0.34987035 -0.2898417 0.030461663 -0.24449347
0000e0 27 78 5c 3e 9c 1a 85 3e 01 39 7e be a9 20 4f bc
       0.2153021 0.25996864 -0.24826433 -0.012642064
0000f0 55 98 80 3e 57 a9 77 3e 43 17 85 be 5d 75 7a 3e
       0.2511622 0.24185692 -0.2599431 0.24458833
000100 b7 30 80 bd b1 f3 99 be 10 f3 99 3d 07 d0 0f 3e
       -0.062592916 -0.30068734 0.075170636 0.140442
000110 3f a1 43 3e a4 85 7c be 62 41 84 be 9c 18 83 be
       0.19104479 -0.24660355 -0.25831133 -0.25604713
000120 aa 0f 46 3e af 12 a4 be 9d 62 43 bb 40 a6 dd bd
       0.19341913 -0.32045504 -0.0029813417 -0.10822725
000130 9f c8 10 3e 58 f5 7d 3d b9 86 40 be 69 36 5a 3d
       0.14139031 0.062001556 -0.18801393 0.053274546
000140 14 96 a6 3e f1 6d 6e 3d 17 bb 39 be f3 38 71 3b
       0.32536376 0.058210317 -0.18137775 0.0036807626
000150 b2 1c b6 be e8 42 83 be 66 d4 c3 bd 29 b9 7e be
       -0.35568768 -0.25636983 -0.09561996 -0.2487532
000160 15 54 8a 3e 42 0f 1f 3d 0a 35 8c 3e 42 00 df bd
       0.27017274 0.03883291 0.27384216 -0.10888721
000170 54 1f a2 bd c8 8b 73 3d 4b f0 09 be 9d ba 18 be
       -0.079161316 0.059459478 -0.1347057 -0.14914937
000180 56 93 b1 be ce 5e 88 3e e8 e3 a4 3e c2 ce c8 be
       -0.3468272 0.2663483 0.3220513 -0.39220244
000190 d2 bf 9d bd 68 d3 72 be 6d 7c e9 bd 55 c5 98 3e
       -0.077026024 -0.23713458 -0.114006855 0.29838052
0001a0 36 9f 5f 3e c4 9f 62 3b 99 a0 1a 3e cc 4e 0b 3e
       0.21838078 0.003458009 0.15100326 0.13604277
0001b0 d0 a5 66 3e db 1c 82 be 7d 04 11 3e 35 89 9c be
       0.2252419 -0.2541264 0.14161868 -0.3057343
0001c0 b0 19 6e be 4a ea 06 be cd f1 42 bd 8a d5 c8 be
       -0.23251987 -0.13175312 -0.04759388 -0.39225417
0001d0 5e f5 15 bd 0f 6e b7 3c 8e fa 31 be b7 34 ac 3d
       -0.036610954 0.022391347 -0.17380735 0.08408492
0001e0 c7 27 8d 3e ac d9 c1 bd 65 d0 40 be c9 f3 b0 be
       0.2756941 -0.09465346 -0.18829496 -0.34560993
0001f0 f7 34 96 be b4 cb 6a be b6 ee 97 be 82 36 30 be
       -0.29337284 -0.22929269 -0.2967431 -0.17208293
000200 0e 71 47 3e 6f 94 e2 3d 89 8e ab 3e 0d bf 96 3e
       0.1947672 0.11063468 0.33507183 0.29442635
000210 bf b7 18 be 3f 97 23 be 6c 79 df 3c 54 99 9b be
       -0.14913844 -0.15975665 0.027279578 -0.30390418
000220 9a c4 2f 3e e6 fe ae bd 9e 92 97 be 9e 7e 93 be
       0.17164841 -0.08544712 -0.29604048 -0.2880754
000230 e1 5f 88 be ef 19 9b 3d 78 0a 7f 3e e1 a5 84 3e
       -0.2663565 0.07573306 0.24906337 0.25907806
000240 d8 60 c7 bd d5 4a 52 be 8e 00 15 be 48 5d 0c be
       -0.09735268 -0.20536359 -0.14550993 -0.13707459
000250 67 10 49 bd f3 73 92 be be 51 63 3e 56 70 9a be
       -0.049087908 -0.28604087 0.22199151 -0.3016383
000260 7d 27 40 be ca 7e 8b 3e 75 67 87 be 85 32 f1 3d
       -0.18765064 0.2724517 -0.2644612 0.11777214
000270 6e c7 99 3e b5 a6 c3 3e 34 f3 5a 3e 70 53 80 bd
       0.30034965 0.38213125 0.21381837 -0.062659144
000280 b9 e1 4e 3e 19 2c 3f bc 69 73 c8 bd a1 62 35 3c
       0.20203294 -0.011668229 -0.09787638 0.011070878
000290 5b 94 f9 3d d5 16 8b 3e 50 b3 3c 3e c4 ab 4d 3e
       0.121865 0.27165857 0.18427777 0.20085055
0002a0 9a b7 b4 3d 5c 64 8f 3c d6 04 18 3e 61 1d f0 3d
       0.08824082 0.01750391 0.14845595 0.117243536
0002b0 16 ea 9a be 2e c9 bd 3d 71 a8 f9 bd 94 46 1c be
       -0.30256718 0.092668876 -0.12190331 -0.15261298
0002c0 e6 02 0c 3e ca 10 94 3d 1f 85 80 3d 2d f6 04 be
       0.1367298 0.07229765 0.06275391 -0.12984534
0002d0 9f 62 3a 3e 5a d5 b0 3e 8d 0e 68 3d a9 d3 26 3e
       0.18201683 0.34537774 0.0566545 0.1629168
0002e0 37 b7 97 be 2d 7e 67 3e 2a 89 fb 3d 90 c9 2d 3e
       -0.2963197 0.22606726 0.12282021 0.16971421
0002f0 97 b2 27 3e 0c 43 a0 bd b6 ff d2 bb 00 fe b6 3e
       0.1637672 -0.07825288 -0.0064391745 0.35740662
000300 57 75 84 3e a8 c0 81 be 09 50 93 3e 3f c0 ef 3e
       0.25870773 -0.25342298 0.28772 0.4682636
000310 b7 56 82 3d 03 e8 87 be 0c 93 9d 3d 95 9b 78 bd
       0.06364196 -0.26544198 0.076940626 -0.06069525
000320 9b 43 86 3e a9 26 a7 be 3e 4b b9 3d 02 38 3d 3c
       0.26223454 -0.32646683 0.090475544 0.011548998
000330 a0 e9 26 3d 6f ba 81 3e 2b da 9b 3c 2c 5f 8d be
       0.040750146 0.2533755 0.019024929 -0.27611673
000340 d2 30 53 be 31 f6 10 be 6c 23 49 3d f1 c1 26 3e
       -0.20624092 -0.14156415 0.049106047 0.1628492
000350 ad 97 c4 bc 71 fc d6 bd fe b0 42 3e a5 b1 9f be
       -0.023998106 -0.10497368 0.1901283 -0.3119022
000360 d9 ed 8f 3e 91 c5 b6 bb c7 ea 7b 3e e9 fd 99 3e
       0.2811115 -0.005577751 0.24601279 0.3007653
000370 f3 83 97 3d ac 50 16 3e 00 32 28 be d1 fe 92 3e
       0.07398214 0.14679211 -0.16425323 0.28710034
000380 42 e6 53 3e 0b 72 63 bd 64 0e 19 3e ee 2f f5 3d
       0.20693305 -0.05552868 0.14946896 0.119720325
000390 62 67 a4 3e fc 95 37 3e 2a 77 96 3e fa bc 93 be
       0.32110125 0.17928308 0.2938779 -0.28855115
0003a0 3f 86 c2 3e 2c 65 2b 3e 45 04 30 3e 6f 3b e0 3d
       0.37993047 0.16737813 0.17189129 0.10948836
0003b0 f4 40 89 3e 36 ca bc 3e 63 09 7c 3b cc 3a 82 be
       0.26807368 0.36873025 0.0038457743 -0.25435483
0003c0 32 39 a6 3e a5 b3 98 bd f8 3a 25 be 8a 5a 8f 3e
       0.32465512 -0.074561395 -0.16135776 0.27998763
0003d0 f2 9c 2c 3e 21 fd a6 3c ae fd 46 bd b9 ee c0 bd
       0.16856745 0.020384373 -0.04858177 -0.09420533
0003e0 88 b8 98 3e a6 e0 40 3e 65 9b 57 3e c4 bb 4b 3e
       0.29828286 0.18835697 0.21055372 0.19895846
0003f0 f6 50 59 be ca 7a 41 3d f5 b6 aa be ae d1 37 3e
       -0.2122229 0.04723624 -0.3334271 0.1795108

encoder.4.bias f4 [32]
000000 13 e9 ca 3c 7d 01 20 bd 3e 14 fa 3c aa 6c cd 3b
       0.024769342 -0.03906392 0.03052723 0.0062690573
000010 94 67 c9 bc 96 a2 e8 bc 9f c1 03 3d 0d 62 02 bd
       -0.024585523 -0.02839784 0.032167073 -0.03183179
000020 af 35 a1 bc f5 2b 01 3d 2f 05 18 3d 95 b9 5a 3c
       -0.019678919 0.03153606 0.03711432 0.01334991
000030 78 6f 1e 3c dc 31 0b 3d ff 29 04 3d ff 8d d7 bc
       0.009670131 0.033983096 0.032266613 -0.026312826
000040 9f f6 38 bd df 0e 62 3b 1d cb 9c 3c 99 bc 92 bc
       -0.04515707 0.0034493727 0.01913982 -0.017912196
000050 30 69 1d bc 8c f9 08 3d 9d 5e 93 3c 00 cb fa bc
       -0.009607598 0.03344111 0.017989451 -0.030614376
000060 76 be cf bb 9e 8d 80 3c c6 84 e8 bc 44 52 02 3d
       -0.0063398434 0.015692528 -0.028383624 0.031816736
000070 47 4b b9 3c 0f c5 f7 bc cb 6d 0e bd c1 8e 8c bc
       0.022618903 -0.030245332 -0.034772675 -0.017157914

nee_decoder.0.weight f4 [16, 32]
000000 b2 8e 32 3e 9d 6a 66 3d 54 5f 29 3e 33 d7 94 3d
       0.17437246 0.056254018 0.16540271 0.072676085
000010 94 5f ff 3d 55 55 10 3e 78 2f 52 be a1 95 33 bd
       0.12469402 0.14095052 -0.2052592 -0.04384387
000020 e6 21 62 3d e5 2c c4 bc ab 37 9c be ef 3a 6e 3d
       0.05520811 -0.023947189 -0.3051122 0.058161672
000030 40 7a 6b 3e 8d cd 31 be fd 7e ba 3e 9c 5f ae 3d
       0.22995853 -0.17363568 0.3642501 0.0851433
000040 99 f3 24 3e 8a 2e 1c be b8 62 94 be 62 2e f6 bd
       0.1610855 -0.15252128 -0.28981566 -0.120205656
000050 df f5 05 3d 31 9a 16 be 21 f7 a6 3e 26 41 7a be
       0.032705184 -0.14707257 0.3261042 -0.24438915
000060 9e 5a 86 be b6 d4 e0 bd e8 1f b7 3e c5 41 77 be
       -0.2624101 -0.109780714 0.3576653 -0.24146183
000070 99 d0 bd 3e f6 6e 15 3e 48 92 1c bd fe ba 39 3e
       0.3707321 0.1459311 -0.038225442 0.18137738
000080 63 7a 0d 3e b7 69 24 be 5c a1 aa bd 05 86 a2 3e
       0.13816218 -0.16055952 -0.08331558 0.31742874
000090 ad e2 40 3e 70 8d 34 be 74 1f a6 bd ef 89 5e 3e
       0.1883647 -0.17632079 -0.08111468 0.21732305
0000a0 0e 25 2b 3e 02 e4 7c 3b 80 8b 5c be f0 2f 8e be
       0.16713354 0.0038588052 -0.2153759 -0.27770948
0000b0 a2 28 b7 bd 8e 1c ee 3d d8 81 4d bd 76 19 9b be
       -0.08943297 0.1162654 -0.050172657 -0.30292863
0000c0 a9 99 dc bd c6 fc b9 3e 95 ba 90 be 8b 68 91 be
       -0.10771496 0.36325663 -0.2826735 -0.28400072
0000d0 dc 74 4f 3e 50 10 af 3e 10 69 b2 be 3c e0 9d be
       0.20259422 0.34192133 -0.3484578 -0.3083514
0000e0 64 45 bb bd 20 38 ad 3e 9c e1 80 be ed 00 aa 3d
       -0.091440946 0.33831882 -0.25172126 0.08300958
0000f0 bb 80 7f 3e b9 a5 d4 bd c5 48 ff bd 70 02 7d be
       0.2495145 -0.103831716 -0.124650516 -0.24707961
000100 1f 69 5e 3c a5 f5 a8 3e d3 0a 14 3e 2f 79 7e 3e
       0.0135748675 0.32999912 0.14457254 0.24850915
000110 5b e2 bf bc d2 05 66 bd ff 5b 81 bd d4 7c 4e 3e
       -0.023423364 -0.056157894 -0.06316375 0.20164806
000120 b5 e4 3d bd 3d a0 9a be 2c 42 fe bd 87 af 0d 3e
       -0.04636069 -0.30200377 -0.12414965 0.1383649
000130 2f 7d b0 3e 21 a9 83 bd 64 9b 9d be ab 49 85 be
       0.34470508 -0.06428743 -0.30782616 -0.26032767
000140 5d 6d 8e be 65 f0 11 3e 3f 6f 85 3e 7f 22 d6 3d
       -0.27817813 0.1425186 0.26061437 0.10455798
000150 7c a8 f9 3d 72 dc 6b 3e 80 88 77 3e 5c 2f 58 3e
       0.12190339 0.23033312 0.24173164 0.21111816
000160 b3 73 4a 3e 8f ed c3 3d fa de 3a 3e 18 6b 78 be
       0.19770698 0.09566795 0.18249121 -0.24259603
000170 ce 54 6a be 38 bc c2 3d 6a 5d 61 3d 59 23 9f be
       -0.22883913 0.09508556 0.055020727 -0.31081656
000180 17 1b 83 be d8 d7 83 be 44 13 86 3e ac 1a 56 3e
       -0.25606605 -0.25750613 0.26186574 0.20908612
000190 c0 f2 36 be de f8 83 3d 5d 42 85 bd b5 81 aa 3e
       -0.1786604 0.06443952 -0.065067984 0.33302084
0001a0 6f ce a9 be 09 e6 91 be 9d 0a 9c be 3d eb 38 3e
       -0.3316531 -0.28495815 -0.30476847 0.18058486
0001b0 c8 64 47 be 31 c8 44 3e 38 ab c9 3d 0b 71 3e be
       -0.19472039 0.19216992 0.098471105 -0.1859781
0001c0 90 92 db bd 65 2f fb bd ad 4a 28 3e da 38 06 be
       -0.10721314 -0.12264899 0.16434737 -0.13107625
0001d0 d1 af cf 3d a2 ea db 3b 4a 15 9a be af 06 4c be
       0.10140956 0.00671132 -0.30094367 -0.19924425
0001e0 b7 a6 64 be 0d 82 29 3e 1c 52 82 3d 12 f1 5e 3c
       -0.22329222 0.16553517 0.06363317 0.01360728
0001f0 80 78 71 be 1b 8a a7 be a6 47 10 be 29 bb 8f be
       -0.23581123 -0.32722554 -0.14089832 -0.2807248
000200 e6 ab d8 be ad 43 ae be 0a d5 61 be 2c 57 b6 be
       -0.42318648 -0.34036008 -0.22053924 -0.35613382
000210 4d 58 88 3d f3 61 e8 3d 26 23 0d 3e 24 ad b4 be
       0.06657467 0.11346807 0.1378294 -0.35288346
000220 05 30 67 3e 38 fd 80 3d 9b 47 66 3e e6 0e ac bd
       0.22576912 0.06298298 0.22488253 -0.08401279
000230 12 6c 33 3e 67 ca a7 be 18 be 03 3e 36 51 96 3e
       0.17521694 -0.32771608 0.12865484 0.29358834
000240 ff f1 09 3e 49 3d b1 be 31 59 dd bd 7a 73 a6 bd
       0.1347122 -0.3461707 -0.108080275 -0.08127494
000250 5e 45 3b 3e 6f d9 f9 bd 08 c9 84 3d 4d da 09 be
       0.1828818 -0.12199675 0.06483656 -0.13462181
000260 42 fb 59 bd 57 cf 5e b9 ea c7 8a be 1c 3f 24 be
       -0.053218134 -0.0002124881 -0.27105647 -0.160397
000270 e2 81 86 3e 7d 50 98 3e 91 c3 40 bc e7 6b 9f 3e
       0.26270968 0.29748908 -0.011765377 0.3113701
000280 ac 7d 8b 3e 9d 0a 64 be fd db 0f be 48 aa 78 be
       0.27244318 -0.22269674 -0.14048763 -0.24283707
000290 e8 19 ea 3d 00 7f 12 3c 7e 98 46 bd 9f 66 86 3e
       0.114307225 0.008941412 -0.04848527 0.2625017
0002a0 9e 82 0d be f6 23 46 be ac ae 80 be fb 2d 38 be
       -0.13819358 -0.19349656 -0.25133264 -0.1798629
0002b0 bc 78 ae 3e 10 05 30 be 75 3b c7 bd 10 2d 23 3e
       0.34076488 -0.17189431 -0.097281374 0.15935159
0002c0 60 07 8b be 14 be 5b be 53 3b 85 3e 7f db 0a be
       -0.27154064 -0.21459228 0.26021823 -0.13560294
0002d0 51 dd 3b be 1d 5c 3b bd c8 59 4e bd e5 53 84 3d
       -0.18346144 -0.045742143 -0.05037859 0.06461314
0002e0 27 bb 04 3e 03 93 8b be e2 80 a4 3e ce 1a ac be
       0.12962018 -0.272606 0.3212958 -0.336142
0002f0 e6 3b f5 3d 92 4d cc bd 28 e3 18 be 46 54 a9 3e
       0.11974315 -0.09975733 -0.14930403 0.33072108
000300 85 1b bc be 7c e3 43 3d 28 07 57 3e ce 5b 93 3e
       -0.36739746 0.047824368 0.20998824 0.2878098
000310 15 69 9a be 79 41 3d 3d 99 5b bb 3e 2e 21 a4 be
       -0.30158296 0.046205018 0.3659332 -0.32056564
000320 ed d6 9c 3d 6c 9d 80 be 54 5a 7c 3d 0f a0 b0 be
       0.07658181 -0.25120103 0.06160958 -0.34497115
000330 a1 d0 21 3e dc 37 c4 bd 5a b9 45 3e bf 15 6d bc
       0.15802242 -0.09580967 0.19308987 -0.014470517
000340 35 96 85 bd 7b db 8b bd 0d 37 a1 be b3 cb 20 be
       -0.0652279 -0.06828972 -0.31487313 -0.15702705
000350 81 71 32 bc a7 20 94 be 22 0a 98 3e 34 92 57 be
       -0.010891319 -0.28931162 0.2969523 -0.21051866
000360 f5 9e e8 bd 35 12 85 bd 89 2d a6 be 4b b5 49 3d
       -0.11358444 -0.06497613 -0.32456616 0.04924516
000370 dc f8 56 be 2a a1 8a be 6d 39 00 bc 1f a8 9c 3e
       -0.2099337 -0.27076083 -0.007826191 0.30597016
000380 b5 4d b2 3d 88 4d 95 3e cc 96 62 bb 35 bb fc bd
       0.08706228 0.29160714 -0.0034574745 -0.123403944
000390 dc e4 91 3e c5 ca 40 be 40 76 a7 be 3c 79 9e 3d
       0.28494918 -0.1882735 -0.32707405 0.07737967
0003a0 50 6e 34 3e f8 69 58 be 73 d9 fe 3d fa 71 00 be
       0.17620206 -0.21134174 0.12443819 -0.12543479
0003b0 a0 b5 2f bd e3 52 a0 bd f6 df 9a bd ed 49 93 be
       -0.04289782 -0.078283094 -0.075622484 -0.28767338
0003c0 9f 75 b1 3d ca 76 be bd f0 69 8a 3e a6 b6 71 3d
       0.086650126 -0.09300001 0.2703395 0.059012078
0003d0 9c 0a 94 be 13 b6 89 be 6e ae 3c be 3f 5f 2d 3e
       -0.28914344 -0.26896724 -0.18425915 0.16930865
0003e0 a9 bf 69 be 75 9f 25 be b7 74 83 3d 2a 00 7b be
       -0.22827019 -0.1617411 0.06418746 -0.24511781
0003f0 ea 46 32 be 49 25 a4 3e 55 68 3f be fa 3d f1 bd
       -0.17409864 0.32059696 -0.18692143 -0.11779399

nee_decoder.0.bias f4 [16]
000000 60 c2 0e bd 5e 25 29 3d 00 00 00 00 f6 1d 39 bc
       -0.03485334 0.0412954 0.0 -0.011298647
000010 33 b3 01 3d 00 00 00 00 4c 9f 1f 3d 00 00 00 00
       0.03166504 0.0 0.038970277 0.0
000020 e6 ac a3 bc 45 31 4d bc 6a e1 26 bc 5b d6 c5 bc
       -0.019979905 -0.012523954 -0.010185579 -0.024150064
000030 03 19 20 3d 00 00 00 00 00 00 00 00 a6 15 1b 3d
       0.039086353 0.0 0.0 0.037862442

nee_decoder.2.weight f4 [16, 16]
000000 7a db 98 bd a2 e6 7a bd b9 3d 80 3e 56 a2 55 3e
       -0.07463737 -0.061255105 0.2504709 0.20862707
000010 81 8e d4 bc 02 11 28 3c 57 07 ce 3d c1 1e bf 3e
       -0.025946857 0.010257961 0.10059994 0.3732815
000020 df b7 77 3e 5f d5 52 be d2 4d 5a be 58 40 17 3e
       0.24191235 -0.20589207 -0.21318749 0.14770639
000030 d8 77 d4 bc 2f 3b 8e be 99 94 d6 be af dd 8b 3d
       -0.025936052 -0.27779528 -0.41910246 0.06829392
000040 0b 7c 01 be 95 fe 80 be 5d d1 a6 3d f3 e3 d7 3e
       -0.12644975 -0.2519423 0.081454016 0.421661
000050 5c 24 b8 3e ee cf 7c 3e 65 35 a7 be 7e 10 7d 3e
       0.3596524 0.24688694 -0.32657924 0.24713323
000060 4c 56 65 3e 63 f0 13 3e 37 e8 dc bd 99 12 f7 bb
       0.22396201 0.14447169 -0.10786479 -0.007540059
000070 93 80 70 be aa c2 c7 bd 5a fb 91 bd d7 3e 7b bd
       -0.23486547 -0.09753926 -0.0712802 -0.061339226
000080 7e 4a d3 be dc 17 1d 3e 1f 65 b5 be 49 d8 96 be
       -0.4126777 0.15341133 -0.35428712 -0.29461887
000090 06 ac 56 3e 28 7b b5 be c2 4a e6 3e 52 4a d4 3e
       0.20964059 -0.35445523 0.4497891 0.41462952
0000a0 59 5f 19 be 91 7b b2 bd 58 9d a9 be be a9 71 3d
       -0.14977778 -0.08714975 -0.33127856 0.05899977
0000b0 28 c4 d1 3d 86 3c 73 be 64 0b 0b 3e 39 d7 73 3c
       0.10242492 -0.23753557 0.13578564 0.014882856
0000c0 da b4 02 be 94 5b c4 ba d8 e6 d6 be a5 2c 9c be
       -0.12764302 -0.0014980906 -0.41972995 -0.3050281
0000d0 14 c5 6a 3d 62 1a d6 3e 79 68 83 be 2a 21 8e 3e
       0.057316855 0.41817003 -0.25665644 0.27759677
0000e0 10 52 22 3d 48 c4 3e be 1d bd f8 39 5f 94 54 3e
       0.039629042 -0.18629563 0.00047443146 0.20759724
0000f0 2c 02 53 3d 57 41 c4 3e e0 d5 a7 bd 77 0c 94 be
       0.051515743 0.383311 -0.0819509 -0.2891576
000100 0f 43 d2 3e 86 6b bf bd 9c ab 8c 3e 4e 0e 98 3e
       0.41066787 -0.0934668 0.27474678 0.29698414
000110 c1 64 ac 3d 35 f6 b5 be 04 e6 d6 be 29 80 52 3e
       0.08417655 -0.35539404 -0.41972363 0.20556702
000120 6a 70 fe 3d e9 68 87 3e 8f f5 be be 66 d6 4f bd
       0.12423785 0.26447228 -0.3729672 -0.050741576
000130 26 0f c8 3e d6 f4 68 3e 09 3e b8 3e 48 07 b0 3e
       0.39074057 0.22749647 0.3598483 0.34380555
000140 22 98 d9 bd cd f9 96 be d8 32 84 be 98 97 16 3e
       -0.1062472 -0.29487458 -0.2582004 0.14706266
000150 da 00 30 be 99 17 e1 3a 41 85 8d 3d b5 a0 89 3e
       -0.17187825 0.001717317 0.06910182 0.26880422
000160 dc 49 77 3e bc 11 7d 3e 9f 2b 90 3c f8 52 7a 3e
       0.24149269 0.24713796 0.017598925 0.24445713
000170 97 94 4f be cd 78 31 be 55 69 8c bd 8e bf 80 be
       -0.20271526 -0.17331238 -0.06856028 -0.25146145
000180 0d bb cf 3e de bc 1b bd 9d e8 00 3e 04 3b 98 b9
       0.40572396 -0.038021915 0.12588735 -0.0002903567
000190 01 52 76 3b b2 54 6c be e9 42 c4 bc d3 4f c6 be
       0.00375855 -0.23079184 -0.023957686 -0.38732776
0001a0 7d 13 42 be 9d 06 b1 3e 2b 87 cb be f8 e5 a7 3d
       -0.18952747 0.34575358 -0.39751562 0.0819816
0001b0 00 26 b2 3d d6 31 d4 be 04 35 ad 3d 1c 4e 54 3e
       0.08698654 -0.41444272 0.084573776 0.20732921
0001c0 08 6b b1 3e d4 7d f4 3d b7 4c ad 3e 36 e1 75 3d
       0.3465197 0.11938062 0.3384759 0.06002923
0001d0 d3 02 4d 3e ad e5 02 3e dd 54 90 be e4 aa c2 bd
       0.20020609 0.12782927 -0.28189746 -0.09505251
0001e0 5c fa 90 be 2b 43 ac 3e 57 61 5c 3e 6d f8 1a be
       -0.2831601 0.33644995 0.21521507 -0.1513383
0001f0 97 ee 04 bd 06 bd ec 3d be 4e c1 be 89 91 59 3d
       -0.0324541 0.11559491 -0.37755388 0.05311731
000200 81 30 3f 3e 3a f1 ea 3c 03 31 23 bd 02 dd 85 3e
       0.18670847 0.028679479 -0.039841663 0.26145178
000210 4f 97 32 3e a6 17 c5 be 6b 1d 78 3e e6 dc ae be
       0.17440532 -0.38494605 0.24229972 -0.34152907
000220 be 47 68 3e f2 48 b4 3e 64 7e 00 3d 2b a5 24 be
       0.22683617 0.35211903 0.031370535 -0.16078632
000230 0c ad 7a be ae e3 44 be ac 77 a3 bd 58 1e 44 be
       -0.24480075 -0.19227478 -0.0798181 -0.191522
000240 4c 41 e6 3e 87 b5 21 be c7 18 38 3e 32 12 c6 be
       0.44971693 -0.15791903 0.17978202 -0.38685757
000250 24 20 6c 3e 49 a6 bc 3e 6a 1c 9a be 75 43 e2 bd
       0.23059136 0.36845616 -0.30099803 -0.11048023
000260 5a 4b f7 3d af ce cd be 83 db 87 be d1 0a 26 3e
       0.12074919 -0.4019675 -0.26534662 0.16215064
000270 89 9f da 3e ee 76 04 be 70 38 81 bb a0 01 d2 be
       0.4269984 -0.12935993 -0.0039434955 -0.41016865
000280 e0 70 d9 be f2 11 b5 3e 6d 23 bc 3e 86 67 03 be
       -0.4246893 0.35365254 0.36745778 -0.1283246
000290 48 15 28 be e9 a1 e5 bc 51 05 58 3e 32 40 d6 be
       -0.16414368 -0.028031306 0.21095778 -0.41845852
0002a0 2f 59 86 be 81 00 1f be 13 ff 40 be a1 92 f7 bb
       -0.26239917 -0.15527536 -0.18847303 -0.0075553213
0002b0 c6 16 a0 3e e9 9f c1 3d f9 a2 c8 be 20 6a cf 3e
       0.31267375 0.094543286 -0.39186838 0.40510654
0002c0 5d 4f a6 3e 43 27 d8 3d ba 09 59 3e 0d c5 07 3e
       0.32482424 0.105543636 0.21195117 0.13258763
0002d0 cd 86 a9 3e 8e 3b d5 be d1 72 96 be f2 3c 61 bd
       0.33110657 -0.41647 -0.29384473 -0.054989763
0002e0 61 c2 cb bd 16 a6 99 be 49 03 d9 be fc c2 b4 be
       -0.09949184 -0.30009526 -0.4238532 -0.3530501
0002f0 15 81 cc bd 90 32 bc 3e fc fb 92 3e 7c 7e d0 3d
       -0.09985558 0.36757326 0.28707874 0.10180375
000300 f7 b5 93 be 6c 25 48 be 74 dc 2a 3d a9 d7 de be
       -0.28849766 -0.19545525 0.041714147 -0.4352391
000310 e6 53 58 bd 7c 55 b4 3d e6 7b b7 3e 3d c9 e8 bd
       -0.052814387 0.08805367 0.35836715 -0.11366508
000320 5e d0 d2 3e 41 e1 38 3d b1 00 9e be 27 22 c3 3e
       0.41174597 0.045136694 -0.30859903 0.38111994
000330 15 61 af 3e 07 2e af be c5 9b 80 be 2a 17 3b 3e
       0.34253755 -0.34214804 -0.25118843 0.18270555
000340 40 6a 88 be 40 bf 96 3e 06 90 53 be e6 9d 09 be
       -0.26643562 0.29442787 -0.2066041 -0.1343914
000350 f4 92 fe bd e2 82 d3 3e 0c f1 15 be b9 6f ac bd
       -0.12430373 0.41310793 -0.14642733 -0.08419747
000360 a4 25 86 3e 06 b0 97 be 7d b1 08 bb 92 3f ab be
       0.26200593 -0.29626483 -0.0020857744 -0.33446938
000370 6f a0 cc be 14 78 ca bd e2 10 44 3d 8e 0f bd 3e
       -0.3996615 -0.09886184 0.047867663 0.3692593
000380 e7 0c ce be 2e 5a fa bd ec 5e e9 3d cc 6b 37 3e
       -0.4024422 -0.12224232 0.11395058 0.17912215
000390 f2 ce 8d 3e c0 44 b2 be 18 c7 a7 bd dc 0e cd 3d
       0.2769695 -0.34818077 -0.08192271 0.100126
0003a0 18 c0 b7 be d0 9c 52 3e 95 8a d3 be bd ea 93 3e
       -0.35888743 0.20567632 -0.41316667 0.2889003
0003b0 8d bf 1a 3e a1 e5 fb bd 94 d9 0f 3e cf 3a c8 3e
       0.15112133 -0.122996576 0.14047843 0.39107367
0003c0 df 17 99 3e 9e 3c 70 3e 46 0f 81 be 95 0d e3 3d
       0.29901025 0.23460624 -0.25206965 0.11086575
0003d0 75 2f a1 3e 63 68 9c 3d 20 84 8e 3e fb 7e 89 be
       0.3148152 0.07637098 0.27835178 -0.2685469
0003e0 e3 e6 92 3e 76 43 dc bc 3a 52 cb be ce a3 fc bd
       0.28691778 -0.026887637 -0.3971117 -0.12335931
0003f0 19 92 ba 3e 92 e6 1a be aa 97 99 bd a0 56 38 be
       0.3643959 -0.15127018 -0.07499631 -0.18001795

nee_decoder.2.bias f4 [16]
000000 9d 59 fe bc 00 00 00 00 79 02 c6 3d 00 00 00 00
       -0.03104859 0.0 0.0966844 0.0
000010 75 d6 22 bd 00 00 00 00 37 b1 01 bd fb 34 23 bc
       -0.039755303 0.0 -0.031663146 -0.009961362
000020 61 32 91 3c 5b 1b fb bc dd 0d 82 3d 0e f8 5f 3c
       0.017724218 -0.030652693 0.063503005 0.013669981
000030 4f 31 a1 bc 00 00 00 00 22 16 c4 3c 91 37 f7 3c
       -0.019676832 0.0 0.023936335 0.030177863

nee_decoder.4.weight f4 [1, 16]
000000 bf 89 a6 be ce c9 d2 3d a9 d1 fb 3e 39 de 8f 3d
       -0.32526967 0.102923974 0.49183396 0.070248075
000010 c5 b1 72 bd 8e c3 0c 3d a7 af ed be bb 99 b7 be
       -0.059251565 0.034366183 -0.46423075 -0.35859475
000020 b0 39 84 3c 16 47 ff be 2e 44 a4 3e 24 36 83 3d
       0.016140789 -0.49858922 0.32083267 0.06406811
000030 25 7e 0b 3b 97 28 1c bd 8a 96 0c 3f fe 6d 06 3f
       0.0021284905 -0.038124647 0.54917204 0.52511585

fc_mu.0.weight f4 [4, 32]
000000 33 17 67 be fd 8a 9b 3e eb ee 50 be 1d ab a6 be
       -0.22567444 0.30379477 -0.2040364 -0.32552424
000010 ad 22 b7 3d 54 d7 81 be 63 8f 8d bc a8 ab 84 be
       0.08942161 -0.25359595 -0.017280286 -0.25912213
000020 b5 a7 b0 3d 1a 7e 88 bd 83 a1 5c 3d a5 3c 41 3e
       0.086257376 -0.06664677 0.053864967 0.1887079
000030 c7 96 86 be 0f 88 0e be 91 61 8b be 7b 0f ae 3e
       -0.2628691 -0.1391909 -0.27222875 0.33996186
000040 36 ae 15 be 79 6f 1d 3e de f5 c0 3d e4 37 ce be
       -0.14617237 0.15374555 0.094218954 -0.40277016
000050 9f 63 94 be 31 e0 d6 bd 36 3d a0 be 4b ab 5d 3e
       -0.28982255 -0.1049198 -0.312967 0.21647374
000060 48 64 83 3e 44 54 44 ba f0 c0 4c 3d c9 54 dc 3d
       0.25662446 -0.0007489363 0.049988687 0.10758359
000070 75 0a 0b 3e 91 b7 a1 bd 5a 7e 24 be 8f 3e 81 be
       0.13578208 -0.07896341 -0.16063824 -0.2524304
000080 7b 80 ba 3c c6 e6 a9 3e 5f 48 76 bd fa 33 af 3e
       0.022766342 0.3318388 -0.060127612 0.34219342
000090 f5 62 1b 3e 77 1b 4d be a6 03 2b 3e 3b c9 30 3e
       0.15174468 -0.20030008 0.1670061 0.17264263
0000a0 54 4c 2d be 17 95 a5 bd 90 bf 55 bd 50 31 0a 3e
       -0.16923648 -0.08085077 -0.05218464 0.13495374
0000b0 2d 59 9e 3e 09 79 ca bd 14 0c 83 3e 27 4c 58 3e
       0.3092741 -0.09886367 0.25595152 0.211228
0000c0 29 4e ae be 3c 6a 9d 3e 77 aa 2a bc f5 54 9d 3e
       -0.34044006 0.30745113 -0.010416619 0.3072888
0000d0 d9 b0 9e 3e 1b 4a cf be a6 f6 b2 be df 05 18 bd
       0.309943 -0.40486225 -0.34953803 -0.037114974
0000e0 fe f4 0f 3e b0 82 98 bd 14 28 c4 be 68 21 5a 3e
       0.14058301 -0.07446802 -0.38311827 0.21301806
0000f0 15 f7 77 be 5c 1e 47 3e a3 0b 8f 3e ed 17 16 be
       -0.24215348 0.19445175 0.27938566 -0.14657564
000100 3a c4 7b 3e 2d 5d 5e 3d 89 3d 03 be a1 f3 d8 3c
       0.24586573 0.054288078 -0.12816443 0.026483359
000110 12 55 16 3e 69 fd 55 3e 8c e2 6f be ff 3b 9c 3e
       0.14680889 0.2089745 -0.23426265 0.30514523
000120 45 b8 45 be da 0e b4 be 03 b8 34 be 8b 0d b9 be
       -0.19308574 -0.3516758 -0.1764832 -0.36143145
000130 3c 1b ea 3d 02 25 e1 3c f3 db a2 bc 08 77 8d be
       0.11430976 0.027483467 -0.01988027 -0.27629876
000140 9d 60 5c 3e 1e ed 88 3d c4 d6 d1 bd f5 21 94 3d
       0.2152123 0.066858515 -0.102460414 0.07233039
000150 d0 70 13 3e f7 28 7b be ca cf f0 bd c1 d7 3d be
       0.14398503 -0.24527346 -0.117583826 -0.18539335
000160 4e 00 b9 3e ed bc ce 3d 47 bf 9d be 59 9e 93 3e
       0.36133045 0.100946285 -0.30809996 0.28831747
000170 9f c2 84 bd 2c 2f e6 3c a9 5b 58 3d 07 4c 43 bd
       -0.064824335 0.028098665 0.05282179 -0.047679927
000180 87 2c d4 3e 0a dd 51 3e 9d 0c 77 3d 9d 1b 31 be
       0.41440222 0.20494476 0.060314763 -0.1729569
000190 31 47 01 3e 4f 74 84 be 95 61 ee bd 10 c5 71 3e
       0.12624814 -0.25869986 -0.11639706 0.2361033
0001a0 16 f9 d7 be 1e fa 1c bd c1 ad 3a be 0f 08 38 3e
       -0.42182225 -0.038324468 -0.18230344 0.17971824
0001b0 cc 9e 8f be 13 86 36 3d 31 7e 15 be 06 01 a3 3e
       -0.2805084 0.044561457 -0.1459892 0.31836718
0001c0 5e f4 9d bd 42 28 8a be 95 81 d7 bd 3d e0 a3 3e
       -0.07712625 -0.2698384 -0.10522763 0.32007018
0001d0 66 44 06 3e 85 82 75 3d ab 7d 67 3e da 29 40 3e
       0.1311203 0.059938926 0.22606532 0.18765965
0001e0 f7 c9 d2 bc 39 40 7a be 70 c2 b3 be 7e 5f 51 3e
       -0.02573107 -0.24438561 -0.35109282 0.20446584
0001f0 67 0c 9a 3e ce 8c 05 be 7d 24 53 be 7e 6d 4f 3d
       0.30087587 -0.13041994 -0.20619388 0.05064153

fc_mu.0.bias f4 [4]
000000 00 00 00 00 92 ac 16 bc 00 00 00 00 df 8a da bc
       0.0 -0.009196417 0.0 -0.026677547

fc_mu.2.weight f4 [1, 4]
000000 76 39 19 3e f1 dc 48 3f 5b 91 e2 be 5e 42 64 bf
       0.14963326 0.7846213 -0.44251522 -0.8916377

fc_logvar.0.weight f4 [4, 32]
000000 33 17 67 be fd 8a 9b 3e eb ee 50 be 1d ab a6 be
       -0.22567444 0.30379477 -0.2040364 -0.32552424
000010 ad 22 b7 3d 54 d7 81 be 63 8f 8d bc a8 ab 84 be
       0.08942161 -0.25359595 -0.017280286 -0.25912213
000020 b5 a7 b0 3d 1a 7e 88 bd 83 a1 5c 3d a5 3c 41 3e
       0.086257376 -0.06664677 0.053864967 0.1887079
000030 c7 96 86 be 0f 88 0e be 91 61 8b be 7b 0f ae 3e
       -0.2628691 -0.1391909 -0.27222875 0.33996186
000040 36 ae 15 be 79 6f 1d 3e de f5 c0 3d e4 37 ce be
       -0.14617237 0.15374555 0.094218954 -0.40277016
000050 9f 63 94 be 31 e0 d6 bd 36 3d a0 be 4b ab 5d 3e
       -0.28982255 -0.1049198 -0.312967 0.21647374
000060 48 64 83 3e 44 54 44 ba f0 c0 4c 3d c9 54 dc 3d
       0.25662446 -0.0007489363 0.049988687 0.10758359
000070 75 0a 0b 3e 91 b7 a1 bd 5a 7e 24 be 8f 3e 81 be
       0.13578208 -0.07896341 -0.16063824 -0.2524304
000080 7b 80 ba 3c c6 e6 a9 3e 5f 48 76 bd fa 33 af 3e
       0.022766342 0.3318388 -0.060127612 0.34219342
000090 f5 62 1b 3e 77 1b 4d be a6 03 2b 3e 3b c9 30 3e
       0.15174468 -0.20030008 0.1670061 0.17264263
0000a0 54 4c 2d be 17 95 a5 bd 90 bf 55 bd 50 31 0a 3e
       -0.16923648 -0.08085077 -0.05218464 0.13495374
0000b0 2d 59 9e 3e 09 79 ca bd 14 0c 83 3e 27 4c 58 3e
       0.3092741 -0.09886367 0.25595152 0.211228
0000c0 29 4e ae be 3c 6a 9d 3e 77 aa 2a bc f5 54 9d 3e
       -0.34044006 0.30745113 -0.010416619 0.3072888
0000d0 d9 b0 9e 3e 1b 4a cf be a6 f6 b2 be df 05 18 bd
       0.309943 -0.40486225 -0.34953803 -0.037114974
0000e0 fe f4 0f 3e b0 82 98 bd 14 28 c4 be 68 21 5a 3e
       0.14058301 -0.07446802 -0.38311827 0.21301806
0000f0 15 f7 77 be 5c 1e 47 3e a3 0b 8f 3e ed 17 16 be
       -0.24215348 0.19445175 0.27938566 -0.14657564
000100 3a c4 7b 3e 2d 5d 5e 3d 89 3d 03 be a1 f3 d8 3c
       0.24586573 0.054288078 -0.12816443 0.026483359
000110 12 55 16 3e 69 fd 55 3e 8c e2 6f be ff 3b 9c 3e
       0.14680889 0.2089745 -0.23426265 0.30514523
000120 45 b8 45 be da 0e b4 be 03 b8 34 be 8b 0d b9 be
       -0.19308574 -0.3516758 -0.1764832 -0.36143145
000130 3c 1b ea 3d 02 25 e1 3c f3 db a2 bc 08 77 8d be
       0.11430976 0.027483467 -0.01988027 -0.27629876
000140 9d 60 5c 3e 1e ed 88 3d c4 d6 d1 bd f5 21 94 3d
       0.2152123 0.066858515 -0.102460414 0.07233039
000150 d0 70 13 3e f7 28 7b be ca cf f0 bd c1 d7 3d be
       0.14398503 -0.24527346 -0.117583826 -0.18539335
000160 4e 00 b9 3e ed bc ce 3d 47 bf 9d be 59 9e 93 3e
       0.36133045 0.100946285 -0.30809996 0.28831747
000170 9f c2 84 bd 2c 2f e6 3c a9 5b 58 3d 07 4c 43 bd
       -0.064824335 0.028098665 0.05282179 -0.047679927
000180 87 2c d4 3e 0a dd 51 3e 9d 0c 77 3d 9d 1b 31 be
       0.41440222 0.20494476 0.060314763 -0.1729569
000190 31 47 01 3e 4f 74 84 be 95 61 ee bd 10 c5 71 3e
       0.12624814 -0.25869986 -0.11639706 0.2361033
0001a0 16 f9 d7 be 1e fa 1c bd c1 ad 3a be 0f 08 38 3e
       -0.42182225 -0.038324468 -0.18230344 0.17971824
0001b0 cc 9e 8f be 13 86 36 3d 31 7e 15 be 06 01 a3 3e
       -0.2805084 0.044561457 -0.1459892 0.31836718
0001c0 5e f4 9d bd 42 28 8a be 95 81 d7 bd 3d e0 a3 3e
       -0.07712625 -0.2698384 -0.10522763 0.32007018
0001d0 66 44 06 3e 85 82 75 3d ab 7d 67 3e da 29 40 3e
       0.1311203 0.059938926 0.22606532 0.18765965
0001e0 f7 c9 d2 bc 39 40 7a be 70 c2 b3 be 7e 5f 51 3e
       -0.02573107 -0.24438561 -0.35109282 0.20446584
0001f0 67 0c 9a 3e ce 8c 05 be 7d 24 53 be 7e 6d 4f 3d
       0.30087587 -0.13041994 -0.20619388 0.05064153

fc_logvar.0.bias f4 [4]
000000 00 00 00 00 92 ac 16 bc 00 00 00 00 df 8a da bc
       0.0 -0.009196417 0.0 -0.026677547

fc_logvar.2.weight f4 [1, 4]
000000 87 48 cf bd 2b e0 58 3f 51 59 9b bc cb ee 49 bd
       -0.10121255 0.84717053 -0.018963488 -0.049299996
