.archive/piae_sde/experiments/2024-11-25_17-51-13-600801/123/best_model.pth (torch, 25314 bytes, 28 tensors)

encoder.0.weight f4 [16, 18]
00000000: d6bd 72bd 1fdb 9dbe f5b6 cc3e b1e7 773e
00000010: 7423 6fbe 155e 293d 048c c8be 7e46 5dbe
00000020: 873e 2abe 669c ea3d 1f7b f8bc 6414 aa3e
00000030: 437e fbbd c8f3 3d3d ec34 003e c27f 9d3e
00000040: 44e7 1bbe c7de 9a3e b996 363e f148 bc3d
00000050: bb13 b9bd 731e cd3e 6f5f 8abe 4ee8 c73e
00000060: a8d7 e9bd 98ff 24be 3b7d 36be 8e97 b4be
00000070: 8377 d3be b851 81bd 104b 5d3d e2a2 71be
00000080: 51c2 e63b 35ba 27be 13e7 a2be 3423 f0bd
00000090: de89 f43d 6439 4dba cb5d ffbc 8055 abbe
000000a0: d857 54be 21ef 62be b0d3 b63e 20f8 6cbc
000000b0: 5f4c bb3e eae7 8f3e 7d31 8ebe 0f56 9b3e
000000c0: d8ad 13be e470 bbbe deb4 aabd d02e 173e
000000d0: 252d 41be 8da8 b9be e8dd 8e3d 38e0 84be
000000e0: a26a 94be 6961 a2be c347 e1bd 8126 84be
000000f0: 9dc5 d6be 53e3 b73e 5937 9e3c 7704 f43d
00000100: 0d3c 5abe 3ae1 ce3d 4ee5 80be bc90 943e
00000110: 056a f43d bbc1 c4be 4903 8abe 2712 99be
00000120: 4ccb 993e 77cd bf3d 2d43 853c d6e0 973c
00000130: c891 fe3c 2eb3 9dbe 11cb 81be ffff 3ebe
00000140: 56d5 f03e e3f4 5e3d 4ca0 8cbe 8423 7a3e
00000150: 49ec a6bd 0099 0b3e 5321 3f3e b42f 143e
00000160: 2970 453e d90e c33e 952e dabc ddc5 513c
00000170: 547e 7cbd c3cf c03e 999c afbe e7a6 aa3e
00000180: a645 d43d 8248 adbd bfa6 b93e f019 8ebe
00000190: 2d5c 6fbe bd77 16be b845 1cbe 6e68 163d
000001a0: 6651 90be 76ff 94be 097b c4be fd8a c2be
000001b0: bb61 e1bc 2321 a0bd f257 c1be 7b71 6abe
000001c0: fe21 0b3d 2458 9c3e d9a6 48be 8308 963e
000001d0: 9067 57be d7e4 353e a847 303c d5d3 403d
000001e0: e686 cebd a61a e8bd 2c01 46be b0ce 213e
000001f0: 00c8 c03e d17f 62bd 2b96 d5bd 6d05 43bd
00000200: fe68 d0be 1a30 2abd 60e9 dcbd dedc 95be
00000210: 86e0 88be 98f3 823e eadd c1be 9e79 a73e
00000220: de90 a8be 1cc9 a6be 7b5f 78be 57b2 cebe
00000230: ba06 c53e 740a abbe 6e1b af3d c2c6 8abe
00000240: 0ea5 73be 86d4 49be 5704 cc3c 540b c33d
00000250: 6e83 353e 7bb3 85bd 20e9 57be 4791 aa3e
00000260: 380e 8e3e 2890 063d 9c97 ad3e a077 0a3f
00000270: 779a 95be 29ca 3fbe b207 3b3e d6c1 b3be
00000280: 06f9 a73d d252 19be 5d67 8f3c 1ed2 a2bd
00000290: f3af 803d 5859 543e ece4 06be cb3d 1b3e
000002a0: aa1d dd3e 3b2e 2ebe 41c7 d3bd 289e 0d3e
000002b0: 4792 793e b066 85be 0d3d 7d3e 51c7 9d3d
000002c0: 505d 813e e69f 23be 54be d33e 2ede b0bd
000002d0: 6ddb c33e 61b7 853e 7da4 803e 4e71 16ba
000002e0: 7909 f0bc 716d a0be 2d27 bcbd 3bbd 293e
000002f0: 2c7c 07be babb 89be 74c5 573e f5f3 4c3e
00000300: 8357 6fbe d2c9 463e 2775 943e 5d26 6f3d
00000310: 160f a2be 3cbe 57be 9d99 3fbe f741 cabd
00000320: 84f6 87be 15ab 53bd d9db 44bd 5579 47be
00000330: 5bac a13e 2f29 2c3d d056 c23e dc7e c4bd
00000340: 49d0 93be 148a a0be 3946 5e3e 26c2 88be
00000350: 81e4 083e f2e2 b3be 58fd e73e 26f4 c63d
00000360: 4b93 acbe 0d91 9c3e f000 c4bd 4d8e 91be
00000370: 7944 ab3e 288a 903e 8b00 b6bd 32ed aebd
00000380: 32c6 22be 7b71 f6bc 704f a63e ed09 82be
00000390: 79e0 a2be 02e8 89be f741 4ebe c8a1 293e
000003a0: 4d3c 80be 8f08 c9be 1de7 adbe 3a7b 963e
000003b0: 3289 0ebe 8834 f7bd a446 41be cc01 64be
000003c0: 6f32 993e b3d0 473e bfbc 793d 3178 9a3b
000003d0: 3381 79bd fc6e 513e 605c a2bc 5f3f a0be
000003e0: 17c8 873d a687 ec3c 7114 86be fae7 4ebd
000003f0: cbef 7d3e 923f 0cbe 77ef bd3c e7cb c73e
-0.059263073 -0.3083124 0.39983335 0.24209477 -0.23353368 0.04134949 -0.39169323 -0.21608922
-0.16625415 0.11455612 -0.030332146 0.33218682 -0.12279942 0.046375066 0.12520188 0.30761534
-0.1522494 0.3024809 0.17830934 0.091936 -0.090369664 0.40062293 -0.27025935 0.39044422
-0.11418086 -0.16113126 -0.17821209 -0.35271877 -0.41302118 -0.06314415 0.054026663 -0.23597291
0.0070422073 -0.16379626 -0.3181692 -0.117254645 0.119403586 -0.0007828681 -0.031172654 -0.3346367
-0.20736635 -0.22161533 0.3570838 -0.0144634545 0.36581704 0.28106624 -0.27772132 0.30339095
-0.14421785 -0.36609566 -0.08335279 0.14763951 -0.18864878 -0.36261407 0.06975919 -0.25952315
-0.28987604 -0.31714943 -0.110000156 -0.25810626 -0.41947642 0.35915622 0.019313501 0.11914914
-0.2131197 0.10101552 -0.25174946 0.29016674 0.11934284 -0.38429055 -0.2695563 -0.29896662
0.30037916 0.09365361 0.016267383 0.018539827 0.031075373 -0.30800766 -0.2535024 -0.18652342
0.47037762 0.05443276 -0.27466047 0.2442761 -0.081505366 0.13632584 0.18665056 0.14471322
0.19281067 0.38097265 -0.02663354 0.012803522 -0.061643913 0.3765851 -0.34299162 0.3333046
0.10364847 -0.084610954 0.3626003 -0.27754164 -0.23375006 -0.14694114 -0.1526097 0.036720686
-0.28187102 -0.2910115 -0.38375118 -0.37996665 -0.027512422 -0.0781882 -0.3776241 -0.22894852
0.033967964 0.30535996 -0.19594897 0.2930337 -0.210356 0.17763077 0.010759272 0.04707702
-0.100843236 -0.11333208 -0.19336385 0.15801501 0.37652588 -0.055297676 -0.10429033 -0.047612596
-0.40705103 -0.04154978 -0.107867 -0.2927007 -0.26733798 0.25576472 -0.3786462 0.32709974
-0.32923025 -0.3257531 -0.24255173 -0.40370438 0.38481694 -0.33406413 0.08550154 -0.27104765
-0.23793432 -0.19709978 0.024904413 0.09523645 0.17725918 -0.06528374 -0.21085024 0.33313963
0.27745223 0.032852322 0.3390473 0.54088783 -0.2921941 -0.18729462 0.18264654 -0.35108823
0.08201794 -0.14973 0.017505342 -0.07950233 0.0628356 0.20737207 -0.13173264 0.15160291
0.43186694 -0.17009823 -0.10340739 0.13829863 0.24372207 -0.26054907 0.2473032 0.07704032
0.25266504 -0.15978965 0.41356146 -0.086361274 0.38253346 0.2611647 0.25125495 -0.00057389296
-0.029301392 -0.31333497 -0.0918716 0.16576092 -0.13230962 -0.26901037 0.21071416 0.20014937
-0.23373227 0.19412926 0.2899563 0.058386195 -0.31652135 -0.21068662 -0.18710943 -0.09875863
-0.26555264 -0.05167683 -0.048061226 -0.19479878 0.3157681 0.042031463 0.37956858 -0.09594509
-0.28869846 -0.31355345 0.21706475 -0.26710624 0.13368417 -0.35134083 0.45310473 0.09714536
-0.33706126 0.30579415 -0.09570491 -0.2842888 0.33450678 0.28230405 -0.08886822 -0.08541335
-0.15895918 -0.030083409 0.3248248 -0.25398198 -0.31811884 -0.2693482 -0.20142351 0.16565621
-0.25046006 -0.39264342 -0.33965388 0.2939089 -0.13919523 -0.120705664 -0.18874604 -0.2226631
0.2992129 0.19513206 0.060971018 0.004714035 -0.06091423 0.20452493 -0.019819438 -0.31298348
0.06629961 0.028873276 -0.2618747 -0.0505142 0.24798505 -0.13696125 0.023185475 0.39022753

encoder.0.bias f4 [16]
00000000: ef50 7ebc 0000 0000 0000 0000 0000 0000
00000010: cb76 053d 0000 0000 60a6 113d 29ee 253d
00000020: fe07 1a3c 6739 503d 0000 0000 e3cd 433d
00000030: 0000 0000 0000 0000 0000 0000 3b6f 073d
-0.015522226 0.0 0.0 0.0 0.032583993 0.0 0.03555906 0.04051033
0.00940132 0.050835993 0.0 0.04780377 0.0 0.0 0.0 0.033065062

encoder.2.weight f4 [16, 16]
00000000: a444 e73e 8217 29be cf6c dfbd 8cb7 a93d
00000010: c597 dd3e ec87 e33d e383 8e3e 687f 773e
00000020: f680 db3c 4ba5 88be f0f5 ecbc 54f8 0dbc
00000030: 9975 6dbe af5b 153e e72d d13e caf4 e13d
00000040: 9a70 40be e027 133e d21e bc3e aebe e53d
00000050: c96b 1f3e f898 fa3d c8ab 913e 0dcc 33be
00000060: 1ae4 e1ba 45e6 55be c308 e8bd 72b6 9f3e
00000070: 8f27 2fbe 22ae 6dbe cdf3 3b3e b6bc 8a3e
00000080: eda3 cabe 157e 373d 4b69 81be 30bd 023e
00000090: cbe1 253e 465a 2cbe 5c36 46be f9e5 ce3e
000000a0: 1916 dcbc 2c98 cd3e a5c3 3bbe 1436 733e
000000b0: 8440 44be 27c3 6ebd a53a ddbe eb99 ce3e
000000c0: 96a6 963e 3eee 9cbe c10b 9ebe b16d 1cbe
000000d0: 4e32 b73e 403e dd3d 9ebe b53d ae4f bebe
000000e0: 7a94 c0be 1896 82be 8362 a9be fd0b cabd
000000f0: 8ac5 aebe 5096 4dbe e33f c8bd 8f6a 54be
00000100: b8df c0be 14f1 013e 6f26 bf3e a4c7 d1be
00000110: 17b7 d83e bedd 1ebe 4416 8f3e fecd 453e
00000120: 0116 d13e 3c62 89be 45ed 77bc 5ebd 94be
00000130: 257d 503b d5f4 1c3e cb96 8a3e 2763 88be
00000140: ab3b 5fbe 8b72 25be 2e81 92bd 55ae c8bd
00000150: b09a a5be a82a cb3e d2c0 253e aa42 96ba
00000160: 2d75 11be 358e 543e 3dec d93e 36eb 913e
00000170: c607 d3be 54f5 61be fd2e cfbe a62a 83bd
00000180: 374d 74bd 73d7 a3be dd2c a4be 075c f33d
00000190: 9840 c23e 458a 92bd 0cb0 8d3e aa82 febd
000001a0: 945e 4bbd 1f19 d7be 41e1 ddbd f8f9 c7be
000001b0: 8a77 bd3d f26e b43e bf81 58be 7458 0b3c
000001c0: 2459 2abd f521 903e c69f b43e c313 cfbe
000001d0: 40ce 19be 8863 cbbd 0b64 943d 30dd 57bd
000001e0: 22f2 9abe ff6a 953e 00f0 67bc abed 84be
000001f0: 6413 b8be cb60 afbe d599 ccbe d8cd 4fbe
00000200: 2c51 7abe 55d5 0dbe a811 28bc 8598 e53d
00000210: a047 ea3e 44ec 7cbe 0012 c93d 5c60 89bd
00000220: 234f bfbe 04f8 463e 112d bdbe a63d bbbe
00000230: ae89 4c3d f63f a0be c87f 623e 452e 4ebd
00000240: 0155 d33e e829 47be 4df1 3bbe 2953 3c3e
00000250: e1cd 7b3d 3dd4 223e 0f73 e03d fd78 05be
00000260: d023 7e3e 12f0 753e 5765 3bbe cc44 a33d
00000270: 7ce0 ff3d f447 89be 4ddf cdbd c195 dfbe
00000280: 6d04 2bbe 070d b2bd 2f0b 58be cd54 f63d
00000290: 23b7 cc3e fb10 66bd e933 b7be 8f08 ae3e
000002a0: b446 cbbc c7f2 b93e 68af fdbd d5b6 8abe
000002b0: f9fc cfbd 0600 aa3d 14df 493e d096 d53e
000002c0: a983 fb3d e522 1b3e 0916 2cbe d508 d9bc
000002d0: 1bd2 273e f98f 2a3d c6f2 b93e 2b85 883e
000002e0: 5b01 cd3d 168b d43e f2e6 b4be 79c5 a83e
000002f0: c1e3 673e 2a68 6bbe 0045 8c3e b595 963d
00000300: d5a7 c83d 7e48 24be ff46 66bd ec54 ccbe
00000310: 35ec 9d3e 694c dabe 1a61 8e3e 7f23 dd3e
00000320: 4ff6 dd3e 8380 e63e db78 efbd d7c6 a6be
00000330: 09df d63d 13b7 ef3d 3b3c f93d 12aa 67be
00000340: 2395 b03e 40c4 963e c0a1 e8bd 35f3 05be
00000350: 579d 27bd 1aec 143e 1dc5 73be 6310 b9be
00000360: 8665 ccbd 71dd 63be a57e bbbe 76bf 82be
00000370: b888 db3b 6c6a 56bc cb53 3ebe 6f56 0dbe
00000380: 1c8a 9f3d 8d02 bd3e 5ce0 6abe 45d6 8e3e
00000390: fe40 95be 5f2d c2bd ebdf c83e cf0b 2abe
000003a0: 4e3e a3be 0e6e 55be 47ce c53e 9c75 c5be
000003b0: c002 dfbd c975 89be 3a5f e53c a994 673e
000003c0: 9258 f33e 100c 7a3e 61e5 74be f619 00be
000003d0: f7ae c03e f2d0 ccbe 477f 763e 8197 c7be
000003e0: 1be0 efbd 32fb 6d3d bd25 0ebd 7a87 373e
000003f0: 7afd fe3d d747 4dbe 0a57 8f3d 3f5d 9a3e
0.45169556 -0.16512874 -0.109094255 0.08286962 0.43279853 0.111099094 0.27834997 0.24169695
0.026794892 -0.2668861 -0.028925866 -0.008665163 -0.23189391 0.14585756 0.40855333 0.11033018
-0.18792954 0.1437068 0.36742264 0.1121801 0.1556846 0.12236208 0.2845137 -0.17558308
-0.0017234117 -0.20888622 -0.11329796 0.31193882 -0.17104934 -0.23210958 0.18354721 0.270971
-0.3957819 0.044797976 -0.25275645 0.12767482 0.16199414 -0.16831312 -0.19356674 0.4040983
-0.026866006 0.4015516 -0.18336351 0.23751098 -0.19165236 -0.05829158 -0.43208805 0.40351805
0.2942397 -0.30650514 -0.30868343 -0.15276219 0.35780567 0.10802889 0.08874248 -0.37170166
-0.3761328 -0.25505137 -0.3308297 -0.09865568 -0.34135085 -0.20076871 -0.097778104 -0.20743774
-0.37670684 0.1268962 0.3733401 -0.40972626 0.42327186 -0.15514275 0.27946675 0.19316861
0.408371 -0.2683276 -0.015132253 -0.29050726 0.0031812873 0.15327771 0.2706817 -0.26638147
-0.21800105 -0.16156976 -0.07153545 -0.09798876 -0.3234458 0.39680982 0.16186836 -0.0011463959
-0.14204855 0.20757373 0.42563048 0.28499764 -0.41216868 -0.22066242 -0.40465537 -0.06404619
-0.05964395 -0.32000312 -0.32065478 0.11882787 0.37939906 -0.07155279 0.27673376 -0.12427266
-0.049650744 -0.42011353 -0.108339794 -0.390579 0.09251316 0.35240895 -0.21143244 0.008504976
-0.041588917 0.28150907 0.35278147 -0.40444764 -0.15020084 -0.099310935 0.07245644 -0.052701175
-0.30262858 0.29183194 -0.014156342 -0.25962576 -0.35952294 -0.34253535 -0.39961115 -0.20293367
-0.24445027 -0.13850911 -0.010258116 0.112107314 0.4575777 -0.24699503 0.09817886 -0.06707832
-0.37365064 0.19430548 -0.36948445 -0.36570472 0.04993599 -0.31298798 0.22119057 -0.050337095
0.4127579 -0.1944958 -0.18353768 0.18391098 0.06147564 0.15901275 0.10959446 -0.13034435
0.24818349 0.24017361 -0.18300377 0.07972106 0.12493989 -0.26812708 -0.10052357 -0.4366894
-0.16700907 -0.08693891 -0.21098016 0.12027893 0.39983472 -0.056168538 -0.35781792 0.33990905
-0.024813987 0.36318037 -0.12386972 -0.27092615 -0.101556726 0.08300786 0.19714004 0.41716623
0.122809716 0.1515003 -0.1680528 -0.02649347 0.16388743 0.04164121 0.36318034 0.266641
0.10010024 0.41512364 -0.35332447 0.3296316 0.22645475 -0.22988954 0.27396393 0.07352773
0.097976364 -0.16043279 -0.05622005 -0.3990854 0.30844274 -0.4263642 0.27808458 0.43191144
0.4335198 0.45019922 -0.11692973 -0.32573578 0.10491759 0.117048405 0.12169691 -0.2262347
0.34488782 0.29446602 -0.11358976 -0.13081057 -0.040921535 0.1454319 -0.23805661 -0.36145315
-0.099803016 -0.22252442 -0.3662006 -0.25536698 0.0066996478 -0.013086896 -0.18586652 -0.13802503
0.07790014 0.3691601 -0.22937149 0.2789785 -0.29151148 -0.0948131 0.39233336 -0.16606067
-0.31883472 -0.20842764 0.3863394 -0.3856629 -0.108891964 -0.26847675 0.02799951 0.22615303
0.4752851 0.24418664 -0.23915626 -0.12509903 0.37633488 -0.40003163 0.2407199 -0.38982776
-0.117126666 0.058100887 -0.03470396 0.17922774 0.124506906 -0.20046936 0.06999023 0.30149266

encoder.2.bias f4 [16]
00000000: 1c48 0a3d f751 4e3d f46c 893c 0000 0000
00000010: 5627 b6bb 2c98 423d 0000 0000 0000 0000
00000020: 93d0 193e 15de 58bc 4b32 553d a2c4 253d
00000030: 0942 493d 0000 0000 0000 0000 a9bd 1d3d
0.033760175 0.050371137 0.016775586 0.0 -0.0055588884 0.047508404 0.0 0.0
0.15020971 -0.013236542 0.052049916 0.040470727 0.04913524 0.0 0.0 0.038510952

encoder.4.weight f4 [32, 16]
00000000: cff0 42be 07d5 523e 2340 4dbe 38dd 1fbd
00000010: f354 823e 3ab2 943e 4da2 d73d efb3 1cbd
00000020: f13f c9be e82c b63e dca1 14be 6a97 8a3e
00000030: 65fc 893e d582 603e 03d6 19be b809 18bd
00000040: 23fb 523d 14b7 71be 0b83 edbd d677 d6bd
00000050: 7d04 7c3e bfd0 8cbe 6da3 943d 6991 8e3e
00000060: cfc9 58be aec5 82bc 451a 793c bad8 b7bd
00000070: eacc 7fbe 4a98 423d 4975 a7be a932 35be
00000080: ab16 5ebe 5c0a 13bd 07a1 98bc f58b b13e
00000090: be19 ff3d 5f95 72bd 94ee e83c fdbf 68be
000000a0: 60d2 b4bd 5f25 3e3e ad7f 783e f915 38be
000000b0: de3c 8cbe eb77 943e 2b65 e63d 2a30 6ebc
000000c0: 2293 01bd eee0 513d d388 553e 90f1 d73d
000000d0: a511 9dbd 9e5b 9d3d 4c46 66be 555f 863c
000000e0: cd6b cd3e 2ab7 76be 24e8 41be c454 583e
000000f0: 7443 a4be 3b25 833e 639b 8cbe 8219 a73e
00000100: 760d 893c 8d14 753e ba7c 8cbe 6e0e a6be
00000110: 6069 7dbe 9cfd 9ebe 9618 aebb aa07 7bbe
00000120: 048f 133d ed51 db3d 05d0 a2be 81d5 3c3e
00000130: 237b 823e e54a 51ba 4d4b af3e 23ed 113c
00000140: c0fc 00be c789 793e 241f 69bd b55d b23e
00000150: 6b43 afbe 9364 163d 686a 9b3e 9ba3 b1bd
00000160: fc4f b83e f61c 513e 763e 833e c65d 9a3d
00000170: f86c babc 8fbb db3d f3fb 8dbe fe44 c73e
00000180: b880 0c3d 84ff 933c 43f8 2ebe cdce a63e
00000190: 473b 06be 1fbe 573e e665 96be 9e06 b3be
000001a0: a3ab 1f3f 223e 8a3e ffb7 113e c9e6 39be
000001b0: c2d2 8dbe a8cc 9a3e 547d 25bd 4793 ba3e
000001c0: 7def 913e c539 3d3e 95fc 74be fa03 1e3e
000001d0: 74ce 52bc 262c 913e b459 d9bc 82b9 a8bd
000001e0: 5794 6f3e 2848 993d f900 47be f256 963c
000001f0: 4539 903e c6cd 90be 4b20 b43e 190d 563e
00000200: ed6d ae3e ea7a 9abe dc6e 3c3e 1d5e 043e
00000210: 018a 74be 1d80 83be d429 6ebe 5d9d f2bd
00000220: 7a88 8b3e d958 20bd d4aa 8cbe b2f4 c03e
00000230: e86f b03e 40df 2c3e d321 583d 99e0 aabc
00000240: d00b c53e aa7a 253e 6bca 783e ff78 153e
00000250: 4bca a53e f0f4 ba3e 0464 afbe 9dee 013e
00000260: 045d 403e 5300 bc3c 71b8 893e b48e 11be
00000270: fc8e a9bd 506d 3ebd b479 a9be 611f 953e
00000280: c50d 9dbc db41 813e 175f 123e 0081 883e
00000290: 59b8 6fbe c295 1cbe 91eb 003e 212d 103e
000002a0: 62b3 b43e e170 53be e016 213e 7204 fc3d
000002b0: 4bae 7b3e e150 3f3e fac9 aa3e b8b3 3b3e
000002c0: 66ed 39be d1f4 883e 9710 51be 0205 193c
000002d0: 8041 91be 3e54 6abe 1ac8 fa3d d75c 22bd
000002e0: cef6 d23e 65b3 90bb 121f b2be b52e 983d
000002f0: b5c2 5e3e cad8 bebd 9172 e9bd 9c7a aabe
00000300: 0911 8c3e f684 7bbe 0157 183d ae7d 963e
00000310: 2660 333d 8681 a2be b888 c9bc 2d4b a4be
00000320: 61b8 773e a54f a03e e80a 673c 5a05 3f3e
00000330: 0e0a abbe 4b2a 4a3e 20ae 743d c103 fa3d
00000340: eaa6 34be 40b7 acbe 7562 29be fcbb 9fba
00000350: 3087 acbe 18e2 84be a12f 9bbe 2ab3 aa3e
00000360: 6375 b23e 68f1 1ebe afce 13bd c2e5 cabe
00000370: f4f1 c2bd a6ba 583d 61e1 72be 4b8c 04be
00000380: 6ca5 c83d f6f6 873e 39b8 ae3d 25b2 553e
00000390: 08f1 683e 93b4 633d 4264 debc 6527 773e
000003a0: cb1b 713e ddfe 86be 167e 933e 606f e3bd
000003b0: fe36 5c3d d77e b0bd a0a9 a8be 08a4 523e
000003c0: 690b 863e df4b b7bc b399 89be 824d 6fbe
000003d0: f81d e8bc fa36 cb3e 5a8f 91be 23c1 9e3d
000003e0: 0797 403e 6660 1d3d e50c 423d 98b9 383e
000003f0: 0239 9d3e 92b9 903e c42d a7be f3b3 4e3e
-0.19037174 0.20589076 -0.20043997 -0.03902933 0.25455436 0.29042226 0.10529003 -0.038257536
-0.39306596 0.35581136 -0.1451487 0.27068645 0.26950374 0.21924908 -0.15023045 -0.037118644
0.051509034 -0.23604995 -0.1159726 -0.10472076 0.24611087 -0.2750301 0.072577335 0.27845314
-0.21170734 -0.015963402 0.015204017 -0.08976884 -0.24980512 0.047508515 -0.3270667 -0.17695107
-0.21688335 -0.03589855 -0.018631471 0.3467709 0.12456082 -0.059224483 0.028434075 -0.22729488
-0.08829188 0.18568943 0.24267454 -0.17977132 -0.27390188 0.2899774 0.11249765 -0.01453785
-0.031634457 0.0512399 0.20852976 0.10544121 -0.07669381 0.0768349 -0.22487754 0.01640288
0.40121308 -0.24093309 -0.18936211 0.21126086 -0.32082713 0.25614342 -0.274623 0.32636648
0.016730051 0.23933621 -0.2743891 -0.32432884 -0.24747229 -0.31052864 -0.0053129895 -0.24514642
0.036025062 0.107089855 -0.3179933 0.1844082 0.2548457 -0.00079838774 0.34237137 0.008906635
-0.12596416 0.24368964 -0.056914464 0.34837118 -0.34231123 0.03671701 0.3035462 -0.086737834
0.35998523 0.20421204 0.2563359 0.07537417 -0.022757038 0.10729133 -0.27731284 0.38919824
0.034302443 0.018066175 -0.17086892 0.3257965 -0.1310855 0.21068619 -0.29374617 -0.34965986
0.6237127 0.2700053 0.14230345 -0.18154444 -0.27699858 0.30234265 -0.040402725 0.3644049
0.28503028 0.18479069 -0.23924477 0.15431204 -0.012866605 0.28353995 -0.026532032 -0.08238508
0.23396431 0.07484466 -0.19433965 0.018352006 0.28168693 -0.28281993 0.35180888 0.20903434
0.34068242 -0.301719 0.18401664 0.12926526 -0.2388077 -0.2568368 -0.23258144 -0.11846421
0.2725256 -0.03914723 -0.27474082 0.37686688 0.34460378 0.16882038 0.052766632 -0.02085905
0.38485575 0.16160074 0.24295966 0.14596938 0.323809 0.36514997 -0.34255993 0.1268868
0.18785483 0.022949373 0.2689853 -0.14214593 -0.08279225 -0.046490967 -0.33100665 0.29125503
-0.019171605 0.25245556 0.14294086 0.2666092 -0.23410167 -0.15291503 0.12589861 0.14079715
0.35293108 -0.20648529 0.15731382 0.123055354 0.24578206 0.18683197 0.3335722 0.18330276
-0.18156967 0.2674928 -0.20416485 0.009339573 -0.28370285 -0.22883698 0.122451976 -0.03963932
0.41203922 -0.0044159167 -0.3478933 0.07430784 0.21753962 -0.09318693 -0.11398805 -0.3329667
0.27356747 -0.2456244 0.03719235 0.2939276 0.043792866 -0.31739444 -0.024601325 -0.32088605
0.24191429 0.31310764 0.014101721 0.18654385 -0.3340611 0.19742696 0.05973637 0.12207747
-0.17641798 -0.3373356 -0.16541465 -0.0012186761 -0.3369689 -0.25953746 -0.30309775 0.33339816
0.34855184 -0.15521777 -0.03608578 -0.39628416 -0.09518805 0.052912377 -0.23718788 -0.12944143
0.09797177 0.26555604 0.085312314 0.20868738 0.22748196 0.05559213 -0.027147416 0.24136122
0.23545758 -0.2636632 0.28807133 -0.111052275 0.053763382 -0.08617943 -0.32941914 0.20570385
0.2618058 -0.022375045 -0.26875076 -0.2336941 -0.028334603 0.3969038 -0.2842968 0.07751682
0.18807612 0.03842201 0.04737558 0.18039548 0.30707556 0.2826658 -0.32652104 0.20185833

encoder.4.bias f4 [32]
00000000: ed2c 2b3d 5b16 74bc fbc2 3dbd 588d d93c
00000010: d06b 8a3c a597 233d ff5c a73c 8e00 fb3c
00000020: 9778 163d 9272 443d 2fa8 383d 4f5f 0fbd
00000030: aa40 f3ba f0f8 38bd c80a 353d e980 453d
00000040: 0d6d 27bd 4b53 21bc 3cea 993b 4a5b 6bbb
00000050: e097 5abc c55c d0bb d947 c93c d317 42bd
00000060: fbb3 d73c efc7 29bd 563e 163d 0b26 2e3d
00000070: 3d52 19bd 4998 c83b 0aed 05bd 0fb9 4c3b
0.04179089 -0.014897908 -0.046328526 0.026556656 0.016897112 0.03993954 0.020430086 0.030639913
0.036736097 0.047960825 0.045082267 -0.035003003 -0.00185587 -0.04515928 0.044199735 0.04821864
-0.040875483 -0.009846519 0.0046971124 -0.0035912567 -0.013341874 -0.0063587152 0.024570392 -0.047386
0.026330939 -0.041450437 0.036680542 0.04251675 -0.037431944 0.0061216694 -0.03269676 0.0031238233

nee_decoder.0.weight f4 [16, 32]
00000000: 0b45 79ba f7f2 53be 6da6 90be 7939 4f3e
00000010: 754a a1be 3729 883e 8133 72be ed53 7ebe
00000020: cb48 293e 3537 84be 8fb8 a03d 58d4 efbc
00000030: 5249 1cbe 3a2f 4d3e 6f41 21be 3e63 933e
00000040: 3d8f 46bc eaa9 8d3e 145d 913e 385e 723d
00000050: 1284 b83d 0e9e b33e d786 6bbe ab6a a7be
00000060: 8ae2 51be d073 473d 29f7 923e 00ee 503e
00000070: d04c c73c e564 1d3e e0b6 4e3e 103a 3abe
00000080: 1ea2 9dbd c9c2 9abe d88c 4dbe ed79 7abe
00000090: c206 7bbe dc01 573e 4a2f ac3e 6ab9 5abd
000000a0: 77db 803d c9ba 5c39 7317 fe3d 608f b53c
000000b0: d0db 47be e523 2a3e e469 7c3d 6093 37be
000000c0: 39ff 94be a6b1 28bd a8da 92be 2cfd 78be
000000d0: e03a 84be a90a 4ebe 7c60 883e 50b0 a6bd
000000e0: bfe4 683d 9cc6 983e 86bf 8dbe e38f 6dbe
000000f0: 072c 8e3e a7c0 503e fd12 343e 7bdb 5f3e
00000100: 76eb 41bd 0625 223e 4981 97bc 1ebe 563e
00000110: 69a0 2c3e fb2f 9bbd 0299 19be 7f0e 7c3e
00000120: bbe7 9ebe 72db e73d 634b a43e c512 8cbe
00000130: fc00 9e3e ff42 2e3e c7a2 6fbe 7228 1bbe
00000140: 8f01 cabc 5e54 4abe 4436 98be 764d 973e
00000150: d8a6 dfbd 6eb3 b2be fc68 453d 4611 153d
00000160: dc89 983e 822a 9c3e 08ca 1a3e 9755 b7be
00000170: e735 663e cbbd 74be 7206 00bd 2871 633e
00000180: e1ef 9dbd 94d1 8a3e 9775 523d 3c47 09be
00000190: e6ff d0bd d0f0 11be 2229 513e 919c c93d
000001a0: bf7e fdbd 77f4 a43d a242 2bbd 00e1 47be
000001b0: 1972 b0be da27 72bd 9faa a03e 45fc a0be
000001c0: 8030 9cbe abc7 523e a15e 92be 2553 16be
000001d0: 2a19 99be 36e5 2fbd 2457 89be 3086 0f3e
000001e0: 0713 03be 3923 cb3d 1566 d2bd 461a a03e
000001f0: 1ab1 06bd 0855 55be d18e 463e 1323 0c3e
00000200: 45bb 19be ec88 393e dff3 a2be 26e3 903d
00000210: 02d9 383e df2b 1a3e c4df e43d aa9f 823e
00000220: aed7 4b3e 29ae 603e 1207 efbc 51de 95be
00000230: 78ee b3be 429e 8dbe 8ef6 8a3e 78d1 653e
00000240: 4c38 1fbd dec2 0d3e 9bbc 1abe 59cf 3f3d
00000250: 29a7 713e 986d 3abe 8b48 273d ac9f 543e
00000260: c7ca 7cbe 951a f33d e950 a9be 5506 ccbd
00000270: d7be 2cbe 5b68 acbe c208 89be 233a 80be
00000280: 9651 953e 907b dcbd c731 873b e018 833e
00000290: f862 653e 96be 96be 10e3 8d3e be96 6dbe
000002a0: 22ac 793e a3ca adbe abdd 97be 7c82 6e3e
000002b0: 4d01 ec3d 9607 16be 6568 2b3e 50bf 64be
000002c0: b3f1 a73c 84b7 0abe 5d32 1e3c 4d3f 2e3e
000002d0: 45bb 6ebd bd75 95be 8060 3abe 120b b23d
000002e0: bf3a 02be ddf7 473e cfcf b53d 6f55 afbe
000002f0: fe55 863e a700 b93d bdae 7b3e 9042 953d
00000300: 7d5e 033e 5b0b c93c 1429 5b3e a26a edbd
00000310: bfed 53be 2a8a 17bd d449 82be 0347 313e
00000320: fc38 4d3e 51de 0bbd 2de1 713e 1f60 4c3e
00000330: a072 74be f99c afbd c3e7 90be 5356 fbbd
00000340: 6374 9dbe 3bb8 eb3d 83c0 1ebb 6051 3fbe
00000350: e637 a0be 8cde 3e3c f2c1 5c3e e6a8 b33e
00000360: 587d 41be a082 463d 4d6c a1be 94bd 893e
00000370: 86a3 8a3e ad5c a33d a673 57be 8916 543e
00000380: bacf 83be 8eb6 2f3e 22dc ab3e 9d01 743e
00000390: cc60 65bd 36a0 40bb 3a9e 3bbb 2858 a23d
000003a0: 6287 0c3d 9c91 bbbd 69b6 46be 9b54 66be
000003b0: f2d0 49be db15 f83c c7e6 163e 4e9a 80be
000003c0: 3716 233e d4f2 54be bbcb a33e 2e3c 423e
000003d0: 0d37 e6bc 97b9 a4be 925a e4bd d761 883c
000003e0: 08e9 a1bd 93ba 59bc 383a c7bd 8d4a 10bd
000003f0: f41f 2c3e 25cf f3bd 03d8 69bd 59b8 433c
-0.00095088844 -0.20698152 -0.28251973 0.20236768 -0.3150212 0.26593944 -0.2365246 -0.24836703
0.16531675 -0.2582337 0.07847702 -0.029276058 -0.15262344 0.20037547 -0.15747617 0.28786653
-0.012119112 0.27668697 0.28391325 0.059171885 0.090095654 0.35081524 -0.23000656 -0.3269857
-0.20496574 0.04869443 0.28704193 0.2040329 0.02432862 0.1537052 0.20186949 -0.18186212
-0.07696937 -0.30226734 -0.20073259 -0.24460573 -0.24514297 0.20996803 0.3362983 -0.05339948
0.062918596 0.00021050418 0.12406816 0.022163093 -0.19517446 0.16615255 0.061624423 -0.17927313
-0.2910097 -0.041185044 -0.28682446 -0.24315327 -0.25826168 -0.20121254 0.26636112 -0.08139098
0.056858774 0.29839027 -0.27685183 -0.2319942 0.27767965 0.20385991 0.17585368 0.21861069
-0.047343694 0.15834436 -0.018494265 0.20970961 0.16858067 -0.07577511 -0.14999774 0.24614905
-0.3103617 0.11321153 0.32088766 -0.2735807 0.30860126 0.17017744 -0.23401938 -0.15152147
-0.024658946 -0.19758746 -0.297289 0.29551286 -0.10920495 -0.3490252 0.048195824 0.036393426
0.29792678 0.3050118 0.15116131 -0.35807487 0.224815 -0.23900525 -0.031256147 0.22211134
-0.07711769 0.2711302 0.051381674 -0.1340608 -0.10205059 -0.14252019 0.20425847 0.09844316
-0.123776905 0.080544405 -0.041811593 -0.19519424 -0.3446205 -0.059120037 0.31380174 -0.31442466
-0.30505753 0.2058398 -0.2858782 -0.14680155 -0.2990201 -0.042943202 -0.26824296 0.14016032
-0.12800227 0.099188276 -0.10273377 0.31270045 -0.03288374 -0.20833218 0.19390418 0.13685255
-0.15012844 0.18118638 -0.31826684 0.07074575 0.18051532 0.15055798 0.111754924 0.2551244
0.19906494 0.21941437 -0.029178176 -0.29271176 -0.35142875 -0.27659804 0.2714123 0.22443187
-0.03887205 0.13843867 -0.1511101 0.0468286 0.23598923 -0.18205869 0.040840667 0.20764035
-0.24686728 0.118703045 -0.33069542 -0.09962145 -0.16869675 -0.33673367 -0.26764494 -0.25044355
0.29163808 -0.10765755 0.004125807 0.25604916 0.22401035 -0.2944228 0.27712297 -0.23202035
0.2438207 -0.33943662 -0.29661307 0.23291963 0.115236856 -0.14651331 0.16739042 -0.22338605
0.020500993 -0.13546568 0.009655562 0.17016335 -0.058284063 -0.2919139 -0.18200874 0.08693518
-0.12717722 0.19528146 0.08877527 -0.34244868 0.26237482 0.090333275 0.24578376 0.072880864
0.12829013 0.024541548 0.21402389 -0.11592604 -0.20696162 -0.036996998 -0.2544695 0.17312245
0.20041269 -0.034147564 0.23621054 0.19958542 -0.23871851 -0.08574862 -0.2830182 -0.122723244
-0.3075286 0.115097485 -0.0024223633 -0.18683386 -0.31292647 0.011649739 0.2155836 0.35089797
-0.18895471 0.048464417 -0.3152794 0.2690245 0.27077883 0.07976661 -0.2104021 0.20711721
-0.2574442 0.17159483 0.33566386 0.2382874 -0.056000516 -0.0029392368 -0.0028628246 0.07926971
0.0343088 -0.09158632 -0.19405521 -0.22493212 -0.19708613 0.030283859 0.14736472 -0.25117725
0.15926443 -0.20795757 0.31991372 0.18968269 -0.028102422 -0.32172844 -0.111500874 0.016648216
-0.07905775 -0.013289112 -0.09727901 -0.035227347 0.16809064 -0.11904744 -0.05709077 0.011945807

nee_decoder.0.bias f4 [16]
00000000: f8fc 4e3c a33c 6f3c 2303 ec3b 8e51 1dbc
00000010: 907a 2ebc c72c 183c c940 09bc 0000 0000
00000020: 0000 0000 08df 5abc cfb8 5c3c 7ea6 0f3c
00000030: 1ef2 57bc c8e3 433b 12b0 ec3a a060 1ebc
0.012633555 0.014601859 0.0072025224 -0.009601964 -0.010649338 0.0092880195 -0.008377262 0.0
0.0 -0.013358839 0.013471796 0.008767722 -0.013180284 0.0029890407 0.0018057844 -0.009666592

nee_decoder.2.weight f4 [16, 16]
00000000: 45f9 2b3d 7793 9d3e 4eda c2be 97ae f43d
00000010: 617f aa3e e00b b1bd 86a3 a53e 2fde 373e
00000020: 57a1 bb3e e815 bc3e f31a 473e f3a8 123d
00000030: 7da8 b5be c1aa 24be d1e2 bfbe 41e8 a1bd
00000040: 0a8a 863e 890a 703e 730f 033d 7001 d6be
00000050: 7143 6c3e a82f 253e 9b44 61be c869 cbbe
00000060: 1132 76be 5488 133e 428c 6fbe d971 99be
00000070: 0fea afbe ba16 84be b41f 8ebd c64d a33e
00000080: d1a4 83be a86b d4be 277a b33e d098 623e
00000090: 9b8b e13d 7fc7 9abe f143 953e e0c0 343e
000000a0: dcac 7a3d d5ea a53e a20e 003e e3a8 8c3e
000000b0: 88f4 babd d71b 8b3e 392a 62be fc11 c93d
000000c0: c406 89be ebd1 cabe cf89 babe 2e9b a4be
000000d0: 3e5c 6e3e aae0 d53e dc9a 863e e187 51bc
000000e0: 3b01 01bc dd1f 663d b62f d33e b2e5 683e
000000f0: 9161 87be 79dc 79be 4c53 b23e 0747 6c3e
00000100: 8e9e d8be 7a57 b8be 5083 623e d77b 57be
00000110: 3a99 a53e 65ef 8e3e 13d1 aebe 1239 ce3d
00000120: c533 96bd aec6 d6be 51bf 083e f6a1 453d
00000130: 8105 a53d 172f b3be 9117 c4bd 459b a2bd
00000140: 8a5c c5be 5cdd bd3e 95f8 e9bd f31e 5c3e
00000150: 2ce6 babd 605c a6be 25cd d5bd a88b a83d
00000160: a28e af3e 51de 793d e491 983e 5b87 4b3e
00000170: 4119 abbe cc5b 023c c5f8 ca3e 63fc f8bd
00000180: 40f9 383e 0e97 d33e 8be5 8ebc f7e8 13be
00000190: 8413 68be 2092 1fbc 1277 8abe 4323 dd3e
000001a0: 50a4 babe 52be bd3e f524 933e f558 c4be
000001b0: 19ff 97be 6a22 c93e 2f1e 42bd d7f4 97be
000001c0: f7e0 b43a f594 9ebd 6488 523d 21c4 353e
000001d0: 00f7 afbe d952 58be 11a7 c5bb 949f ca3e
000001e0: 97c4 abbe e320 74be 94bf 773e d59f cc3e
000001f0: e4f6 113c 007b 233b 7ab2 503e 0ee5 9abd
00000200: cbe9 7d3e 19f8 ec3e c392 a13e 3163 d4be
00000210: fb11 b83e dc0e d83e e0c1 443e 27a1 12be
00000220: e4c3 6dbd dd42 95be cc6b 8abd 7ad9 8b3e
00000230: 5d76 1fbe a48f 9abd 53fe 8abd dfc1 a93b
00000240: f2b6 bf3d 9afc b5bd bca1 d1be d8cf 1cbe
00000250: 3d65 66be 1d55 18be c8b5 4dbe b55b 9cbe
00000260: 1a8d b3be 32a1 e7bd a350 ac3d b81e ec3e
00000270: 3930 a73d 15e2 943d dc31 5a3e 82bb d13d
00000280: f38b b1be 9b5d d8be 830d 89be 90ba b8bd
00000290: 9561 95be f197 a53e 819e 0bbe 0fde 50be
000002a0: f035 9dbe 3975 42be aa1a a6be 49cb b93e
000002b0: 6501 ec3d 08ee bebe 12c4 d83e 6d4e adbd
000002c0: 8577 153e 473c 88bd 0c10 a0bd d2d0 763e
000002d0: e994 c13e a031 273e fe56 da3e 9520 d53e
000002e0: 264f c5bc fade 26bd 3256 09bd e56d c8bd
000002f0: e249 23be 4179 b6be 11ad d4be 526c 30be
00000300: be8f 2abe 7ddb d7be 295b c2bd 6b9f 903e
00000310: 9338 84bd df0d 45be db90 11bc 6ae4 913e
00000320: 4cf7 46be d5d7 36be 6b37 dbbc 9c55 7dbc
00000330: b337 cd3e 3820 c2be 88a6 983c 07b6 233e
00000340: 3f8b 283d 70aa 6e3e e135 473e f449 d73e
00000350: 43f9 be3e 8d3e a0be b81f 0f3e 72c3 dc3e
00000360: 7dd2 a1be 38eb c5bd 181b 8a3d 2af3 c33e
00000370: 3be6 823e 7382 353e 77ac cfbe 6232 033e
00000380: 5805 9a3d a7ea ef3c abc1 763e fca4 c13e
00000390: 6e14 b83e e0bc acbe 0755 9fbe e138 273d
000003a0: ce29 b9be 1f96 973d 5686 18bd 5070 d73e
000003b0: edea 053e 07cb 343a bc4c c23d 4f31 bfbe
000003c0: 2e69 86be dd88 85be 3cda 6bbe 9d62 d63e
000003d0: c6b8 81be 3600 b73e be03 843e 09e3 91be
000003e0: 79c5 96be c671 693e ee24 d23d 652b 1bbe
000003f0: fb3a 983d 0b50 58be 4cd2 5abe 65d7 ad3e
0.04198577 0.3077657 -0.38057178 0.11947363 0.33300307 -0.08644843 0.3235132 0.1795585
0.3664653 0.36735463 0.19443874 0.035805654 -0.3548011 -0.16080762 -0.37477735 -0.07905627
0.2627719 0.23441519 0.031997155 -0.41797972 0.23072602 0.1613146 -0.21998827 -0.39729142
-0.24042536 0.14407474 -0.23393348 -0.2996967 -0.3435826 -0.2579859 -0.06939641 0.31895274
-0.25711682 -0.41488385 0.35054132 0.22128606 0.11012956 -0.30230328 0.29153398 0.17651701
0.061200008 0.32405725 0.12505582 0.274726 -0.09128672 0.27169678 -0.22086419 0.09817883
-0.26762974 -0.3961328 -0.36433265 -0.32149643 0.23277375 0.41772968 0.26290023 -0.012788744
-0.0078738285 0.05618273 0.41247338 0.22743872 -0.26441625 -0.2440051 0.34829175 0.2307397
-0.42308468 -0.3600424 0.22120404 -0.21043335 0.32343465 0.2791702 -0.34143886 0.10069479
-0.07334093 -0.41948456 0.13354231 0.04825016 0.080576904 -0.34996864 -0.095748074 -0.079397716
-0.38547164 0.37082946 -0.114243664 0.21496181 -0.09125933 -0.32492352 -0.10439519 0.08229762
0.34288508 0.061003033 0.29798806 0.19875853 -0.33417705 0.007956456 0.3964292 -0.12157514
0.18063831 0.41326183 -0.017443439 -0.14444338 -0.22663695 -0.009739429 -0.27043968 0.43190965
-0.36453485 0.37059265 0.28739133 -0.3834912 -0.29686812 0.39284068 -0.047392067 -0.29678985
0.0013799955 -0.07743255 0.051399603 0.17750598 -0.34368134 -0.21125354 -0.0060318788 0.39574873
-0.33548424 -0.2384067 0.24194175 0.39965692 0.008908961 0.002494514 0.20380583 -0.0756322
0.24796216 0.46283033 0.31557283 -0.41481927 0.35951218 0.42198837 0.19214582 -0.14319287
-0.058048144 -0.29152575 -0.06758842 0.2731436 -0.15572496 -0.075469285 -0.0678679 0.005180582
0.09361066 -0.088860705 -0.40943706 -0.15313661 -0.22499557 -0.14876218 -0.20088875 -0.30538717
-0.3506859 -0.113100424 0.08413818 0.46117187 0.081634946 0.07269684 0.21308082 0.102408424
-0.34677085 -0.42258915 -0.2676812 -0.09019959 -0.29176012 0.32342485 -0.13634683 -0.20397209
-0.30705214 -0.1899003 -0.32442218 0.36287907 0.115237035 -0.37290978 0.4233709 -0.08462224
0.14596374 -0.06652122 -0.07815561 0.24103096 0.37808922 0.16327524 0.42644495 0.4162642
-0.024085592 -0.04073999 -0.033529468 -0.09786586 -0.15946153 -0.35639384 -0.4153829 -0.17228821
-0.16656396 -0.42159644 -0.09490044 0.28246626 -0.06456103 -0.19243573 -0.008884634 0.2849458
-0.19430274 -0.17855771 -0.026759824 -0.015462305 0.40081558 -0.37915206 0.018634096 0.15987407
0.04114842 0.23307204 0.19454147 0.4204861 0.37299547 -0.31297722 0.13976943 0.43117863
-0.31605902 -0.09664005 0.06743449 0.38271457 0.25566277 0.17725544 -0.40561268 0.12812188
0.075205505 0.029286696 0.24097316 0.37821186 0.35953087 -0.3373785 -0.31119558 0.04082573
-0.36164707 0.0740168 -0.037237488 0.42077875 0.13077898 0.00068967085 0.09487292 -0.37342307
-0.2625212 -0.2608098 -0.23032469 0.4187211 -0.25336283 0.35742348 0.25784105 -0.28493527
-0.29447535 0.22797307 0.1026095 -0.15153272 0.07433125 -0.21124284 -0.21369284 0.33953395

nee_decoder.2.bias f4 [16]
00000000: 2427 d1bb 0000 0000 dc65 61bc 0000 0000
00000010: 0000 0000 1164 673c 152c 5d3c d891 5b3c
00000020: f026 5f3c 5459 913b 0000 0000 0000 0000
00000030: 0000 0000 24df 64bc 95ad 5c3c 0000 0000
-0.0063828398 0.0 -0.013757195 0.0 0.0 0.014122979 0.0134992795 0.013401471
0.013620123 0.0044356976 0.0 0.0 0.0 -0.0139692165 0.01346912 0.0

nee_decoder.4.weight f4 [1, 16]
00000000: fb34 23be aeff 123f 662e 16bf f17a 8dbd
00000010: 2a8d 03bf d082 213e 9f9a 143f 2061 e13e
00000020: 27bd 0a3f c651 cebe d3c6 653e 8b42 d9be
00000030: d3aa 0b3f faa7 29be d13f d23e f783 d7bd
-0.15938179 0.57421386 -0.5866455 -0.06908215 -0.51387274 0.15772557 0.58048433 0.44019413
0.54194874 -0.40296763 0.22439127 -0.4243358 0.5455753 -0.16567984 0.41064313 -0.10523217

fc_mu.0.weight f4 [4, 32]
00000000: 4104 a3be 178a 653e 4219 9bbe 3373 773e
00000010: 967f acbd 8b6d fa3e 3fd7 c93e 7875 b63e
00000020: 867e 3a3e 5f84 93be fada 9cbe 613c 8b3e
00000030: 522b 083d 4f99 d3be 9b31 a03e 27b6 14bd
00000040: 6bb2 90be 0525 8cbe 5199 f0bb f4fe b3be
00000050: e1f6 a3be 8dae 56be f768 963c 7d44 c3be
00000060: a6b3 7cbd 1afb e53e 0a5b 51be 8bef a0bd
00000070: 63e5 b33c f5ca 05bd a7b9 65be 9f59 073e
00000080: c14f b93e 1bb6 313e 600e 1cbe b5db ad3e
00000090: f882 57be 5dbb 23be 6bde bdbe 6f64 43be
000000a0: cfa5 143e b3c1 a03d 90f5 943e a50c 163d
000000b0: 2293 b1be b8f9 9e3e 775d 8fbe c007 19be
000000c0: de43 b83b 0fdd b93e 133e 9dbe 6ab4 923e
000000d0: e489 2cbe f6d6 c4be bfb1 75be 3857 b4be
000000e0: a8f5 c23d f47b 253e 5099 1abe 12a9 ac3d
000000f0: bf53 9a3d 7896 d1bd b245 cfbe cea1 993e
00000100: 9fc0 d03c 4576 99bd ef08 433e 2ee4 cb3b
00000110: 4120 75bd e05b 343e 0b9d 8d3e ee66 5bbe
00000120: b5d3 9a3e 0269 6dbe 820b 16be d7e8 fc3d
00000130: d687 27be 1f0d 6b3e c26e d3bd ae35 a63c
00000140: 20c5 c03e 8c0b 71bc 4416 f1bc 11bd d3bc
00000150: 4766 d7bd 9ab7 2c3e 6b1b ba3e 2519 a53e
00000160: d512 dabc 98b3 68b7 a524 47be a4a6 82be
00000170: 0b1c edbd 9277 3a3e 7a0f 63be dc87 7abe
00000180: 4198 213e bdc5 30be bef0 82be 6523 2ebe
00000190: 0908 9fbe d356 623d a374 353e ff78 9ebe
000001a0: f622 c13e 2d3c 633e 58e5 fc3d 74b4 2f3c
000001b0: e63a 0ebd 3970 a9be 9420 c43e 40fe 8dbd
000001c0: 4515 603c 5b8e 763e ac36 1b3e ae25 a83e
000001d0: 444b 85be 8c64 6c3e 0012 0cbe 40d9 ae3e
000001e0: fab6 4abe 34f7 433e 6db1 9dbe 855b 5abe
000001f0: bf72 463e 9431 b93d f830 c2bd 69e0 173d
-0.31839183 0.22415958 -0.30292708 0.24165039 -0.084227726 0.489117 0.39422032 0.35636497
0.18212327 -0.2881193 -0.30635816 0.27194503 0.03324444 -0.41327903 0.31287846 -0.036306527
-0.28261122 -0.27371994 -0.0073424955 -0.3515545 -0.3202429 -0.20965023 0.018360598 -0.3813819
-0.061694764 0.44918138 -0.20444885 -0.07858189 0.021959966 -0.032664258 -0.22434102 0.13217781
0.3619366 0.17354624 -0.15239859 0.33956686 -0.21046054 -0.15989442 -0.37083754 -0.19081281
0.14516376 0.07849445 0.290936 0.036633153 -0.34682566 0.31049895 -0.28000996 -0.14944363
0.005623325 0.36301467 -0.3071142 0.2865327 -0.16849476 -0.38445252 -0.23993586 -0.35222793
0.095195115 0.16160566 -0.15097547 0.08430685 0.075355045 -0.10233778 -0.4048286 0.3000626
0.025482474 -0.07493261 0.19046377 0.0062222695 -0.059845213 0.17613173 0.27658877 -0.21425983
0.30239645 -0.23184589 -0.14652827 0.12349098 -0.16360411 0.22954224 -0.1032386 0.020289268
0.37650394 -0.014712226 -0.029429562 -0.02584699 -0.10517555 0.16866913 0.36349043 0.32245746
-0.026620308 -1.38700925e-05 -0.19447573 -0.25517762 -0.115776144 0.18209675 -0.22173873 -0.24465889
0.15780737 -0.17262931 -0.25574297 -0.1700569 -0.31060818 0.055258583 0.17720275 -0.30951688
0.37721986 0.22190924 0.12348431 0.010724176 -0.03472414 -0.33093432 0.38306105 -0.0693326
0.013676946 0.24077742 0.15157574 0.32841247 -0.26033986 0.2308523 -0.13678741 0.34150124
-0.19796363 0.1913727 -0.30799428 -0.21323974 0.1937971 0.090426594 -0.09481996 0.03707925

fc_mu.0.bias f4 [4]
00000000: f809 843e 0000 0000 0000 0000 e6ad 26bd
0.25788856 0.0 0.0 -0.040693186

fc_mu.2.weight f4 [1, 4]
00000000: 84e9 8d3e 4660 2f3d 3385 45bd f17e c2be
0.2771722 0.042816423 -0.04822273 -0.37987474

fc_logvar.0.weight f4 [4, 32]
00000000: 4104 a3be 178a 653e 4219 9bbe 3373 773e
00000010: 967f acbd 8b6d fa3e 3fd7 c93e 7875 b63e
00000020: 867e 3a3e 5f84 93be fada 9cbe 613c 8b3e
00000030: 522b 083d 4f99 d3be 9b31 a03e 27b6 14bd
00000040: 6bb2 90be 0525 8cbe 5199 f0bb f4fe b3be
00000050: e1f6 a3be 8dae 56be f768 963c 7d44 c3be
00000060: a6b3 7cbd 1afb e53e 0a5b 51be 8bef a0bd
00000070: 63e5 b33c f5ca 05bd a7b9 65be 9f59 073e
00000080: c14f b93e 1bb6 313e 600e 1cbe b5db ad3e
00000090: f882 57be 5dbb 23be 6bde bdbe 6f64 43be
000000a0: cfa5 143e b3c1 a03d 90f5 943e a50c 163d
000000b0: 2293 b1be b8f9 9e3e 775d 8fbe c007 19be
000000c0: de43 b83b 0fdd b93e 133e 9dbe 6ab4 923e
000000d0: e489 2cbe f6d6 c4be bfb1 75be 3857 b4be
000000e0: a8f5 c23d f47b 253e 5099 1abe 12a9 ac3d
000000f0: bf53 9a3d 7896 d1bd b245 cfbe cea1 993e
00000100: 9fc0 d03c 4576 99bd ef08 433e 2ee4 cb3b
00000110: 4120 75bd e05b 343e 0b9d 8d3e ee66 5bbe
00000120: b5d3 9a3e 0269 6dbe 820b 16be d7e8 fc3d
00000130: d687 27be 1f0d 6b3e c26e d3bd ae35 a63c
00000140: 20c5 c03e 8c0b 71bc 4416 f1bc 11bd d3bc
00000150: 4766 d7bd 9ab7 2c3e 6b1b ba3e 2519 a53e
00000160: d512 dabc 98b3 68b7 a524 47be a4a6 82be
00000170: 0b1c edbd 9277 3a3e 7a0f 63be dc87 7abe
00000180: 4198 213e bdc5 30be bef0 82be 6523 2ebe
00000190: 0908 9fbe d356 623d a374 353e ff78 9ebe
000001a0: f622 c13e 2d3c 633e 58e5 fc3d 74b4 2f3c
000001b0: e63a 0ebd 3970 a9be 9420 c43e 40fe 8dbd
000001c0: 4515 603c 5b8e 763e ac36 1b3e ae25 a83e
000001d0: 444b 85be 8c64 6c3e 0012 0cbe 40d9 ae3e
000001e0: fab6 4abe 34f7 433e 6db1 9dbe 855b 5abe
000001f0: bf72 463e 9431 b93d f830 c2bd 69e0 173d
-0.31839183 0.22415958 -0.30292708 0.24165039 -0.084227726 0.489117 0.39422032 0.35636497
0.18212327 -0.2881193 -0.30635816 0.27194503 0.03324444 -0.41327903 0.31287846 -0.036306527
-0.28261122 -0.27371994 -0.0073424955 -0.3515545 -0.3202429 -0.20965023 0.018360598 -0.3813819
-0.061694764 0.44918138 -0.20444885 -0.07858189 0.021959966 -0.032664258 -0.22434102 0.13217781
0.3619366 0.17354624 -0.15239859 0.33956686 -0.21046054 -0.15989442 -0.37083754 -0.19081281
0.14516376 0.07849445 0.290936 0.036633153 -0.34682566 0.31049895 -0.28000996 -0.14944363
0.005623325 0.36301467 -0.3071142 0.2865327 -0.16849476 -0.38445252 -0.23993586 -0.35222793
0.095195115 0.16160566 -0.15097547 0.08430685 0.075355045 -0.10233778 -0.4048286 0.3000626
0.025482474 -0.07493261 0.19046377 0.0062222695 -0.059845213 0.17613173 0.27658877 -0.21425983
0.30239645 -0.23184589 -0.14652827 0.12349098 -0.16360411 0.22954224 -0.1032386 0.020289268
0.37650394 -0.014712226 -0.029429562 -0.02584699 -0.10517555 0.16866913 0.36349043 0.32245746
-0.026620308 -1.38700925e-05 -0.19447573 -0.25517762 -0.115776144 0.18209675 -0.22173873 -0.24465889
0.15780737 -0.17262931 -0.25574297 -0.1700569 -0.31060818 0.055258583 0.17720275 -0.30951688
0.37721986 0.22190924 0.12348431 0.010724176 -0.03472414 -0.33093432 0.38306105 -0.0693326
0.013676946 0.24077742 0.15157574 0.32841247 -0.26033986 0.2308523 -0.13678741 0.34150124
-0.19796363 0.1913727 -0.30799428 -0.21323974 0.1937971 0.090426594 -0.09481996 0.03707925

fc_logvar.0.bias f4 [4]
00000000: f809 843e 0000 0000 0000 0000 e6ad 26bd
0.25788856 0.0 0.0 -0.040693186

fc_logvar.2.weight f4 [1, 4]
00000000: 84e0 82bf 15cb 663f 0e42 883f b575 3bbf
-1.0224767 0.9015363 1.0645158 -0.7322648

temp_derivative_decoder.0.weight f4 [16, 32]
00000000: 3a1d b23d b3ff 083d 43d0 c6bd 7d2a 3abe
00000010: 2563 94bd 8ca3 a73d 342c 513e de99 8ebe
00000020: a18b 3e3d 011d 86be 3273 0cbe 2504 52be
00000030: 44e5 6ebe e603 8d3d c02d a23d 0196 9e3e
00000040: 2738 493e e6b4 d03d 5d4b b73d 0b2f 403e
00000050: c161 623e acfa 02be 011b a2be 6b83 7fbe
00000060: bbfd 5b3e b52b 183d 8834 213e e70f 82be
00000070: 2e33 3b3e 0857 90be 3e1d a5be defe b43e
00000080: eb48 3fbe ee37 133e aa41 273d 06cc adbd
00000090: 6532 a43e 12e3 483c 3ffb a63e 1762 5f3e
000000a0: b0f1 2f3e fa87 fbbc 5a56 5cbd 4e5f 81be
000000b0: 4de0 06bc 77bb b6bd 0a41 82bd c892 793e
000000c0: 1bca 3cbe 05d9 4d3d 107b cc3d ff3d 5f3e
000000d0: bf7d 323e 84e7 44bd c6df 3b3e bc22 a5be
000000e0: 9e4a 773e 383d 2f3c 3215 7cbe 2d8e 1dbd
000000f0: 5722 c23c d9ff 17be e57e ca3d 3d86 65be
00000100: 574b d63d 204b 413d 650c aa3e 1966 793e
00000110: 3fbf a9be 6ccb b13e 8251 883e 463b 56be
00000120: 40c5 1ebd bf32 6a3e 7629 3b3e 72ba 08bd
00000130: 0a96 5a3e c208 0fbe 8222 093c 0309 b1be
00000140: 397a 15be f708 8dbe 4afc 9bbe 6c00 d43d
00000150: 5ef3 9ebe e800 aa3e 2df6 31be b8ae b03e
00000160: 8ee0 493e 2a8a 243e 2066 383d a58d b2be
00000170: 4eba e23d 4f4f 913e 979d 29bd dea9 203e
00000180: 6fb3 8bbe b226 d63b f482 9fbd 18cb 703e
00000190: ad6a 93be 9eab 9dbe 927a d33d 199a 9c3e
000001a0: 595b d73d 1a09 823e e14d 09be b1fd a93d
000001b0: 31a4 7fbe ea95 6c3e c6ae 9a3d 2d6f 9c3e
000001c0: e7b5 a13e 814e dc3d 5f4b d33d 5588 9cbe
000001d0: 32ff 7dbd 3c27 f6bb 41cc f6bd 1cfd 423e
000001e0: 2c2b 323d 71aa 90be 56f4 c43c d991 7bbe
000001f0: 3c65 513e 8c5e 363c b804 d4bc c164 06be
00000200: b529 06bc 5493 b0be feed 9c3c e59d fb3d
00000210: f314 f7bd 9fcb 513e afe8 a33d 40d2 883d
00000220: fb29 55be 2dff 53be f95c 40bd c555 6f3d
00000230: 8e44 b2be 807c 86be 51e6 a3be 70a0 84be
00000240: ea8f 1a3e 3753 29bd fec5 7fbe 6613 99be
00000250: 7e31 1e3e 9fa5 0d3c eb51 91be 07c2 60be
00000260: 60a8 a8be 11af ab3e f071 9b3e 162d 1fbe
00000270: c37b 5abe a8ce 863e b85c 45be 1630 69be
00000280: 22d0 46bc f2d9 43be 2671 24be 8d85 aabe
00000290: 170c ac3e 2623 2ebd 11b6 6cbe 1e7d 82be
000002a0: 1a4c 483e 7797 a5be 5d21 3a3d a7d1 cf3c
000002b0: 8cb0 583e e530 d83d 1e7a 8abe 9536 41be
000002c0: 44d7 553e 80ad f1bd 01be 193e 0350 9d3e
000002d0: 83b8 28bd 986a 20be afda 653e ac10 a13e
000002e0: 69a8 3cbe b23e 47be 1438 a1be 8f1d aa3c
000002f0: 0595 cf3d bd63 473d 45c9 ddbd 9be0 9ebd
00000300: 7523 bfbd f59d c53d 3c24 d7bd 7f80 62be
00000310: 7bff 23be 4dd0 603e cf17 333e 8a08 4c3e
00000320: e6dd 8fbd 7644 d93d c496 a83e a31c b0be
00000330: a186 a73e fcf7 9e3c 9552 8cbd 674c 8fbe
00000340: c852 303c 3c23 a23e 9b54 573e a29d 4d3e
00000350: eedc b2bc 778e b13e 1243 4a3e 20fb f83d
00000360: 4e61 8ebd 56a1 803e 77e0 333e 182f 213e
00000370: 147c 04be eef2 4dbe f782 213c 8cfa 533e
00000380: 5613 2c3d 2115 cd3d 0103 243e ed8b 8e3c
00000390: 0941 7ebe bd54 60be a782 28be 7957 13be
000003a0: 5eef 8d3d d437 ddbc a80e ab3d 5b2b 0b3e
000003b0: 5069 42be 3cf2 a13e 8c39 25be ffa4 853e
000003c0: d38d 12be 3ea0 8dbe 0304 90be 84fd 73be
000003d0: 23b8 11be e752 34be c129 4cbe bd7b 10be
000003e0: 7007 04be ed40 383e a0b9 863e 0dae a03e
000003f0: f449 4bbe ef2b 893e 7991 05be 37ff 063e
0.08696981 0.03344698 -0.097076915 -0.1818027 -0.07245473 0.08185491 0.20427018 -0.27851766
0.04651988 -0.26194003 -0.13715819 -0.20509394 -0.23329645 0.06885509 0.07918882 0.3097382
0.19650327 0.10190754 0.08949921 0.18767945 0.22107603 -0.12790936 -0.31661227 -0.24952476
0.21483509 0.037151057 0.15742695 -0.25402758 0.18281242 -0.281914 -0.32248873 0.35350698
-0.1868016 0.14376804 0.040834107 -0.0848618 0.32069698 0.012261169 0.3261356 0.21814762
0.1718204 -0.030704487 -0.05379329 -0.25268024 -0.008232188 -0.08922475 -0.063600615 0.24372399
-0.18436472 0.050255794 0.0998441 0.21800993 0.17430781 -0.048072353 0.18347082 -0.32253063
0.24149558 0.010695748 -0.2461746 -0.038465668 0.023698015 -0.14843692 0.098874845 -0.22414489
0.10463589 0.047190785 0.3321258 0.24355353 -0.33153722 0.3472551 0.26624686 -0.20921049
-0.03876233 0.2287092 0.18277535 -0.033380933 0.21346298 -0.13968185 0.008370044 -0.34577188
-0.14597405 -0.27545902 -0.3046592 0.10351643 -0.3104505 0.33203816 -0.17379065 0.345083
0.19714567 0.1606833 0.04501927 -0.3487369 0.11070691 0.2838082 -0.041410055 0.15689799
-0.27285334 0.0065353746 -0.07788649 0.23514974 -0.28792325 -0.30794996 0.10326113 0.30586317
0.1051547 0.2539757 -0.13408615 0.08300341 -0.24964978 0.23104063 0.07552867 0.3055357
0.31584093 0.10757161 0.1031711 -0.30572763 -0.06201095 -0.0075120013 -0.12050677 0.19041866
0.043498203 -0.28255036 0.02404229 -0.24567355 0.20448774 0.01113094 -0.025881156 -0.13124372
-0.008188655 -0.34487402 0.019156452 0.12285975 -0.120645426 0.20487832 0.08003365 0.06680727
-0.20816796 -0.2070281 -0.046963666 0.058431406 -0.34817928 -0.2626686 -0.32011655 -0.25903654
0.15093961 -0.041339125 -0.24977872 -0.29897612 0.15448567 0.008645444 -0.2838281 -0.21949016
-0.3294096 0.33532003 0.30360365 -0.15544543 -0.21336274 0.2632954 -0.1927365 -0.2277225
-0.012134584 -0.19126108 -0.16058788 -0.33305016 0.33602974 -0.04251399 -0.23116328 -0.25486082
0.1956028 -0.3234212 0.045441974 0.025368525 0.21161097 0.10556201 -0.27046293 -0.18868478
0.20882899 -0.118006706 0.15013887 0.30725107 -0.04119159 -0.15665662 0.22446702 0.31458032
-0.18423618 -0.1945751 -0.31488097 0.020766048 0.10135845 0.048679102 -0.10829405 -0.07757684
-0.09332935 0.096492685 -0.10504958 -0.2211933 -0.16015427 0.2195446 0.17489551 0.19925132
-0.07024746 0.10608761 0.32927525 -0.34396848 0.327199 0.019405358 -0.06851689 -0.27987978
0.010761924 0.31667507 0.21028368 0.20079663 -0.021833863 0.34679005 0.19752148 0.12157273
-0.06952153 0.2512309 0.17566095 0.15740621 -0.12937957 -0.20112202 0.009857885 0.20701045
0.042010628 0.10013796 0.16016771 0.017400706 -0.24829496 -0.21907325 -0.1645609 -0.14388837
0.06930421 -0.02700416 0.08352405 0.13590758 -0.18985486 0.31630123 -0.16135234 0.26102445
-0.14311914 -0.27661318 -0.2812806 -0.23827177 -0.14230399 -0.1760975 -0.19937803 -0.14109702
-0.12893462 0.17993517 0.26313496 0.3138279 -0.1985243 0.2679133 -0.13043775 0.13183294

temp_derivative_decoder.0.bias f4 [16]
00000000: 0000 0000 a4ff bb3a 86f7 00bb 0000 0000
00000010: 9aef 46bb 0000 0000 356b 79bb 0000 0000
00000020: 0000 0000 ba6c b13b 9aa6 3dbc d0eb 8abc
00000030: 7bc4 07bc fdab 643b 0000 0000 7489 05bc
0.0 0.0014343155 -0.0019678785 0.0 -0.0030355216 0.0 -0.0038058285 0.0
0.0 0.0054145725 -0.011575365 -0.016958147 -0.008286591 0.0034892552 0.0 -0.008150447
