.archive/piae_sde/experiments/2024-11-27_18-45-1-277705/best_model.pth (torch, 31074 bytes, 33 tensors)

encoder.0.weight f4 [16, 20]
0	0xbebbb33b	-0.3666018
1	0x3cc363ea	0.023851354
2	0x3cd5e164	0.026108451
3	0xbba8046e	-0.005127481
4	0x3e042c18	0.12907445
5	0x3dffae64	0.12484434
6	0xbdc1ef17	-0.09469431
7	0x3e52faa3	0.20603423
8	0xbed4fe2c	-0.41600168
9	0xbf184203	-0.59475726
10	0xbe3de3be	-0.18543908
11	0xbca79e98	-0.020461366
12	0x3d8449e3	0.06459405
13	0xbe0f89af	-0.14017366
14	0xbe94f0e7	-0.29090044
15	0xbe4e28fd	-0.20132823
16	0x3eb06dae	0.3445868
17	0xbe2e41b2	-0.17017248
18	0xbf560422	-0.83600056
19	0x3eacb5b8	0.3373239
20	0x3e1fbbbc	0.15598959
21	0x3c188187	0.0093082255
22	0xbd6815b3	-0.05666132
23	0xbd85f994	-0.06541744
24	0x3d0be6fb	0.034155827
25	0xbe28d1c8	-0.16486275
26	0x3ea84032	0.32861477
27	0xbd3fc76e	-0.04682105
28	0xbdd9b936	-0.10631029
29	0xbe1aa60e	-0.15102407
30	0x3e6577a3	0.22408919
31	0xbee87952	-0.4540506
32	0x3dc2d41e	0.095131144
33	0xbcbe1490	-0.023203164
34	0xbc49addf	-0.0123095205
35	0xbf01628b	-0.5054099
36	0x3d46a199	0.048493955
37	0x3d95e01d	0.07318137
38	0x3ebb6f5f	0.36608407
39	0x3e74b56b	0.2389733
40	0xbd8d7adf	-0.069082014
41	0xbcb2c6ad	-0.021823252
42	0xbeb28a1a	-0.34870988
43	0xbe831f03	-0.25609598
44	0xbdd7b2ac	-0.10532126
45	0xbdd68309	-0.10474212
46	0x3e28f1ac	0.1649844
47	0x3ebe906e	0.37219566
48	0xbeb6e3a3	-0.35720548
49	0x3e9da175	0.30787244
50	0x3e6e080c	0.23245257
51	0x3ea060ea	0.3132394
52	0xbe994fff	-0.29943845
53	0x3e0bcbfa	0.1365203
54	0xbe357d53	-0.17723589
55	0x3e35664f	0.17714809
56	0xbe97b87a	-0.29632932
57	0xbea8849e	-0.3291368
58	0x3ead10e1	0.3380194
59	0xbc967a6a	-0.018368918
60	0x3db63384	0.088965446
61	0xbe2a8d19	-0.16655387
62	0x3e3cae7c	0.18425936
63	0x3e59a481	0.2125416
64	0xbe094529	-0.13405289
65	0xbb6f3bc7	-0.0036504136
66	0xbe972f5b	-0.29528317
67	0x3b867e07	0.004104379
68	0xbdc42aa0	-0.095784426
69	0x3ec0f105	0.37683883
70	0x3e819df3	0.25315818
71	0xbd875871	-0.06608666
72	0x3dabdb8b	0.08391484
73	0x3eb38904	0.35065472
74	0xbd73fa6b	-0.05956499
75	0xbe74ecc7	-0.23918448
76	0xbdc2b02e	-0.0950626
77	0x3ec624dc	0.38699996
78	0x3e97a834	0.29620516
79	0xbe1a0b5c	-0.15043396
80	0x3e199e3a	0.15001765
81	0x3cc6e904	0.024281032
82	0xbd93964f	-0.072064035
83	0xbea70bb4	-0.32626116
84	0xbd94c62c	-0.07264361
85	0x3de9c2e6	0.11414127
86	0x3ecd44f2	0.40091664
87	0xbeaafb08	-0.33394647
88	0xbe4e315c	-0.20136017
89	0xbea3e280	-0.32008743
90	0xbe93acc2	-0.2884274
91	0x3e8bb19f	0.27283952
92	0xbe86cf07	-0.26329824
93	0xbcdb179a	-0.026744653
94	0xbe6d3bd6	-0.23167357
95	0xbe767b93	-0.24070577
96	0xbeac06e8	-0.3359902
97	0xbe195663	-0.1497436
98	0xbe89b157	-0.26893112
99	0xbec2d916	-0.38056248
100	0x3da06d38	0.07833332
101	0x3eb6faec	0.35738313
102	0xbeb49df9	-0.35276774
103	0xbea317e4	-0.31854165
104	0x3e75f218	0.24018133
105	0x3cf72843	0.030170565
106	0x3e27d88b	0.16391198
107	0xbe121d9c	-0.14269108
108	0xbe5a74d0	-0.21333623
109	0xbeadd537	-0.33951733
110	0xbe7e5e7a	-0.24840727
111	0x3ebbd2a0	0.36684132
112	0x3e8fb6b3	0.28069076
113	0x3ecbb318	0.39785075
114	0x3ebb4abf	0.36580464
115	0x3e9b3ecd	0.3032135
116	0xbea2a914	-0.3176962
117	0x3ec07b1e	0.3759393
118	0x3e7747b6	0.2414845
119	0xbcb2d250	-0.0218288
120	0x3e91c61c	0.28471458
121	0x3cc1ee6c	0.023673259
122	0x3dd8259a	0.10554047
123	0x3d0a8e51	0.03382713
124	0xbdbec2fa	-0.093145326
125	0xbd86e8e6	-0.065873906
126	0x3ced31be	0.028954383
127	0xbe560b65	-0.20902784
128	0xbdae2406	-0.08502965
129	0x3eb2dcca	0.34934074
130	0x3e4245cf	0.18971942
131	0x3d06d8bb	0.032921534
132	0xbd8404c9	-0.06446225
133	0x3ebefef0	0.37303877
134	0xbdc9da3a	-0.098560765
135	0x3e62d4f1	0.22151543
136	0x3eb4fd67	0.3534958
137	0x3e2feb5f	0.1717963
138	0xbe4ec89b	-0.20193712
139	0x3eb1c743	0.34722337
140	0xbe58da84	-0.21177107
141	0xbe0ed8eb	-0.13949935
142	0x3e1e3ce4	0.15452915
143	0x3de0e1b0	0.109805465
144	0x3dc43bae	0.095816955
145	0x3e416ebd	0.188899
146	0x3d1fce94	0.039015368
147	0xbd9d5b54	-0.07683435
148	0x3e48488c	0.19558924
149	0xbe7ad1f8	-0.24494159
150	0xbd888d49	-0.06667573
151	0xbcd1bf9e	-0.025604066
152	0xbe1fac66	-0.15593109
153	0x3dd85b56	0.10564296
154	0x3b8b1d4a	0.004245435
155	0xbeac5de9	-0.33665398
156	0x3e24242f	0.16029428
157	0x3d0393ab	0.03212325
158	0x3d584944	0.052804247
159	0xbce98882	-0.028507475
160	0xbea0cf65	-0.3140823
161	0xbe13d1c6	-0.14435491
162	0xbd9f5a50	-0.077808976
163	0xbe1c03c0	-0.15235806
164	0x3ba9a0f7	0.005176659
165	0x3e1f8b23	0.1558042
166	0xbd84e6ba	-0.0648932
167	0xbecabd07	-0.3959734
168	0xbe99d826	-0.3004772
169	0xbcc3b160	-0.02388829
170	0x3e212403	0.15736394
171	0xbe5f0303	-0.21778493
172	0x3e474150	0.19458508
173	0xbd8b3adc	-0.06798336
174	0x3dbf1a21	0.093311556
175	0xbdaaa84f	-0.083328836
176	0xbe985015	-0.29748598
177	0xbdea68ee	-0.11445795
178	0xbd306e8d	-0.04307418
179	0xbe7a3bf7	-0.24436937
180	0x3e9030a2	0.28162104
181	0x3eab66b5	0.33476797
182	0x3e8856db	0.26628765
183	0xbecf5517	-0.40494606
184	0x3e0c597d	0.13706012
185	0x3e435f85	0.19079407
186	0xbdd8b36f	-0.10581099
187	0x3e90a209	0.28248623
188	0x3eabd6dc	0.33562362
189	0x3eb1104b	0.34582743
190	0xbe048e54	-0.12944919
191	0x3daedecd	0.085385896
192	0x3e8f63cb	0.28005823
193	0x3e8130df	0.25232598
194	0x3ec6a044	0.38794148
195	0x3ecabe75	0.39598432
196	0xbe6208a8	-0.22073615
197	0xbebb3e3f	-0.36570928
198	0xbb86ac92	-0.0041099275
199	0xbd20f092	-0.039291926
200	0x3e534806	0.20632944
201	0x3cce629b	0.025193503
202	0x3cbcee28	0.02306278
203	0xbbd57f77	-0.006515439
204	0xbd3f9dba	-0.04678128
205	0xbdd7d475	-0.1053857
206	0x3dc68a09	0.09694297
207	0xbdaff559	-0.08591718
208	0xbeae19a9	-0.34003952
209	0x3eae2932	0.34015805
210	0x3e36b4ba	0.17842379
211	0xbdda0f3c	-0.10647437
212	0x3ba9bd2f	0.005180023
213	0x3dd961c0	0.106143475
214	0xbb146db2	-0.0022648391
215	0x3d78e6d2	0.060767002
216	0x3e2d6e1e	0.16936538
217	0xbd97f301	-0.07419396
218	0x3ec399ff	0.38203427
219	0xbec86344	-0.39138234
220	0x3eb0ee5a	0.34556848
221	0xbd8d58b5	-0.06901685
222	0xbe6164c8	-0.22011101
223	0xbe673977	-0.22580515
224	0xbeace2ba	-0.3376673
225	0x3dcc8fd9	0.09988374
226	0xbd08ec33	-0.033428382
227	0xbd1c3390	-0.03813511
228	0xbe890c93	-0.26767406
229	0x3e89217b	0.26783356
230	0x3e2e5aef	0.17026876
231	0x3dad8a04	0.0847359
232	0xbea05147	-0.3131201
233	0x3e1d8a09	0.15384687
234	0xbe75e863	-0.2401443
235	0xbebc725a	-0.36805993
236	0xbeca99c7	-0.39570448
237	0xbd2b7292	-0.04185731
238	0x3e4110fd	0.18854137
239	0xbebbe29e	-0.36696333
240	0x3e48e1ba	0.19617358
241	0xbe777146	-0.24164304
242	0xbe6ac3e1	-0.22926284
243	0x3eb536d0	0.3539338
244	0x3ec8fae5	0.39253917
245	0xbe8b93a2	-0.27261072
246	0xbed0cf79	-0.4078329
247	0x3dc8669a	0.09785195
248	0xbea8c908	-0.32965875
249	0x3db44dee	0.088039264
250	0x3e39089b	0.18069689
251	0x3e47dc93	0.19517736
252	0x3e08e6ca	0.13369289
253	0xbeafce71	-0.3433719
254	0xbe2125cf	-0.15737079
255	0x3d8608e3	0.06544664

encoder.0.bias f4 [16]
0	0xbe227d7a	-0.15868178
1	0x3eb26ee4	0.34850228
2	0x00000000	0.0
3	0x00000000	0.0
4	0x00000000	0.0
5	0x00000000	0.0
6	0xbd36359d	-0.044484723
7	0x3c582ef1	0.013194785
8	0x00000000	0.0
9	0x00000000	0.0
10	0x3d5cb685	0.053885
11	0x00000000	0.0
12	0x00000000	0.0
13	0x3da71ce6	0.08159809
14	0xbc517317	-0.012783787
15	0x3e2306fb	0.15920632

encoder.2.weight f4 [16, 16]
0	0x3e3de7f6	0.18545517
1	0x3eb5509b	0.3541306
2	0x3e98089c	0.29694068
3	0xbea6d084	-0.3258096
4	0xbeabf401	-0.33584598
5	0x3e244c4c	0.1604473
6	0x3d12355b	0.035695415
7	0xbdcfca2b	-0.10145982
8	0x3ecd0e24	0.4004985
9	0xbed7ea4b	-0.4217094
10	0xbea2cff9	-0.31799296
11	0xbe829bb6	-0.25509423
12	0xbeca6c9b	-0.39535984
13	0x3ecd594c	0.4010719
14	0xbd0f5d4e	-0.03500109
15	0x3f12cd24	0.5734427
16	0xbe061e7d	-0.13097568
17	0xbc95ea7a	-0.018300284
18	0x3d4f512d	0.050614525
19	0xbcba63f1	-0.022752734
20	0x3edb3988	0.4281733
21	0xbed8fc79	-0.4238012
22	0x3f0eb885	0.55750304
23	0xbeace9f9	-0.33772257
24	0x3e858690	0.26079226
25	0xbeda06f9	-0.42583445
26	0xbeda4178	-0.42628074
27	0xbe9912fc	-0.29897296
28	0x3e878218	0.2646644
29	0x3e8ebbf4	0.27877772
30	0xbe8350f9	-0.25647715
31	0x3ec78cc5	0.38974586
32	0xbcf25cfb	-0.029585352
33	0x3e8c6d40	0.274271
34	0x3d94abf3	0.07259359
35	0xbe92c21e	-0.28663725
36	0x3ecfc294	0.4057814
37	0x3e0d3158	0.13788354
38	0xbea0851d	-0.31351557
39	0xbebbe3c3	-0.36697206
40	0x3ea4d640	0.3219471
41	0xbe98e308	-0.2986071
42	0x3d9f05d3	0.07764783
43	0xbe9426fd	-0.28935996
44	0x3e85b1b6	0.26112145
45	0xbe8aa777	-0.2708089
46	0xbd60cfb8	-0.054885596
47	0xbc0932be	-0.008373914
48	0x3ed57d79	0.4169729
49	0x3e58e95c	0.2118277
50	0x3ea225ca	0.31669456
51	0xbeaff540	-0.34366798
52	0x3e89ba58	0.26899981
53	0x3e018217	0.12647282
54	0xbdb3d0c0	-0.0878005
55	0xbe689821	-0.22714283
56	0xbc9a0bc4	-0.018804438
57	0x3e66e585	0.22548492
58	0xbd583d04	-0.052792564
59	0x3ece1a76	0.40254563
60	0x3e33b74d	0.17550392
61	0x3ea20387	0.31643316
62	0xbecbbbf1	-0.39791825
63	0x3eb7d1f6	0.35902375
64	0x3e57cae4	0.2107349
65	0x3bf63206	0.0075132875
66	0xbe7bce4a	-0.24590412
67	0xbb053205	-0.0020324003
68	0x3ccf85c9	0.025332348
69	0xbd8c27c9	-0.06843526
70	0x3e1df6ac	0.15426129
71	0x3eff3acc	0.49849546
72	0x3ebf5d36	0.37375802
73	0x3ed2f284	0.4120065
74	0x3d4f5d02	0.05062581
75	0x3e1b2686	0.15151414
76	0xbe8985e0	-0.2685995
77	0x3ec95d5e	0.39329046
78	0xbe6c5fda	-0.2308344
79	0xbeb4e2c8	-0.3532927
80	0xbd658370	-0.05603355
81	0x3e8a0326	0.26955527
82	0xbc9ec370	-0.019380301
83	0xbe4f73d8	-0.20259035
84	0xbd06613c	-0.032807574
85	0x3ecc8ae1	0.39949706
86	0xbea8c309	-0.329613
87	0x3eaaa1c1	0.33326533
88	0xbe198aa9	-0.14994301
89	0x3c83d32b	0.016091904
90	0xbe667836	-0.22506794
91	0xbeaaad0a	-0.33335143
92	0xbe7f9a86	-0.2496129
93	0xbe240005	-0.16015632
94	0xbe494df7	-0.19658647
95	0xbed8e335	-0.42360845
96	0xbe888cc2	-0.2666989
97	0xbe9ea5c7	-0.30985853
98	0xbe8d451b	-0.27591786
99	0x3cb9f2ed	0.022698844
100	0xbd9c6e49	-0.07638223
101	0xbe928b7f	-0.28622052
102	0xbdc9746f	-0.09836661
103	0x3e953001	0.29138187
104	0xbe87772b	-0.26458105
105	0xbe9ced69	-0.3064988
106	0x3e1080d4	0.14111644
107	0xbeb98e24	-0.36241257
108	0x3ce7e71f	0.02830845
109	0xbe3f9a72	-0.1871126
110	0xbda902b6	-0.0825247
111	0xbe6389b5	-0.222205
112	0xbe8abb53	-0.27096042
113	0x3ea4e77f	0.32207868
114	0x3ddd0d60	0.10793567
115	0xbe8480d4	-0.25879538
116	0x3e07a23c	0.13245481
117	0x3eda262b	0.42607245
118	0xbe51948c	-0.20466822
119	0xbd8510c2	-0.06497337
120	0x3e877a94	0.26460707
121	0x3d6da7bf	0.058021303
122	0x3e78cb11	0.24296214
123	0xbebc9b39	-0.36837175
124	0x3ecfa4ca	0.40555412
125	0x3e0698ad	0.13144179
126	0xbe2a6c0c	-0.16642779
127	0xbe806e3e	-0.25084108
128	0x3eda876f	0.42681453
129	0xbe9197b3	-0.2843605
130	0xbe83a09f	-0.25708482
131	0xbe384d67	-0.17998277
132	0x3e5f72c0	0.21821117
133	0xbed6dbb0	-0.41964483
134	0xbe753e39	-0.23949517
135	0x3d9397d7	0.072066955
136	0x3e0b2713	0.13589124
137	0x3deede37	0.11663478
138	0x3f28c242	0.65921414
139	0x3dfdae15	0.12386719
140	0xbe9f560e	-0.31120342
141	0xbe08bc26	-0.13353023
142	0x3e3a8f59	0.18218745
143	0xbe919fa7	-0.28442118
144	0x3eabfc5f	0.3359098
145	0xbccda2e1	-0.02510208
146	0xbdaa5da9	-0.083186455
147	0xbcb21e9e	-0.021743115
148	0xbea504b6	-0.32230157
149	0xbdc0b044	-0.0940862
150	0xbdf7b95b	-0.120959006
151	0x3e76f0b7	0.24115263
152	0x3ea79f60	0.3273878
153	0xbe9b9428	-0.30386472
154	0xbe4ae075	-0.19812186
155	0x3e5f3cb4	0.218005
156	0x3e29cdd5	0.16582425
157	0xbe8a9e73	-0.27074012
158	0xbdb98054	-0.0905768
159	0x3e20592c	0.15659016
160	0x3ecf7f78	0.40526938
161	0xbe614764	-0.2199989
162	0xbedc68c6	-0.43048686
163	0x3a7bb04a	0.0009601159
164	0xbe7b76b3	-0.24556999
165	0xbe0dc14b	-0.13843267
166	0x3ed72204	0.4201814
167	0x3eb0929f	0.34486863
168	0x3dbd0ec7	0.09231334
169	0xbd201b40	-0.039088488
170	0x3eff82e4	0.4990455
171	0x3ca823a0	0.0205248
172	0xbe987f48	-0.29784608
173	0xbd392d07	-0.045208957
174	0x3eedf700	0.4647751
175	0x3ee39c4c	0.44455183
176	0xbbf57630	-0.0074908957
177	0x3ec3fe1c	0.38279808
178	0xbe87b36d	-0.26504079
179	0xbd44ccdd	-0.048046935
180	0x3de963e7	0.11396008
181	0xbe064593	-0.13112478
182	0x3de7076c	0.112807125
183	0x3eee274e	0.46514362
184	0xbd18b533	-0.03728218
185	0xbcba3627	-0.0227309
186	0x3e1d27b3	0.15347175
187	0x3e7f527b	0.24933808
188	0x3ebf704c	0.37390363
189	0x3d9c2de8	0.076259434
190	0xbe507576	-0.20357308
191	0xbdc17812	-0.0944673
192	0x3d7e3b04	0.062068
193	0x3d74d392	0.05977208
194	0x3e4a153b	0.19734661
195	0xbe1c725f	-0.15278004
196	0x3c4231f9	0.011852735
197	0x3e82df70	0.25561094
198	0xbde2f45d	-0.11081765
199	0xbc8d6b62	-0.017263118
200	0x3e84a3d9	0.25906256
201	0xbbcab823	-0.0061865016
202	0x3e4e25cf	0.2013161
203	0x3e180d6b	0.14848869
204	0xbe1401b5	-0.14453776
205	0x3e834661	0.25639632
206	0x3e637301	0.2221184
207	0x3d045a12	0.03231246
208	0x3d756f3a	0.059920527
209	0x3e96c478	0.2944677
210	0xbed1bbf2	-0.40963703
211	0xbe43fb5e	-0.19138858
212	0xbe6599c1	-0.22421934
213	0x3e805b1f	0.2506952
214	0x3efaddab	0.48997244
215	0x3ea66620	0.3249979
216	0x3da1b495	0.078957714
217	0x3e49bf5c	0.19701904
218	0xbe8f5a61	-0.2799864
219	0xbeb12555	-0.34598795
220	0xbe126d8f	-0.14299606
221	0xbe825cb4	-0.25461352
222	0x3eb707b9	0.3574808
223	0x3e894b9d	0.268155
224	0x3eab0957	0.33405563
225	0xbf26adae	-0.65108764
226	0x3eba6ddc	0.3641194
227	0x3de04512	0.10950674
228	0xbd7602b8	-0.060061187
229	0x3ecfda2a	0.40596133
230	0x3ebea078	0.37231803
231	0x3deb96b3	0.11503353
232	0x3ccd0942	0.025028829
233	0xbeac79c9	-0.33686665
234	0x3ee283d2	0.44241196
235	0xbebcdb8f	-0.3688626
236	0xbd32f110	-0.043686926
237	0x3e14b0ab	0.14520518
238	0x3e4dfdb5	0.20116313
239	0x3cb69e27	0.02229221
240	0xbd9134ae	-0.07090126
241	0xbeb272fb	-0.34853348
242	0xbece01d2	-0.40235764
243	0x3e6f7b5f	0.23386906
244	0xbe89c4ba	-0.26907903
245	0xbca3ba39	-0.019986259
246	0xbdf2b6ce	-0.118512735
247	0x3cc98d09	0.024603384
248	0xbeaded85	-0.33970276
249	0xbe83e6e1	-0.25762084
250	0xbeb93a5c	-0.36177337
251	0xbead6dbd	-0.33872786
252	0xbd6731cd	-0.056443978
253	0x3e401fb5	0.18762095
254	0x3e3b36a5	0.18282564
255	0xbe3fa576	-0.18715462

encoder.2.bias f4 [16]
0	0xbe116c8c	-0.14201564
1	0x3d73d22a	0.0595266
2	0x00000000	0.0
3	0xbefd0689	-0.49419048
4	0xbce63de7	-0.02810569
5	0x00000000	0.0
6	0x00000000	0.0
7	0x00000000	0.0
8	0x3d599a5e	0.05312573
9	0xbe09b396	-0.13447413
10	0xbdc46e54	-0.09591356
11	0xbba26d5a	-0.0049568834
12	0xbd81f8af	-0.06346261
13	0xbba47961	-0.0050193523
14	0xbdaf0403	-0.08545687
15	0x00000000	0.0

encoder.4.weight f4 [32, 16]
0	0x3e5fbad4	0.21848613
1	0x3eb10e95	0.34581438
2	0x3e33c983	0.1755734
3	0x3cbbc570	0.022921294
4	0xbe4948f2	-0.19656733
5	0x3e805b62	0.2506972
6	0x3eac16df	0.336112
7	0xbea7be4a	-0.32762367
8	0xbee8ef17	-0.4549491
9	0x3e5ab14f	0.213567
10	0xbe24b48b	-0.16084497
11	0x3e2d077f	0.16897391
12	0xbec751ad	-0.389295
13	0xbe0f9ade	-0.14023921
14	0xbe7d6465	-0.24745329
15	0x3d37477f	0.04474592
16	0xbdbb822c	-0.09155688
17	0xbe08dee1	-0.13366272
18	0xbe9c4bcc	-0.30526578
19	0xbf0c7a46	-0.54874074
20	0xbe99debf	-0.30052754
21	0x3e0abf52	0.13549545
22	0xbc5b2baf	-0.013377114
23	0xbeb0a4d3	-0.3450075
24	0x3de346f4	0.110975176
25	0x3e43c51f	0.19118164
26	0xbe8cc935	-0.2749726
27	0x3e52db8d	0.20591564
28	0x3ea1ad41	0.31577495
29	0x3e3bd0ca	0.18341365
30	0x3dff4ec1	0.12466193
31	0xbea31c3b	-0.31857476
32	0x3db7858b	0.08961018
33	0x3e9c92bc	0.305807
34	0x3dd0153f	0.10160302
35	0x3d46e6f8	0.048560113
36	0x3e164ddc	0.14678138
37	0x3eb06726	0.34453696
38	0x3dfab00f	0.12240612
39	0xbe92b91c	-0.28656852
40	0x3db6625b	0.089054786
41	0xbe67a79c	-0.22622532
42	0x3e42c4ee	0.19020435
43	0xbc5d4933	-0.013506222
44	0x3db3fdf3	0.08788671
45	0x3e99e213	0.30055293
46	0xbe6d693c	-0.23184675
47	0xbe444c5e	-0.19169757
48	0x3eabd242	0.3355885
49	0xbe5604cf	-0.20900272
50	0x3e927308	0.28603387
51	0xbd8a466e	-0.06751715
52	0xbbdabacc	-0.0066751
53	0x3d8c9cfe	0.068658814
54	0xbe636176	-0.22205147
55	0xbe543bf9	-0.20726003
56	0x3ea8a9cf	0.32942054
57	0x3e646a9a	0.2230629
58	0xbe29362b	-0.1652457
59	0xbe0dd52d	-0.13850851
60	0xbe91ca03	-0.28474435
61	0x3ce292fc	0.027657978
62	0x3e0a0ab4	0.13480645
63	0xbe636940	-0.22208118
64	0xbec43609	-0.38322476
65	0x3b511e89	0.003190907
66	0xbe2e32f0	-0.17011619
67	0x3dd116ba	0.10209413
68	0xbe59e843	-0.21280007
69	0x3e5fdd86	0.21861848
70	0xbe89da4d	-0.26924363
71	0xbda0391f	-0.07823395
72	0xbd417d2a	-0.047238506
73	0xbe7153a5	-0.23567064
74	0xbe9cbd3b	-0.3061312
75	0x3ea35082	0.3189736
76	0xbe0b408b	-0.1359884
77	0x3e8be042	0.27319533
78	0xbe1618b6	-0.14657864
79	0x3e9c9956	0.30585736
80	0x3e83c10d	0.25733224
81	0x3e3c740d	0.18403645
82	0xbea486e6	-0.3213417
83	0x3df1267c	0.117749184
84	0xbd9e7036	-0.07736246
85	0x3e0f5fc2	0.14001372
86	0x3e0f311c	0.13983577
87	0x3ea8cef8	0.32970405
88	0xbec92dda	-0.39292794
89	0x3e934d3a	0.28769857
90	0x3d688c82	0.056774624
91	0xbe25a276	-0.16175255
92	0xbeb09bc2	-0.34493834
93	0x3d9bc35d	0.07605622
94	0xbdbd5e95	-0.09246556
95	0x3d6fd313	0.058550905
96	0x3e9e6d79	0.30942896
97	0xbdbf78d1	-0.09349216
98	0x3da6fb85	0.08153442
99	0x3c3d1e16	0.011542818
100	0xbeb5e970	-0.3552966
101	0x3da5859e	0.08082126
102	0x3dfdc635	0.123913206
103	0xbe8368ba	-0.25665838
104	0xbe802349	-0.2502692
105	0xbd571bf8	-0.052516907
106	0x3e96e7bc	0.29473674
107	0xbea8a6b3	-0.3293968
108	0xbd2fe630	-0.042944133
109	0x3dcefd09	0.101068564
110	0xbc4f5b0a	-0.012655983
111	0xbdec7040	-0.115448475
112	0xbe97aea1	-0.2962542
113	0x3e5ba22e	0.21448585
114	0x3e71ce9d	0.23613973
115	0x3ed761ac	0.42066705
116	0xbe98c5bc	-0.2983836
117	0xbe57b800	-0.21066284
118	0x3dcc1797	0.09965437
119	0xbe0b5666	-0.13607177
120	0xbeadb521	-0.33927253
121	0xbd7fc421	-0.062442902
122	0xbe455c70	-0.19273543
123	0xbe25bd09	-0.16185392
124	0x3d7068dc	0.05869375
125	0xbeb69e7e	-0.35667795
126	0x3e3adf13	0.18249159
127	0x3e886db2	0.2664619
128	0xbdb4667c	-0.0880861
129	0x3efc5d49	0.4928992
130	0x3e6e5c63	0.2327743
131	0xbe087917	-0.13327442
132	0x3e66a7e7	0.22524987
133	0xbd304b9f	-0.043040868
134	0xbe4cdb7e	-0.20005605
135	0xbd516657	-0.05112299
136	0xbd7781de	-0.060426585
137	0x3e8c6ce2	0.2742682
138	0x3c780954	0.015138943
139	0xbe806c8b	-0.25082812
140	0xbdfe96bb	-0.12431093
141	0xbdfd01bb	-0.12353846
142	0x3e1d8397	0.15382229
143	0xbd30f8f3	-0.043206166
144	0x3ea5c801	0.32379153
145	0x3c00bf9e	0.007858185
146	0xbe07769d	-0.13228841
147	0x3ed3823c	0.41310298
148	0xbea09363	-0.31362447
149	0xbe755498	-0.23958051
150	0xbe04ba61	-0.12961723
151	0xbe876398	-0.26443172
152	0xbf10ea4a	-0.56607497
153	0xbda2cb9c	-0.07948992
154	0xbe8a420d	-0.27003518
155	0xbd3e9ddf	-0.046537276
156	0x3d836122	0.06415011
157	0xbe6db30a	-0.23212829
158	0xbec8973a	-0.39177877
159	0xbe1c874c	-0.15285987
160	0x3da084e3	0.07837846
161	0xbe727524	-0.23677498
162	0xbe7f8f98	-0.2495712
163	0x3d376171	0.04477066
164	0xbe63b31e	-0.22236297
165	0xbe62984a	-0.22128406
166	0x3eb0816d	0.34473744
167	0xbc14342b	-0.009045641
168	0x3e60c5f2	0.2195051
169	0xbce5ce7b	-0.02805256
170	0xbe6f8930	-0.23392177
171	0x3d5edbad	0.054408718
172	0xbe6d137d	-0.23151965
173	0x3ebbd5b6	0.36686486
174	0xbe6d738b	-0.23188607
175	0xbe35c187	-0.17749606
176	0x3e2a0233	0.16602401
177	0xbdd53df6	-0.10412209
178	0xbe9fdd28	-0.31223416
179	0x3e45982a	0.19296327
180	0x3d567952	0.052361794
181	0x3d176b8d	0.036967803
182	0x3e439167	0.19098435
183	0x3d3af486	0.045643352
184	0xbebc3761	-0.36761
185	0xbe68a8de	-0.22720668
186	0xbe0480d4	-0.12939769
187	0x3e836c43	0.25668535
188	0xbd92901a	-0.071563914
189	0xbe44bf0f	-0.19213508
190	0xbdc8842f	-0.09790837
191	0xbd30618a	-0.04306177
192	0x3e203685	0.15645798
193	0xbe956b87	-0.291836
194	0x3e4e39d4	0.20139247
195	0xbebb9c5a	-0.36642724
196	0x3e92f4c4	0.28702366
197	0x3e842a0f	0.25813338
198	0xbe89e43c	-0.26931942
199	0x3d59a7e1	0.053138617
200	0x3e7a6a64	0.24454647
201	0x3e9e5baa	0.3092931
202	0xbe080359	-0.13282527
203	0x3e8cdebc	0.27513683
204	0x3e9a4148	0.3012793
205	0x3e62487f	0.22097968
206	0xbeaeccdc	-0.3414067
207	0xbe838ad1	-0.25691846
208	0x3e902407	0.28152487
209	0x3e28e5f3	0.16493969
210	0x3dbad89d	0.09123347
211	0x3c7ddd70	0.015494689
212	0x3d82ecdb	0.06392833
213	0xbe6ffb0a	-0.23435608
214	0xbe81c2f8	-0.25344062
215	0x3e0d9328	0.13825667
216	0xbdbabd73	-0.09118166
217	0xbe4d6691	-0.20058657
218	0xbd7f27dd	-0.062293876
219	0xbe99c2a1	-0.30031303
220	0x3d88e595	0.06684414
221	0x3de240e0	0.1104753
222	0x3ec87356	0.39150494
223	0x3e24cee0	0.16094542
224	0xbe1efb2e	-0.15525505
225	0xbec4ecf1	-0.38462022
226	0xbdecb548	-0.11558014
227	0xbef87151	-0.48523954
228	0x3ea21f78	0.31664634
229	0xbdc2c24c	-0.095097154
230	0x3eaae1d1	0.3337541
231	0x3eaa8935	0.33307806
232	0x3db1f371	0.08689011
233	0x3d81d406	0.063392684
234	0x3e398c81	0.18120004
235	0x3e784fb1	0.2424915
236	0x3e9e8f79	0.30968836
237	0x3e45c050	0.19311643
238	0x3e91026a	0.28322154
239	0x3de199b8	0.11015648
240	0xbeb0c2d5	-0.34523645
241	0x3e2eb1c4	0.1706
242	0x3e391452	0.18074158
243	0xbe9b9f69	-0.30395058
244	0xbdb6e662	-0.08930661
245	0xbe95ddd6	-0.2927081
246	0x3de6542d	0.11246524
247	0x3dc420d8	0.09576577
248	0x3e606d7b	0.21916763
249	0x3e955c18	0.29171824
250	0xbdb8b09c	-0.090180606
251	0xbe4871df	-0.19574688
252	0xbd2f536b	-0.042804163
253	0x3e0b51ac	0.13605374
254	0xbe9a5af9	-0.30147532
255	0x3d372084	0.044708744

encoder.4.bias f4 [32]
0	0x3cbe32bc	0.023217551
1	0x3ddc0472	0.107430354
2	0x3c654d8d	0.01399554
3	0x3c080de3	0.008304092
4	0x3e19edf1	0.15032174
5	0xbd9017f1	-0.070358165
6	0xbddf1e3d	-0.10894439
7	0xbd8377c9	-0.064193316
8	0xbdcc48fd	-0.09974859
9	0xbcabdfbb	-0.020980706
10	0x3c4980f3	0.01229881
11	0xbce7812f	-0.028259842
12	0xbd28373e	-0.041068308
13	0x3d493586	0.04912331
14	0x3d8d51c5	0.06900362
15	0x3d9e8505	0.07740215
16	0xbd904586	-0.070445105
17	0xbd1822a7	-0.037142422
18	0x3db4b208	0.08823019
19	0xbe9edb3f	-0.31026646
20	0xbd121533	-0.03566475
21	0xbd832795	-0.06404034
22	0xbd5e5ef2	-0.054289766
23	0xbcf71753	-0.030162489
24	0xbe32e49d	-0.17470022
25	0xbd40efbf	-0.04710364
26	0xbde284ca	-0.11060484
27	0x3d316f13	0.04331882
28	0x3ca93b83	0.02065826
29	0x3c877039	0.016533004
30	0xbcd97d5c	-0.026549034
31	0x3e9948b7	0.2993829

nee_decoder.0.weight f4 [16, 32]
0	0xbd9fc4b3	-0.07801189
1	0x3ea046c4	0.3130399
2	0x3e3b5175	0.18292792
3	0x3e80b0b8	0.25134826
4	0x3e1ab7ca	0.15109172
5	0xbe7f084f	-0.24905513
6	0xbeba7b2b	-0.36422095
7	0xbd89148c	-0.06693372
8	0x3e060706	0.13088617
9	0xbd9fda70	-0.078053355
10	0xbc9ae1c0	-0.018906474
11	0xbde146fd	-0.10999868
12	0x3f048ee2	0.5178052
13	0xbe27593c	-0.16342634
14	0x3e09f0ee	0.13470814
15	0x3eb68a31	0.35652307
16	0x3e864b60	0.26229382
17	0xbe5d1edf	-0.21593808
18	0x3e3575a2	0.17720655
19	0xbd5ebf2e	-0.054381542
20	0xbcf97dff	-0.030455587
21	0xbea21d02	-0.31662756
22	0xbdbca101	-0.092103966
23	0xbe7f53a9	-0.24934258
24	0xbe9edc48	-0.31027436
25	0xbebadc23	-0.36496076
26	0x3e771e56	0.24132666
27	0xbea38fc0	-0.3194561
28	0xbcf507ec	-0.029911004
29	0x3e4d1a21	0.20029499
30	0xbe326c1d	-0.17424054
31	0x3d90936e	0.0705937
32	0x3e800ea1	0.2501116
33	0xbea880b8	-0.32910705
34	0xbdc893af	-0.097937934
35	0xbe97d22e	-0.29652542
36	0xbe83f0fa	-0.25769788
37	0xbe8e7fc4	-0.27831852
38	0x3e59e136	0.21277317
39	0x3c0031b6	0.007824352
40	0xbe7432e1	-0.23847534
41	0x3e13024d	0.14356346
42	0xbdb3609e	-0.08758663
43	0x3e7d9d7e	0.2476711
44	0x3e15b2ca	0.14618984
45	0x3e56bd38	0.20970619
46	0xbe584bda	-0.21122685
47	0x3e3a6982	0.1820431
48	0xbda34098	-0.07971305
49	0x3e91b910	0.28461504
50	0x3eadf6e6	0.3397743
51	0xbea5b72f	-0.3236632
52	0xbe6064e9	-0.21913494
53	0x3e47d201	0.19513704
54	0xbe0a2c4c	-0.1349346
55	0x3e04253c	0.12904829
56	0xbe0c7bc2	-0.13719085
57	0xbea65402	-0.32485968
58	0xbe8afe3a	-0.27147084
59	0xbd222796	-0.039588533
60	0x3e8137c2	0.25237852
61	0xbdd83d39	-0.10558552
62	0xbe31e314	-0.1737178
63	0xbddbe679	-0.107373185
64	0x3dadac41	0.084801205
65	0x3e9dea17	0.3084266
66	0x3ddb8df4	0.10720435
67	0xbe5f0309	-0.21778502
68	0x3e90af91	0.28258947
69	0x3ea8dd7c	0.3298148
70	0xbddcc959	-0.107805915
71	0xbe993ae0	-0.2992773
72	0xbe8dca2c	-0.27693307
73	0x3e0388b2	0.12845114
74	0x3de6c5d0	0.112681985
75	0xbdb51846	-0.088425204
76	0x3f13e9a9	0.5777841
77	0xbe639b1f	-0.22227143
78	0xbe3a5bb2	-0.18199041
79	0x3ea64648	0.32475495
80	0x3e770a7a	0.2412509
81	0xbc04b4a3	-0.008099708
82	0xbe857387	-0.26064703
83	0x3c87bc08	0.016569152
84	0x3e91b0f9	0.28455332
85	0x3e722197	0.23645626
86	0x3e3b3d7d	0.18285175
87	0xbe8cc445	-0.27493492
88	0xbe621202	-0.22077182
89	0x3e2be99b	0.16788332
90	0x3ec04ae0	0.37557125
91	0x3e5b89a1	0.2143922
92	0xbead5516	-0.33853978
93	0xbdbcb2e7	-0.092138104
94	0x3e92b829	0.28656128
95	0xbd3efb88	-0.046626598
96	0xbe59ca7f	-0.21268652
97	0xbe8bdcb5	-0.27316824
98	0x3e0f40fe	0.13989636
99	0xbe8c866f	-0.27446315
100	0xbe8a1904	-0.2697221
101	0xbca4509f	-0.020057974
102	0xbe08ed7b	-0.13371842
103	0x3ea97c1e	0.33102506
104	0xbe87a44c	-0.26492536
105	0x3e11857e	0.1421108
106	0x3ea80884	0.32818997
107	0x3e882ccd	0.2659668
108	0x3eb9cc7b	0.3628882
109	0x3d81d48b	0.063393675
110	0xbcd404eb	-0.025881251
111	0x3e5bf4cf	0.21480106
112	0xbe5bdc6e	-0.21470806
113	0x3d084643	0.03327013
114	0xbe27dc17	-0.16392551
115	0x3dc26e95	0.09493748
116	0xbe88876c	-0.2666582
117	0xbea27945	-0.31733146
118	0x3e7a083f	0.24417208
119	0xbdef8cfc	-0.116968125
120	0x3bd26f36	0.006421949
121	0x3dd8ee97	0.105923824
122	0x3e01a5ad	0.12660857
123	0xbe3dec4d	-0.18547173
124	0x3ec1b541	0.37833598
125	0x3e0a5982	0.13510707
126	0xbe1f0c9b	-0.15532152
127	0xbdad8ecc	-0.08474502
128	0x3e764761	0.24050666
129	0x3e1ec67b	0.15505402
130	0xbd3714af	-0.04469746
131	0x3e8cc46e	0.27493614
132	0xbe06d287	-0.13166247
133	0x3e06041a	0.13087502
134	0x3d834c92	0.06411089
135	0xbe42c2c8	-0.19019616
136	0x3eb56482	0.35428244
137	0x3d42fcbf	0.04760432
138	0xbea3f0c5	-0.3201963
139	0xbdb98e7f	-0.09060382
140	0x3e321844	0.17392069
141	0xbe06ea51	-0.13175322
142	0x3d8438de	0.06456159
143	0xbd1e4bdf	-0.038646575
144	0x3e4c0375	0.19923194
145	0xbea550ad	-0.32288113
146	0xbe47898b	-0.19486062
147	0x3e852673	0.26005897
148	0xbe95e671	-0.29277375
149	0xbe870e30	-0.26378012
150	0x3dbfc10c	0.09362993
151	0xbe8bbdc5	-0.2729322
152	0xbe608100	-0.2192421
153	0x3eb38239	0.3506029
154	0xbe04416b	-0.1291558
155	0xbe9ea4ef	-0.3098521
156	0x3e92fcf2	0.28708607
157	0xbe9d98fc	-0.3078078
158	0xbec0b3e8	-0.37637258
159	0x3e58afe5	0.21160848
160	0x3e9005f6	0.28129548
161	0x3e96c88f	0.2944989
162	0xba470ca4	-0.0007593131
163	0xbe862eb1	-0.26207498
164	0xbd3002e8	-0.04297152
165	0xbe6e4df9	-0.23271932
166	0xbc19dcbc	-0.009391006
167	0xbe1949df	-0.14969586
168	0x3ea57f10	0.32323503
169	0x3e885d20	0.2663355
170	0xbe8996b9	-0.26872805
171	0xbe8915a6	-0.2677433
172	0xbddc977b	-0.1077108
173	0x3e8504b4	0.2598015
174	0x3e1a5bf4	0.1507414
175	0xbe5cef43	-0.21575646
176	0xbcf7cdfe	-0.030249592
177	0x3e13f0c4	0.14447314
178	0x3e977dbe	0.2958812
179	0xbb6cf131	-0.0036154503
180	0xbdf8817f	-0.121340744
181	0x3de6e67a	0.11274429
182	0x3e889702	0.2667771
183	0x3eb4e7d3	0.35333118
184	0xbea2ee97	-0.31822655
185	0xbd7ad50c	-0.061238334
186	0x3e150f01	0.14556505
187	0xbe8ac887	-0.27106115
188	0xbe2e4e82	-0.17022136
189	0xbdf8ea6d	-0.12154088
190	0xbe210372	-0.1572397
191	0xbdea38c6	-0.1143661
192	0xbd1ede98	-0.0387865
193	0xbe248961	-0.16068031
194	0x3d10ae30	0.03532237
195	0xbe5fb445	-0.21846111
196	0x3eb1d717	0.34734413
197	0xbe9b5988	-0.30341744
198	0x3d933667	0.07188111
199	0x3e93fcdf	0.28903863
200	0x3e8b4a86	0.27205294
201	0x3e88cd8e	0.26719326
202	0x3e1fe80c	0.15615863
203	0x3ea0f9f6	0.31440705
204	0x3e5639e3	0.2092052
205	0x3c7d8ac3	0.015474978
206	0xbe9ac125	-0.30225483
207	0xbde8ea39	-0.113727994
208	0x3dbe5691	0.09293855
209	0x3dd036be	0.10166691
210	0x3da1c82b	0.07899507
211	0x3e709214	0.23493224
212	0xbe3fb749	-0.18722261
213	0x3e53de94	0.20690376
214	0x3cec2023	0.028823918
215	0xbc8d4464	-0.017244525
216	0x3dfb15be	0.12260006
217	0xbda9b4c8	-0.082864344
218	0x3da5610f	0.08075153
219	0x3e78590b	0.24252717
220	0x3e4c5538	0.19954383
221	0xbcfa104b	-0.030525347
222	0x3e1281b8	0.14307296
223	0x3e685238	0.22687614
224	0xbe8c1983	-0.27363214
225	0x3ce2a39d	0.027665908
226	0xbe3c1160	-0.18366003
227	0xbe921d15	-0.28537813
228	0x3e32279d	0.17397924
229	0xbe0afaaf	-0.1357219
230	0xbe47a9a8	-0.19498312
231	0xbea58116	-0.32325047
232	0x3e4b1a83	0.19834332
233	0xbe5ce025	-0.2156988
234	0x3e893efe	0.26805872
235	0xbd8822ff	-0.066473
236	0xbe43a5d5	-0.19106229
237	0xbe1d728b	-0.15375726
238	0xbbf69cf8	-0.0075260364
239	0xbe62197f	-0.22080038
240	0x3eb2dd40	0.34934425
241	0x3cf79ef9	0.030227171
242	0xbea3b827	-0.31976435
243	0xbe380ade	-0.17972896
244	0xbea40bb8	-0.3204019
245	0xbe61c9c5	-0.22049625
246	0x3e9993d5	0.299956
247	0x3e8c0e86	0.2735483
248	0xbe77d5e5	-0.24202688
249	0x3dfb96b6	0.12284605
250	0x3dba1448	0.090858996
251	0x3ea2c73e	0.31792635
252	0xbe6d60a5	-0.23181398
253	0xbe1dad44	-0.15398127
254	0x3e8e932d	0.2784666
255	0x3ea29fce	0.31762546

nee_decoder.0.bias f4 [16]
0	0xbe7d8143	-0.2475634
1	0x00000000	0.0
2	0xbe5a83cb	-0.21339338
3	0xbce3115a	-0.027718235
4	0x3dafd624	0.08585766
5	0x3e4070d6	0.18793043
6	0xbc544260	-0.012955278
7	0x00000000	0.0
8	0x00000000	0.0
9	0xbe441e49	-0.19152178
10	0xbc7186b2	-0.0147415865
11	0xbd441ad5	-0.04787715
12	0x3e62fef8	0.22167575
13	0xbd6fc546	-0.058537744
14	0xbe194a90	-0.1496985
15	0x3e2c5e53	0.16832857

nee_decoder.2.weight f4 [16, 16]
0	0x3e03cd48	0.12871277
1	0xbe57a9cc	-0.21060866
2	0x3dc2d7f3	0.09513845
3	0xbe0611b9	-0.13092698
4	0x3d7f23f6	0.062290154
5	0x3ea36c0e	0.31918377
6	0x3ed9e152	0.42554718
7	0x3e83dd1c	0.2575463
8	0xbeb4a1fe	-0.3527984
9	0xbe8841ca	-0.26612693
10	0xbe806ea7	-0.2508442
11	0xbe2a6af6	-0.16642365
12	0xbe65e24f	-0.22449611
13	0xbe7284ff	-0.23683546
14	0xbe5ca419	-0.21546973
15	0xbd5e7357	-0.054309215
16	0xbe43a6ef	-0.19106649
17	0xbeb5690d	-0.3543171
18	0x3dd0a175	0.101870455
19	0x3d680fad	0.056655575
20	0xbe8861cd	-0.26637116
21	0x3eb06ca1	0.34457877
22	0xbed0b095	-0.4075972
23	0x3e0874c2	0.1332579
24	0x3dc57d96	0.09643094
25	0x3ef316b1	0.4747825
26	0xbe5fa832	-0.21841505
27	0x3ebb1b76	0.3654439
28	0xbdff8b33	-0.12477722
29	0xbea4f0ed	-0.32215062
30	0x3df4f884	0.11961463
31	0xbe951777	-0.29119465
32	0xbe20f498	-0.15718305
33	0xbdf9352b	-0.12168344
34	0x3d04ba2d	0.032404114
35	0x3df83fc6	0.12121539
36	0x3e54aa90	0.2076819
37	0xbd447d6e	-0.04797118
38	0xbd4abf9c	-0.04949914
39	0xbec7c5b4	-0.39018023
40	0xbea54b97	-0.32284233
41	0xbc9dba0b	-0.019253751
42	0x3ec113b6	0.3771035
43	0xbe20b4bc	-0.15693945
44	0x3d33b79f	0.043876287
45	0x3ecb06be	0.3965358
46	0xbe12c2be	-0.14332101
47	0x3e3df1ad	0.18549223
48	0x3ea03cf0	0.31296492
49	0xbe6a9e84	-0.22912031
50	0x3ee88cbc	0.45419872
51	0xbea0f978	-0.3144033
52	0x3eb704b0	0.35745764
53	0xbd377a12	-0.04479415
54	0xbe0ae491	-0.13563754
55	0x3edb67cd	0.4285263
56	0xbe9d9ad1	-0.30782178
57	0x3ebdb6e4	0.37053597
58	0xbeabab10	-0.33528948
59	0x3e9dc726	0.30816
60	0xbe6bb2eb	-0.2301747
61	0x3daef74e	0.085432634
62	0xbe791ddc	-0.24327797
63	0x3d03bf33	0.032164764
64	0xbeb43dd5	-0.35203424
65	0xbd26ee14	-0.040754393
66	0x3e92d3c3	0.28677186
67	0xbea0628b	-0.31325182
68	0xbcc4e25a	-0.024033714
69	0xbdd66c7a	-0.10469909
70	0xbd8a7fad	-0.067626335
71	0x3e3ca799	0.18423308
72	0x3e5b9527	0.21443616
73	0x3e8d6144	0.2761327
74	0x3ea4e087	0.3220255
75	0xbe813bf8	-0.25241065
76	0x3e5211ee	0.20514652
77	0x3d4078c9	0.04699019
78	0xbeb272bd	-0.34853163
79	0x3dffb287	0.12485223
80	0xbeaa0ae7	-0.33211443
81	0xbe4f25ac	-0.20229214
82	0xbeb543b8	-0.35403228
83	0xbe42179c	-0.18954319
84	0xbe807f51	-0.25097135
85	0xbe88ec5f	-0.26742837
86	0x3e9906cd	0.29888
87	0x3eadfe1a	0.33982927
88	0xbc97fe6a	-0.018553931
89	0x3e223f75	0.1584452
90	0x3eac386d	0.336368
91	0xbe94ab9e	-0.29037184
92	0x3eb91d16	0.36155003
93	0x3ed8c091	0.42334417
94	0xbea2a35c	-0.31765258
95	0xbe673767	-0.22579728
96	0xbdd0a734	-0.101881415
97	0xbe687a67	-0.22702943
98	0x3e9fc9a8	0.3120854
99	0xbe1a1410	-0.15046716
100	0xbe1b10b9	-0.15143098
101	0xbe43d12d	-0.19122763
102	0xbda488da	-0.08033915
103	0xbdc6c638	-0.09705776
104	0x3d8194c0	0.063272
105	0x3ec01466	0.37515563
106	0x3e8e5a1b	0.2780312
107	0x3d4e7519	0.05040464
108	0xbdc943e2	-0.09827401
109	0xbe8569dd	-0.2605733
110	0x3ec25b84	0.37960446
111	0xbe2af57c	-0.16695207
112	0xbe8a822d	-0.2705244
113	0x3db6b5b5	0.089213766
114	0xbe614502	-0.2199898
115	0x3d4654e7	0.048420813
116	0xbe650a66	-0.22367248
117	0xbe972e4d	-0.29527512
118	0xbdeb80c3	-0.11499169
119	0x3d5b1421	0.053485993
120	0xbe6d081d	-0.23147626
121	0xbec4b115	-0.38416353
122	0xbe91b4a7	-0.2845814
123	0x3e161d6e	0.14659664
124	0xbe7f2a92	-0.24918583
125	0xbeb93e3c	-0.36180294
126	0xbdfdc2d6	-0.12390678
127	0x3e8c46d5	0.2739779
128	0xbe02f3d8	-0.12788332
129	0xbc6f710f	-0.014614358
130	0x3d56dba7	0.05245557
131	0xbe16de48	-0.14733231
132	0xbd7857ca	-0.060630597
133	0xbdc01e65	-0.09380797
134	0xbdfcc76b	-0.123427235
135	0x3d8a5035	0.067535795
136	0xbe0909a6	-0.13382587
137	0xbe9e22fb	-0.30886063
138	0xbd81469e	-0.06312297
139	0xbd5ca9a5	-0.053872723
140	0x3da6b21b	0.0813944
141	0xbe7154e9	-0.23567547
142	0xbe3becdc	-0.18352073
143	0xbe90718f	-0.28211638
144	0x3eac0ab7	0.33601925
145	0xbe993d5e	-0.29929632
146	0x3e080e77	0.13286768
147	0xbe14e118	-0.14538991
148	0xbdba5b21	-0.09099413
149	0x3e8507e5	0.25982586
150	0x3eb37b75	0.35055128
151	0x3e779006	0.24176034
152	0x3e7999ed	0.24375124
153	0x3c7c40cc	0.015396308
154	0x3d7e6932	0.06211204
155	0xbde2a1c5	-0.11066011
156	0x3d0df974	0.034661725
157	0xbdc79c4b	-0.097466074
158	0xbe32321a	-0.17401925
159	0x3d6dd766	0.058066748
160	0x3ec43de8	0.3832848
161	0x3e5bbb95	0.21458276
162	0xbd2081cb	-0.03918628
163	0x3e8af84f	0.2714257
164	0x3d864a6a	0.06557162
165	0xbdcc3a4e	-0.09972058
166	0x3e633661	0.22188713
167	0x3e407ad8	0.18796861
168	0x3d89045b	0.06690284
169	0x3e8e9cc3	0.27853975
170	0xbe7141cf	-0.2356026
171	0x3efd7801	0.49505618
172	0xbeb51e7b	-0.35374817
173	0x3d2abcce	0.041683964
174	0x3ed62a4e	0.4182915
175	0xbeb6ac5b	-0.35678372
176	0x3e9b2350	0.3030038
177	0xbe091e18	-0.13390386
178	0x3e36fdb3	0.17870216
179	0x3e815800	0.2526245
180	0x3e697afb	0.2280082
181	0xbe820fa8	-0.2540257
182	0xbe1ae7a4	-0.15127426
183	0xbe288913	-0.1645854
184	0xbd02f3a0	-0.03197062
185	0x3ef450ed	0.4771799
186	0x3e4a75c8	0.19771492
187	0x3ec5be88	0.38621926
188	0xbeaf6836	-0.34259194
189	0x3e189184	0.1489926
190	0xbd2429a2	-0.040078767
191	0x3d4290b4	0.04750128
192	0xbc2a1ea2	-0.01038328
193	0x3ea102e6	0.31447524
194	0x3e897cfa	0.26853162
195	0x3ea01d13	0.31272182
196	0xbe85ad91	-0.26108983
197	0x3ec70902	0.3887406
198	0x3d238a92	0.039927073
199	0xbe1d486e	-0.15359661
200	0x3e3a883f	0.18216036
201	0xbdc21f97	-0.094786815
202	0xbe1aab0a	-0.15104309
203	0xbe6d5d0b	-0.23180024
204	0x3e67db92	0.22642353
205	0xbd2337bc	-0.039848074
206	0x3e995953	0.2995096
207	0xbebef86a	-0.372989
208	0x3e9b8c72	0.3038059
209	0xbe71618d	-0.23572369
210	0x3dd5d8d1	0.10441745
211	0x3e11f22c	0.14252537
212	0xbe248cb3	-0.16069297
213	0x3d702f58	0.0586389
214	0xbd144f50	-0.03620845
215	0x3eb46699	0.35234526
216	0x3e84d050	0.2594018
217	0x3ee06f28	0.43834805
218	0x3e041087	0.1289693
219	0xbe95e925	-0.29279438
220	0xbdbb2d1d	-0.09139464
221	0x3ea3d9a2	0.32001978
222	0x3d8b61c6	0.06805758
223	0xbddc85d4	-0.10767713
224	0x3e36714f	0.17816661
225	0x3edaaa78	0.42708182
226	0xbec7ca6d	-0.39021626
227	0x3ecfbcca	0.40573722
228	0x3e8cbc4b	0.27487406
229	0xbebaed1e	-0.3650903
230	0xbddf4229	-0.10901291
231	0x3e81bb6e	0.2533831
232	0xbdf7788b	-0.120835386
233	0x3e09ff6f	0.13476346
234	0x3e9d00a8	0.30664563
235	0x3e3bc3a5	0.18336351
236	0x3e9089b8	0.2823007
237	0x3e33cb6e	0.17558071
238	0x3e365abf	0.17808054
239	0x3ec11fc0	0.37719536
240	0x3eb2282b	0.3479627
241	0x3eae1f9b	0.34008488
242	0x3ceb6ab5	0.028737405
243	0xbea7bec3	-0.32762727
244	0xbdb885a3	-0.09009864
245	0xbe8db7bb	-0.27679238
246	0xbeb3b45a	-0.35098535
247	0xbd972503	-0.07380106
248	0x3ddc9f3a	0.107725576
249	0xbebb1905	-0.36542526
250	0x3e67ac12	0.22624233
251	0x3e4492fa	0.19196692
252	0xbe6adbdb	-0.2293543
253	0xbe1e7bb8	-0.15476882
254	0xbdec6e71	-0.115445025
255	0x3db8ee99	0.09029884

nee_decoder.2.bias f4 [16]
0	0x00000000	0.0
1	0xbccd417f	-0.025055645
2	0xbd6382f8	-0.055544823
3	0x3ce75bec	0.028242074
4	0x00000000	0.0
5	0x00000000	0.0
6	0xbe3bc332	-0.1833618
7	0xbd819c5c	-0.06328651
8	0x00000000	0.0
9	0xbd8cab3b	-0.06868597
10	0xbe2f1828	-0.17099059
11	0xbe3d9cf2	-0.18516901
12	0x3e03b41f	0.1286168
13	0xbe5fcc07	-0.21855174
14	0x3e472e1b	0.19451182
15	0xbc95aaeb	-0.018269977

nee_decoder.4.weight f4 [1, 16]
0	0x3ef7b380	0.48379135
1	0xbe9a0c8d	-0.300877
2	0xbc1e7114	-0.009670515
3	0x3f33fb93	0.70305747
4	0xbf1693fe	-0.5881957
5	0x3ec64077	0.38721058
6	0xbefa19db	-0.4884785
7	0xbe380d92	-0.17973927
8	0xbeb0c0c6	-0.34522074
9	0xbb5b83ee	-0.0033495384
10	0xbebef9f2	-0.37300068
11	0xbf3229ce	-0.6959504
12	0x3ddbf4b0	0.1074003
13	0xbeb27d6d	-0.34861317
14	0x3ebe1dbc	0.3713206
15	0xbf06ae5a	-0.5260979

fc_mu.0.weight f4 [4, 32]
0	0x3e955322	0.29164988
1	0xbd1c6ad5	-0.03818782
2	0xbe32d668	-0.17464602
3	0xbd01f7e1	-0.031730536
4	0x3e4c6fd3	0.19964533
5	0x3dc67f7c	0.096922845
6	0x3e9aaccf	0.30209967
7	0xbe53c6ee	-0.20681354
8	0xbe51b9b4	-0.20480996
9	0xbdd32193	-0.10309138
10	0x3eb7887e	0.35846323
11	0xbec69910	-0.38788652
12	0xbe87cb31	-0.2652221
13	0xbe147fad	-0.1450183
14	0x3e897e9a	0.26854402
15	0x3ed03240	0.40663338
16	0xbdbd4dba	-0.09243341
17	0x3e2892fc	0.1646232
18	0x3e6a9298	0.22907484
19	0x3eafb485	0.34317413
20	0x3e71cea0	0.23613977
21	0x3e8c2a4c	0.2737602
22	0x3ea3549f	0.31900498
23	0x3e527a93	0.20554571
24	0x3e61b4f4	0.22041684
25	0x3e8cc5c5	0.27494636
26	0x3de0b4b6	0.10971968
27	0xbe98ca2d	-0.29841748
28	0xbeafe380	-0.34353256
29	0xbba563d7	-0.005047302
30	0xbbfdf247	-0.007749829
31	0x3e9423a0	0.2893343
32	0xbdb1a7e2	-0.08674599
33	0x3d03143a	0.03200171
34	0x3e701978	0.23447216
35	0x3ebf6a37	0.37385723
36	0x3d5aacb1	0.053387348
37	0x3ebbaa10	0.36653185
38	0x3d74e050	0.059784234
39	0xbdbdb72f	-0.09263455
40	0x3e6850d9	0.22687091
41	0xbec22b08	-0.37923455
42	0xbecd051e	-0.40042967
43	0x3c37a4db	0.011208738
44	0xbdf5f916	-0.120104
45	0x3e8dbcc5	0.27683082
46	0x3d8d2367	0.06891518
47	0x3e93c076	0.28857774
48	0xbe474187	-0.1945859
49	0x3e444be9	0.19169582
50	0xbe12ae18	-0.14324224
51	0xbe4f7cd4	-0.20262462
52	0xbe9d25a6	-0.30692786
53	0xbea64c01	-0.3247986
54	0x3e1f87c2	0.15579131
55	0xbdcc7a7e	-0.09984301
56	0x3e451473	0.19246082
57	0x3e4a6896	0.19766459
58	0xbea2bf94	-0.31786788
59	0xbe8c1479	-0.2735937
60	0x3e6e37af	0.23263429
61	0xbea5c8af	-0.32379672
62	0xbe96e365	-0.29470363
63	0xbe53eb46	-0.20695218
64	0x3ecf8e71	0.40538362
65	0xbe3e8c47	-0.18608199
66	0x3e7dd479	0.24788083
67	0xbecb1380	-0.39663315
68	0xbe8024c1	-0.2502804
69	0xbe60a230	-0.2193687
70	0x3d97ae1b	0.07406255
71	0x3ec0a7e7	0.376281
72	0xbe29f78d	-0.1659834
73	0x3eccd648	0.40007234
74	0xbeb3d290	-0.35121584
75	0xbeb447c2	-0.35210997
76	0x3eb431b6	0.35194176
77	0x3df277f6	0.11839287
78	0xbdc0d2bb	-0.09415194
79	0xbc1fb6ae	-0.009748144
80	0xbe681b85	-0.22666748
81	0xbe9a48bc	-0.30133617
82	0xbd06b031	-0.032882873
83	0x3e44cf1c	0.19219631
84	0xbe87b891	-0.26508
85	0x3e7d0dea	0.24712339
86	0xbe897e48	-0.26854157
87	0xbeb344c1	-0.35013393
88	0xbeb49214	-0.352677
89	0x3eb9a1f1	0.36256364
90	0x3ecd8048	0.40136933
91	0xbe3877e1	-0.1801448
92	0xbe028f3d	-0.12749954
93	0x3cea9c2a	0.028638918
94	0x3d0c6ca9	0.034283314
95	0x3e932499	0.2873886
96	0x3e13bbd8	0.14427125
97	0xbebcd92f	-0.36884448
98	0x3ec42c70	0.38315153
99	0xbe548b28	-0.20756209
100	0x3e9df067	0.30847475
101	0x3eaae4e5	0.33377758
102	0x3e72b7c0	0.23702908
103	0xbe731cba	-0.23741427
104	0x3e42d69e	0.19027182
105	0xbeb6671a	-0.35625535
106	0x3e91125e	0.28334326
107	0x3e970089	0.29492596
108	0xbe92ab2c	-0.2864622
109	0x3eaf6495	0.34256425
110	0xbe8bc422	-0.27298075
111	0x3eb6732a	0.35634738
112	0xbe813587	-0.2523615
113	0x3ec97cc3	0.39352998
114	0xbc5e9957	-0.013586364
115	0xbe5a621f	-0.21326493
116	0x3ea027a3	0.3128024
117	0xbe2dff49	-0.16991915
118	0x3eaa6a98	0.3328445
119	0xbeb18dd6	-0.34678525
120	0xbdf4f9c7	-0.11961704
121	0x3e7aa88f	0.24478363
122	0x3df65e62	0.12029721
123	0x3b5d73cf	0.003379095
124	0xbe0a9335	-0.13532718
125	0xbd5c9346	-0.05385139
126	0x3e07cf7c	0.13262743
127	0xbbf6c733	-0.0075310706

fc_mu.0.bias f4 [4]
0	0x00000000	0.0
1	0x00000000	0.0
2	0x00000000	0.0
3	0x00000000	0.0

fc_mu.2.weight f4 [1, 4]
0	0x3f1ab875	0.6043771
1	0x3dcbd1f8	0.09952158
2	0x3eb35787	0.35027716
3	0x3f72250d	0.94587785

fc_logvar.0.weight f4 [4, 32]
0	0x3e955322	0.29164988
1	0xbd1c6ad5	-0.03818782
2	0xbe32d668	-0.17464602
3	0xbd01f7e1	-0.031730536
4	0x3e4c6fd3	0.19964533
5	0x3dc67f7c	0.096922845
6	0x3e9aaccf	0.30209967
7	0xbe53c6ee	-0.20681354
8	0xbe51b9b4	-0.20480996
9	0xbdd32193	-0.10309138
10	0x3eb7887e	0.35846323
11	0xbec69910	-0.38788652
12	0xbe87cb31	-0.2652221
13	0xbe147fad	-0.1450183
14	0x3e897e9a	0.26854402
15	0x3ed03240	0.40663338
16	0xbdbd4dba	-0.09243341
17	0x3e2892fc	0.1646232
18	0x3e6a9298	0.22907484
19	0x3eafb485	0.34317413
20	0x3e71cea0	0.23613977
21	0x3e8c2a4c	0.2737602
22	0x3ea3549f	0.31900498
23	0x3e527a93	0.20554571
24	0x3e61b4f4	0.22041684
25	0x3e8cc5c5	0.27494636
26	0x3de0b4b6	0.10971968
27	0xbe98ca2d	-0.29841748
28	0xbeafe380	-0.34353256
29	0xbba563d7	-0.005047302
30	0xbbfdf247	-0.007749829
31	0x3e9423a0	0.2893343
32	0xbdb1a7e2	-0.08674599
33	0x3d03143a	0.03200171
34	0x3e701978	0.23447216
35	0x3ebf6a37	0.37385723
36	0x3d5aacb1	0.053387348
37	0x3ebbaa10	0.36653185
38	0x3d74e050	0.059784234
39	0xbdbdb72f	-0.09263455
40	0x3e6850d9	0.22687091
41	0xbec22b08	-0.37923455
42	0xbecd051e	-0.40042967
43	0x3c37a4db	0.011208738
44	0xbdf5f916	-0.120104
45	0x3e8dbcc5	0.27683082
46	0x3d8d2367	0.06891518
47	0x3e93c076	0.28857774
48	0xbe474187	-0.1945859
49	0x3e444be9	0.19169582
50	0xbe12ae18	-0.14324224
51	0xbe4f7cd4	-0.20262462
52	0xbe9d25a6	-0.30692786
53	0xbea64c01	-0.3247986
54	0x3e1f87c2	0.15579131
55	0xbdcc7a7e	-0.09984301
56	0x3e451473	0.19246082
57	0x3e4a6896	0.19766459
58	0xbea2bf94	-0.31786788
59	0xbe8c1479	-0.2735937
60	0x3e6e37af	0.23263429
61	0xbea5c8af	-0.32379672
62	0xbe96e365	-0.29470363
63	0xbe53eb46	-0.20695218
64	0x3ecf8e71	0.40538362
65	0xbe3e8c47	-0.18608199
66	0x3e7dd479	0.24788083
67	0xbecb1380	-0.39663315
68	0xbe8024c1	-0.2502804
69	0xbe60a230	-0.2193687
70	0x3d97ae1b	0.07406255
71	0x3ec0a7e7	0.376281
72	0xbe29f78d	-0.1659834
73	0x3eccd648	0.40007234
74	0xbeb3d290	-0.35121584
75	0xbeb447c2	-0.35210997
76	0x3eb431b6	0.35194176
77	0x3df277f6	0.11839287
78	0xbdc0d2bb	-0.09415194
79	0xbc1fb6ae	-0.009748144
80	0xbe681b85	-0.22666748
81	0xbe9a48bc	-0.30133617
82	0xbd06b031	-0.032882873
83	0x3e44cf1c	0.19219631
84	0xbe87b891	-0.26508
85	0x3e7d0dea	0.24712339
86	0xbe897e48	-0.26854157
87	0xbeb344c1	-0.35013393
88	0xbeb49214	-0.352677
89	0x3eb9a1f1	0.36256364
90	0x3ecd8048	0.40136933
91	0xbe3877e1	-0.1801448
92	0xbe028f3d	-0.12749954
93	0x3cea9c2a	0.028638918
94	0x3d0c6ca9	0.034283314
95	0x3e932499	0.2873886
96	0x3e13bbd8	0.14427125
97	0xbebcd92f	-0.36884448
98	0x3ec42c70	0.38315153
99	0xbe548b28	-0.20756209
100	0x3e9df067	0.30847475
101	0x3eaae4e5	0.33377758
102	0x3e72b7c0	0.23702908
103	0xbe731cba	-0.23741427
104	0x3e42d69e	0.19027182
105	0xbeb6671a	-0.35625535
106	0x3e91125e	0.28334326
107	0x3e970089	0.29492596
108	0xbe92ab2c	-0.2864622
109	0x3eaf6495	0.34256425
110	0xbe8bc422	-0.27298075
111	0x3eb6732a	0.35634738
112	0xbe813587	-0.2523615
113	0x3ec97cc3	0.39352998
114	0xbc5e9957	-0.013586364
115	0xbe5a621f	-0.21326493
116	0x3ea027a3	0.3128024
117	0xbe2dff49	-0.16991915
118	0x3eaa6a98	0.3328445
119	0xbeb18dd6	-0.34678525
120	0xbdf4f9c7	-0.11961704
121	0x3e7aa88f	0.24478363
122	0x3df65e62	0.12029721
123	0x3b5d73cf	0.003379095
124	0xbe0a9335	-0.13532718
125	0xbd5c9346	-0.05385139
126	0x3e07cf7c	0.13262743
127	0xbbf6c733	-0.0075310706

fc_logvar.0.bias f4 [4]
0	0x00000000	0.0
1	0x00000000	0.0
2	0x00000000	0.0
3	0x00000000	0.0

fc_logvar.2.weight f4 [1, 4]
0	0xbf79050a	-0.97273314
1	0x3f703682	0.9383317
2	0x3efd61f7	0.49488804
3	0xbe8d5c83	-0.27609643

temp_derivative_decoder.0.weight f4 [16, 32]
0	0x3eb19cac	0.34689844
1	0x3dfc023c	0.12305114
2	0x3e6dc166	0.23218307
3	0xbeae1590	-0.34000826
4	0xbe1b1eb2	-0.15148428
5	0xbdc15e1d	-0.09441779
6	0xbe7056cf	-0.23470615
7	0xbe3cb41c	-0.18428081
8	0xbd8a538e	-0.06754218
9	0x3e8f1689	0.2794688
10	0x3e3ba415	0.18324311
11	0xbe9b6389	-0.30349377
12	0xbe3c0f93	-0.18365316
13	0xbda58a25	-0.080829896
14	0x3b27c4f5	0.0025599573
15	0xbd0ecf69	-0.03486577
16	0xbd9cc93d	-0.07655571
17	0xbe800fa7	-0.25011942
18	0x3d2323a0	0.039828897
19	0xbe1e9e59	-0.15490092
20	0x3d80443a	0.06263013
21	0x3e908b3f	0.28231236
22	0x3df0f766	0.117659375
23	0xbdd839fa	-0.10557933
24	0xbe20f9c3	-0.15720277
25	0x3de58f01	0.112089165
26	0xbe993cbd	-0.29929152
27	0x3de9a711	0.114088185
28	0x3ea2a17b	0.31763825
29	0xbe3c7cca	-0.18406978
30	0xbe6d9f04	-0.23205191
31	0xbe1927a5	-0.1495653
32	0x3e62fb9d	0.22166295
33	0xbe16d640	-0.14730167
34	0xbd5a5d36	-0.05331155
35	0xbda22468	-0.079171
36	0x3e146103	0.14490132
37	0x3e2efafe	0.17087933
38	0xbe9868a3	-0.2976733
39	0x3d9ceb06	0.07662015
40	0xbd064257	-0.03277811
41	0x3e8b2748	0.27178407
42	0xbe8dc529	-0.27689484
43	0x3e7b525d	0.24543138
44	0x3df357dd	0.11881993
45	0xbe930414	-0.2871405
46	0xbe8146ce	-0.25249332
47	0x3d97f9f1	0.074207194
48	0xbe7ed5d6	-0.2488626
49	0x3e9da357	0.3078868
50	0x3e716d3b	0.23576824
51	0x3e798382	0.24366572
52	0x3e201ac8	0.15635216
53	0xbe894d21	-0.26816657
54	0xbdf5a25d	-0.11993859
55	0xbe513fca	-0.2043449
56	0xbe880d87	-0.2657282
57	0xbdd18a56	-0.102314636
58	0x3df53a1c	0.11973974
59	0x3e6837f5	0.22677596
60	0xbe622603	-0.22084813
61	0xbe81e09e	-0.25366682
62	0x3e5339b1	0.20627476
63	0xbead773d	-0.33880034
64	0xbd5b4e4a	-0.05354146
65	0x3ea4bc58	0.32174945
66	0xbcea856e	-0.028628077
67	0xbdc0283f	-0.09382676
68	0x3ea510cd	0.3223938
69	0x3e9399a0	0.28828144
70	0xbe7b5a43	-0.24546151
71	0xbe908378	-0.28225303
72	0xbd6a5c33	-0.057216834
73	0x3e232680	0.15932655
74	0xbdfabd95	-0.12243191
75	0xbe31d468	-0.17366183
76	0xbe89c1da	-0.2690571
77	0xbe6563f8	-0.22401416
78	0xbea43071	-0.32068208
79	0xbe9158b7	-0.28387997
80	0x3df3b31a	0.11899395
81	0x3e220adc	0.15824455
82	0xbc22328c	-0.009899747
83	0xbe89aacb	-0.26888117
84	0xbda1028f	-0.07861816
85	0x3ea649bf	0.3247814
86	0x3daac43c	0.0833821
87	0xbeab5b73	-0.33468208
88	0xbe4dfca4	-0.20115906
89	0x3d183973	0.037164163
90	0x3ea80c0e	0.32821697
91	0x3e9037b5	0.281675
92	0xbe1c1b60	-0.15244818
93	0xbe51d736	-0.20492253
94	0x3e6925ec	0.22768372
95	0x3e63edd5	0.22258694
96	0x3e8bcfce	0.2730698
97	0x3e3cbb50	0.18430829
98	0xbe27867d	-0.16359897
99	0xbd8f3fc0	-0.06994581
100	0x3db3a0ca	0.087709025
101	0x3dad2c09	0.08455665
102	0xbe7f5e82	-0.24938396
103	0x3e3bfe21	0.18358661
104	0x3e0d72fb	0.13813393
105	0x3e3b3191	0.18280627
106	0xbdbac443	-0.09119465
107	0xbdab3d98	-0.083613575
108	0xbe0d782a	-0.1381537
109	0xbe027c74	-0.12742788
110	0xbeadc1fa	-0.33937055
111	0x3e4796e2	0.19491151
112	0x3e86a4f0	0.26297712
113	0xbe240625	-0.16017969
114	0xbe29e9a4	-0.16593033
115	0xbe2104a0	-0.1572442
116	0xbea52435	-0.32254186
117	0x3d161eae	0.036650352
118	0x3e55f579	0.20894422
119	0xbe922eb4	-0.28551257
120	0xbe81c48a	-0.2534526
121	0x3e2bcae7	0.1677662
122	0x3d87cc1c	0.06630728
123	0xbddc7d8d	-0.107661344
124	0x3e8a1013	0.2696539
125	0xbe547ccc	-0.20750731
126	0x3e8f3b44	0.27974904
127	0x3eac87c0	0.3369732
128	0x3dfb80b3	0.12280407
129	0xbe96cb03	-0.2945176
130	0xbd009421	-0.031391267
131	0x3db04629	0.08607132
132	0xbe25b0c6	-0.16180715
133	0x3d1570e8	0.03648463
134	0xbe03fde2	-0.12889817
135	0xbca84672	-0.020541403
136	0x3d35263a	0.04422591
137	0x3dd4991a	0.10380764
138	0x3e8c9eb1	0.27464822
139	0x3e9742ec	0.29543245
140	0xbdddaab6	-0.10823576
141	0xbe5daf3e	-0.21648881
142	0xbe3cbf9a	-0.18432465
143	0x3e456f92	0.19280842
144	0xbe14ed3e	-0.14543626
145	0x3d442527	0.047886994
146	0xbe3ef1c3	-0.18646912
147	0x3d9a4466	0.07532577
148	0x3da602ff	0.0810604
149	0x3e62b3cf	0.22138904
150	0xbe41bfea	-0.18920866
151	0xbe7c030d	-0.24610539
152	0xbe02042e	-0.12696907
153	0x3d93f9be	0.07225369
154	0xbc12b627	-0.008954561
155	0x3e986e03	0.29771432
156	0xbe99492f	-0.29938647
157	0x3d625f61	0.05526674
158	0x3e87788e	0.26459163
159	0xbe3ee6a8	-0.18642676
160	0x3e123797	0.14279018
161	0x3e2bd1f7	0.16779314
162	0x3eaa9032	0.33313137
163	0x3e59cce5	0.21269567
164	0x3ddeb28d	0.108738996
165	0xbe89518c	-0.26820028
166	0x3c803a8c	0.015652917
167	0xbe7ac0b6	-0.24487576
168	0x3deeb031	0.116546996
169	0x3e08cf9e	0.1336045
170	0x3e203ab3	0.15647392
171	0xbcb7e183	-0.0224464
172	0xbe6c7199	-0.23090209
173	0xbd048181	-0.032350067
174	0xbe514806	-0.20437631
175	0xbcffe643	-0.031237727
176	0x3d598026	0.053100727
177	0x3e8be47e	0.27322763
178	0x3e92da99	0.28682402
179	0xbd62d385	-0.055377502
180	0x3d7ac62e	0.061224155
181	0x3e1b1976	0.15146431
182	0x3cae7483	0.021295791
183	0x3cf5d98a	0.030010957
184	0xbe72e4b1	-0.23720051
185	0xbe0b492f	-0.13602136
186	0x3e7a6ac4	0.2445479
187	0xbe161021	-0.1465459
188	0x3e535430	0.20637584
189	0xbdc57e2e	-0.096432075
190	0x3eb407fb	0.3516234
191	0xbe74e3e9	-0.23915066
192	0xbe894510	-0.26810503
193	0xbde2e735	-0.110792555
194	0x3e676d6d	0.22600336
195	0x3e54d0e9	0.20782818
196	0xbe3e322e	-0.1857383
197	0x3e81ba07	0.2533724
198	0x3e87a97e	0.264965
199	0xbdb69e3b	-0.08916899
200	0xbe8c675a	-0.274226
201	0x3ce3f240	0.027825475
202	0x3e9d72f5	0.30751768
203	0xbda42876	-0.0801553
204	0xbe86d87d	-0.26337042
205	0xbda9cbe3	-0.082908414
206	0xbeb0a4da	-0.34500772
207	0x3e8da385	0.27663818
208	0xbe102ae3	-0.1407886
209	0x3e2796d5	0.16366132
210	0x3e84d3fc	0.2594298
211	0xbe82f61c	-0.25578392
212	0xbded2d78	-0.11580938
213	0x3cfc9fa2	0.030837838
214	0x3e9c54d6	0.30533475
215	0xbe933cd4	-0.28757346
216	0x3de1c316	0.11023538
217	0xbe836e29	-0.25669983
218	0xbeb08e0a	-0.34483367
219	0x3e0f2a7b	0.13981049
220	0xbe91a6a0	-0.28447437
221	0xbe575f1b	-0.21032374
222	0x3da935e4	0.08262232
223	0xbe191a47	-0.1495143
224	0x3e657340	0.22407246
225	0x3e817336	0.2528321
226	0xbe87cf32	-0.26525265
227	0xbe557b7a	-0.20847884
228	0xbe7a7d0a	-0.24461761
229	0x3e914be9	0.28378227
230	0xbe92672f	-0.28594348
231	0x3e4748d9	0.19461383
232	0xbe855294	-0.26039565
233	0x3e99ad25	0.3001491
234	0x3de4c6ce	0.111707315
235	0xbe450acc	-0.192424
236	0x3ea473b8	0.32119536
237	0xbeb1bb1a	-0.3471306
238	0x3eb3fec9	0.35155323
239	0x3e6a2818	0.22866857
240	0x3d9c871f	0.0764296
241	0x3e43ab96	0.19108424
242	0x3e9ec60f	0.31010482
243	0x3e8cdc52	0.2751184
244	0x3e65e329	0.22449936
245	0x3e658ae5	0.22416265
246	0x3e3f3bff	0.1867523
247	0xbe077d2b	-0.13231342
248	0x3e2ae9a5	0.16690691
249	0xbeac13d0	-0.33608866
250	0x3e05186a	0.12997594
251	0xbeafe69f	-0.34355637
252	0x3c904c95	0.017614642
253	0x3e41ca4d	0.18924828
254	0x3e71cc78	0.23613155
255	0x3e93f847	0.28900358

temp_derivative_decoder.0.bias f4 [16]
0	0x00000000	0.0
1	0x00000000	0.0
2	0x00000000	0.0
3	0x00000000	0.0
4	0x00000000	0.0
5	0x00000000	0.0
6	0x00000000	0.0
7	0x00000000	0.0
8	0x00000000	0.0
9	0x00000000	0.0
10	0x00000000	0.0
11	0x00000000	0.0
12	0x00000000	0.0
13	0x00000000	0.0
14	0x00000000	0.0
15	0x00000000	0.0
