.archive/piae_sde/experiments/2024-11-25_17-38-12-135891/42/best_model.pth (torch, 25314 bytes, 28 tensors)

encoder.0.weight f4 [16, 18]
0.3960092 -0.31389186 -0.37599483 -0.12226324 -0.258273 0.11223869 0.18699315 -0.05352548
0.29477936 0.015918517 -0.12346761 -0.35857147 0.13351163 -0.39580557 -0.0014365352 0.06140224
-0.23526731 0.12620172 0.07791293 0.2845908 0.28646544 -0.37817293 -0.32757592 -0.126523
-0.2642472 0.15208088 -0.24650541 -0.2980462 0.09495509 0.2548848 -0.10847893 -0.4461447
0.03181672 0.21427791 0.3281577 0.03885842 0.3015635 -0.37048748 0.41237566 -0.29034224
-0.29712036 0.31749004 -0.071003266 0.26741332 -0.27080402 0.32827035 0.38647857 0.1312822
0.3477983 -0.31881225 -0.111614436 0.12287202 0.2373853 -0.22924761 0.266314 -0.13725828
-0.22322197 0.039792698 -0.33560017 -0.3855525 0.14463702 0.14408569 0.16254285 -0.05408922
-0.30722234 -0.33746904 0.40297785 -0.36418352 0.1266104 0.34118408 0.3209339 -0.26486477
-0.1354513 -0.33587095 0.26350564 -0.39422333 -0.38672388 -0.28044862 0.34266198 0.27229312
0.28147542 0.3223251 -0.19591919 -0.23427552 -0.25807235 0.13861021 0.16340676 0.08716998
-0.32317874 0.037317164 -0.22291374 -0.08260828 -0.06503284 0.02088139 -0.36833772 0.35858318
-0.17875478 0.13125613 0.2892883 0.16928114 0.2941931 0.23721434 0.30760297 0.08866221
0.26830718 -0.18259966 -0.22636001 0.20059237 0.1102237 -0.01575306 -0.3543446 0.13726829
0.2721108 -0.048500616 0.09651042 0.18701324 -0.41486615 -0.06911579 -0.15583648 -0.21471268
0.25675884 0.41650808 0.06702859 0.2614535 -0.31165278 0.07400775 -0.054330286 -0.25909102
0.08613517 0.13372347 -0.02029002 0.178386 0.20168611 0.3810338 0.02435164 0.014966838
-0.0060127056 0.057972953 -0.2723902 -0.051707804 -0.35523668 -0.29465917 -0.35782245 0.31153408
-0.23625883 -0.02873797 0.050074156 0.36586165 0.19581436 -0.29399222 0.4160375 -0.3927344
0.04945491 0.3786694 0.36948225 -0.10252814 -0.2751844 0.18962267 0.32899052 -0.22911017
-0.07163818 -0.26063856 0.15592937 0.0871661 0.20723295 -0.101284325 -0.40451148 -0.17790966
-0.3590632 -0.10220227 0.14816128 -0.3546893 -0.01860876 -0.4100019 -0.2986923 -0.2931171
-0.14203244 -0.21284728 0.06466111 0.25679916 0.316755 0.132359 -0.002779725 -0.074860476
0.2852382 -0.24059491 0.3036406 -0.40446198 -0.3135383 0.11143328 -0.17301992 0.07837545
0.36601937 0.19186564 0.4111652 -0.1779347 -0.20060283 -0.05333869 -0.092301846 -0.1861072
-0.036449037 0.3899158 -0.218845 0.22884905 0.18080729 0.23262979 0.1014367 -0.1663356
0.18464418 -0.20396961 -0.26573753 0.40441182 0.359912 -0.30259615 0.34121472 0.08810859
0.11550073 0.4121962 -0.029418623 -0.14032152 0.27054593 -0.11525017 -0.1005404 -0.17663805
0.42117926 0.20820995 -0.060634725 -0.015810927 0.024542727 -0.24246675 0.12567623 -0.32014328
-0.012257646 -0.07143254 -0.17252724 0.38953087 0.11864886 0.15994662 -0.2775228 0.066950224
0.11752945 0.21907356 -0.12295737 -0.08149446 -0.34106264 0.25531736 0.28142992 0.19605656
0.21349339 0.25160924 0.39597318 0.13757285 0.1516434 0.13213104 -0.23723017 0.10539814
00000000: b8c1 ca3e 6fb6 a0be 6582 c0be 2665 fabd
00000010: 5c3c 84be 66dd e53d 227b 3f3e 893d 5bbd
00000020: 52ed 963e 8d67 823c 96dc fcbd ae96 b7be
00000030: 46b7 083e 07a7 cabe 1f4a bcba ea80 7b3d
00000040: eae9 70be 063b 013e d090 9f3d e3b5 913e
00000050: 99ab 923e e29f c1be 08b8 a7be 3f8f 01be
00000060: 694b 87be 17bb 1b3e ea6b 7cbe 8399 98be
00000070: d077 c23d 4380 823e 342a debd 146d e4be
00000080: 4052 023d ab6b 5b3e 4904 a83e 022a 1f3d
00000090: 8866 9a3e 89b0 bdbe e722 d33e bda7 94be
000000a0: 2920 98be 0e8e a23e 296a 91bd 66ea 883e
000000b0: d3a6 8abe 0d13 a83e 85e0 c53e d76e 063e
000000c0: 9e12 b23e 5c3b a3be 1c96 e4bd 53a4 fb3d
000000d0: 2215 733e e3bf 6abe 4f5a 883e 6f8d 0cbe
000000e0: 4d94 64be abfd 223d c9d3 abbe 2367 c5be
000000f0: ba1b 143e 338b 133e a271 263e a88c 5dbd
00000100: 3f4c 9dbe bec8 acbe 1d53 ce3e 4376 babe
00000110: 28a6 013e aeaf ae3e 7351 a43e 5b9c 87be
00000120: bfb3 0abe 47f7 abbe 36ea 863e a4d7 c9be
00000130: ac00 c6be f696 8fbe 6471 af3e 016a 8b3e
00000140: 8c1d 903e cc07 a53e 0a9f 48be ece5 6fbe
00000150: 0f22 84be d6ef 0d3e 1a54 273e 2d86 b23d
00000160: af77 a5be e2d9 183d 8043 64be 882e a9bd
00000170: f02f 85bd 730f ab3c c396 bcbe 3798 b73e
00000180: 7e0b 37be 0268 063e 991d 943e 0958 2d3e
00000190: 7aa0 963e 51e8 723e 237e 9d3e 8894 b53d
000001a0: 8f5f 893e 68fb 3abe ebca 67be 1668 4d3e
000001b0: f7bc e13d 900c 81bc a86c b5be 0f90 0c3e
000001c0: 1b52 8b3e 95a8 46bd 41a7 c53d 6680 3f3e
000001d0: 5669 d4be 948c 8dbd 9993 1fbe a4dd 5bbe
000001e0: e575 833e 8c40 d53e 4946 893d 3cdd 853e
000001f0: f490 9fbe 6091 973d 6f89 5ebd 94a7 84be
00000200: a367 b03d ceee 083e 4237 a6bc d2aa 363e
00000210: ce86 4e3e dd16 c33e 177d c73c 7837 753c
00000220: 3b06 c5bb 0c75 6d3d ba76 8bbe 90cb 53bd
00000230: 95e1 b5be 91dd 96be 8134 b7be 6581 9f3e
00000240: d6ed 71be e46b ebbc 8f1a 4d3d 3852 bb3e
00000250: 8f83 483e 2686 96be de02 d53e 7c14 c9be
00000260: 3b91 4a3d f5e0 c13e c72c bd3e 46fa d1bd
00000270: f8e4 8cbe 722c 423e 7271 a83e db9b 6abe
00000280: 0ab7 92bd 6b72 85be f3ab 1f3e 2484 b23d
00000290: e034 543e 286e cfbd 211c cfbe f32d 36be
000002a0: 22d7 b7be 6c4f d1bd 97b7 173e d699 b5be
000002b0: 6671 98bc c5eb d1be 32ee 98be 7213 96be
000002c0: f470 11be a3f4 59be 0b6d 843d 2e7b 833e
000002d0: b62d a23e 1e89 073e 0c2c 36bb 7350 99bd
000002e0: be0a 923e 835e 76be c876 9b3e a415 cfbe
000002f0: 1888 a0be 2237 e43d 222c 31be 4f83 a03d
00000300: e466 bb3e 6d78 443e 3f84 d23e 8434 36be
00000310: d46a 4dbe ac79 5abd c008 bdbd e392 3ebe
00000320: 964b 15bd 0ba3 c73e e718 60be 6857 6a3e
00000330: 8c25 393e 8136 6e3e 0bbe cf3d e153 2abe
00000340: 5d13 3d3e 69dd 50be c00e 88be 110f cf3e
00000350: 6346 b83e e2ed 9abe b2b3 ae3e 4772 b43d
00000360: a68b ec3d 610b d33e 53ff f0bc 72b0 0fbe
00000370: ff84 8a3e 4808 ecbd 20e8 cdbd 9be0 34be
00000380: cfa4 d73e fd34 553e 1e5c 78bd eb85 81bc
00000390: d40d c93c 3449 78be 45b1 003e d2e9 a3be
000003a0: 4bd4 48bc 394b 92bd fbaa 30be 9770 c73e
000003b0: 2cfe f23d 0cc9 233e 7817 8ebe 331d 893d
000003c0: 48b3 f03d d254 603e 13d1 fbbd 91e6 a6bd
000003d0: c39f aebe f5b8 823e 9517 903e 0dc3 483e
000003e0: 039e 5a3e edd2 803e ffbc ca3e e6df 0c3e
000003f0: 6848 1b3e 5c4d 073e 77ec 72be fbda d73d

encoder.0.bias f4 [16]
0.0 -0.02774724 -0.015779492 0.0 0.0 0.0 0.0 0.0
-0.0051634763 0.0009999998 0.0 0.010083631 0.0074668787 0.0 0.0 0.0
00000000: 0000 0000 2e4e e3bc fe43 81bc 0000 0000
00000010: 0000 0000 0000 0000 0000 0000 0000 0000
00000020: 6132 a9bb 6d12 833a 0000 0000 d035 253c
00000030: b8ac f43b 0000 0000 0000 0000 0000 0000

encoder.2.weight f4 [16, 16]
0.27559063 -0.09444552 0.09100448 0.35000467 -0.39904714 0.12389011 -0.39145344 0.32057598
0.12198271 0.048181094 -0.17346987 0.16326106 -0.23212542 0.082773656 0.36363688 -0.32502025
-0.12354906 0.10113789 0.07516164 0.0059547317 0.37252948 -0.11252424 0.111696534 0.22948086
-0.089121096 0.28294468 0.2828005 0.19282039 -0.12018924 0.37611896 -0.2502044 0.13382937
0.086944744 0.3056322 -0.35492533 0.075489685 -0.24936786 0.22951044 0.14869373 -0.33683407
-0.021945972 0.12112854 0.18445918 0.3852243 0.18888588 0.08257988 0.23098376 -0.40973607
0.28870168 -0.056047473 0.23993124 0.11886255 -0.022835067 0.30480212 -0.2524279 0.122110225
0.1898222 -0.15922135 0.15686616 -0.43345043 -0.2250661 0.20539606 0.22318329 -0.40259913
0.1498519 0.040715523 0.4226831 -0.422354 -0.103202134 -0.24523157 -0.26347888 -0.0707226
-0.39280796 0.33924478 -0.15320022 0.15172423 -0.25842708 0.0023348366 -0.30676055 0.34852418
0.36519283 0.34090665 -0.15158656 0.2695015 -0.36178324 0.19868375 -0.053448312 -0.35882628
-0.3526784 -0.40520832 0.08114275 -0.15661535 -0.2100052 0.41223004 -0.13192855 0.14605401
-0.076228715 0.26114088 0.12921777 0.2742094 0.11306764 -0.09490266 0.3827096 -0.030869998
-0.2592202 0.13375016 -0.052544408 -0.32113576 0.06323808 -0.10061014 -0.17243935 -0.20666227
-0.18427299 -0.18493307 0.032916963 0.40873328 -0.25380397 -0.202009 -0.2902687 -0.016430939
0.030360207 -0.30665946 0.19778703 -0.3979884 0.40078032 0.07191615 -0.043641347 -0.16466476
0.19442265 0.31620055 -0.28322858 -0.10853796 0.31876484 -0.08114956 -0.31884468 -0.13915549
0.020121042 -0.08083768 -0.29674184 -0.27127904 0.13126138 0.29710737 0.3939208 -0.048943147
0.16660303 -0.3439078 0.23073821 0.41376588 0.22548926 -0.17120482 0.3530435 -0.41009665
-0.057123557 -0.10729007 -0.43191564 -0.24702327 -0.31238213 0.11638123 -0.03601818 0.19887128
-0.097408146 0.35718346 0.049046542 0.35894233 0.35162717 -0.36721718 -0.29079872 0.26081514
0.40393466 -0.36958274 0.0063375393 -0.16647652 0.3953919 0.35971394 0.3151478 0.23302303
-0.040617034 0.39955726 -0.20262833 0.021401294 -0.113933034 -0.31588528 -0.20519891 0.10498821
-0.043797355 -0.28684956 -0.055049486 0.07478389 -0.3076048 0.2615119 -0.36814216 0.004142797
-0.35421434 -0.39047113 -0.053789515 0.39299154 0.40934563 0.15562849 0.33562768 -0.23670584
0.24378309 0.2642093 -0.4138302 -0.3318312 0.18707106 0.040012985 -0.29309765 -0.34170014
0.3129509 0.047302898 -0.0009583093 -0.41859984 0.3799223 -0.2862473 0.19294505 -0.052066933
0.014110039 0.2126137 -0.115349926 -0.12147996 0.34519073 -0.33180904 0.19269438 -0.11174789
-0.14468323 0.28986612 0.07310338 -0.40314132 0.38695017 -0.21486217 0.3743332 -0.13589853
0.42220426 0.12773944 -0.020917932 0.16529526 -0.021835752 -0.21476725 0.23686188 0.2808606
-0.05424727 0.40730026 0.027498856 -0.2290007 -0.23596996 0.29134357 -0.17540802 0.27349398
-0.4154622 0.01491602 -0.29918823 0.15359971 0.36459205 0.17039564 -0.1488813 -0.40621385
00000000: 371a 8d3e a76c c1bd 8f60 ba3d d033 b33e
00000010: e84f ccbe 19ba fd3d 966c c8be 8922 a43e
00000020: 12d2 f93d 8a59 453d 16a2 31be e82d 273e
00000030: 49b2 6dbe 3c85 a93d 9d2e ba3e 0e69 a6be
00000040: 4a07 fdbd 6221 cf3d 59ee 993d e91f c33b
00000050: 2fbc be3e 1c73 e6bd 27c1 e43d 08fd 6a3e
00000060: 1f85 b6bd 20de 903e 3acb 903e b572 453e
00000070: c725 f6bd aa92 c03e cb1a 80be 910a 093e
00000080: 1610 b23d d37b 9c3e c6b8 b5be 569a 9a3d
00000090: 4a5a 7fbe c904 6b3e 2b43 183e 8475 acbe
000000a0: 0ac8 b3bc 3d12 f83d dee2 3c3e 1f3c c53e
000000b0: 4d6b 413e a41f a93d 0287 6c3e edc8 d1be
000000c0: b5d0 933e 0992 65bd 89b0 753e 356e f33d
000000d0: 9b10 bbbc 060f 9c3e 3b3e 81be ed14 fa3d
000000e0: c060 423e ec0a 23be 86a1 203e 37ed ddbe
000000f0: ba77 66be 5853 523e 298a 643e 7921 cebe
00000100: c772 193e 52c5 263d eb69 d83e c93e d8be
00000110: a45b d3bd fc1d 7bbe b4e6 86be 03d7 90bd
00000120: 201e c9be 7eb1 ad3e 85e0 1cbe 995d 1b3e
00000130: 8e50 84be 0f04 193b b80f 9dbe c371 b23e
00000140: 8efa ba3e 518b ae3e 8239 1bbe 1afc 893e
00000150: a73b b9be c173 4b3e 9eec 5abd 14b8 b7be
00000160: 4392 b4be 7777 cfbe 2c2e a63d c65f 20be
00000170: 9a0b 57be d10f d33e 4718 07be 2f8f 153e
00000180: cd1d 9cbd 42b4 853e aa51 043e 2d65 8c3e
00000190: 0290 e73d 535c c2bd 83f2 c33e 14e3 fcbc
000001a0: 83b8 84be cdf5 083e ce38 57bd e86b a4be
000001b0: f782 813d b00c cebd f193 30be 469f 53be
000001c0: 0fb2 3cbe 185f 3dbe f0d3 063d 7d45 d13e
000001d0: 98f2 81be 73db 4ebe 199e 94be 2d9a 86bc
000001e0: f8b5 f83c 7802 9dbe af88 4a3e 23c5 cbbe
000001f0: 1433 cd3e c648 933d 45c1 32bd e19d 28be
00000200: bb16 473e 0ae5 a13e 5603 91be 2649 debd
00000210: 2535 a33e be31 a6bd 9c3f a3be c77e 0ebe
00000220: e2d4 a43c 3a8e a5bd 8cee 97be 16e5 8abe
00000230: 6269 063e 751e 983e fdaf c93e 9c78 48bd
00000240: fc99 2a3e af14 b0be a346 6c3e 1fd9 d33e
00000250: a8e6 663e 5150 2fbe 1ec2 b43e 30f8 d1be
00000260: 64fa 69bd e5ba dbbd 0c24 ddbe abf3 7cbe
00000270: 8df0 9fbe 4859 ee3d cd87 13bd eaa4 4b3e
00000280: ec7d c7bd c0e0 b63e 07e5 483d 4ac7 b73e
00000290: 7a08 b43e e403 bcbe 92e3 94be 9089 853e
000002a0: 86d0 ce3e f339 bdbe 22ab cf3b d278 2abe
000002b0: cf70 ca3e 6d2c b83e 0d5b a13e 979d 6e3e
000002c0: 0c5e 26bd c592 cc3e cd7d 4fbe c451 af3c
000002d0: b955 e9bd b7bb a1be aa1f 52be 0f04 d73d
000002e0: db64 33bd f2dd 92be 927b 61bd 4c28 993d
000002f0: 607e 9dbe e3e4 853e 217d bcbe 4dc0 873b
00000300: 955b b5be d5eb c7be 6552 5cbd 3036 c93e
00000310: c095 d13e 135d 1f3e 64d7 ab3e 0463 72be
00000320: 46a2 793e 7146 873e 8de1 d3be c7e5 a9be
00000330: 8e8f 3f3e a8e4 233d e510 96be 52f3 aebe
00000340: 1a3b a03e afc0 413d 0c37 7bba b852 d6be
00000350: 2d85 c23e 028f 92be 6393 453e 2344 55bd
00000360: cb2d 673c 68b7 593e 953c ecbd 7cca f8bd
00000370: d7bc b03e e0e2 a9be ad51 453e 14dc e4bd
00000380: d727 14be 5569 943e 3ab7 953d 8a68 cebe
00000390: 551e c63e d404 5cbe 9aa8 bf3e fc28 0bbe
000003a0: 282b d83e 21ce 023e 155c abbc 2943 293e
000003b0: e4e0 b2bc f2eb 5bbe ec8b 723e f6cc 8f3e
000003c0: 6332 5ebd a989 d03e 4845 e13c 297f 6abe
000003d0: 1ca2 71be fc2a 953e 299e 33be 6707 8c3e
000003e0: 76b7 d4be 5362 743c 332f 99be 3e49 1d3e
000003f0: cfab ba3e 327c 2e3e 5774 18be 43fb cfbe

encoder.2.bias f4 [16]
-0.001 0.0 0.0009999999 -0.005141296 0.0009999998 -0.0009999999 -0.007641038 -0.009548098
0.0009999999 -0.0009999999 -0.0009999999 0.0 0.0 0.0 -0.0049584224 0.0
00000000: 6f12 83ba 0000 0000 6e12 833a 5178 a8bb
00000010: 6d12 833a 6e12 83ba ac61 fabb a06f 1cbc
00000020: 6e12 833a 6e12 83ba 6e12 83ba 0000 0000
00000030: 0000 0000 0000 0000 437a a2bb 0000 0000

encoder.4.weight f4 [32, 16]
-0.16751365 -0.20853172 0.3376143 -0.19522178 0.13670263 0.28382057 0.12746231 -0.31732738
-0.040162195 -0.10493398 0.22779875 -0.03316472 -0.018647999 0.3145109 0.08413228 0.16389126
-0.11381208 0.2312147 0.050834283 -0.065865606 0.06813443 -0.2782977 0.013000153 0.17099248
-0.3310624 -0.1878005 0.22150879 0.00801789 -0.01204283 0.036079682 -0.1586817 0.29236135
-0.035055768 -0.12873228 0.18610686 -0.2994336 -0.06521416 0.035634063 -0.109722614 0.18356317
-0.30193427 -0.101927176 -0.14859773 0.32715467 0.1410979 -0.26373768 0.13702479 -0.00749784
0.323652 0.19511357 -0.20648496 0.32030827 -0.06323494 -0.080507435 0.10572225 0.36013147
0.106677294 -0.34113076 -0.11286311 0.3292242 -0.12461091 -0.1700927 -0.28181276 -0.19516616
-0.19330361 0.08443809 0.1412536 0.3322697 0.23202594 0.0052241017 0.1906699 0.19328026
-0.30494863 0.17840132 -0.24185434 0.27301985 -0.15377568 0.07335802 -0.0037619434 0.16402875
0.054991774 -0.25646585 0.14322118 0.20340358 -0.184118 -0.22935244 -0.24074663 -0.18096904
-0.044574592 0.026435345 -0.0024936604 -0.093511045 0.21940048 0.018684372 -0.20529169 -0.0935679
-0.20786636 -0.12472892 -0.33350855 0.06692914 -0.27394617 0.13674225 0.24219812 -0.25422266
-0.18658122 -0.27935547 0.09435301 0.06841082 -0.18248573 0.21357481 0.14670585 -0.3194491
-0.019231522 -0.15220095 -0.061302673 0.19170731 -0.0380283 -0.24554767 0.24870168 -0.33197063
-0.12142191 0.13622889 0.31250197 0.3431386 -0.08305685 0.117979564 -0.3105017 -0.068794526
-0.10997508 0.10036454 -0.23164907 0.07123124 0.18265803 0.2755409 -0.05978147 0.31419644
-0.33403936 -0.100187905 0.13403735 0.09066044 0.16650158 -0.23460925 0.21769428 -0.33181855
-0.24242386 -0.024044523 -0.34347957 -0.3309103 -0.31386083 0.28425297 0.0775537 -0.10402905
-0.014530632 -0.3081637 -0.3339137 -0.24656075 -0.34204113 0.23260723 -0.12371929 -0.09543968
-0.30446094 0.05855588 -0.053045094 -0.24584499 0.2266845 0.29801357 -0.25200558 0.19162995
-0.057408895 -0.0033379039 0.1504895 -0.06445905 0.3003943 0.21752933 -0.22950278 -0.21515933
-0.3503007 0.11319577 -0.2659382 -0.29119506 -0.2266161 -0.34954825 -0.2878784 0.32380998
0.19748975 0.3132575 -0.17150205 -0.14501044 -0.12405052 0.006905087 -0.2537684 0.051831644
-0.22659194 0.055868555 0.32385403 0.05456107 0.25789744 -0.25180393 -0.049894787 -0.22715725
-0.03922565 -0.14064243 -0.2007435 -0.34151158 -0.13109507 0.047347303 -0.062197283 -0.32928023
0.26558167 0.2621552 -0.21315777 0.04109143 0.23476262 -0.33575135 -0.3123998 0.20489018
-0.00700253 0.11258485 -0.14702691 0.064102955 0.23449102 -0.08649595 -0.11419967 -0.3366497
-0.05455623 0.2240346 -0.33413228 -0.022157688 0.25771734 -0.10090933 -0.13062678 -0.09782541
-0.14324465 0.042315476 -0.3404026 0.1351059 -0.089291975 -0.045013886 -0.023853935 0.19750713
-0.21961483 -0.32172784 -0.25574255 -0.25421023 -0.17213401 0.27924195 -0.27351424 -0.1990128
-0.28821802 -0.17761213 -0.009925372 -0.21558471 0.0037370767 0.11947944 -0.060153034 0.15254411
00000000: b388 2bbe 5789 55be c8db ac3e 38e8 47be
00000010: c6fb 0b3e ee50 913e 7b85 023e bc78 a2be
00000020: 1d81 24bd a0e7 d6bd 1344 693e bbd7 07bd
00000030: b0c3 98bc 9307 a13e 8b4d ac3d 1cd3 273e
00000040: 4f16 e9bd 8cc3 6c3e 9c37 503d 8ce4 86bd
00000050: 108a 8b3d 097d 8ebe 98fe 543c a718 2f3e
00000060: 0381 a9be c64e 40be 33d3 623e 785d 033c
00000070: 4a4f 45bc 4ac8 133d 757d 22be 63b0 953e
00000080: a396 0fbd 65d2 03be cc92 3e3e 5c4f 99be
00000090: 008f 85bd 06f5 113d 40b6 e0bd fcf7 3b3e
000000a0: 2197 9abe 32bf d0bd 012a 18be d180 a73e
000000b0: f87b 103e a008 87be 3a50 0c3e 71b0 f5bb
000000c0: b7b5 a53e dacb 473e cb70 53be 72ff a33e
000000d0: 5281 81bd 15e1 a4bd e884 d83d 2763 b83e
000000e0: a079 da3d b1a8 aebe c624 e7bd 1390 a83e
000000f0: 0134 ffbd c82c 2ebe c349 90be a3d9 47be
00000100: 62f1 45be e1ed ac3d c9a4 103e 411f aa3e
00000110: 3598 6d3e f12e ab3b f83e 433e 43eb 453e
00000120: 3a22 9cbe d6ae 363e aaa8 77be 42c9 8b3e
00000130: 5f77 1dbe bb3c 963d f08a 76bb 27f7 273e
00000140: 0e3f 613d 7e4f 83be 93a8 123e 0749 503e
00000150: 6e89 3cbe 5edb 6abe 4986 76be f34f 39be
00000160: d993 36bd f08e d83c ae6c 23bb b882 bfbd
00000170: 85aa 603e f80f 993c fc37 52be 87a0 bfbd
00000180: ebda 54be e071 ffbd a2c1 aabe 2512 893d
00000190: ac42 8cbe 2906 0c3e c902 783e 7929 82be
000001a0: 260f 3fbe ae07 8fbe 273c c13d f91a 8c3d
000001b0: 8add 3abe 5bb3 5a3e 0f3a 163e d58e a3be
000001c0: 6d8b 9dbc 91da 1bbe 8318 7bbd ec4e 443e
000001d0: 90c3 1bbd d970 7bbe a7ab 7e3e 0ef8 a9be
000001e0: 0dac f8bd 967f 0b3e 4200 a03e ddaf af3e
000001f0: b619 aabd 459f f13d 14fa 9ebe 25e4 8cbd
00000200: 9d3a e1bd ed8b cd3d 6a35 6dbe afe1 913d
00000210: b50a 3b3e b213 8d3e 6add 74bd 5bde a03e
00000220: 3507 abbe 512f cdbd 1641 093e 2eac b93d
00000230: 647f 2a3e 683d 70be 40eb 5e3e 1fe4 a9be
00000240: f63d 78be 05f9 c4bc 8edc afbe 136d a9be
00000250: 5eb2 a0be 9b89 913e 79d4 9e3d 2f0d d5bd
00000260: e311 6ebc a2c7 9dbe bdf6 aabe 6c7a 7cbe
00000270: 0420 afbe 9730 6e3e 8a60 fdbd e175 c3bd
00000280: 4ee2 9bbe 4ad8 6f3d d045 59bd cabe 7bbe
00000290: fb1f 683e 3c95 983e e006 81be a43a 443e
000002a0: 9725 6bbd bcc0 5abb eb19 1a3e 1b03 84bd
000002b0: 48cd 993e 02c0 5e3e c702 6bbe ba52 5cbe
000002c0: 9d5a b3be 2fd3 e73d 0d29 88be 8517 95be
000002d0: 0d0e 68be fdf7 b2be cc64 93be 6cca a53e
000002e0: c13a 4a3e 4963 a03e 3c9e 2fbe 9e7d 14be
000002f0: 330e febd 1144 e23b efed 81be 6b4d 543d
00000300: b807 68be 6dd6 643d 32d0 a53e 6e7b 5f3d
00000310: 220b 843e 72ec 80be 7a5e 4cbd e99b 68be
00000320: 13ab 20bd 9204 10be b48f 4dbe 9bda aebe
00000330: c93d 06be 3fef 413d 94c2 7ebd 6b97 a8be
00000340: 52fa 873e 3539 863e 0846 5abe 7d4f 283d
00000350: 9d65 703e 9ae7 abbe def2 9fbe bbce 513e
00000360: 7b75 e5bb e392 e63d 398e 16be 6948 833d
00000370: 6a1e 703e ca24 b1bd 84e1 e9bd 595d acbe
00000380: 5a76 5fbd 5469 653e 6313 abbe 0a84 b5bc
00000390: 87f3 833e 8da9 cebd 07c3 05be b058 c8bd
000003a0: baae 12be fe52 2d3d 4049 aebe 3359 0a3e
000003b0: b6de b6bd 7b60 38bd 5469 c3bc 4f3f 4a3e
000003c0: b6e2 60be 83b9 a4be b0f0 82be d827 82be
000003d0: e643 30be cdf8 8e3e 0f0a 8cbe 03ca 4bbe
000003e0: 5091 93be f4df 35be 079e 22bc 3dc2 5cbe
000003f0: bee9 743b a3b1 f43d 0763 76bd 8634 1c3e

encoder.4.bias f4 [32]
0.0 0.001 -0.001 -0.0009999998 0.0 0.0 0.0 0.0
0.0 0.0009999998 -0.0009999999 -0.0009999998 0.0 0.0 0.0 0.0
-0.0009999998 0.0 0.0009999999 0.0 -0.001 0.0 0.0 0.0
0.0 -0.0009999999 0.0 -0.0009999998 0.0009999999 0.0 0.0 0.0009999999
00000000: 0000 0000 6f12 833a 6f12 83ba 6d12 83ba
00000010: 0000 0000 0000 0000 0000 0000 0000 0000
00000020: 0000 0000 6d12 833a 6e12 83ba 6d12 83ba
00000030: 0000 0000 0000 0000 0000 0000 0000 0000
00000040: 6d12 83ba 0000 0000 6e12 833a 0000 0000
00000050: 6f12 83ba 0000 0000 0000 0000 0000 0000
00000060: 0000 0000 6e12 83ba 0000 0000 6d12 83ba
00000070: 6e12 833a 0000 0000 0000 0000 6e12 833a

nee_decoder.0.weight f4 [16, 32]
-0.009608356 -0.038418543 0.2701997 -0.33216676 0.019149698 -0.099993184 0.041981634 0.3275164
-0.002026345 -0.048848737 -0.132251 -0.34033453 -0.3078316 0.16669333 -0.20323877 0.21322419
-0.112693 0.14006679 0.27033404 0.06425403 0.13390483 0.31186095 -0.12355344 0.2721656
-0.28502378 0.31111825 -0.12843055 -0.025754781 0.18668291 0.038380343 0.3216254 -0.14276116
-0.2088422 0.30172116 -0.19982815 0.22900681 0.3267319 0.25320593 -0.119681604 -0.019283768
-0.33236983 -0.17858118 -0.08703271 -0.21963796 0.21796617 0.1994468 -0.086872704 -0.041650772
0.3276172 -0.0078101335 0.3139586 0.34153888 -0.110031866 -0.32278967 0.31584787 -0.17663297
0.35190845 -0.24001272 0.050312277 0.09065535 -0.09612928 0.28953865 -0.30665696 -0.13271771
-0.066036515 0.26041725 0.17364119 0.21690647 0.14184754 0.3283235 -0.07764875 -0.119390585
-0.058785096 0.14943406 -0.11394203 0.14022426 0.10726278 0.09361055 0.2985382 0.06669464
0.2242821 -0.08818012 -0.30765232 0.22650161 0.15701681 0.3079752 0.124784924 0.017091457
-0.24507627 -0.34571025 0.06061309 0.2780917 -0.036709443 -0.105087675 0.18723628 -0.16061859
0.12475606 -0.2869015 -0.32041496 -0.20626245 -0.060535263 0.119217835 0.17888817 -0.22378147
-0.07261223 0.116413005 -0.077969685 0.005313032 0.22889253 -0.10199432 0.18227871 0.28727645
0.117862016 -0.06282249 -0.22386336 -0.23368016 -0.06869552 0.110491246 0.19336459 -0.017055523
0.2849094 -0.14003274 0.07050303 -0.181009 0.09500334 0.301747 0.12388484 0.023689058
-0.14363168 -0.30351758 -0.22871348 -0.31700867 0.2379194 -0.13405086 -0.03939486 -0.33036426
-0.111926384 0.31419358 0.051584173 -0.049638238 0.1977926 0.28626212 0.2888709 -0.24809651
0.011930406 -0.27681258 -0.23053484 0.28503785 -0.2681646 -0.15915604 0.15608563 0.35709006
-0.33010107 -0.24185047 -0.1520657 0.26044714 0.19350813 0.23383114 0.24000573 -0.07481409
0.26068777 -0.009934981 0.033217616 -0.093759626 0.1499812 0.15788364 -0.037476808 0.31124693
-0.09156546 0.08948779 0.3211183 0.19919764 -0.12874344 -0.160153 0.06823419 -0.002679528
0.024882698 0.22774644 0.123584464 -0.19828823 -0.2886641 0.3342556 -0.038922697 -0.1392872
-0.25967115 0.33950984 0.17840503 -0.22413006 -0.30535227 0.30713946 0.15221949 -0.05193343
-0.27988765 0.22815691 -0.25354797 0.18801503 -0.32204938 -0.32907656 -0.35312995 0.334545
0.33500525 -0.31558597 0.2871355 -0.22882414 -0.34254548 0.15598804 0.18613724 0.18648088
0.07591987 0.3253694 -0.3182043 0.14911713 -0.12599339 0.0025932994 0.25774834 -0.26660296
0.14115134 -0.056339163 0.2424687 0.0045649754 0.18800917 0.32542688 -0.1401074 -0.3624352
0.34684548 -0.18139054 0.06785692 0.23361547 -0.04177856 0.2630791 0.21575789 -0.05770291
0.10579497 0.013487509 0.35909736 0.23144858 -0.24886543 0.020478852 0.17696393 0.25697073
0.1339837 0.13689624 -0.078304455 -0.0057492885 -0.25805765 0.27670774 0.29171637 -0.20746532
-0.3158983 0.28943402 -0.30020216 0.23998244 -0.33246505 -0.19394898 -0.16295177 0.3186788
00000000: 5e6c 1dbc c35c 1dbd 9d57 8a3e c311 aabe
00000010: d4df 9c3c 3ac9 ccbd eff4 2b3d 3bb0 a73e
00000020: 6ecc 04bb 9d15 48bd ce6c 07be 5440 aebe
00000030: 1a9c 9dbe a8b1 2a3e d31d 50be 7157 5a3e
00000040: 96cb e6bd ab6d 0f3e 3969 8a3e 9e97 833d
00000050: 591e 093e 3dac 9f3e 9609 fdbd 4a59 8b3e
00000060: a3ee 91be e44a 9f3e 4c83 03be b1fb d2bc
00000070: ce29 3f3e b534 1d3d 16ac a43e fb2f 12be
00000080: bbda 55be 327b 9a3e c09f 4cbe c380 6a3e
00000090: 6749 a73e 35a4 813e a11b f5bd fef8 9dbc
000000a0: 612c aabe fcdd 36be 353e b2bd c6e8 60be
000000b0: 8632 5f3e c83b 4c3e 51ea b1bd 009a 2abd
000000c0: 71bd a73e 26ec ffbb 2ebf a03e 2fde ae3e
000000d0: 6358 e1bd b044 a5be d0b6 a13e 46df 34be
000000e0: 582d b43e e5c5 75be 3f14 4e3d 83a9 b93d
000000f0: 6edf c4bd 693e 943e 2402 9dbe 27e7 07be
00000100: 273e 87bd 6955 853e ffce 313e bb1c 5e3e
00000110: 7b40 113e 051a a83e 4f06 9fbd 0d83 f4bd
00000120: a4c8 70bd 3e05 193e 705a e9bd f396 0f3e
00000130: 97ac db3d e3b6 bf3d 00da 983e 3397 883d
00000140: 35aa 653e c797 b4bd 9b84 9dbe 0af0 673e
00000150: 04c9 203e edae 9d3e 3d8f ff3d 6203 8c3c
00000160: 46f5 7abe ef00 b1be 6e45 783d 0962 8e3e
00000170: a45c 16bd 3538 d7bd deba 3f3e 3379 24be
00000180: 1b80 ff3d c1e4 92be 6e0d a4be 7736 53be
00000190: d3f3 77bd 7b28 f43d 762e 373e f826 65be
000001a0: b9b5 94bd f169 ee3d 92ae 9fbd f118 ae3b
000001b0: ce62 6a3e 66e2 d0bd 45a7 3a3e e615 933e
000001c0: a461 f13d 14a9 80bd 703c 65be da49 6fbe
000001d0: 3db0 8cbd 3c49 e23d 5e01 463e 06b8 8bbc
000001e0: a5df 913e be64 0fbe e563 903d 6c5a 39be
000001f0: 1c91 c23d 957e 9a3e 56b7 fd3d 8e0f c23c
00000200: 2f14 13be a866 9bbe de33 6abe f64e a2be
00000210: 25a1 733e a144 09be 815c 21bd 8125 a9be
00000220: a939 e5bd fbdd a03e ed49 533d 7751 4bbd
00000230: 258a 4a3e f390 923e e3e6 933e 030d 7ebe
00000240: c077 433c 61ba 8dbe 5311 6cbe 7bf0 913e
00000250: df4c 89be cdf9 22be e9d4 1f3e 82d4 b63e
00000260: 0203 a9be a6a7 77be 1cb7 1bbe 5459 853e
00000270: ff26 463e 6e71 6f3e 10c4 753e 2138 99bd
00000280: de78 853e 55c6 22bc 320f 083d 0c05 c0bd
00000290: ac94 193e 40ac 213e 4881 19bd c25b 9f3e
000002a0: ac86 bbbd 6045 b73d 9e69 a43e 77fa 4b3e
000002b0: 52d5 03be 26ff 23be 5ebe 8b3d 059b 2fbb
000002c0: cdd6 cb3c 5d36 693e da19 fd3d 120c 4bbe
000002d0: c8cb 93be 8d23 ab3e 686d 1fbd 4ea1 0ebe
000002e0: 9ef3 84be 3cd4 ad3e cfaf 363e 5a82 65be
000002f0: 2257 9cbe 6241 9d3e 6ddf 1b3e 26b8 54bd
00000300: 6f4d 8fbe f7a1 693e 0ad1 81be 0387 403e
00000310: a8e3 a4be b97c a8be 73cd b4be 7b49 ab3e
00000320: cf85 ab3e 7c94 a1be 6d03 933e e050 6abe
00000330: 1f62 afbe 54bb 1f3e c39a 3e3e d8f4 3e3e
00000340: e07b 9b3d d196 a63e adeb a2be 29b2 183e
00000350: 6904 01be 58f4 293b 97f7 833e 2f80 88be
00000360: fa89 103e e5c3 66bd b749 783e ca95 953b
00000370: 7a85 403e 5a9e a63e 5078 0fbe 1b91 b9be
00000380: bb95 b13e 71be 39be 92f8 8a3d e538 6f3e
00000390: ff1f 2bbd 4eb2 863e a3ef 5c3e e359 6cbd
000003a0: 09ab d83d b7fa 5c3c 9cdb b73e db00 6d3e
000003b0: 94d6 7ebe 44c3 a73c 0836 353e ab91 833e
000003c0: 0633 093e 872e 0c3e 165e a0bd 8764 bcbb
000003d0: 2220 84be a3ac 8d3e d95b 953e ca71 54be
000003e0: 6cbd a1be b230 943e 19b4 99be f5bd 753e
000003f0: dc38 aabe 909a 46be d4dc 26be de29 a33e

nee_decoder.0.bias f4 [16]
-0.012398572 -0.013812793 -0.010267388 0.0 -0.013394252 0.0 0.013788923 0.013178671
-0.013611836 -0.013792527 0.0 0.013771231 -0.012190704 0.0 0.0 -0.014348272
00000000: 6123 4bbc 0e4f 62bc 8c38 28bc 0000 0000
00000010: 9173 5bbc 0000 0000 efea 613c 5aeb 573c
00000020: 2e04 5fbc 0dfa 61bc 0000 0000 bba0 613c
00000030: 85bb 47bc 0000 0000 0000 0000 0415 6bbc

nee_decoder.2.weight f4 [16, 16]
-0.27342233 -0.06376307 -0.012310526 -0.075705916 -0.08428283 -0.15602514 0.16288923 0.21924622
-0.07025599 0.35424957 -0.0023269907 0.11845813 0.11904855 -0.1474356 -0.019008437 -0.03756614
0.17506967 -0.21865503 -0.1886118 -0.4179676 -0.17664398 0.13802074 0.36382976 -0.41331777
-0.14198934 0.28638345 -0.23416257 0.3054137 0.028082695 -0.40712106 0.0732172 -0.24878152
0.08415824 -0.3879839 0.4068855 -0.18475154 0.27693656 -0.2724415 -0.3629089 0.17036141
0.260327 -0.0038947153 -0.36620128 -0.1187763 -0.3000672 0.12265837 0.070114836 0.3009101
0.4322424 -0.20016992 0.34211525 0.30084231 0.06656117 -0.42454335 -0.30032745 0.18867724
0.3217627 0.23141478 0.04081241 -0.2633358 -0.3804912 -0.24745202 0.0032265573 0.057075795
0.32526892 -0.31867275 0.22647241 0.36680868 -0.39137855 -0.23071994 -0.1272104 0.07671462
0.38150468 0.082004495 0.29298377 0.34399825 0.33993682 -0.39492014 -0.28290135 -0.02831196
-0.012838176 0.022519277 0.35364646 0.39219368 -0.13836446 -0.2001805 0.021201337 0.041160133
0.25329965 0.13989997 0.13493174 0.12901466 0.31182292 0.25788555 -0.042591725 -0.3128943
0.28073987 -0.047791746 -0.32030365 -0.072163604 0.3071279 -0.19903925 -0.054346055 0.13352615
0.29908732 -0.07717332 -0.3110283 -0.19348833 -0.15034044 0.04723734 -0.294013 0.3701976
0.11415825 -0.3119295 0.23646855 0.021852031 0.4236637 -0.008701438 -0.0057103666 -0.41791022
-0.35766423 0.001514299 0.36747044 -0.2677758 0.08478056 -0.2984095 -0.3356093 -0.15921861
-0.2898932 -0.3582709 -0.13291065 -0.05916384 0.2155835 0.1990824 -0.0056837313 -0.09889999
-0.09199242 -0.35566974 0.30100554 0.38841635 -0.39810288 -0.41344702 -0.40572095 -0.06983826
0.010261699 -0.2687562 0.24942836 0.028516423 -0.20745878 -0.41889733 0.3510332 0.4430579
0.05399018 -0.19342664 0.27529445 0.2682581 -0.051532995 0.40606317 -0.31997088 -0.038858574
0.36696142 -0.26792663 -0.13356812 -0.18409805 -0.17726146 0.3814189 0.2668912 -0.39365977
-0.2648404 -0.0056504887 -0.14079346 -0.23846275 -0.42563218 0.31935763 0.2424381 0.12564114
-0.103833206 -0.4255698 -0.027108822 0.16553962 -0.1256685 0.34084266 0.09305043 -0.027456941
0.16536409 0.21993248 -0.31759834 0.12330155 -0.39276186 -0.09073447 -0.14038955 0.330628
-0.4057754 0.16782755 -0.38441423 0.18771619 0.117766336 -0.17039043 0.14174226 0.4291791
0.27740648 -0.38115257 -0.112218454 0.40584746 0.07759482 0.053383786 0.030894363 -0.14147735
-0.12454152 0.014751769 0.3158208 -0.1220439 -0.12500057 0.08242817 -0.17235103 0.36407942
0.3119826 0.0042480165 -0.28001645 0.108060926 0.35664108 0.14265181 0.18150032 -0.23995177
-0.4265638 -0.16282476 0.013838213 0.38471907 0.09041081 -0.07937996 -0.10880545 -0.08279379
-0.23284355 -0.1812812 0.080444604 0.29324135 0.36778665 0.16675206 -0.29919958 0.40029985
0.42945814 -0.11468683 0.025105847 0.3919621 -0.14051808 0.20527717 0.08586043 0.25494492
0.16468139 0.44358382 0.366977 -0.28242156 0.2712092 -0.08567135 -0.22656439 0.08340242
00000000: 03fe 8bbe 3696 82bd 17b2 49bc b40b 9bbd
00000010: 7a9c acbd 0ec5 1fbe 6fcc 263e 1582 603e
00000020: 5fe2 8fbd 3360 b53e 6d80 18bb 2d9a f23d
00000030: bacf f33d 5cf9 16be 95b7 9bbc f4de 19bd
00000040: 7745 333e 1be7 5fbe 7423 41be d9ff d5be
00000050: 29e2 34be 4f55 0d3e e547 ba3e 639e d3be
00000060: a765 11be daa0 923e 50c8 6fbe 2f5f 9c3e
00000070: ae0d e63c 2c72 d0be e6f2 953d 95c0 7ebe
00000080: 285b ac3d d3a5 c6be 4c53 d03e 822f 3dbe
00000090: a1ca 8d3e 747d 8bbe 32cf b9be 3973 2e3e
000000a0: 9549 853e 7b3e 7fbb bc7e bbbe fd40 f3bd
000000b0: 68a2 99be 5034 fb3d 5e98 8f3d e310 9a3e
000000c0: e04e dd3e 58f9 4cbe bb29 af3e 0108 9a3e
000000d0: 3951 883d bf5d d9be 85c4 99be 9b34 413e
000000e0: 15be a43e fff7 6c3e ea2a 273d f3d3 86be
000000f0: becf c2be 1064 7dbe a674 533b 4fc8 693d
00000100: a689 a63e 1329 a3be 62e8 673e 59ce bb3e
00000110: c562 c8be d941 6cbe 7143 02be 8e1c 9d3d
00000120: 9554 c33e f9f1 a73d f801 963e 8a20 b03e
00000130: 330c ae3e f932 cabe 72d8 90be 7cee e7bc
00000140: 3757 52bc 597a b83c 2611 b53e 9ccd c83e
00000150: 6aaf 0dbe 1efc 4cbe 6dae ad3c 8797 283d
00000160: 7eb0 813e f041 0f3e 8c2b 0a3e 6b1c 043e
00000170: 41a7 9f3e 9309 843e a974 2ebd af33 a0be
00000180: 23bd 8f3e 47c1 43bd d7fe a3be 83ca 93bd
00000190: de3f 9d3e f2d0 4bbe f899 5ebd 14bb 083e
000001a0: f921 993e 0c0d 9ebd 1a3f 9fbe ce21 46be
000001b0: d8f2 19be f17b 413d df88 96be 8a8a bd3e
000001c0: cdcb e93d 39b5 9fbe d024 723e 0803 b33c
000001d0: 73ea d83e 7a90 0ebc 071e bbbb 54f8 d5be
000001e0: c41f b7be 717b c63a 1625 bc3e e919 89be
000001f0: 6ea1 ad3d 21c9 98be fbd4 abbe 340a 23be
00000200: e26c 94be 496f b7be bb19 08be c855 72bd
00000210: ecc1 5c3e 42dc 4b3e 983e babb 148c cabd
00000220: 8666 bcbd 581a b6be 661d 9a3e 82de c63e
00000230: 24d4 cbbe 54af d3be a8ba cfbe 5d07 8fbd
00000240: af20 283c 6a9a 89be 266a 7f3e 469b e93c
00000250: 1370 54be b679 d6be a0ba b33e 7cd8 e23e
00000260: cf24 5d3d a211 46be 65f3 8c3e 2059 893e
00000270: 4314 53bd 83e7 cf3e 39d3 a3be 2b2a 1fbd
00000280: 5ee2 bb3e ae2d 89be 15c6 08be 3384 3cbe
00000290: 0784 35be 5749 c33e f7a5 883e c68d c9be
000002a0: 2999 87be bc27 b9bb 292c 10be 942f 74be
000002b0: 76ec d9be d882 a33e b141 783e 12a8 003e
000002c0: 81a6 d4bd 49e4 d9be 5213 debc 3883 293e
000002d0: 3eaf 00be ee82 ae3e 3991 be3d 61ed e0bc
000002e0: 3455 293e fb35 613e 409c a2be 8685 fc3d
000002f0: 1518 c9be fed2 b9bd 47c2 0fbe 1348 a93e
00000300: cbc1 cfbe fcda 2b3e f1d1 c4be ac38 403e
00000310: 7a2f f13d d47a 2ebe e224 113e 5dbd db3e
00000320: 3908 8e3e 6e26 c3be cad2 e5bd 3dcb cf3e
00000330: 08ea 9e3d f5a8 5a3d 2d16 fd3c 70df 10be
00000340: a00f ffbd 67b1 713c 44b3 a13e 27f2 f9bd
00000350: 2600 00be 1ad0 a83d ca7c 30be 9e68 ba3e
00000360: 2fbc 9f3e f232 8b3b 515e 8fbe 0c4f dd3d
00000370: a999 b63e 5113 123e 38db 393e ebb5 75be
00000380: 9266 dabe 89bb 26be acb9 623c e6f9 c43e
00000390: 4e29 b93d f691 a2bd 64d5 debd ca8f a9bd
000003a0: 8a6e 6ebe c7a1 39be 24c0 a43d bb23 963e
000003b0: 884e bc3e 0dc1 2a3e b030 99be 1af4 cc3e
000003c0: f0e1 db3e eee0 eabd c7aa cd3c 42af c83e
000003d0: f9e3 0fbe 2e34 523e 98d7 af3d 2488 823e
000003e0: 3da2 283e 6b1d e33e 69e4 bb3e 8f99 90be
000003f0: efdb 8a3e 7674 afbd 7f00 68be e3ce aa3d

nee_decoder.2.bias f4 [16]
0.013749753 0.013797482 0.0 0.0 -0.0063649127 -0.013822612 -0.012503543 0.0
0.0 0.0138036525 0.0 -0.005947555 0.013805438 -0.013819898 0.0 0.013805209
00000000: a546 613c d50e 623c 0000 0000 0000 0000
00000010: c290 d0bb 3d78 62bc a9db 4cbc 0000 0000
00000020: 0000 0000 b728 623c 0000 0000 b5e3 c2bb
00000030: 3430 623c da6c 62bc 0000 0000 3e2f 623c

nee_decoder.4.weight f4 [1, 16]
-0.09459808 -0.40068227 -0.52438974 -0.33109218 0.054800086 0.34822193 0.3389554 0.15842877
0.5635687 -0.52207893 -0.37393543 0.24990399 -0.5546379 0.5468831 0.0819127 -0.23272379
00000000: a3bc c1bd 3a26 cdbe 683e 06bf ea84 a9be
00000010: 0e76 603d 254a b23e 908b ad3e 273b 223e
00000020: 0a46 103f f7a6 05bf 7774 bfbe d5e6 7f3e
00000030: c0fc 0dbf 8800 0c3f d8c1 a73d 254f 6ebe

fc_mu.0.weight f4 [4, 32]
0.03439165 0.3858101 -0.36922473 0.08412892 -0.35174263 -0.04956621 -0.3578346 -0.371578
0.020594751 0.40248272 0.031281292 -0.037822817 0.3805451 0.037370212 -0.22795185 0.25959986
0.29130504 0.35399148 0.32105425 0.3794931 -0.15141216 0.058701344 -0.14897102 -0.054341804
0.32276592 -0.32256952 0.22309309 -0.23587883 0.0022387789 -0.04860684 -0.18388638 0.034813397
-0.20168702 0.374953 -0.15284619 0.26345316 -0.092064604 -0.3265357 0.31176928 -0.10764319
-0.16401833 0.025488323 0.0009477015 0.110083155 -0.10413335 -0.122847185 0.2183258 0.18200856
0.3659659 0.03995455 -0.111068144 -0.0920676 -0.08830492 -0.13399874 -0.13421956 -0.11733573
0.11802313 0.1666559 0.3158341 -0.3921438 0.3215392 -0.087321416 -0.40405852 0.26178178
-0.23145904 -0.18396774 0.13549216 0.066872 0.27829176 -0.28485832 0.22178619 0.21278921
0.2526978 -0.13588223 0.06933406 0.12016591 0.38492742 -0.24808183 -0.3748497 -0.36921957
0.054069463 -0.31027445 -0.07557365 -0.190842 0.073954016 -0.289292 0.25175717 -0.401058
-0.22366297 0.08424217 -0.40154755 0.10062562 -0.15273225 -0.20618671 0.29264465 -0.13182077
0.096508786 -0.15763599 0.18998003 0.37177783 0.39189294 -0.24694915 -0.40581614 -0.28548
0.11500633 0.1638915 0.21441767 0.1772789 0.39715242 -0.30958474 -0.3200586 -0.12784356
0.31686988 -0.3134821 0.30608213 0.06792919 0.25252932 0.4034711 0.39735946 0.39192107
-0.100184605 -0.17420655 0.1733159 0.34814432 0.0111645395 -0.09663887 -0.06602957 -0.14571822
00000000: 42de 0c3d e788 c53e 060b bdbe c94b ac3d
00000010: 9c17 b4be f005 4bbd 1936 b7be 793f bebe
00000020: 53b6 a83c 3712 ce3e d020 003d 19ec 1abd
00000030: cfd6 c23e 8211 193d 366c 69be 46ea 843e
00000040: ef25 953e 5f3e b53e 3961 a43e eb4c c23e
00000050: ca0b 1bbe d270 703d dc8b 18be 8395 5ebd
00000060: 9341 a53e d527 a5be 8472 643e 388a 71be
00000070: 7ab8 123b f717 47bd b64c 3cbe 7e98 0e3d
00000080: 0b87 4ebe d7f9 bf3e b683 1cbe 55e3 863e
00000090: 5e8c bcbd b02f a7be 39a0 9f3e 0874 dcbd
000000a0: 6cf4 27be e3cc d03c 2c6f 783a 4773 e13d
000000b0: de43 d5bd 4e97 fbbd cc90 5f3e 7460 3a3e
000000c0: e25f bb3e 62a7 233d b277 e3bd f08d bcbd
000000d0: 36d9 b4bd f736 09be da70 09be b74d f0bd
000000e0: 1cb6 f13d d8a7 2a3e 02b5 a13e 12c7 c8be
000000f0: c9a0 a43e 92d5 b2bd c2e0 cebe 4308 863e
00000100: 9903 6dbe 0a62 3cbe 75be 0a3e 30f4 883d
00000110: 427c 8e3e f3d8 91be eb1b 633e 6ae5 593e
00000120: 9b61 813e b624 0bbe 04ff 8d3d 8b19 f63d
00000130: 3515 c53e 2a09 7ebe 4dec bfbe 590a bdbe
00000140: f177 5d3d 4bdc 9ebe 5cc6 9abd 166c 43be
00000150: 3475 973d 151e 94be 51e6 803e 7957 cdbe
00000160: e807 65be 2987 ac3d a497 cdbe ce14 ce3d
00000170: d865 1cbe 9c22 53be 85d5 953e 06fc 06be
00000180: 66a6 c53d 546b 21be 208a 423e aa59 be3e
00000190: 31a6 c83e 3de0 7cbe 22c7 cfbe 6f2a 92be
000001a0: 7088 eb3d 2cd3 273e 4e90 5b3e 9a88 353e
000001b0: 9057 cb3e e481 9ebe b9de a3be 6ce9 02be
000001c0: c53c a23e ba80 a0be ccb6 9c3e 761e 8b3d
000001d0: 864b 813e c493 ce3e b372 cb3e e1a9 c83e
000001e0: 962d cdbd 3463 32be b979 313e f93f b23e
000001f0: 79eb 363c 9aea c5bd 833a 87bd 2837 15be

fc_mu.0.bias f4 [4]
0.0 0.005104776 0.0 0.0009999999
00000000: 0000 0000 f745 a73b 0000 0000 6e12 833a

fc_mu.2.weight f4 [1, 4]
0.6486939 -0.22494355 -0.8956581 0.8658314
00000000: ce10 263f 9a57 66be d949 65bf 20a7 5d3f

fc_logvar.0.weight f4 [4, 32]
0.03439165 0.3858101 -0.36922473 0.08412892 -0.35174263 -0.04956621 -0.3578346 -0.371578
0.020594751 0.40248272 0.031281292 -0.037822817 0.3805451 0.037370212 -0.22795185 0.25959986
0.29130504 0.35399148 0.32105425 0.3794931 -0.15141216 0.058701344 -0.14897102 -0.054341804
0.32276592 -0.32256952 0.22309309 -0.23587883 0.0022387789 -0.04860684 -0.18388638 0.034813397
-0.20168702 0.374953 -0.15284619 0.26345316 -0.092064604 -0.3265357 0.31176928 -0.10764319
-0.16401833 0.025488323 0.0009477015 0.110083155 -0.10413335 -0.122847185 0.2183258 0.18200856
0.3659659 0.03995455 -0.111068144 -0.0920676 -0.08830492 -0.13399874 -0.13421956 -0.11733573
0.11802313 0.1666559 0.3158341 -0.3921438 0.3215392 -0.087321416 -0.40405852 0.26178178
-0.23145904 -0.18396774 0.13549216 0.066872 0.27829176 -0.28485832 0.22178619 0.21278921
0.2526978 -0.13588223 0.06933406 0.12016591 0.38492742 -0.24808183 -0.3748497 -0.36921957
0.054069463 -0.31027445 -0.07557365 -0.190842 0.073954016 -0.289292 0.25175717 -0.401058
-0.22366297 0.08424217 -0.40154755 0.10062562 -0.15273225 -0.20618671 0.29264465 -0.13182077
0.096508786 -0.15763599 0.18998003 0.37177783 0.39189294 -0.24694915 -0.40581614 -0.28548
0.11500633 0.1638915 0.21441767 0.1772789 0.39715242 -0.30958474 -0.3200586 -0.12784356
0.31686988 -0.3134821 0.30608213 0.06792919 0.25252932 0.4034711 0.39735946 0.39192107
-0.100184605 -0.17420655 0.1733159 0.34814432 0.0111645395 -0.09663887 -0.06602957 -0.14571822
00000000: 42de 0c3d e788 c53e 060b bdbe c94b ac3d
00000010: 9c17 b4be f005 4bbd 1936 b7be 793f bebe
00000020: 53b6 a83c 3712 ce3e d020 003d 19ec 1abd
00000030: cfd6 c23e 8211 193d 366c 69be 46ea 843e
00000040: ef25 953e 5f3e b53e 3961 a43e eb4c c23e
00000050: ca0b 1bbe d270 703d dc8b 18be 8395 5ebd
00000060: 9341 a53e d527 a5be 8472 643e 388a 71be
00000070: 7ab8 123b f717 47bd b64c 3cbe 7e98 0e3d
00000080: 0b87 4ebe d7f9 bf3e b683 1cbe 55e3 863e
00000090: 5e8c bcbd b02f a7be 39a0 9f3e 0874 dcbd
000000a0: 6cf4 27be e3cc d03c 2c6f 783a 4773 e13d
000000b0: de43 d5bd 4e97 fbbd cc90 5f3e 7460 3a3e
000000c0: e25f bb3e 62a7 233d b277 e3bd f08d bcbd
000000d0: 36d9 b4bd f736 09be da70 09be b74d f0bd
000000e0: 1cb6 f13d d8a7 2a3e 02b5 a13e 12c7 c8be
000000f0: c9a0 a43e 92d5 b2bd c2e0 cebe 4308 863e
00000100: 9903 6dbe 0a62 3cbe 75be 0a3e 30f4 883d
00000110: 427c 8e3e f3d8 91be eb1b 633e 6ae5 593e
00000120: 9b61 813e b624 0bbe 04ff 8d3d 8b19 f63d
00000130: 3515 c53e 2a09 7ebe 4dec bfbe 590a bdbe
00000140: f177 5d3d 4bdc 9ebe 5cc6 9abd 166c 43be
00000150: 3475 973d 151e 94be 51e6 803e 7957 cdbe
00000160: e807 65be 2987 ac3d a497 cdbe ce14 ce3d
00000170: d865 1cbe 9c22 53be 85d5 953e 06fc 06be
00000180: 66a6 c53d 546b 21be 208a 423e aa59 be3e
00000190: 31a6 c83e 3de0 7cbe 22c7 cfbe 6f2a 92be
000001a0: 7088 eb3d 2cd3 273e 4e90 5b3e 9a88 353e
000001b0: 9057 cb3e e481 9ebe b9de a3be 6ce9 02be
000001c0: c53c a23e ba80 a0be ccb6 9c3e 761e 8b3d
000001d0: 864b 813e c493 ce3e b372 cb3e e1a9 c83e
000001e0: 962d cdbd 3463 32be b979 313e f93f b23e
000001f0: 79eb 363c 9aea c5bd 833a 87bd 2837 15be

fc_logvar.0.bias f4 [4]
0.0 0.005104776 0.0 0.0009999999
00000000: 0000 0000 f745 a73b 0000 0000 6e12 833a

fc_logvar.2.weight f4 [1, 4]
0.5259926 -1.0985959 0.93213564 -0.04022818
00000000: 73a7 063f ca9e 8cbf 71a0 6e3f 4ec6 24bd

temp_derivative_decoder.0.weight f4 [16, 32]
-0.21432701 -0.12611365 -0.21702904 -0.30720967 0.035575353 -0.08029493 -0.15870695 -0.060212504
-0.04874637 0.15576324 -0.28599325 -0.008289695 -0.0048250975 -0.28902388 0.32590494 -0.16760625
0.2805022 0.27099335 0.0095753 0.26325405 -0.2660482 -0.03886348 -0.29164308 -0.21522991
0.1117028 0.26345173 -0.20980819 -0.14285661 -0.19823787 -0.03071734 -0.2936687 -0.2798393
-0.076917745 0.33969587 0.060904935 -0.14716874 0.23635387 0.2609423 0.24163285 0.0032906993
-0.03830272 0.22964367 0.1900537 0.26807684 0.25463477 -0.10035582 0.29945403 0.069172755
0.3519917 0.35172114 0.29651636 0.23534724 0.27760106 -0.16617617 -0.1376366 -0.082395904
-0.1809588 0.25975877 0.033051223 -0.089545615 -0.1584037 -0.31477347 0.025367808 0.3107868
0.25302234 0.3008058 0.22090898 0.16925286 0.010435736 -0.28212747 0.23939228 -0.22823253
-0.19199085 0.12130099 0.21474573 -0.20454763 0.20320219 -0.35136557 0.063778006 0.1355179
0.08624635 -0.21949191 -0.2594001 0.26204747 0.057341117 -0.17220108 0.36110854 -0.0945037
-0.08599768 0.11148823 0.31494242 -0.13680702 0.0226387 -0.17930977 -0.18070397 -0.06868602
-0.00036423307 0.18957517 -0.2640829 0.20516878 0.27622092 -0.04030537 -0.031670574 0.08718796
-0.32368508 0.26015124 -0.061848562 0.01421904 0.16761692 0.14721738 -0.1635905 -0.2596907
-0.34107527 -0.2952274 -0.07432339 -0.27447173 -0.035699308 -0.18678766 0.20033522 0.24183397
0.29910806 -0.23184353 -0.24950694 0.12264665 -0.08073798 0.2681282 -0.3243488 0.32786295
-0.24523114 -0.28351986 -0.037491392 -0.15662594 -0.22287717 0.20184653 0.27305728 0.19684398
0.043155 -0.05087668 -0.19290368 0.33698007 -0.19256456 -0.30998755 0.29996258 -0.028513566
0.23756008 -0.11734867 0.2753725 -0.24931584 0.21276264 0.27517495 -0.004942898 0.234464
0.0125460625 -0.32370603 0.15488975 -0.27485234 0.011110962 -0.31803033 -0.16833304 -0.10534562
-0.15232418 -0.36320108 -0.16068499 -0.3425314 -0.31050476 -0.33780527 -0.1887401 -0.094150394
0.30358166 -0.23380008 -0.28377807 -0.27288508 0.34568587 -0.030293655 -0.07913309 0.2087844
-0.22382519 -0.07850846 0.33896768 0.20323777 -0.25933373 -0.08218463 0.019793767 0.14267358
-0.14774333 0.23262003 -0.009401384 -0.32061785 0.07986542 -0.3282902 0.03954764 -0.33473694
-0.11692628 -0.098306485 -0.3013532 -0.115956865 -0.004322745 -0.18307383 0.06626185 0.17061196
0.025535364 -0.3309215 -0.017241962 -0.14959055 0.11684944 -0.26772296 -0.22861947 0.004365654
0.18775143 -0.07838396 -0.0024148414 -0.018970313 -0.26056245 -0.012291942 -0.026061665 0.07487971
0.17444164 0.0893167 0.18102361 -0.08352854 -0.16935188 0.31638744 0.29800344 0.20874329
0.24031623 0.15587075 0.32989606 0.29042876 -0.3048003 -0.31590232 -0.1661865 0.2530809
0.30189705 0.04032913 -0.27868497 -0.1489145 0.18530211 0.3464602 0.08559813 -0.2152645
0.31817636 0.3276826 -0.13773628 -0.17383154 0.22049339 -0.23859791 0.277854 -0.053889062
0.012527169 -0.20602706 -0.36681786 0.062710665 -0.14366199 -0.19002365 0.2990836 0.08271411
00000000: 8a78 5bbe f023 01be dc3c 5ebe 964a 9dbe
00000010: 76b7 113d ab71 a4bd 1384 22be 63a1 76bd
00000020: 46aa 47bd 6680 1f3e b56d 92be 80d1 07bc
00000030: da1b 9ebb f0fa 93be 03dd a63e f9a0 2bbe
00000040: fc9d 8f3e a4bf 8a3e b8e1 1c3c 3cc9 863e
00000050: 7837 88be 502f 1fbd 3e52 95be 3b65 5cbe
00000060: 70c4 e43d 25e3 863e f5d7 56be 0149 12be
00000070: defe 4abe eea2 fbbc be5b 96be 1947 8fbe
00000080: 0d87 9dbd 9eec ad3e 7477 793d 67b3 16be
00000090: c006 723e 3b9a 853e 9a6e 773e c6a8 573b
000000a0: 50e3 1cbd b627 6b3e 709d 423e 5e41 893e
000000b0: 7d5f 823e 5a87 cdbd 0a52 993e 72aa 8d3d
000000c0: 4238 b43e cb14 b43e fed0 973e defe 703e
000000d0: ba21 8e3e 162a 2abe 9cf0 0cbe 2fbf a8bd
000000e0: 434d 39be 1aff 843e b860 073d b163 b7bd
000000f0: 9434 22be fd29 a1be 26d0 cf3c 731f 9f3e
00000100: 258c 813e 3803 9a3e f735 623e 9f50 2d3e
00000110: a6fa 2a3c 0373 90be 4023 753e cab5 69be
00000120: 4099 44be a76c f83d 4ee6 5b3e ef74 51be
00000130: 3c14 503e 30e6 b3be 0b9e 823d 34c5 0a3e
00000140: eda1 b03d 7dc2 60be 17d0 84be 162b 863e
00000150: 85de 6a3d 7b55 30be 38e3 b83e 288b c1bd
00000160: 8d1f b0bd f153 e43d 2240 a13e 2417 0cbe
00000170: cc74 b93c fb9c 37be 760a 39be 42ab 8cbd
00000180: 89f6 beb9 fe1f 423e e035 87be c417 523e
00000190: d46c 8d3e 3e17 25bd 01b9 01bd 9a8f b23d
000001a0: 0dba a5be 8b32 853e eb54 7dbd faf6 683c
000001b0: c5a3 2b3e 27c0 163e 4584 27be 2ef6 84be
000001c0: 6ba1 aebe 0c28 97be dd36 98bd 8f87 8cbe
000001d0: 7039 12bd 4445 3fbe ad24 4d3e 53a3 773e
000001e0: b124 993e 6468 6dbe bf7e 7fbe 2b2e fb3d
000001f0: f459 a5bd 1948 893e 0c11 a6be a7dd a73e
00000200: df1d 7bbe 8429 91be 9390 19bd 8d62 20be
00000210: ea39 64be dbb0 4e3e 2ace 8b3e 7891 493e
00000220: 4cc3 303d 1164 50bd 8b88 45be a788 ac3e
00000230: a52f 45be b0b6 9ebe b294 993e 4895 e9bc
00000240: f342 733e 8054 f0bd a0fd 8c3e a74c 7fbe
00000250: 73de 593e bbe3 8c3e 09f8 a1bb 5517 703e
00000260: 008e 4d3c ccbc a5be 6b9b 1e3e 72b9 8cbe
00000270: c10a 363c dfd4 a2be 7f5f 2cbe 72bf d7bd
00000280: dffa 1bbe 7ef5 b9be 9b8a 24be 4760 afbe
00000290: 7bfa 9ebe d0f4 acbe 1645 41be ecd1 c0bd
000002a0: 0e6f 9b3e 4a69 6fbe 5c4b 91be 98b7 8bbe
000002b0: bdfd b03e 662a f8bc 8810 a2bd 94cb 553e
000002c0: 6e32 65be 0bc9 a0bd 2c8d ad3e 901d 503e
000002d0: 64c7 84be 6a50 a8bd 8a26 a23c 0619 123e
000002e0: 074a 17be f233 6e3e 4308 1abc 0628 a4be
000002f0: 7b90 a33d a715 a8be b5fc 213d a462 abbe
00000300: 0c77 efbd e954 c9bd f74a 9abe cb7a edbd
00000310: d0a5 8dbb b577 3bbe 4bb4 873d e7b4 2e3e
00000320: 8a2f d13c 8b6e a9be 043f 8dbc 442e 19be
00000330: c24e ef3d fc12 89be 391b 6abe c30d 8f3b
00000340: e941 403e c587 a0bd 5142 1ebb a167 9bbc
00000350: 7168 85be 2464 49bc 467f d5bc 895a 993d
00000360: d4a0 323e adeb b63d 415e 393e 0311 abbd
00000370: 946a 2dbe 89fd a13e e893 983e cdc0 553e
00000380: 7515 763e 959c 1f3e 23e8 a83e 14b3 943e
00000390: c90e 9cbe f3bd a1be cb2c 2abe d293 813e
000003a0: 4092 9a3e 2830 253d ccaf 8ebe 0b7d 18be
000003b0: d6bf 3d3e 3b63 b13e 134e af3d 4c6e 5cbe
000003c0: 03e8 a23e 04c6 a73e bd0a 0dbe e500 32be
000003d0: 05c9 613e 0353 74be e142 8e3e c7ba 5cbd
000003e0: c13e 4d3c c2f8 52be 8dcf bbbe 736e 803d
000003f0: 211c 13be 8f95 42be 7c21 993e 0466 a93d

temp_derivative_decoder.0.bias f4 [16]
0.0 0.0 0.020394476 0.0 0.0 -0.014947383 -0.015731517 -0.016920853
-0.016674427 0.016022403 0.0 0.0 0.0 0.0 0.013446378 -0.0160441
00000000: 0000 0000 0000 0000 5112 a73c 0000 0000
00000010: 0000 0000 dee5 74bc 62df 80bc 9a9d 8abc
00000020: cf98 88bc 6a41 833c 0000 0000 0000 0000
00000030: 0000 0000 0000 0000 324e 5c3c eb6e 83bc
