.archive/piae_sde/seed_experiments/PIAE_SDE_Reg_Sampling0/best_model.pth (torch, 25314 bytes, 28 tensors)

encoder.0.weight f4 [16, 18]
0	0x3e5ccabf	0.21561716
1	0x3e73dad6	0.23813948
2	0xbe5544c2	-0.2082701
3	0xbe8ad8b3	-0.27118453
4	0xbd912979	-0.070879884
5	0x3dc197ee	0.094528064
6	0x3b207f07	0.0024489777
7	0x3e2e541e	0.17024276
8	0x3e87cfe4	0.26525795
9	0xbdff22c6	-0.124578044
10	0x3e3ff439	0.18745507
11	0x3d920c29	0.071312256
12	0x3e7f3f61	0.24926521
13	0x3dbede1d	0.093197085
14	0xbe2b576b	-0.16732566
15	0xbe4ee16b	-0.20203178
16	0x3e296fb8	0.16546524
17	0xbe9784ff	-0.29593655
18	0x3d90d561	0.07071949
19	0xbe5c2b83	-0.21500973
20	0x3e7cb049	0.24676622
21	0x3e3611b5	0.17780192
22	0xbdf8f114	-0.12155357
23	0x3d94483f	0.07240342
24	0xbe106795	-0.14102013
25	0x3cfbcfec	0.030738793
26	0x3c55d9cb	0.013052414
27	0xbda69a03	-0.08134844
28	0xbd103344	-0.03520514
29	0xbd1291ca	-0.035783567
30	0xbde4234a	-0.11139543
31	0x3da2abcd	0.07942925
32	0x3cfe2919	0.031025456
33	0x3e11b6c0	0.1422987
34	0x3e99e48a	0.30057174
35	0xbe653e05	-0.2238694
36	0x3ec7682f	0.38946673
37	0x3de1a28d	0.11017332
38	0x3ee50216	0.44728154
39	0xbd9f83d0	-0.07788813
40	0x3c352f29	0.011058607
41	0x3cc1e37e	0.023668047
42	0xbe9dbf56	-0.3081004
43	0xbe7b7aeb	-0.24558608
44	0x3ebff32a	0.37490207
45	0x3e405915	0.18783982
46	0xbe263dc7	-0.16234504
47	0xbe0b40d9	-0.13598956
48	0xbcd98631	-0.026553245
49	0x3e2636af	0.16231798
50	0xbde80c22	-0.11330439
51	0x3ecf6d30	0.4051299
52	0x3c92af58	0.017905876
53	0x3ef3bcdc	0.47605026
54	0xbeaa2695	-0.3323256
55	0x3dc0e0b1	0.094178565
56	0xbe470b0e	-0.19437811
57	0xbeaf5469	-0.34244087
58	0x3e7fd7f2	0.2498472
59	0x3e1084e2	0.14113191
60	0x3ce6af00	0.028159618
61	0xbf025c89	-0.5092245
62	0x3eac161a	0.33610612
63	0x3eafd011	0.3433843
64	0xbdfb0046	-0.122559115
65	0x3ef04494	0.4692732
66	0xbe018dea	-0.12651792
67	0x3f041666	0.5159668
68	0xbe2f38ab	-0.17111461
69	0x3ee9c24c	0.4565605
70	0xbdd8fe0d	-0.10595331
71	0x3e83660e	0.256638
72	0xbe646612	-0.22304562
73	0xbe96d208	-0.29457116
74	0xbe9cf54d	-0.306559
75	0x3dbcd240	0.092197895
76	0xbe3797fc	-0.17929071
77	0x3e82ad40	0.25522804
78	0x3e06259a	0.13100281
79	0x3e12a292	0.14319828
80	0xbd7475eb	-0.059682768
81	0xbdcad7ce	-0.09904443
82	0xbe1f58d5	-0.1556123
83	0xbe502368	-0.20326006
84	0x3eb78f96	0.35851735
85	0x3ccc6f07	0.024955286
86	0xbe064be5	-0.13114889
87	0xbed2c0f1	-0.41162828
88	0xbab11f11	-0.0013513287
89	0xbedfb649	-0.4369376
90	0xbde27fbe	-0.11059521
91	0x3e2f32db	0.17109244
92	0xbe804d64	-0.25059044
93	0x3ccee040	0.025253415
94	0xbdcff4e6	-0.101541325
95	0xbe90559f	-0.28190324
96	0xbecd8c7f	-0.40146253
97	0x3e6e23c0	0.23255825
98	0xbe9636bb	-0.2933863
99	0x3e5c831f	0.21534394
100	0x3ddb57e5	0.10710124
101	0x3e773483	0.24141125
102	0xbe83d1b5	-0.2574593
103	0x3ebcb9aa	0.368604
104	0xbecf76e8	-0.40520406
105	0xbeae5078	-0.34045768
106	0x3e61541e	0.22004744
107	0xbcc4e98d	-0.024037147
108	0xbe21442a	-0.15748659
109	0x3d3b9aa8	0.04580179
110	0xbebbde47	-0.36693022
111	0xbe032ac9	-0.1280929
112	0xbe237128	-0.15961134
113	0x3e64d12d	0.22345419
114	0x3dc89059	0.09793157
115	0x3d0ee2a9	0.03488413
116	0xbe255e75	-0.16149314
117	0x3eb030dd	0.3441228
118	0xbd994b7f	-0.07485103
119	0x3df73842	0.12071277
120	0xbc68ae91	-0.014201776
121	0x3d41bae5	0.047297377
122	0x3df03316	0.11728494
123	0x3eb1adb4	0.34702837
124	0x3e8e5fd7	0.27807495
125	0x3db6c5ad	0.089244224
126	0x3e6288d4	0.22122508
127	0x3d5cd2fe	0.053912155
128	0x3e99cdc9	0.30039814
129	0x3e9cdb75	0.30636182
130	0x3e5d908e	0.21637174
131	0xbe5c9c0c	-0.21543902
132	0xbeb377cf	-0.35052344
133	0x3cc70a53	0.024296915
134	0x3d9ae560	0.07563281
135	0x3e82c2a5	0.25539127
136	0x3ca1a1be	0.019730445
137	0x3ded37cf	0.1158291
138	0x3ea2f080	0.31824112
139	0xbe51a74c	-0.20473975
140	0x3e9e4c90	0.30917788
141	0x3e675b1e	0.22593352
142	0x3ea0c724	0.31401932
143	0x3ea8a424	0.3293773
144	0xbea104ed	-0.3144907
145	0x3e62010d	0.22070713
146	0x3e7cf972	0.24704531
147	0xbe4373cf	-0.19087146
148	0x3bad4e29	0.0052888584
149	0x3de02490	0.10944474
150	0xbe09bd3d	-0.13451095
151	0xbd938034	-0.07202187
152	0x3eb166f3	0.34648857
153	0x3aa608e8	0.0012667449
154	0xbe3a476b	-0.18191306
155	0x3eb44356	0.35207623
156	0x3e65cc88	0.22441304
157	0x3df58888	0.11988932
158	0x3f0ad7e5	0.5423568
159	0x3ea71ebe	0.32640642
160	0xbdc36768	-0.095412076
161	0xbc7881b0	-0.015167639
162	0x3d978c3b	0.07399794
163	0xbda896f6	-0.082319185
164	0xbdd3f45d	-0.10349343
165	0xbe422d44	-0.1896258
166	0xbe74a12f	-0.23889612
167	0x3e56d4a7	0.20979558
168	0xbdff77a0	-0.124739885
169	0xbe4e5dfe	-0.20153043
170	0x3ebd772c	0.37004983
171	0x3d898d9f	0.06716465
172	0x3e9b2fe9	0.3030999
173	0x3ec400f5	0.3828198
174	0xbd7263ed	-0.059177328
175	0x3d80549e	0.062661394
176	0x3ec76972	0.38947636
177	0xbe93fc14	-0.28903258
178	0xbe00f9bd	-0.12595268
179	0x3d74d91b	0.05977736
180	0xbda30e8d	-0.0796176
181	0x3c280091	0.010254041
182	0x3e68c427	0.22731076
183	0xbd9cf1a1	-0.076632746
184	0x3dfa12ff	0.122106545
185	0x3edc3430	0.43008566
186	0xbe480243	-0.19532113
187	0xbe70963e	-0.23494813
188	0xbe80aa14	-0.2512976
189	0x3ea01649	0.31267002
190	0xbe967c0d	-0.29391518
191	0xbe2ca91d	-0.16861387
192	0x3e7c2269	0.24622501
193	0xbe5dc2ca	-0.21656337
194	0x3ec1d0cc	0.37854612
195	0xbe598896	-0.2124351
196	0x3d017be8	0.031612307
197	0x3cc06e3c	0.023490064
198	0xbdce901c	-0.100860804
199	0x3e629670	0.221277
200	0x3ec4464c	0.38334882
201	0xbe2893ba	-0.16462603
202	0x3d876a82	0.06612112
203	0x3d8e49da	0.0694768
204	0x3d1b454a	0.037907876
205	0xbe9bf0d6	-0.3045718
206	0x3cbbb4e4	0.022913404
207	0x3e460433	0.1933754
208	0xbeedbb4d	-0.46431962
209	0xbeb552bb	-0.3541468
210	0xbeb0d20b	-0.3453525
211	0x3c5f2bd5	0.01362129
212	0xbe40fb81	-0.18845941
213	0xbe0aa4f8	-0.13539493
214	0x3ed26597	0.41093132
215	0xbdc556a6	-0.096356675
216	0x3e6b0ba1	0.22953655
217	0x3e02c349	0.12769808
218	0xbe1c821b	-0.15284006
219	0x3e27da8c	0.16391963
220	0x3dba5690	0.09098542
221	0x3dea7f29	0.11450035
222	0xbe9d68d5	-0.30744043
223	0x3ed0a058	0.40747333
224	0x3e854ea0	0.2603655
225	0xbe882877	-0.26593372
226	0xbd8c02f5	-0.068365015
227	0x3e51820a	0.20459762
228	0xbe6765b7	-0.22597395
229	0xbe34e0d0	-0.17663884
230	0xbe830274	-0.2558781
231	0x3e34ec1f	0.17668198
232	0x3d233158	0.03984198
233	0x3e151797	0.1455978
234	0xbe369d9f	-0.17833565
235	0x3e9e905e	0.30969518
236	0x3d7501d5	0.0598162
237	0xbea8755e	-0.32902044
238	0xbde531dd	-0.11191151
239	0x3e61da99	0.22056045
240	0x3dc9d214	0.09854522
241	0xbd6def28	-0.058089405
242	0xbe931b69	-0.2873185
243	0xbe82a25c	-0.25514495
244	0x3ebcada1	0.36851218
245	0xbe7cbd1f	-0.24681519
246	0x3e95413b	0.2915133
247	0xbe09a8ba	-0.1344327
248	0x3c29fc42	0.010375084
249	0xbed49b9a	-0.41524965
250	0xbe1227e5	-0.14273031
251	0x3eb225ff	0.34794614
252	0x3c9ec512	0.01938108
253	0x3d7f80ba	0.062378623
254	0xbe2ee785	-0.17080505
255	0x3ca58d3b	0.020208945

encoder.0.bias f4 [16]
0	0xbce143e7	-0.027498199
1	0x3a587546	0.0008257221
2	0x3e998a12	0.29988152
3	0x3d4f1171	0.050553743
4	0xbcbd9279	-0.023141133
5	0xbd103aad	-0.035212208
6	0x3d1abcdb	0.037777763
7	0x3d04b2c3	0.032397043
8	0xbbc09587	-0.0058772
9	0x00000000	0.0
10	0xbd0df37e	-0.03465604
11	0x3b81eb32	0.003964805
12	0xbc47fdc5	-0.012206499
13	0xbbca60ed	-0.0061761052
14	0xbe5015b5	-0.2032078
15	0x3cae1223	0.021248883

encoder.2.weight f4 [16, 16]
0	0x3e663a7b	0.22483246
1	0xbecfaafe	-0.40560144
2	0xbe4fb1dc	-0.20282692
3	0x3d426be3	0.04746617
4	0x3df12961	0.117754705
5	0xbd727905	-0.059197444
6	0x3e276c96	0.16350016
7	0x3e0712fd	0.13190837
8	0xbecce5f9	-0.40019205
9	0x3e0bdba8	0.13658011
10	0xbd103464	-0.035206214
11	0xbe989045	-0.2979757
12	0x3c6f6cbb	0.014613326
13	0xbdda19f5	-0.10649482
14	0xbe6b773d	-0.22994705
15	0xbeca0605	-0.39457718
16	0x3eb977d2	0.36224228
17	0xbe86a39f	-0.26296708
18	0x3d6e378f	0.058158454
19	0x3eb19b19	0.34688643
20	0xbd5f71f3	-0.05455203
21	0xbe914e92	-0.28380257
22	0xbed67cdf	-0.41892144
23	0x3d9358bd	0.0719466
24	0xbe5e7bdd	-0.21726938
25	0x3d0157c7	0.03157785
26	0x3e0da209	0.13831343
27	0xbdfb4386	-0.122687384
28	0x3e96533a	0.29360372
29	0xbd66cd49	-0.05634812
30	0xbe30f508	-0.17280972
31	0xbe9296d6	-0.28630704
32	0x3e239291	0.1597388
33	0xbe7633eb	-0.24043243
34	0x3de0afe9	0.10971052
35	0x3cfd25f7	0.030901892
36	0x3ebcf1a6	0.36903113
37	0xbe3ad640	-0.18245792
38	0xbe3ff461	-0.18745567
39	0xbcebf785	-0.02880455
40	0xbebbf2bb	-0.36708626
41	0x3e290ba4	0.16508347
42	0xbde873be	-0.11350201
43	0x3e52d73e	0.20589921
44	0x3e8e02b4	0.27736437
45	0x3e849f32	0.25902706
46	0x3d66d7fd	0.056358326
47	0x3e868cde	0.26279348
48	0xbe7205ce	-0.23635027
49	0xbee08973	-0.43854865
50	0xbd46b246	-0.04850986
51	0xbea41258	-0.32045245
52	0xbeabc257	-0.33546707
53	0x3dd30efe	0.10305594
54	0x3eb9d57f	0.36295697
55	0xbe35bcfa	-0.1774787
56	0xbd00e078	-0.03146407
57	0xbea09f4b	-0.3137153
58	0x3d8cb56f	0.06870543
59	0x3dee5b7d	0.11638544
60	0xbd965808	-0.073410094
61	0x3ea58410	0.32327318
62	0xbeb26ea8	-0.3485005
63	0xbd856bf8	-0.06514734
64	0xbe5c4f32	-0.21514586
65	0x3ecdf8e4	0.4022895
66	0x3dcac086	0.09900002
67	0x3e34e02b	0.17663638
68	0x3ed3fd59	0.41404226
69	0x3e4a6b79	0.1976756
70	0xbe9ea74e	-0.30987018
71	0xbe8bb636	-0.27287453
72	0x3db6adc5	0.08919863
73	0xbec5efcc	-0.38659513
74	0x3e9c6ded	0.30552617
75	0x3e595253	0.2122281
76	0x3dffe49c	0.12494776
77	0xbebe5841	-0.37176707
78	0x3ed51273	0.41615638
79	0xbccce325	-0.025010655
80	0xbe21f933	-0.15817718
81	0x3e7f2057	0.2491468
82	0x3bbe5310	0.0058082417
83	0xbe26689b	-0.16250841
84	0x3dfd7516	0.12375848
85	0xbe87603a	-0.26440603
86	0x3ed9f586	0.42570132
87	0x3ece5a3d	0.4030322
88	0x3da961d3	0.082706116
89	0x3e6a92d3	0.22907571
90	0xbecff2bb	-0.40614876
91	0xbe5dfa72	-0.21677569
92	0xbec9bbd2	-0.39401108
93	0xbe60c7f7	-0.2195128
94	0x3e90b978	0.282665
95	0x3eaf15fa	0.34196454
96	0x3e7d067b	0.24709503
97	0x3e890060	0.267581
98	0xbea72331	-0.32644036
99	0x3eb858da	0.36005288
100	0xbd248ce7	-0.040173437
101	0xbdc773fa	-0.09738918
102	0x3e7a452f	0.24440454
103	0x3e98ff7b	0.29882416
104	0xbecebd95	-0.40379015
105	0x3ed3113b	0.41224083
106	0xbcb6d32f	-0.022317497
107	0x3e03d0ef	0.1287267
108	0xbed77ea5	-0.4208881
109	0x3d5ebf00	0.05438137
110	0xbe491f42	-0.1964083
111	0xbe850236	-0.2597825
112	0xbe4a1c0f	-0.19737266
113	0xbca150e4	-0.019691892
114	0xbe5206b3	-0.20510368
115	0xbe95d5b4	-0.29264605
116	0x3e9955fa	0.29948407
117	0x3de57179	0.11203284
118	0xbed781a6	-0.420911
119	0x3d950d2c	0.07277903
120	0x3d8767ff	0.066116326
121	0x3c825864	0.015911289
122	0x3dba5ce0	0.09099746
123	0xbd5c5b73	-0.05379815
124	0x3e3196f5	0.17342742
125	0xbe9c12f4	-0.3048321
126	0xbe922959	-0.2854717
127	0x3e9ceeca	0.30650932
128	0xbe8e60e2	-0.2780829
129	0x3e510b41	0.2041445
130	0x3e92590f	0.2858357
131	0xbe3765b8	-0.17909896
132	0xbe3f780f	-0.18698142
133	0x3eb7cae1	0.35896972
134	0xbd166916	-0.03672131
135	0x3d9cd3c8	0.076575816
136	0xbdab1e64	-0.08355406
137	0x3e36ba10	0.17844415
138	0xbe3eedae	-0.18645355
139	0x3d3e742c	0.04649751
140	0x3e8fd3df	0.28091332
141	0xbd2eec59	-0.042705867
142	0xbf3fc3b2	-0.7490798
143	0x3e0f70b3	0.14007835
144	0xbdac49a1	-0.08412481
145	0xbd83551e	-0.06412719
146	0x3ea8db17	0.32979652
147	0x3e858373	0.2607685
148	0xbe6e68c4	-0.23282152
149	0xbe307709	-0.17232908
150	0xbd1fb26c	-0.038988516
151	0xbda28a48	-0.07936531
152	0x3dd580f9	0.1042499
153	0xbe978920	-0.29596806
154	0x3eaf3060	0.34216595
155	0x3e80e6d0	0.25176096
156	0x3de43647	0.11143165
157	0x3dd570da	0.10421915
158	0x3eac6241	0.33668712
159	0x3eb38a1e	0.35066313
160	0x3dc8ab15	0.09798256
161	0x3d8716f0	0.06596172
162	0xbe73be9e	-0.23803183
163	0x3e13ea87	0.14444934
164	0xbecf69bc	-0.40510356
165	0x3e0bd846	0.1365672
166	0xbec02b5b	-0.37533078
167	0xbe378347	-0.17921172
168	0x3e6a1733	0.22860412
169	0xbe840c76	-0.25790757
170	0x3eb08928	0.34479642
171	0xbe74fd85	-0.23924835
172	0x3ed1fe9d	0.41014567
173	0x3e08a9ab	0.13345973
174	0xbe4026c2	-0.18764785
175	0x3e873630	0.2640853
176	0xbeb2c54b	-0.34916148
177	0xbe75d5f2	-0.24007395
178	0xbe7b9baa	-0.245711
179	0x3e43e105	0.19128807
180	0x3d9957a9	0.07487423
181	0xbeac894a	-0.33698493
182	0x3ee7318e	0.45154995
183	0x3d0b22b3	0.03396864
184	0xbe74545c	-0.23860306
185	0x3c2975cf	0.010343029
186	0xbe17f4cf	-0.14839481
187	0x3e1dfbc9	0.1542808
188	0x3e425857	0.18979011
189	0xbdeee7b1	-0.116652854
190	0x3ebcaa3c	0.3684863
191	0x3e953302	0.29140478
192	0xbe838916	-0.25690526
193	0xbd999fd7	-0.0750119
194	0xbe7044d2	-0.23463753
195	0xbf327ab2	-0.6971847
196	0x3d17de7d	0.037077416
197	0x3d3418c7	0.043968942
198	0xbea77d85	-0.3271295
199	0x3ddf3869	0.10899431
200	0x3e74c46d	0.23903055
201	0x3e6bd827	0.23031674
202	0xbe4c5eb3	-0.19958
203	0x3ed773c7	0.4208052
204	0xbe8b86d8	-0.27251315
205	0xbe5b1fd4	-0.2139886
206	0x3f009fc7	0.502438
207	0x3eba93f4	0.36441004
208	0x3ee3b414	0.44473326
209	0x3ece895c	0.40339172
210	0xbed7d604	-0.42155468
211	0xbddee142	-0.10882808
212	0xbe7b8079	-0.24560727
213	0x3d2ba763	0.04190768
214	0x3ec7019e	0.3886842
215	0x3e788d43	0.24272637
216	0xbebf4bef	-0.3736262
217	0xbe3ed451	-0.1863568
218	0xbea87e14	-0.3290869
219	0x3e70d472	0.23518541
220	0xbcd01732	-0.025401685
221	0xbe9ee851	-0.31036618
222	0xbddc70b6	-0.107636854
223	0x3e2f734f	0.1713383
224	0x3d963440	0.07334185
225	0x3ee0c8d8	0.43903232
226	0x3cacc032	0.02108774
227	0x3e3aadbe	0.1823034
228	0xbdc998ed	-0.098436214
229	0x3db0bc18	0.08629626
230	0x3d425528	0.047444493
231	0x3ecf3d91	0.4047666
232	0x3d63b79b	0.05559502
233	0xbe7cb167	-0.24677049
234	0xbeb14397	-0.3462188
235	0xbec1c045	-0.37842003
236	0xbe007e28	-0.12548125
237	0x3d65446f	0.055973466
238	0x3f3a9063	0.72876567
239	0xbc2ad3af	-0.010426446
240	0x3e1bb6cb	0.15206449
241	0x3e4f4845	0.20242412
242	0xbf11b06e	-0.56909835
243	0xbf1b0991	-0.6056147
244	0x3e0d5738	0.13802803
245	0x3e3cb4a5	0.18428285
246	0xbe606793	-0.2191451
247	0x3d49612a	0.04916493
248	0xbea83cce	-0.3285889
249	0x3bb2d908	0.005458001
250	0x3db2271f	0.08698868
251	0xbc585e96	-0.013206145
252	0xbdb4bc8f	-0.08825027
253	0x3e3ee1e7	0.18640862
254	0xbeb610c8	-0.35559678
255	0x3e9b91ea	0.3038476

encoder.2.bias f4 [16]
0	0x00000000	0.0
1	0x00000000	0.0
2	0x3d2a537f	0.041583534
3	0xbbe6dce5	-0.0070453756
4	0xbafaea24	-0.0019143266
5	0x3cc2ed9d	0.023794943
6	0x3c74472d	0.014909548
7	0xbc94b39c	-0.01815205
8	0x3cae25e7	0.021258308
9	0x3cfebbc5	0.031095395
10	0x00000000	0.0
11	0x3d178ae6	0.0369977
12	0xbd40d99f	-0.04708254
13	0x3c8e13bb	0.017343393
14	0x3d17a210	0.03701979
15	0xbd191cc5	-0.037380952

encoder.4.weight f4 [32, 16]
0	0xbe9bead3	-0.30452594
1	0xbe4ee76a	-0.20205465
2	0xbe4e1373	-0.20124607
3	0xbe9fe9ca	-0.31233054
4	0x3e968ecd	0.29405823
5	0xbd710e04	-0.058851257
6	0xbe81e7a0	-0.25372028
7	0x3dc7df62	0.09759404
8	0xbe7b033b	-0.24512951
9	0x3d461e4f	0.04836875
10	0x3e2c1b51	0.16807295
11	0xbc86729c	-0.016412072
12	0x3e5ac3f0	0.21363807
13	0x3dc95c37	0.09832042
14	0xbe7bd54d	-0.24593087
15	0x3dbeeb03	0.09322169
16	0x3e696297	0.22791515
17	0xbda7dafd	-0.081960656
18	0x3c8291e0	0.0159387
19	0x3d217741	0.03942037
20	0xbc8803a6	-0.016603302
21	0x3d67f3b8	0.056628913
22	0xbebff7d5	-0.37493768
23	0x3e6e5389	0.23274054
24	0x3df1343c	0.11777541
25	0x3ba2fa15	0.0049736598
26	0x3d83c0d1	0.06433261
27	0xbea2f4e0	-0.3182745
28	0xbe0f0108	-0.13965237
29	0xbd568b60	-0.052379012
30	0x3d3f0b48	0.046641618
31	0xbe6bd992	-0.23032215
32	0x3d19a7d2	0.03751356
33	0xbde0b739	-0.10972447
34	0x3e89e748	0.26934266
35	0xbe98256c	-0.2971605
36	0x3d9b9966	0.07597618
37	0x3e8b9826	0.27264518
38	0xbe776ca6	-0.2416254
39	0x3ca3c963	0.01999349
40	0x3e47c17e	0.19507405
41	0x3e353d4d	0.17699166
42	0x3d2a4da4	0.04157795
43	0x3e34c786	0.17654237
44	0xbe58ba80	-0.21164894
45	0x3ea7b2d6	0.32753628
46	0x3d2e1910	0.04250437
47	0x3e8511d2	0.25990158
48	0x3da02e29	0.07821304
49	0xbd211a7d	-0.0393319
50	0x3e15aec6	0.14617452
51	0x3eac742a	0.33682376
52	0x3eb5a042	0.3547383
53	0xbe94afc0	-0.29040337
54	0x3cf4f764	0.029903121
55	0xbe7a4891	-0.24441744
56	0x3e5cc3e7	0.21559106
57	0x3e85d1a5	0.2613651
58	0xbe7e3901	-0.24826433
59	0xbca76ec5	-0.020438561
60	0x3e804be6	0.25057906
61	0x3e7778be	0.24167153
62	0xbe86750c	-0.26261175
63	0x3e7a80a0	0.24463129
64	0xbd8030b7	-0.062592916
65	0xbe99f3b1	-0.30068734
66	0x3d818a83	0.06325247
67	0x3e39b314	0.18134719
68	0x3e3d61b5	0.18494304
69	0xbe7941e5	-0.24341543
70	0xbe83d4a8	-0.2574818
71	0xbe8318f0	-0.25604963
72	0x3e478e10	0.19487786
73	0xbea4dc57	-0.32199356
74	0xbb43629d	-0.0029813417
75	0xbdd5fe74	-0.10448924
76	0x3e1063a3	0.14100508
77	0x3d820db1	0.06350268
78	0xbe40c382	-0.1882458
79	0x3d636b8b	0.055522483
80	0x3ea69614	0.32536376
81	0x3d6e6df1	0.058210317
82	0xbe372ea4	-0.17888886
83	0x3bb19858	0.005419772
84	0xbeb73f13	-0.3579031
85	0xbe832191	-0.25611547
86	0xbdc355c7	-0.09537845
87	0xbe7ec42d	-0.24879523
88	0x3e8a4b4b	0.2701057
89	0x3d1d94b6	0.0384719
90	0x3e8c350a	0.27384216
91	0xbdd917ea	-0.10600264
92	0xbda0fd77	-0.078608446
93	0x3d745417	0.059650507
94	0xbe09394b	-0.13400762
95	0xbe18b344	-0.14912134
96	0xbeb19356	-0.3468272
97	0x3e885ece	0.2663483
98	0x3eaf0bb5	0.3418862
99	0xbeb7c5a1	-0.35892966
100	0xbd8dc8ee	-0.0692309
101	0xbe728fd8	-0.23687685
102	0xbde83d6b	-0.113398395
103	0x3e98c705	0.2983934
104	0x3e6035a2	0.2189546
105	0x3bc21916	0.0059234006
106	0x3e1aa099	0.15100326
107	0x3e0935dc	0.13399452
108	0x3e67aa52	0.22623566
109	0xbe81e53e	-0.2537021
110	0x3e1238a7	0.14279424
111	0xbe9cac93	-0.30600414
112	0xbe6e19b0	-0.23251987
113	0xbe06ea4a	-0.13175312
114	0xbd5b2ea2	-0.05351127
115	0xbeadf2af	-0.33974215
116	0xbd1c0cbc	-0.038098082
117	0x3cc8e627	0.024523808
118	0xbe324362	-0.17408517
119	0x3dac2122	0.08404757
120	0x3e8d0f5f	0.2755079
121	0xbdc3fbc0	-0.09569502
122	0xbe40d065	-0.18829496
123	0xbeb09df3	-0.34495506
124	0xbe967177	-0.29383442
125	0xbe6b06e5	-0.22951849
126	0xbe96d3c7	-0.29458448
127	0xbe2fd652	-0.171716
128	0x3e47710e	0.1947672
129	0x3de2946f	0.11063468
130	0x3eb5c95c	0.35505188
131	0x3eaf9beb	0.34298643
132	0xbe18562c	-0.14876622
133	0xbe23c668	-0.15993655
134	0x3ce0c071	0.027435513
135	0xbe9b9f16	-0.3039481
136	0x3e2fdcd5	0.17174084
137	0xbdaebcff	-0.08532142
138	0xbe97929e	-0.29604048
139	0xbe94b23b	-0.2904223
140	0xbe88313f	-0.26600072
141	0x3d9b4ffe	0.07583617
142	0x3e7e23de	0.2481837
143	0x3e8493cc	0.2589401
144	0xbdc760d8	-0.09735268
145	0xbe524ad5	-0.20536359
146	0xbe145abb	-0.14487736
147	0xbe70ee8d	-0.235285
148	0xbd4e2472	-0.050327726
149	0xbe92c0c1	-0.28662685
150	0x3e631ea9	0.22179665
151	0xbe9a70ea	-0.30164272
152	0xbe408172	-0.1879938
153	0x3e8b29b5	0.27180257
154	0xbe876775	-0.2644612
155	0x3df19d2b	0.117975555
156	0x3e99a6b4	0.30009997
157	0x3ec37e07	0.3818209
158	0x3e5a93e1	0.21345474
159	0xbd80f924	-0.0629752
160	0x3e4ee1b9	0.20203294
161	0xbc3f2c19	-0.011668229
162	0xbdbd848f	-0.09253799
163	0x3be54cd6	0.006997685
164	0x3e01e094	0.12683326
165	0x3e8addd5	0.2712237
166	0x3e3ca1f7	0.1842116
167	0x3e4db53e	0.2008867
168	0x3db4cfe4	0.088287145
169	0x3c9998ea	0.018749673
170	0x3e1804d6	0.14845595
171	0x3debc560	0.11512256
172	0xbe9abfdf	-0.3022451
173	0x3dbdcea7	0.092679314
174	0xbdf9f7f6	-0.12205498
175	0xbe1c9af4	-0.15293485
176	0x3e0c02e6	0.1367298
177	0x3d9410ca	0.07229765
178	0x3d548902	0.051888473
179	0xbe2fb252	-0.17157868
180	0x3e36034c	0.17774695
181	0x3eb02fab	0.34411368
182	0x3d65a93a	0.05606959
183	0x3e26d9e3	0.16294055
184	0xbe97f7b9	-0.29681185
185	0x3e64dfc9	0.22350992
186	0x3dfb892a	0.12282021
187	0x3e3252da	0.17414418
188	0x3e269b1b	0.16270106
189	0xbda1d073	-0.07901087
190	0xbbcfb1b9	-0.006338325
191	0x3eb6dc22	0.35714823
192	0x3e847557	0.25870773
193	0xbe81c0a8	-0.25342298
194	0x3e91e6f1	0.28496507
195	0x3eb70c82	0.3575173
196	0x3d7d8d1d	0.061902154
197	0xbe889374	-0.26674998
198	0x3d9cea08	0.076618254
199	0xbd7915b7	-0.060811725
200	0x3e85e1e2	0.26148897
201	0xbea7e2da	-0.32790262
202	0x3db94b3e	0.090475544
203	0x3c3b17db	0.011419262
204	0x3d25e90b	0.04050545
205	0x3e816051	0.25268796
206	0x3c94c499	0.018160151
207	0xbe8dcb41	-0.27694133
208	0xbe5330d2	-0.20624092
209	0xbe10f631	-0.14156415
210	0x3d45f627	0.048330452
211	0x3e11f762	0.14254525
212	0xbcb5e6bf	-0.022204755
213	0xbdd87e61	-0.1057098
214	0x3e4247f7	0.18972765
215	0xbe9fac57	-0.31186172
216	0x3e8fc81f	0.28082368
217	0xbbb5f2c5	-0.005552622
218	0x3e7beac7	0.24601279
219	0x3e98e29f	0.29860398
220	0x3d9684f5	0.07349578
221	0x3e15ddd5	0.14635403
222	0xbe28d338	-0.16486824
223	0x3e92d43b	0.28677544
224	0x3e53e642	0.20693305
225	0xbd63720b	-0.05552868
226	0x3e157572	0.14595583
227	0xbc5f4838	-0.013628058
228	0x3ea3d14f	0.31995627
229	0x3e36ca37	0.17850576
230	0x3e96481f	0.293519
231	0xbe93bbc9	-0.28854206
232	0x3ec24ce0	0.37949276
233	0x3e2a4f75	0.16631873
234	0x3e300445	0.17189129
235	0x3dde1fcd	0.10845909
236	0x3e88fe7e	0.26756662
237	0x3ebc91ab	0.36829886
238	0x3b3966d9	0.0028290062
239	0xbe825296	-0.25453633
240	0x3ea63932	0.32465512
241	0xbd98b3a5	-0.074561395
242	0xbe2b8539	-0.16750039
243	0x3e6826db	0.22671072
244	0x3e28999f	0.16464852
245	0x3ca3f362	0.020013515
246	0xbd4a1695	-0.049337942
247	0xbdc0fba6	-0.09422998
248	0x3e9885d5	0.29789606
249	0x3e401ccc	0.18760985
250	0x3e579b65	0.21055372
251	0x3e4d02a4	0.20020539
252	0xbe5a472c	-0.21316212
253	0x3d3fa29e	0.046785943
254	0xbeaaec0a	-0.3338321
255	0x3e379630	0.17928386

encoder.4.bias f4 [32]
0	0x3c1ab658	0.009442888
1	0xbd230629	-0.039800797
2	0x3ce4bdb7	0.027922494
3	0x3cb43a04	0.02200032
4	0xbd06e083	-0.032928955
5	0xbd06014a	-0.032716073
6	0x3d2994c8	0.041401654
7	0xbcea1114	-0.028572597
8	0xbc8bf557	-0.01708476
9	0x3cc4ce42	0.024024133
10	0x3d3018e0	0.042992473
11	0xb913468a	-0.0001404529
12	0xb9a8b1ec	-0.0003217602
13	0x3d13ac85	0.0360532
14	0x3cd0f72b	0.025508484
15	0xbcf9daf2	-0.03049991
16	0xbd6dd97e	-0.058068745
17	0x3c292a01	0.010324956
18	0x3c2ba126	0.0104754325
19	0xbc8ac942	-0.01694167
20	0xbc0c8153	-0.008575755
21	0x3d0e101a	0.034683324
22	0xbbd9956b	-0.0066401265
23	0xbcf79b62	-0.03022546
24	0x3bca0763	0.0061654313
25	0x3c976864	0.018482395
26	0xbd25eda0	-0.04050982
27	0x3d0c3d19	0.034237955
28	0xbb9c0998	-0.004761886
29	0xbd20ec75	-0.039288003
30	0xbd0d1ea7	-0.03445306
31	0xbbb29b31	-0.005450629

nee_decoder.0.weight f4 [16, 32]
0	0x3e0ca905	0.13736351
1	0x3d5ad261	0.05342329
2	0x3e26c878	0.1628741
3	0x3d6bb2a0	0.057543397
4	0x3de7d065	0.11319045
5	0x3e1581ef	0.14600347
6	0xbe5276e4	-0.20553166
7	0xbd28cc73	-0.041210603
8	0x3d2fe305	0.042941112
9	0xbcf9bc79	-0.030485379
10	0xbe943235	-0.28944555
11	0x3d4f50e6	0.05061426
12	0x3e6d83bc	0.23194784
13	0xbe312f1f	-0.17303132
14	0x3eb89af4	0.3605572
15	0x3da9a72a	0.08283837
16	0x3e2841b7	0.16431318
17	0xbe1d791e	-0.15378234
18	0xbea1c3ab	-0.31594595
19	0xbe09de4f	-0.1346371
20	0x3d258428	0.040409237
21	0xbe1a3ab6	-0.15061459
22	0x3eaa68b4	0.33283007
23	0xbe7a576d	-0.24447413
24	0xbe81faea	-0.25386745
25	0xbdd99b23	-0.10625293
26	0x3eaea4c9	0.34110096
27	0xbe21c934	-0.15799409
28	0x3eb1f755	0.34759012
29	0x3e1b9372	0.15192965
30	0xbd49e090	-0.049286425
31	0x3e15cae4	0.14628178
32	0x3e2785e4	0.16359669
33	0xbe1db19c	-0.15399784
34	0xbdafd9cd	-0.08586464
35	0x3ea64f44	0.3248235
36	0x3e53840f	0.20655845
37	0xbe2fd1d4	-0.17169887
38	0xbda2ca4a	-0.0794874
39	0x3e626fdb	0.22112982
40	0x3e2f2f34	0.1710785
41	0x3b8ae909	0.0042392057
42	0xbe701926	-0.23447093
43	0xbe8e56bb	-0.27800545
44	0xbdbe56c4	-0.09293893
45	0x3de6a794	0.11262432
46	0xbd546f5a	-0.051864006
47	0xbe9a2f0e	-0.30114025
48	0xbdd77555	-0.10520426
49	0x3ebcfbcd	0.3691086
50	0xbe8aea90	-0.27132082
51	0xbe894385	-0.26809326
52	0x3e45a182	0.19299892
53	0x3eae598b	0.3405269
54	0xbeb7fe54	-0.35936224
55	0xbe9a4d40	-0.30137062
56	0xbdbf9050	-0.09353697
57	0x3ea9e47f	0.3318214
58	0xbe665287	-0.22492419
59	0x3d14a992	0.036294527
60	0x3e87d2e0	0.26528072
61	0xbdd8ce25	-0.10586194
62	0xbdf5b437	-0.11997264
63	0xbe6a165c	-0.22860092
64	0x3c5e691f	0.0135748675
65	0x3ea8f5a5	0.32999912
66	0x3e140ad3	0.14457254
67	0x3e7e792f	0.24850915
68	0xbcbfe25b	-0.023423364
69	0xbd6605d2	-0.056157894
70	0xbd815bff	-0.06316375
71	0x3e4e7cd4	0.20164806
72	0xbd3de4b5	-0.04636069
73	0xbe9aa03d	-0.30200377
74	0xbdfe422c	-0.12414965
75	0x3e0daf87	0.1383649
76	0x3eb07d2f	0.34470508
77	0xbd83a921	-0.06428743
78	0xbe9d9b64	-0.30782616
79	0xbe8549ab	-0.26032767
80	0xbe8e6d5d	-0.27817813
81	0x3e11f065	0.1425186
82	0x3e856f3f	0.26061437
83	0x3dd6227f	0.10455798
84	0x3df9a87c	0.12190339
85	0x3e6bdc72	0.23033312
86	0x3e778880	0.24173164
87	0x3e582f5c	0.21111816
88	0x3e4a73b3	0.19770698
89	0x3dc3ed8f	0.09566795
90	0x3e3adefa	0.18249121
91	0xbe786b18	-0.24259603
92	0xbe6a54ce	-0.22883913
93	0x3dc2bc38	0.09508556
94	0x3d615d6a	0.055020727
95	0xbe9f2359	-0.31081656
96	0xbe7e1cf1	-0.24815728
97	0xbe7da771	-0.24770905
98	0x3e8477df	0.25872704
99	0x3e540b0a	0.20707336
100	0xbe2e0d92	-0.16997364
101	0x3d820d34	0.063501745
102	0xbd7981db	-0.060914855
103	0x3ead6722	0.33867747
104	0xbea707a5	-0.3262302
105	0xbe940ab1	-0.28914407
106	0xbea01611	-0.31266835
107	0x3e370743	0.17873864
108	0xbe4e9f1d	-0.20177884
109	0x3e3e069e	0.18557212
110	0x3dc466e9	0.09589941
111	0xbe3f7681	-0.1869755
112	0xbdd633f9	-0.10459132
113	0xbdf061e7	-0.117374234
114	0x3e2a8cef	0.16655324
115	0xbe0488f1	-0.12942864
116	0x3db7f3a7	0.0898202
117	0x3b936b90	0.0044989064
118	0xbe9dc058	-0.3081081
119	0xbe46ffc9	-0.19433512
120	0xbe61c8e1	-0.22049285
121	0x3e21a087	0.15783893
122	0x3d89e45a	0.06733008
123	0xbc126508	-0.008935221
124	0xbe7134ac	-0.23555249
125	0xbea49698	-0.32146144
126	0xbe103ca7	-0.14085637
127	0xbe8baa30	-0.2727828
128	0xbec34c4f	-0.38144156
129	0xbea88999	-0.3291748
130	0xbe65df09	-0.22448362
131	0xbeb1bd37	-0.34714672
132	0x3daf8e13	0.085720204
133	0x3de7c358	0.11316556
134	0x3e1769c6	0.14786443
135	0xbeb295bb	-0.3487986
136	0x3e6c8802	0.23098758
137	0x3d811f32	0.06304778
138	0x3e4e0872	0.20120409
139	0xbdab0986	-0.08351426
140	0x3e2d9fc1	0.16955473
141	0xbeabec41	-0.33578685
142	0x3e014154	0.12622577
143	0x3e95489e	0.29156965
144	0x3e03d6e8	0.12874949
145	0xbead48f1	-0.33844712
146	0xbdb6a4cd	-0.08918152
147	0xbd633aee	-0.05547612
148	0x3e296f3c	0.16546339
149	0xbdfee8f6	-0.124467775
150	0x3d474eae	0.04865902
151	0xbe03790e	-0.12839147
152	0xbd5f9122	-0.05458177
153	0xbc3695b6	-0.011144092
154	0xbe816d1f	-0.25278565
155	0xbe74cd27	-0.23906384
156	0x3e8e6006	0.27807635
157	0x3e9871e1	0.29774383
158	0xbc0c1d13	-0.008551854
159	0x3eb22d75	0.34800306
160	0x3e8b7dac	0.27244318
161	0xbe640a9d	-0.22269674
162	0xbe0fdbfd	-0.14048763
163	0xbe78aa48	-0.24283707
164	0x3dea19e8	0.114307225
165	0x3c127f00	0.008941412
166	0xbd46987e	-0.04848527
167	0x3e86669f	0.2625017
168	0xbe0d829e	-0.13819358
169	0xbe4623f6	-0.19349656
170	0xbe80aeac	-0.25133264
171	0xbe382dfb	-0.1798629
172	0x3eae78bc	0.34076488
173	0xbe300510	-0.17189431
174	0xbdc73b75	-0.097281374
175	0x3e232d10	0.15935159
176	0xbe8b0760	-0.27154064
177	0xbe5bbe14	-0.21459228
178	0x3e853b53	0.26021823
179	0xbe0adb7f	-0.13560294
180	0xbe3bdd51	-0.18346144
181	0xbd3b5c1d	-0.045742143
182	0xbd4e59c8	-0.05037859
183	0x3d8453e5	0.06461314
184	0x3e04bb27	0.12962018
185	0xbe8b9303	-0.272606
186	0x3ea480e2	0.3212958
187	0xbeac1ace	-0.336142
188	0x3df53be6	0.11974315
189	0xbdcc4d92	-0.09975733
190	0xbe18e328	-0.14930403
191	0x3ea95446	0.33072108
192	0xbead19e7	-0.33808824
193	0x3d5b78fd	0.05358218
194	0x3e5561db	0.2083811
195	0x3e97c2fb	0.29640946
196	0xbe921ed9	-0.2853916
197	0x3d422e88	0.047407657
198	0x3ebc2c69	0.36752632
199	0xbea31d23	-0.31858167
200	0x3da71db7	0.081599645
201	0xbe7f4d9c	-0.2493195
202	0x3d2fac26	0.042888783
203	0xbeaf7c08	-0.34274316
204	0x3e1d49e9	0.15360226
205	0xbdcb5d9c	-0.09929964
206	0x3e450c6d	0.19243021
207	0xbc5ed0a7	-0.013599551
208	0xbd80d135	-0.06289903
209	0xbd81d54e	-0.06339513
210	0xbe99f42a	-0.30069095
211	0xbe10bca3	-0.14134459
212	0xbca5d1ed	-0.020241702
213	0xbe9478ca	-0.28998405
214	0x3e93149e	0.28726667
215	0xbe526dc0	-0.20549679
216	0xbdf003ff	-0.11719512
217	0xbd91be04	-0.07116321
218	0xbe9a0391	-0.30080846
219	0xbbaebd22	-0.005332605
220	0xbe457dd6	-0.19286284
221	0xbe8bd138	-0.2730806
222	0xbb1b4b80	-0.0023696125
223	0x3ea68128	0.32520413
224	0x3db24db5	0.08706228
225	0x3e954d88	0.29160714
226	0xbb6296cc	-0.0034574745
227	0xbdfcbb35	-0.123403944
228	0x3e91e4dc	0.28494918
229	0xbe40cac5	-0.1882735
230	0xbea77640	-0.32707405
231	0x3d9e793c	0.07737967
232	0x3e346e50	0.17620206
233	0xbe5869f8	-0.21134174
234	0x3dfed973	0.12443819
235	0xbe0071fa	-0.12543479
236	0xbd2fb5a0	-0.04289782
237	0xbda052e3	-0.078283094
238	0xbd9adff6	-0.075622484
239	0xbe9349ed	-0.28767338
240	0x3db1759f	0.086650126
241	0xbdbe76ca	-0.09300001
242	0x3e8a69f0	0.2703395
243	0x3d71b6a6	0.059012078
244	0xbe940a9c	-0.28914344
245	0xbe89b613	-0.26896724
246	0xbe3cae6e	-0.18425915
247	0x3e2d5f3f	0.16930865
248	0xbe69bfa9	-0.22827019
249	0xbe259f75	-0.1617411
250	0x3d8374b7	0.06418746
251	0xbe7b002a	-0.24511781
252	0xbe3246ea	-0.17409864
253	0x3ea42549	0.32059696
254	0xbe3f6855	-0.18692143
255	0xbdf13dfa	-0.11779399

nee_decoder.0.bias f4 [16]
0	0xbe0d9fb4	-0.13830453
1	0x3dfd1fb5	0.12359563
2	0x00000000	0.0
3	0x3da55d6d	0.0807446
4	0x3e060c72	0.13090685
5	0x00000000	0.0
6	0x3e0172ec	0.12641495
7	0x00000000	0.0
8	0xbd8666b4	-0.06562558
9	0xbc2f9e7a	-0.010718936
10	0xbc255697	-0.010091445
11	0xbda6a317	-0.08136576
12	0x3e095e12	0.13414791
13	0x00000000	0.0
14	0x00000000	0.0
15	0x3e1954dd	0.14973779

nee_decoder.2.weight f4 [16, 16]
0	0xbdacb70a	-0.084333494
1	0xbd6bdf44	-0.05758597
2	0x3e803db9	0.2504709
3	0x3e5b8eb0	0.2144115
4	0xbc76f6c4	-0.015073482
5	0x3c281102	0.010257961
6	0x3dda8167	0.10669213
7	0x3ebf1ec1	0.3732815
8	0x3e6d48da	0.23172322
9	0xbe54b0b8	-0.20770538
10	0xbe5a4961	-0.21317054
11	0x3e0856ac	0.13314313
12	0xbcd65d19	-0.02616744
13	0xbe8e3b2f	-0.27779528
14	0xbed69499	-0.41910246
15	0x3dc20d9e	0.094752535
16	0xbe017c0b	-0.12644975
17	0xbe80fe95	-0.2519423
18	0x3da6d15d	0.081454016
19	0x3ed7e3f3	0.421661
20	0x3eb8245c	0.3596524
21	0x3e7ccfee	0.24688694
22	0xbea73565	-0.32657924
23	0x3e7d107e	0.24713323
24	0x3e65564c	0.22396201
25	0x3e13f063	0.14447169
26	0xbddce837	-0.10786479
27	0xbbf71299	-0.007540059
28	0xbe708093	-0.23486547
29	0xbdc7c2aa	-0.09753926
30	0xbd91fb5a	-0.0712802
31	0xbd7b3ed7	-0.061339226
32	0xbece6568	-0.40311742
33	0x3e1d41ec	0.15357178
34	0xbeb5651f	-0.35428712
35	0xbe9b6df1	-0.30357316
36	0x3e435006	0.19073495
37	0xbeb57b28	-0.35445523
38	0x3ee02a6d	0.43782368
39	0x3ed44a52	0.41462952
40	0xbde7755f	-0.11301684
41	0xbdaec58d	-0.085337736
42	0xbea99d58	-0.33127856
43	0x3d8c9654	0.0686461
44	0x3dcdd3e0	0.100501776
45	0xbe733c86	-0.23753557
46	0x3e0b0b64	0.13578564
47	0xbc68b26a	-0.0142026935
48	0xbe02b4da	-0.12764302
49	0xbac45b94	-0.0014980906
50	0xbed6e6d8	-0.41972995
51	0xbe9c2ca5	-0.3050281
52	0x3d6ac514	0.057316855
53	0x3ed61a62	0.41817003
54	0xbe836879	-0.25665644
55	0x3e8e212a	0.27759677
56	0x3d225210	0.039629042
57	0xbe3ec448	-0.18629563
58	0x39f8bd1d	0.00047443146
59	0x3e54945f	0.20759724
60	0x3d53022c	0.051515743
61	0x3ec44157	0.383311
62	0xbda7d5e0	-0.0819509
63	0xbe940c77	-0.2891576
64	0x3ecb0686	0.39653414
65	0xbdc27c89	-0.094964094
66	0x3e8cab9c	0.27474678
67	0x3e9981a0	0.2998171
68	0x3dbf0d57	0.09328716
69	0xbeb5f635	-0.35539404
70	0xbed4f569	-0.41593483
71	0x3e528029	0.20556702
72	0x3ddeb07a	0.10873504
73	0x3e8675fb	0.26261887
74	0xbebef362	-0.3729506
75	0xbd8b338a	-0.0679694
76	0x3ec61754	0.38689673
77	0x3e68f4d6	0.22749647
78	0x3eb83e09	0.3598483
79	0x3ebc4f95	0.36779466
80	0xbdd99822	-0.1062472
81	0xbe96f9cd	-0.29487458
82	0xbe8432d8	-0.2582004
83	0x3e169798	0.14706266
84	0xbe3000da	-0.17187825
85	0x3ae11799	0.001717317
86	0x3d8d8541	0.06910182
87	0x3e89a0b5	0.26880422
88	0x3e7749dc	0.24149269
89	0x3e7d11bc	0.24713796
90	0x3c902b9f	0.017598925
91	0x3e7a52f8	0.24445713
92	0xbe4f9497	-0.20271526
93	0xbe3178cd	-0.17331238
94	0xbd8c6955	-0.06856028
95	0xbe80bf8e	-0.25146145
96	0x3ecad3ce	0.3961472
97	0xbd0c8c4e	-0.034313492
98	0x3e00e89d	0.12588735
99	0x3bb9996a	0.0056640403
100	0x3c73d43e	0.014882145
101	0xbe6c54b2	-0.23079184
102	0xbc903aea	-0.017606217
103	0xbec64fd3	-0.38732776
104	0xbe4c6d0b	-0.19963472
105	0x3eb01935	0.3439423
106	0xbecb84ed	-0.39749852
107	0x3d8a82e1	0.067632444
108	0x3db1f040	0.08688402
109	0xbed431d6	-0.41444272
110	0x3dad3504	0.084573776
111	0x3e6fb3f3	0.23408489
112	0x3ead8722	0.3389216
113	0x3dfc2777	0.12312215
114	0x3ead4cb7	0.3384759
115	0x3d851798	0.06498641
116	0x3e56930e	0.20954534
117	0x3e02e5ad	0.12782927
118	0xbe8dcc9b	-0.27695164
119	0xbdc2aae4	-0.09505251
120	0xbe96b593	-0.29435405
121	0x3eac432b	0.33644995
122	0x3e5c63c9	0.2152244
123	0xbe29dd35	-0.1658829
124	0xbd0b6d37	-0.034039702
125	0x3decbd06	0.11559491
126	0xbec14ebe	-0.37755388
127	0x3d966ed0	0.073453546
128	0x3e38cbcf	0.18046497
129	0x3c29520a	0.010334501
130	0xbd233103	-0.039841663
131	0x3e783c88	0.24241841
132	0x3e1bee2f	0.15227579
133	0xbec517a6	-0.38494605
134	0x3e64e918	0.22354543
135	0xbeaedce6	-0.34152907
136	0x3e65d2f2	0.2244375
137	0x3eb54da3	0.35410795
138	0x3d006c07	0.031353023
139	0xbe23dea4	-0.160029
140	0xbe84ddcc	-0.25950468
141	0xbe44e3ae	-0.19227478
142	0xbda377ac	-0.0798181
143	0xbe6d2d45	-0.231618
144	0x3ee20290	0.4414258
145	0xbe1cfe65	-0.15331419
146	0x3e3818c7	0.17978202
147	0xbec2a91d	-0.38019648
148	0x3e782420	0.2423253
149	0x3ebca649	0.36845616
150	0xbe96640b	-0.29373202
151	0xbde24375	-0.11048023
152	0x3de2b9c4	0.11070588
153	0xbecebc0c	-0.40377843
154	0xbe87d947	-0.26532957
155	0x3e17c87d	0.14822574
156	0x3edb1e43	0.42796525
157	0xbe0476ee	-0.12935993
158	0xbb813870	-0.0039434955
159	0xbec430e6	-0.38318557
160	0xbed44dff	-0.41465756
161	0x3eb4fb7f	0.35348126
162	0x3ebc236d	0.36745778
163	0xbe0c673a	-0.13711253
164	0xbe3a7a2f	-0.18210672
165	0xbce5a1e9	-0.028031306
166	0x3e4c5fa7	0.19958363
167	0xbed64032	-0.41845852
168	0xbe71b536	-0.23604283
169	0xbe1d2505	-0.15346153
170	0xbe40ff13	-0.18847303
171	0x3b3f7278	0.0029212516
172	0x3e9f4022	0.31103617
173	0x3dc19fe9	0.094543286
174	0xbec8a2f9	-0.39186838
175	0x3ec1db01	0.378624
176	0x3ea75dca	0.32688743
177	0x3dc4a378	0.09601492
178	0x3e5909ba	0.21195117
179	0x3dfc7bc6	0.123282954
180	0x3ea2d52a	0.31803256
181	0xbed53b8e	-0.41647
182	0xbe9b426e	-0.3032412
183	0xbd613cf2	-0.054989763
184	0xbdc12c56	-0.094322845
185	0xbe98b485	-0.29825225
186	0xbed90589	-0.42387035
187	0xbeaf9597	-0.34293815
188	0xbdd3b409	-0.10337073
189	0x3ebc3290	0.36757326
190	0x3e92fbfc	0.28707874
191	0x3d982b42	0.07430126
192	0xbea6da29	-0.32588318
193	0xbe60deca	-0.21959987
194	0x3d2adc74	0.041714147
195	0xbeea6430	-0.45779562
196	0xbd976955	-0.07393137
197	0x3db4557c	0.08805367
198	0x3ea8fcf6	0.33005494
199	0xbde8c93d	-0.11366508
200	0x3ec0644e	0.37576526
201	0x3d3060ef	0.043061193
202	0xbe9e0321	-0.30861762
203	0x3eb187b0	0.34673834
204	0x3ea23105	0.31678024
205	0xbeaf2e07	-0.34214804
206	0xbe809bc5	-0.25118843
207	0x3e2fea31	0.1717918
208	0xbe886a40	-0.26643562
209	0x3e96bf40	0.29442787
210	0xbe539006	-0.2066041
211	0xbe099de6	-0.1343914
212	0xbdfe92f4	-0.12430373
213	0x3ed382e2	0.41310793
214	0xbe15f10c	-0.14642733
215	0xbdac6fb9	-0.08419747
216	0x3e8625a4	0.26200593
217	0xbe97b006	-0.29626483
218	0xbb08b17d	-0.0020857744
219	0xbeab3f92	-0.33446938
220	0xbecca06f	-0.3996615
221	0xbdca7814	-0.09886184
222	0x3d4410e2	0.047867663
223	0x3ebd0f8e	0.3692593
224	0xbec613e7	-0.3868706
225	0xbdf1cf67	-0.11807137
226	0x3de95eec	0.11395058
227	0x3e3b20eb	0.18274276
228	0x3e88e587	0.26737615
229	0xbeb244c0	-0.34818077
230	0xbda4b6b6	-0.08042662
231	0x3dcd0edc	0.100126
232	0xbeb16ad1	-0.34651807
233	0x3e54776a	0.20748678
234	0xbed38a95	-0.41316667
235	0x3e9fc02d	0.31201306
236	0x3e25adf7	0.16179644
237	0xbdfbe5a1	-0.122996576
238	0x3e0fd994	0.14047843
239	0x3ebd6a70	0.36995268
240	0x3e9d723d	0.3075122
241	0x3e6b3b3c	0.22971815
242	0xbe810f46	-0.25206965
243	0x3dd5380d	0.104110815
244	0x3e9b2ea5	0.30309024
245	0x3d9c6863	0.07637098
246	0x3e8ae6c8	0.27129197
247	0xbe897efb	-0.2685469
248	0x3e978545	0.29593864
249	0xbccd6e77	-0.025077088
250	0xbecb5474	-0.3971287
251	0xbde0c568	-0.10975152
252	0x3eba25c0	0.36356926
253	0xbe1ae692	-0.15127018
254	0xbd9997aa	-0.07499631
255	0xbe5489c6	-0.20755681

nee_decoder.2.bias f4 [16]
0	0xbdffed7d	-0.12496469
1	0x00000000	0.0
2	0x3e3e8d9d	0.18608709
3	0x00000000	0.0
4	0xbe0b9f47	-0.13634978
5	0x00000000	0.0
6	0xbe00021e	-0.12500808
7	0xbdd99e37	-0.1062588
8	0x3daf9ef8	0.08575243
9	0xbe01f7e6	-0.12692222
10	0x3e1b8380	0.15186882
11	0x3dccb7b2	0.099959746
12	0xbe1fead0	-0.15616918
13	0x00000000	0.0
14	0x3e34a93d	0.17642684
15	0x3dfb2ae9	0.12264044

nee_decoder.4.weight f4 [1, 16]
0	0xbea891ea	-0.32923824
1	0x3dd2c9ce	0.102923974
2	0x3eaa8d7d	0.33311072
3	0x3d8fde39	0.070248075
4	0xbd5b0bf7	-0.053478207
5	0x3d0cc38e	0.034366183
6	0xbee9f367	-0.45693514
7	0xbeac87c2	-0.33697325
8	0x3c506497	0.012719295
9	0xbef42f7a	-0.47692472
10	0x3e6cb5bc	0.23116201
11	0x3d651391	0.055926863
12	0xb97eb705	-0.00024291508
13	0xbd1c2897	-0.038124647
14	0x3eee9106	0.4659502
15	0x3f063197	0.5241942

fc_mu.0.weight f4 [4, 32]
0	0xbe671733	-0.22567444
1	0x3e9b8afd	0.30379477
2	0xbe50eeeb	-0.2040364
3	0xbea6ab1d	-0.32552424
4	0x3db722ad	0.08942161
5	0xbe81d754	-0.25359595
6	0xbc8d8f63	-0.017280286
7	0xbe84aba8	-0.25912213
8	0x3db0a7b5	0.086257376
9	0xbd887e1a	-0.06664677
10	0x3d5ca183	0.053864967
11	0x3e413ca5	0.1887079
12	0xbe8696c7	-0.2628691
13	0xbe0e880f	-0.1391909
14	0xbe8b6191	-0.27222875
15	0x3eae0f7b	0.33996186
16	0xbe15ae36	-0.14617237
17	0x3e1d6f79	0.15374555
18	0x3dc0f5de	0.094218954
19	0xbece37e4	-0.40277016
20	0xbe94639f	-0.28982255
21	0xbdd6e031	-0.1049198
22	0xbea03d36	-0.312967
23	0x3e5dab4b	0.21647374
24	0x3e836448	0.25662446
25	0xba445444	-0.0007489363
26	0x3d4cc0f0	0.049988687
27	0x3ddc54c9	0.10758359
28	0x3e0b0a75	0.13578208
29	0xbda1b791	-0.07896341
30	0xbe247e5a	-0.16063824
31	0xbe813e8f	-0.2524304
32	0x3d004104	0.031312004
33	0x3eac762c	0.33683908
34	0xbd8b5afd	-0.06804464
35	0x3eabd5e1	0.33561614
36	0x3e238e27	0.15972196
37	0xbe3dc5c1	-0.18532468
38	0x3e2f3099	0.17108382
39	0x3e3848b5	0.17996486
40	0xbe28c7ad	-0.1648242
41	0xbdb2c26f	-0.087284915
42	0xbd776d5c	-0.060407028
43	0x3e00efb7	0.12591444
44	0x3e9bb9a1	0.3041506
45	0xbdd63313	-0.104589604
46	0x3e7d49eb	0.24735229
47	0x3e5364db	0.20643942
48	0xbea3cc9f	-0.3199205
49	0x3ea08938	0.3135469
50	0xbc783927	-0.015150345
51	0x3ea4b41e	0.32168669
52	0x3e9efc3d	0.31051818
53	0xbed34a6c	-0.41267717
54	0xbebb486d	-0.36578694
55	0xbcee7d78	-0.029112563
56	0x3e190aab	0.14945476
57	0xbda641e7	-0.081180386
58	0xbebe39d9	-0.3715351
59	0x3e6afa1b	0.2294697
60	0xbe7bb359	-0.24580134
61	0x3e4c882b	0.19973819
62	0x3e8796a5	0.2648212
63	0xbe220070	-0.1582048
64	0x3e7bc43a	0.24586573
65	0x3d5e5d2d	0.054288078
66	0xbe033d89	-0.12816443
67	0x3cd8f3a1	0.026483359
68	0x3e165512	0.14680889
69	0x3e55fd69	0.2089745
70	0xbe6fe28c	-0.23426265
71	0x3e9c3bff	0.30514523
72	0xbe45b845	-0.19308574
73	0xbeb40eda	-0.3516758
74	0xbe34b803	-0.1764832
75	0xbeb90d8b	-0.36143145
76	0x3dea1b3c	0.11430976
77	0x3ce12502	0.027483467
78	0xbca2dbf3	-0.01988027
79	0xbe8d7708	-0.27629876
80	0x3e5c609d	0.2152123
81	0x3d88ed1e	0.066858515
82	0xbdd1d6c4	-0.102460414
83	0x3d9421f5	0.07233039
84	0x3e1370d0	0.14398503
85	0xbe7b28f7	-0.24527346
86	0xbdf0cfca	-0.117583826
87	0xbe3dd7c1	-0.18539335
88	0x3eb9004e	0.36133045
89	0x3dcebced	0.100946285
90	0xbe9dbf47	-0.30809996
91	0x3e939e59	0.28831747
92	0xbd84c29f	-0.064824335
93	0x3ce62f2c	0.028098665
94	0x3d585ba9	0.05282179
95	0xbd434c07	-0.047679927
96	0x3eca12f1	0.39467576
97	0x3e6757b1	0.22592045
98	0x3d81a8c7	0.0633102
99	0xbe46034f	-0.193372
100	0x3de04afc	0.10951802
101	0xbe88ebdd	-0.2674245
102	0xbdec3af1	-0.1153468
103	0x3e7a9064	0.24469143
104	0xbed39a59	-0.41328695
105	0xbd65ade3	-0.056074034
106	0xbe2fa351	-0.17152144
107	0x3e3acb15	0.18241532
108	0xbeb80014	-0.3593756
109	0x3d0d1ca8	0.034451157
110	0xbe1d0390	-0.1533339
111	0x3ea6305c	0.3245877
112	0xbdcb37ba	-0.099227384
113	0xbe895e06	-0.26829547
114	0xbdf2f859	-0.11863775
115	0x3e92bc65	0.2865936
116	0x3e06c8f4	0.13162595
117	0x3d7e24df	0.06204688
118	0x3e6b89ef	0.23001836
119	0x3e3d9841	0.18515112
120	0xbc952add	-0.018208915
121	0xbe87d155	-0.26526895
122	0xbec4013c	-0.38282192
123	0x3e68b796	0.22726282
124	0x3e7969b9	0.24356736
125	0xbdc6e682	-0.097119346
126	0xbe617ced	-0.22020312
127	0x3d0f0939	0.034920905

fc_mu.0.bias f4 [4]
0	0x00000000	0.0
1	0xbc844337	-0.016145332
2	0x00000000	0.0
3	0x3ba4f9e0	0.0050346702

fc_mu.2.weight f4 [1, 4]
0	0x3e193976	0.14963326
1	0x3f4a0f1a	0.78929293
2	0xbee2915b	-0.44251522
3	0xbf786611	-0.9703074

fc_logvar.0.weight f4 [4, 32]
0	0xbe671733	-0.22567444
1	0x3e9b8afd	0.30379477
2	0xbe50eeeb	-0.2040364
3	0xbea6ab1d	-0.32552424
4	0x3db722ad	0.08942161
5	0xbe81d754	-0.25359595
6	0xbc8d8f63	-0.017280286
7	0xbe84aba8	-0.25912213
8	0x3db0a7b5	0.086257376
9	0xbd887e1a	-0.06664677
10	0x3d5ca183	0.053864967
11	0x3e413ca5	0.1887079
12	0xbe8696c7	-0.2628691
13	0xbe0e880f	-0.1391909
14	0xbe8b6191	-0.27222875
15	0x3eae0f7b	0.33996186
16	0xbe15ae36	-0.14617237
17	0x3e1d6f79	0.15374555
18	0x3dc0f5de	0.094218954
19	0xbece37e4	-0.40277016
20	0xbe94639f	-0.28982255
21	0xbdd6e031	-0.1049198
22	0xbea03d36	-0.312967
23	0x3e5dab4b	0.21647374
24	0x3e836448	0.25662446
25	0xba445444	-0.0007489363
26	0x3d4cc0f0	0.049988687
27	0x3ddc54c9	0.10758359
28	0x3e0b0a75	0.13578208
29	0xbda1b791	-0.07896341
30	0xbe247e5a	-0.16063824
31	0xbe813e8f	-0.2524304
32	0x3d004104	0.031312004
33	0x3eac762c	0.33683908
34	0xbd8b5afd	-0.06804464
35	0x3eabd5e1	0.33561614
36	0x3e238e27	0.15972196
37	0xbe3dc5c1	-0.18532468
38	0x3e2f3099	0.17108382
39	0x3e3848b5	0.17996486
40	0xbe28c7ad	-0.1648242
41	0xbdb2c26f	-0.087284915
42	0xbd776d5c	-0.060407028
43	0x3e00efb7	0.12591444
44	0x3e9bb9a1	0.3041506
45	0xbdd63313	-0.104589604
46	0x3e7d49eb	0.24735229
47	0x3e5364db	0.20643942
48	0xbea3cc9f	-0.3199205
49	0x3ea08938	0.3135469
50	0xbc783927	-0.015150345
51	0x3ea4b41e	0.32168669
52	0x3e9efc3d	0.31051818
53	0xbed34a6c	-0.41267717
54	0xbebb486d	-0.36578694
55	0xbcee7d78	-0.029112563
56	0x3e190aab	0.14945476
57	0xbda641e7	-0.081180386
58	0xbebe39d9	-0.3715351
59	0x3e6afa1b	0.2294697
60	0xbe7bb359	-0.24580134
61	0x3e4c882b	0.19973819
62	0x3e8796a5	0.2648212
63	0xbe220070	-0.1582048
64	0x3e7bc43a	0.24586573
65	0x3d5e5d2d	0.054288078
66	0xbe033d89	-0.12816443
67	0x3cd8f3a1	0.026483359
68	0x3e165512	0.14680889
69	0x3e55fd69	0.2089745
70	0xbe6fe28c	-0.23426265
71	0x3e9c3bff	0.30514523
72	0xbe45b845	-0.19308574
73	0xbeb40eda	-0.3516758
74	0xbe34b803	-0.1764832
75	0xbeb90d8b	-0.36143145
76	0x3dea1b3c	0.11430976
77	0x3ce12502	0.027483467
78	0xbca2dbf3	-0.01988027
79	0xbe8d7708	-0.27629876
80	0x3e5c609d	0.2152123
81	0x3d88ed1e	0.066858515
82	0xbdd1d6c4	-0.102460414
83	0x3d9421f5	0.07233039
84	0x3e1370d0	0.14398503
85	0xbe7b28f7	-0.24527346
86	0xbdf0cfca	-0.117583826
87	0xbe3dd7c1	-0.18539335
88	0x3eb9004e	0.36133045
89	0x3dcebced	0.100946285
90	0xbe9dbf47	-0.30809996
91	0x3e939e59	0.28831747
92	0xbd84c29f	-0.064824335
93	0x3ce62f2c	0.028098665
94	0x3d585ba9	0.05282179
95	0xbd434c07	-0.047679927
96	0x3eca12f1	0.39467576
97	0x3e6757b1	0.22592045
98	0x3d81a8c7	0.0633102
99	0xbe46034f	-0.193372
100	0x3de04afc	0.10951802
101	0xbe88ebdd	-0.2674245
102	0xbdec3af1	-0.1153468
103	0x3e7a9064	0.24469143
104	0xbed39a59	-0.41328695
105	0xbd65ade3	-0.056074034
106	0xbe2fa351	-0.17152144
107	0x3e3acb15	0.18241532
108	0xbeb80014	-0.3593756
109	0x3d0d1ca8	0.034451157
110	0xbe1d0390	-0.1533339
111	0x3ea6305c	0.3245877
112	0xbdcb37ba	-0.099227384
113	0xbe895e06	-0.26829547
114	0xbdf2f859	-0.11863775
115	0x3e92bc65	0.2865936
116	0x3e06c8f4	0.13162595
117	0x3d7e24df	0.06204688
118	0x3e6b89ef	0.23001836
119	0x3e3d9841	0.18515112
120	0xbc952add	-0.018208915
121	0xbe87d155	-0.26526895
122	0xbec4013c	-0.38282192
123	0x3e68b796	0.22726282
124	0x3e7969b9	0.24356736
125	0xbdc6e682	-0.097119346
126	0xbe617ced	-0.22020312
127	0x3d0f0939	0.034920905

fc_logvar.0.bias f4 [4]
0	0x00000000	0.0
1	0xbc844337	-0.016145332
2	0x00000000	0.0
3	0x3ba4f9e0	0.0050346702

fc_logvar.2.weight f4 [1, 4]
0	0xbdcf4887	-0.10121255
1	0x3f570232	0.83987725
2	0xbc9b5951	-0.018963488
3	0xbd83cb16	-0.0643522

temp_derivative_decoder.0.weight f4 [16, 32]
0	0xbeace899	-0.33771208
1	0x3df6c5ea	0.12049468
2	0xbbfff0de	-0.007810696
3	0x3d8973d3	0.06711545
4	0x3e5ff5e2	0.2187114
5	0x3e4855d4	0.19563991
6	0x39d735b4	0.00041048008
7	0xbc4a2e18	-0.012340091
8	0xbe2f4636	-0.17116627
9	0x3e9b0663	0.3027831
10	0x3e96da14	0.29463255
11	0xbc5305b7	-0.0128797805
12	0x3ea8aa6b	0.3294252
13	0x3e99c624	0.30033982
14	0x3e42a225	0.19007166
15	0x3e41ebe5	0.18937643
16	0x3e4229fa	0.18961325
17	0xbd58083f	-0.05274224
18	0xbaad9d89	-0.0013245802
19	0x3e93b37c	0.28847873
20	0xbd8738fe	-0.06602667
21	0x3dcdc029	0.10046417
22	0xbdfa521f	-0.122226946
23	0x3d8fff02	0.07031061
24	0x3e600061	0.21875145
25	0x3e5446a8	0.20730078
26	0x3e52f353	0.20600633
27	0x3e11e2eb	0.14246719
28	0xbdd5d7e0	-0.104415655
29	0x3ead1bd1	0.33810285
30	0x3e7ba27d	0.24573703
31	0x3eb894f8	0.36051154
32	0xbe925c6b	-0.28586134
33	0xbe240e90	-0.1602118
34	0xbe964f4f	-0.29357383
35	0x3d0048bc	0.031319365
36	0x3e8a50cd	0.2701477
37	0xbe777136	-0.2416428
38	0x3dbd8019	0.09252948
39	0xbbe7d0ff	-0.007074475
40	0xbea889d2	-0.3291765
41	0xbc637830	-0.013883635
42	0xbd2a07c5	-0.041511316
43	0xbe2f97d7	-0.17147766
44	0xbe61ef4a	-0.22063938
45	0x3e56089f	0.20901726
46	0xbd149c4a	-0.03628186
47	0xbd8f81ff	-0.07007217
48	0xbdc94f7d	-0.09829614
49	0xbd392963	-0.045205485
50	0xbdc7b7d7	-0.097518615
51	0xbe58e3e1	-0.21180679
52	0x3e1a77a7	0.15084706
53	0xbbab4482	-0.0052266726
54	0xbea1e0b9	-0.31616762
55	0xbe35ccff	-0.17753981
56	0xbd93b976	-0.07213108
57	0xbe0a1685	-0.13485153
58	0x3daacfc5	0.0834041
59	0x3ea95927	0.3307583
60	0xbe82a589	-0.25516918
61	0xbba9fff2	-0.0051879818
62	0x3e9d4940	0.30719948
63	0xbe53090c	-0.2060892
64	0xbe80e499	-0.25174406
65	0x3df40360	0.11914706
66	0xbce68fc9	-0.028144734
67	0xbd0da09f	-0.03457701
68	0x3e78e9f9	0.24308003
69	0xbe90da7f	-0.282917
70	0xbe3892ba	-0.18024722
71	0x3e8a29e4	0.26985085
72	0xbe72e28e	-0.23719236
73	0xbd93e397	-0.07221144
74	0x3e13ca6b	0.14432685
75	0xbe5f07e4	-0.21780354
76	0xbe99fff0	-0.30078077
77	0xbe735b72	-0.23765352
78	0xbe92ff38	-0.2871034
79	0xbea967bb	-0.33086953
80	0xbd7797c3	-0.060447466
81	0xbe9b78da	-0.3036564
82	0xbe4c0822	-0.19924977
83	0x3d4837bc	0.048881277
84	0x3e99d5d6	0.30045956
85	0x3ea698d2	0.32538468
86	0x3e8988af	0.26862094
87	0x3d7ef12e	0.062241726
88	0x3e7ccc70	0.24687362
89	0xbe0bb180	-0.1364193
90	0xbe55f6d8	-0.20894945
91	0x3e3550ea	0.17706648
92	0x3e0f2366	0.13978347
93	0x3e183e42	0.148675
94	0x3e2ba010	0.16760278
95	0xbdab135d	-0.08353303
96	0x3e91ef5d	0.28502932
97	0x3e615a3b	0.22007076
98	0xbe391c56	-0.18077216
99	0x3e6f04d6	0.23341689
100	0x3e205c57	0.15660225
101	0x3c182f01	0.00928855
102	0x3d065368	0.032794386
103	0x3ea9c507	0.33158132
104	0xbc5db1aa	-0.013531128
105	0x3dc63cea	0.09679587
106	0x3e6ba052	0.23010376
107	0xbc15f18a	-0.009151826
108	0x3e97755f	0.29581735
109	0xbe71a9c8	-0.23599923
110	0xbd7bb3f6	-0.06145092
111	0x3b574227	0.0032845826
112	0xbb9cda6e	-0.004786781
113	0xbe6aedd5	-0.22942288
114	0x3eb8950c	0.36051214
115	0xbe2e5ad7	-0.1702684
116	0x3e694244	0.22779185
117	0xbe2b9622	-0.1675649
118	0x3de5679c	0.112014025
119	0xbe2b52dc	-0.16730827
120	0xbe01da18	-0.12680852
121	0x3d8831d8	0.06650132
122	0x3e75dfa3	0.24011092
123	0xbc166c73	-0.00918113
124	0x3dd6bead	0.10485587
125	0xbe2ccc37	-0.16874777
126	0x3dae953d	0.08524559
127	0xbd776c68	-0.06040612
128	0xbda4f909	-0.08055312
129	0x3e324073	0.17407398
130	0xbdf05a4f	-0.11735975
131	0xbe5d1aed	-0.21592303
132	0xbdcd634a	-0.100287035
133	0x3e348c17	0.17631565
134	0x3ead4b47	0.33846495
135	0x3ea3a320	0.31960392
136	0x3e7ce578	0.2469691
137	0xbe5f6ce8	-0.21818888
138	0x3ea1a753	0.3157297
139	0x3e1362bb	0.14393131
140	0x3d80b2cd	0.062841035
141	0xbe51e11c	-0.20496029
142	0xbe40591a	-0.1878399
143	0x3dbacc7b	0.09121033
144	0xbd006609	-0.03134731
145	0xbdcc8e1e	-0.09988044
146	0xbe8a2d49	-0.26987675
147	0x3e9a4a7b	0.3013495
148	0x3de029bc	0.1094546
149	0x3d3e483b	0.046455603
150	0x3d080f3d	0.033217657
151	0x3e42d0d1	0.1902497
152	0xbe5a539f	-0.21320961
153	0xbc675103	-0.014118436
154	0x3e9fc6ec	0.31206453
155	0xbd60cade	-0.05488097
156	0xbe9afdfb	-0.30271897
157	0xbe57f9d7	-0.210914
158	0x3e6073b8	0.21919143
159	0x3e3ea81a	0.18618813
160	0x3e79e29d	0.24402852
161	0xbdffe73c	-0.12495276
162	0xbe2854b0	-0.16438556
163	0xbea00902	-0.31256872
164	0x3cc7d360	0.024392784
165	0xbd9c82f2	-0.07642163
166	0x3eabc015	0.33544984
167	0xbe2319ba	-0.15927783
168	0xbe660ccd	-0.2246582
169	0x3e12d1eb	0.1433789
170	0xbe0417c2	-0.12899688
171	0xbd0672bb	-0.03282426
172	0x3eb4953d	0.3527011
173	0x3e61cf92	0.22051838
174	0xbeb46b85	-0.3523828
175	0x3c8baf02	0.017051224
176	0x3c364c84	0.011126641
177	0x3eb1099f	0.34577653
178	0xbe9c800a	-0.30566436
179	0x3e5edf4f	0.21764873
180	0xbeb1bf10	-0.34716082
181	0xbeb1f31f	-0.347558
182	0xbe39959f	-0.18123482
183	0xbead2211	-0.33815053
184	0xbcb22d56	-0.021750133
185	0x3e922dd6	0.28550595
186	0xbdc8e0ac	-0.09808478
187	0xbe89473d	-0.26812163
188	0xbcf92af4	-0.03041599
189	0xbe935528	-0.28775907
190	0x3e759e77	0.23986231
191	0x3d516081	0.051117424
192	0x3ea4c855	0.3218409
193	0x3e34f744	0.1767245
194	0x3dcf88e7	0.10133534
195	0x3db465cd	0.088084795
196	0x3eb43908	0.3519976
197	0xbe5eb903	-0.21750264
198	0xbe4f1e55	-0.20226415
199	0x3e9b0735	0.30278936
200	0x3df29650	0.11845076
201	0x3e95a8a8	0.29230237
202	0x3d858418	0.065193355
203	0x3dc939f8	0.0982551
204	0x3e3d889c	0.18509144
205	0x3e529a9b	0.2056679
206	0x3e2960d5	0.16540845
207	0xbe93330f	-0.28749892
208	0x3dfa1677	0.12211316
209	0xbe5a67d7	-0.21328674
210	0x3cb2f88b	0.02184703
211	0x3e4e11c3	0.20123963
212	0xbe0c2f14	-0.13689834
213	0x3e8f9bdd	0.28048602
214	0x3e9600fe	0.29297632
215	0x3e064459	0.1311201
216	0xbe69b5cd	-0.22823258
217	0xbc850b8c	-0.016240858
218	0x3e8a787f	0.27045056
219	0x3dddee81	0.10836507
220	0x3e8c5adf	0.2741308
221	0x3d6bf210	0.057603896
222	0xbe40f64f	-0.1884396
223	0x3e3fa5e5	0.18715627
224	0x3def9dab	0.11699995
225	0x3e47e37e	0.19520375
226	0xbe5852d6	-0.2112535
227	0xbe8940dc	-0.26807296
228	0x3e727bd2	0.23680046
229	0x3dfd4e6b	0.12368473
230	0x3e846f1a	0.25866014
231	0xbe96ec23	-0.29477033
232	0xbe2697b5	-0.16268809
233	0xbc379141	-0.011204065
234	0xbe3c09e5	-0.1836315
235	0x3e623000	0.22088623
236	0x3e8fc4d0	0.28079844
237	0x3e9ce5eb	0.30644163
238	0x3d4b5b96	0.04964789
239	0xbea46169	-0.32105568
240	0xbe01dbc3	-0.12681489
241	0x3da7fb73	0.08202257
242	0xbdc368e9	-0.095414944
243	0x3e1a9d60	0.15099096
244	0xbdc18025	-0.0944827
245	0x3e9594dc	0.29215133
246	0x3e9ccdbf	0.30625722
247	0x3eb35c1c	0.3503121
248	0x3defcd49	0.11709077
249	0xbe751694	-0.23934394
250	0xbdbb6691	-0.09150422
251	0xbe413492	-0.1886771
252	0x3e22d6bd	0.15902229
253	0xbcfe1c7f	-0.031019447
254	0x3e10f540	0.14156055
255	0x3dd22dad	0.10262618
