.archive/piae_sde/experiments/piae_day/best_model.pth (torch, 26786 bytes, 25 tensors)

encoder.0.weight f4 [16, 20]
0.2073911 0.023013417 0.7410301 0.13276027 -0.09078049 0.13429885 0.062351696 0.5649619
-0.28887594 -0.1579779 0.0030955186 -0.3899346 -0.732293 -0.11635309 0.21669914 0.2065848
0.20427516 0.24495614 -0.1198162 -0.5400879 0.1372495 -0.18118717 0.08311419 0.30129427
0.089607246 0.059768487 -0.71459985 -0.12589374 -0.026212018 0.17748709 -0.04444129 -0.0070977467
0.1700014 0.15737191 -0.22684614 0.41386122 -0.12518258 0.14943069 0.4253399 0.033099853
-0.037495434 -0.026061654 -0.016628932 0.040723987 0.004879674 0.02950183 0.03082699 0.039120674
0.055919774 -0.047004603 0.030143019 0.11024207 -0.026035158 -0.087575495 0.09697696 -0.035793167
-0.8606026 0.012248606 0.11549739 0.54752284 -0.10968554 -0.24299726 -0.11732433 -0.61427927
0.097296156 0.06742396 -0.13929282 -0.247287 0.064292274 0.15524733 0.15952772 -1.1492693
0.20332177 0.05822437 -0.21830097 0.22009988 -0.27711207 0.25122076 0.18433742 -0.035548136
-0.1847809 -0.060233694 -0.050055727 0.0908472 -0.15118898 0.0025089174 -0.060160756 -0.08496772
0.123748444 0.1485336 -0.015655085 0.20115833 -0.034359448 -0.19206701 0.19330621 0.052565444
0.21248831 -0.23231526 0.5271814 -0.9946427 0.27961433 -0.19761023 0.04344175 0.21123733
-0.24844758 -0.09263649 -0.067168996 0.14116845 -0.09384167 -0.13130394 0.039583094 1.1428471
-0.39694786 0.0728371 -0.053676452 -0.019193247 -0.008786851 0.13123141 -0.335355 -0.36220977
-0.020936355 -0.018867087 0.043193456 -0.07247684 0.009730817 0.019938132 -0.017061187 -0.053458042
0.042254962 0.0046803313 -0.015760759 -0.047435936 0.0072469553 0.009800367 -0.023206446 0.021450477
-0.45800987 0.0072758924 0.051298387 -0.5906079 -0.15345006 0.06480533 0.31111398 -0.20046116
0.37683535 0.037222784 0.0559099 0.3339586 0.59689754 -0.81453747 -0.06942875 0.09816209
-0.36146736 0.18085735 0.1472482 -0.09171032 -0.104999736 0.2821357 0.01564302 0.07688006
-0.020073863 -0.033593915 0.018204404 -0.0012423533 0.091676325 -0.06276289 0.039946146 -0.017483631
0.07229597 0.16601956 -0.01278451 0.10798861 -0.07525222 0.18917131 -0.20466538 0.10526855
-1.0933496 0.064736836 0.020736596 -0.12457506 0.07609495 0.09747029 0.06066889 -0.06150445
0.14062472 0.2535099 -0.242405 -0.026875027 -0.12664501 -0.07145799 -0.07591294 -0.14908262
0.07184374 -0.24715677 0.21254481 -0.26932403 -0.90069985 -0.33136514 -0.11299522 -0.179493
0.08520961 0.2561613 -0.04731368 -0.2949381 0.050917346 0.039902173 -0.2012857 0.046399083
-0.10515253 -0.16709124 -0.014534477 0.09015135 0.08648386 0.115271755 -0.16045122 0.008580329
0.3878032 -0.35767975 -0.13090153 -0.5597202 0.3445064 -0.3087378 0.2955423 0.43890986
-0.1976877 0.043704763 0.41881114 0.35421324 -0.07967964 -0.26947838 0.061224896 0.8644428
1.7942584 0.21785916 -0.22623266 0.007418331 0.06996723 -0.056541033 -0.024739312 -0.5209954
0.00989181 0.03202034 -0.022656975 0.16456114 0.018213103 0.016612785 -0.015584367 0.022018148
-0.020547546 -0.05303243 -0.008465845 0.009604703 0.0029601124 0.032549437 -0.041651744 0.20123193
00000000: 555e 543e a286 bc3c 26b4 3d3f 4ff2 073e
00000010: 1feb b9bd a385 093e 7e64 7f3d 58a1 103f
00000020: 8ce7 93be f5c4 21be 2fde 4a3b 82a5 c7be
00000030: 8e77 3bbf 874a eebd 61e6 5d3e f78a 533e
00000040: 822d 513e c8d5 7a3e 3262 f5bd 3343 0abf
00000050: 228b 0c3e 2189 39be c637 aa3d 3e43 9a3e
00000060: 0184 b73d cdcf 743d 04f0 36bf 4aea 00be
00000070: 96ba d6bc 2dbf 353e 1208 36bd 3794 e8bb
00000080: d914 2e3e 1a26 213e 5b4a 68be 9ee5 d33e
00000090: dd2f 00be 5c04 193e 27c6 d93e b693 073d
000000a0: d094 19bd 407f d5bc 6639 88bc 32ce 263d
000000b0: ace5 9f3b d2ad f13c e288 fc3c 003d 203d
000000c0: 220c 653d e687 40bd 7eee f63c 98c6 e13d
000000d0: af47 d5bc c85a b3bd db9b c63d db9b 12bd
000000e0: 7450 5cbf 61ae 483c e589 ec3d 752a 0c3f
000000f0: d0a2 e0bd 46d4 78be bd47 f0bd 6841 1dbf
00000100: 3543 c73d 9315 8a3d c7a2 0ebe ce38 7dbe
00000110: abab 833d 28f9 1e3e 3c5b 233e 421b 93bf
00000120: 9533 503e ad7c 6e3d 4a8a 5fbe dd61 613e
00000130: a2e1 8dbe 02a0 803e f3c2 3c3e ec9a 11bd
00000140: 3437 3dbe 9bb7 76bd 3c07 4dbd 190e ba3d
00000150: 49d1 1abe a66c 243b 206b 76bd 8e03 aebd
00000160: d36f fd3d 3119 183e 183f 80bc 73fc 4d3e
00000170: 7ebc 0cbd 37ad 44be 10f2 453e dd4e 573d
00000180: 8996 593e 0de4 6dbe 5cf5 063f e7a0 7ebf
00000190: 9c29 8f3e 565a 4abe faef 313d 994e 583e
000001a0: 0b69 7ebe 33b8 bdbd e68f 89bd 768e 103e
000001b0: 1030 c0bd 8a74 06be e221 223d d048 923f
000001c0: c03c cbbe 9e2b 953d d7db 5bbd 283b 9dbc
000001d0: b9f6 0fbc 8761 063e a7b3 abbe 8f73 b9be
000001e0: b882 abbc 268f 9abc 9feb 303d bd6e 94bd
000001f0: 016e 1f3c 4b55 a33c e7c3 8bbc d2f6 5abd
00000200: 8a13 2d3d 775d 993b b51c 81bc 2f4c 42bd
00000210: de77 ed3b b891 203c 721b bebc e9b8 af3c
00000220: 4580 eabe 9c6a ee3b 421e 523d 1432 17bf
00000230: 0322 1dbe a8b8 843d 554a 9f3e b145 4dbe
00000240: 90f0 c03e eb76 183d c801 653d 9ffc aa3e
00000250: 47ce 183f 8785 50bf a930 8ebd 3509 c93d
00000260: 4012 b9be ab32 393e 3bc8 163e 9fd2 bbbd
00000270: 1a0a d7bd 1774 903e ca25 803c 4b73 9d3d
00000280: f171 a4bc c699 09bd 6721 953c 76d6 a2ba
00000290: ccc0 bb3d d489 80bd 929e 233d d539 8fbc
000002a0: e90f 943d 0801 2a3e 1f76 51bc 2229 dd3d
000002b0: d61d 9abd 20b6 413e cd93 51be 0a97 d73d
000002c0: e1f2 8bbf bf94 843d cbdf a93c 3621 ffbd
000002d0: abd7 9b3d 819e c73d f17f 783d 17ec 7bbd
000002e0: edff 0f3e 0dcc 813e 0439 78be 0429 dcbc
000002f0: 3baf 01be 9158 92bd 3e78 9bbd 1da9 18be
00000300: d022 933d aa16 7dbe 59a5 593e d7e4 89be
00000310: 4494 66bf b1a8 a9be 0a6a e7bd 03cd 37be
00000320: 6082 ae3d 9327 833e fdcb 41bd 2002 97be
00000330: b58e 503d 7670 233d d71d 4ebe f70c 3e3d
00000340: 365a d7bd f719 2bbe 0422 6ebc 45a1 b83d
00000350: 731e b13d 9913 ec3d 534d 24be 8294 0c3c
00000360: 248e c63e cd21 b7be 0d0b 06be d349 0fbf
00000370: 2563 b03e e212 9ebe 5251 973e cbb8 e03e
00000380: a56e 4abe c403 333d 6a6e d63e 705b b53e
00000390: 142f a3bd 12f9 89be f5c6 7a3d 204c 5d3f
000003a0: 42aa e53f 7916 5f3e 89a9 67be 7915 f33b
000003b0: fb4a 8f3d 9297 67bd 19aa cabc f45f 05bf
000003c0: 4211 223c c327 033d 1f9b b9bc b782 283e
000003d0: a533 953c 8917 883c 9355 7fbc 675f b43c
000003e0: 5453 a8bc 8938 59bd 54b4 0abc 0b5d 1d3c
000003f0: 72fe 413b 8f52 053d 059b 2abd be0f 4e3e

encoder.0.bias f4 [16]
-0.093354054 0.0135989105 0.3733662 -0.33361113 0.26634273 -0.18780488 1.3377229 -0.24172495
-0.84085137 -0.8234116 0.023031464 -0.43520895 0.6584542 0.66574746 0.055371717 -0.37456205
00000000: 6930 bfbd f7cd 5e3c db29 bf3e 14cf aabe
00000010: 135e 883e ec4f 40be 813a ab3f bf86 77be
00000020: 0942 57bf 1acb 52bf 7bac bc3c b5d3 debe
00000030: 7490 283f 6d6e 2a3f 74cd 623d 99c6 bfbe

encoder.2.weight f4 [32, 16]
0.4760283 -0.0250581 0.36929336 -0.54716945 -0.8176375 0.072085746 -0.59761447 0.5949128
-0.19874536 0.02149918 0.49339762 0.02093051 -0.034000415 0.33644953 0.74650323 0.26626372
0.112988345 0.7630543 -0.13017522 -0.52007943 0.0982189 -0.703544 0.4433523 0.10059868
-0.24650861 -0.53737617 0.2652642 0.12344435 -0.3128472 -0.0044199754 -0.73754215 -0.13808037
0.14917377 -0.05864967 0.10651372 0.31660163 -0.08140148 -0.26673296 0.1259605 -0.45973775
0.06287331 0.6169807 -0.382832 0.3797397 -0.23917128 -0.23676507 0.37249497 -0.50448495
0.18137178 -1.0643735 0.2756075 -0.71526295 0.7270073 -0.086590104 -0.17156339 0.33530727
0.22260025 0.13135938 -0.39016274 -0.7052813 0.021942167 0.21965073 0.28186086 0.170347
0.1008201 -0.0073724957 0.071763165 -0.21808916 0.5647717 -0.43568817 -0.32458657 0.085302435
0.361525 0.34018806 -0.12185954 -0.107669234 -0.22778484 -0.03370682 0.16605155 0.59528196
-0.16170199 0.58425677 -0.098963596 0.6303647 0.27097285 0.038631 0.17021318 -0.20113298
-0.35983178 -0.46672186 -0.2745203 -0.44194844 -0.74018836 -0.034009874 -0.18641058 0.16508274
-0.9261106 0.48127863 -0.06763629 -0.3247349 0.6261414 0.62243515 -0.48903227 0.05313834
-0.2296508 0.6717944 0.32165593 -0.06895187 0.30931398 0.15411767 -0.31209484 -0.13740149
0.6463298 0.08983768 -0.16554187 0.82710814 0.05846959 0.3839337 -0.11053019 0.6999215
0.7185461 0.0048225364 -0.1756945 -0.45168573 -0.6434557 -0.1045399 0.11943128 -0.22133467
0.30076605 -0.1628595 -0.028445572 0.01778197 -0.1362417 0.18716829 0.2126564 0.54435974
-0.15110874 -0.22600952 -0.11280725 -0.41493207 0.16351299 -0.055658154 0.011216913 0.08559999
-0.25862017 -0.021342007 -0.06702768 0.028031286 -0.39549232 -0.4853153 0.7768082 0.1101578
-0.20804258 -0.14005446 -0.0877155 0.21025454 0.23364115 -0.28161222 0.11086127 -0.52321255
0.17106014 0.38786018 0.13555028 0.18478282 -0.05693971 -0.4906095 -0.5860993 0.16243398
-7.601051e-05 0.089831024 -0.03725536 0.007256692 0.5201344 -0.0016540439 0.034154747 0.63344014
-0.90936476 -0.0016760246 -0.51235133 0.5488803 -0.26392865 -0.32354054 0.36014703 0.16484915
-0.4734385 -0.037212368 0.45970273 0.14095667 -0.22550026 -0.22731994 0.13761234 -0.32868925
-0.38557598 0.21551871 -0.5163481 -0.0986147 0.16051197 -0.067010514 0.6971743 0.7470324
0.15272695 -0.0637966 -0.09998547 -0.26809943 -0.10773473 0.020592986 -0.12723684 -0.015213315
-0.06115304 -0.21182199 0.49798173 -0.1926867 -0.0570867 0.21954893 -0.064231485 -0.28585684
-0.06687349 -0.17896801 0.20608053 -0.12413469 0.13997915 -0.030809099 -0.110897884 -0.31178996
0.57903147 0.6200403 -0.2667194 -0.08312748 0.44126058 1.0845953 -0.12864868 0.07700604
-0.5555269 -0.1379357 0.18343747 -0.0028298318 -0.03996028 -0.40632778 -0.4756852 -0.040838424
-0.345949 -0.04226506 0.6411779 -0.3222583 0.27639186 0.8538077 0.19135946 -0.16104804
-0.35854733 -0.254916 0.010677877 0.624307 -0.4930776 -0.28498045 -1.3732008 0.43061787
00000000: fbb9 f33e a546 cdbc 0514 bd3e 4c13 0cbf
00000010: b150 51bf b1a1 933d 43fd 18bf 354c 183f
00000020: e783 4bbe 0c1f b03c 9d9e fc3e 7676 ab3c
00000030: 0544 0bbd 1d43 ac3e d61a 3f3f b853 883e
00000040: 6f66 e73d 8757 433f a74c 05be ed23 05bf
00000050: fe26 c93d 761b 34bf 13ff e23e ae06 ce3d
00000060: c16c 7cbe 7c91 09bf b6d0 873e 64d0 fc3d
00000070: 822d a0be 71d5 90bb 90cf 3cbf f164 0dbe
00000080: 02c1 183e a33a 70bd dd23 da3d 9c19 a23e
00000090: d2b5 a6bd 3991 88be cafb 003e bf62 ebbe
000000a0: b9c3 803d 72f2 1d3f 8e02 c4be 3e6d c23e
000000b0: 51e9 74be 8b72 72be a9b7 be3e ed25 01bf
000000c0: 86b9 393e 643d 88bf 6d1c 8d3e 791b 37bf
000000d0: 271d 3a3f 2756 b1bd 50ae 2fbe 65ad ab3e
000000e0: 52f1 633e 1383 063e 69c3 c7be 518d 34bf
000000f0: 0fc0 b33c 1fec 603e 1150 903e 726f 2e3e
00000100: c57a ce3d fa94 f1bb 91f8 923d c452 5fbe
00000110: e194 103f 8512 dfbe 3630 a6be 0bb3 ae3d
00000120: ce19 b93e 212d ae3e 7f91 f9bd b081 dcbd
00000130: 6e40 69be 2a10 0abd 6b09 2a3e 6664 183f
00000140: 3595 25be da91 153f 6dad cabd 955f 213f
00000150: f4bc 8a3e 8a3b 1e3d 5d4c 2e3e cef5 4dbe
00000160: df3b b8be 2bf6 eebe ed8d 8cbe 1147 e2be
00000170: fc7c 3dbf f04d 0bbd 6ae2 3ebe 730b 293e
00000180: 9615 6dbf 276a f63e e584 8abd a743 a6be
00000190: ce4a 203f e957 1f3f 7062 fabe 97a7 593d
000001a0: 9429 6bbe b8fa 2b3f 16b0 a43e a336 8dbd
000001b0: 675e 9e3e 06d1 1d3e e5ca 9fbe fab2 0cbe
000001c0: df75 253f d1fc b73d cf83 29be 5cbd 533f
000001d0: cf7d 6f3d f592 c43e a75d e2bd 0e2e 333f
000001e0: a3f2 373f 5e06 9e3b 42e9 33be 5a43 e7be
000001f0: 83b9 24bf 0419 d6bd 6398 f43d 8ea5 62be
00000200: 02fe 993e a4c4 26be b006 e9bc 7eab 913c
00000210: f282 0bbe 0ba9 3f3e 99c2 593e 295b 0b3f
00000220: 40bc 1abe 0a6f 67be 7d07 e7bd fa71 d4be
00000230: f36f 273e cef9 63bd 25c7 373c 0c4f af3d
00000240: dd69 84be 6fd5 aebc cf45 89bd dea1 e53c
00000250: f87d cabe 3f7b f8be e7dc 463f 6a9a e13d
00000260: 1d09 55be 706a 0fbe 2fa4 b3bd f74c 573e
00000270: a03f 6f3e 7a2f 90be 3c0b e33d 42f1 05bf
00000280: 642a 2f3e 9c95 c63e b1cd 0a3e b537 3d3e
00000290: 9d39 69bd 2b31 fbbe 9b0a 16bf 1855 263e
000002a0: d567 9fb8 54f9 b73d 1499 18bd 8bc9 ed3b
000002b0: 8727 053f 81cc d8ba d9e5 0b3d 2229 223f
000002c0: 21cc 68bf 0eae dbba 7529 03bf 6b83 0c3f
000002d0: a821 87be 1ba7 a5be 3165 b83e 37ce 283e
000002e0: 8866 f2be ff6b 18bd 285e eb3e f256 103e
000002f0: 8ae9 66be 8fc6 68be 40ea 0c3e f549 a8be
00000300: 376a c5be f0b0 5c3e 642f 04bf 81f6 c9bd
00000310: 405d 243e cf3c 89bd 047a 323f 843d 3f3f
00000320: 7464 1c3e cba7 82bd 2fc5 ccbd 5444 89be
00000330: 07a4 dcbd 9fb2 a83c 604a 02be 4541 79bc
00000340: 9c7b 7abd dde7 58be 76f7 fe3e aa4f 45be
00000350: bed3 69bd 6fd1 603e cc8b 83bd d45b 92be
00000360: f8f4 88bd 6443 37be c606 533e 543a febd
00000370: b256 0f3e 5d63 fcbc 6e1e e3bd efa2 9fbe
00000380: 683b 143f f6ba 1e3f 728f 88be bd3e aabd
00000390: e8ec e13e 05d4 8a3f 7bbc 03be 58b5 9d3d
000003a0: 0337 0ebf 043f 0dbe 08d7 3b3e b374 39bb
000003b0: 64ad 23bd 320a d0be 038d f3be 3146 27bd
000003c0: 3a20 b1be 211e 2dbd 3c24 243f 0aff a4be
000003d0: 3c83 8d3e 2493 5a3f bcf3 433e c7e9 24be
000003e0: 8493 b7be 5a84 82be 43f2 2e3c 95d2 1f3f
000003f0: ab74 fcbe f5e8 91be 0bc5 afbf f279 dc3e

encoder.2.bias f4 [32]
0.018662486 0.24888109 0.06536702 0.21270362 -0.055015244 0.2844009 0.16515325 0.07236998
-0.18950862 -0.16531381 0.0107541215 0.27571058 -0.124207586 0.09876551 -0.044610623 -0.11958858
-0.16399993 -0.13662994 0.010423578 -0.26836887 0.18526798 0.20217237 -0.26995334 0.38233593
0.40020213 0.29572374 0.10911957 0.38225782 0.20536256 0.21096715 -0.32845357 -0.22963217
00000000: 12e2 983c afda 7e3e 25df 853d face 593e
00000010: aa57 61bd ff9c 913e ef1d 293e b636 943d
00000020: 8c0e 42be 0648 29be 0e32 303c f029 8d3e
00000030: 8c60 febd 9245 ca3d a1b9 36bd dcea f4bd
00000040: 99ef 27be b8e8 0bbe a8c7 2a3c a567 89be
00000050: e4b6 3d3e 4606 4f3e 5337 8abe 89c1 c33e
00000060: 4be7 cc3e 1a69 973e 157a df3d 4cb7 c33e
00000070: 904a 523e c607 583e 112b a8be b224 6bbe

nee_decoder.0.weight f4 [16, 32]
-0.21964021 0.013837261 -0.09037735 0.0041774637 -0.12908156 0.11686611 0.71932817 -0.25498503
0.22229166 -0.2096904 0.043442026 0.20652993 0.53784555 -0.32421982 0.2592119 -0.010034064
0.27489117 -0.29723296 0.2105086 -0.36132085 -0.039701197 -0.3448358 -0.19575165 0.088178195
0.34600955 -0.52075464 -0.083396845 -0.3858673 0.68718636 0.11841174 -0.247955 -0.40938976
-0.14995204 0.22339883 -0.2766744 0.40162292 0.08407092 1.0769542 0.042858563 -0.015412593
0.09612876 0.2359302 -0.25199908 0.63265115 -0.07413621 0.4243274 -1.213263 0.17913216
-0.028230583 0.6020059 0.51384854 -0.24035892 -0.7479209 -0.23996636 0.35732663 -0.60520935
0.35599855 0.46865666 0.31247565 -0.13427818 -0.07284536 0.32067138 0.60821706 -0.8566077
-0.42290086 0.4221645 -0.27913916 -0.016005844 -0.25972798 0.095860675 -0.0043944493 -0.49285784
0.09470818 -0.1550248 -0.743628 -0.54512787 0.1234596 -0.2409603 -0.36088932 -0.08337866
0.9615441 0.6335826 0.44051424 0.32111356 0.11338624 -0.031844277 0.10024366 -0.060995493
0.44847956 -0.16700245 -0.5645016 -0.1305038 -0.48466665 0.23039846 0.3796811 -0.602771
0.16288678 -0.82101667 0.066780925 0.87604654 0.61937064 -0.18578234 -0.24530607 -0.80650765
-0.07424409 -0.12340636 0.87848943 0.6223997 -0.5515099 0.07301914 0.07226639 0.12237587
-0.8159712 0.29772922 -0.07110649 0.18962161 -0.10474362 0.24319689 0.084380254 -0.092977636
-0.21394287 0.1342644 0.09190441 -0.16404048 0.8436041 -0.0012466019 -0.06021631 0.44528034
-0.425083 0.006028326 -0.5580549 -0.18569705 -0.20997943 0.40212473 0.11975244 -0.32882032
-0.46805972 -0.3310917 0.14345247 0.2519695 0.11144711 0.016770981 -0.53146255 -0.200085
0.25358683 0.55823576 0.092584416 -0.34712353 -0.45914957 0.28323203 0.07037512 -0.39709282
0.79447424 0.017574808 0.06354951 0.98959 0.27133977 0.47518542 0.027802302 0.18635269
-0.014194478 0.24908575 -0.50264645 -0.25976834 -0.6571211 0.098911166 -0.14989051 -0.63461274
0.20264015 -0.3977717 -0.31573647 -0.15834853 0.7340175 -0.13763985 -0.4153337 0.23772621
1.0157108 0.7815747 0.545491 0.23553504 0.5502033 -0.18501134 0.13934161 -0.13816662
0.3070217 -0.5309134 0.050751217 0.03595926 -0.06012833 0.0014818494 0.066875346 -1.011835
-0.18871514 -0.5384257 0.2911454 -0.17203262 0.5060805 -0.30705518 -0.652595 -0.36588544
0.06659824 0.34992605 0.6180083 -0.24438308 -0.1967028 0.109892726 0.44130203 -0.24211083
0.05100084 -0.61918896 -0.26075646 0.051754076 -0.3476448 0.044322535 -0.06843067 0.14609538
-0.33740222 0.4569836 -0.004506107 -0.3877065 0.53323394 -0.103046566 -0.2520268 0.86552924
0.017853472 0.3984243 -0.44598308 0.65735817 -0.053310405 0.623341 -0.28886288 0.01113707
-0.40258437 -0.5321414 -0.7038396 -0.4608631 0.13774292 0.33551872 -0.65325004 0.01858366
0.21562351 -0.019575518 -0.04843443 0.0036545135 0.7168405 0.32808232 0.14148109 -0.478026
0.6500068 0.14202604 0.1871958 0.21580108 -0.6129476 0.031161496 0.5771537 -0.8516788
00000000: 5de9 60be aeb5 623c c317 b9bd 1be3 883b
00000010: f52d 04be 8057 ef3d e425 383f 668d 82be
00000020: 6da0 633e 15b9 56be 44f0 313d 957c 533e
00000030: 3fb0 093f 2400 a6be 6cb7 843e ea65 24bc
00000040: 89be 8c3e eb2e 98be 918f 573e 0cff b8be
00000050: b99d 22bd 518e b0be 1f73 48be c596 b43d
00000060: 2a28 b13e 2d50 05bf f7cb aabd 6690 c5be
00000070: 72eb 2f3f db81 f23d eae7 7dbe 899b d1be
00000080: 078d 19be aac2 643e 44a8 8dbe 85a1 cd3e
00000090: 602d ac3d a3d9 893f 768c 2f3d 1a85 7cbc
000000a0: 28df c43d b097 713e 0606 81be 6df5 213f
000000b0: bad4 97bd 7141 d93e 344c 9bbf 6c6e 373e
000000c0: d343 e7bc 0f1d 1a3f 948b 033f a620 76be
000000d0: be77 3fbf beb9 75be 84f3 b63e 00ef 1abf
000000e0: 7145 b63e c4f3 ef3e cffc 9f3e 3880 09be
000000f0: f32f 95bd 0a2f a43e 1db4 1b3f a44a 5bbf
00000100: 7686 d8be f225 d83e 54eb 8ebe b01e 83bc
00000110: 11fb 84be 9a52 c43d 50ff 8fbb dd57 fcbe
00000120: 5df6 c13d d2be 1ebe 685e 3ebf 808d 0bbf
00000130: 63d8 fc3d 4cbe 76be 7cc6 b8be 6ec2 aabd
00000140: c127 763f 7832 223f 158b e13e ff68 a43e
00000150: 0c37 e83d 256f 02bd 8c4c cd3d 69d6 79bd
00000160: 1d9f e53e b102 2bbe 2d83 10bf caa2 05be
00000170: 3a26 f8be 93ed 6b3e 9065 c23e 334f 1abf
00000180: cbcb 263e 262e 52bf 70c4 883d 9644 603f
00000190: 138f 1e3f ba3d 3ebe 8431 7bbe 4977 4ebf
000001a0: 490d 98bd 79bc fcbd afe4 603f 9655 1f3f
000001b0: c12f 0dbf 0f8b 953d 6700 943d 33a0 fa3d
000001c0: 7de3 50bf f76f 983e 48a0 91bd 2b2c 423e
000001d0: d383 d6bd 9b08 793e 8ecf ac3d 0f6b bebd
000001e0: d713 5bbe 9b7c 093e 6138 bc3d 3afa 27be
000001f0: 70f6 573f 0565 a3ba 61a5 76bd c9fb e33e
00000200: 7ba4 d9be 4489 c53b b0dc 0ebf 5e27 3ebe
00000210: d904 57be 4be3 cd3e c440 f53d 235b a8be
00000220: 86a5 efbe da84 a9be 34e5 123e 2502 813e
00000230: 623e e43d 4c63 893c ee0d 08bf 15e3 4cbe
00000240: 22d6 813e 8ae8 0e3f e69c bd3d 2dba b1be
00000250: a715 ebbe ca03 913e d520 903d c04f cbbe
00000260: aa62 4b3f 0bf9 8f3c 3f26 823d c555 7d3f
00000270: 0ced 8a3e 814b f33e a7c1 e33c 3dd3 3e3e
00000280: f58f 68bc 5610 7f3e 70ad 00bf 5b00 85be
00000290: 1739 28bf f091 ca3d e67c 19be fb75 22bf
000002a0: e680 4f3e bba8 cbbe 36a8 a1be 1e26 22be
000002b0: 92e8 3b3f 76f1 0cbe 9ea6 d4be 806e 733e
000002c0: d002 823f 4815 483f 4ca5 0b3f 1930 713e
000002d0: 20da 0c3f 9d73 3dbe 91af 0e3e 8d7b 0dbe
000002e0: f331 9d3e f1e9 07bf 82e0 4f3d 044a 133d
000002f0: 2049 76bd 9d3a c23a f1f5 883d cf83 81bf
00000300: 8b3e 41be 44d6 09bf 0311 953e 5229 30be
00000310: 7e8e 013f 5636 9dbe 7710 27bf 5655 bbbe
00000320: a864 883d 8229 b33e cb35 1e3f 8f3f 7abe
00000330: 756c 49be 700f e13d 57f2 e13e e7eb 77be
00000340: 42e6 503d 2b83 1ebf df81 85be 15fc 533d
00000350: 80fe b1be 8c8b 353d 6125 8cbd 079a 153e
00000360: fcbf acbe c1f9 e93e f7a7 93bb 7781 c6be
00000370: 0582 083f 140a d3bd a809 81be 5393 5d3f
00000380: 7241 923c 45fe cb3e e557 e4be a048 283f
00000390: 035c 5abd 4793 1f3f d6e5 93be 4278 363c
000003a0: 8a1f cebe 6b3a 08bf d52e 34bf 40f6 ebbe
000003b0: 7b0c 0d3e 1cc9 ab3e 653b 27bf c23c 983c
000003c0: 69cc 5c3e d65c a0bc 2e63 46bd 9080 6f3b
000003d0: dc82 373f 68fa a73e 6be0 103e d3bf f4be
000003e0: d866 263f 466f 113e 41b0 3f3e f5fa 5c3e
000003f0: 22ea 1cbf 6546 ff3c 58c0 133f 9f07 5abf

nee_decoder.0.bias f4 [16]
-0.635286 -0.07035785 0.28955367 0.58608675 -0.5449873 0.34135294 -0.07744892 0.2388729
0.010613916 -0.23654671 0.7949353 0.041795917 -0.3668992 -0.55597883 -0.26292074 -0.1497806
00000000: 1aa2 22bf c717 90bd 6140 943e c809 163f
00000010: 4a84 0bbf d0c5 ae3e 8a9d 9ebd 199b 743e
00000020: fee5 2d3c 4d39 72be e180 4b3f 3232 2b3d
00000030: 36da bbbe a154 0ebf 8c9d 86be 1660 19be

nee_decoder.2.weight f4 [16, 16]
-0.030767493 0.64232814 -0.17659411 -0.605582 0.4361038 0.391992 -0.68589693 0.43831718
-0.66881293 0.3859103 0.018865215 -0.348569 0.46936572 -0.6622683 0.55565053 -0.5569878
0.45583656 -0.017825734 -0.008436406 0.18436733 0.03846923 0.071555495 -0.08859978 -0.004528142
-0.15639898 0.07584336 -0.099163085 -0.08041379 0.18767521 -0.14674264 -0.13934427 -0.052747276
-0.5519343 0.1320778 0.40946332 -0.56816936 0.04791383 0.46428895 -0.123449385 -0.06412709
-0.23221421 0.13222131 -0.20451753 0.33281788 -0.004697859 0.21398611 -0.15572907 0.2441975
0.49430567 -0.4070726 -0.16589585 -0.3799581 0.26503313 -0.37830073 0.10375122 -0.50475997
0.5789913 -0.1601631 -0.10482036 0.3527786 0.14474533 0.72711504 0.26207906 -0.2609813
-0.64564294 0.6629567 0.084408626 -0.22789447 0.16666265 0.07417949 0.025714949 -0.5290331
0.12943777 0.038698304 0.10351614 0.02423289 0.37080258 0.15587467 -0.33286947 0.22970013
-0.057562165 0.516171 0.5388715 0.14945851 0.15546538 1.2036515 -0.031145146 0.19897561
0.5696888 -0.6135293 -0.28006822 -0.22783366 -0.5657206 -0.2994804 0.8193514 0.4145254
0.38880795 -0.40139386 -0.30104992 -0.14724244 -0.7141451 -0.84852755 0.18389243 -0.14185163
0.21845189 0.019703506 0.28558585 0.1828313 0.26756343 0.19837148 -0.06314175 -0.11835947
-0.24408557 -0.34202197 -0.06263255 -0.07645098 -0.2687681 -0.6375193 -0.0730187 0.18434587
-0.09837353 0.026798783 -0.08049173 -0.19993779 0.27671638 0.75267345 -0.007834317 0.4290376
0.35293132 -0.38839757 -0.31609514 -0.169452 -0.28761908 -1.1111186 0.37889543 -0.34261996
-0.026198564 -0.13118908 0.4541875 0.16631578 0.8290961 0.17240565 -0.5838107 -0.6508311
-0.12858632 0.48791945 0.22170536 -0.47833374 0.017550208 0.8997188 -0.13438977 0.24457219
0.6578068 0.07759642 -0.6978506 -0.0023767825 -1.129796 -0.8058795 -0.12148215 -0.21441546
-0.032996252 -0.12467121 0.5335968 -0.6662291 0.44009295 1.0963656 -0.27491373 -0.1982846
0.12352498 -0.018597325 -0.22476737 -0.61703694 -0.13558799 0.29901615 0.11612916 0.02064939
0.05880015 0.065697454 -0.41404408 0.10965983 -0.18963687 -0.22285716 -0.17800069 0.1604814
-0.23698442 0.39299735 -0.23348872 -0.014733805 0.35773906 0.0064358134 -0.048887074 0.22155443
-0.3117478 -0.5328669 -0.21856801 -0.14935252 -0.12900451 0.040322836 0.021330208 0.14165519
0.11670066 -0.27678874 0.1001446 0.099268936 -0.40960386 0.1313144 0.34642687 0.14444849
0.3370713 -0.3673364 -0.02836009 -0.06791244 0.52123827 -0.1025147 -0.032882426 0.2844274
-0.08252412 0.23903835 -0.096034676 -0.027577447 -0.008261218 -0.15131186 -0.13541093 0.01857216
0.1897457 -0.131914 0.03906919 0.028973233 -0.15499625 0.10673093 -0.0524149 0.12282052
0.026240474 0.06468753 -0.012728816 0.0044971723 0.058096245 0.00035701555 -0.16674514 -0.01978044
-0.04429702 0.48045704 0.34644616 -0.5877916 -0.10828168 0.87686646 -0.44593933 0.042629167
0.46858528 -0.0634516 -0.6188187 0.29372895 -0.6921277 -0.72722304 -0.95935977 0.3133937
00000000: 1c0c fcbc 9e6f 243f 16d5 34be 6c07 1bbf
00000010: ff48 df3e 2db3 c83e f196 2fbf 1c6b e03e
00000020: 5337 2bbf 0996 c53e 398b 9a3c a377 b2be
00000030: b450 f03e 6a8a 29bf 1d3f 0e3f c196 0ebf
00000040: 6963 e93e 4607 92bc da38 0abc caca 3c3e
00000050: e991 1d3d b08b 923d cd73 b5bd cf60 94bb
00000060: 0e27 20be c353 9b3d 0416 cbbd fcaf a4bd
00000070: ee2d 403e b443 16be 44b0 0ebe 870d 58bd
00000080: 914b 0dbf 673f 073e 2da5 d13e 8c73 11bf
00000090: 4b41 443d 48b7 ed3e 08d3 fcbd 1055 83bd
000000a0: 90c9 6dbe 0665 073e 0b6d 51be 1b67 aa3e
000000b0: 7ff0 99bb 2d1f 5b3e 7177 1fbe e90e 7a3e
000000c0: a215 fd3e d26b d0be 9ae0 29be de89 c2be
000000d0: 6cb2 873e a2b0 c1be 857b d43d f337 01bf
000000e0: c638 143f cc01 24be 0fac d6bd 669f b43e
000000f0: 1f38 143e 3624 3a3f 3a2f 863e 579f 85be
00000100: db48 25bf 88b7 293f 6ede ac3d 2b5d 69be
00000110: 9da9 2a3e 6beb 973d 28a8 d23c b76e 07bf
00000120: 568b 043e 1d82 1e3d 4500 d43d 0e84 c63c
00000130: d6d9 bd3e 9c9d 1f3e de6d aabe 8336 6b3e
00000140: 4ec6 6bbd c823 043f 7cf3 093f a70b 193e
00000150: 5132 1f3e 4111 9a3f 1b24 ffbc 43c0 4b3e
00000160: 20d7 113f 4210 1dbf 1a65 8fbe 3a4d 69be
00000170: 11d3 10bf 7f55 99be 03c1 513f ac3c d43e
00000180: d611 c73e 7f83 cdbe 3723 9abe b9c6 16be
00000190: 37d2 36bf 1a39 59bf 4c4e 3c3e 8e41 11be
000001a0: dab1 5f3e 3f69 a13c 4f38 923e 2138 3b3e
000001b0: 13fe 883e e521 4b3e 7650 81bd 7366 f2bd
000001c0: 91f1 79be 811d afbe 7f45 80bd 5592 9cbd
000001d0: f99b 89be 7734 23bf d48a 95bd 2ac5 3c3e
000001e0: 1078 c9bd 1f89 db3c d9d8 a4bd 7ebc 4cbe
000001f0: c5ad 8d3e 35af 403f 825b 00bc d1aa db3e
00000200: 6ab3 b43e 0cdc c6be 39d7 a1be d384 2dbe
00000210: cf42 93be 2239 8ebf 95fe c13e e26b afbe
00000220: 5f9e d6bc 6e56 06be 448b e83e af4e 2a3e
00000230: a43f 543f 1b8b 303e 9e74 15bf de9c 26bf
00000240: 22ac 03be 94d0 f93e bb06 633e 29e8 f4be
00000250: 74c5 8f3c f953 663f 799d 09be 2271 7a3e
00000260: 0766 283f dfea 9e3d 56a6 32bf cbc3 1bbb
00000270: 289d 90bf 1e4e 4ebf a2cb f8bd ba8f 5bbe
00000280: 1427 07bd 9f53 ffbd cd99 083f fe8d 2abf
00000290: dd53 e13e b555 8c3f 7ec1 8cbe 1e0b 4bbe
000002a0: aafa fc3d 6b59 98bc 6b29 66be 22f6 1dbf
000002b0: 94d7 0abe a518 993e 20d5 ed3d e928 a93c
000002c0: 6dd8 703d 638c 863d 96fd d3be 5595 e03d
000002d0: 2b30 42be ab34 64be d045 36be 3c55 243e
000002e0: 0bac 72be f336 c93e ab17 6fbe 0f66 71bc
000002f0: 9329 b73e 84e3 d23b d03d 48bd 2adf 623e
00000300: 689d 9fbe f769 08bf 4bd0 5fbe deef 18be
00000310: c219 04be 8f29 253d b0bc ae3c 0f0e 113e
00000320: c100 ef3d 41b7 8dbe 9d18 cd3d 834d cb3d
00000330: 99b7 d1be 4877 063e dd5e b13e 4eea 133e
00000340: 9c94 ac3e 8413 bcbe 6b53 e8bc ad15 8bbd
00000350: df6f 053f 3af3 d1bd b9af 06bd 78a0 913e
00000360: 6802 a9bd 78c6 743e d4ad c4bd 19ea e1bc
00000370: 0f5a 07bc 7ff1 1abe 2aa9 0abe a424 983c
00000380: b24c 423e 7714 07be 0407 203d 4659 ed3c
00000390: 56b7 1ebe bf95 da3d 02b1 56bd 5389 fb3d
000003a0: 43f6 d63c e57a 843d 868c 50bc 045d 933b
000003b0: 54f6 6d3d d12d bb39 3dbf 2abe 970a a2bc
000003c0: cb70 35bd 77fe f53e 6461 b13e 8379 16bf
000003d0: c9c2 ddbd 527a 603f 2952 e4be ec9b 2e3d
000003e0: 69ea ef3e eaf2 81bd e76a 1ebf a463 963e
000003f0: 482f 31bf 4a2b 3abf 9a98 75bf 2475 a03e

nee_decoder.2.bias f4 [16]
0.044561528 0.06087335 0.2172809 -0.042430826 0.24987744 -0.042221252 -0.13330385 0.15532261
-0.005280414 -0.023291789 0.044466753 0.1146427 -0.038534075 -0.110895135 -0.10810771 0.015993506
00000000: 2686 363d 5556 793d e27e 5e3e f2cb 2dbd
00000010: dfdf 7f3e 31f0 2cbd ce80 08be e40c 1f3e
00000020: 5307 adbb 6cce bebc c522 363d cbc9 ea3d
00000030: e8d5 1dbd fd1c e3bd 9367 ddbd d004 833c

nee_decoder.3.weight f4 [1, 16]
-0.3471968 -0.015726918 -0.002434424 -0.009964632 -0.007533939 -0.55225104 0.060870413 0.07177162
0.19663669 -0.33228847 -0.3292465 0.050154272 0.018522892 0.000724774 -0.012688448 -0.2882786
00000000: c7c3 b1be bdd5 80bc db8a 1fbb b242 23bc
00000010: 43df f6bb 5360 0dbf 4153 793d 00fd 923d
00000020: 215b 493e b721 aabe ff92 a8be 916e 4d3d
00000030: 52bd 973c c3fe 3d3a 35e3 4fbc 4199 93be

temp_derivative_decoder.0.weight f4 [16, 32]
-0.09255289 0.19090477 0.064937875 -0.15538453 -0.1286678 -0.29079556 -0.080206394 -0.05243145
0.34472355 -0.5794111 -0.33065873 0.10765268 -0.48577037 -0.4092972 -0.33020073 0.2893738
0.010966731 -0.26221845 0.4886072 0.28706363 0.057007916 0.7777447 -0.2968351 0.2435964
0.1650211 0.059951756 -0.038630374 0.11894445 0.13330446 0.15163921 -0.5844556 -0.081380025
-0.3057136 -0.22852139 0.1938448 -0.35405338 -0.009010845 0.20887546 0.24087806 0.0019549967
0.007160633 -0.15765677 -0.082093164 -0.15063182 -0.42409685 0.023193121 -0.23121038 -0.3061642
-0.13022047 -0.24203086 -0.11593936 0.13488571 -0.32957035 0.20155498 -0.26384306 -0.2276951
-0.15381736 0.19169405 -0.04044935 0.3152063 0.18941249 -0.072796516 -0.071965516 0.2796256
-0.19797845 -0.14623085 0.062841214 -0.08340876 0.5210547 -0.069175676 -0.26766178 -0.19077128
-0.0004936014 0.06184521 -0.4854006 0.15288985 -0.072074965 0.14465773 -0.11950902 0.18456684
0.29512003 0.114638776 0.29523027 0.15271361 0.26625782 0.17163096 -0.0032882178 0.25417134
0.2695168 0.45977148 0.39366344 0.41645557 0.24302809 0.34885976 -0.36032078 -0.06532596
-0.04781572 -0.05496726 -0.07653752 -0.14138964 0.22870602 0.3236559 0.18738347 0.09836245
-0.23214859 -0.15600248 0.03825823 -0.13497566 0.11833287 0.25036103 -0.17955396 0.14615272
-0.21309263 -0.104177 0.4930417 -0.0010266529 -0.054806203 0.6295436 -0.2501675 0.30814132
0.08229994 0.027441379 0.04288321 0.13730142 0.12844433 0.35727802 -0.31379095 0.5198227
-0.31750444 -0.35655767 -0.10383126 -0.1451938 0.24293202 -0.14121541 0.27880815 -0.28488952
0.12130776 0.10112702 -0.15752874 0.49287623 -0.050856296 -0.23144916 -0.086759046 0.11791912
-0.07516129 0.15126692 0.41475552 -0.65120786 0.060764894 -0.13948819 -0.31290492 0.08904237
0.10233847 0.23823191 0.04555289 0.071253054 0.13080253 0.10495489 -0.15835938 -0.38980025
-0.08759242 -0.33759394 0.04485683 -0.21269704 0.06034391 0.15554123 -0.086008586 0.29215455
-0.49907005 0.08327162 -0.5809834 0.41918218 -0.44544604 0.23050064 -0.25111428 -0.1098267
0.14714356 0.16631503 0.21042371 -0.12521647 -0.22861503 0.12671211 -0.18952373 0.092300795
0.25393173 0.06998322 0.28005698 0.107398435 0.5869201 -0.029687764 0.27366063 0.010474313
-0.27775776 -0.102996126 -0.04116897 0.14585242 0.020885235 0.015369752 0.037384935 0.13442948
0.15998344 -0.1568239 -0.464748 0.17718136 -0.36322272 0.059662066 -0.327173 -0.03605622
0.09811852 0.1740633 0.16843382 0.090816796 -0.3732149 0.02602628 0.024638278 -0.1985627
0.054252516 0.013821904 0.2185243 -0.053372808 0.44915196 0.14616652 0.100685544 0.27955922
-0.11169579 -0.13115767 0.018230673 -0.18862715 0.058255013 0.13040529 -0.2804007 0.1616424
0.068650424 0.19476667 0.10064699 -0.07114098 -0.16862448 0.24963672 -0.28472012 0.17434202
-0.06710664 -0.19556448 0.14905685 -0.27763596 -0.052632164 0.28203282 -0.12561426 -0.298522
-0.02546844 -0.025767695 0.35452846 -0.013201374 -0.34797648 0.47703823 -0.24276307 -0.24499601
00000000: 5f8c bdbd 8a7c 433e 26fe 843d 1f1d 1fbe
00000010: 7ec1 03be 28e3 94be 4043 a4bd 5cc2 56bd
00000020: 9b7f b03e 4954 14bf 1a4c a9be 0279 dc3d
00000030: e5b6 f8be 678f d1be 1210 a9be cd28 943e
00000040: cead 333c 7f41 86be b92a fa3e 01fa 923e
00000050: 2281 693d 471a 473f c5fa 97be 5671 793e
00000060: 4bfb 283e f98f 753d e23a 1ebd 2699 f33d
00000070: f780 083e 4f47 1b3e e29e 15bf 92aa a6bd
00000080: 7e86 9cbe 8301 6abe 407f 463e 7c46 b5be
00000090: 39a2 13bc 73e3 553e bda8 763e 671f 003b
000000a0: bea3 ea3b c770 21be 7620 a8bd 3a3f 1abe
000000b0: 3923 d9be 80ff bd3c 6ac2 6cbe 8ec1 9cbe
000000c0: 8458 05be f0d6 77be 9d71 edbd 7b1f 0a3e
000000d0: 72bd a8be 6e64 4e3e 7016 87be e728 69be
000000e0: 4c82 1dbe 724b 443e 38ae 25bd b862 a13e
000000f0: 59f5 413e 5716 95bd a862 93bd 162b 8f3e
00000100: ddba 4abe 8abd 15be e5b2 803d 36d2 aabd
00000110: d763 053f faab 8dbd f70a 89be 8c59 43be
00000120: 0765 01ba 6751 7d3d 6d86 f8be 288f 1c3e
00000130: 0a9c 93bd 2821 143e 25c1 f4bd 17ff 3c3e
00000140: f919 973e bcc7 ea3d 6c28 973e f560 1c3e
00000150: f252 883e 07c0 2f3e 247f 57bb bf22 823e
00000160: 1bfe 893e 2b67 eb3e 418e c93e aa39 d53e
00000170: 5bdc 783e bf9d b23e f77b b8be 9ec9 85bd
00000180: 6bda 43bd 5a25 61bd b4bf 9cbd 72c8 10be
00000190: e931 6a3e 3ab6 a53e 74e1 3f3e 4172 c93d
000001a0: 5cb8 6dbe 1dbf 1fbe a9b4 1c3d 0f37 0abe
000001b0: 8158 f23d 522f 803e fedc 37be 0fa9 153e
000001c0: f434 5abe c05a d5bd f66f fc3e c190 86ba
000001d0: 787c 60bd c529 213f f415 80be b3c4 9d3e
000001e0: df8c a83d becc e03c 4ea6 2f3d be98 0c3e
000001f0: e986 033e 25ed b63e 35a9 a0be 1a13 053f
00000200: f18f a2be ba8e b6be 7ca5 d4bd afad 14be
00000210: 2cc3 783e c69a 10be f1bf 8e3e 0add 91be
00000220: 3470 f83d af1b cf3d 374f 21be 465a fc3e
00000230: b14e 50bd 0201 6dbe baae b1bd 947f f13d
00000240: 2aee 99bd b7e5 1a3e d65a d43e 8fb5 26bf
00000250: 9ce4 783d fed5 0ebe 1335 a0be d95b b63d
00000260: d596 d13d 11f3 733e ab95 3a3d 1fed 913d
00000270: 19f1 053e 97f2 d63d f628 22be e693 c7be
00000280: a863 b3bd 1dd9 acbe ccbb 373d 41cd 59be
00000290: 2d2b 773d 3346 1f3e 4525 b0bd 4895 953e
000002a0: 1c86 ffbe 508a aa3d 54bb 14bf 0c9f d63e
000002b0: 8111 e4be 5c08 6c3e 0d92 80be d2ec e0bd
000002c0: cdac 163e 7d4e 2a3e 5079 573e bf38 00be
000002d0: 0f1a 6abe d2c0 013e 8212 42be 3308 bd3d
000002e0: 5703 823e 5d53 8f3d a163 8f3e b6f3 db3d
000002f0: 6540 163f c133 f3bc 3f1d 8c3e 749c 2b3c
00000300: 4436 8ebe a2ef d2bd cba0 28bd 565a 153e
00000310: 8317 ab3c 6ad1 7b3c f220 193d e2a7 093e
00000320: b3d2 233e 7296 20be 73f3 edbe 086f 353e
00000330: 54f8 b9be 3660 743d 3883 a7be b0af 13bd
00000340: 5df2 c83d a63d 323e ea79 2c3e 28fe b93d
00000350: 0616 bfbe 1135 d53c 37d6 c93c 0554 4bbe
00000360: e337 5e3d 4475 623c d6c4 5f3e 729d 5abd
00000370: 3ff7 e53e adac 153e 3934 ce3d 6322 8f3e
00000380: c3c0 e4bd 324e 06be 7e58 953c 7a27 41be
00000390: cf9c 6e3d f788 053e ae90 8fbe 9685 253e
000003a0: 9898 8c3d ea70 473e 0220 ce3d 5db2 91bd
000003b0: e5ab 2cbe c5a0 7f3e d6c6 91be b786 323e
000003c0: 356f 89bd 0e42 48be 5ca2 183e 4d26 8ebe
000003d0: d394 57bd 9b66 903e 06a1 00be e0d7 98be
000003e0: 31a3 d0bc c616 d3bc c184 b53e 934a 58bc
000003f0: f929 b2be 5b3e f43e e296 78be 3ce0 7abe

temp_derivative_decoder.0.bias f4 [16]
-0.3940997 -0.37029505 -0.3723407 -0.64460903 -0.4759862 -0.3068387 -0.03724348 -0.35778138
-0.3973562 0.062098306 -0.20048437 -0.4193767 -0.44994175 -0.3474224 -0.6086584 -0.2950872
00000000: 70c7 c9be 5097 bdbe 71a3 bebe 1905 25bf
00000010: 77b4 f3be f619 9dbe 9f8c 18bd 1f2f b7be
00000020: 4672 cbbe cb5a 7e3d c64b 4dbe 8bb8 d6be
00000030: c45e e6be 59e1 b1be 09d1 1bbf ab15 97be

temp_derivative_decoder.2.weight f4 [16, 16]
-0.20621213 0.0011978598 -0.10602161 0.059535913 0.38718697 0.05796401 -0.048387185 -0.3436888
0.51299125 -0.0017759942 -0.0051451335 0.04742116 -0.21750046 0.016978892 -0.052284855 0.029286517
0.048524242 -0.004574741 0.050282914 -0.057563953 -0.08066441 0.023149079 0.06027117 -0.09281378
-0.13130781 -0.0036455626 0.0015589386 -0.12910241 -0.037128374 0.032844666 0.073569976 -0.06713183
-0.06814582 -0.01339135 -0.06165475 0.26127 0.2557196 0.33047748 -0.05730302 -0.064466655
0.29858783 -0.001842176 0.003829558 -0.29218754 -0.3347294 -0.0072262553 -0.07341926 0.08134327
0.08734322 -0.010451797 0.03534167 -0.41510338 0.052490696 -0.01719632 0.06965651 0.27927813
0.0525764 0.0045118597 0.000106594074 0.11502456 -0.094064735 -0.006977185 0.09923243 -0.07761727
0.4383709 -0.0149265975 0.07751671 -0.38203207 -0.7700369 -0.23088261 0.1456484 -0.21671934
-0.49824965 0.0009436175 -2.6323947e-05 -0.12860322 0.076057024 0.019167334 0.045470223 -0.1964047
-0.30566227 -0.3399183 0.34437943 0.22956748 -0.41486344 0.72504884 -0.52847224 -0.06151057
-0.3406252 0.296511 0.042123817 0.73085505 -0.004452122 0.18554127 0.07429176 0.43400475
0.03219393 0.0069364915 0.0059011662 0.630701 0.08132692 0.04346666 0.026431922 -0.26134282
0.32073665 0.0044037667 -0.0023747217 -0.17480339 0.01623948 0.0026382965 0.022778757 -0.06519804
0.13055108 0.029764518 0.010665036 0.2992136 0.020432971 -0.24573015 0.003957729 0.040545605
0.31137708 0.0065365634 0.0057459567 -0.28658536 0.10529967 0.019437337 0.07544754 -0.03037992
-0.0836375 -0.07491861 0.33554867 0.30692753 -0.31231317 0.09734936 -0.8748762 0.22798653
-0.26403648 0.023484997 -0.13845226 0.6349348 -0.07047399 0.043065257 -0.04838525 0.46435973
-0.035671953 0.3371367 0.4059215 0.25163704 -0.5406515 -0.22119291 -0.41811794 0.053619966
-0.11183987 -0.35963976 -0.19117965 -0.084924735 -0.2785486 0.56730384 -0.30710402 -0.04071907
0.13093399 0.13557875 0.44027588 0.077229895 -0.14275283 0.34242123 0.48603946 0.7921555
-0.491508 0.078755 -0.25600654 0.20348519 0.3773735 0.011786396 -0.49724776 0.13306482
-0.60071343 0.005106795 0.112812646 -0.43443304 0.39137334 -0.15576413 0.04341299 -0.751606
-0.10379046 0.007069982 0.012747763 0.14807327 -0.4411575 -0.028489878 0.11205476 -0.057821095
0.1967724 0.09334554 0.5242406 -0.6708133 0.2640652 -0.33338678 0.062005684 -0.014858935
-0.39982533 0.41388756 -0.4188908 -0.15501776 -0.14939736 -0.78347933 -0.371483 0.805902
-0.04598466 0.011633296 -0.03773641 0.027012736 0.033212706 0.20621645 -0.07695679 0.05295755
0.13255726 -0.01915221 -0.0054373886 -0.21769498 0.31146184 -0.068582915 -0.11502311 0.13065293
-0.45008448 -0.061238285 0.22546907 0.026315833 -0.38589108 0.6747686 0.08754173 0.07935558
0.15026292 0.0040091523 -0.010335897 0.20069098 -0.4269153 0.109337516 0.072602525 -0.23681483
-0.052698445 0.0040426427 -0.085890666 -0.16398002 0.11063118 0.17113309 -0.017600749 -0.13180122
0.35636672 0.0003227669 0.01684926 -0.13344453 -0.27203214 0.014823692 -0.09630923 0.06062047
00000000: 4629 53be 8101 9d3a dc21 d9bd eedb 733d
00000010: 5f3d c63e ab6b 6d3d a431 46bd faf7 afbe
00000020: 6553 033f 7ac8 e8ba 8298 a8bb b13c 423d
00000030: 71b8 5ebe 5117 8b3c a528 56bd 47ea ef3c
00000040: 5bc1 463d b5e7 95bb 75f5 4d3d 2ec8 6bbd
00000050: 6233 a5bd 23a3 bd3c e7de 763d 2715 bebd
00000060: 8e75 06be 64ea 6ebb 4d55 cc3a 6c33 04be
00000070: ec13 18bd 2188 063d dbab 963d 6a7c 89bd
00000080: 0990 8bbd 6567 5bbc b189 7cbd 2ec5 853e
00000090: aeed 823e 5834 a93e 92b6 6abd 1807 84bd
000000a0: 81e0 983e 2b75 f1ba 52f9 7a3b 9b99 95be
000000b0: a761 abbe 39ca ecbb d65c 96bd 4d97 a63d
000000c0: 01e1 b23d 043e 2bbc 6dc2 103d 6e88 d4be
000000d0: 7c00 573d 4cdf 8cbc 13a8 8e3d 8bfd 8e3e
000000e0: 5a5a 573d 39d8 933b 428b df38 ff91 eb3d
000000f0: 03a5 c0bd dfa0 e4bb 5f3a cb3d cef5 9ebd
00000100: 2772 e03e b08e 74bc 15c1 9e3d b599 c3be
00000110: 2321 45bf 7e6c 6cbe db24 153e adeb 5dbe
00000120: 941a ffbe 195d 773a 3fd2 dcb7 90b0 03be
00000130: c9c3 9b3d d004 9d3c fc3e 3a3d 501e 49be
00000140: c47f 9cbe c509 aebe 8052 b03e bd13 6b3e
00000150: fb68 d4be cd9c 393f f549 07bf 82f2 7bbd
00000160: 6d66 aebe 4ad0 973e 068a 2c3d 5119 3b3f
00000170: 1be3 91bb 88fe 3d3e 4726 983d df35 de3e
00000180: c8dd 033d 824b e33b 925e c13b 9f75 213f
00000190: ba8e a63d 190a 323d c287 d83c bace 85be
000001a0: 9837 a43e 794d 903b 38a1 1bbb a9ff 32be
000001b0: a808 853c 45e7 2c3b 849a ba3c 8d86 85bd
000001c0: 2faf 053e b8d4 f33c 67bc 2e3c 8632 993e
000001d0: 0c63 a73c afa0 7bbe d6af 813b 2613 263d
000001e0: d16c 9f3e ab30 d63b 9448 bc3b 51bb 92be
000001f0: 5aa7 d73d 0d3b 9f3c 3d84 9a3d 4fdf f8bc
00000200: 234a abbd ee6e 99bd 09cd ab3e 9b25 9d3e
00000210: 83e7 9fbe 1a5f c73d e3f7 5fbf 4d75 693e
00000220: ca2f 87be 9c63 c03c 6ec6 0dbe 168b 223f
00000230: ab54 90bd 3265 303d 9d2f 46bd 8fc0 ed3e
00000240: c11c 12bd 2e9d ac3e f1d4 cf3e 92d6 803e
00000250: 2368 0abf 6580 62be 8e13 d6be 9ca0 5b3d
00000260: 4d0c e5bd b422 b8be 99c4 43be 05ed adbd
00000270: ec9d 8ebe d33a 113f bd3c 9dbe 0ac9 26bd
00000280: 8f13 063e 28d5 0a3e d76b e13e b52a 9e3d
00000290: cc2d 12be d651 af3e 2ada f83e b4ca 4a3f
000002a0: f0a6 fbbe 4d4a a13d 4a13 83be 6c5e 503e
000002b0: 1937 c13e ba1b 413c 4297 febe 2542 083e
000002c0: 5bc8 19bf e756 a73b 510a e73d 026e debe
000002d0: 1662 c83e a280 1fbe d2d1 313d 4069 40bf
000002e0: 1890 d4bd 4fab e73b fedb 503c 85a0 173e
000002f0: 65df e1be 9b63 e9bc f77c e53d d0d5 6cbd
00000300: b47e 493e f22b bf3d a234 063f 6cba 2bbf
00000310: 8e33 873e acb1 aabe acf9 7d3d e472 73bc
00000320: e8b5 ccbe 12e9 d33e db78 d6be fabc 1ebe
00000330: 9ffb 18be 1a92 48bf 0533 bebe 984f 4e3f
00000340: 695a 3cbd 9499 3e3c 7e91 1abd d049 dd3c
00000350: 0c0a 083d 682a 533e 869b 9dbd 04ea 583d
00000360: 17bd 073e 18e5 9cbc 1f2c b2bb 6feb 5ebe
00000370: ed77 9f3e 3375 8cbd 3c91 ebbd e2c9 053e
00000380: 7971 e6be ffd4 7abd 5de1 663e 4d94 d73c
00000390: 8493 c5be a3bd 2c3f 1449 b33d 2e85 a23d
000003a0: 86de 193e 355f 833b e557 29bc f081 4d3e
000003b0: a494 dabe 59ec df3d a2b0 943d 967f 72be
000003c0: 53da 57bd 2578 843b 72e7 afbd 61ea 27be
000003d0: 9a92 e23d 833d 2f3e 722f 90bc e6f6 06be
000003e0: b375 b63e 0a39 a939 7607 8a3c afa5 08be
000003f0: cc47 8bbe 12df 723c c63d c5bd 2c4d 783d

temp_derivative_decoder.2.bias f4 [16]
0.00034020003 0.003172217 0.011117687 -0.002032791 0.001575168 0.0059362003 0.0031149013 -0.0022889534
0.011067573 0.020069297 -0.047770392 -0.0018801552 -0.015636023 0.0062217694 0.0064152274 0.0018157859
00000000: e05c b239 f8e4 4f3b f626 363c 9338 05bb
00000010: de75 ce3a 7584 c23b 5f23 4c3b 4402 16bb
00000020: c454 353c 5e68 a43c e3aa 43bd 8a6f f6ba
00000030: 1e17 80bc fcdf cb3b d436 d23b aaff ed3a

temp_derivative_decoder.3.weight f4 [1, 16]
0.00017153421 6.7338595e-05 0.002508364 -2.2337019e-05 0.008780398 0.15483147 4.3794338e-05 -8.891355e-05
-0.21126519 0.13077623 -0.005006409 0.0055932435 0.07625871 9.717567e-06 0.003916766 0.004642178
00000000: dddd 3339 2238 8d38 5d63 243b 6260 bbb7
00000010: a9db 0f3c 248c 1e3e d0af 3738 1977 bab8
00000020: e755 58be 34ea 053e cd0c a4bb 8747 b73b
00000030: 872d 9c3d a208 2337 3758 803b 691d 983b

radiation_derivative_decoder.0.weight f4 [16, 32]
-0.1475552 0.11233043 0.37392214 0.2240925 -0.4098605 0.67274237 0.71789736 -0.1506989
-0.010677344 -0.42822775 -0.5432218 0.23740299 -0.009364893 0.49552593 -0.4581253 -0.06153691
-0.098430306 -0.089370534 0.63706493 -0.10697403 -0.24497105 0.328491 -0.25104293 0.53713626
0.49972823 0.2733146 -0.3734591 0.21111943 0.06783654 -0.016842611 -0.11404663 -0.14554337
-0.19506234 0.008290346 -0.24539413 -0.33443567 0.15856051 -0.18100083 -0.09431858 -0.7152655
0.11206358 -0.00032260898 0.007487638 0.44761434 -0.61110365 0.37797084 -0.12699318 -0.5922709
-0.25398543 0.16344042 -0.10746722 -0.4529408 -0.3532158 0.49147582 -0.082622804 -0.14694846
0.10123862 0.33727536 -0.047417097 0.31590372 0.26590535 0.07039113 0.041642632 0.6029789
-0.2848328 -0.482016 -0.30104673 0.052887693 -0.63693404 0.032776345 0.010209561 -0.15949062
0.1087847 -0.68694574 0.63318616 -0.12007612 -0.45512944 0.07566317 -0.2192712 -0.47881123
0.04102865 0.072020024 0.56902486 0.19313632 0.40919045 -0.07837859 -0.12845476 0.55180436
-0.0035145888 0.8382232 0.11115606 0.48621505 0.16022559 0.32029992 -0.043260213 -0.13634282
-0.55009025 -0.06693969 0.2933502 0.14053239 0.13615459 -0.3138978 -0.31778762 -0.15641747
-0.10795561 -0.055691004 -0.042936172 0.39848077 -0.8766235 0.18965411 -0.3236657 -0.24583448
-0.22604227 0.31150582 -0.18011177 -0.10034524 -0.12641929 0.86233145 -0.33632854 0.30211255
-0.047470808 0.059958965 0.40001473 -0.024701314 -0.21301632 0.21954061 -0.09167733 0.55100673
-0.21088584 -0.56861216 -0.10525411 0.48913613 -0.1493642 -0.17490172 -0.6830572 -0.20122938
-0.4363043 0.33190385 -0.44997177 0.3111121 -0.4862401 0.319772 -0.041340917 -0.063484214
0.5793936 0.48127243 0.37252232 0.06140925 0.2903861 0.2696933 -0.011432748 -0.28400692
0.11481551 0.38948303 0.006965203 0.34564874 0.12093368 0.5619228 -0.16565539 0.5363462
0.08747002 -0.37054485 0.23679745 -0.35942823 -0.46603063 0.0060055587 -0.80349016 -0.024204884
0.042752676 -0.3639936 -0.022492606 0.33219758 -0.20574462 -0.18324868 -0.3127366 0.042615898
0.24386713 0.1405769 0.62108374 0.023746857 -0.3935242 -0.36163428 0.22028227 -0.0649078
0.1368208 0.26399353 0.12288853 0.5020477 0.70549315 -0.14753349 -0.049165413 -0.19208366
-0.2687756 0.24995966 -0.16951865 0.6621729 -0.11053147 -0.4716965 0.1665232 0.06602748
-0.6788396 -0.15652172 -0.8404496 0.624004 -0.30018044 0.24118032 0.036396854 0.16983852
0.045429762 0.19028133 0.17311575 -0.19078797 0.029175041 0.5317415 -0.121880755 0.07822527
-0.17160773 0.27196324 -0.1973471 0.5087509 -0.16712168 -0.0022603434 -0.3199092 0.44901642
0.08520703 -0.6873504 0.3124898 -0.29676554 -0.73161125 -0.15367329 -0.117263146 -0.57269186
0.01210819 0.41814318 -0.6842709 -0.14561942 -0.15725127 0.041618478 -0.2934244 -0.14383666
-0.03759247 0.5796394 0.22672242 -0.56167495 0.43068913 0.0318967 0.30993885 -0.2260646
0.08967514 0.031584572 0.38490966 -0.11001886 0.19406019 0.33444932 -0.46513066 0.0072459225
00000000: b618 17be 7f0d e63d b972 bf3e 8178 653e
00000010: 3cd9 d1be d838 2c3f 1fc8 373f d050 1abe
00000020: 07f0 2ebc ab40 dbbe 9510 0bbf c519 733e
00000030: 356f 19bc 93b5 fd3e 668f eabe 200e 7cbd
00000040: d495 c9bd e607 b7bd b016 233f 3315 dbbd
00000050: b1d9 7abe f92f a83e b388 80be c381 093f
00000060: 61dc ff3e e4ef 8b3e 0836 bfbe b12f 583e
00000070: e2ed 8a3d 84f9 89bc 4891 e9bd 5209 15be
00000080: 6cbe 47be 3bd4 073c 9948 7bbe 273b abbe
00000090: b05d 223e 4858 39be 1a2a c1bd a41b 37bf
000000a0: 9781 e53d d823 a9b9 dc5a f53b b52d e53e
000000b0: 4a71 1cbf 6585 c13e 800a 02be 119f 17bf
000000c0: 610a 82be ed5c 273e c617 dcbd dbe7 e7be
000000d0: b4d8 b4be b8a2 fb3e 2536 a9bd a879 16be
000000e0: 3256 cf3d 5baf ac3e 6e38 42bd 22be a13e
000000f0: bf24 883e 3a29 903d 7791 2a3d d35c 1a3f
00000100: 9bd5 91be cdca f6be cc22 9abe c4a0 583d
00000110: 1c0e 23bf 7d40 063d 0146 273c 8251 23be
00000120: 83ca de3d addb 2fbf 7d18 223f 78ea f5bd
00000130: ba06 e9be 4bf5 9a3d a188 60be bf26 f5be
00000140: a80d 283d 3c7f 933d 9dab 113f 87c5 453e
00000150: 6981 d13e f484 a0bd a589 03be 0d43 0d3f
00000160: 0455 66bb cc95 563f caa5 e33d 2ef1 f83e
00000170: 2d12 243e 5afe a33e 9f31 31bd 749d 0bbe
00000180: b7d2 0cbf ad17 89bd ff31 963e b9e7 0f3e
00000190: 1c6c 0b3e 36b7 a0be 0fb5 a2be e72b 20be
000001a0: d517 ddbd 401c 64bd d7dd 2fbd ac05 cc3e
000001b0: 666a 60bf b034 423e 83b7 a5be 09bc 7bbe
000001c0: a077 67be b17d 9f3e 386f 38be ce81 cdbd
000001d0: 0f74 01be c1c1 5c3f 4133 acbe 7fae 9a3e
000001e0: c070 42bd 8897 753d bbce cc3e 695a cabc
000001f0: f320 5abe 41cf 603e 53c1 bbbd c70e 0d3f
00000200: 75f2 57be 9190 11bf 788f d7bd 0d70 fa3e
00000210: eef2 18be 7019 33be d6dc 2ebf 130f 4ebe
00000220: 4763 dfbe 4def a93e b362 e6be 164a 9f3e
00000230: 76f4 f8be 28b9 a33e 1855 29bd 0304 82bd
00000240: 2453 143f 5769 f63e 3fbb be3e 4488 7b3d
00000250: 7dad 943e 3d15 8a3e 6c50 3bbc 5b69 91be
00000260: 6524 eb3d 526a c73e 5c3c e43b dff8 b03e
00000270: 14ac f73d 2cda 0f3f 91a1 29be fc4d 093f
00000280: 7b23 b33d 0eb8 bdbe 087b 723e fa06 b8be
00000290: 919b eebe 47ca c43b 88b1 4dbf 5249 c6bc
000002a0: 6e1d 2f3d 5e5d babe 6a42 b8bc cd15 aa3e
000002b0: b8ae 52be 8ba5 3bbe 031f a0be 028e 2e3d
000002c0: 4eb8 793e 64f3 0f3e 58ff 1e3f c588 c23c
000002d0: 017c c9be 2128 b9be ad91 613e 61ee 84bd
000002e0: c01a 0c3e 292a 873e fbac fb3d 3386 003f
000002f0: 339b 343f 0513 17be ac61 49bd 94b1 44be
00000300: f59c 89be 6df5 7f3e 4c96 2dbe 2a84 293f
00000310: 535e e2bd 3482 f1be 0f85 2a3e 6a39 873d
00000320: 6fc8 2dbf 3b47 20be b427 57bf babe 1f3f
00000330: 40b1 99be f9f7 763e de14 153d 26ea 2d3e
00000340: 8f14 3a3d 1cd9 423e 4145 313e ec5d 43be
00000350: 7f00 ef3c 3620 083f 9e9c f9bd 9234 a03d
00000360: f0b9 2fbe c43e 8b3e 5c15 4abe 803d 023f
00000370: f221 2bbe 4522 14bb 23cb a3be 7be5 e53e
00000380: 0681 ae3d 32f6 2fbf aafe 9f3e a7f1 97be
00000390: e04a 3bbf 885c 1dbe a927 f0bd ef9b 12bf
000003a0: 6e61 463c dd16 d63e 612c 2fbf 421d 15be
000003b0: 7a06 21be 2378 2a3d b93b 96be eb49 13be
000003c0: 90fa 19bd 3f63 143f ec29 683e eec9 0fbf
000003d0: 4983 dc3e 1da6 023d 4eb0 9e3e 7a7d 67be
000003e0: 9aa7 b73d d35e 013d e112 c53e 9151 e1bd
000003f0: b7b7 463e f13c ab3e 9b25 eebe 346f ed3b

radiation_derivative_decoder.0.bias f4 [16]
-0.37537628 -0.34597874 -0.14914563 -0.16008069 -0.18099894 0.246415 -0.52311045 -0.6627024
-0.40357572 -0.2836823 -0.5062403 -0.57155645 -0.40871355 -0.3456623 -0.407397 -0.62318885
00000000: 5231 c0be 2024 b1be a2b9 18be 31ec 23be
00000010: c957 39be 3754 7c3e 91ea 05bf dda6 29bf
00000020: 7aa1 cebe ce3e 91be f798 01bf 8651 12bf
00000030: e742 d1be a6fa b0be 5796 d0be 4e89 1fbf
