.archive/piae_sde/experiments/pivae_day/best_model.pth (torch, 36642 bytes, 29 tensors)

encoder.0.weight f4 [16, 20]
00000000: 9f7d ccbd 19b7 bbbe fa0c f1bb 7383 1d3f
00000010: cfe4 0c3e 21b1 67bd 54ed 26bd 345d d13d
00000020: 0e00 e4bd e732 a7bd c85c f73e 6e9c a6bc
00000030: 0169 56bb 6d17 ec3c 0917 ecbe b328 08be
00000040: 27d1 c1bd b318 913f 2160 713e bfac 993e
00000050: af4c d13e f466 a33b edad 4ebe 4ba5 003e
00000060: a8c6 75be ef48 8e3d cc15 673d de7a 823e
00000070: 1e73 b5bd d866 13bf 7179 18bf 8193 9ebd
00000080: 2420 4bbd d677 cfbe 288f 07be 2434 303e
00000090: a53b 9dbe 986b ccbe 2e45 f1bd 1afb 7bbe
000000a0: a0a9 c8bd df31 e03c 981f 04be 75f1 bebb
000000b0: 82c2 77bd 7e3b 69bd 9aab bf3b 7c6b e23d
000000c0: ec04 f73d 6fd5 6c3e bded 47bc 0e4d 0abd
000000d0: c94a 8f3b ddb2 bcbd 36f9 213e 5609 a8be
000000e0: 1f9b 60be 0751 66bf b130 ad3c c9c8 073d
000000f0: fc64 bfbe dc0f 3d3e 6bef c7be 363e 073f
00000100: cbe9 14bf 2732 bd3d 2ef2 093e e127 d73e
00000110: db51 14be fa1b 8d3e a64f 34bf 017b 02be
00000120: 7231 14bc 6a8c 803d 4d6b 513e 3171 ee3e
00000130: 62ae cc3e 3bf3 133f caba 8bbe 60ac b53e
00000140: 0a3f 433e c030 d03e 5f69 43be a0c4 843c
00000150: 1d81 7d3e 3d1e bbbe cf65 d8be a37f 6f3e
00000160: ddd9 123d b595 b6be 4ea1 3f3e 2f67 df3d
00000170: 9def 1bbc 39f5 e0bd 67c3 d43e 6e30 f23d
00000180: e588 fdbe cde0 cdbe ed6e 0c3f 8deb 8e3e
00000190: 4c97 4bbe 2196 76be 4421 acbc 1020 b6be
000001a0: b993 8bbe 0e85 f0bd d3fb e53d a56c ee3c
000001b0: 73f6 123c 4e67 72bd 29b4 063e 6995 d4bc
000001c0: 8f74 0abd 2065 f73e 856f 8bbe 451b 313e
000001d0: b3ee 48bf 7e70 3f3d 79d6 853d 50ee 413e
000001e0: 9eeb dbbe 2f9c dcbc 755a ad3d ce94 ac3e
000001f0: ddcb 263e 533a ee3e 79ba e63d 5dc2 1cbe
00000200: d9ad e9bd a0e3 393e b852 e93d e6d6 c33d
00000210: 348b c63d 168a fdbd b30e e53e 03a4 163e
00000220: 4ccb 81bd cbfa 36bf 8083 38bf 0fcf e4be
00000230: 984f bbbc 3e46 a03e e442 52be 345f 71be
00000240: 6dcb 9d3d 2b7b 153d 7e4d 5b3e c7db c03e
00000250: b9be 1dbf 8609 c03e 646b 5b3d 4133 763d
00000260: 58c6 52bd 5648 25be 31aa 7dbe ed3a 5d3e
00000270: 5164 843e 5ca0 1bbe eca4 0dbf 83ae b03e
00000280: 7d08 0cbe ead4 7dbe 5d99 8b3d 6028 863e
00000290: 24a6 77ba 57d6 ad3d 34f1 ac3d 1913 1abe
000002a0: aa1f 343e a6cc b2be ef06 bdbb 9a9a 88bb
000002b0: 9118 a83b 283d a6bd 7517 15bc 3543 e23a
000002c0: 9390 19bf 205d ff3e c186 04be f0d4 373f
000002d0: 310e 723e 24c2 2d3e 612f c83c 9a96 36be
000002e0: c3d0 303d 4100 803e 0f05 0a3e a086 15bd
000002f0: 63df 2cbe 8bbc 41bd 8fef 40be 69e4 85bd
00000300: d50e 6a3c d1fb b73d fe73 dcbd 02dc 503c
00000310: 163e 5abf d1d0 123f 9632 853c d6a5 95bc
00000320: 90dc a43e 1535 83be 8c20 be3e 7541 0dbd
00000330: 689f e63b 9b96 a83e 41c4 13be befd d0be
00000340: 6186 16be c760 e63b 65c7 aabe 8a59 27be
00000350: e6d6 94bd 058c 973e 1d31 d0bd 2b8e 143f
00000360: 3a89 d93d 5b8f e7be e1a4 953e 4992 6bbf
00000370: 10de 1dbe 8848 d8bb a58d 59be 76d5 5cbe
00000380: a20c 68bd a9c4 c93d 764f c6be d418 783e
00000390: f058 cd3e e5fd d6be ebf4 22be cf53 9ebd
000003a0: df56 f8bc 159e aebe 43ed 153d ab24 163e
000003b0: 3b68 853f 256b 06bf 164f 8b3d a5f9 bfbd
000003c0: 05e4 d2bd 37f9 55be 8f91 0c3e a759 17be
000003d0: 59e0 023f 395f 9b3e 3ce6 72be b7f8 a63d
000003e0: 04d5 1d3f aa96 9fbd da7d 703e 14db 393d
000003f0: b8d6 f23d c977 7ebe ba72 1e3f ce8f 11be
-0.09984898 -0.3666313 -0.0073562833 0.615287 0.13759159 -0.056565408 -0.040753677 0.10222855
-0.11132823 -0.08164006 0.48312974 -0.020338263 -0.0032716396 0.028819764 -0.46111324 -0.13296776
-0.09463721 1.1335663 0.23571827 0.30014607 0.40878817 0.004986638 -0.20183535 0.12563054
-0.24001563 0.06947505 0.05641727 0.25484365 -0.088598475 -0.575788 -0.59560305 -0.07742978
-0.0495912 -0.40521115 -0.13238204 0.1720739 -0.30709568 -0.39925838 -0.11780773 -0.24607506
-0.097979784 0.02736753 -0.12902677 -0.0058271238 -0.06048823 -0.0569415 0.005849314 0.11055657
0.12061486 0.23128293 -0.012202677 -0.03376489 0.0043729288 -0.09213803 0.15817723 -0.32819623
-0.21934174 -0.8996739 0.021141382 0.033150468 -0.37381732 0.18463081 -0.3904985 0.528293
-0.5816924 0.092380814 0.1347129 0.42022613 -0.1448435 0.27560407 -0.70434034 -0.12742235
-0.009044992 0.06276782 0.20451088 0.46570733 0.39976794 0.57793015 -0.27290946 0.35483074
0.19067016 0.40662193 -0.19083165 0.01620704 0.24756284 -0.36546507 -0.42265174 0.23388533
0.035852302 -0.35661092 0.18713877 0.109083526 -0.0095175775 -0.109842725 0.4155533 0.118256435
-0.49518505 -0.40210572 0.5485676 0.27914086 -0.19881934 -0.24080707 -0.021011956 -0.35571337
-0.2726114 -0.11744128 0.11229672 0.02910454 0.008969891 -0.05918055 0.13154663 -0.02595015
-0.033802565 0.4831934 -0.2723352 0.17295559 -0.78489226 0.04673814 0.06535048 0.18938565
-0.429532 -0.026929943 0.08464519 0.3370728 0.16288705 0.46528873 0.112660356 -0.15308519
-0.11410112 0.18153238 0.113927305 0.09562473 0.0969452 -0.123798534 0.44737777 0.14711003
-0.06337604 -0.7147643 -0.72075653 -0.44689223 -0.022865102 0.3130359 -0.20533329 -0.23571473
0.07704816 0.036494415 0.2141628 0.37667677 -0.61619145 0.37507266 0.053569213 0.060107473
-0.051458687 -0.16140875 -0.24771954 0.2160451 0.25857785 -0.15197891 -0.55329776 0.34508142
-0.13675113 -0.24788252 0.06816361 0.2620268 -0.0009447059 0.08488148 0.08444443 -0.15046348
0.17590204 -0.3492176 -0.005768649 -0.0041688206 0.0051298817 -0.081171334 -0.009099831 0.0017262461
-0.5998623 0.49875736 -0.1294203 0.7180929 0.23638226 0.1696859 0.024436655 -0.17830887
0.04316784 0.25000194 0.13478492 -0.03650534 -0.1688209 -0.04729895 -0.18841384 -0.065377064
0.014285763 0.08983577 -0.10764311 0.012747766 -0.85250986 0.5734988 0.016259473 -0.018267553
0.32199526 -0.25626436 0.37134206 -0.034486253 0.0070380457 0.32927403 -0.14430334 -0.4081859
-0.14699699 0.0070305797 -0.3335525 -0.1634275 -0.07267551 0.29599014 -0.101656176 0.5802943
0.10621877 -0.4522656 0.29227355 -0.9202009 -0.15416741 -0.0066004433 -0.2124544 -0.21565804
-0.056652673 0.09851963 -0.387325 0.24228221 0.40106916 -0.4199058 -0.15913741 -0.07730829
-0.03031486 -0.34104982 0.036603224 0.14662425 1.0422434 -0.5250724 0.06802194 -0.09373788
-0.102973975 -0.20895849 0.13727401 -0.14780293 0.5112358 0.30346087 -0.2372064 0.08152907
0.6165316 -0.07792409 0.23485509 0.045374945 0.118573606 -0.24850382 0.6189381 -0.14215013

encoder.0.bias f4 [16]
00000000: 349a 803e beb9 e5bd 82d8 2c3e 4693 bc3d
00000010: b872 dbba e663 91bd 6c19 9fbc 8085 01be
00000020: 8220 a63d 5e6d b83e c613 4fbd 428e 4bbd
00000030: 5844 07be 3b55 81bd 9aa4 283e 2aa7 5e3d
0.25117648 -0.11217068 0.16879466 0.09207778 -0.0016742563 -0.07099132 -0.019421302 -0.12648582
0.08111669 0.3602094 -0.050555967 -0.049696214 -0.13209665 -0.063150845 0.1646904 0.05435864

encoder.2.weight f4 [32, 16]
00000000: 5f30 85be 6361 003e 5710 973e c405 cfbc
00000010: 0db3 4ebe f632 fcbc 5ae4 76be 6921 71be
00000020: 7d56 903e 997a cc3e 9394 4fbd 903e 7f3d
00000030: 484c 8c3d 1f22 bebd fd81 093d 71b0 1bbf
00000040: bc84 023d 28bb 63bf c896 063e 0acd 003e
00000050: 49bc dcbd da22 19bd e66f a3be 88c9 373f
00000060: 658d 423f 13b7 01bd f8bf 8abe 5793 513c
00000070: b43e 373e c626 97bd 67f8 4bbf 9c81 113f
00000080: 7a3f e3be 4282 8fbd f71f 8dbe b5d3 b6be
00000090: 24cb 153d 7545 733e 315f d13e 6f9d 923e
000000a0: 9772 c73e 8c56 ec3d 0a74 733e a8bb dbbc
000000b0: ffc8 573e 39bb 99be d35a a43e 7408 833e
000000c0: a5bf b73e 3d37 a6bb f96a 64bf 9a9e 5b3e
000000d0: c1a2 a43d 73c7 203e 6f3a 8b3e 8714 43bd
000000e0: 2755 613e 94f2 ff3d b6ec 33bd d469 de3d
000000f0: 649f b53e d97b 68be 8d65 25bf 7666 aabd
00000100: f81d d83d cb9a 24be 6c7f 99bd fad7 293e
00000110: 93db 61be 20b7 64bf 4de0 c3be 2cdf 543d
00000120: c88c fbbd d966 ad3e 3618 d7be 7641 b3be
00000130: 8efc bd3e 489b 983e 5d42 88be af3e a7be
00000140: 5a6c c8be 5827 62be 5231 2e3f f0e7 b0bd
00000150: 43cb 803e d619 65be 1898 46bf 17f0 32be
00000160: 2368 50be 31a4 51bf 177a 80bc d5f5 9e3e
00000170: 4fcf 703d 5495 88be 1bfd b43e e880 1a3e
00000180: 61e2 00bf 163c 9d3e 3912 6d3f 9021 b63c
00000190: 3b49 a33c ce56 213e 467d 173f 60b7 88be
000001a0: 42ce 603c b334 88bf 9d8f 91be 1e93 8f3e
000001b0: b477 db3d 9d7c ccbe 3656 1fbf 0835 a0be
000001c0: 0e8e 54bf 6c6e 003f a044 3bbf d716 1cbf
000001d0: 3ffe ec3e b157 353d 5d48 28be 7235 e2be
000001e0: 4430 1bbf 9aba a23c e231 b63e 7dda 98be
000001f0: 70c4 a7bc b0f9 cf3e 4251 9bbe 82e2 4c3d
00000200: 2117 87be 5644 1e3f aa49 2ebe e7a3 c3be
00000210: b553 b9be c7ed d6bd 504d d6be b62e ac3e
00000220: 99a6 883d 973f 123e 2e60 60bf add2 e0be
00000230: 55c8 323d 7b1d d9be ba53 133f 54f0 233e
00000240: e76b 4e3f a86a 4ebe c8b7 c9bc 374d 29be
00000250: 4db6 31be 496c 563e 6da0 e43e e8c5 0c3e
00000260: ebb4 77be 462a 0abb 3a1d b53d 59c5 f53e
00000270: fccf a13e b2f7 c43d 3ed7 053f c797 e7be
00000280: f1b4 e33e d247 0ebe 8f44 31be fc43 dc3e
00000290: 0b3e a23d b3b4 12be 1fcd 743e b9f6 5d3d
000002a0: 6952 72be cbcc 81be ff18 3d3f e0c6 53be
000002b0: 56ee 22bf 97e4 943c 67df 07bf bd1f 373e
000002c0: 550f 93bd 2921 2fbf 77cd 323f aa7f 49bd
000002d0: bc41 2dbd 9c39 06bc b19e b73e 0125 8dbe
000002e0: 6bc9 86be a963 36bf f605 0a3e a4d7 843e
000002f0: 235a 90be 633b dd3e a271 1bbe 17a9 3a3d
00000300: 38a5 58be dd09 2c3d 8dd8 cf3e eb83 c73d
00000310: d26e 873e 7574 f83e 45e8 aabe 8c13 c0be
00000320: 3346 253f 52a4 d3bd 0714 24bf 6059 f13e
00000330: fcf9 debe a7f0 e33e a687 85be c01a 113e
00000340: 9f30 f23e da98 66be ad1e 31bf e407 e6bd
00000350: c783 c2bd 9dad fbbe 3953 713d 185e 0a3f
00000360: 8287 953d c240 19be d117 753e d462 c13e
00000370: 98e9 6dbe fd1a 003e f319 26bd 025d 87bd
00000380: 6822 793b ae15 b4be 6fd6 b9bb 2f2c 09bf
00000390: 864f 1e3f 0736 b63e e562 2abf 8bbd 15be
000003a0: 76f2 c33e e41d e83e f137 3b3e 21e6 963e
000003b0: 68ba 72bc d484 0b3f 9fac 213d a375 10be
000003c0: ece5 6f3e ad35 a03d 35e9 16be cc22 a5be
000003d0: 5924 9d3e 74fd b0bd 1d4b c4be 7788 da3e
000003e0: f931 933e e1e2 a13e 8792 52be 4357 49bf
000003f0: e845 d6be 8e7b 6cbe c34a e13e 1369 acbe
-0.26013467 0.1253715 0.29504654 -0.025271304 -0.2018549 -0.030786019 -0.24110547 -0.23547901
0.28190985 0.39937285 -0.0506788 0.062315524 0.06850487 -0.09283852 0.033571232 -0.60816103
0.031864867 -0.8895745 0.13143456 0.12578216 -0.107781 -0.037386753 -0.3192131 0.7179189
0.75997 -0.031668734 -0.27099586 0.012791476 0.17895013 -0.07380442 -0.79675907 0.56838393
-0.44384366 -0.070072666 -0.2756345 -0.35708395 0.036570683 0.23756965 0.40892938 0.28635737
0.38954613 0.11539945 0.23774734 -0.02682288 0.21072768 -0.30025652 0.32100543 0.25592387
0.358884 -0.005072503 -0.8922573 0.2144722 0.08038855 0.15701084 0.2719302 -0.047627
0.2200514 0.1249744 -0.043926917 0.10860029 0.35473168 -0.22703494 -0.6460808 -0.08320324
0.10552591 -0.16074674 -0.07495007 0.16586295 -0.22056417 -0.89341927 -0.38257065 0.051970646
-0.12282711 0.3386753 -0.4201066 -0.3501088 0.37106746 0.2980597 -0.2661313 -0.3266501
-0.39145166 -0.22085321 0.68044007 -0.086379886 0.25155076 -0.22373137 -0.77575827 -0.174744
-0.20352225 -0.8189116 -0.015683217 0.3104693 0.058791455 -0.26676428 0.35349354 0.15088236
-0.50345427 0.30709904 0.9260593 0.0222328 0.01993238 0.1575577 0.5917553 -0.26702404
0.013721051 -1.0641083 -0.2842988 0.2804193 0.10716191 -0.39938822 -0.6224092 -0.3129046
-0.8302926 0.5016849 -0.7315159 -0.6097235 0.46287724 0.044273082 -0.16433854 -0.441814
-0.6062052 0.01986437 0.35584933 -0.29854193 -0.02047941 0.40620184 -0.30335432 0.050020702
-0.26384833 0.6182302 -0.17020288 -0.38210985 -0.36196676 -0.10494571 -0.4185586 0.33629388
0.06672401 0.1428207 -0.8764676 -0.43910733 0.043648083 -0.42405304 0.5754963 0.16009647
0.80633396 -0.20157874 -0.024623767 -0.16533361 -0.17354698 0.20939745 0.44653645 0.1374737
-0.24190108 -0.0021082326 0.08843465 0.48002127 0.31603992 0.09617557 0.5228156 -0.45232984
0.44473985 -0.13894585 -0.1731131 0.43020618 0.0792199 -0.14326744 0.23906372 0.05419037
-0.2366425 -0.25351557 0.73866266 -0.20681334 -0.6364492 0.018175406 -0.5307526 0.17883201
-0.07180659 -0.68409973 0.69844764 -0.049194016 -0.042299017 -0.008192446 0.3586326 -0.27567294
-0.26325545 -0.7124582 0.13478836 0.2594577 -0.2819377 0.4320937 -0.15180066 0.045571413
-0.21156776 0.042001594 0.40594903 0.09741958 0.26451737 0.4852635 -0.33380333 -0.37514913
0.6456024 -0.10334076 -0.6409306 0.471385 -0.43550098 0.4451954 -0.26080054 0.1417036
0.4730272 -0.22519246 -0.6918743 -0.11231974 -0.09497791 -0.49155894 0.058917258 0.54049826
0.07301237 -0.1496611 0.23934866 0.37770712 -0.2323364 0.12510295 -0.04055209 -0.06609537
0.0038014892 -0.3517279 -0.0056713144 -0.53583044 0.61840093 0.35588095 -0.6655715 -0.14623086
0.3827092 0.45335305 0.18283059 0.2947245 -0.0148149505 0.54499555 0.039471265 -0.14107375
0.23427552 0.07822738 -0.14737399 -0.3225311 0.30691794 -0.08642092 -0.38338557 0.4268224
0.28749064 0.31618407 -0.20563708 -0.78648776 -0.4185021 -0.23094007 0.4400235 -0.33673915

encoder.2.bias f4 [32]
00000000: bc7e ef3d 03b5 d63c e414 693c 00fe bcbd
00000010: bd91 c73d d0ff 3ebd 5845 61bd 7148 663d
00000020: b283 a0bd db31 c53d f620 813b b38f de3d
00000030: 8ca6 dabd acd9 1f3c 57c9 1d3e 8228 af3d
00000040: fc96 65bd 4b22 003e 8664 d23d 0fb7 73be
00000050: b263 4bbe d7a2 c2bd 68e2 253c 6e82 013e
00000060: 8133 90bc dff6 cd3d ffc6 893d 3dc6 4b3d
00000070: 4ac6 19be 36f1 31be 2000 f63d 7ac9 173e
0.116940945 0.02620936 0.014226172 -0.09228134 0.09744594 -0.04663068 -0.054997772 0.05622143
-0.07837619 0.0962865 0.003940697 0.10867252 -0.106762975 0.009756487 0.15408836 0.08552648
-0.056052193 0.12513082 0.102730796 -0.238003 -0.1986225 -0.095037155 0.01012478 0.12647411
-0.017602684 0.100568525 0.067274086 0.0497496 -0.15017048 -0.17377171 0.120117426 0.14822951

fc_mu.0.weight f4 [32, 32]
00000000: 9e9b 7bbd 3faa 6e3d c7b8 153f 6e83 013f
00000010: 8936 313e 08d8 a33d 9d14 6e3e 6ee2 9abe
00000020: d09e 293d a63a 11bf d123 d1bd 7f42 9dbd
00000030: f68a 05bf a43b d1bd 5acf e0bd 283e 4dbd
00000040: fc80 cf3e 3672 69bd 2d92 8c3e 203f 803e
00000050: e8ad b03d 3ad3 97be af5b 3dbe c259 933c
00000060: 9e2a 33be 9d0e c7bd c7db 973d c924 563e
00000070: b629 9a3e 6e34 f43e 493a 9dbd 47d1 d4bd
00000080: e920 cc3e aa01 54be e20f 903d 3cf0 0dbe
00000090: 3fd4 7c3e 99b8 ce3c f523 fc3e d021 a93c
000000a0: d0cf ae3d da6d 353e 83f0 04bd a8d7 5a3e
000000b0: 0657 9ebe ac82 6d3c 062e 7c3e 9017 6a3e
000000c0: d670 c2bd ae00 e83e d65b 5b3e 1a76 00bf
000000d0: d1e6 24bf d3cd ec3d 96ed ff3e 82c1 003e
000000e0: 5bd3 c03d 4c2d a83e 1103 9e3d 3df0 bebe
000000f0: 2e60 893d 2b66 42bf e51d 48be 2afe a3be
00000100: b84c d3be 1ab0 b93d bcc3 c23e 777e fc3e
00000110: 7c88 4b3e c1a4 3abe 5723 81be 7cfb cd3e
00000120: 5fb4 533e 37b5 1bbf 0726 8c3e 6f67 423e
00000130: b791 46be 7804 bd3d 5060 2f3d cb58 a9be
00000140: b0fd 98be 862b 58bc bd53 c13d 40a0 663d
00000150: 21d0 25be 12c0 1fbe 0daa a23e effe a83e
00000160: 1137 353e 3bac 983e 0197 1bbd afc4 633e
00000170: 6989 86be d718 083e 733b 50bc deb6 513d
00000180: 41b6 0bbe c130 583c 6789 093e ef9a b8bd
00000190: 61b1 41be c2a0 283e 9d00 c3be 1812 b2be
000001a0: 6d4a 063f b5f7 d8be 077a 83bd 99a3 813e
000001b0: 17b7 383e 7907 fabe 3e2d b03e 76d5 103f
000001c0: ab79 cdbe 9c80 153e de43 b03d 25be bdbe
000001d0: fbe1 42be 062b 05bf 23f3 5e3e 5ff6 693e
000001e0: f79c 10be e369 553e 990f 3b3d 1386 31be
000001f0: b704 6f3e d6f0 9dbe 9846 2abc e6fa 073e
00000200: d4b5 ffbd 2258 123d 5684 f9be 3d10 363e
00000210: 3306 7fbe 624a f23d ef07 d4be 3b30 67be
00000220: 720a 923e 971f 03be 1588 aabd 2f66 de3d
00000230: 64fc 033f ce9c ac3d d124 a4be 0687 afbe
00000240: e4c3 463e 6b95 dfbd f8b8 963e b04d 313e
00000250: 9755 a9be 6ed3 313e 10b5 673e 5c3d a63d
00000260: f8d2 c5be ef37 8cbe 5796 383e 5b7e 20bf
00000270: 1742 973e eca7 09be 1099 1bbe 2700 9dbe
00000280: 960f 8bbc 518f 233d fc63 a93c e98c 923e
00000290: 6c55 3c3e 6d64 0c3f ca89 dfbd 3bff 243f
000002a0: d072 9bbe d8c9 88be 6996 1abe 583e 74be
000002b0: 5c26 2abe 13b1 4d3d f62b 433e 9b01 f53e
000002c0: 5c57 ec3e 4e5a 323d a5f4 8dbc 570d 7f3e
000002d0: e2b8 cc3e a952 cd3e 3e0d 83bd 70b7 0e3f
000002e0: d8de 603e b520 81bd a019 a3be e097 603e
000002f0: bdcf 80bd 1dda 8a3e eee8 ae3c e5d4 cfbb
00000300: 40b9 cdbc c2c7 183d 6cc6 fcbe 74aa dabd
00000310: b6e6 4bbe 9bfd 083e b755 ff3d 4393 bdbd
00000320: 6c8f 563e 0e5f 18bf 5589 f8ba 3474 083b
00000330: 836d 003f cdae 633e 968a 93bc 5b9f 323e
00000340: b9f1 eebd 08ec 043f 972d f93e e8fb 89bf
00000350: 881a 903e 1332 38be 74d7 fa3d e12b 8fbd
00000360: 9148 d6be b147 c0bd f599 25bf 54d4 49be
00000370: 942f fc3d 1924 c2bd 2672 f9be 7587 cdbe
00000380: 3614 a23c 69e5 a23e 8d50 613e 507a bfbe
00000390: 1cda 543e 88f7 adbd ffa3 e83e 651d ed3e
000003a0: 65d2 573e f5e4 bd3e 3cba 3f3d 8f90 a3be
000003b0: 2342 f73d f588 82be d3aa dcbe b7ae 243e
000003c0: 3c62 21be 1e6b 1cbe d7b1 983e 4db8 a2be
000003d0: aa5f afbe 2bb0 d0bd 8ace c6bd 613d 01be
000003e0: d7b2 bf3a 1f18 16bd 28cc 15bf 4e9b f9bb
000003f0: 31ce 083f 6dc5 83be 0b0a 84bc 45e1 c23d
-0.061427705 0.058267828 0.5848507 0.5059117 0.1730596 0.08000189 0.23250051 -0.30250877
0.04141122 -0.56730115 -0.102119096 -0.07678699 -0.5216516 -0.10216454 -0.10977049 -0.050108105
0.40528095 -0.056993686 0.27455273 0.2504816 0.0862692 -0.2965334 -0.18492006 0.017987136
-0.17496726 -0.09719584 0.07414966 0.2091247 0.30109948 0.4769625 -0.07677133 -0.10391479
0.39868858 -0.2070376 0.070342794 -0.13861173 0.2469034 0.025234507 0.49246183 0.020646006
0.08535731 0.17717686 -0.032455932 0.21371329 -0.3092577 0.014496487 0.24626932 0.22860551
-0.09494178 0.4531302 0.21421751 -0.5018021 -0.644147 0.11562695 0.4998595 0.12573817
0.09415313 0.3284706 0.077154286 -0.37292662 0.06707798 -0.75937146 -0.19542654 -0.3202985
-0.4126947 0.09066792 0.38039958 0.49315235 0.19876283 -0.18226911 -0.25222275 0.4023093
0.20674275 -0.60823387 0.27372763 0.1898477 -0.19391523 0.09229368 0.04281646 -0.33075556
-0.29881048 -0.013193971 0.094398 0.05630517 -0.16192676 -0.15600613 0.31770363 0.33007
0.17696787 0.298189 -0.037985805 0.22242998 -0.2627671 0.13290726 -0.012709486 0.051199786
-0.13643743 0.013195218 0.13431321 -0.09013926 -0.18915321 0.16467574 -0.38086405 -0.3477943
0.52457315 -0.42376485 -0.06419759 0.25320128 0.18038593 -0.48833826 0.34409517 0.56575716
-0.40131888 0.14599842 0.08606695 -0.3705913 -0.19031517 -0.52018774 0.21772437 0.2284789
-0.14122377 0.20841174 0.045669172 -0.17336302 0.23341642 -0.30847806 -0.010392807 0.13279304
-0.12485853 0.03572858 -0.48733777 0.17779632 -0.24904709 0.11830594 -0.41412303 -0.22576992
0.28523594 -0.1280502 -0.08326737 0.10859334 0.5155699 0.084283456 -0.3205934 -0.34282702
0.19410664 -0.10917171 0.29437995 0.17314792 -0.33073112 0.1736581 0.22627664 0.08117172
-0.3863752 -0.27386424 0.180261 -0.62692803 0.2954261 -0.13442963 -0.15195107 -0.3066418
-0.016975205 0.0399316 0.02067756 0.2862313 0.18391961 0.5484074 -0.10914953 0.6445195
-0.30361032 -0.26716495 -0.1509644 -0.23851907 -0.16616195 0.0502177 0.19059739 0.47852787
0.461604 0.043543153 -0.01732857 0.24907432 0.39984804 0.40102127 -0.0639901 0.55748653
0.21960008 -0.063050665 -0.31855488 0.21932936 -0.06289623 0.27119532 0.021351304 -0.0063425177
-0.025112748 0.03729988 -0.49370134 -0.106770426 -0.19912228 0.13377993 0.12467521 -0.092566036
0.20953149 -0.5952004 -0.0018961827 0.0020821216 0.501671 0.2223465 -0.018010419 0.17443602
-0.11667199 0.51922655 0.48667595 -1.0780001 0.28145242 -0.17987852 0.12248126 -0.06990791
-0.4185224 -0.09388674 -0.64688045 -0.19709903 0.12313762 -0.09479541 -0.487199 -0.40142408
0.019785028 0.3181565 0.22003384 -0.37398005 0.20786327 -0.084944785 0.4543762 0.4631149
0.21076353 0.37088743 0.046808466 -0.31946227 0.120731615 -0.25495115 -0.4309908 0.16082273
-0.1576013 -0.15275237 0.2982318 -0.31781235 -0.34252673 -0.101898514 -0.09707363 -0.1262107
0.0014625442 -0.036644097 -0.5851464 -0.0076173907 0.53439623 -0.2573656 -0.01611807 0.09515623

fc_mu.0.bias f4 [32]
00000000: 158d 53be be67 ff3d 8002 f43c c5d8 443e
00000010: ce92 64be 59cf 46be 63ca ddbd a806 1abe
00000020: fc65 c03d 7a03 54bd 66f3 fbbd 86ea 5abd
00000030: d242 69be 8add c4bd ecf2 cfbc 2f8a acbe
00000040: 0fc6 6dbd 5a6a e4bd abd9 fd3c b1dc 2fbe
00000050: dd6f 33bd a207 fbbd ff1f 29bd 9aab 88be
00000060: 4fe2 36be 007a 93bd bf6f 12be af3a e63d
00000070: 40c1 60bd f870 31bd fa71 21bb 9345 90bd
-0.20659287 0.12470959 0.029786348 0.19223316 -0.22321627 -0.19415034 -0.10829618 -0.15041602
0.09394452 -0.051761128 -0.12302284 -0.053446315 -0.22779396 -0.09612568 -0.025384389 -0.33699176
-0.05805021 -0.111530975 0.030987581 -0.17174031 -0.043807853 -0.12257315 -0.04129028 -0.26693422
-0.17859767 -0.07201004 -0.1430044 0.11241662 -0.054871798 -0.043320626 -0.0024634586 -0.0704452

fc_logvar.0.weight f4 [32, 32]
00000000: 29b2 193e bb96 e63d 56dc 3b3e 89f0 76be
00000010: c728 6fbe 807f 253d 2f6a 5bbd f344 4b3e
00000020: 875b 093e 621b dc3e 441b cebd 968e 773e
00000030: 30da cbbd bb07 21be aabe 19be 91f5 613e
00000040: 02c4 643e 58e5 03be 61b1 1fbd ce0b 36be
00000050: 0ab8 3d3e 7d68 c0bb 6cd3 173e 4d0f f43c
00000060: 2dd5 0dbe fca9 87be e60e e9bd a55a 1d3e
00000070: 277e 803e 7e06 603d f253 fc3d e74f aebe
00000080: d9f7 ac3c 520f 63bd 98ac 31be 3011 f6bd
00000090: e3c2 6d3a c642 8c3e b3e5 8a3e e272 a63e
000000a0: 026c c93d 2bb4 e93d 813c 453e c771 a0bc
000000b0: 5373 38bc e281 863c c5f7 57be b36a 523e
000000c0: 9dac b73d bbad cebe d5ff a0bd e32e 9e3e
000000d0: f0d1 863e 1bea 23bd 34cf a93c 8a4d 07bf
000000e0: eafb 40be 4cde ef3d d642 cebe 4303 703e
000000f0: ff10 413d 939c 093e 798e 093f 8226 f6be
00000100: 5c91 993e a564 f2bd 3c4c 1e3e 0c8e a43e
00000110: 7d30 abbd 6e0a 5c3e 1edd 273e 56a8 083e
00000120: c874 7d3e ee35 28be f4e3 f1be 81c4 ec3d
00000130: 81aa 96bd faf8 1e3e 0b70 f2be 0d6d 553e
00000140: 47b7 113e 8c11 56be a5f9 04be 4145 01be
00000150: 29d1 0fbf 0636 17bf 1a18 153e b2bf ba3d
00000160: 9ed3 5dbe 3288 87be ee9a e33c e347 1e3e
00000170: 12a2 103e 0108 583e a4ce d63d dd2d 37be
00000180: 0ee2 323d 8b14 d03e 5cb0 29bf d708 3abd
00000190: 8111 87bd 8cdf d83e 4079 b9be 27b6 0b3f
000001a0: 285d 193e 0a8f 81bd 1762 693e 6e2b 423e
000001b0: 14cf e73d cb7b 3a3e 0f6f f5be 334b 1d3d
000001c0: feb7 e23d a2d6 7a3e be4c 49bc f19b 7dbe
000001d0: d969 c33e a719 a93e 90c5 eabc a2ad 13be
000001e0: 6854 21bd 411e dc3d 3789 65be 3854 bebe
000001f0: 07ea dd3d 68e2 b1be 2723 51be d18b 2bbc
00000200: 6ae4 acbe f83d 573e d6c2 f1bd a273 a9be
00000210: 661f 06be d3cb c83e c165 533e c023 253e
00000220: 2058 823e 9bb1 9a3c 041a 453e 3253 a73e
00000230: 5c70 4e3e 568f 10be 0dc4 44be 241b fb3d
00000240: aafb ab3b 98a7 f63e e507 95be b4bb aebe
00000250: a919 e33d b31d 53be f848 1dbf a92a 3fbe
00000260: b8b1 02bf 4a40 d53e 3900 1c3e feda 25be
00000270: 61a4 c13d d7c9 0f3e d9d0 973d 7c34 3cbf
00000280: 8166 6a3e a8cc 573e 6867 f7be 2376 b0bd
00000290: e865 a93e f661 83be 2c25 f73e 61bf cd3c
000002a0: f96b 17bd 9c7b c9be 48f5 23be dc0e ccbd
000002b0: b165 9abd 2731 7d3e db2c cc3c df2b 0f3e
000002c0: 8a49 893e 7803 a2bb 944c e93d ea7c 15be
000002d0: f693 c5bd 8d31 183d 8f5a 34be 25b4 05be
000002e0: c63e f13d 16eb 83bd 5cf7 c7be 5965 2e3e
000002f0: bafb 673c 1961 9cbc 1371 e93c 0f05 3ebd
00000300: d307 ebbe 7656 a1be c0b9 10bf 8bc6 84bc
00000310: 30d6 7bbd 0a0e ef3d bce1 933d c617 dd3d
00000320: d597 ba3e 4ef0 f93d 0986 cd3d c470 babd
00000330: 9c60 a93e d0f5 d73d 9360 0d3d 6c98 bf3e
00000340: ceee 37be b3fc 85be 8e12 05bb 8fe6 d33e
00000350: 90e8 8e3d 9f9d ffbb 5ec7 0f3e da72 c7be
00000360: 12ef 643d 100f 493e 033b ce3d 2768 543e
00000370: 3f86 4d3d 2d1e 1bbf c1be babe c69c b83e
00000380: 410c 4dbd f9a5 253e b235 70be e835 33bd
00000390: dda0 283d e091 1ebd 1c4a cd3e 9f1c 42bd
000003a0: dbbf 6f3e b4a5 6fbe 9fb6 15bd f1a8 1c3e
000003b0: 4f67 b3bd 701c 85be 996e e7bd 7d6f 153f
000003c0: 9b4b 9a3e 694c 3e3d 51d4 003e 3871 12bf
000003d0: b372 b53e 20bf b63d 5bab a03e 831a f7bd
000003e0: cb01 1bbf f5bf 813e 2efa a63e 131a 41be
000003f0: e4b4 7c3d dda8 64be bc1c b03d ad39 0b3d
0.15009369 0.11259218 0.1834577 -0.24115194 -0.23355399 0.040404797 -0.05356806 0.19850521
0.13413821 0.4298964 -0.10063794 0.24175486 -0.09953725 -0.15725605 -0.15014139 0.22066332
0.22340396 -0.12880456 -0.03898752 -0.1777794 0.18527237 -0.005871831 0.14826745 0.029792452
-0.13850851 -0.26496875 -0.11379795 0.1536661 0.25096247 0.05469369 0.12320699 -0.34045336
0.021114277 -0.055434532 -0.17350996 -0.12014997 0.0009069873 0.27394694 0.27128372 0.32509524
0.09835054 0.114113174 0.19261362 -0.019585503 -0.011257964 0.016419355 -0.2109061 0.20548515
0.0896847 -0.4036692 -0.07861296 0.30895147 0.26332045 -0.040018182 0.020728685 -0.5285269
-0.18846098 0.11712322 -0.40285367 0.23438744 0.04713535 0.13438635 0.5373302 -0.48076254
0.29993713 -0.11835603 0.15458769 0.32139623 -0.08358858 0.21488354 0.16392943 0.13345465
0.2475158 -0.16426823 -0.47244227 0.11560918 -0.0735674 0.15524665 -0.47351107 0.20842381
0.14230071 -0.20905131 -0.12985857 -0.12624075 -0.5617853 -0.5906681 0.14559975 0.09118594
-0.21662757 -0.26471096 0.027783837 0.1545711 0.14124325 0.21096803 0.10488632 -0.17888589
0.043672614 0.40640673 -0.6628473 -0.045418587 -0.065951355 0.42358053 -0.3622532 0.5457482
0.14976943 -0.06326111 0.22791325 0.1896188 0.11318794 0.18211286 -0.47936293 0.038401794
0.1107025 0.24495938 -0.012286363 -0.24766518 0.38166693 0.33027384 -0.028658658 -0.14421704
-0.039387137 0.10747958 -0.22415625 -0.3717363 0.10835653 -0.34743047 -0.20423566 -0.010470347
-0.33768016 0.21019733 -0.1180474 -0.33096033 -0.13097915 0.39218006 0.20644285 0.16126919
0.2545786 0.018883517 0.19248205 0.3268066 0.20160049 -0.14117178 -0.19215412 0.12261036
0.0052485066 0.4817474 -0.29107586 -0.3412758 0.11088879 -0.20616798 -0.61439466 -0.18668617
-0.5105243 0.4165061 0.1523446 -0.1619682 0.09455181 0.1404184 0.074128814 -0.73517585
0.22890665 0.21074164 -0.4832108 -0.08616283 0.3308556 -0.25660676 0.48270547 0.02511567
-0.036968205 -0.3935212 -0.16011536 -0.09963772 -0.07538927 0.24725781 0.024923733 0.13981579
0.26813918 -0.004944261 0.11391559 -0.14598432 -0.09647362 0.03715663 -0.1761267 -0.13057001
0.11779551 -0.064413235 -0.39055908 0.17030849 0.014159137 -0.019089269 0.0284963 -0.046391543
-0.45904407 -0.31511277 -0.5653343 -0.016207954 -0.061483562 0.116725996 0.0722079 0.1079555
0.36443964 0.122040376 0.10035331 -0.091035396 0.3308152 0.10544932 0.03451593 0.37420976
-0.1796219 -0.26169357 -0.002030525 0.4138684 0.069779515 -0.0078007723 0.14040896 -0.38954812
0.055892058 0.19634652 0.10069849 0.20742856 0.050176855 -0.6059292 -0.3647366 0.3605711
-0.050060514 0.16176595 -0.23457983 -0.04375258 0.041169036 -0.038713336 0.40095603 -0.047390576
0.23413031 -0.23403054 -0.036551114 0.15298821 -0.08759939 -0.2599826 -0.11300392 0.5837324
0.30135807 0.04645959 0.12580992 -0.5720401 0.3543907 0.08923173 0.31380734 -0.120656036
-0.6054961 0.25341764 0.32612747 -0.18857603 0.06169595 -0.22330041 0.08599231 0.03399055

fc_logvar.0.bias f4 [32]
00000000: 0386 86be 38f6 64be 9175 1ebe da9d 09be
00000010: 584c 68be 1800 c0be 89b3 a4bd 839e a03d
00000020: c098 36be d3d8 9cbe c5b6 cfbe 070a 38be
00000030: 08c7 3dbe f163 53be 133a 84be 523e 8abe
00000040: f8f7 9bbe 5f24 28be c09f bfbe 61ab 74be
00000050: 37a8 64be 718c 8abe ec6b 88be 9c3d 87be
00000060: c634 3abe 460e 48be 6ef4 1cbf 606d bbbe
00000070: f3ef b9be 2a22 0fbe 884b 87be 1bd1 c7be
-0.26274118 -0.2235955 -0.15474536 -0.13439122 -0.22685373 -0.37500072 -0.08042056 0.07842734
-0.17831707 -0.30634174 -0.4056913 -0.17972575 -0.18532956 -0.20643593 -0.25825557 -0.27000672
-0.30462623 -0.16420124 -0.37426567 -0.23893501 -0.22329794 -0.27060273 -0.26644838 -0.26414192
-0.18184194 -0.19536695 -0.6131047 -0.36606884 -0.3631588 -0.13977876 -0.26424813 -0.39026722

nee_decoder.0.weight f4 [16, 32]
00000000: e32d d03e fb21 903d 4c15 d1bd fbb0 a2be
00000010: 964e 30be b0f0 5ebe 4acc 253d fb1a 9c3c
00000020: 9d38 91be 0a2c 0abe bc37 173e 61d9 83be
00000030: b5ca bd3e 344f a0bd 7825 013d 1010 003e
00000040: 33f6 a53e a01b 90be a9e2 51be 1322 963e
00000050: 18c1 3e3e 035d 90be f2af 7d3e 5781 d73d
00000060: f631 2cbe 4202 51bc f57e 69be a972 cabd
00000070: 6da6 9e3e ebc4 b13d e89c 873d 2be9 a13e
00000080: 9990 8fbe 7add 0f3f 10a6 10bf f163 1c3d
00000090: bd8f 98be eb9c 96be 14f2 793d ad01 d93d
000000a0: dbd1 ee3e 3121 6abe 22c3 53be 6d7e 25be
000000b0: fb76 25bd 2e3c a33e 84b6 60be 3fe9 00bf
000000c0: b7c7 f03e 0e10 9bbe c0a8 0bbd e182 99bd
000000d0: 0de9 48be 7b51 84be 0d8e b63d 3ad2 513d
000000e0: 9997 8e3e b0d2 3ebf 2911 02be 9dfb a6b9
000000f0: b5d3 28be 51ff 143e ba8e d13c fbeb 583e
00000100: 82a6 913d a7ce 21bc c43c a1be f163 19be
00000110: 0d37 18be ad6c 1b3e 1a6a 0dbd f89f c1be
00000120: 7e53 913e 448d 293d a398 843e 263d 813e
00000130: 5f6e 71be c389 023e 9659 f4bd f4e7 59bd
00000140: 7dce e9bd d3a8 eabe 6ac6 abbd 194f 26be
00000150: d536 7e3e af86 75be 7f35 fe3d 4625 df3d
00000160: d638 a03d e43e 62bd ae34 e03e 7af4 aabb
00000170: 2039 88be 5635 02be 2f1a 553e 1d4e 63bd
00000180: 32a5 a6be a3f5 d4bd c799 e13e 27f9 c2be
00000190: 684f 873d 9f89 fabd fd5a 2abd d6f1 babd
000001a0: 93f4 f93e 2a30 d1be 4a37 6cbd 0f22 52be
000001b0: 0b88 00be 81b4 833d 0571 5e3e d649 5d3e
000001c0: 837c 9cbe a854 7c3e 07e6 62be e868 98be
000001d0: 9657 e7bd d9a4 073e 6993 2a3e 4255 d9be
000001e0: 0dae 4fbd 94bf 0bbe fb41 b63c 2dbf c9bd
000001f0: 992f a33d ef67 173e 2bf9 8dbe 8844 05be
00000200: 1bd5 853d 04bd 0dbe cb91 b53d 5500 133e
00000210: 508a e6bd 30e2 533e e7be 9f3d 1eae a7bd
00000220: e898 93be a988 2ebc 695c 23bd 1894 bbbe
00000230: 3d34 593e c05e 1abe 2ae7 a63e 1914 3fbe
00000240: 86f2 e33e 28d9 34be 912b cdbe 63ab 803c
00000250: 2de1 33be 8160 95be 17fd 49bf 983b 5a3e
00000260: 1b39 a8bd 44e3 b5be 9c27 a4be 9bfd 023f
00000270: 90f4 eb3b 7eba da3b c7fe 00be b46c f03e
00000280: de25 fb3e 62cb 87be 7a3b 043f 53be 2ebe
00000290: c1fe 62bd e394 74bd 2899 d53c dd37 8a3c
000002a0: fd31 6d3c 28d2 cbbd 71a3 6f3e 68ac efbd
000002b0: ebbc a9be 2949 4e3d 664d 08bd edc3 a9bc
000002c0: d7f2 f53c 82ed ce3d 2959 0fbe aa95 4abe
000002d0: 0646 fbbd 7406 eabd 64b8 af3b bb84 313e
000002e0: 46f8 10bd 4b73 4abe b313 ed3d 8ab4 64be
000002f0: f5bf df3c d193 9dbd 7f98 123f 0dff a63e
00000300: d34f bdbe f6a5 b63d 75bc 40bf e2fa 023e
00000310: ad03 393e f05a 993c d2e8 dc3d dfd2 d1be
00000320: c050 84be 9e2e 35be a165 bc3e 459a 04bf
00000330: 5f9a cebe c038 af3e 44ef eebd 7875 8abe
00000340: b6ac 063e 71a8 d8be 5345 71be 8cbd c4bd
00000350: 2fe6 6bbe 3b4f cfbc 608b ec3c 90fd 83be
00000360: 6ac4 993c 4763 95be e65b 88be 42e0 af3d
00000370: d683 86bd 800f 373f a66b d33d 3529 a53e
00000380: ca46 1fbe cd8d b5bd e409 fcbe bd47 c53e
00000390: 9b3b 283e 8b52 68be 6c2d 9f3c 8c47 0d3d
000003a0: 38ae 21be 995c 8fbe 3222 0ebe 9bb1 13be
000003b0: c65a 19be ddf2 be3e 26b5 f1be 8998 6c3d
000003c0: 94e3 4e3e 88a8 95be 5857 95be f26f ddbe
000003d0: c98d a73e 24df 383e ee7f 473c 6d19 60be
000003e0: c86f ee3e dc36 3cbe 003a a6bc 010c ce3a
000003f0: bb0e 7bbe 1303 363f cf3e aebe 0d32 243f
0.4066001 0.07037731 -0.1020914 -0.3177565 -0.17217478 -0.21771502 0.04047803 0.019055834
-0.28363505 -0.13493362 0.14767355 -0.25751784 0.37068716 -0.07827607 0.031529874 0.12506127
0.32414398 -0.28146076 -0.2049662 0.29322872 0.18628347 -0.28195962 0.24774149 0.105227165
-0.16815934 -0.012756886 -0.22802337 -0.09885151 0.30986348 0.08680137 0.06621724 0.31623206
-0.28040007 0.5619732 -0.5650339 0.03818125 -0.29797164 -0.29416594 0.06102188 0.10596023
0.46644482 -0.22864224 -0.20679906 -0.16161509 -0.04039667 0.3188185 -0.21944624 -0.50355905
0.4702737 -0.30285686 -0.03409648 -0.07495666 -0.19620152 -0.25843415 0.08913813 0.05122588
0.27850035 -0.74540234 -0.12701859 -0.00031849454 -0.1648701 0.1455052 0.025580753 0.2118377
0.07111837 -0.00987593 -0.31491673 -0.14979531 -0.1486475 0.15178175 -0.034525014 -0.3781736
0.28384012 0.041394487 0.25897703 0.25241965 -0.2357726 0.12747864 -0.1193115 -0.053199723
-0.11416338 -0.45831928 -0.08387454 -0.16241111 0.24825604 -0.23977159 0.12412547 0.10895781
0.078233406 -0.05523576 0.4379019 -0.005217132 -0.26606083 -0.12715659 0.2081077 -0.055494417
-0.3254791 -0.10398414 0.44062635 -0.38080713 0.066069424 -0.122332804 -0.04159068 -0.09128158
0.48819408 -0.4085706 -0.057669915 -0.20520805 -0.12551896 0.06430913 0.21722801 0.21610197
-0.30563745 0.24641669 -0.22158061 -0.29767537 -0.112960026 0.13246478 0.16657795 -0.4244786
-0.050703097 -0.136473 0.022248259 -0.09850917 0.07968063 0.14785741 -0.27729163 -0.13014424
0.06534787 -0.13841635 0.088656984 0.14355595 -0.1125685 0.20691752 0.078000836 -0.08187507
-0.28827596 -0.0106526995 -0.03988305 -0.36636424 0.21211334 -0.15075207 0.3259824 -0.1866001
0.44520968 -0.17660964 -0.400723 0.015706724 -0.17566366 -0.2917519 -0.7890181 0.21311796
-0.08214017 -0.35524952 -0.3206147 0.5116822 0.007200785 0.0066750636 -0.1259719 0.46957934
0.49052328 -0.26522356 0.51653254 -0.1706479 -0.055418734 -0.059712302 0.026074007 0.01687234
0.01447725 -0.099521935 0.23402192 -0.11702806 -0.33151945 0.05036274 -0.033276938 -0.020723308
0.030023022 0.10103895 -0.13998856 -0.19783655 -0.12269215 -0.11427012 0.0053625572 0.17335789
-0.035393022 -0.19770543 0.11576023 -0.22334495 0.027313212 -0.07694209 0.5726394 0.32616463
-0.36974964 0.08918373 -0.7528756 0.12791017 0.18067808 0.01872012 0.107865945 -0.40981194
-0.25842857 -0.17693564 0.36796287 -0.51797897 -0.4035215 0.34222984 -0.1166673 -0.27042747
0.13151821 -0.4231601 -0.23561601 -0.09606466 -0.23037027 -0.025306335 0.028875053 -0.2577939
0.018770415 -0.29177305 -0.26632613 0.08587696 -0.065681145 0.71508026 0.10323267 0.32258
-0.15554348 -0.08864937 -0.49226296 0.38531294 0.16428988 -0.22687738 0.019430839 0.03449206
-0.15789115 -0.28000334 -0.13880232 -0.1442322 -0.14976034 0.37294665 -0.47208518 0.057762656
0.20204002 -0.29230142 -0.291682 -0.4324947 0.3272536 0.18053871 0.012176497 -0.21884699
0.46569657 -0.18380302 -0.020291328 0.001572013 -0.24517338 0.7109844 -0.34032294 0.6413887

nee_decoder.0.bias f4 [16]
00000000: d159 f2bd 4881 c33b 0a6b 35be 7584 cdbc
00000010: bc67 4fbe a991 193d 78c1 0f3e 21a3 f23d
00000020: d298 19be 0643 673e 755d 1abe 5a7b 853d
00000030: 9141 4abe 4dec 70bd 7f9d 07bd fc32 0a3d
-0.11833537 0.0059663393 -0.17716613 -0.025087574 -0.20254415 0.037492428 0.14038646 0.118475206
-0.14999703 0.22584161 -0.15074714 0.06517668 -0.19751574 -0.058819104 -0.033109184 0.03374003

nee_decoder.2.weight f4 [16, 16]
00000000: bbba c13e 3932 03bf c575 08bf 487f af3e
00000010: 3c83 44bb ff47 3d3f 1fcb 533c a889 8bbf
00000020: 6217 e93e f9ed 80be fda3 0c3d ed0d 553f
00000030: 8086 0b3d 69aa 3a3e dfe3 c63e d67b 9bbe
00000040: 673f 7c3d 9b49 9a3e 1930 88be aa6e 98be
00000050: 5c5d 9f3e 90c6 85be 99b8 b23e d3ec a1bd
00000060: c1d7 97bd 5a79 b43d ee94 e23c 13f5 443d
00000070: 8fec 083f 6b4d 1abe 77a0 083f a98f 773d
00000080: a1e0 353c abad 93bd d523 edbe 69db cf3e
00000090: 52bd 0f3f 0b0f 6d3e ae77 0abf c85d 05bf
000000a0: c471 ae3c 972a f63e b9bd a63f 182e 363e
000000b0: 578d 3abd 9d11 b8bd 73b7 6abf f4a8 2b3e
000000c0: bda3 723e a4af 7e3e f59e 40be 8415 b33e
000000d0: c650 15be a389 a53e 84ce 9ebd f0b4 ad3e
000000e0: df83 993d e08b 9f3e 15e7 6ebe 4569 2e3e
000000f0: 7868 8b3d 6fe6 67be dfc4 1c3e da75 b2bd
00000100: 36f7 d0be 72f5 88bd 7fe8 033e 443e 7fbe
00000110: ad29 1fbf b4cc c93e 8cf1 68bf b17b 26be
00000120: 97ac 933d 0da3 17be 1058 8d3d 980e 1abf
00000130: 85ad 2fbe 4561 a3be 1e78 6ebd 9a28 e93e
00000140: 3e8d 02bf 6113 173e 7d7d b8be a5ee b0be
00000150: 3296 bc3e abbc df3e 681a cd3e 9a2a af3e
00000160: 5c0a 203c cfe9 203e 00b8 b2be 10cc 253f
00000170: a37e ecbe e7a5 1e3f d309 c1bd 2fd9 6fbe
00000180: fd65 a43e 8768 efbe 2012 25be 3ab3 d2bd
00000190: 33a1 cfbd b61b ca3d 01b1 2dbe 7e03 17bd
000001a0: 91db 873c 54e4 13bc 239f 9ebe cd37 88be
000001b0: a7e5 31be 5a4f 113f 27f0 11bf 8db8 71be
000001c0: 6b91 063f 1b56 4cbe 7f55 42be 1d74 a1bc
000001d0: 5ffd 113f e8db 90be 0834 b1ba 2f3d b3be
000001e0: d444 1abe b43e d9be a94b 323f b618 0abf
000001f0: 33e5 5ebe d65f 303e fe86 353e f462 3dbe
00000200: 4116 1d3e 6822 963e ce54 913e dd6c 8c3e
00000210: 830b babd bd79 e2bc 2191 a4be 18d1 96be
00000220: 09a6 afbd f449 29bf a75a cbbe eeb8 963e
00000230: f4a7 88be e412 ce3d 18cf 27be 10a6 03bd
00000240: 670d 883e d73e e33e 8dd0 10bd c5f1 0c3f
00000250: 4b08 f53e d19f ed3d 4b8c 92bd 8e2a 043e
00000260: af47 473e 0a4d 2b3f 19aa 27be 77f5 06bf
00000270: 66b2 b1be 9335 aebe 58f7 d33c bf05 49be
00000280: 9a0a b6be 4068 b43d 2436 0b3e 7349 6c3e
00000290: 353f 5dbe 117d 503e 0af8 87bf 6f22 02bf
000002a0: a650 3c3e ebfb 1fbf cd74 243e fe7c e53e
000002b0: 3b44 953e a1a5 c33e 7bd4 833d 592a 2bbe
000002c0: 98e7 4f3e 688a c33d 01a4 0d3c d63f 133f
000002d0: 1cfd c1be 01e2 c5be 51ea 373e 5f6e d73e
000002e0: 209c 92be 3450 8dbe 2ee0 8abf 9fb2 983e
000002f0: bc33 283e 5ac5 293e afa5 0b3e 87a4 2ebd
00000300: 152b 2f3d c1b0 e0bd 86ce 2dbe bb12 e2bd
00000310: ba93 bf3e 876d 673e 8651 14bf 2789 bbbe
00000320: 0a52 58be 44c2 fabd 7dc9 093f d496 aabd
00000330: 92d2 3abe 736f 1c3e 97d3 c7be 4475 b03e
00000340: f93a e53d fd7d 3fbc b52a 4cbd 3fc9 5d3d
00000350: 1d7f 6c3e a868 3fbe 43f0 ca3e 2040 12be
00000360: 89fa b63e 97b1 543e 435f 60be 678a 603f
00000370: 2e83 2abf 1dca 833e 8291 ac3d 1ee6 2abe
00000380: 20bc 3ebf 7962 ddbe 019d fb3e e456 66be
00000390: 85ef 11be 3ca2 5cbe 930b 07bf 78ca fbbd
000003a0: 4158 02bf 66b9 bb3d c8db 76be b5df f2bd
000003b0: d5b5 5e3d 3ac2 4f3f 9840 c23e 4103 163e
000003c0: a2d6 323e 2cba 4bbe 7162 42bb 14ab 003f
000003d0: d194 90be 7357 0f3e f619 453e f6f3 113f
000003e0: 2272 653d db2e 023f 17ec bfbb 8aa9 f83d
000003f0: 7b36 abbe 6c19 abbd e215 b63d c7f5 d83e
0.37837777 -0.5124851 -0.533047 0.34276795 -0.0029985448 0.7393798 0.012926846 -1.0901384
0.45525652 -0.2518156 0.03433608 0.83224374 0.034063816 0.18229069 0.38845727 -0.30367917
0.061583903 0.30134282 -0.26599196 -0.2977193 0.31125915 -0.26128054 0.34906462 -0.07906499
-0.07414199 0.088122085 0.027658906 0.048085283 0.5348596 -0.15068595 0.5336985 0.06043974
0.011100919 -0.07210859 -0.463164 0.40597084 0.56148255 0.2315027 -0.54088867 -0.52096224
0.021294482 0.48079368 1.3026649 0.17791021 -0.04554495 -0.089877345 -0.9168617 0.16763669
0.23695274 0.24871689 -0.18810637 0.34977353 -0.14581594 0.3233157 -0.077542335 0.33927107
0.074958555 0.31161404 -0.23330338 0.17032345 0.06807035 -0.22646497 0.15309475 -0.08713885
-0.40813607 -0.0668744 0.12881659 -0.24926096 -0.6217297 0.3941399 -0.9099357 -0.16258122
0.07210653 -0.14808293 0.06901562 -0.6017852 -0.17156036 -0.31910148 -0.05822002 0.4553879
-0.5099677 0.14753486 -0.3603324 -0.3455707 0.3683334 0.4369863 0.4005921 0.3421219
0.009768095 0.15714191 -0.34906006 0.647645 -0.46190366 0.61971897 -0.09425702 -0.23422693
0.3210906 -0.46759436 -0.16120195 -0.10288091 -0.10138168 0.09868567 -0.16962053 -0.036868565
0.01658419 -0.009026606 -0.30980787 -0.26605073 -0.17372762 0.56761706 -0.5700707 -0.23605557
0.5256564 -0.19954722 -0.18977927 -0.019708687 0.5702724 -0.28292775 -0.0013519535 -0.35007617
-0.15065318 -0.4243065 0.696467 -0.53943956 -0.2176712 0.17224059 0.17727277 -0.18494779
0.1534052 0.29323125 0.28385013 0.27426806 -0.09084227 -0.02764594 -0.32141975 -0.294564
-0.085765906 -0.6612847 -0.397176 0.29437965 -0.26690638 0.10062197 -0.16387594 -0.03214079
0.26572725 0.4438388 -0.03535514 0.5505641 0.4785789 0.11602748 -0.07155665 0.12906858
0.19460939 0.6691443 -0.16373481 -0.527183 -0.3470642 -0.3402525 0.025874779 -0.19631098
-0.35554963 0.088089466 0.13594872 0.23074894 -0.21606143 0.20360209 -1.062257 -0.5083379
0.1839014 -0.6249377 0.16060181 0.44821924 0.29153618 0.38212302 0.06437012 -0.16715373
0.2030319 0.09547883 0.008645059 0.5751928 -0.3788842 -0.3864899 0.17960478 0.42076394
-0.2863474 -0.27600253 -1.0849664 0.29823777 0.16425985 0.1657919 0.13637422 -0.042637374
0.042765696 -0.10971213 -0.16973314 -0.11038729 0.37417394 0.22600375 -0.57936895 -0.36628076
-0.21125045 -0.122440845 0.5382307 -0.083295494 -0.18244389 0.1527689 -0.39028618 0.34464467
0.11192889 -0.011687753 -0.049845416 0.054147 0.23095365 -0.18692267 0.3963643 -0.14282274
0.35738018 0.2077087 -0.2191134 0.87711185 -0.66606414 0.25740138 0.08426191 -0.16689345
-0.74505806 -0.4323919 0.49143222 -0.22494084 -0.14251526 -0.21546263 -0.52752036 -0.12294477
-0.50915915 0.09166221 -0.24107277 -0.11859075 0.054372627 0.8115574 0.37939906 0.14649679
0.17464688 -0.19895238 -0.0029660726 0.50261045 -0.28238538 0.13998203 0.19248185 0.5701288
0.05601705 0.50852746 -0.0058570015 0.12141712 -0.33440003 -0.08354458 0.088908926 0.42375013

nee_decoder.2.bias f4 [16]
00000000: 43cb 833d 9813 9e3d 8779 cebd cc4f 08be
00000010: b333 ad3d 3a2e 84bd c414 873d 9e02 8b3d
00000020: d706 283c 2d3b 6a3d a7f4 803d bef5 88bd
00000030: 3371 9bbd 6b5f 453d e6f8 b03d bd94 adbd
0.064352535 0.07718581 -0.10081773 -0.1331169 0.084571265 -0.064541295 0.065957576 0.067876086
0.010255537 0.05718534 0.06296664 -0.066874966 -0.075899504 0.0481867 0.086412236 -0.08475635

nee_decoder.3.weight f4 [1, 16]
00000000: ac17 5d3f aa71 a43e bba6 02be d8a7 8abd
00000010: 9752 4e3e f4ab 5abe 0cd5 c03d 9d61 ed3e
00000020: 9bdf 773d 2317 bd3e 0b8a 153f 7505 84bd
00000030: f014 6abe 61b4 2f3e c502 5c3e 795f b0be
0.86364245 0.3211797 -0.12758915 -0.06770295 0.20148693 -0.21354657 0.094156355 0.46363536
0.06051598 0.36931714 0.5841376 -0.06446353 -0.2285955 0.17158653 0.21485431 -0.3444784

temp_derivative_decoder.0.weight f4 [16, 32]
00000000: d56c 00bd 9914 2f3e 023f a03d 8716 eebb
00000010: f62a 363c b954 7c3c 40db f5bb 83fe 16bd
00000020: 75fe 063d 78f3 ebbd 6e27 9f3c 099f 693d
00000030: b9cb 3a3d 3c5c 1e3e baf2 aabb cc4e ba3c
00000040: 0315 a63b f784 14bd c5c9 093d a2a9 6dbd
00000050: 186d 44bd 61f5 be3b d027 9a3d 637b 9abc
00000060: 7cd0 adbd 578f f03c df1d a8bd eb86 40bc
00000070: 39c0 023d 89b7 b1bc ba18 333d 0450 a83d
00000080: d996 44bd 5ad0 c13d 8837 f4bd 8090 54be
00000090: b4e5 e53d 9f93 0bbe a1d9 33bd c07e 253e
000000a0: 7afe b63c f4f2 c43c 4c31 b0bc f3ec 893d
000000b0: 9961 b1bd 0e04 8abe e3fe 30be bd2d e5bb
000000c0: 8ec5 76be 4c23 30be 30d4 09be 2046 12be
000000d0: 5be3 08be 801d 30be 0df6 8abb a85e 13be
000000e0: f32e bd3d 5d5b 823d 2563 0f3c bf46 b3bd
000000f0: 0bea 4c3e 0597 75bd c100 69be 2ed4 0cbe
00000100: 18df 4bbe 4810 4e3d cc32 3bbe c66a 263e
00000110: ddc2 56be 45a3 bebd 8356 b8bd ac0a 493b
00000120: 51ea 443c 6a65 87bd 6f52 0ebe d9d4 5d3b
00000130: f514 28be 8d1c 37bd 7387 093d 8f4b afbd
00000140: 8ae6 75bc f0da 183d e2d6 9abd e5de 1f3e
00000150: e0b7 5fbd c134 a33d 919f e8bd 0f70 bc3e
00000160: 6d1a 5cbd 6778 8ebd 5c47 bf3d 3970 32bd
00000170: a88f ca3d ccac da3d d134 53be 0388 47be
00000180: 0c9f 883c cce2 6ebe ff89 353d b382 bf3d
00000190: efde 3f3d f101 503c 8068 1f3d 4438 9f3b
000001a0: b534 56bd 0f28 183e b407 92bb c44e d9bd
000001b0: c08d 08be 8217 f8bd 6355 813d 1132 7f3c
000001c0: 65c9 453c 5c2a 9bbc 940c c73c 8e15 e03b
000001d0: 54bc 163d b9fd 70bc 59e0 5e3c 11e4 f4bc
000001e0: e4b2 cf3c 01a3 95bd 969b e63d af38 0fbd
000001f0: 54f4 39bc 895f a53d f8fc 1c3d 9df3 c33c
00000200: b128 16be 19e7 86be 7aab b4be c161 89be
00000210: 39ca 54be d8ef 22be c562 9ebc 3ac4 493d
00000220: 38b7 9cbd 687b 07be 821f 94bd 0b06 9d3c
00000230: 084d 5ebe de3d 69be 7d5e 39be b113 a5bd
00000240: 1f6f f0bd b442 b8bd 1e3f 69be b560 e33d
00000250: fb30 c0bd c135 07be bf97 4cbc a37e c2bd
00000260: 1e2f e0bd 26ca 98be 09db 83be 6e40 2e3b
00000270: a5aa 56bd 4b1e 4b3e f035 db3d 3ff1 87bd
00000280: a3f2 153e d3a1 22be 9c40 76be 3bc7 8cbe
00000290: 8d3c b8bd 50f9 54be 0985 33bd 101f 0dbd
000002a0: d161 14be c051 c03b e0d6 60bd bb0a 09be
000002b0: 7e23 2c3b 6767 04be 8e6c 53be f06c 683c
000002c0: 5562 e2be 7245 dfbc 6de2 7dbe 54f2 30be
000002d0: 5dc2 0bbe 1cf7 1a3d 2528 1b3e 9523 8b3d
000002e0: d8de 1c3e 309b 5fbe a38a a2bb d5de 74bd
000002f0: f9d8 c9bd fc9a 67be 50e5 eebe b621 a2bd
00000300: 3bd5 9fbe a06f 0bbe 118e 77be 8046 53bc
00000310: 6a74 aebe d75e 2cbe 8f8e e73c dcf1 843d
00000320: 6041 1bbe d091 93be aee8 023d fd11 a13c
00000330: ec93 233d 7fa9 b3bd d099 49bd 3b6a b7be
00000340: f39a e1be 4312 c5bd 3413 65be e035 2a3e
00000350: eddf 28be d882 8bbd bde3 51bc df40 173e
00000360: cce1 3fbe 35c6 88bc b657 aa3d ff71 8fbd
00000370: e620 e2bd 7548 debb ffed c8be d986 d3bd
00000380: 42bc 3abe 6c14 85be 5f73 7abe 9c50 22bc
00000390: 2899 7bbe 2f3c 9cbd 9e4c dc3c 4b2c 58bd
000003a0: 2579 70be 6eb8 fc3b 800e 5c3c 69e5 1fbe
000003b0: 0a96 1c3e 4969 4b3d 7fcf a8be 69d6 883d
000003c0: 0ee7 cebd 68ef 3abe 0642 a3bc 4e8e 9dbd
000003d0: 5824 f9bd f1f7 2abe 09ca efbd 2c73 f3bd
000003e0: 79fc 20be c6d8 7dbe b88c 24bd cbec e2bc
000003f0: bdfb bdbd 4ecb 8c3d 798d 83be 7385 17be
-0.03135379 0.17097701 0.07824518 -0.007265869 0.011118641 0.015401059 -0.0075029433 -0.036863815
0.032957513 -0.11521047 0.019427981 0.057036433 0.04560444 0.15464872 -0.0052169235 0.022742651
0.0050684228 -0.036259618 0.033639688 -0.058023103 -0.047955602 0.0058275913 0.07527125 -0.018857663
-0.08487031 0.029365225 -0.082088225 -0.011750917 0.0319216 -0.021693962 0.043724753 0.08218387
-0.047995422 0.09463568 -0.11924654 -0.20758247 0.11225453 -0.13630532 -0.04390872 0.16161633
0.02233814 0.02404163 -0.021507882 0.067346476 -0.086611934 -0.26956218 -0.17284732 -0.006993978
-0.24098799 -0.17200965 -0.1345985 -0.14284563 -0.13367979 -0.17198753 -0.0042407573 -0.14391577
0.092374705 0.063650824 0.008751665 -0.08753728 0.20011155 -0.059958477 -0.22754194 -0.13752815
-0.19909322 0.050308496 -0.18281096 0.16251668 -0.20972772 -0.09308485 -0.09000876 0.0030676527
0.012018756 -0.0661114 -0.13898633 0.003384879 -0.16414244 -0.044704963 0.03357644 -0.085593335
-0.015008578 0.03731817 -0.07560517 0.15612371 -0.054618716 0.079690464 -0.1135856 0.36804244
-0.05373614 -0.06956559 0.093397826 -0.043564055 0.098906815 0.1067749 -0.20625617 -0.19485478
0.016677402 -0.23328704 0.044321056 0.09351101 0.046843465 0.012695775 0.03891802 0.0048590023
-0.05229636 0.14859031 -0.0044564847 -0.106107265 -0.13335323 -0.12113859 0.06315114 0.015575902
0.012071942 -0.018941097 0.02429799 0.006838507 0.036800697 -0.01470893 0.013603293 -0.029893907
0.025353856 -0.07306481 0.112601444 -0.034966167 -0.011349756 0.080748625 0.038327187 0.023919875
-0.1466396 -0.2634819 -0.35287076 -0.26832393 -0.20780267 -0.15911806 -0.019334206 0.0492594
-0.07652134 -0.1323067 -0.07232572 0.01916792 -0.21709073 -0.22777507 -0.1810245 -0.080603965
-0.11739945 -0.089970976 -0.22777984 0.1110243 -0.09384342 -0.13204099 -0.012487351 -0.0949681
-0.10946487 -0.29841727 -0.25753048 0.0026588696 -0.052408833 0.19835775 0.10703647 -0.06637811
0.1464334 -0.15882044 -0.24048084 -0.2749575 -0.08995924 -0.2079823 -0.043828044 -0.03445345
-0.14490439 0.0058691204 -0.05489242 -0.13383 0.0026266272 -0.1293007 -0.20646879 0.014186129
-0.44215646 -0.027254794 -0.24793406 -0.17279941 -0.13648362 0.037833318 0.15152033 0.06793896
0.15319383 -0.21836543 -0.0049603744 -0.05978282 -0.098558374 -0.22617716 -0.46659327 -0.07916586
-0.3121737 -0.136168 -0.24175288 -0.0128952265 -0.34073192 -0.16833054 0.02826622 0.064914435
-0.15161657 -0.28822184 0.031960182 0.019661898 0.03993599 -0.08772563 -0.049218953 -0.35823235
-0.4406353 -0.09622624 -0.22370607 0.16622114 -0.16491671 -0.06812066 -0.012810645 0.1477084
-0.18738478 -0.016696075 0.08317511 -0.07004165 -0.11041431 -0.00678354 -0.39244077 -0.103284545
-0.18235877 -0.25992143 -0.24458073 -0.009906914 -0.24570143 -0.076286666 0.026892003 -0.052776616
-0.23483713 0.0077124154 0.013431191 -0.15614857 0.1529161 0.049660955 -0.32970807 0.066815205
-0.10102664 -0.18255389 -0.019928943 -0.07693158 -0.12165135 -0.16696145 -0.11708457 -0.11887202
-0.1572131 -0.24789724 -0.040173262 -0.027700802 -0.09276531 0.06874715 -0.25693873 -0.14797

temp_derivative_decoder.0.bias f4 [16]
00000000: beaf 7bbd 5040 b5be 4b19 98be 1df9 85be
00000010: 606c 01bf 27f5 e1be 64c7 fabe 91b5 f4be
00000020: 80c9 d5be 1c6d dbbe 05ce 9fbe 0414 33bf
00000030: bad8 ecbe 65fc cabe e5e1 febe 3cbc f3be
-0.061446898 -0.3540063 -0.29706797 -0.2616662 -0.5055599 -0.4413235 -0.48980248 -0.47794774
-0.41755295 -0.4285668 -0.31211868 -0.69952416 -0.462591 -0.39645687 -0.4978172 -0.4760455
