.archive/piae_sde/experiments/2024-11-25_17-40-13-661442/42/best_model.pth (torch, 25314 bytes, 28 tensors)

encoder.0.weight f4 [16, 18]
000000 b8 c1 ca 3e 6f b6 a0 be 65 82 c0 be 26 65 fa bd
       0.3960092 -0.31389186 -0.37599483 -0.12226324
000010 5c 3c 84 be 66 dd e5 3d 22 7b 3f 3e 89 3d 5b bd
       -0.258273 0.11223869 0.18699315 -0.05352548
000020 52 ed 96 3e 8d 67 82 3c 96 dc fc bd ae 96 b7 be
       0.29477936 0.015918517 -0.12346761 -0.35857147
000030 46 b7 08 3e 07 a7 ca be 1f 4a bc ba ea 80 7b 3d
       0.13351163 -0.39580557 -0.0014365352 0.06140224
000040 ea e9 70 be 06 3b 01 3e 65 2c 8f 3d e3 b5 91 3e
       -0.23526731 0.12620172 0.069908895 0.2845908
000050 99 ab 92 3e e3 68 ae bf 08 b8 a7 be 3f 8f 01 be
       0.28646544 -1.3625759 -0.32757592 -0.126523
000060 f3 84 68 be 17 bb 1b 3e a4 a5 5e be 9d 2f 8d be
       -0.22706966 0.15208088 -0.21742874 -0.2757539
000070 d0 77 c2 3d 43 80 82 3e 34 2a de bd 14 6d e4 be
       0.09495509 0.2548848 -0.10847893 -0.4461447
000080 40 52 02 3d ab 6b 5b 3e 49 04 a8 3e 02 2a 1f 3d
       0.03181672 0.21427791 0.3281577 0.03885842
000090 76 e1 9d 3e 89 b0 bd be e7 22 d3 3e 16 84 8d 3e
       0.30836076 -0.37048748 0.41237566 0.27639836
0000a0 29 20 98 be 0e 8e a2 3e 38 4a e8 3c 66 ea 88 3e
       -0.29712036 0.31749004 0.028355703 0.26741332
0000b0 d3 d4 71 be 0d 13 a8 3e 85 e0 c5 3e d7 6e 06 3e
       -0.23616342 0.32827035 0.38647857 0.1312822
0000c0 9e 12 b2 3e 5c 3b a3 be 1c 96 e4 bd 53 a4 fb 3d
       0.3477983 -0.31881225 -0.111614436 0.12287202
0000d0 22 15 73 3e e3 bf 6a be 4f 5a 88 3e 6f 8d 0c be
       0.2373853 -0.22924761 0.266314 -0.13725828
0000e0 4d 94 64 be 1c f5 0c bb c9 d3 ab be 23 67 c5 be
       -0.22322197 -0.0021508401 -0.33560017 -0.3855525
0000f0 ba 1b 14 3e 33 8b 13 3e a2 71 26 3e a8 8c 5d bd
       0.14463702 0.14408569 0.16254285 -0.05408922
000100 3f 4c 9d be be c8 ac be 1d 53 ce 3e 43 76 ba be
       -0.30722234 -0.33746904 0.40297785 -0.36418352
000110 28 a6 01 3e ae af ae 3e 73 51 a4 3e 5b 9c 87 be
       0.1266104 0.34118408 0.3209339 -0.26486477
000120 bf b3 0a be 47 f7 ab be 36 ea 86 3e a4 d7 c9 be
       -0.1354513 -0.33587095 0.26350564 -0.39422333
000130 ac 00 c6 be f6 96 8f be 64 71 af 3e 01 6a 8b 3e
       -0.38672388 -0.28044862 0.34266198 0.27229312
000140 8c 1d 90 3e cc 07 a5 3e 0a 9f 48 be ec e5 6f be
       0.28147542 0.3223251 -0.19591919 -0.23427552
000150 0f 22 84 be d6 ef 0d 3e 1a 54 27 3e 2d 86 b2 3d
       -0.25807235 0.13861021 0.16340676 0.08716998
000160 af 77 a5 be e2 d9 18 3d 80 43 64 be 88 2e a9 bd
       -0.32317874 0.037317164 -0.22291374 -0.08260828
000170 f0 2f 85 bd 73 0f ab 3c c3 96 bc be 37 98 b7 3e
       -0.06503284 0.02088139 -0.36833772 0.35858318
000180 7e 0b 37 be 02 68 06 3e 99 1d 94 3e 09 58 2d 3e
       -0.17875478 0.13125613 0.2892883 0.16928114
000190 7a a0 96 3e 51 e8 72 3e 23 7e 9d 3e 88 94 b5 3d
       0.2941931 0.23721434 0.30760297 0.08866221
0001a0 8f 5f 89 3e 68 fb 3a be eb ca 67 be 16 68 4d 3e
       0.26830718 -0.18259966 -0.22636001 0.20059237
0001b0 f7 bc e1 3d 90 0c 81 bc a8 6c b5 be 0f 90 0c 3e
       0.1102237 -0.01575306 -0.3543446 0.13726829
0001c0 1b 52 8b 3e 95 a8 46 bd 41 a7 c5 3d 66 80 3f 3e
       0.2721108 -0.048500616 0.09651042 0.18701324
0001d0 56 69 d4 be 94 8c 8d bd 99 93 1f be a4 dd 5b be
       -0.41486615 -0.06911579 -0.15583648 -0.21471268
0001e0 e5 75 83 3e 8c 40 d5 3e 49 46 89 3d 3c dd 85 3e
       0.25675884 0.41650808 0.06702859 0.2614535
0001f0 f4 90 9f be 60 91 97 3d 6f 89 5e bd 94 a7 84 be
       -0.31165278 0.07400775 -0.054330286 -0.25909102
000200 a3 67 b0 3d ce ee 08 3e 42 37 a6 bc d2 aa 36 3e
       0.08613517 0.13372347 -0.02029002 0.178386
000210 ce 86 4e 3e dd 16 c3 3e 17 7d c7 3c 78 37 75 3c
       0.20168611 0.3810338 0.02435164 0.014966838
000220 3b 06 c5 bb 0c 75 6d 3d ba 76 8b be 90 cb 53 bd
       -0.0060127056 0.057972953 -0.2723902 -0.051707804
000230 95 e1 b5 be 91 dd 96 be 81 34 b7 be 65 81 9f 3e
       -0.35523668 -0.29465917 -0.35782245 0.31153408
000240 a4 19 70 be 35 ca dc bc 65 6b 54 3d 42 68 ba 3e
       -0.23447281 -0.026951889 0.051860232 0.36407667
000250 c1 57 4a 3e 30 9c 95 be d4 ec d5 3e 86 2a c8 be
       0.19760038 -0.29220724 0.41782248 -0.39094943
000260 65 40 43 3d ff f6 c0 3e bd 16 be 3e a0 a2 d5 bd
       0.047668833 0.37688443 0.37126723 -0.10431409
000270 02 fb 8b be a4 00 44 3e 68 5b a9 3e 0d 70 6c be
       -0.2733994 0.1914087 0.3307755 -0.23089619
000280 64 5f 96 bd 61 5c 86 be f3 ab 1f 3e 24 84 b2 3d
       -0.07342413 -0.26242355 0.15592937 0.0871661
000290 e0 34 54 3e df 40 7f 3f 21 1c cf be f3 2d 36 be
       0.20723295 0.9970836 -0.40451148 -0.17790966
0002a0 22 d7 b7 be 6c 4f d1 bd 97 b7 17 3e d6 99 b5 be
       -0.3590632 -0.10220227 0.14816128 -0.3546893
0002b0 66 71 98 bc c5 eb d1 be 32 ee 98 be 72 13 96 be
       -0.01860876 -0.4100019 -0.2986923 -0.2931171
0002c0 f4 70 11 be a3 f4 59 be 0b 6d 84 3d 2e 7b 83 3e
       -0.14203244 -0.21284728 0.06466111 0.25679916
0002d0 b6 2d a2 3e 1e 89 07 3e 0c 2c 36 bb 73 50 99 bd
       0.316755 0.132359 -0.002779725 -0.074860476
0002e0 be 0a 92 3e 83 5e 76 be c8 76 9b 3e a4 15 cf be
       0.2852382 -0.24059491 0.3036406 -0.40446198
0002f0 18 88 a0 be 22 37 e4 3d 22 2c 31 be 4f 83 a0 3d
       -0.3135383 0.11143328 -0.17301992 0.07837545
000300 e4 66 bb 3e 6d 78 44 3e 3f 84 d2 3e 84 34 36 be
       0.36601937 0.19186564 0.4111652 -0.1779347
000310 d4 6a 4d be ac 79 5a bd c0 08 bd bd e3 92 3e be
       -0.20060283 -0.05333869 -0.092301846 -0.1861072
000320 96 4b 15 bd 27 63 d8 3e e7 18 60 be 68 57 6a 3e
       -0.036449037 0.42263147 -0.218845 0.22884905
000330 a1 21 28 3e 81 36 6e 3e 0b be cf 3d e1 53 2a be
       0.16419078 0.23262979 0.1014367 -0.1663356
000340 5d 13 3d 3e 69 dd 50 be c0 0e 88 be 11 0f cf 3e
       0.18464418 -0.20396961 -0.26573753 0.40441182
000350 63 46 b8 3e e2 ed 9a be b2 b3 ae 3e 47 72 b4 3d
       0.359912 -0.30259615 0.34121472 0.08810859
000360 24 c0 22 3e db d8 e9 3e e1 7b 80 bd 45 d8 7f 3e
       0.15893608 0.4567326 -0.06273628 0.24984844
000370 15 ed 99 3e 17 8f 09 be c9 f6 22 be 76 0b 57 be
       0.30063692 -0.1343349 -0.15914454 -0.21000466
000380 c0 5e ef 3e c5 1e 81 3e 8b 58 fd bc 5b 1c 04 3b
       0.46751976 0.25218788 -0.03092601 0.0020158503
000390 39 8c 0d 3d a0 44 53 be 02 bf 27 3e 62 09 9a be
       0.034557555 -0.20631647 0.16381457 -0.30085284
0003a0 12 89 84 3a 06 a4 56 bd fb aa 30 be 97 70 c7 3e
       0.0010111651 -0.05240252 -0.17252724 0.38953087
0003b0 2c fe f2 3d b9 9c f1 3d 78 17 8e be 33 1d 89 3d
       0.11864886 0.117974706 -0.2775228 0.066950224
0003c0 48 b3 f0 3d d2 54 60 3e 13 d1 fb bd 91 e6 a6 bd
       0.11752945 0.21907356 -0.12295737 -0.08149446
0003d0 c3 9f ae be f5 b8 82 3e 95 17 90 3e 0d c3 48 3e
       -0.34106264 0.25531736 0.28142992 0.19605656
0003e0 03 9e 5a 3e ed d2 80 3e ff bc ca 3e e6 df 0c 3e
       0.21349339 0.25160924 0.39597318 0.13757285
0003f0 68 48 1b 3e 5c 4d 07 3e 77 ec 72 be fb da d7 3d
       0.1516434 0.13213104 -0.23723017 0.10539814

encoder.0.bias f4 [16]
000000 00 00 00 00 2e 4e e3 bc fe 43 81 bc 00 00 00 00
       0.0 -0.02774724 -0.015779492 0.0
000010 00 00 00 00 00 00 00 00 00 00 00 00 00 00 00 00
       0.0 0.0 0.0 0.0
000020 cc b8 e3 bb 6d 12 83 3a 00 00 00 00 d0 35 25 3c
       -0.0069495197 0.0009999998 0.0 0.010083631
000030 e1 50 27 3d 00 00 00 00 00 00 00 00 00 00 00 00
       0.040848617 0.0 0.0 0.0

encoder.2.weight f4 [16, 16]
000000 37 1a 8d 3e a7 6c c1 bd 8f 60 ba 3d d0 33 b3 3e
       0.27559063 -0.09444552 0.09100448 0.35000467
000010 e8 4f cc be 19 ba fd 3d 96 6c c8 be 89 22 a4 3e
       -0.39904714 0.12389011 -0.39145344 0.32057598
000020 37 52 f6 3d 8a 59 45 3d 16 a2 31 be e8 2d 27 3e
       0.120274 0.048181094 -0.17346987 0.16326106
000030 07 e8 95 be 3c 85 a9 3d 9d 2e ba 3e 0e 69 a6 be
       -0.29278585 0.082773656 0.36363688 -0.32502025
000040 4a 07 fd bd 62 21 cf 3d 59 ee 99 3d e9 1f c3 3b
       -0.12354906 0.10113789 0.07516164 0.0059547317
000050 2f bc be 3e 1c 73 e6 bd 27 c1 e4 3d 08 fd 6a 3e
       0.37252948 -0.11252424 0.111696534 0.22948086
000060 fa 04 ba bd 20 de 90 3e 3a cb 90 3e b5 72 45 3e
       -0.090829805 0.28294468 0.2828005 0.19282039
000070 6d 94 22 be aa 92 c0 3e cb 1a 80 be 91 0a 09 3e
       -0.15876932 0.37611896 -0.2502044 0.13382937
000080 16 10 b2 3d d3 7b 9c 3e c6 b8 b5 be 56 9a 9a 3d
       0.086944744 0.3056322 -0.35492533 0.075489685
000090 4a 5a 7f be c9 04 6b 3e 2b 43 18 3e 84 75 ac be
       -0.24936786 0.22951044 0.14869373 -0.33683407
0000a0 1a c8 a5 bc 3d 12 f8 3d de e2 3c 3e 1f 3c c5 3e
       -0.020237017 0.12112854 0.18445918 0.3852243
0000b0 a6 a1 66 3e a4 1f a9 3d 02 87 6c 3e ed c8 d1 be
       0.22522601 0.08257988 0.23098376 -0.40973607
0000c0 b5 d0 93 3e c9 ef 6a bd 5d 48 74 3e c5 bb f0 3d
       0.28870168 -0.057357583 0.2385573 0.11754564
0000d0 9b 10 bb bc 06 0f 9c 3e 3b 3e 81 be ed 14 fa 3d
       -0.022835067 0.30480212 -0.2524279 0.122110225
0000e0 c0 60 42 3e b2 0e 23 be 86 a1 20 3e 63 86 de be
       0.1898222 -0.15923575 0.15686616 -0.43461904
0000f0 5c ac 94 be 7c f5 50 3e 29 8a 64 3e ed ce ce be
       -0.2903775 0.20406145 0.22318329 -0.40392247
000100 c7 72 19 3e 52 c5 26 3d eb 69 d8 3e c9 3e d8 be
       0.1498519 0.040715523 0.4226831 -0.422354
000110 a4 5b d3 bd fc 1d 7b be b4 e6 86 be 03 d7 90 bd
       -0.103202134 -0.24523157 -0.26347888 -0.0707226
000120 51 3e c8 be 7e b1 ad 3e 85 e0 1c be 99 5d 1b 3e
       -0.39110044 0.33924478 -0.15320022 0.15172423
000130 74 e6 5e be 0f 04 19 3b b8 0f 9d be c3 71 b2 3e
       -0.21767598 0.0023348366 -0.30676055 0.34852418
000140 8e fa ba 3e 51 8b ae 3e 82 39 1b be 1a fc 89 3e
       0.36519283 0.34090665 -0.15158656 0.2695015
000150 a7 3b b9 be c1 73 4b 3e 9e ec 5a bd 14 b8 b7 be
       -0.36178324 0.19868375 -0.053448312 -0.35882628
000160 12 72 b5 be 77 77 cf be 2c 2e a6 3d c6 5f 20 be
       -0.3543859 -0.40520832 0.08114275 -0.15661535
000170 7b f3 7e be d1 0f d3 3e 47 18 07 be 2f 8f 15 3e
       -0.24897568 0.41223004 -0.13192855 0.14605401
000180 cd 1d 9c bd 42 b4 85 3e aa 51 04 3e 2d 65 8c 3e
       -0.076228715 0.26114088 0.12921777 0.2742094
000190 02 90 e7 3d 53 5c c2 bd 83 f2 c3 3e 14 e3 fc bc
       0.11306764 -0.09490266 0.3827096 -0.030869998
0001a0 83 b8 84 be cd f5 08 3e ce 38 57 bd e8 6b a4 be
       -0.2592202 0.13375016 -0.052544408 -0.32113576
0001b0 59 dd 18 be b0 0c ce bd f1 93 30 be 46 9f 53 be
       -0.14928187 -0.10061014 -0.17243935 -0.20666227
0001c0 0f b2 3c be 1e c4 45 be fa 12 cc 3c 1f 18 cd 3e
       -0.18427299 -0.19313094 0.024911392 0.40057465
0001d0 98 f2 81 be 73 db 4e be 19 9e 94 be 2d 9a 86 bc
       -0.25380397 -0.202009 -0.2902687 -0.016430939
0001e0 f8 b5 f8 3c ba 28 a1 be af 88 4a 3e 34 d5 cf be
       0.030360207 -0.31476384 0.19778703 -0.4059235
0001f0 14 33 cd 3e b2 63 82 3d 45 c1 32 bd 3d d8 30 be
       0.40078032 0.063666716 -0.043641347 -0.17269988
000200 bb 16 47 3e 0a e5 a1 3e 56 03 91 be 26 49 de bd
       0.19442265 0.31620055 -0.28322858 -0.10853796
000210 25 35 a3 3e be 31 a6 bd 9c 3f a3 be c7 7e 0e be
       0.31876484 -0.08114956 -0.31884468 -0.13915549
000220 94 07 a5 3c 3a 8e a5 bd 8c ee 97 be 16 e5 8a be
       0.020145215 -0.08083768 -0.29674184 -0.27127904
000230 f7 63 3c 3e 75 1e 98 3e fd af c9 3e 9c 78 48 bd
       0.18397509 0.29710737 0.3939208 -0.048943147
000240 fc 99 2a 3e af 14 b0 be a3 46 6c 3e 1f d9 d3 3e
       0.16660303 -0.3439078 0.23073821 0.41376588
000250 a8 e6 66 3e 51 50 2f be 1e c2 b4 3e 30 f8 d1 be
       0.22548926 -0.17120482 0.3530435 -0.41009665
000260 61 fa 70 bd e5 ba db bd 0c 24 dd be ab f3 7c be
       -0.05883253 -0.10729007 -0.43191564 -0.24702327
000270 2a 08 b5 be 48 59 ee 3d cd 87 13 bd ea a4 4b 3e
       -0.3535779 0.11638123 -0.03601818 0.19887128
000280 ec 7d c7 bd c0 e0 b6 3e 07 e5 48 3d 4a c7 b7 3e
       -0.097408146 0.35718346 0.049046542 0.35894233
000290 7a 08 b4 3e e4 03 bc be 92 e3 94 be 90 89 85 3e
       0.35162717 -0.36721718 -0.29079872 0.26081514
0002a0 b7 f0 cd 3e f3 39 bd be 22 ab cf 3b d2 78 2a be
       0.40222713 -0.36958274 0.0063375393 -0.16647652
0002b0 cb bd b6 3e 6d 2c b8 3e 0d 5b a1 3e 97 9d 6e 3e
       0.35691676 0.35971394 0.3151478 0.23302303
0002c0 0c 5e 26 bd c5 92 cc 3e cd 7d 4f be c4 51 af 3c
       -0.040617034 0.39955726 -0.20262833 0.021401294
0002d0 b9 55 e9 bd b7 bb a1 be aa 1f 52 be 0f 04 d7 3d
       -0.113933034 -0.31588528 -0.20519891 0.10498821
0002e0 d8 64 3a bd f2 dd 92 be 92 7b 61 bd 4c 28 99 3d
       -0.04550633 -0.28684956 -0.055049486 0.07478389
0002f0 c5 15 ad be e3 e4 85 3e 21 7d bc be 4d c0 87 3b
       -0.3380567 0.2615119 -0.36814216 0.004142797
000300 95 5b b5 be 99 65 9a be f7 d7 0c 3d 51 1d f5 3e
       -0.35421434 -0.30155638 0.034385648 0.4787393
000310 c0 95 d1 3e 13 5d 1f 3e 64 d7 ab 3e 04 63 72 be
       0.40934563 0.15562849 0.33562768 -0.23670584
000320 43 af 8c 3e f1 7e b1 3e 8d e1 d3 be 3d 4c 7c be
       0.27477464 0.3466716 -0.4138302 -0.24638458
000330 04 20 b7 3e cf ba 00 3e e5 10 96 be 35 d6 82 be
       0.35766613 0.12571262 -0.29309765 -0.25554052
000340 1a 3b a0 3e af c0 41 3d 0c 37 7b ba b8 52 d6 be
       0.3129509 0.047302898 -0.0009583093 -0.41859984
000350 2d 85 c2 3e 02 8f 92 be 63 93 45 3e 23 44 55 bd
       0.3799223 -0.2862473 0.19294505 -0.052066933
000360 cb 2d 67 3c 68 b7 59 3e 95 3c ec bd 7c ca f8 bd
       0.014110039 0.2126137 -0.115349926 -0.12147996
000370 d7 bc b0 3e e0 e2 a9 be ad 51 45 3e 14 dc e4 bd
       0.34519073 -0.33180904 0.19269438 -0.11174789
000380 d7 27 14 be 55 69 94 3e 3a b7 95 3d 8a 68 ce be
       -0.14468323 0.28986612 0.07310338 -0.40314132
000390 55 1e c6 3e d4 04 5c be 9a a8 bf 3e fc 28 0b be
       0.38695017 -0.21486217 0.3743332 -0.13589853
0003a0 28 2b d8 3e 21 ce 02 3e 15 5c ab bc 29 43 29 3e
       0.42220426 0.12773944 -0.020917932 0.16529526
0003b0 cb 19 9f bd f2 eb 5b be ec 8b 72 3e f6 cc 8f 3e
       -0.077685915 -0.21476725 0.23686188 0.2808606
0003c0 63 32 5e bd a9 89 d0 3e 48 45 e1 3c 29 7f 6a be
       -0.05424727 0.40730026 0.027498856 -0.2290007
0003d0 1c a2 71 be fc 2a 95 3e 29 9e 33 be 67 07 8c 3e
       -0.23596996 0.29134357 -0.17540802 0.27349398
0003e0 e7 e4 d3 be 53 62 74 3c 33 2f 99 be 3e 49 1d 3e
       -0.41385576 0.01491602 -0.29918823 0.15359971
0003f0 4d 4b ce 3e 32 7c 2e 3e 57 74 18 be 43 fb cf be
       0.40291825 0.17039564 -0.1488813 -0.40621385

encoder.2.bias f4 [16]
000000 6f 12 83 ba 00 00 00 00 6e 12 83 3a f1 95 db bb
       -0.001 0.0 0.0009999999 -0.006701224
000010 6d 12 83 3a 6e 12 83 ba ac 61 fa bb 33 eb 93 bc
       0.0009999998 -0.0009999999 -0.007641038 -0.018056488
000020 6e 12 83 3a 6e 12 83 ba 6e 12 83 ba 00 00 00 00
       0.0009999999 -0.0009999999 -0.0009999999 0.0
000030 d8 26 b0 3d 00 00 00 00 43 7a a2 bb 00 00 00 00
       0.08601159 0.0 -0.0049584224 0.0

encoder.4.weight f4 [32, 16]
000000 b3 88 2b be 57 89 55 be c8 db ac 3e 0e 22 4a be
       -0.16751365 -0.20853172 0.3376143 -0.19739553
000010 c6 fb 0b 3e ee 50 91 3e 7b 85 02 3e 4c c4 a2 be
       0.13670263 0.28382057 0.12746231 -0.31790388
000020 1d 81 24 bd a0 e7 d6 bd 13 44 69 3e bb d7 07 bd
       -0.040162195 -0.10493398 0.22779875 -0.03316472
000030 09 4e ee 3d 93 07 a1 3e 8b 4d ac 3d 1c d3 27 3e
       0.11635978 0.3145109 0.08413228 0.16389126
000040 4f 16 e9 bd 8c c3 6c 3e 9c 37 50 3d 7a 11 78 bd
       -0.11381208 0.2312147 0.050834283 -0.060563542
000050 10 8a 8b 3d 09 7d 8e be 98 fe 54 3c 63 35 30 3e
       0.06813443 -0.2782977 0.013000153 0.17207865
000060 03 81 a9 be c6 4e 40 be 33 d3 62 3e 78 5d 03 3c
       -0.3310624 -0.1878005 0.22150879 0.00801789
000070 91 ea 0b 3e 4a c8 13 3d 75 7d 22 be 63 b0 95 3e
       0.13663699 0.036079682 -0.1586817 0.29236135
000080 a3 96 0f bd 65 d2 03 be cc 92 3e 3e 48 0a 9c be
       -0.035055768 -0.12873228 0.18610686 -0.30476594
000090 00 8f 85 bd 06 f5 11 3d 40 b6 e0 bd 4f da 3a 3e
       -0.06521416 0.035634063 -0.109722614 0.1824734
0000a0 21 97 9a be 32 bf d0 bd 01 2a 18 be d1 80 a7 3e
       -0.30193427 -0.101927176 -0.14859773 0.32715467
0000b0 d0 ba ea bc a0 08 87 be 3a 50 0c 3e 71 b0 f5 bb
       -0.028653532 -0.26373768 0.13702479 -0.00749784
0000c0 b7 b5 a5 3e da cb 47 3e cb 70 53 be 7f bf a6 3e
       0.323652 0.19511357 -0.20648496 0.32567975
0000d0 52 81 81 bd 15 e1 a4 bd e8 84 d8 3d 4f f2 b8 3e
       -0.06323494 -0.080507435 0.10572225 0.36122367
0000e0 a0 79 da 3d b1 a8 ae be c6 24 e7 bd 13 90 a8 3e
       0.106677294 -0.34113076 -0.11286311 0.3292242
0000f0 fe 73 73 be c8 2c 2e be c3 49 90 be a3 d9 47 be
       -0.23774716 -0.1700927 -0.28181276 -0.19516616
000100 62 f1 45 be e1 ed ac 3d c9 a4 10 3e d6 78 a7 3e
       -0.19330361 0.08443809 0.1412536 0.32709378
000110 35 98 6d 3e f1 2e ab 3b f8 3e 43 3e 11 d2 44 3e
       0.23202594 0.0052241017 0.1906699 0.19220759
000120 3a 22 9c be d6 ae 36 3e aa a8 77 be 42 c9 8b 3e
       -0.30494863 0.17840132 -0.24185434 0.27301985
000130 a4 bf 9a be bb 3c 96 3d f0 8a 76 bb 27 f7 27 3e
       -0.30224335 0.07335802 -0.0037619434 0.16402875
000140 0e 3f 61 3d 7e 4f 83 be 93 a8 12 3e cc 8a 4a 3e
       0.054991774 -0.25646585 0.14322118 0.1977951
000150 6e 89 3c be 5e db 6a be 49 86 76 be 12 75 3a be
       -0.184118 -0.22935244 -0.24074663 -0.18208721
000160 d9 93 36 bd f0 8e d8 3c ae 6c 23 bb b8 82 bf bd
       -0.044574592 0.026435345 -0.0024936604 -0.093511045
000170 5e 44 b0 3e f8 0f 99 3c fc 37 52 be 87 a0 bf bd
       0.3442716 0.018684372 -0.20529169 -0.0935679
000180 eb da 54 be e0 71 ff bd a2 c1 aa be 7b 9f 93 3d
       -0.20786636 -0.12472892 -0.33350855 0.07208153
000190 ac 42 8c be 29 06 0c 3e c9 02 78 3e 75 9d 81 be
       -0.27394617 0.13674225 0.24219812 -0.25315443
0001a0 26 0f 3f be ae 07 8f be 27 3c c1 3d f9 1a 8c 3d
       -0.18658122 -0.27935547 0.09435301 0.06841082
0001b0 0b 3f 9c be 5b b3 5a 3e 0f 3a 16 3e d5 8e a3 be
       -0.30516848 0.21357481 0.14670585 -0.3194491
0001c0 6d 8b 9d bc 91 da 1b be 83 18 7b bd 42 01 3f 3e
       -0.019231522 -0.15220095 -0.061302673 0.18652824
0001d0 90 c3 1b bd d9 70 7b be a7 ab 7e 3e 68 84 aa be
       -0.0380283 -0.24554767 0.24870168 -0.33304143
0001e0 0d ac f8 bd 96 7f 0b 3e 42 00 a0 3e dd af af 3e
       -0.12142191 0.13622889 0.31250197 0.3431386
0001f0 9c 29 6d be 45 9f f1 3d 14 fa 9e be 25 e4 8c bd
       -0.23160404 0.117979564 -0.3105017 -0.068794526
000200 9d 3a e1 bd ed 8b cd 3d 6a 35 6d be 86 3d 87 3d
       -0.10997508 0.10036454 -0.23164907 0.066035315
000210 b5 0a 3b 3e b2 13 8d 3e 6a dd 74 bd c7 51 a0 3e
       0.18265803 0.2755409 -0.05978147 0.3131239
000220 35 07 ab be 51 2f cd bd 16 41 09 3e 2e ac b9 3d
       -0.33403936 -0.100187905 0.13403735 0.09066044
000230 8c 71 92 3c 68 3d 70 be 40 eb 5e 3e 1f e4 a9 be
       0.017876409 -0.23460925 0.21769428 -0.33181855
000240 f6 3d 78 be 05 f9 c4 bc 8e dc af be 99 d0 a6 be
       -0.24242386 -0.024044523 -0.34347957 -0.32581022
000250 5e b2 a0 be 9b 89 91 3e 79 d4 9e 3d b1 de d2 bd
       -0.31386083 0.28425297 0.0775537 -0.10296381
000260 e3 11 6e bc a2 c7 9d be bd f6 aa be 6c 7a 7c be
       -0.014530632 -0.3081637 -0.3339137 -0.24656075
000270 26 4a 31 be 97 30 6e 3e 8a 60 fd bd e1 75 c3 bd
       -0.17313442 0.23260723 -0.12371929 -0.09543968
000280 4e e2 9b be 4a d8 6f 3d d0 45 59 bd 14 5b 80 be
       -0.30446094 0.05855588 -0.053045094 -0.25069487
000290 fb 1f 68 3e 3c 95 98 3e e0 06 81 be 65 2b 43 3e
       0.2266845 0.29801357 -0.25200558 0.19059522
0002a0 97 25 6b bd bc c0 5a bb eb 19 1a 3e 1b 03 84 bd
       -0.057408895 -0.0033379039 0.1504895 -0.06445905
0002b0 b9 30 07 3e 02 c0 5e 3e c7 02 6b be ba 52 5c be
       0.1320218 0.21752933 -0.22950278 -0.21515933
0002c0 9d 5a b3 be 2f d3 e7 3d 0d 29 88 be 6c e3 92 be
       -0.3503007 0.11319577 -0.2659382 -0.28689134
0002d0 0d 0e 68 be fd f7 b2 be cc 64 93 be a6 48 a6 3e
       -0.2266161 -0.34954825 -0.2878784 0.324773
0002e0 c1 3a 4a 3e 49 63 a0 3e 3c 9e 2f be 9e 7d 14 be
       0.19748975 0.3132575 -0.17150205 -0.14501044
0002f0 34 56 8c be 11 44 e2 3b ef ed 81 be 6b 4d 54 3d
       -0.27409518 0.006905087 -0.2537684 0.051831644
000300 b8 07 68 be 6d d6 64 3d 32 d0 a5 3e 76 cc 49 3d
       -0.22659194 0.055868555 0.32385403 0.049267255
000310 22 0b 84 3e 72 ec 80 be 7a 5e 4c bd 62 b8 69 be
       0.25789744 -0.25180393 -0.049894787 -0.22824243
000320 13 ab 20 bd 92 04 10 be b4 8f 4d be 9b da ae be
       -0.03922565 -0.14064243 -0.2007435 -0.34151158
000330 70 1a 8f be 3f ef 41 3d 94 c2 7e bd 6b 97 a8 be
       -0.27949858 0.047347303 -0.062197283 -0.32928023
000340 52 fa 87 3e 35 39 86 3e 08 46 5a be 27 7d 3c 3d
       0.26558167 0.2621552 -0.21315777 0.046017792
000350 9d 65 70 3e 9a e7 ab be de f2 9f be 3f e0 52 3e
       0.23476262 -0.33575135 -0.3123998 0.20593356
000360 7b 75 e5 bb e3 92 e6 3d 39 8e 16 be 69 48 83 3d
       -0.00700253 0.11258485 -0.14702691 0.064102955
000370 7c be c1 3e ca 24 b1 bd 84 e1 e9 bd 59 5d ac be
       0.3784064 -0.08649595 -0.11419967 -0.3366497
000380 5a 76 5f bd 54 69 65 3e 63 13 ab be 1e d2 8a bc
       -0.05455623 0.2240346 -0.33413228 -0.016945895
000390 87 f3 83 3e 8d a9 ce bd 07 c3 05 be ee 23 c6 bd
       0.25771734 -0.10090933 -0.13062678 -0.09674822
0003a0 ba ae 12 be fe 52 2d 3d 40 49 ae be 33 59 0a 3e
       -0.14324465 0.042315476 -0.3404026 0.1351059
0003b0 82 f5 72 3d 7b 60 38 bd 54 69 c3 bc 4f 3f 4a 3e
       0.059316166 -0.045013886 -0.023853935 0.19750713
0003c0 b6 e2 60 be 83 b9 a4 be b0 f0 82 be 50 fb 7e be
       -0.21961483 -0.32172784 -0.25574255 -0.24900556
0003d0 e6 43 30 be cd f8 8e 3e 0f 0a 8c be ff af 4a be
       -0.17213401 0.27924195 -0.27351424 -0.197937
0003e0 50 91 93 be f4 df 35 be 07 9e 22 bc 3d c2 5c be
       -0.28821802 -0.17761213 -0.009925372 -0.21558471
0003f0 75 f4 1b 3e a3 b1 f4 3d 07 63 76 bd 86 34 1c 3e
       0.15229972 0.11947944 -0.060153034 0.15254411

encoder.4.bias f4 [32]
000000 00 00 00 00 6f 12 83 3a 6f 12 83 ba 6d 12 83 ba
       0.0 0.001 -0.001 -0.0009999998
000010 00 00 00 00 00 00 00 00 00 00 00 00 00 00 00 00
       0.0 0.0 0.0 0.0
000020 00 00 00 00 6d 12 83 3a 6e 12 83 ba 6d 12 83 ba
       0.0 0.0009999998 -0.0009999999 -0.0009999998
000030 00 00 00 00 00 00 00 00 00 00 00 00 00 00 00 00
       0.0 0.0 0.0 0.0
000040 6d 12 83 ba 00 00 00 00 6e 12 83 3a 00 00 00 00
       -0.0009999998 0.0 0.0009999999 0.0
000050 6f 12 83 ba 00 00 00 00 00 00 00 00 00 00 00 00
       -0.001 0.0 0.0 0.0
000060 00 00 00 00 6e 12 83 ba 00 00 00 00 6d 12 83 ba
       0.0 -0.0009999999 0.0 -0.0009999998
000070 6e 12 83 3a 00 00 00 00 00 00 00 00 6e 12 83 3a
       0.0009999999 0.0 0.0 0.0009999999

nee_decoder.0.weight f4 [16, 32]
000000 5b 76 24 bc 47 f1 1e bd 3c a1 8a 3e be 48 aa be
       -0.010037984 -0.03880432 0.27076137 -0.33258623
000010 b5 ff 99 3c 60 ef cb bd 0a 91 2d 3d c2 6f a7 3e
       0.018798688 -0.099577665 0.04237465 0.32702452
000020 45 e6 1f bb d6 64 46 bd 31 de 07 be 19 09 ae be
       -0.0024398726 -0.04843601 -0.13268353 -0.33991316
000030 d8 60 9d be a7 2f 2b 3e 29 9b 4f be 0c c3 5a 3e
       -0.30737948 0.16717397 -0.20274033 0.21363467
000040 63 a5 e7 bd 6e de 0f 3e bf 99 8a 3e f2 67 84 3d
       -0.11310842 0.14049694 0.27070424 0.064651385
000050 1a 8e 09 3e 37 ea 9f 3e 9e e9 fd bd ff 83 8b 3e
       0.13433114 0.3123338 -0.123980746 0.27249143
000060 35 b4 91 be 59 14 9f 3e 73 f9 03 be a4 3b d6 bc
       -0.284578 0.31070212 -0.12888126 -0.026151486
000070 35 7c 3e 3e e8 0b 1f 3d 76 e2 a4 3e 92 c9 11 be
       0.18602069 0.038829714 0.32204026 -0.14237049
000080 70 c1 34 be 77 50 ab 3e 3a 7e 69 be c2 1e 85 3e
       -0.17651916 0.33459827 -0.22802058 0.2600003
000090 42 7d b8 3e 31 f3 61 3e e3 e0 1b be 93 2d 28 3c
       0.36033064 0.22065426 -0.15222506 0.010264772
0000a0 ad 48 99 be 2e 11 58 be 35 ea 5f bd d4 0b 81 be
       -0.2993826 -0.21100304 -0.054666717 -0.25204337
0000b0 eb 0b 3f 3e 59 7b 2c 3e 66 6b f0 bd e8 ee 97 bd
       0.1865689 0.16843928 -0.117392346 -0.074186146
0000c0 cb 59 b8 3e 56 e6 25 bd 00 24 90 3e 90 23 9e 3e
       0.36006007 -0.04050287 0.28152466 0.30886507
0000d0 a3 ac 11 be 64 8f b5 be 57 06 b2 3e da 51 57 be
       -0.14226012 -0.3546096 0.34770462 -0.21027318
0000e0 69 76 a4 3e 44 af 55 be e0 54 aa 3d bf 07 fd 3d
       0.3212159 -0.2086764 0.0831697 0.12354993
0000f0 75 52 86 bd ff ea 83 3e 60 f7 ad be ab 51 29 be
       -0.06558696 0.25765225 -0.33977795 -0.1653506
000100 03 4a 8a bd 0c 81 84 3e 9c 63 33 3e e5 7c 5c 3e
       -0.06752398 0.25879705 0.17518467 0.21532018
000110 60 9a 0f 3e 12 e1 a8 3e f8 a2 9b bd e4 81 f7 bd
       0.14023733 0.32984215 -0.07599443 -0.120853215
000120 cf 08 77 bd b4 9f 1a 3e f9 7f ec bd d3 26 11 3e
       -0.060311135 0.15099984 -0.11547846 0.14174967
000130 7f bf de 3d 70 54 c2 3d 5e 8e 99 3e 7f ca 8b 3d
       0.10876369 0.094887614 0.2999143 0.068257324
000140 f1 14 64 3e aa 96 b1 bd 7d a9 9c be 5e 88 69 3e
       0.22273614 -0.08671315 -0.3059806 0.22805926
000150 06 5d 22 3e 28 54 9e 3e 5a 65 fc 3d d8 be 9b 3c
       0.15855798 0.3092358 0.12324019 0.0190119
000160 54 53 79 be 1a db b1 be 5f 83 72 3d b8 94 8d 3e
       -0.24348193 -0.34737474 0.059207316 0.27652526
000170 8f e6 17 bd 05 2d d4 bd f2 55 41 3e 45 d8 22 be
       -0.037085112 -0.10360149 0.18880442 -0.15902813
000180 1b 80 ff 3d c1 e4 92 be 6e 0d a4 be 77 36 53 be
       0.12475606 -0.2869015 -0.32041496 -0.20626245
000190 d3 f3 77 bd 7b 28 f4 3d 76 2e 37 3e f8 26 65 be
       -0.060535263 0.119217835 0.17888817 -0.22378147
0001a0 b9 b5 94 bd f1 69 ee 3d 92 ae 9f bd f1 18 ae 3b
       -0.07261223 0.116413005 -0.077969685 0.005313032
0001b0 ce 62 6a 3e 66 e2 d0 bd 45 a7 3a 3e e6 15 93 3e
       0.22889253 -0.10199432 0.18227871 0.28727645
0001c0 a4 61 f1 3d 14 a9 80 bd 70 3c 65 be da 49 6f be
       0.117862016 -0.06282249 -0.22386336 -0.23368016
0001d0 3d b0 8c bd 3c 49 e2 3d 5e 01 46 3e 06 b8 8b bc
       -0.06869552 0.110491246 0.19336459 -0.017055523
0001e0 a5 df 91 3e be 64 0f be e5 63 90 3d 6c 5a 39 be
       0.2849094 -0.14003274 0.07050303 -0.181009
0001f0 1c 91 c2 3d 95 7e 9a 3e 56 b7 fd 3d 8e 0f c2 3c
       0.09500334 0.301747 0.12388484 0.023689058
000200 c9 c2 16 be bc 4f 9d be bf 9b 66 be 16 4d a4 be
       -0.14722742 -0.30724895 -0.2252035 -0.32090062
000210 08 e2 6f 3e d7 9f 05 be 2b ec 11 bd ca 18 ab be
       0.23426068 -0.13049255 -0.035625618 -0.3341735
000220 c7 5e ec bd 55 bf a2 3e 31 f4 44 3d 36 5e 3c bd
       -0.11541515 0.317866 0.04808444 -0.045988284
000230 c9 44 4e 3e 5d 60 94 3e a0 d2 95 3e 7d 4a 7a be
       0.20143427 0.2897977 0.29262257 -0.24442478
000240 10 11 08 3c e3 ec 8b be 45 72 68 be 42 d0 93 3e
       0.008304849 -0.27329168 -0.2269984 0.28869826
000250 7f 6e 87 be 0b 17 1f be 1a 15 1c 3e 94 b1 b8 3e
       -0.2645149 -0.15536134 0.15242425 0.3607298
000260 41 18 a7 be ab ce 7b be 07 3a 1f be 51 80 83 3e
       -0.32635692 -0.24590556 -0.1554948 0.25683835
000270 1a fc 43 3e 82 01 73 3e b0 63 79 3e 43 67 91 bd
       0.19139138 0.23731044 0.24354434 -0.07099774
000280 e3 20 78 3e 4a e5 e7 bc ff 4f 53 3d 32 a8 e5 bd
       0.24231295 -0.028307576 0.051589962 -0.11213721
000290 db 45 f6 3d 10 7d 34 3e 43 81 9c bc 95 22 90 3e
       0.120250426 0.17625833 -0.019104606 0.28151384
0002a0 73 28 e1 bd fb e5 dc 3d 4b 01 9b 3e cf ca 5e 3e
       -0.10994043 0.10786053 0.30274424 0.21757053
0002b0 61 09 e2 bd a1 8c 05 be cc a1 c8 3d 23 8f 80 3c
       -0.11036945 -0.13041927 0.09796485 0.015693253
0002c0 7a 4e d5 3b 08 07 7c 3e f5 ff 1c 3e dc 39 38 be
       0.0065095993 0.24612057 0.15332015 -0.17990822
0002d0 ac 63 8a be 0b 5b ba 3e 93 b2 6a bd 02 a2 f7 bd
       -0.2702917 0.36397585 -0.057299208 -0.120914474
0002e0 7d 75 6b be 20 6c a4 3e 8f df 23 3e cc 52 78 be
       -0.22994037 0.32113743 0.1600325 -0.24250335
0002f0 aa a1 ae be c7 a9 a6 3e a8 af 2e 3e 99 76 09 bd
       -0.34107715 0.32551405 0.17059195 -0.03356037
000300 29 0c a9 be 17 c3 35 3e e7 04 53 be ad 0f 0e 3e
       -0.3301709 0.17750202 -0.20607339 0.13873167
000310 49 ec be be 9d b9 8e be ea f1 9a be 7c 83 92 3e
       -0.37289646 -0.27875987 -0.3026269 0.2861594
000320 61 9e 91 3e 47 cf 87 be 3f 89 72 3e 18 c7 36 be
       0.28441146 -0.26525328 0.23685168 -0.17849386
000330 78 ec 95 be 34 3c 52 3e de eb 70 3e 88 82 72 3e
       -0.29281974 0.20530778 0.23527476 0.23682606
000340 ed e6 d1 3c 7a 70 c0 3e b4 5b 89 be fd 4a 4c 3e
       0.02562281 0.37585813 -0.26827776 0.19950481
000350 41 08 9b bd f8 6d 53 3d bd ce 54 3e 25 e4 5c be
       -0.07569934 0.051618546 0.2078199 -0.21571405
000360 b3 ef 42 3e e1 61 d9 bd ee 66 44 3e b5 7a 3c bd
       0.1903675 -0.10614372 0.1917989 -0.04601546
000370 9b e7 0f 3e 24 28 c0 3e 09 dd b6 bd 67 c0 9f be
       0.14053194 0.37530625 -0.08928878 -0.3120148
000380 c1 b4 9e 3e db e1 60 be 39 9e cd 3d 31 8e 4c 3e
       0.3099728 -0.21961157 0.10039944 0.19976117
000390 75 bd a8 bd e2 28 9a 3e f1 74 81 3e 94 2d b9 bd
       -0.08239261 0.30109316 0.25284532 -0.090418965
0003a0 51 79 88 3d ba 1d 50 3d 1d ae a4 3e 1b 83 89 3e
       0.06663764 0.0508096 0.32164088 0.26857838
0003b0 bb b0 5a be 22 f2 5f 3d 8f 66 56 3e fc c8 96 3e
       -0.2135648 0.054674275 0.2093756 0.29450214
0003c0 ca 61 c5 3d 79 7f 32 3e 3a 4a 1d bd 82 26 02 3d
       0.096377924 0.1743144 -0.038400866 0.031775005
0003d0 2d de 62 be 2e a2 9e 3e 36 9f 82 3e 99 43 29 be
       -0.22155066 0.30983108 0.25512093 -0.16529693
0003e0 99 9b 8f be e2 fb 82 3e a9 34 ad be 49 5f 4e 3e
       -0.280484 0.25582796 -0.3382924 0.20153536
0003f0 66 01 c0 be 0d 99 20 be d6 9b ff bd 40 e0 b5 3e
       -0.37501067 -0.15683384 -0.12480895 0.35522652

nee_decoder.0.bias f4 [16]
000000 6d 10 53 bc 48 fa 93 3c e6 2b 46 bc 00 00 00 00
       -0.012882334 0.01806368 -0.012095427 0.0
000010 1d 94 89 bc b6 86 96 bc 9f 04 14 bd 37 77 c7 bc
       -0.016794259 -0.018374782 -0.03613722 -0.024348838
000020 92 a4 db bc bd b3 20 bd 00 00 00 00 07 48 81 bc
       -0.026811872 -0.03923391 0.0 -0.015781416
000030 5c c9 49 bc bd f1 cd bc 5d e9 f6 bc 13 64 6f bc
       -0.012316074 -0.025139684 -0.030140573 -0.014611262

nee_decoder.2.weight f4 [16, 16]
000000 45 f0 8b be 24 8b f3 bd c0 03 46 bc b4 0b 9b bd
       -0.2733175 -0.11891773 -0.012085855 -0.075705916
000010 f5 bf a3 bd 2d d0 06 be 58 50 d8 3d 93 2b 1b 3e
       -0.07995597 -0.1316535 0.10562199 0.15153341
000020 ab 86 79 bd 1d 13 b9 3e 6d 80 18 bb 8f bf c2 3d
       -0.060919445 0.36147395 -0.0023269907 0.09509193
000030 c7 fe f3 3d a3 3c f5 bd 21 8e 2a 3c c2 a3 19 bd
       0.11913829 -0.11974456 0.010409863 -0.037509687
000040 fa 60 33 3e a6 73 79 be b3 f0 40 be d9 ff d5 be
       0.17517462 -0.24360523 -0.1884182 -0.4179676
000050 ed 82 30 be 4f 55 0d 3e 0f a7 a9 3e 37 ea e9 be
       -0.17237444 0.13802074 0.33135268 -0.45686504
000060 15 bc 07 be 89 30 8a 3e 50 c8 6f be 18 54 90 3e
       -0.13255341 0.26990154 -0.23416257 0.28189158
000070 63 c7 e6 3c d2 b4 be be e6 f2 95 3d e6 b0 7e be
       0.028171247 -0.3724733 0.0732172 -0.24872169
000080 28 5b ac 3d d3 a5 c6 be 4c 53 d0 3e 82 2f 3d be
       0.08415824 -0.3879839 0.4068855 -0.18475154
000090 a1 ca 8d 3e 74 7d 8b be 32 cf b9 be 39 73 2e 3e
       0.27693656 -0.2724415 -0.3629089 0.17036141
0000a0 95 49 85 3e 7b 3e 7f bb bc 7e bb be fd 40 f3 bd
       0.260327 -0.0038947153 -0.36620128 -0.1187763
0000b0 68 a2 99 be 50 34 fb 3d 5e 98 8f 3d e3 10 9a 3e
       -0.3000672 0.12265837 0.070114836 0.3009101
0000c0 fe 27 01 3f 94 f7 0a be bb 29 af 3e 01 08 9a 3e
       0.5045165 -0.13571006 0.34211525 0.30084231
0000d0 39 51 88 3d bf 5d d9 be 41 4e 7d be e1 b4 35 3e
       0.06656117 -0.42454335 -0.24736883 0.17744781
0000e0 99 aa c8 3e 9f a3 81 3e ea 2a 27 3d f3 d3 86 be
       0.39192656 0.25320145 0.04081241 -0.2633358
0000f0 be cf c2 be 10 64 7d be a6 74 53 3b 4f c8 69 3d
       -0.3804912 -0.24745202 0.0032265573 0.057075795
000100 59 c8 99 3e 22 e9 b0 be 62 e8 67 3e 59 ce bb 3e
       0.30035666 -0.34552866 0.22647241 0.36680868
000110 c5 62 c8 be d9 41 6c be ec 85 19 be ae 92 62 3d
       -0.39137855 -0.23071994 -0.14992493 0.055315666
000120 08 3b b6 3e b7 3c 5d 3d f8 01 96 3e 78 a6 a6 3e
       0.35591912 0.05401298 0.29298377 0.3254888
000130 be f9 b7 3e f9 32 ca be 72 d8 90 be 7c ee e7 bc
       0.35932726 -0.39492014 -0.28290135 -0.02831196
000140 ba 4f 54 bc 88 9f 65 3d 44 f5 b4 3e 9c cd c8 3e
       -0.012958461 0.056060344 0.35343373 0.39219368
000150 4b e2 11 be 33 ee 65 be d2 79 80 3d d2 ac a8 3d
       -0.1424648 -0.22454147 0.062732354 0.08236088
000160 43 ac 79 3e 04 22 04 3e 8c 2b 0a 3e 91 18 1c 3e
       0.24382119 0.12903601 0.13493174 0.15243746
000170 bd 9b 9f 3e ce a0 69 3e ec bf 94 bd c4 3b a0 be
       0.31173506 0.22815248 -0.07263169 -0.31295598
000180 6b b1 8f 3e a1 3a 8f bd d6 09 a4 be 83 ca 93 bd
       0.28065047 -0.069936045 -0.32038754 -0.072163604
000190 48 31 9d 3e b8 0c 2d be 43 b7 99 bd c3 25 e4 3d
       0.3070166 -0.16899383 -0.075056575 0.11140015
0001a0 64 1d 99 3e 20 2f a3 bd 1a 3f 9f be b2 3d 46 be
       0.29905236 -0.07967973 -0.3110283 -0.19359472
0001b0 e1 09 1a be f1 7b 41 3d df 88 96 be 63 7c bd 3e
       -0.15042831 0.04723734 -0.294013 0.37008962
0001c0 cd cb e9 3d 39 b5 9f be d0 24 72 3e 08 03 b3 3c
       0.11415825 -0.3119295 0.23646855 0.021852031
0001d0 73 ea d8 3e 7a 90 0e bc 07 1e bb bb 54 f8 d5 be
       0.4236637 -0.008701438 -0.0057103666 -0.41791022
0001e0 c4 1f b7 be 71 7b c6 3a 16 25 bc 3e e9 19 89 be
       -0.35766423 0.001514299 0.36747044 -0.2677758
0001f0 6e a1 ad 3d 21 c9 98 be fb d4 ab be 34 0a 23 be
       0.08478056 -0.2984095 -0.3356093 -0.15921861
000200 e2 6c 94 be 49 6f b7 be bb 19 08 be c8 55 72 bd
       -0.2898932 -0.3582709 -0.13291065 -0.05916384
000210 ec c1 5c 3e 42 dc 4b 3e 98 3e ba bb 14 8c ca bd
       0.2155835 0.1990824 -0.0056837313 -0.09889999
000220 86 66 bc bd 58 1a b6 be 66 1d 9a 3e 82 de c6 3e
       -0.09199242 -0.35566974 0.30100554 0.38841635
000230 24 d4 cb be 54 af d3 be a8 ba cf be 5d 07 8f bd
       -0.39810288 -0.41344702 -0.40572095 -0.06983826
000240 d8 ad 29 3c 56 87 a4 be 8e 9e 7f 3e 46 9b e9 3c
       0.010356389 -0.32134503 0.24962828 0.028516423
000250 bb 2a 50 be 0a 18 c7 be 49 26 97 3e 0c e1 c2 3e
       -0.203288 -0.38885528 0.29521397 0.38062322
000260 e5 e7 81 3d 12 cd 5a be 65 f3 8c 3e 5d 98 7a 3e
       0.063430585 -0.2136729 0.27529445 0.24472184
000270 81 b7 52 bd 6c 73 c3 3e 39 d3 a3 be 3d eb 1e bd
       -0.051444534 0.38173997 -0.31997088 -0.03879856
000280 1e d3 d2 3e 4f 3d 90 be 8e 08 ef bd 33 84 3c be
       0.41176695 -0.28171775 -0.116715536 -0.18409805
000290 23 64 18 be 57 49 c3 3e 02 71 81 3e cb e4 d0 be
       -0.14881949 0.3814189 0.2528153 -0.40799555
0002a0 5e 1f 66 be 68 b1 a1 bc 29 2c 10 be b9 55 72 be
       -0.22472903 -0.019737914 -0.14079346 -0.23665513
0002b0 76 ec d9 be d8 82 a3 3e b1 41 78 3e 30 97 18 3e
       -0.42563218 0.31935763 0.2424381 0.14901423
0002c0 92 65 ef bd fd 43 e1 be 52 13 de bc 38 83 29 3e
       -0.11689295 -0.43997183 -0.027108822 0.16553962
0002d0 3e af 00 be ee 82 ae 3e 62 7b 9d 3d 0f bd 39 bd
       -0.1256685 0.34084266 0.07689549 -0.045346316
0002e0 bf d5 1e 3e e1 e4 55 3e 40 9c a2 be 1b cb db 3d
       0.15511225 0.20888092 -0.31759834 0.10732099
0002f0 9a 40 c4 be fe d2 b9 bd 47 c2 0f be 13 48 a9 3e
       -0.38330537 -0.09073447 -0.14038955 0.330628
000300 84 b2 cf be 60 43 06 3e 74 b5 c4 be ac 38 40 3e
       -0.40565884 0.13111639 -0.38419688 0.18771619
000310 10 d1 f9 3d f1 88 15 be 98 5f c7 3d 8b ab c4 3e
       0.12198079 -0.1460302 0.0973503 0.38412127
000320 58 e0 92 3e 79 0d be be ca d2 e5 bd 48 bc c3 3e
       0.28686786 -0.37119654 -0.112218454 0.38229585
000330 64 18 9f 3d 07 28 aa 3d 8a c7 79 3d 8d cf 10 be
       0.07768324 0.08308416 0.06098131 -0.14141674
000340 a3 4e ff bd 5b 34 98 3d 30 97 a1 3e 27 f2 f9 bd
       -0.12466171 0.07431861 0.3156066 -0.1220439
000350 15 39 04 be cd d8 6d 3d a3 03 e2 bd fa 8c d4 3e
       -0.129124 0.058068085 -0.1103585 0.41513807
000360 f1 e0 9a 3e 80 c9 8a 3c 51 5e 8f be 59 9a 06 3e
       0.30249742 0.016941786 -0.28001645 0.13144816
000370 22 8e b6 3e 8a b3 27 3e d9 09 1b 3e 1c c6 75 be
       0.35655314 0.16377082 0.15140475 -0.24001354
000380 92 66 da be 89 bb 26 be ac b9 62 3c e6 f9 c4 3e
       -0.4265638 -0.16282476 0.013838213 0.38471907
000390 4e 29 b9 3d f6 91 a2 bd 64 d5 de bd ca 8f a9 bd
       0.09041081 -0.07937996 -0.10880545 -0.08279379
0003a0 8a 6e 6e be c7 a1 39 be 24 c0 a4 3d bb 23 96 3e
       -0.23284355 -0.1812812 0.080444604 0.29324135
0003b0 88 4e bc 3e 0d c1 2a 3e b0 30 99 be 1a f4 cc 3e
       0.36778665 0.16675206 -0.29919958 0.40029985
0003c0 94 ec db 3e 56 bd 09 be 3d 65 cf 3c 42 af c8 3e
       0.42953932 -0.13451132 0.025316829 0.3919621
0003d0 87 5f 0b be af 26 6b 3e 10 93 53 3d 32 2e 53 3e
       -0.1361066 0.22963975 0.05165392 0.20623091
0003e0 ac 54 32 3e 20 cb e7 3e 69 e4 bb 3e 0d ae 9c be
       0.17415112 0.4527216 0.366977 -0.3060154
0003f0 92 e7 8a 3e 74 6c 59 bd 6c 56 49 be f3 ed aa 3d
       0.271298 -0.053081945 -0.19661874 0.083461665

nee_decoder.2.bias f4 [16]
000000 d2 91 38 bd c8 64 79 bc 00 00 00 00 51 d0 87 3d
       -0.04506094 -0.015221782 0.0 0.0663153
000010 22 fe f4 bc 2f 5f cd 3c 15 d8 09 bd 00 00 00 00
       -0.029906336 0.025069801 -0.033653338 0.0
000020 00 00 00 00 8d d1 2b bd d1 0a 60 bc 65 21 a8 bc
       0.0 -0.04194789 -0.013674454 -0.020523736
000030 e5 d7 e7 bc f2 73 44 3d 00 00 00 00 cd 37 74 bc
       -0.028301189 0.047962137 0.0 -0.014905882

nee_decoder.4.weight f4 [1, 16]
000000 c4 cb 83 bd cf da bf be 68 3e 06 bf f8 31 b1 be
       -0.064353496 -0.37471625 -0.52438974 -0.34608436
000010 69 5c 29 3d c1 b2 b4 3e 0a 07 ac 3e 27 3b 22 3e
       0.041347895 0.35292628 0.3359912 0.15842877
000020 0a 46 10 3f 4f e5 e9 be 3d 97 b6 be 84 ce 7a 3e
       0.5635687 -0.4568276 -0.3566226 0.24492842
000030 25 0b fa be 43 64 0a 3f d8 c1 a7 3d cb 3c 5e be
       -0.48836628 0.5405924 0.0819127 -0.21702878

fc_mu.0.weight f4 [4, 32]
000000 53 41 98 bc 90 06 a7 3e 73 ad 9d be 45 8e 0f 3d
       -0.018585837 0.32622194 -0.30796394 0.03504779
000010 ce 9e 94 be ac 49 b6 3b 32 e4 98 be 25 7b 9f be
       -0.29027408 0.0055629816 -0.298616 -0.3114864
000020 03 54 14 bd 58 1f ec 3e 11 b4 e1 bc d7 c0 a3 3c
       -0.036212932 0.46117663 -0.027551683 0.019989414
000030 10 74 dd 3e 45 b0 b9 bc fd d4 96 be 52 eb a2 3e
       0.4325261 -0.02266706 -0.29459372 0.3182016
000040 ac fe 6e 3e bf 51 cf 3e d1 8d 85 3e a4 a4 cc 3e
       0.23339337 0.40492055 0.2608476 0.3996936
000050 61 b4 bd bd 48 74 09 bd 76 6f 39 be ca 2e d3 3b
       -0.0926292 -0.03355816 -0.18108925 0.0064447867
000060 dc 89 87 3e f3 ad c2 be 40 57 27 3e 2e 79 96 be
       0.26472366 -0.38023338 0.16341877 -0.29389328
000070 a8 5b 7e 3d 04 37 29 3c 2c 15 00 be 5e d8 ba 3d
       0.06209913 0.010328058 -0.12508076 0.091233
000080 0b 87 4e be d7 f9 bf 3e b6 83 1c be 55 e3 86 3e
       -0.20168702 0.374953 -0.15284619 0.26345316
000090 5e 8c bc bd b0 2f a7 be 39 a0 9f 3e 08 74 dc bd
       -0.092064604 -0.3265357 0.31176928 -0.10764319
0000a0 6c f4 27 be e3 cc d0 3c 2c 6f 78 3a 47 73 e1 3d
       -0.16401833 0.025488323 0.0009477015 0.110083155
0000b0 de 43 d5 bd 4e 97 fb bd cc 90 5f 3e 74 60 3a 3e
       -0.10413335 -0.122847185 0.2183258 0.18200856
0000c0 e2 5f bb 3e 62 a7 23 3d b2 77 e3 bd f0 8d bc bd
       0.3659659 0.03995455 -0.111068144 -0.0920676
0000d0 36 d9 b4 bd f7 36 09 be da 70 09 be b7 4d f0 bd
       -0.08830492 -0.13399874 -0.13421956 -0.11733573
0000e0 1c b6 f1 3d d8 a7 2a 3e 02 b5 a1 3e 12 c7 c8 be
       0.11802313 0.1666559 0.3158341 -0.3921438
0000f0 c9 a0 a4 3e 92 d5 b2 bd c2 e0 ce be 43 08 86 3e
       0.3215392 -0.087321416 -0.40405852 0.26178178
000100 99 03 6d be 0a 62 3c be 75 be 0a 3e 30 f4 88 3d
       -0.23145904 -0.18396774 0.13549216 0.066872
000110 42 7c 8e 3e f3 d8 91 be eb 1b 63 3e 6a e5 59 3e
       0.27829176 -0.28485832 0.22178619 0.21278921
000120 9b 61 81 3e b6 24 0b be 04 ff 8d 3d 8b 19 f6 3d
       0.2526978 -0.13588223 0.06933406 0.12016591
000130 35 15 c5 3e 2a 09 7e be 4d ec bf be 59 0a bd be
       0.38492742 -0.24808183 -0.3748497 -0.36921957
000140 f1 77 5d 3d 4b dc 9e be 5c c6 9a bd 16 6c 43 be
       0.054069463 -0.31027445 -0.07557365 -0.190842
000150 34 75 97 3d 15 1e 94 be 51 e6 80 3e 79 57 cd be
       0.073954016 -0.289292 0.25175717 -0.401058
000160 e8 07 65 be 29 87 ac 3d a4 97 cd be ce 14 ce 3d
       -0.22366297 0.08424217 -0.40154755 0.10062562
000170 d8 65 1c be 9c 22 53 be 85 d5 95 3e 06 fc 06 be
       -0.15273225 -0.20618671 0.29264465 -0.13182077
000180 66 a6 c5 3d 54 6b 21 be 20 8a 42 3e aa 59 be 3e
       0.096508786 -0.15763599 0.18998003 0.37177783
000190 31 a6 c8 3e 3d e0 7c be 22 c7 cf be 6f 2a 92 be
       0.39189294 -0.24694915 -0.40581614 -0.28548
0001a0 70 88 eb 3d 2c d3 27 3e 4e 90 5b 3e 9a 88 35 3e
       0.11500633 0.1638915 0.21441767 0.1772789
0001b0 90 57 cb 3e e4 81 9e be b9 de a3 be 6c e9 02 be
       0.39715242 -0.30958474 -0.3200586 -0.12784356
0001c0 c5 3c a2 3e ba 80 a0 be cc b6 9c 3e 76 1e 8b 3d
       0.31686988 -0.3134821 0.30608213 0.06792919
0001d0 86 4b 81 3e c4 93 ce 3e b3 72 cb 3e e1 a9 c8 3e
       0.25252932 0.4034711 0.39735946 0.39192107
0001e0 96 2d cd bd 34 63 32 be b9 79 31 3e f9 3f b2 3e
       -0.100184605 -0.17420655 0.1733159 0.34814432
0001f0 79 eb 36 3c 9a ea c5 bd 83 3a 87 bd 28 37 15 be
       0.0111645395 -0.09663887 -0.06602957 -0.14571822

fc_mu.0.bias f4 [4]
000000 3b 32 6e bd f7 45 a7 3b 00 00 00 00 6e 12 83 3a
       -0.058153372 0.005104776 0.0 0.0009999999

fc_mu.2.weight f4 [1, 4]
000000 d1 44 27 3f 20 82 67 be 26 c5 5a bf d5 45 68 3f
       0.6533938 -0.22608232 -0.85457075 0.90731555

fc_logvar.0.weight f4 [4, 32]
000000 53 41 98 bc 90 06 a7 3e 73 ad 9d be 45 8e 0f 3d
       -0.018585837 0.32622194 -0.30796394 0.03504779
000010 ce 9e 94 be ac 49 b6 3b 32 e4 98 be 25 7b 9f be
       -0.29027408 0.0055629816 -0.298616 -0.3114864
000020 03 54 14 bd 58 1f ec 3e 11 b4 e1 bc d7 c0 a3 3c
       -0.036212932 0.46117663 -0.027551683 0.019989414
000030 10 74 dd 3e 45 b0 b9 bc fd d4 96 be 52 eb a2 3e
       0.4325261 -0.02266706 -0.29459372 0.3182016
000040 ac fe 6e 3e bf 51 cf 3e d1 8d 85 3e a4 a4 cc 3e
       0.23339337 0.40492055 0.2608476 0.3996936
000050 61 b4 bd bd 48 74 09 bd 76 6f 39 be ca 2e d3 3b
       -0.0926292 -0.03355816 -0.18108925 0.0064447867
000060 dc 89 87 3e f3 ad c2 be 40 57 27 3e 2e 79 96 be
       0.26472366 -0.38023338 0.16341877 -0.29389328
000070 a8 5b 7e 3d 04 37 29 3c 2c 15 00 be 5e d8 ba 3d
       0.06209913 0.010328058 -0.12508076 0.091233
000080 0b 87 4e be d7 f9 bf 3e b6 83 1c be 55 e3 86 3e
       -0.20168702 0.374953 -0.15284619 0.26345316
000090 5e 8c bc bd b0 2f a7 be 39 a0 9f 3e 08 74 dc bd
       -0.092064604 -0.3265357 0.31176928 -0.10764319
0000a0 6c f4 27 be e3 cc d0 3c 2c 6f 78 3a 47 73 e1 3d
       -0.16401833 0.025488323 0.0009477015 0.110083155
0000b0 de 43 d5 bd 4e 97 fb bd cc 90 5f 3e 74 60 3a 3e
       -0.10413335 -0.122847185 0.2183258 0.18200856
0000c0 e2 5f bb 3e 62 a7 23 3d b2 77 e3 bd f0 8d bc bd
       0.3659659 0.03995455 -0.111068144 -0.0920676
0000d0 36 d9 b4 bd f7 36 09 be da 70 09 be b7 4d f0 bd
       -0.08830492 -0.13399874 -0.13421956 -0.11733573
0000e0 1c b6 f1 3d d8 a7 2a 3e 02 b5 a1 3e 12 c7 c8 be
       0.11802313 0.1666559 0.3158341 -0.3921438
0000f0 c9 a0 a4 3e 92 d5 b2 bd c2 e0 ce be 43 08 86 3e
       0.3215392 -0.087321416 -0.40405852 0.26178178
000100 99 03 6d be 0a 62 3c be 75 be 0a 3e 30 f4 88 3d
       -0.23145904 -0.18396774 0.13549216 0.066872
000110 42 7c 8e 3e f3 d8 91 be eb 1b 63 3e 6a e5 59 3e
       0.27829176 -0.28485832 0.22178619 0.21278921
000120 9b 61 81 3e b6 24 0b be 04 ff 8d 3d 8b 19 f6 3d
       0.2526978 -0.13588223 0.06933406 0.12016591
000130 35 15 c5 3e 2a 09 7e be 4d ec bf be 59 0a bd be
       0.38492742 -0.24808183 -0.3748497 -0.36921957
000140 f1 77 5d 3d 4b dc 9e be 5c c6 9a bd 16 6c 43 be
       0.054069463 -0.31027445 -0.07557365 -0.190842
000150 34 75 97 3d 15 1e 94 be 51 e6 80 3e 79 57 cd be
       0.073954016 -0.289292 0.25175717 -0.401058
000160 e8 07 65 be 29 87 ac 3d a4 97 cd be ce 14 ce 3d
       -0.22366297 0.08424217 -0.40154755 0.10062562
000170 d8 65 1c be 9c 22 53 be 85 d5 95 3e 06 fc 06 be
       -0.15273225 -0.20618671 0.29264465 -0.13182077
000180 66 a6 c5 3d 54 6b 21 be 20 8a 42 3e aa 59 be 3e
       0.096508786 -0.15763599 0.18998003 0.37177783
000190 31 a6 c8 3e 3d e0 7c be 22 c7 cf be 6f 2a 92 be
       0.39189294 -0.24694915 -0.40581614 -0.28548
0001a0 70 88 eb 3d 2c d3 27 3e 4e 90 5b 3e 9a 88 35 3e
       0.11500633 0.1638915 0.21441767 0.1772789
0001b0 90 57 cb 3e e4 81 9e be b9 de a3 be 6c e9 02 be
       0.39715242 -0.30958474 -0.3200586 -0.12784356
0001c0 c5 3c a2 3e ba 80 a0 be cc b6 9c 3e 76 1e 8b 3d
       0.31686988 -0.3134821 0.30608213 0.06792919
0001d0 86 4b 81 3e c4 93 ce 3e b3 72 cb 3e e1 a9 c8 3e
       0.25252932 0.4034711 0.39735946 0.39192107
0001e0 96 2d cd bd 34 63 32 be b9 79 31 3e f9 3f b2 3e
       -0.100184605 -0.17420655 0.1733159 0.34814432
0001f0 79 eb 36 3c 9a ea c5 bd 83 3a 87 bd 28 37 15 be
       0.0111645395 -0.09663887 -0.06602957 -0.14571822

fc_logvar.0.bias f4 [4]
000000 3b 32 6e bd f7 45 a7 3b 00 00 00 00 6e 12 83 3a
       -0.058153372 0.005104776 0.0 0.0009999999

fc_logvar.2.weight f4 [1, 4]
000000 67 df fd 3e ca 9e 8c bf 71 a0 6e 3f 4e c6 24 bd
       0.49584505 -1.0985959 0.93213564 -0.04022818
