.archive/piae_sde/experiments/2024-11-27_17-53-58-910752/best_model.pth (torch, 31074 bytes, 33 tensors)

encoder.0.weight f4 [16, 20]
000000 34 25 b3 3e 46 a1 2f be 47 1e 8c 3e ce 1c 8d be
       0.3498932 -0.17151365 0.2736685 -0.2756104
000010 ae 04 9d be dc 57 bd 3e 1f 05 aa 3e 22 e4 87 be
       -0.30667633 0.36981094 0.33207032 -0.2654124
000020 90 97 fc bc cd 77 89 3d de dd be be ed 8e c2 3d
       -0.03083399 0.06712303 -0.37278646 0.09499917
000030 dd c1 c1 be 9c 32 6b be 6c 21 b1 be 74 57 84 3e
       -0.37843218 -0.22968525 -0.3459581 0.2584797
000040 2e b7 b4 be 7b 0c 1b be 23 f7 55 3e 28 64 28 3e
       -0.35296005 -0.1514148 0.20895056 0.16444457
000050 5e 89 34 be a2 d6 24 be 16 26 4f be 6c 47 c9 be
       -0.17630526 -0.16097501 -0.20229372 -0.39312303
000060 db a1 78 be 38 fe 8c be b8 d3 8d 3e 20 e7 b5 3e
       -0.24280493 -0.27537704 0.2770059 0.35527897
000070 bf b3 66 be 5c ce 6a be 4d df 9e 3e 00 e1 81 bd
       -0.22529505 -0.22930282 0.3102974 -0.063417435
000080 5b 2c 99 3e 14 39 9f 3e 6d d5 75 bd 0f 5c 5b 3e
       0.29916653 0.31098235 -0.06001799 0.21421836
000090 0f 4a ea bd 0b 6e 16 3c 4d 53 d4 3d dd 29 b0 bd
       -0.11439907 0.00918151 0.10367451 -0.08601735
0000a0 6c 0b e8 3d af 72 bf be 04 4d cd be 4f 1d 60 bd
       0.113303035 -0.37392184 -0.4009782 -0.05471545
0000b0 ba e4 08 be cb 03 e6 3d d4 d4 27 3e 73 20 9d be
       -0.13368502 0.11231192 0.16389781 -0.3068882
0000c0 2d 67 08 bd 9d fb 72 bd 74 21 49 be f6 d3 77 3e
       -0.03330152 -0.05932199 -0.19641668 0.2420195
0000d0 0e ad 7f bd c8 f1 90 3e f4 78 bd 3e 10 9d 10 be
       -0.062420897 0.28309464 0.37006342 -0.14122415
0000e0 c6 d2 62 3e bf e4 fe bc ee 4d 6e 3e c1 2a 64 bc
       0.22150716 -0.031114934 0.23271915 -0.013926209
0000f0 29 dc 84 3e 2a 2e 5e be 04 b4 ec 3d 26 65 85 bb
       0.2594922 -0.21697298 0.11557773 -0.0040708957
000100 77 a7 91 3e 72 92 8a be 12 8b b2 be 2a d9 d2 3c
       0.28448078 -0.27064854 -0.34871727 0.025738318
000110 93 a7 6d 3e da 32 9d bd db 6b b6 3e 68 96 cf bd
       0.23208456 -0.07675715 0.35629162 -0.101361096
000120 9b 73 34 be bb 11 56 be c4 93 4a 3e 96 db 81 3d
       -0.17622225 -0.20905201 0.1978293 0.06340711
000130 a3 7b e0 bd 72 b2 70 be be 83 af 3e c5 cb ab 3e
       -0.10961082 -0.23505571 0.342802 0.335539
000140 8e 18 ba bd 2f c1 76 be cf 51 22 3e a6 c5 d2 3e
       -0.09086715 -0.24097131 0.1585152 0.4116642
000150 36 a3 7d 3d f5 8a af 3e 4d 48 5f 3e 4f ea 11 3e
       0.06192323 0.34285703 0.21804924 0.14249538
000160 83 3a b1 be a5 8c 67 3e 9d 28 b4 3e bc e5 19 be
       -0.34614953 0.22612245 0.35187235 -0.15029043
000170 0d cc 29 be 8e d1 70 3e f4 2b 1a 3e cb 89 e4 3d
       -0.16581745 0.23517439 0.1505583 0.111590944
000180 4e 28 69 be 73 8d 7c 3e a3 81 33 3e 39 d7 a4 3e
       -0.22769281 0.24663334 0.17529921 0.32195452
000190 35 a1 c2 be 35 44 d1 bd 68 ce 77 3d 62 cf 12 3e
       -0.38013616 -0.102180876 0.06049958 0.14336923
0001a0 e7 2c 34 3d e8 de ba be 1b f0 7f 3c 02 53 9a 3e
       0.043988135 -0.3649819 0.01562121 0.30141455
0001b0 cf 6a c9 3d 4d 08 3c be 03 48 27 3e a0 33 ad 3e
       0.09834825 -0.18362541 0.16336064 0.3382845
0001c0 7f db 8c be 7d 90 a4 bd 02 cc 84 3e a7 53 9c be
       -0.27511212 -0.080353715 0.25936896 -0.30532572
0001d0 33 23 91 3d 92 fb 75 3e 68 93 79 bd b9 32 1d 3d
       0.07086792 0.24021748 -0.060931593 0.03837845
0001e0 11 6e 2d 3e 45 f3 1d 3e 8f a3 b7 be 1c 75 84 3e
       0.16936518 0.15424831 -0.35866973 0.25870597
0001f0 b5 93 83 3e cc 60 99 be 66 6a cd be 65 2e 0b 3e
       0.2569863 -0.29956663 -0.40120238 0.13591917
000200 cd da 30 be 24 b0 06 be 5c 90 26 3e ce 0f 12 bb
       -0.17270966 -0.1315313 0.16266006 -0.0022287252
000210 49 31 00 bd 1b d0 a4 3e 67 3a eb bd b2 f1 ab 3e
       -0.031297002 0.32190022 -0.11485749 0.33582836
000220 5d 02 6b 3d b2 4b 87 3e 07 96 55 3d 3f 7b f5 bd
       0.0573753 0.26424938 0.05214503 -0.11986398
000230 3f 8d 4f be b5 70 a4 3e 23 ae 29 be 0a 79 2e bd
       -0.20268725 0.3211724 -0.16570334 -0.0425959
000240 59 7b 5a 3d bb 97 17 3e b5 a0 9e be 3d 72 95 be
       0.05334029 0.14803974 -0.30981985 -0.2918872
000250 52 c3 38 3e fb 4d b6 3e a9 fa 71 be 06 38 bc be
       0.18043259 0.3560637 -0.23630776 -0.36761492
000260 c3 be 8f 3e 08 cb a8 bd ae 79 b0 be 68 21 44 be
       0.28075227 -0.0824185 -0.34467834 -0.19153368
000270 df e3 7c 3e ca 67 9f 3e f3 bb a0 3e 36 7c ad be
       0.24696301 0.31133872 0.31393394 -0.33883828
000280 53 76 86 3e 9b 43 1a 3e 16 a9 a4 be 05 23 df 3d
       0.2626215 0.15064852 -0.32160252 0.10895351
000290 21 04 41 bc b8 10 26 3e 7f 77 50 be 01 f5 a7 3e
       -0.01178077 0.16217315 -0.20358084 0.3280411
0002a0 85 bc b3 3e 98 1e b1 3e 8b a5 a7 be f1 e2 c0 be
       0.35104766 0.34593654 -0.32743487 -0.37673143
0002b0 54 45 3e be 6a 3d c9 3d 84 22 8b 3d 62 9e b1 be
       -0.18581134 0.09826167 0.06793693 -0.3469115
0002c0 46 2b ab be 3a fa f8 bd 59 c0 8e bb 48 c1 92 be
       -0.33431453 -0.12157102 -0.0043564257 -0.28663087
0002d0 02 b6 d9 3d 07 4a 66 3e 43 95 5c 3d 5f 0c 4a 3e
       0.10630418 0.22489177 0.053853285 0.19731282
0002e0 b2 82 e2 3d 26 10 60 3e 24 81 38 3e b9 12 38 be
       0.110600844 0.2188116 0.18018013 -0.17975892
0002f0 96 d5 9c bc 87 1c 3a 3e 36 6b 46 3e 59 50 c9 bd
       -0.019144814 0.18174945 0.19376835 -0.09829778
000300 91 4c c1 3e d4 91 39 be 30 ef 4c 3e 18 ac 1e bd
       0.37753728 -0.18122035 0.20013118 -0.03873834
000310 ae e0 7f be 56 29 b8 3e d3 54 60 3e 94 be fe bd
       -0.24988052 0.35969037 0.21907358 -0.12438694
000320 4e 44 6e be 31 fc d5 be b1 08 cf 3d 34 e7 0c 3e
       -0.23268244 -0.4179397 0.1010908 0.13760072
000330 0a 53 15 be 4d c0 c4 bc 97 4f a0 be 7c 77 16 be
       -0.14582458 -0.024017477 -0.31310722 -0.14694017
000340 d9 b1 76 be 05 54 a8 3e 56 24 93 3e dd 3e c4 3c
       -0.24091281 0.32876602 0.2873866 0.023955757
000350 d3 8f b5 3d 2e 55 01 3e 91 dd 74 be 03 6a 43 be
       0.08865323 0.1263015 -0.23912646 -0.19083409
000360 25 8f bf be 11 34 b3 3e d3 d7 2d be ce ae 89 3e
       -0.37413898 0.3500066 -0.16976862 0.26891178
000370 de a3 8f bd d6 24 72 3e e4 63 c3 3e 68 34 a7 be
       -0.07013677 0.23646864 0.38162148 -0.3265717
000380 fe 16 3b be 65 11 b8 be 6e ca 06 3e c9 08 2c 3d
       -0.1827049 -0.3595077 0.13163158 0.042000566
000390 0e 4f cf be 41 c1 67 be 0e e0 9b 3d e2 97 9c 3b
       -0.4049 -0.22632314 0.076110944 0.004778848
0003a0 2f 60 cb 3e d7 85 bb be 22 47 2d be a0 2a bb 3e
       0.3972182 -0.3662555 -0.16921666 0.36555958
0003b0 c7 d8 c3 3e 5d d1 8e 3e 20 95 92 3e 3b a2 9a 3e
       0.38251325 0.27894107 0.28629398 0.30201897
0003c0 1f d6 8a 3c e0 18 01 be a7 63 9b 3e d1 38 41 3e
       0.016947804 -0.12607145 0.30349466 0.1886933
0003d0 d4 31 aa 3e 42 b0 a9 3e e6 04 10 be 88 f1 a8 3e
       0.3324114 0.33142287 -0.14064369 0.32996774
0003e0 19 66 68 3e c5 6c 6d 3e 32 82 fb bd 5d 25 43 3e
       0.22695197 0.23186024 -0.12280692 0.19057222
0003f0 d2 08 c1 be d3 53 e9 bd 77 d6 05 be ad 21 b1 bd
       -0.37702042 -0.11392941 -0.13070093 -0.08649001

encoder.0.bias f4 [16]
000000 b2 1a a4 39 38 ef 01 bb 5f ca 9e 3c 35 8e a3 bc
       0.00031300407 -0.0019826423 0.019383607 -0.01996527
000010 9f c1 5a 3c df 97 99 3c d7 ff c7 bb 69 94 a9 bc
       0.013351827 0.018749176 -0.0061034965 -0.02070065
000020 00 00 00 00 00 00 00 00 93 c8 fe 3c ea 59 74 bc
       0.0 0.0 0.0311015 -0.014914015
000030 a7 a5 40 3c 27 6b a2 3d 00 00 00 00 00 00 00 00
       0.011758245 0.07930594 0.0 0.0

encoder.2.weight f4 [16, 16]
000000 e2 f9 0b be 94 6c fd 3d 4a 44 9a 3e 4f e7 96 bd
       -0.13669541 0.12374225 0.30130225 -0.07368337
000010 fc 6c db bc bb 81 d8 be 84 6f 1c be ae ba 16 be
       -0.026785366 -0.42286476 -0.15276915 -0.1471965
000020 84 62 62 be 4b c0 32 3e 87 2f 19 3e bc c0 5d 3e
       -0.22107893 0.17456166 0.14959536 0.21655554
000030 83 fb 3a be 46 37 f0 be 16 90 11 be e3 7f 69 3c
       -0.18260007 -0.4691717 -0.1421512 0.014251682
000040 93 18 fe bd a0 f6 a4 bd a8 ca be 3e 7d 08 c6 be
       -0.12407031 -0.080548525 0.3726399 -0.3867835
000050 18 24 9e bc 0d 44 e8 3e c3 5b 45 be 8a 3a 39 3e
       -0.01930432 0.4536442 -0.19273286 0.18088737
000060 4a 34 6f be 14 f8 55 be 72 4f cb be 23 70 d5 3e
       -0.2335979 -0.20895416 -0.3970905 0.41687116
000070 63 0c 87 be 94 ef 70 bd 83 3a c5 3e 58 4c 06 bd
       -0.26376638 -0.05882223 0.38521203 -0.03278765
000080 3a 3a 86 3e 88 62 8f 3e 46 60 ac 3e 98 2e ca be
       0.26216298 0.2800486 0.336672 -0.39488673
000090 eb c2 d9 3e 72 30 18 be c3 9c b3 be 8d 5c 69 3e
       0.42531523 -0.1486223 -0.35080537 0.22789212
0000a0 a1 50 d2 be f0 63 80 bc 03 db 34 bd 17 13 cb 3e
       -0.4107714 -0.015672654 -0.04415418 0.39663002
0000b0 b9 02 85 bb fc 1d 87 be f0 e8 67 3e f4 f5 8c be
       -0.0040591625 -0.26390064 0.22647452 -0.27531397
0000c0 c3 27 da 3e 24 4e b8 3e 08 f8 87 be f0 1e a3 3d
       0.4260846 0.35997117 -0.2655642 0.07964885
0000d0 79 66 79 be 0f f7 85 3d 9c 45 07 3f 4e c0 62 be
       -0.24355496 0.06541263 0.5284059 -0.22143671
0000e0 5c cb 84 be 88 2a c1 be 30 3e 84 3d a2 d9 3a 3d
       -0.259364 -0.3772776 0.06457174 0.045617707
0000f0 40 5f c1 3d 01 7e dc 3e 15 30 80 be 07 cb 95 be
       0.094419956 0.43064883 -0.25036684 -0.2925646
000100 fb f5 af 3e e3 aa c7 3e f8 8d b4 3e 8e 37 0a 3d
       0.34367356 0.38997564 0.35264564 0.033744387
000110 ae a1 59 be f2 9f 82 3e 51 69 a1 3b 89 3f 9f 3d
       -0.21253082 0.25512654 0.004925885 0.0777579
000120 f0 93 b7 be b0 f1 c6 3e 02 cb e3 be 16 3a d5 3e
       -0.35855055 0.38856268 -0.4449082 0.4164588
000130 f2 61 6f 3e 1a 39 70 be 3f bf da be 80 96 e7 bd
       0.23377207 -0.23459283 -0.42724034 -0.113080025
000140 45 5f b8 bd a4 57 93 3e 90 a7 a5 3e 7b c1 8a 3e
       -0.09002546 0.28777802 0.32354403 0.2710074
000150 df 92 3c be 9e 3d b9 3e 8b 13 a5 bd c8 93 f4 bb
       -0.18415402 0.36179823 -0.08060368 -0.007463906
000160 52 58 1e bd d3 f9 d5 3e 73 99 50 3e f7 61 8b 3e
       -0.038658448 0.41792163 0.20371036 0.2722318
000170 0e 78 dd bd 99 44 19 be 3b d8 aa 3d fc 20 34 3e
       -0.10813914 -0.14967574 0.08342024 0.17590708
000180 61 b3 98 3e 09 b1 7e be 63 5a 5e bd 69 47 74 be
       0.29824355 -0.24872221 -0.05428542 -0.23855366
000190 18 45 fe bd 17 5a d1 bd 84 44 bd 3e 2e ad 48 3e
       -0.12415522 -0.102222614 0.36966336 0.19597313
0001a0 fb ef 87 be f7 64 e5 bc d4 e9 1e 3e 77 83 7f be
       -0.26550278 -0.028002245 0.15518886 -0.24952494
0001b0 00 98 3a be 83 88 39 bd 98 7e 9b be 92 53 dc 3e
       -0.18222046 -0.045296203 -0.3037002 0.4303251
0001c0 5d 0f c7 3e 24 6e c7 be f8 54 b2 bd fe 0d 2f bd
       0.3887891 -0.38951218 -0.08707613 -0.042737953
0001d0 84 f1 ff 3d 05 f1 c2 3d b7 81 dc 3e 5a e8 82 3e
       0.12497237 0.09518627 0.43067715 0.25567895
0001e0 08 11 7d 3e cf 01 5b be d4 ab 6f be a7 37 ad 3e
       0.24713528 -0.21387409 -0.23405391 0.33831522
0001f0 38 42 f5 3d 79 6d 9f be 0b b9 76 3e e9 55 1b 3e
       0.11975521 -0.31138209 0.24094026 0.15169491
000200 8f 39 3f 3d 49 54 a8 bd ce 8c d5 3e cf ce cd be
       0.04668575 -0.08219201 0.41708988 -0.40196845
000210 12 fc d5 be cb 08 ae 3e 8a 0f d7 3e b1 a5 7f be
       -0.41793877 0.33991084 0.42004043 -0.2496555
000220 8b 79 21 be 21 2f 3d 3e b2 84 67 be 71 21 9e 3e
       -0.15769021 0.1847501 -0.22609213 0.3088489
000230 b4 43 b0 3e 9e bb f7 bd fb 25 06 3e 9f 54 75 3e
       0.34426653 -0.12096332 0.13100426 0.23958062
000240 2e 35 4c bd 5b b1 e6 3d bc fd 36 3e ea 0c 93 3e
       -0.049855404 0.112642966 0.1787023 0.2872079
000250 89 c4 86 3e 09 54 bf 3e 7b 77 aa bd 99 19 87 bf
       0.2632182 0.373688 -0.0832357 -1.0554687
000260 30 a3 56 be 40 a8 d1 bd 52 ea be 3e 6f d8 95 be
       -0.20960689 -0.10237169 0.37288147 -0.29266688
000270 56 b2 b8 3e 88 d7 8a 3e f4 b5 56 be 08 7c c0 3d
       0.3607356 0.27117562 -0.20967847 0.09398657
000280 84 e8 7f 3e a8 0d c9 3c 05 d8 06 be b7 ac 38 3e
       0.24991041 0.024542645 -0.13168342 0.18034635
000290 58 50 83 be 4c a0 e6 be 07 f6 9e 3e a5 38 17 3d
       -0.25647235 -0.45044172 0.3104708 0.036919255
0002a0 e6 9b 80 3e b4 43 c7 3e ce 29 91 3e 1a 8a 91 3e
       0.2511894 0.3891884 0.28352207 0.28425676
0002b0 90 86 99 bc 29 c9 50 bd d3 ed 41 3e 95 14 30 3e
       -0.018740922 -0.05097309 0.18938379 0.17195351
0002c0 0b b1 22 3e a0 2e 8c 3e f0 ed 13 bd cc 06 6f be
       0.15887849 0.27379322 -0.036115587 -0.23342437
0002d0 2c 3f 3c 3e 3f 2b 4a be d7 45 ae 3c 38 59 d5 bd
       0.18383473 -0.1974306 0.021273537 -0.10417408
0002e0 44 40 65 be b9 8c d2 be 86 69 7c 3e c5 46 64 be
       -0.22387797 -0.41122988 0.24649629 -0.22292621
0002f0 7c 51 28 3e b5 cf 5e be 20 29 ae 3d 07 d8 6b be
       0.16437334 -0.21758921 0.08503938 -0.23031627
000300 b8 ac 83 3e 6d 32 d7 be 7f d7 a8 be 15 59 21 3c
       0.2571771 -0.4203066 -0.3297691 0.009847899
000310 0a 38 96 be 79 9d 05 3e 17 3d aa 3e c0 2c 98 be
       -0.2933963 0.13048352 0.33249733 -0.29721642
000320 a7 c2 2b 3d ec 88 56 3e c3 17 64 be 08 ba 13 bd
       0.04193368 0.20950669 -0.2227469 -0.036066085
000330 0f 7e 93 bd b1 c7 7c bd 19 01 c4 be 7c 4b 50 be
       -0.07201778 -0.061713878 -0.38282087 -0.20341295
000340 fb fa 84 be fe 5d 2b 3e 90 0c 89 3e c1 46 1c bd
       -0.25972733 0.16735074 0.26767397 -0.038153414
000350 f3 55 0b 3d 38 ae 3b 3e f5 50 b1 3e 45 37 83 3e
       0.034017514 0.18328178 0.34632078 0.25628105
000360 97 ad 89 3e 53 fa 24 3e a6 55 31 be 01 00 30 be
       0.2689025 0.16111116 -0.17317829 -0.17187501
000370 73 49 33 3e 2b c3 a8 3e 48 6d 28 3e e0 b1 c5 be
       0.17508487 0.329614 0.16447937 -0.3861227
000380 d4 14 b2 3e 69 15 29 bd 50 81 37 bd d9 2a 50 3d
       0.34781516 -0.041280184 -0.044801056 0.050822113
000390 71 2d bb 3e 23 e0 c2 bd 7a 09 c6 3e d8 6f 53 3e
       0.36558107 -0.09515407 0.38679105 0.20648134
0003a0 dc 84 88 3d d3 03 c0 3e ab e8 6f 3e ed 7f 9e be
       0.06665966 0.37502918 0.234286 -0.30956975
0003b0 9c 97 65 3b 72 7b 9b be 63 2e 94 be 3f 70 a1 3d
       0.0035032993 -0.3036762 -0.2894164 0.07882737
0003c0 3f 32 bb 3d 41 43 2e bd cb 3a cd 3e d0 fc d6 be
       0.09140443 -0.042544607 0.40083918 -0.41989756
0003d0 9c 21 13 be ef 06 2f 3e d2 c2 4f be b2 8a 35 3e
       -0.1436829 0.17092489 -0.20289162 0.1772869
0003e0 57 e3 15 be 33 96 30 3e 2a 09 8a bd b9 28 91 be
       -0.14637505 0.17244796 -0.06740029 -0.2835138
0003f0 91 80 e5 3d 4a 54 c2 3e 3d 22 36 be f5 c9 cb be
       0.11206163 0.37954932 -0.17786498 -0.39802518

encoder.2.bias f4 [16]
000000 d9 78 87 bd 70 c3 f5 3c e0 e9 aa bc e6 10 46 3a
       -0.06614847 0.030000418 -0.020863473 0.00075556186
000010 7a cf 88 3c ac e6 f0 bb 00 00 00 00 eb 45 0e bd
       0.016700495 -0.007351717 0.0 -0.034734648
000020 99 60 9e 3c ad 93 ea 3c 4c 87 be bc 00 00 00 00
       0.01933317 0.02863487 -0.023257874 0.0
000030 00 00 00 00 89 6e 74 bb 3b f6 13 bd cc b9 a4 3b
       0.0 -0.003729733 -0.036123496 0.0050270315

encoder.4.weight f4 [32, 16]
000000 44 46 94 3e 26 f6 8b bb 31 54 98 bd e1 5b aa 3e
       0.28959858 -0.0042712865 -0.07437933 0.33273223
000010 87 54 ae 3e f1 31 7e 3e 73 70 fd bd 13 59 e1 3d
       0.34048864 0.24823739 -0.123749636 0.11003318
000020 5d e7 2a 3e 00 c6 57 3d 6c f5 65 3e ce 2f 2d be
       0.1668982 0.052679062 0.22456902 -0.16912767
000030 a0 47 c4 bc 7c 16 f6 3d 16 48 38 3d b1 c3 74 bd
       -0.023959935 0.12016007 0.04499062 -0.05975694
000040 5d 81 f5 bc 94 d1 83 be 13 3d 0a be 68 41 a9 3e
       -0.029968912 -0.25745833 -0.1349986 0.33057714
000050 c3 fa 85 3e ec c7 4e be e7 42 15 bd e0 cb b5 3e
       0.26167879 -0.20193452 -0.036440756 0.35507107
000060 c7 11 42 3d a8 cd 49 be 8c 93 ab 3d 19 e1 0c be
       0.047380235 -0.19707358 0.08377752 -0.13757743
000070 40 6d 97 3d 3b c8 41 be a6 9d 5b be 5f 5c 3b 3e
       0.07393885 -0.18924038 -0.21446857 0.18296956
000080 06 60 50 3e cf 1f 74 3d 65 46 90 3c 83 57 3a 3e
       0.2034913 0.059600648 0.017611692 0.18197446
000090 76 a8 ac be b1 db ac be 46 91 c0 bd ec 91 85 3e
       -0.33722275 -0.3376136 -0.09402709 0.26087892
0000a0 78 1b 74 3e 22 34 59 3e b5 8e 7e 3e 10 91 49 3e
       0.23838603 0.21211293 0.24859126 0.19684243
0000b0 87 b8 1d be a6 53 8a 3e 6e 9c 1a be 0b 4e 9d 3d
       -0.15402423 0.27016944 -0.15098736 0.07680901
0000c0 a3 7b 80 bd c3 c9 0a 3e b0 05 4f 3e 71 fa 18 be
       -0.06273582 0.13553528 0.20217013 -0.14939286
0000d0 fa 71 bb 3e 3a a2 83 be eb 5d 90 3e 50 24 9b 3d
       0.36610395 -0.25709707 0.28196654 0.075752854
0000e0 c7 04 8f 3e d0 75 1e 3e 20 e2 f9 3c 19 f3 27 3c
       0.27933332 0.1547463 0.030503333 0.01025083
0000f0 72 33 30 3d 15 8b 74 3e 2b a5 90 be 45 31 60 bd
       0.043017812 0.2388118 -0.28251013 -0.054734487
000100 f7 3d bb 3e e9 92 2e 3e 07 45 9d 3e 70 39 45 3d
       0.36570713 0.1704823 0.30716726 0.04815048
000110 66 f7 ed 3d 59 f2 22 3d 34 00 d6 bd bd 60 9f 3c
       0.11619453 0.039781902 -0.104492575 0.019455308
000120 15 af 1f be 57 63 af bc 45 bf e1 bd 34 a1 5e 3d
       -0.15594132 -0.021409674 -0.1102281 0.054352954
000130 90 be 42 bb 31 06 b7 3e 0e 37 80 3d 77 5d 5a 3d
       -0.0029715635 0.3574691 0.06260501 0.05331179
000140 e3 7e 84 3e f0 1b 40 3e fa f4 2f be bc a6 45 3e
       0.25878057 0.18760657 -0.17183295 0.19301885
000150 dc e4 89 be f9 4a a4 3e 3f f6 ba bd 07 c9 14 3d
       -0.26932418 0.3208845 -0.09128999 0.036324527
000160 e1 6a 70 3d 40 5a 8c be 45 ea 14 3e b6 60 9a be
       0.058695678 -0.27412605 0.14542492 -0.3015191
000170 cb 0e 1e be e8 f6 84 be f0 96 8d be 9f d5 ac bc
       -0.1543533 -0.25969625 -0.2765422 -0.021097956
000180 09 1b 06 3e ed 16 29 3e 19 79 59 bd 37 84 78 3e
       0.1309625 0.16512652 -0.053094003 0.24269186
000190 0e d8 87 bd 92 4a 83 3d 78 48 e9 3d 6e 86 a4 be
       -0.06633006 0.064107075 0.113907754 -0.32133812
0001a0 a7 4f a3 3e 7c 25 cb bd ad d9 f7 3c 46 35 57 be
       0.31896707 -0.09919259 0.030255163 -0.21016416
0001b0 1c 79 a5 be 2a f2 52 3e ae b0 66 be 9a 6d 77 be
       -0.32318962 0.20600191 -0.22528335 -0.24162903
0001c0 28 f0 3e 3e 7d b4 f5 3c 76 8f b5 3e 22 e2 2e be
       0.186463 0.02999329 0.35461015 -0.1707845
0001d0 d3 a8 29 be 6e e8 39 3e 9c ac 46 3e 37 bd 49 3d
       -0.16568308 0.18155071 0.19401783 0.049252715
0001e0 ce 87 df 3d 47 9a bc 3e ab 6a 4a be ad 52 91 be
       0.109145746 0.36836454 -0.19767253 -0.2838339
0001f0 ac f8 61 be a4 53 77 3e 2c cb 4e 3e 43 ca 1b 3e
       -0.22067517 0.24153 0.20194691 0.15213875
000200 a0 3e df bd 99 b1 77 3e f6 5e f8 bc 95 df 31 3e
       -0.10900617 0.24188842 -0.030318718 0.17370446
000210 b5 21 8a be 3c 3d 33 be 2c 8f a0 3e 58 15 0b bd
       -0.2697884 -0.17503828 0.3135923 -0.0339559
000220 e9 14 9d 3e 3b aa 83 3d 5d e3 99 bc 36 5f 0e 3e
       0.30680016 0.06428953 -0.018785173 0.13903508
000230 91 ff bb 3d b3 3c 47 be 59 ee 87 be 92 3f 92 be
       0.09179605 -0.19456749 -0.26549032 -0.28564125
000240 53 4a 1a be 59 8e 6c 3e 01 f2 72 be 8c 14 aa bd
       -0.15067415 0.23101176 -0.2372513 -0.083047
000250 7a bf 0a be 27 30 df bd a7 25 72 be 7f 5a 5f be
       -0.13549605 -0.10897856 -0.23647176 -0.21811865
000260 d5 6a 15 3d c3 29 22 3c e3 9e a5 3e 66 4c 6a 3e
       0.036478836 0.009897652 0.32347783 0.22880706
000270 e3 3a 31 3e d0 1c 11 3e 0c c9 a0 3c 1f 47 5d 3e
       0.1730762 0.14171147 0.019627117 0.21609162
000280 f5 41 7a 3e f0 89 94 be 3c 6a 71 be 4c 5e a5 bb
       0.24439223 -0.29011488 -0.23575681 -0.0050466415
000290 7d 79 6e 3e e8 7f 93 3e 25 73 90 bd c1 17 1b 3e
       0.23288532 0.28808522 -0.07053212 0.1514578
0002a0 f8 ce 3c be 25 d3 96 bd f3 fc bf be 05 19 3c be
       -0.18438327 -0.073644914 -0.37497672 -0.18368919
0002b0 6f f4 71 3d a6 c4 50 bd 42 74 4f be a0 c3 9e be
       0.059071 -0.05096879 -0.20259193 -0.31008625
0002c0 5b 48 c3 3c 25 51 95 3e ff 33 9b be 80 fc 0f 3e
       0.023838213 0.2916347 -0.30313107 0.14061165
0002d0 bd 79 77 3d af 1b af 3c 1e 0f 5a bd 46 fb d1 bc
       0.060418833 0.021375505 -0.053237073 -0.025632512
0002e0 96 3b b0 3e 38 1b a4 be f8 4c c6 bd a5 ce bf bd
       0.3442046 -0.32052016 -0.096826494 -0.09365586
0002f0 a7 3d fc bd 5f 83 44 be 1d 7f ab be 9c 3d 93 3e
       -0.12316447 -0.19190739 -0.33495417 0.28757942
000300 de a0 29 3e 13 d7 b5 be 6a 58 91 3e ee b8 c9 bd
       0.16565272 -0.3551565 0.28387767 -0.09849726
000310 0c 5a ae be 9a d2 a0 3e 08 91 94 be 49 38 dd bd
       -0.34053075 0.31410676 -0.290169 -0.10801751
000320 21 46 65 3d 2d 69 37 3e 4a 7b f5 bd 11 00 8b 3d
       0.055975083 0.17911215 -0.11986406 0.06787122
000330 9f 51 5c 3d bb aa a7 be 1a 7b 53 be 06 9f 82 3e
       0.053788777 -0.32747445 -0.20652428 0.2551195
000340 dc f8 8c 3e 65 10 e1 bd 29 7b 3f 3e 38 b6 a9 be
       0.27533615 -0.10989455 0.18699326 -0.33146834
000350 49 23 4e 3d 50 0b ff bd 0d a3 53 3d 60 69 81 3e
       0.05032662 -0.124533296 0.05166917 0.25275707
000360 74 bd a5 3e 32 53 4f 3e 01 32 03 3d 01 f5 9a 3e
       0.32371104 0.2024658 0.03203011 0.30265048
000370 1f 10 7e bd d1 dd 14 bd af 3e 92 3d 21 da 1f 3d
       -0.062027093 -0.036344353 0.07140862 0.039026383
000380 dd 42 85 bc c3 97 a2 be 64 bd f8 3d 1d d9 47 3e
       -0.016267234 -0.3175641 0.121454984 0.19516416
000390 e0 b5 a0 3e 3d 83 5d 3e 60 36 e4 3d 7b e4 9c be
       0.3138876 0.21632095 0.11143184 -0.30643067
0003a0 fb 83 94 3e 1c a2 40 3d 08 86 a5 be 05 24 fc 3d
       0.29006943 0.0470296 -0.3232882 0.12311558
0003b0 83 d9 b1 be 7a 04 5c be 88 0d b8 3e 75 d9 7c 3d
       -0.3473626 -0.21486083 0.35947824 0.06173082
0003c0 54 7c c0 3e 62 ca 37 be da 8e b5 3e 64 b4 8d be
       0.37594855 -0.17948297 0.3546055 -0.2767669
0003d0 53 79 89 3e da 52 2e bd ef ed ed 3d 9c 2a 8c 3e
       0.26850376 -0.042559482 0.11617648 0.27376258
0003e0 98 15 00 be aa 9d a3 3e e6 44 53 be 20 ee 68 3e
       -0.12508237 0.31956226 -0.20631751 0.22747087
0003f0 c2 eb 6d be ba a5 3a be 15 79 57 3e 04 05 71 3c
       -0.23234466 -0.18227282 0.21042283 0.0147106685

encoder.4.bias f4 [32]
000000 91 da 4b bc 11 08 f5 3c 98 0e 85 bc 81 a0 2b 3d
       -0.012442247 0.029911073 -0.01624231 0.041901115
000010 e5 0c 7e 3d fc 19 ab 3c 2b 2a ae 3b 73 d8 27 3c
       0.062024016 0.020886414 0.0053150854 0.010244477
000020 76 b2 bd 3c 52 b4 da bb 75 eb aa bc ae 4a 97 3b
       0.023156386 -0.006674328 -0.020864228 0.004617057
000030 c5 2d d5 bb 44 30 13 bc 1c ec bf 3b 19 1a 31 3d
       -0.0065057003 -0.008983675 0.005857004 0.04323778
000040 ec 05 62 3d c0 78 17 bc 64 e9 3d 3c c3 21 96 bc
       0.05518143 -0.009245098 0.011591289 -0.018326646
000050 0f 14 23 bd 7c 8d 08 3c 8f 2d 63 bc 3b 87 83 bc
       -0.03981405 0.008334514 -0.0138658425 -0.016055694
000060 79 84 b2 bc c2 60 4b 3d 22 07 96 bc 57 c4 f5 bb
       -0.021791684 0.049652822 -0.018313948 -0.007500212
000070 e5 41 a7 bc fd 4d a9 bb bc 3d 8f bc 2e 68 88 bc
       -0.020417163 -0.0051667676 -0.017485492 -0.01665124

nee_decoder.0.weight f4 [16, 32]
000000 9f be c2 bd 87 63 34 bd 62 0c 4a 3e 58 26 f8 3d
       -0.09509014 -0.04404023 0.19731286 0.121166885
000010 42 f5 9c 3e 6d d0 87 be 0e c2 51 3e a9 ea 7b bd
       0.30655867 -0.26526204 0.20484182 -0.061503086
000020 f3 1f 99 3e fb 50 3a 3e 7b cc 8f be d5 ff 61 3e
       0.29907188 0.18194954 -0.28085694 0.22070248
000030 3f 93 95 3d 0c 10 59 be f9 b0 44 3e 84 ba 15 3e
       0.073034756 -0.21197528 0.19208135 0.14621931
000040 d9 3d 79 be 31 5a eb 3d ec 24 c8 3d 5d d0 94 3e
       -0.2434 0.11491812 0.09772667 0.2906522
000050 31 ed a6 bd 9a 36 a2 3e df e9 55 3e 03 8e 9d be
       -0.081507094 0.31682283 0.20889996 -0.3077241
000060 6b 72 41 be 3e f0 a5 3e 81 51 80 3e 17 34 84 3e
       -0.18891303 0.32409853 0.25062183 0.2582099
000070 44 8f 15 be 5d ea 53 3e ff ec 23 3e 95 5c 52 bd
       -0.14605433 0.20694871 0.16008376 -0.051357824
000080 1f 6f a4 be 12 f4 93 3e bc 54 6d bb ff 4f 8e 3d
       -0.3211603 0.28897148 -0.0036213836 0.06948852
000090 5a b5 22 3e 58 34 98 be c0 61 88 be da de 82 3e
       0.15889493 -0.29727435 -0.26637077 0.25560647
0000a0 ee 29 aa be 67 1e b2 be 3d 79 52 be 92 84 f2 bd
       -0.33235115 -0.3478882 -0.20554061 -0.11841692
0000b0 4c 42 01 3d 26 cd 85 3e 89 dc 3a 3e d8 4e 4a be
       0.031557366 0.26133078 0.1824819 -0.19756639
0000c0 23 c1 85 bd 07 91 8e bd 8d 2f 05 be 2e 2c af be
       -0.065309785 -0.069612555 -0.1300642 -0.34213394
0000d0 c8 8c a2 3e 17 ac 2d bd 3d 2b 5a be 22 6d 68 be
       0.31748033 -0.042400446 -0.21305557 -0.22697881
0000e0 99 a2 9a 3d 78 2c 7f 3d 6e 8f 7b be b7 7e ee bd
       0.07550544 0.062298268 -0.24566433 -0.11645263
0000f0 85 1b 87 be 91 4b 71 bd 25 a6 99 3e f4 a6 c0 bd
       -0.26388183 -0.058909956 0.3000957 -0.09406844
000100 94 88 8b 3d f3 47 cd bd d7 a5 1b 3e 7a 15 74 3b
       0.068131596 -0.10023489 0.15199982 0.0037244246
000110 6b ff c9 3e 67 8f 81 3d a7 03 b7 3d 05 85 de 3e
       0.3945268 0.0632618 0.089362435 0.4346086
000120 d6 6d fd 3d 4c e0 55 be c7 13 2e be 44 83 be be
       0.12374465 -0.20886344 -0.16999732 -0.37209523
000130 9b 67 af 3e 15 5a 19 3d fe 35 ed bd b9 0c 9c 3e
       0.34258732 0.037439425 -0.11582564 0.30478457
000140 7c 06 4b 3d 5a e7 9a be 9d aa 08 be e7 a9 0a be
       0.04956673 -0.30254632 -0.13346334 -0.13541375
000150 0f e7 76 3e 9e 8d 0e bd c1 6c 81 3e 4c 02 b1 bc
       0.2411158 -0.034803025 0.25278285 -0.02160754
000160 2e b5 5a 3d 7c 4a 09 3e dd a5 c3 3e 73 66 1c be
       0.053395443 0.1340732 0.3821248 -0.15273456
000170 0c f5 43 be 64 23 b7 bd b3 d2 32 3e a0 93 54 3d
       -0.19136447 -0.08942297 0.17463188 0.0518986
000180 e4 ef 93 3e 0f 2f 87 3e 57 e7 73 be f7 4f be 3d
       0.2889396 0.2640309 -0.23818718 0.09292596
000190 63 7f 3d be e5 f7 23 bd c2 60 0a 3d 47 3b c0 3c
       -0.18505625 -0.040031333 0.03378368 0.023465766
0001a0 e0 fa 4d be a4 b6 a1 3e e7 12 9b be c6 67 ab be
       -0.20115232 0.31584656 -0.3028786 -0.3347761
0001b0 13 51 f8 3d 66 17 00 be 1f 09 62 3e 63 a8 76 3e
       0.12124839 -0.12508926 0.22073792 0.24087672
0001c0 75 16 87 3e 8a 99 70 be ef a7 39 3e 46 ed 34 3e
       0.2638432 -0.2349607 0.18130468 0.17668638
0001d0 ec 0a 27 3d b2 fa 98 be d5 3d af 3e a4 66 45 be
       0.0407819 -0.29878765 0.34226862 -0.19277436
0001e0 16 20 bd be 1f 74 0f 3e 93 7d 57 3e 12 44 46 3e
       -0.36938542 0.1400914 0.21043997 0.19361904
0001f0 e4 9e 4d be 17 41 72 3e 06 27 99 be 2c 70 80 bc
       -0.20080143 0.23657642 -0.29912585 -0.015678488
000200 63 75 f7 bd f0 a6 22 3b 50 21 37 be 60 16 6e 3e
       -0.120829366 0.002481874 -0.17883801 0.23250723
000210 45 70 bd 3c 60 af 5a 3d 97 c5 a8 3e 66 c5 b3 3e
       0.023124823 0.053389907 0.3296325 0.3511154
000220 ba e3 55 bd 5f 7d 72 be 9c 94 d8 3e e5 b5 68 be
       -0.05221913 -0.23680638 0.4230088 -0.22725637
000230 13 85 94 bd 7d 35 d3 bd 91 e5 bc 3e c4 9a c3 3c
       -0.072519444 -0.103129365 0.36893895 0.023877509
000240 9a 41 2a be eb 6c 4f 3e 7b 29 8c 3e bf 36 13 3e
       -0.16626588 0.20256393 0.27375397 0.14376353
000250 80 58 07 be 64 01 07 be 55 43 b6 3e 7c 22 b3 bd
       -0.13217354 -0.13184124 0.35598245 -0.08746812
000260 71 65 bb be 3e 3f 92 3e de fb 46 3e 0a 2c 87 be
       -0.3660083 0.28563875 0.19432017 -0.26400787
000270 70 23 9c 3d c9 9a 71 3d 40 17 87 3e b6 b8 68 3d
       0.07623947 0.058985505 0.26384926 0.05681678
000280 74 12 3c be 2c a6 46 be 83 00 67 3e 9d 01 41 be
       -0.18366414 -0.19399327 0.22558789 -0.18848272
000290 5e 1c b0 be 15 51 27 bd be c1 d2 3d 39 81 32 bd
       -0.34396642 -0.04084881 0.1029086 -0.043580268
0002a0 ee 48 99 3d d2 6b 90 bd 23 e9 55 3e 7c c6 ed 3d
       0.07484613 -0.07051815 0.20889716 0.116101235
0002b0 21 04 f6 3d 9c 5f 26 ba ed f4 6a 3e 4a 27 59 3e
       0.12012506 -0.00063466444 0.22944994 0.21206394
0002c0 4b 44 38 be fd 61 5e be af 5f 75 bc 67 24 6d 3e
       -0.17994802 -0.21717067 -0.014976426 0.23158418
0002d0 7d 46 e6 3d de ae 6b 3e 0b aa b2 bd f0 1c e4 bd
       0.11243913 0.23015925 -0.08723839 -0.11138332
0002e0 4e 7b e6 3d 88 15 45 bd 3b 59 81 be e5 a7 e4 3d
       0.11253987 -0.048116237 -0.2526339 0.11164836
0002f0 50 db 01 be 5b 85 50 be 01 31 2d be 6e e5 7d 3e
       -0.12681317 -0.20363371 -0.16913225 0.24794552
000300 f1 71 4d be 5b 5f 14 be b5 82 86 be 97 b0 0e be
       -0.20062996 -0.144895 -0.26271597 -0.13934551
000310 4f fe b5 be 41 ad 32 3e 8e a7 64 be b0 60 86 3e
       -0.35545585 0.17448904 -0.22329542 0.26245642
000320 39 e6 08 3d fe 5d 9b 3e a5 88 03 be 2b 49 9b be
       0.033422682 0.30345148 -0.12845095 -0.3032926
000330 de b8 a3 3e 6f a1 7d 3e ae 65 a1 3e 69 98 96 3d
       0.3197698 0.24768613 0.31522888 0.07353289
000340 cb e1 5a bd f3 14 fb 3d cf 87 9c 3e 34 df 90 3d
       -0.05343799 0.12259855 0.30572364 0.070738226
000350 d3 3c 94 be 96 27 aa be 43 5b a9 be c0 71 99 be
       -0.28952655 -0.33233327 -0.3307744 -0.29969597
000360 71 1c 4d be 17 f0 58 3e 10 c8 90 be 54 a5 4e be
       -0.20030381 0.21185337 -0.28277636 -0.20180255
000370 da 72 b4 3e a5 53 46 3e 63 54 6d 3e 0f 66 82 3e
       0.35243875 0.19367845 0.23176722 0.2546849
000380 41 11 dd 3d 26 0a 9d 3d d4 bf 9e bd 90 de 2e 3e
       0.107943065 0.07667951 -0.07751432 0.17077088
000390 54 e8 37 3e 3a 4e 67 be c7 c8 71 3e 52 4c 58 bd
       0.1795972 -0.22588435 0.23611747 -0.05280716
0003a0 a2 0c 14 3e 43 e8 42 bd e7 f4 7e 3d 63 9e 74 3e
       0.14457944 -0.047584783 0.062245276 0.23888545
0003b0 e7 a8 a7 be a2 87 a0 be 19 3e cf 3e 3f e6 b8 bb
       -0.3274605 -0.3135348 0.40477064 -0.005642682
0003c0 17 e5 4a be f4 91 18 3e 75 af a5 be e6 a6 9f bc
       -0.19813953 0.14899427 -0.32360426 -0.019488763
0003d0 37 b9 04 be bb c4 4d be 9d e8 05 3d 08 ee 51 3e
       -0.12961279 -0.20094578 0.03269254 0.20500958
0003e0 6b 89 09 3e 69 c4 86 bd c4 79 d8 bd fe 04 aa be
       0.13431327 -0.06580431 -0.105701 -0.33206934
0003f0 63 a3 5b bd e7 96 11 3d ef 2a 99 3d 37 c8 2a 3d
       -0.053622615 0.035544302 0.07478892 0.041694846

nee_decoder.0.bias f4 [16]
000000 78 a2 46 bd 00 00 00 00 fd 1c d9 3d f8 ad 28 3d
       -0.048494786 0.0 0.10601232 0.041181535
000010 7d 33 11 3d 2c 48 9b bc 11 05 90 bb 96 14 6a 3c
       0.035449494 -0.018955313 -0.004395135 0.014287135
000020 fa 8d 1c bc b9 28 c3 ba ba f8 b6 3c 59 0a c0 bc
       -0.009555334 -0.0014889456 0.022335399 -0.023442434
000030 25 0b b4 bd 06 d7 a4 3c 00 00 00 00 01 66 a4 3c
       -0.08791188 0.020122062 0.0 0.02006817

nee_decoder.2.weight f4 [16, 16]
000000 8f ef 13 be d1 a5 6e 3e 61 a1 78 3e cb fd 55 3e
       -0.14446853 0.23305441 0.24280311 0.20897596
000010 8f 91 d6 3c 6f 75 d9 3d c0 72 ec 3d f8 79 b9 3c
       0.026192455 0.10618102 0.11545324 0.022641167
000020 d2 c4 e2 bd 83 c2 65 3e db 0a db 3e 27 ab 93 be
       -0.11072697 0.22437482 0.4278172 -0.28841516
000030 25 8e 8f be 53 31 4e 3e 0d 54 a7 be 1b 68 a4 3e
       -0.28038135 0.20136003 -0.32681313 0.32110676
000040 ec d7 82 3e 8b 38 7f be 7e ef a4 be f4 3b 00 be
       0.2555536 -0.24923913 -0.32213968 -0.1252287
000050 f9 69 e7 be e0 22 31 3e 25 b5 63 3d e2 3c aa be
       -0.45198038 0.1729846 0.055592675 -0.33249575
000060 fd 1a 7a 3e 84 01 fb bc d5 58 93 3d 8a 0a b5 3e
       0.24424358 -0.030640371 0.07194678 0.35359603
000070 0c 3c e0 bd e3 77 d3 bb a4 34 da 3e 43 d6 dd be
       -0.10948953 -0.0064535006 0.42618287 -0.4332753
000080 a5 57 1a 3e f3 38 f0 3d 43 fc 4d bc 1c 79 a7 3e
       0.15072496 0.11729612 -0.012572351 0.32709587
000090 f8 0b 00 be 29 0e 49 3d 6c c2 24 3e 11 a9 90 3e
       -0.12504566 0.04908577 0.16089791 0.28253987
0000a0 22 b6 0c 3d 3c 0e c1 3e 3b b9 c4 3e 80 72 b3 3e
       0.034353383 0.37706172 0.3842257 0.35048294
0000b0 0b e1 03 be 80 39 2f be f0 89 b7 3e 82 a9 f3 bd
       -0.12878816 -0.17111778 0.35847425 -0.118975654
0000c0 0a 36 c7 be e8 50 ce be ea a4 0b bd 4b d6 04 3e
       -0.38908416 -0.40296102 -0.03409282 0.12972371
0000d0 bf 68 be 3e a9 48 92 3e d9 93 8d 3e 84 64 7a be
       0.3718929 0.2857106 0.2765186 -0.24452406
0000e0 0d 7d ad be 3d 30 23 3e b8 51 6b be a3 1a a8 3e
       -0.3388447 0.1593637 -0.22980392 0.32832822
0000f0 b0 65 81 3e b6 97 b6 3e 7b 86 3e be 40 b4 61 bd
       0.25272894 0.3566262 -0.18605988 -0.05510354
000100 fe 2d 6e 3e 4b bb c1 3e 7d e5 7d be 21 ef 3d 3e
       0.23259732 0.37838206 -0.24794574 0.18548252
000110 5e e7 bd be 48 de ce 3a 9b 72 ad be 13 a8 81 3e
       -0.37090582 0.0015782798 -0.338765 0.25323543
000120 3a 0b ec 3d f7 35 ce be 1b 27 81 3e a3 18 b6 bc
       0.11525579 -0.40275547 0.25225148 -0.022228545
000130 56 8e 92 3e ee bc c2 3e a2 d8 b2 3e ef 50 8d be
       0.2862422 0.38034767 0.34930903 -0.2760081
000140 bb b8 6b 3e 80 92 60 3e e3 e7 74 ba 18 95 c5 3e
       0.23019688 0.21930885 -0.0009342415 0.38590312
000150 1d c3 6e 3e db e9 36 be a8 06 d4 3e 84 47 f6 3e
       0.23316617 -0.17862646 0.41411328 0.48101437
000160 64 f4 3c 3e 4e 86 8a be 57 b0 87 3e 1e 90 58 be
       0.18452603 -0.2705559 0.26501724 -0.21148726
000170 41 f9 43 3e 3f 13 ca 3c 7e 48 d5 be f9 fe cf bd
       0.19138052 0.02466738 -0.4165687 -0.10156054
000180 4f df 81 be 10 59 d4 3c 9a 4b c9 be 47 d9 3c 3e
       -0.25365683 0.025921375 -0.39315492 0.1844226
000190 b6 dc 0a bf c9 95 12 be ea 2f d9 3c d5 ae 2c be
       -0.5424303 -0.14314951 0.026512105 -0.16863568
0001a0 2d f7 af ba 3d 86 92 bd af 95 17 3e ff bb e0 3e
       -0.0013425105 -0.0715451 0.14803194 0.4389343
0001b0 cd 60 5a 3f 03 ac 8e 3d 36 74 14 3e 10 08 9d 3e
       0.85303956 0.069664024 0.14497456 0.30670214
0001c0 a6 86 3e be d5 19 19 3e 8b 78 cd 3e 83 9a c7 3e
       -0.18606052 0.1495126 0.4013103 0.3898507
0001d0 4e 89 e3 3e bd 41 e0 bd 2b 69 b9 bd c2 d5 c2 3e
       0.44440693 -0.109500386 -0.09053262 0.3805371
0001e0 ba c6 da be 09 8a 6b 3e fd 09 1a be 77 97 1d be
       -0.4272974 0.23001875 -0.15042873 -0.1538981
0001f0 1b 38 a9 be 77 81 f6 3e 6e e5 a7 be 7a 69 b3 3d
       -0.33050618 0.4814565 -0.32792228 0.087603524
000200 87 26 40 be 51 fc 5d 3d 56 62 e6 3d 72 2a ee 3e
       -0.18764697 0.054195706 0.11249225 0.46516758
000210 63 cd 97 3d 11 33 b5 3d 82 12 15 be 5d 1a 60 bd
       0.07412221 0.08847631 -0.14557841 -0.054712642
000220 1e 49 c5 3d 1b 93 a0 bb 34 ea 5f be f2 12 18 be
       0.096330866 -0.004900349 -0.21866685 -0.14850977
000230 d1 56 bb bd 18 1a 90 3c 56 82 fe bc ee d8 c2 bd
       -0.09147418 0.017590567 -0.031068008 -0.09514032
000240 27 ab ac be e5 20 d2 3e 1e 96 8c 3e c5 85 1e bd
       -0.3372433 0.41040722 0.2745828 -0.03870179
000250 3f 9c 18 be 2f c4 4a be d6 21 c8 be f4 78 5c 3e
       -0.14903353 -0.198014 -0.39088315 0.21530515
000260 45 73 93 be 4d d4 bc be ef eb 66 3e 42 d2 bc 3e
       -0.2879888 -0.36880723 0.22550939 0.36879164
000270 93 6c 0a be cf 27 13 be 5b b6 9d be 94 2a a2 be
       -0.1351798 -0.14370655 -0.3080319 -0.3167311
000280 ad 5b 4f 3e 87 bf 40 be 5a 58 db 3e ea a2 55 be
       0.20249815 -0.18823062 0.42840844 -0.20862928
000290 32 eb 97 3d 10 75 24 bd 7b 0c a6 3e c0 35 7a 3d
       0.07417907 -0.040150702 0.32431397 0.061086416
0002a0 4a c2 76 3e ca 9e 1a be 8f 10 8f 3e b6 1f 1f 3e
       0.24097553 -0.15099636 0.2794232 0.1553944
0002b0 af 8a 8c be 3a 94 bd 3a 97 a8 01 bd c3 2b 6a 3e
       -0.27449557 0.0014463731 -0.03165492 0.22868256
0002c0 cb 41 a5 bc 4f a3 b6 3e bd 1b cb 3e 7b 91 6f 3e
       -0.020172974 0.3567147 0.396696 0.2339534
0002d0 86 70 b6 bd 6d 71 50 bd 2f 27 a1 3e e7 12 e0 3d
       -0.08908181 -0.05088942 0.31475207 0.10941105
0002e0 39 7c 43 3e 06 50 e5 3d 7c dc 98 bd f7 86 9a 3e
       0.19090356 0.11196904 -0.07463929 0.30181095
0002f0 74 ba c6 bf eb 66 2f 3d 69 22 c6 3e b0 4b 0c 3e
       -1.5525651 0.04282276 0.38698128 0.13700747
000300 08 2b 2e 3e 71 16 4e be 69 11 6d be 2c b4 a1 be
       0.17008603 -0.20125748 -0.23151173 -0.31582773
000310 b8 7a d1 be d1 cc db 3e dd 1e 3f bd 36 0f b7 be
       -0.4091394 0.429297 -0.046660293 -0.35753793
000320 c2 82 d5 bd 48 7c 1b be 9f 6f b4 3e 67 e2 59 be
       -0.10425331 -0.15184128 0.3524141 -0.21277772
000330 54 45 b7 be a1 d8 bf be 0e d2 9c be d9 c6 cc 3d
       -0.3579508 -0.37469962 -0.3062901 0.09998865
000340 0d 8a 99 be 1d 6a 89 be 30 71 a5 bc 67 79 56 3e
       -0.29988137 -0.2683877 -0.020195574 0.20944749
000350 5f 28 39 3e 04 8e 3b be a5 5c 68 be b5 5c d7 be
       0.18081807 -0.18315893 -0.22691591 -0.42062917
000360 06 9a 3c be 27 00 fc 3d b2 34 cc be 6c e6 9b be
       -0.1841813 0.123047166 -0.39883953 -0.30449235
000370 ec 1f 4d be b6 0d 55 be c7 2e 57 3e 26 5f 5b bd
       -0.20031708 -0.20806012 0.21013938 -0.053557537
000380 d0 aa af 3d 65 b2 72 bb 69 34 28 3e 01 17 c8 bd
       0.08577502 -0.00370326 0.16426243 -0.09770013
000390 f0 13 5c 3e b5 aa a3 be 08 9b 84 3e 58 58 af 3b
       0.2149198 -0.31966177 0.2589953 0.0053511076
0003a0 e5 1d 48 be 3d 98 90 3d 54 f8 6f 3e c6 d6 85 be
       -0.19542654 0.07060287 0.23434573 -0.26140422
0003b0 16 d9 37 3e b6 44 82 3c 3b 7e b4 be d6 38 c4 be
       0.17953905 0.015901905 -0.35252556 -0.38324612
0003c0 c6 2a 8f bd f5 ec 9f be 7a 90 95 be 2b a0 13 be
       -0.0699058 -0.3123547 -0.2921179 -0.14416568
0003d0 8a d5 db bd e0 1f bf be 0b fc 02 3e ff 4a ae 3e
       -0.10734089 -0.37329006 0.1279146 0.34041592
0003e0 19 4d 0b be 3c 3c a0 3b 1f ac d2 3e 65 15 b3 3d
       -0.13603629 0.004889993 0.41146943 0.08744315
0003f0 db 3a 9a 3e 73 b2 89 3e c5 54 c5 be 54 90 0e bd
       0.30123028 0.26893958 -0.38541237 -0.03480561

nee_decoder.2.bias f4 [16]
000000 dd 1c e3 3c 9c a8 28 bd 37 90 e2 3c 7f fa d7 bc
       0.027723724 -0.041176423 0.027656658 -0.026364563
000010 36 6e db bc 44 0f e1 3c f5 71 f8 bc f2 f8 32 3d
       -0.026785951 0.0274731 -0.030327776 0.043694444
000020 d7 7e 7c 3d 67 7a 4d 3d b4 5e e1 3c c1 74 3b 3d
       0.0616444 0.05016556 0.027510978 0.045765642
000030 af da c5 bc 00 00 00 00 be 1e fa bc 8e 00 e1 3c
       -0.024152128 0.0 -0.030532237 0.027466085

nee_decoder.4.weight f4 [1, 16]
000000 c3 87 b8 be 05 98 ed 3e 02 23 ec bd d0 93 c4 3c
       -0.36041078 0.46405044 -0.11530115 0.023996264
000010 3f 52 62 3e 5f 75 c0 be 8b 6a 45 3f b1 13 01 bf
       0.22101687 -0.37589547 0.77115697 -0.5042067
000020 d7 85 18 bf d1 78 89 bd 95 5f 0d bf 71 6f 6d bd
       -0.59579223 -0.06712497 -0.5522397 -0.057967607
000030 38 86 95 3d 5f 24 57 be a0 b5 03 3f 32 01 f2 be
       0.07300991 -0.21009968 0.5144901 -0.47266537

fc_mu.0.weight f4 [4, 32]
000000 85 42 2a 3e 83 8f 89 be 9a f1 10 3e 8b c6 92 3e
       0.16626938 -0.26867303 0.14154664 0.286671
000010 be 6d 81 be 43 11 1b be 47 c8 9c 3e 92 fe 55 be
       -0.2527904 -0.15143304 0.3062155 -0.20897892
000020 bb 7c c3 be ac 90 64 be f7 fe 47 be 83 85 98 be
       -0.381811 -0.22320813 -0.19530855 -0.2978936
000030 d7 9a 94 be cf 98 c3 3e 2d 64 82 be 3c 4a 89 3e
       -0.29024383 0.3820252 -0.25467053 0.2681445
000040 ad 71 02 be 0a 8e e9 bd b2 04 83 3e f3 e8 61 3e
       -0.12738676 -0.11404045 0.2558952 0.2206152
000050 2c f3 75 bd 52 eb 4b 3e a9 44 bb 3e 5d 56 bf 3e
       -0.06004636 0.19913986 0.3657582 0.37370577
000060 b6 39 af 3e 15 f1 8c bc 98 29 37 3e 77 68 00 be
       0.34223717 -0.0172048 0.1788696 -0.1253985
000070 42 d0 c2 be fc 4a 81 3e da 47 78 be 84 9e dd bc
       -0.38049513 0.2525252 -0.24246159 -0.027053125
000080 5f 77 ad 3e 06 b8 b2 3e f6 1a 88 be 52 e2 ae 3d
       0.33880135 0.34906024 -0.2658307 0.08539261
000090 cd 83 ce be e6 79 c4 be 71 bd ca be 15 1f a1 3d
       -0.4033493 -0.3837425 -0.39597657 0.078672566
0000a0 df 8f c5 bc 95 a3 b5 3e 07 7e ff 3d 4d 45 c8 3e
       -0.024116455 0.35476366 0.1247521 0.39115372
0000b0 27 5f aa be cb 19 46 bd f8 38 77 3d b2 5d 6a 3e
       -0.3327572 -0.04836444 0.060357064 0.22887304
0000c0 55 f4 e7 3d f8 a7 c1 3d e4 0f c9 3e b6 36 cd 3e
       0.113258995 0.094558656 0.39269936 0.40080804
0000d0 42 22 29 be f0 77 8a 3e ee 59 4d be 5e f8 4d be
       -0.16516975 0.2704463 -0.20053837 -0.20114276
0000e0 ea 71 a9 3e 37 03 30 3e b6 75 c2 3c 64 40 8d be
       0.33094722 0.17188726 0.02373777 -0.2758819
0000f0 1e ef 5c 3e 4a 1d 38 bd 02 98 ce 3e c8 97 74 3e
       0.21575591 -0.044949807 0.40350348 0.23886025
000100 a1 18 0b 3e bb b7 87 3e 33 25 97 be 20 40 9f 3e
       0.13583614 0.26507363 -0.29520568 0.3110361
000110 e5 f9 a7 be 27 75 4c be 9f 86 aa be a8 a5 be 3e
       -0.32807842 -0.19966565 -0.33305833 0.3723576
000120 be 8a c2 be 02 e7 36 3e 34 b6 ca be f4 c4 81 3d
       -0.37996477 0.1786156 -0.39592135 0.06336394
000130 8d f7 c6 3e 24 ad 1f 3d 36 3e 64 3e b5 b6 af 3e
       0.3886074 0.03898348 0.22289357 0.34319082
000140 e8 36 a7 3e f1 c3 f6 3d 40 ba c0 3e e1 7f cf 3d
       0.32659078 0.120490916 0.37642097 0.10131813
000150 22 de a8 be 6a 92 31 be ac 9e 2b 3e 87 8a b0 3e
       -0.32981974 -0.17341009 0.16759747 0.34480688
000160 75 4c 60 be 74 ec 57 be 5e bc 95 be 5e 25 74 3e
       -0.21904166 -0.21086293 -0.29245275 0.2384238
000170 40 da a9 be c6 a2 8c 3d a1 f6 9c be b7 0f d4 bd
       -0.33174324 0.06866984 -0.30656913 -0.1035456
000180 1b 62 99 be 81 e6 20 be 54 aa 8b 3e ed 56 a0 3e
       -0.2995766 -0.1571293 0.27278388 0.3131632
000190 40 fc 9c 3d 62 a2 8d 3e 0a 00 4d 3e 8f aa 5a 3e
       0.076653 0.2766295 0.20019546 0.21354125
0001a0 7e 2c 57 be 2e c5 bb be 18 c6 b0 3e 5b cd 74 be
       -0.21013066 -0.36673874 0.34526134 -0.23906462
0001b0 f5 66 8a bd 43 02 da 3c ef 01 39 3e 79 d6 c6 bd
       -0.06757919 0.026612407 0.18067144 -0.09708876
0001c0 50 a2 11 3e 43 d4 a7 3e a2 6e 9b be 2f 38 39 be
       0.14222074 0.3277913 -0.30357844 -0.18087839
0001d0 66 12 c3 be 84 8d c1 be 56 fd d0 be ea 41 a2 3d
       -0.38099974 -0.3780328 -0.4081828 0.07922728
0001e0 81 ff b4 3e 55 99 57 3e 87 e4 b2 3d 58 4e 8c 3e
       0.35351184 0.21054585 0.087349944 0.27403522
0001f0 da 72 cd bd f3 99 11 be 18 87 5d 3e f9 90 22 be
       -0.10031672 -0.14218883 0.21633565 -0.15875615

fc_mu.0.bias f4 [4]
000000 b8 2f d4 bb fa 70 d0 bb 2e 54 cf 3b 66 f0 c0 bb
       -0.006475415 -0.006361124 0.0063271737 -0.0058880327

fc_mu.2.weight f4 [1, 4]
000000 e1 c2 4e 3f 95 90 ac bd 56 aa ab 3e 06 3f 6b bf
       0.8076611 -0.08426014 0.33528394 -0.9189304

fc_logvar.0.weight f4 [4, 32]
000000 85 42 2a 3e 83 8f 89 be 9a f1 10 3e 8b c6 92 3e
       0.16626938 -0.26867303 0.14154664 0.286671
000010 be 6d 81 be 43 11 1b be 47 c8 9c 3e 92 fe 55 be
       -0.2527904 -0.15143304 0.3062155 -0.20897892
000020 bb 7c c3 be ac 90 64 be f7 fe 47 be 83 85 98 be
       -0.381811 -0.22320813 -0.19530855 -0.2978936
000030 d7 9a 94 be cf 98 c3 3e 2d 64 82 be 3c 4a 89 3e
       -0.29024383 0.3820252 -0.25467053 0.2681445
000040 ad 71 02 be 0a 8e e9 bd b2 04 83 3e f3 e8 61 3e
       -0.12738676 -0.11404045 0.2558952 0.2206152
000050 2c f3 75 bd 52 eb 4b 3e a9 44 bb 3e 5d 56 bf 3e
       -0.06004636 0.19913986 0.3657582 0.37370577
000060 b6 39 af 3e 15 f1 8c bc 98 29 37 3e 77 68 00 be
       0.34223717 -0.0172048 0.1788696 -0.1253985
000070 42 d0 c2 be fc 4a 81 3e da 47 78 be 84 9e dd bc
       -0.38049513 0.2525252 -0.24246159 -0.027053125
000080 5f 77 ad 3e 06 b8 b2 3e f6 1a 88 be 52 e2 ae 3d
       0.33880135 0.34906024 -0.2658307 0.08539261
000090 cd 83 ce be e6 79 c4 be 71 bd ca be 15 1f a1 3d
       -0.4033493 -0.3837425 -0.39597657 0.078672566
0000a0 df 8f c5 bc 95 a3 b5 3e 07 7e ff 3d 4d 45 c8 3e
       -0.024116455 0.35476366 0.1247521 0.39115372
0000b0 27 5f aa be cb 19 46 bd f8 38 77 3d b2 5d 6a 3e
       -0.3327572 -0.04836444 0.060357064 0.22887304
0000c0 55 f4 e7 3d f8 a7 c1 3d e4 0f c9 3e b6 36 cd 3e
       0.113258995 0.094558656 0.39269936 0.40080804
0000d0 42 22 29 be f0 77 8a 3e ee 59 4d be 5e f8 4d be
       -0.16516975 0.2704463 -0.20053837 -0.20114276
0000e0 ea 71 a9 3e 37 03 30 3e b6 75 c2 3c 64 40 8d be
       0.33094722 0.17188726 0.02373777 -0.2758819
0000f0 1e ef 5c 3e 4a 1d 38 bd 02 98 ce 3e c8 97 74 3e
       0.21575591 -0.044949807 0.40350348 0.23886025
000100 a1 18 0b 3e bb b7 87 3e 33 25 97 be 20 40 9f 3e
       0.13583614 0.26507363 -0.29520568 0.3110361
000110 e5 f9 a7 be 27 75 4c be 9f 86 aa be a8 a5 be 3e
       -0.32807842 -0.19966565 -0.33305833 0.3723576
000120 be 8a c2 be 02 e7 36 3e 34 b6 ca be f4 c4 81 3d
       -0.37996477 0.1786156 -0.39592135 0.06336394
000130 8d f7 c6 3e 24 ad 1f 3d 36 3e 64 3e b5 b6 af 3e
       0.3886074 0.03898348 0.22289357 0.34319082
000140 e8 36 a7 3e f1 c3 f6 3d 40 ba c0 3e e1 7f cf 3d
       0.32659078 0.120490916 0.37642097 0.10131813
000150 22 de a8 be 6a 92 31 be ac 9e 2b 3e 87 8a b0 3e
       -0.32981974 -0.17341009 0.16759747 0.34480688
000160 75 4c 60 be 74 ec 57 be 5e bc 95 be 5e 25 74 3e
       -0.21904166 -0.21086293 -0.29245275 0.2384238
000170 40 da a9 be c6 a2 8c 3d a1 f6 9c be b7 0f d4 bd
       -0.33174324 0.06866984 -0.30656913 -0.1035456
000180 1b 62 99 be 81 e6 20 be 54 aa 8b 3e ed 56 a0 3e
       -0.2995766 -0.1571293 0.27278388 0.3131632
000190 40 fc 9c 3d 62 a2 8d 3e 0a 00 4d 3e 8f aa 5a 3e
       0.076653 0.2766295 0.20019546 0.21354125
0001a0 7e 2c 57 be 2e c5 bb be 18 c6 b0 3e 5b cd 74 be
       -0.21013066 -0.36673874 0.34526134 -0.23906462
0001b0 f5 66 8a bd 43 02 da 3c ef 01 39 3e 79 d6 c6 bd
       -0.06757919 0.026612407 0.18067144 -0.09708876
0001c0 50 a2 11 3e 43 d4 a7 3e a2 6e 9b be 2f 38 39 be
       0.14222074 0.3277913 -0.30357844 -0.18087839
0001d0 66 12 c3 be 84 8d c1 be 56 fd d0 be ea 41 a2 3d
       -0.38099974 -0.3780328 -0.4081828 0.07922728
0001e0 81 ff b4 3e 55 99 57 3e 87 e4 b2 3d 58 4e 8c 3e
       0.35351184 0.21054585 0.087349944 0.27403522
0001f0 da 72 cd bd f3 99 11 be 18 87 5d 3e f9 90 22 be
       -0.10031672 -0.14218883 0.21633565 -0.15875615

fc_logvar.0.bias f4 [4]
000000 b8 2f d4 bb fa 70 d0 bb 2e 54 cf 3b 66 f0 c0 bb
       -0.006475415 -0.006361124 0.0063271737 -0.0058880327

fc_logvar.2.weight f4 [1, 4]
000000 e2 0b 3b 3f 25 30 c1 3e 6e 3d 22 bf cf 47 1b 3e
       0.73065007 0.37732044 -0.63374984 0.15164112
