.archive/piae_sde/experiments/2024-11-25_17-13-15-128056/0/best_model.pth (torch, 25122 bytes, 28 tensors)

encoder.0.weight f4 [16, 18]
00000000: d27f ea3e 991d 18bf 9687 f0bb dba4 7dbe
00000010: 6233 0ebe db70 febd 147a 85be 8f97 b1bd
00000020: a296 2cbf 647d c13e 2242 86be 2efb e6bd
00000030: 0721 babe 8257 dfbe b4d1 943e 5a41 013f
00000040: dfe5 89be fa94 28be 4447 b1be bd80 45be
00000050: 8e05 03bf 26d8 00bf f96d 46be 467b cc3d
00000060: c32a eb3e c23a fcbd 8834 eabe a3b2 93bd
00000070: 1ad8 c4be 1aab d63c 88c4 7f3e 42cc 11bf
00000080: 600b fe3d e89a c1be 3a5a 103f 99d3 403e
00000090: 4faf 3e3e eead c5be af1f 153f c0aa 27be
000000a0: 54b1 fd3e 18f6 b33e dccd 8c3e 2edd 103e
000000b0: b441 89be d905 4dbd fdd1 d73e 335e a93d
000000c0: 9d88 bebe 54bf 273e 18c9 ac3d c653 e13e
000000d0: e58c b23e 50ed ce3e c60e d23d 28e5 0b3e
000000e0: d00b 7f3d 248f 753e b03d d4bd 1bcc bfbe
000000f0: b684 d5bd 54e3 683f a817 06be 84f0 47be
00000100: 9089 d63d 3bac a23e 87ac 933e dec5 3a3e
00000110: f26a efba 7aca 963e b655 40be 150e 28be
00000120: 06b0 9e3e 5786 4c3e b50f 053f b963 0fbf
00000130: d052 6ebd 71cd 80bf 8f0f 4ebe d559 d8be
00000140: 7945 a5be 1b41 9f3e 3cb3 58be 564a de3d
00000150: 5b07 193e 3259 dc3b abb3 49be 7cfb a43e
00000160: affd 5f3e ad18 883e bd21 73bc ebb5 4fbe
00000170: 6a7d 523f 9291 cdbe 25b0 793e 19e0 2b3d
00000180: 0c3d 4e3d e4b7 c93e 81d1 733d 2e32 0abf
00000190: 985a b93d aafc dfbe 9684 0f3e 1063 373f
000001a0: 421c 7bbb eace be3e 44c5 34be 5ff9 98bd
000001b0: f313 da3e 3ca1 b33e 8446 6e3d a522 9f3e
000001c0: ce3e aabe a276 1bbf 0ee4 76be f3b3 aa3e
000001d0: 58bf 993d 3ba1 43bf 5395 fabd 44aa 94be
000001e0: 8520 88bc 0bf0 a5be 7a05 d6be 7a02 99be
000001f0: abc3 9ebe 0f5f a6be 7864 c0be 979c cd3e
00000200: 8caf 62be 479b 42be 460f 0c3f 438c 28be
00000210: 43be 0b3e 9822 933c fae2 853e f85f e53e
00000220: 11c0 19bf dcd7 dfbe b036 d1be 428f 9d3e
00000230: 0b63 57bd 6b77 e6be 7bed e5be 59d5 10bf
00000240: e8ab 193d 9d59 a4be 5580 543f bced a839
00000250: 3671 c03d 95e3 55be ebfa a13e 04b9 9b3e
00000260: d5fc f8bd c135 f03e aa3c 2b3e 78c6 27be
00000270: 2a40 c5be bf4c 113e 0908 f3bd 2b60 9fbe
00000280: fd29 62be 6b99 49bd 49ad d63e fcb8 9abe
00000290: 0e82 4e3e 468d 713e 4428 5dbe 2f5a fabe
000002a0: 451b 853e 8d85 ca3e 62f7 1fbe 3973 20be
000002b0: a992 78be 08f5 89bd bc08 d83d 7c5c 83be
000002c0: 02a1 56bf 3511 443e 0f66 8e3d b8de 713e
000002d0: c42d 8e3e 5821 123e 36ea 0b3f fe2d 44bc
000002e0: 7fc5 54be 2e7c 6abd 440f 9b3e 2435 bc3e
000002f0: 1ea8 7f3e c860 e6be 48e5 143e c25c 8e3e
00000300: c5d5 103f 5ace ad3d 3230 0d3e 8366 33be
00000310: 9a23 e0be 4412 813e 2536 65be 0a10 c83e
00000320: 9c8b 97be 586e 413e b9fa 37bf 12bc 41be
00000330: 4fe1 9f3c 1edf ae3e 165e 9bbe cd6a e9be
00000340: 0d49 703d 389d aabd 42ff 4e3c 17ef 91be
00000350: bd14 b23c 50ba 64be 37ba f73e 07f5 a53e
00000360: 8779 ee3d ce94 d4bc bfdc 2f3d 5acf bb3e
00000370: ff92 9fbe 6b1e 50be b2ab 383f 9ad8 45bd
00000380: 0218 0bbf 0084 41bd 0a12 cebd 3ed3 bd3e
00000390: 2666 2dbe e3e4 1b3e 469a cbbd af02 8e3c
000003a0: 0b8b a9be 8212 43be 45bb 033f b576 b8be
000003b0: ae07 87bd 3acf 0b3e b70e da3d 5625 0abf
000003c0: 2fd5 e6be 60f7 b43e 4216 d8bd 7c6d 3c3e
000003d0: fadc 393f 3efb 74bb 8fa3 113f 7797 86be
000003e0: 3113 09bc c35a bc3c 9e93 203e b7bc dcbd
000003f0: cf1f 733e 538b 66be 4419 a33e 8ce8 f1bd
0.45800644 -0.5942016 -0.007340382 -0.24769919 -0.13886788 -0.12423869 -0.260697 -0.08671486
-0.6741735 0.37790978 -0.2622233 -0.112783775 -0.36353323 -0.4362145 0.2906624 0.50490344
-0.2693319 -0.1646308 -0.34624684 -0.19287391 -0.5118035 -0.50329816 -0.19377889 0.0998445
0.45931062 -0.12315895 -0.45743203 -0.072118066 -0.38446122 0.026204634 0.24977314 -0.569523
0.12404513 -0.37813497 0.56387675 0.18830718 0.18621562 -0.3860926 0.5825147 -0.1637373
0.49549353 0.35148692 0.27500808 0.14146873 -0.2680794 -0.050054405 0.42152396 0.0826992
-0.37213603 0.1638158 0.08436793 0.44009227 0.3487312 0.4041543 0.10256724 0.13661635
0.062267125 0.23980385 -0.103633285 -0.37460408 -0.10425703 0.90971875 -0.13094962 -0.19525343
0.10475457 0.31772026 0.28842565 0.18239543 -0.0018266125 0.29451352 -0.18782696 -0.16411622
0.3099367 0.19973122 0.5197709 -0.5601154 -0.058184445 -1.0062696 -0.20123123 -0.42256036
-0.32279566 0.3110436 -0.21162122 0.10854022 0.14944212 0.0067245 -0.19697444 0.32223117
0.21874116 0.26581326 -0.014839587 -0.2028424 0.82222617 -0.40150124 0.243836 0.041961763
0.050351188 0.3939811 0.05952597 -0.5398282 0.090504825 -0.43747455 0.14015421 0.7163553
-0.0038316404 0.37267238 -0.17653376 -0.07469439 0.42593345 0.3508395 0.058172718 0.3108112
-0.3325104 -0.60727894 -0.24110433 0.33340415 0.07507199 -0.76417893 -0.122355126 -0.29036152
-0.016617069 -0.324097 -0.41801053 -0.29884702 -0.31008658 -0.324944 -0.37576652 0.4015853
-0.22137278 -0.19004546 0.54710805 -0.16459756 0.13646798 0.017960832 0.26149732 0.4479978
-0.60058695 -0.43719375 -0.40862036 0.3077336 -0.05258469 -0.45012984 -0.44907746 -0.5657554
0.03751746 -0.3209962 0.8300832 0.00032220583 0.09396593 -0.20887597 0.31636748 0.30414593
-0.12157599 0.4691601 0.1672236 -0.16384304 -0.38525516 0.14189433 -0.11866767 -0.31128058
-0.2208633 -0.049218576 0.4192908 -0.30219257 0.201668 0.23589048 -0.21597391 -0.4889693
0.25997368 0.39555016 -0.15621713 -0.15668954 -0.24274696 -0.06736189 0.10548541 -0.25656497
-0.8383943 0.19147189 0.0695306 0.23620117 0.2776929 0.14270532 0.5465425 -0.011973856
-0.20778464 -0.057247333 0.30285084 0.36759293 0.24966475 -0.44995713 0.14540589 0.27805144
0.56576186 0.08486624 0.13787916 -0.17519574 -0.43777162 0.25209248 -0.22383936 0.39074737
-0.295987 0.18889749 -0.7186695 -0.189194 0.019516615 0.341546 -0.3034522 -0.45589295
0.058663417 -0.08330768 0.0126341 -0.28502724 0.021738404 -0.22336698 0.48384258 0.32413504
0.11644273 -0.025949862 0.04293513 0.36681634 -0.31166837 -0.20324104 0.72136986 -0.04830227
-0.5433351 -0.047245026 -0.100620344 0.37075227 -0.16933498 0.15224032 -0.09941535 0.017335264
-0.33113894 -0.19050029 0.51457626 -0.36028066 -0.06593262 0.1365327 0.10647338 -0.5396322
-0.4508452 0.35344982 -0.1055112 0.1840114 0.7260281 -0.0037381197 0.56890196 -0.26287434
-0.008366392 0.022992497 0.15681311 -0.10778182 0.23742603 -0.22514085 0.31855214 -0.11811933

encoder.0.bias f4 [16]
00000000: 0000 0000 cd5a c9bb 18b3 ce3b 0000 0000
00000010: c9f5 893e d72b 91bc 0000 0000 0000 0000
00000020: e1f3 c0bc 1c04 c13b 0000 0000 3bc9 c33b
00000030: 0000 0000 0797 b0bb 75ed c6bb 0000 0000
0.0 -0.0061448575 0.0063079707 0.0 0.26945332 -0.0177211 0.0 0.0
-0.02355379 0.0058903825 0.0 0.0059749163 0.0 -0.0053890976 -0.0060707876 0.0

encoder.2.weight f4 [16, 16]
00000000: 5383 143f c108 33bd 27e6 86be 1055 803e
00000010: 40bd 40bf 9c26 a0be c46d 573d 7ff6 fc3e
00000020: c474 e23d 9da9 8ebd a2cf 8f3d a3fc c13e
00000030: 7edd 59bd 571f 893e 5d0a 0b3f f8da 103e
00000040: 9b89 8f3b 3b06 63be 51aa 75be 1dc2 f4be
00000050: 8217 85bb bc25 77be 5a8c a3bc 1249 683e
00000060: 325d 413f c624 41bd 9390 c5be b0a6 183f
00000070: c976 a4be 973c bd3d 61d7 883d 7e64 d13e
00000080: f153 333e 7cf9 b7bd c85a 4fbe b4da d7bd
00000090: efbc ac3e 1ed0 ca3d 0f29 68be c4b6 5d3d
000000a0: b992 033f 6081 61be 0950 e13e 1265 bdbe
000000b0: 56d4 28bf 821c 89be 65ea 103e b68d bfbe
000000c0: 867c 82be 370a fc3b 779d acbe bb1d f6bd
000000d0: 2c44 0abe 25de bb3e 3579 293f ef68 8cbe
000000e0: 4da7 6a3d 70b3 253c 545e 4fbe 7902 20be
000000f0: 392b a43d 4fb8 b0be 4257 eb3e 7ed3 fb3d
00000100: ee5f 3bbe 137f 483f 8d86 a33e a586 64be
00000110: a402 12bf 7873 063f 0ad9 ec3d 13a9 4abe
00000120: a2d9 13be 285d 8a3e 868b 3bbf 2729 8abf
00000130: 377a 1cbf 88b1 533e d1c2 0ebe 4ff6 8b3d
00000140: 01db 11bd 8904 473d ad3e df3e 8efc 4b3d
00000150: e29d 343f b94f 3d3d 9820 493f c348 103f
00000160: 1409 81be c903 1abf 2332 073c e9b7 8c3e
00000170: e148 6d3d 1906 543e d173 ec3e 787f 1dbf
00000180: 42cc c43e d38c 1d3f df14 8ebe 3a40 fabe
00000190: 1a2f 8e3e b59b aebe 356c 1ebc b9c7 833e
000001a0: 9102 eb3e 7c73 cebd 753b b63d de4e 0cbf
000001b0: 17f2 a33b b8a3 fbbd 9e5b 193f 6479 1d3f
000001c0: ff4b 57be 26da cfbe 4de4 6fbe 120a 5cbe
000001d0: 7b78 0fbe 62df a53e b462 b0bc c6f1 ad3e
000001e0: c3a6 47be e483 2abd 3156 6bbe d11c 833d
000001f0: ee5f 2fbf 530d d53e bed6 c73d 94ec aebe
00000200: cc11 54be 4651 29be 9bab 81be 9696 c4bd
00000210: 32b9 df3e 4c65 37bf 2417 c53e d809 64be
00000220: eee0 57bd 8988 11bf d842 5f3f 9516 42bd
00000230: 79ae 77be d7b9 523e 4c02 c53d ce6b d8be
00000240: 917a 89be 2808 4c3e 8396 c93e 0b67 e13c
00000250: 1838 2bbe 8f19 4bbe 276c b1be 5f0b 773e
00000260: aaf0 5c3e df32 9b3e 162b e9be 3d5b edbe
00000270: 5c8c 0bbe 57e1 34be db65 02be 4a96 7abe
00000280: c5f3 2e3d 841d 123e b42c 553e 2f52 b03d
00000290: 931c 21be b8ca a5be 0383 dfbc de0e cc3d
000002a0: a944 01bf 4f6c e53e be6e 1abe adcc 053f
000002b0: f4da 74bc ea7d d7be e948 093e 19de 8dbe
000002c0: 52f2 533c 4580 5fbe ed6d 34bd 895c 97be
000002d0: 0d10 a1be 8a1a d2bd d31c 7dbf 2087 fa3d
000002e0: 04dd cd3d 1825 31bc a10e 633e 4d20 afbe
000002f0: 5058 cfbe 68e4 e23d b152 35be ea91 cbbe
00000300: a01e 5e3e 34c2 273d 4fff 623d daaf 543e
00000310: 15fd 90bc 96dc 3dbd 089e efbc ece6 c43e
00000320: d646 a1bd dca2 afbe 7c1d bd3e d59f 4fbd
00000330: 74cd bb3e dfc0 dd3e caf6 19be b350 93be
00000340: f1a2 713f 0512 2fbe 0a1c 6a3e c472 35bd
00000350: e8f1 80be dbd4 a33e 8278 d7be c914 9abe
00000360: 9633 863e 5b98 4d3f d284 f33d c1b5 f5be
00000370: 6069 b43d 1522 a53e f7ce 2a3f 0992 00bf
00000380: af20 e5bd 0633 563e fc62 c93e e6ea 023f
00000390: f306 cabe 6c24 f6be 40e5 d63e 9198 46bf
000003a0: 83d0 f3be aa8c 6a3f c2cf 103e fa6b ad3d
000003b0: c455 983e e8f8 30be 9f6e 95bd c04d 7d3e
000003c0: c546 0b3f f8f0 15bf 7ced f6bd 6cd5 19be
000003d0: fdf5 19bf 518d 2ebe 277c 39be 4d3b a53e
000003e0: 01b8 0c3c 8ca1 8ebc dd78 fbbd 0f51 ce3a
000003f0: 4466 843e f47c 0cbf e42d 5f3e 2d28 abbe
0.58012885 -0.04370952 -0.26347467 0.25064898 -0.7528877 -0.31279457 0.052594915 0.49406812
0.110574275 -0.06965945 0.07022025 0.3788806 -0.053189747 0.26781723 0.5431269 0.1414603
0.0043804175 -0.22170345 -0.23990752 -0.47804347 -0.0040616402 -0.24135488 -0.019964386 0.22684124
0.7553283 -0.04715421 -0.38586864 0.59629345 -0.32121876 0.09240072 0.06681705 0.40896982
0.1751249 -0.08983132 -0.20249474 -0.10539761 0.33737895 0.099029765 -0.22671913 0.054129377
0.51395756 -0.22022009 0.44006374 -0.36991173 -0.65949 -0.26779562 0.14151914 -0.37412804
-0.2548563 0.0076916474 -0.33713886 -0.120173894 -0.13502568 0.3669292 0.6620057 -0.27423808
0.057288457 0.010113582 -0.20250827 -0.15625943 0.080160566 -0.34515616 0.4596501 0.12296198
-0.18298313 0.783189 0.31938592 -0.22316988 -0.5703528 0.5251994 0.115648344 -0.19791059
-0.14438489 0.27024198 -0.7325977 -1.0793809 -0.61123985 0.20673192 -0.13941504 0.06834089
-0.03560925 0.04858831 0.43602505 0.0498014 0.7055341 0.046218608 0.7856536 0.56361026
-0.2520224 -0.60162026 0.0082517 0.27484062 0.05793083 0.20705451 0.4618211 -0.61522627
0.38437086 0.61543006 -0.27750298 -0.48877126 0.2777031 -0.3410317 -0.009669353 0.25738314
0.45900396 -0.10080621 0.08898059 -0.5480784 0.0050032246 -0.12287086 0.5990542 0.6151335
-0.21025084 -0.40596122 -0.23426934 -0.21488217 -0.14010803 0.3239699 -0.02153144 0.3397352
-0.19497208 -0.041629687 -0.22982098 0.06401981 -0.6850575 0.41611728 0.09757756 -0.3416487
-0.20709914 -0.1653491 -0.25326237 -0.095990345 0.4369598 -0.7163894 0.38494217 -0.2226938
-0.052704744 -0.5684896 0.8721137 -0.047384817 -0.2418765 0.20578705 0.09619579 -0.42269748
-0.26851323 0.19924986 0.39372644 0.027514955 -0.16720617 -0.19833969 -0.34652826 0.24125431
0.21576181 0.3031225 -0.45540684 -0.46358672 -0.13627762 -0.17664085 -0.12734167 -0.24471393
0.042712945 0.14269072 0.20817834 0.08609425 -0.15733556 -0.32381225 -0.027284151 0.09963773
-0.5049539 0.44809195 -0.15081307 0.52265435 -0.014944781 -0.42088252 0.1340672 -0.2770851
0.012936192 -0.21826275 -0.044050146 -0.29562786 -0.31457558 -0.10258968 -0.9887211 0.12232804
0.10051921 -0.0108120665 0.22173549 -0.3420433 -0.40497065 0.11078721 -0.17707326 -0.3975976
0.2169137 0.04095669 0.055419262 0.20770207 -0.017698804 -0.046352945 -0.02925016 0.3845743
-0.07874839 -0.3430394 0.36936557 -0.050689537 0.36680186 0.4331121 -0.15035549 -0.28772506
0.94389254 -0.17096718 0.22862259 -0.044298902 -0.2518456 0.31998333 -0.42084128 -0.30093983
0.26211232 0.803106 0.11890568 -0.4799023 0.08809161 0.32252565 0.66722053 -0.5022283
-0.111878745 0.20917901 0.39333332 0.51139677 -0.39458427 -0.48074663 0.4197178 -0.7757655
-0.4762002 0.91620886 0.14141753 0.084678605 0.29752934 -0.1728245 -0.0729649 0.2473669
0.5440486 -0.58570814 -0.12057015 -0.1502282 -0.60140973 -0.17046095 -0.18113767 0.32271805
0.008588792 -0.017411016 -0.12278912 0.001574071 0.25859272 -0.54878163 0.2179485 -0.3342909

encoder.2.bias f4 [16]
00000000: 49c9 a43b fa5f c03b 873e c1bb 2ad6 cabb
00000010: 89d7 c7bb 595c bebb 9b21 d7bb 2c2a cb3b
00000020: 93c6 bebb c975 cd3b 05f5 af3b 63ff c53b
00000030: 40d7 bd3b b557 cb3b 4514 c43b 1945 c53b
0.005028878 0.0058708163 -0.0058973464 -0.006190081 -0.006098692 -0.0058093485 -0.0065652854 0.0062000956
-0.0058220117 0.0062701446 0.005369785 0.0060424074 0.005793482 0.006205524 0.0059838616 0.0060202

encoder.3.weight f4 [32, 16]
00000000: 792b ba3d 2624 7ebe d4a1 b0bb b34e a6bd
00000010: bc16 d13c 6b9b 8fbe ea30 063e 79a5 c5be
00000020: 7fd3 c93d b7f2 3abd a5f3 1bbe 6be2 973d
00000030: 4a65 38bf b160 4dbe f361 bc3d 7eba 8bbe
00000040: 0bd2 ffbd 2bec a1be 65ba c2be 5454 bc3e
00000050: 7f39 8abe 2ed0 f9be a7e0 43bd 1a05 d63d
00000060: f769 26bf 7db2 00be e871 70be e820 823e
00000070: 4714 b43e 26b8 7d3d 3f68 33bd 1374 363f
00000080: 1578 73bd 4c3c d3bd 2404 27bf 2e85 0bbd
00000090: e10a 823e c10f 143f 41f6 35be ab92 3f3e
000000a0: eaf9 e0be 6ffd a1be 17af 85be 8091 fcbd
000000b0: 7fc2 b73e 0a33 aabe 4bb2 94bc dced b7be
000000c0: 4cb2 053e 1206 7e3e 7b03 a73e f9d1 72bf
000000d0: 05c4 233f 978b 9a3d 4445 a13e 8db5 c03d
000000e0: 4944 f3be f50d 95be 0b92 e93e 8e4c 2b3e
000000f0: 6311 6abf da5f 06be 8769 9f3e 9128 31be
00000100: f24c 8d3d e1cc f83d 0d4e f1be c8e1 adbe
00000110: 8a0a 07be cd79 35be 953e 76bb 03df 31be
00000120: d3cc b2be 37c0 403d 8d7d bc3b 9720 ee3e
00000130: 13f2 20bf e0b6 e8bd 591f 3e3e f3f2 d3bd
00000140: 7938 4d3f 6207 c1be b77d 4b3e 2ed9 a7be
00000150: 0135 b2bd 0a9f 19be 1bf5 55be 7b90 ecbd
00000160: 07ca d7be 82ee 85be 626e 2dbe 611e 8c3e
00000170: 6293 4a3d 6a22 28be bde7 973e 2b2f 473e
00000180: a7a0 40ba e33c 35bf 99b9 44be 2160 72bc
00000190: f68a 233d fb57 103e 06b5 31be 5298 393f
000001a0: 1b42 2ebd 2c96 2c3e 6a27 5bbf 9d19 b7bc
000001b0: 0dbe a4be b5d5 e13d 158d 80be 23ab 013e
000001c0: b555 463e d120 8abe 7939 3b3d 868d ae3d
000001d0: 8472 8c3e 49c7 913d d441 4b3e 066e 29be
000001e0: adb9 9ebd 683d 1a3e 1026 c23e f58a 123d
000001f0: 0987 9f3e 8936 ee3e 56cc 593e c9ee fe3e
00000200: 6463 9f3d c7a0 e2be 6b42 433f aebf 5b3f
00000210: 2d99 2b3e deb7 4ebe 312e ab3e 60af 0b3e
00000220: 105b 19bf daa4 8a3e 4d02 d63e 3d06 553f
00000230: 338d 803e 7af2 63be 8842 a0be c11a bfbd
00000240: 677e f43d 4ef5 f13d 188c 533e 1d4a 15be
00000250: 2c83 6f3e 809d d73d 19f6 af3b 43a4 52bd
00000260: c257 a23e e481 5bbe 96c6 493e 6ef2 0abe
00000270: 7c72 7dbe aed0 833a 7510 1cbf e068 903d
00000280: 1508 0cbf 4d28 cabe aa2f b3bd e4c9 9ebe
00000290: a301 fa3e 7b8c 14bf e9ea b9bd 934d 473d
000002a0: 8226 93be e48f 8f3d 4c3d 9ebe d8c7 95be
000002b0: 55cf 933d 669a aabe c3d4 0d3f 67fb 113f
000002c0: abc9 fe3e 5d97 093e f228 57be ce34 16bd
000002d0: 3886 1dbe b85d 23bf 3651 e7be cc55 0e3f
000002e0: 087f 573e 6224 eebe b606 d8be 718b 88be
000002f0: 6846 0fbf d82f 313f 8fc0 a13d 2492 4fbd
00000300: 1285 e93e f1b9 4c3e d35e 07bf 64f0 9dbf
00000310: 158e dfbe 36d1 ce3d 028f f0be bf63 923e
00000320: 80b5 0dbf 95b0 f63c cd54 09bf f7ad 203d
00000330: b39d d8bd 394f 17be 51df abbc f1d3 4b3e
00000340: a871 0a3e 76d6 91be 15bd 873e 1e3a cb3e
00000350: 95c8 b1be 78e1 2dbe 29e8 df3d 70dc 303d
00000360: ae8c 42be f8f0 cd3d b6c7 bebe be1a bebe
00000370: 1500 00be 1473 7bbe e7b0 0b3f b646 23bd
00000380: 3a82 1e3f bc89 19be 8a90 91bc 257c 99be
00000390: 5dfe b03e 5db3 093f 4f07 30bf b6cd c63d
000003a0: 91db 36bd 8b74 b1be 2fd4 0cbf 00ce 80be
000003b0: 5945 29bf c36f c3bd a56a 393e 6217 823d
000003c0: 6ca6 5e3f 2805 003e b8ac 993d 4fd2 863e
000003d0: 475b 513d 2099 b6be 888d bc3e db7a ad3d
000003e0: 214e 72be 8fbd a7be 6fda 82be 7abd 16bf
000003f0: b356 1e3f 2bcd 91be ee71 2d3e b854 b5be
0.09090323 -0.24818477 -0.005390385 -0.081204794 0.025523536 -0.28048262 0.13104597 -0.38602808
0.09854793 -0.045641627 -0.15229662 0.07416233 -0.72029555 -0.20056416 0.0919837 -0.2729072
-0.124912344 -0.31625494 -0.38032833 0.36783087 -0.2699699 -0.4879164 -0.047821667 0.10450192
-0.6500544 -0.12568088 -0.23480952 0.2541573 0.3517172 0.061943196 -0.04380059 0.71270865
-0.05944069 -0.10314235 -0.65240693 -0.034062557 0.25398925 0.5783654 -0.1776972 0.18708293
-0.4394067 -0.31638667 -0.26110145 -0.123324394 0.35890576 -0.33242065 -0.018151423 -0.3592366
0.13056296 0.24807003 0.32619843 -0.9485164 0.6397098 0.07546156 0.31498158 0.09409628
-0.47513035 -0.2911221 0.45619234 0.16728422 -0.9143278 -0.13122502 0.31135198 -0.17300631
0.06899442 0.121484526 -0.4712986 -0.3396132 -0.13187614 -0.17722245 -0.0037573923 -0.17370228
-0.34921893 0.04705831 0.0057522715 0.4650924 -0.62869376 -0.11363006 0.18566646 -0.10349073
0.80164295 -0.37700945 0.19872175 -0.32782882 -0.08701516 -0.15002075 -0.20894282 -0.11550995
-0.42146322 -0.2615853 -0.16936639 0.27366927 0.04945696 -0.16419378 0.2966899 0.19451587
-0.0007348158 -0.7079603 -0.19211425 -0.014793427 0.039927445 0.14096062 -0.17354211 0.7249805
-0.04254351 0.16854161 -0.85607016 -0.02235108 -0.32176247 0.110270895 -0.25107637 0.1266294
0.19368632 -0.26978162 0.045709107 0.08523087 0.27431118 0.07118089 0.1984933 -0.16545877
-0.077502586 0.15062487 0.37919664 0.03577705 0.3115771 0.46525982 0.21269354 0.49791554
0.07782629 -0.44263288 0.7627322 0.85839355 0.1675765 -0.20187327 0.3343368 0.13641119
-0.59904575 0.27078897 0.4179863 0.83212644 0.25107726 -0.22260466 -0.3130076 -0.09331275
0.11938172 0.11814366 0.2065891 -0.14579053 0.23389882 0.105280876 0.0053699133 -0.051426183
0.3170758 -0.21436268 0.19704661 -0.13569042 -0.24750704 0.0010056698 -0.6096261 0.07051253
-0.5469983 -0.39483872 -0.087493256 -0.31013405 0.48829374 -0.58026856 -0.09078009 0.048657965
-0.28740317 0.07009867 -0.3090614 -0.2925403 0.0721728 -0.33320922 0.55402774 0.57024235
0.49763235 0.13436647 -0.21011713 -0.036671452 -0.15383232 -0.6381488 -0.45179147 0.55599666
0.21044552 -0.46512133 -0.4219262 -0.26668885 -0.55966806 0.6921363 0.07898056 -0.05067648
0.45609337 0.19992806 -0.52879065 -1.2338986 -0.43663087 0.100984976 -0.46984106 0.28591725
-0.5535507 0.030113498 -0.5364502 0.039228406 -0.10576954 -0.14776315 -0.020980509 0.19905068
0.13519919 -0.28483933 0.26511446 0.39692777 -0.34723344 -0.16980541 0.10932953 0.043178976
-0.18998978 0.10055727 -0.37261742 -0.37129778 -0.12500031 -0.24555618 0.54566807 -0.039862357
0.6191746 -0.14993948 -0.017769117 -0.29977527 0.34569064 0.5378931 -0.6876115 0.09707205
-0.04464299 -0.34659228 -0.55011266 -0.25157166 -0.6612144 -0.09542801 0.18107088 0.06352116
0.8697269 0.12501967 0.075036466 0.26332328 0.05111244 -0.356637 0.3682673 0.084706984
-0.23662616 -0.3276181 -0.25557277 -0.5888287 0.6185104 -0.28476843 0.16937992 -0.35416198

encoder.3.bias f4 [32]
00000000: 7f21 c0bb c1ab c23b 19b2 c7bb a10d b93b
00000010: 5c20 edbb 2565 c23b 3ddc c3bb 6c34 cabb
00000020: 9489 ccbb 0cb0 c4bb 7543 d63b 307d c6bb
00000030: 6985 c53b 742e c5bb 59db bcbb fd57 bc3b
00000040: ff0a e23b 2e63 c83b 32e7 d23b e9d0 c4bb
00000050: f9ec b4bb ed04 2b3b 6f47 c7bb d77c cabb
00000060: c415 f73b c69e e23b 090f c8bb ed0d c53b
00000070: 0557 cabb 8a66 2dbc 1831 aa3b 5c50 cd3b
-0.005863368 0.005940885 -0.006094229 0.0056473766 -0.0072365236 0.0059324675 -0.005977182 -0.0061708
-0.0062419865 -0.0060024317 0.006538803 -0.006057404 0.0060278666 -0.0060175005 -0.005763453 0.0057477937
0.0068982835 0.0061153388 0.006436252 -0.0060063493 -0.0055214134 0.0026095465 -0.0060815136 -0.006179433
0.0075404365 0.0069159 -0.006105308 0.006013623 -0.0061749243 -0.010583529 0.0051938407 0.006265683

nee_decoder.0.weight f4 [16, 32]
00000000: 10dc ad3b 064d 95be 91e7 a03e 4f03 95be
00000010: 4240 303e cae3 02bc ed1a 173e 547e fcbd
00000020: 9f09 23be 8089 f63d 2770 683e 2d6f f4bd
00000030: 1473 d4be 5b0d 153f c526 bbbd 67e3 74be
00000040: 64ab 613e ca88 b9bb 7ab0 ea3d 1715 c13d
00000050: 125a 843e 93bf f4bd d3ec 13bf 4229 d63d
00000060: 6a0b 9d3e bad2 603e b7bc 2fbd 7154 803e
00000070: 783c 38bd b4d2 52be e1be 983e 70cb 7bbe
00000080: a64b e33c 369f 3dbe 27c8 e53d e7f2 fc3e
00000090: ba21 aebe 4066 b0bd 672c 6cbe 0e45 c73e
000000a0: 05cf d2be e4f2 52bd 59f2 653e de33 063f
000000b0: 4189 8a3e 660e 23be 3216 a53d 24ee 5d3e
000000c0: 98b1 06be dd97 713f 1077 993c e089 f1bd
000000d0: 872b c23e 52fe c4be 9a8a bfbc 0e3a 473d
000000e0: 5a26 493e 253f 0dbc 6ed0 cd3d bac3 0ebd
000000f0: 7fea 81be 7ad3 453f 918b 393d 769e 8a3d
00000100: 79f2 8dbe 7fba 153f d32d 34be 3657 27be
00000110: 311f 8f3e bffc 60be 18d4 713e e5c4 973e
00000120: a718 f83d 52a4 933e 0e66 b23e 718b ebbe
00000130: c56a b4bc ca9a 103e bb19 d03d 3e69 a53e
00000140: 4dce b33c cc5b 83be 3f69 d13c f332 4c3e
00000150: 4eaf 2a3e abd4 9ebe 4b08 d9be 2bd0 d43e
00000160: b3e7 eebd 078e 95be 1bc4 00bf d632 9a3e
00000170: 5e20 ab3e c7f4 b2be a9e9 66be 7ce0 293e
00000180: ded0 e83d 353d bd3d 45e7 e33e 21c5 d13d
00000190: fcff 8cbc 74ce d13d 45ca d2bd 0f57 19bd
000001a0: 47ea 643d 4400 d83d 73f7 903e 565e dfbe
000001b0: 3f63 2a3e 4cb2 98be 6c66 6cbe 3e26 113f
000001c0: 17c3 f33d 0567 18bc e37c 96be d5e3 45be
000001d0: 04cc 023e 6d65 963e c23a 87bd 2b9d cf3d
000001e0: 35f3 583e 63a2 75be 2997 6fbe 4c22 053d
000001f0: acdd be3e 3644 cf3c 7f18 b13d a434 bc3d
00000200: c791 d93b bd38 35bd b10c b43b 15c2 f5bc
00000210: fad0 b9bc 8d8f c03e 171e 3fbe a5ea 5a3c
00000220: b379 8bbc e0aa febc f6e3 1dbe 6252 ef3c
00000230: 6299 babe b6db 7b3d e39b aebe 5091 26bc
00000240: aee1 b0be 279c 76bd b862 5f3d 4d5d 1d3e
00000250: 791b b93e 06a0 413e d8fb a5be 69d3 4e3e
00000260: 7ed5 403e 5a14 773b 652a 6b3e 9a44 613e
00000270: 6702 62be b593 d4bd c95a fd3c a2e1 b9bd
00000280: 778f 2cbe 252e f63c 23a0 fd3d 35be 1bbb
00000290: 2bf6 b73e 7505 d9bb 6c0c 2abe 39ee acbd
000002a0: f122 fe3e 6e80 283e ef75 313e 25df 1b3e
000002b0: 7e0f 45bd a196 9c3e 296b 483e 20aa 01bf
000002c0: f2c1 34bd 67bc f13d 6f59 fa3e 6dad 5f3e
000002d0: c94a abbd 207e 26be 22cb 6bbd b478 a43e
000002e0: 9a2d dbbd 6235 ec3d 5b20 0bbe b595 213d
000002f0: 3d82 1fbe 4496 5a3e 7c2c 803e f714 97bd
00000300: b828 0dbd 2910 f53d 1b03 cfbe c334 143f
00000310: 0914 25bb bca0 7bbe 5b35 7a3e 4ab9 12bd
00000320: a126 08bd 49de 913e f695 67be 6539 373e
00000330: 214d cdbd 1ba0 523e c47a 45bf 24f9 dd3a
00000340: 4a2e b8bd 8f02 64be f6ac 783d 9bc5 52be
00000350: a51a 8fbc b0c4 da3d 79d4 16bf 5581 143e
00000360: 1bc4 7e3e 66b6 cb3d a2ed 283d 2772 a73b
00000370: c013 9a3e 8add 753d 4055 3abd d0d8 5fbd
00000380: 8b58 9fbc cc4e 2f3e 903a 0abe a271 d4bd
00000390: ee43 02bf 8205 0bbe dd2d 42bd f03b 8c3e
000003a0: 72b7 b0be b157 083f fa3b 84be 35e0 513e
000003b0: f3ec 4b3e 36e3 ce3d fa35 213d 97fd 3d3e
000003c0: dc3a 193e b221 29bd 5256 dcbe beb0 433e
000003d0: e4d0 863b 8bd5 f73d 5e8f 3f3c 2600 5cbe
000003e0: 78e6 a33e a903 733e 0d72 8cbe 3c0a 8d3e
000003f0: 56ef e93d 2384 03bd 8c2e 363e 25d1 b43e
0.0053057745 -0.29160327 0.3142667 -0.29104087 0.17212012 -0.007988879 0.14756365 -0.12328783
-0.15921639 0.12037945 0.22699033 -0.119352676 -0.41494048 0.58223504 -0.09138254 -0.23914872
0.22038037 -0.0056620585 0.114594415 0.09427851 0.25849968 -0.119506024 -0.5778324 0.10457088
0.3067277 0.21955386 -0.042904582 0.25064424 -0.044979542 -0.2058819 0.2983313 -0.24589324
0.027746033 -0.18517765 0.11219817 0.4940407 -0.34010106 -0.08613253 -0.23063813 0.38919872
-0.41173568 -0.05150117 0.2245573 0.52422893 0.2705784 -0.15923461 0.08060874 0.21672875
-0.13153684 0.9437235 0.018733531 -0.11793876 0.37923834 -0.3847528 -0.02338152 0.04863935
0.19643536 -0.008621012 0.100495204 -0.03485463 -0.2537422 0.7727581 0.045299117 0.06768505
-0.27724054 0.58487695 -0.17595606 -0.16341862 0.27953485 -0.21971415 0.23616064 0.29642406
0.12114077 0.28836304 0.34843487 -0.46004823 -0.022023568 0.14121547 0.10161158 0.32306856
0.021948958 -0.25655973 0.02556288 0.1994131 0.16668436 -0.31021628 -0.4238914 0.4156507
-0.11665287 -0.2920992 -0.50299233 0.3011691 0.33423132 -0.34952375 -0.22550072 0.1658954
0.11367963 0.0924019 0.44512382 0.102426775 -0.017211907 0.10244456 -0.10292486 -0.03743654
0.055887487 0.10546926 0.2831379 -0.4362666 0.16639422 -0.2982353 -0.23085946 0.5669898
0.11902445 -0.0093019055 -0.29392156 -0.19325192 0.12773138 0.29374257 -0.06603004 0.10137399
0.21186526 -0.23987727 -0.23397507 0.03250341 0.37278497 0.02530108 0.086472504 0.09189728
0.0066396925 -0.044243563 0.005494677 -0.029999772 -0.022682656 0.3760952 -0.18663822 0.013361608
-0.017025804 -0.031087339 -0.15418991 0.029214088 -0.36445147 0.06148883 -0.34103307 -0.010166481
-0.3454718 -0.060207512 0.054537505 0.15367623 0.36153772 0.189087 -0.32418704 0.20197834
0.18831441 0.003770134 0.22965391 0.21998826 -0.22071229 -0.103797354 0.030927079 -0.09076239
-0.16851602 0.0300513 0.12384059 -0.0023764495 0.3593 -0.006622965 -0.16606301 -0.08443875
0.49636033 0.16455242 0.17330144 0.15221842 -0.048110478 0.3058367 0.19572128 -0.50650215
-0.044130273 0.11803513 0.48896357 0.218435 -0.083638735 -0.1625905 -0.05756677 0.3212334
-0.10702057 0.115336195 -0.13586561 0.039449412 -0.15577026 0.21346384 0.2503394 -0.073770456
-0.03446266 0.11965973 -0.40432057 0.5789301 -0.0025188944 -0.24573034 0.24434416 -0.035821237
-0.033239964 0.28489903 -0.226158 0.17892988 -0.10024477 0.20568888 -0.7714045 0.0016935212
-0.08993204 -0.22266601 0.060711823 -0.20583193 -0.01746876 0.106820464 -0.5891796 0.14502461
0.24879496 0.09946899 0.04124225 0.0051100436 0.30093193 0.06002573 -0.045491457 -0.054650128
-0.0194514 0.17119902 -0.13498902 -0.10373236 -0.508849 -0.1357632 -0.04740702 0.2738948
-0.34514958 0.53258806 -0.25827008 0.20495684 0.19914608 0.10101931 0.039358117 0.18553768
0.1496386 -0.0412919 -0.43034607 0.1911039 0.004114257 0.12101277 0.011691896 -0.21484432
0.3201177 0.23731865 -0.27430764 0.2754687 0.11422603 -0.032108437 0.17791194 0.35315815

nee_decoder.0.bias f4 [16]
00000000: 1184 8f3e f14b d33c 0000 0000 7407 aabc
00000010: 0000 0000 31f5 d0bb 0000 0000 ccc4 d7bc
00000020: 0000 0000 1506 d1bc 0000 0000 0000 0000
00000030: 0958 d53c d855 83ba ace7 2bbc 8d4f c9bc
0.28030446 0.025793048 0.0 -0.020755507 0.0 -0.0063768853 0.0 -0.026338957
0.0 -0.025515595 0.0 0.0 0.026042955 -0.001002009 -0.010492247 -0.024574066

nee_decoder.2.weight f4 [16, 16]
00000000: 38eb bdbd 1b37 133b 42f1 c43c 0d11 a1be
00000010: 1392 bebe b3f9 333e 592f f63e 7a49 3cbf
00000020: 3d1d b4be 5096 af3e a198 1f3f d804 f4be
00000030: 3f0d f03d 4f4c c33e ac0c 133d db69 b8be
00000040: d205 073e 4567 f1bd 3c5c acbe a378 84bf
00000050: 80aa d53d 7df1 edbe 4c29 21be 366c 0fbf
00000060: c5f8 a8be 5cd6 49be 4264 ab3e bc22 693d
00000070: 81bd 483f bbb4 ce3e cf74 d13d f229 8b3e
00000080: a7a4 f5bd 6c90 e8be 2cda e93d e506 39be
00000090: cfdc ecbe 1bc3 8b3c 3c68 09bf 4e28 78bf
000000a0: 92f7 a83c d42d 873e 19b7 d43d 521b 11bd
000000b0: 4521 9abe 82c2 1a3e cc86 52bf 51fa ef3d
000000c0: 5817 dcbe 3813 bfbd 209d 7ebd 80a4 8ebc
000000d0: d1cb d9be 39e2 6f3f bc63 4abe 12f4 a83e
000000e0: 7779 bfbd c307 c93e fb5c 60b9 6f51 4cbe
000000f0: 467b 30be 6d84 b6be 2999 f73d 3dc2 0f3f
00000100: 846b 3dbf 1496 a73d d86c 1b3f 58b4 1bbf
00000110: dd8f db3e 47f1 be3b 2022 293d 9778 e73e
00000120: dade 1abf 4308 abbe 3dfa 723e 93e2 8e3e
00000130: b252 4dbe 9a24 1dbe dea7 17bd aa52 bbbe
00000140: 772a 54bd f5e7 2f3d 9f22 71be adeb cf3d
00000150: 681a f5bc 7450 0abe bc7b d1be d312 263e
00000160: 5f4f adbe cb33 5dbe e2a8 f7bc cffa 03bf
00000170: 95c4 953e a2f7 ca3e 5f6a 563e 368c 1e3f
00000180: f456 623d 3af9 8f3e a8b6 ff3e cbbb b2be
00000190: 9c26 b9be 2315 863e e21b a5be ee8a 56bc
000001a0: e52a 5a3f 008e 6ebe aef3 c93d 40fb 4dbe
000001b0: 68ad 44be e7d7 103d 6288 5bbe 9c9f e2bd
000001c0: e3db 083f 230e bb3e 8d7b 5bbd 324f c6bd
000001d0: a8ac e8be 3980 abbe 1ec6 303e 8db5 b3be
000001e0: 745b 103f 1b3b 96be c800 3ebf 5bc2 d43e
000001f0: 5c65 993e 9e11 c2be b69f b03d bc1f dabc
00000200: 693b 56bb 7b6a ca3e 82da bebe 62ba a6be
00000210: 6445 ef3c a869 dfbc 83b5 06bf 4bf9 39bd
00000220: 8a77 11bf 5089 6bbe b76b e3bd f1b5 123f
00000230: 49f3 0d3f 0477 ef3d f0ae a93e 81da 1e3e
00000240: 0d44 41bf bc1b 943e faeb 653e c621 24bd
00000250: 2beb 143f ec82 f0be c0f4 47be b559 ad3e
00000260: c777 4ebf 7fcd 513d d3c6 013f 23e8 aebd
00000270: 7a37 d2bd 8894 263f ee7b 963c 379b 2a3d
00000280: 43b0 cfbd 0827 d9be 8d25 26be 41ed a8be
00000290: 72b6 4a3e 008e a0be 5362 0c3f 53e3 823d
000002a0: 80bd 8f3d e1bc 323f 9366 493f f0e8 dd3c
000002b0: 893c 6cbe 0121 81be 8fb4 1f3e 7295 a2bc
000002c0: ce95 3ebf 2a08 813e 5155 143f 1eee c83e
000002d0: c460 2fbf a7d7 623d 6a73 e53d 3f1f 6fbe
000002e0: 59d0 db3e 76f8 df3e 04b5 993d 317b ba3e
000002f0: 1943 b73e f404 05bd 2030 59be 6410 9bbe
00000300: 2091 f63d e61f 94be 7e7d 823e c7f7 bf3d
00000310: 586a bc3e fae1 be3e ae2b 5e3e 5990 9dbc
00000320: c65f 5bbc 8f5d a4bd 7d2e bb3e 9e94 87bc
00000330: 6ab0 29be 31f6 953e efba 543f ad2f aebe
00000340: 9703 413e 63a7 be3e 20e9 8cbe eb40 7f3e
00000350: b002 a53e 78bc 39bf 3298 98be 92c9 a33e
00000360: a4dd 5fbe da38 143f 807b 883b fe43 5a3e
00000370: 62bc ac3d c39d 233f f5a8 c2bd dfcf 1fbe
00000380: 833c 65bd 0fce fc3a 152a fd3e 4743 4e3e
00000390: bd8b a7be f864 dbbd d3cf 38be 7db9 de3e
000003a0: 660f 2c3d b734 b0be 47d3 923d 76df ffbe
000003b0: 060a 0abf 64a5 fe3d 07c0 9cbe 2ea8 6bbe
000003c0: 48f0 9e3e 2adf 22bf 960d 6b3e a35b b4be
000003d0: df7f 2c3f 8e5a 62be 2108 12bf 5479 8ebd
000003e0: ff57 12bf 15ef 5d3d b65a 9d3d 4523 bd3e
000003f0: ad2f 86be 4936 d63e da24 aa3e bb4d 5b3e
-0.0927338 0.0022463265 0.024040822 -0.3145832 -0.3722082 0.17575721 0.48082998 -0.73549616
-0.35178557 0.34294367 0.6234227 -0.47659945 0.117212765 0.38144156 0.035900757 -0.3601826
0.13185814 -0.11787275 -0.3366412 -1.0349315 0.10432911 -0.46473303 -0.1573841 -0.5602449
-0.33002296 -0.19710678 0.33474928 0.05691789 0.7841416 0.4037226 0.102273576 0.2718044
-0.119942956 -0.45422685 0.11418566 -0.18069036 -0.46262214 0.017060807 -0.53674674 -0.969365
0.020625863 0.26402152 0.103864856 -0.035426445 -0.30103508 0.15113261 -0.82236934 0.11717666
-0.4298656 -0.093298376 -0.062161565 -0.017412424 -0.42538312 0.93704563 -0.19764608 0.3299871
-0.093493395 0.39263734 -0.00021396943 -0.1995294 -0.17234525 -0.35647908 0.1208976 0.5615576
-0.7399218 0.08182922 0.6071296 -0.6082206 0.42883196 0.0058271023 0.04129231 0.4520919
-0.60496294 -0.3340474 0.23728271 0.27907237 -0.20051077 -0.15345994 -0.037025325 -0.36586505
-0.05179831 0.04294582 -0.23548363 0.101523735 -0.029919818 -0.13507253 -0.40914714 0.16218118
-0.33849618 -0.21601789 -0.030231897 -0.5155458 0.29251543 0.39642054 0.20939015 0.61932695
0.055258706 0.28119832 0.49944043 -0.349089 -0.3616227 0.26188 -0.32247835 -0.013094647
0.852217 -0.23296356 0.09860931 -0.20115376 -0.19206774 0.03536215 -0.21438745 -0.11065599
0.5346052 0.36534223 -0.053584624 -0.09683074 -0.45444226 -0.33496264 0.17263076 -0.3509945
0.56389546 -0.2934197 -0.7421994 0.4155453 0.29960144 -0.37904066 0.086242124 -0.02662646
-0.003268922 0.39534363 -0.37276083 -0.32564074 0.029207893 -0.02727206 -0.52620715 -0.04540376
-0.5682303 -0.230016 -0.11104529 0.5730887 0.5544935 0.11692622 0.3314128 0.1551304
-0.7549446 0.2892741 0.22453299 -0.04007127 0.5817134 -0.46974885 -0.19526958 0.33857504
-0.80651516 0.051221367 0.50694007 -0.0854037 -0.102644876 0.6507039 0.018369641 0.04165193
-0.10141041 -0.4241259 -0.16225262 -0.3299351 0.1979616 -0.31358337 0.5483753 0.06391015
0.07018566 0.69819456 0.7867214 0.027088612 -0.23069967 -0.25220492 0.15596221 -0.019846652
-0.74447334 0.2520154 0.5794268 0.3924417 -0.6850703 0.055381443 0.11203654 -0.23351763
0.42932394 0.43744248 0.07505229 0.36422113 0.3579338 -0.032475427 -0.21209764 -0.30285943
0.12039399 -0.28930587 0.25486368 0.09373432 0.36799884 0.3728178 0.2169635 -0.01923387
-0.013389533 -0.080256574 0.36558905 -0.016550358 -0.16571203 0.29289392 0.8309774 -0.3402075
0.18849026 0.3723708 -0.2752161 0.24927108 0.32228613 -0.72553205 -0.29803616 0.31989723
-0.21861893 0.5789925 0.004165113 0.21315 0.08434369 0.639126 -0.09504882 -0.1560664
-0.05596591 0.0019287484 0.4944617 0.20142852 -0.327238 -0.10712618 -0.18048029 0.4350089
0.042006873 -0.34415218 0.07169204 -0.49975175 -0.53921545 0.124338895 -0.30615255 -0.23013374
0.31042695 -0.6362177 0.22954401 -0.35226163 0.67382616 -0.22104856 -0.57043654 -0.06956735
-0.5716552 0.054183085 0.07683317 0.3694097 -0.2620825 0.4183829 0.3323124 0.2141637

nee_decoder.2.bias f4 [16]
00000000: 1901 d5bc b62d d63c 6074 c3bc 8cb9 d4bc
00000010: ed81 d6bc c814 d6bc fd77 d43c 449e d33c
00000020: 28db d7bc 8641 d43c 864e d5bc 97d5 d5bc
00000030: e5c5 c7bc bad1 d63c f7f6 d8bc 8e21 d3bc
-0.0260015 0.026144844 -0.023859203 -0.025967382 -0.026185 -0.026132956 0.025936121 0.025832303
-0.026349619 0.02591015 -0.02603842 -0.026102824 -0.024386356 0.026223052 -0.02648495 -0.025772836

nee_decoder.3.weight f4 [1, 16]
00000000: 0011 80be a89b c03e bda9 3ebc c74f c9be
00000010: 22d4 cebe 8491 d7be fad4 1d3e c728 803e
00000020: 5d53 13bd 277a 8c3e 1fc9 22bf f90d 4fbe
00000030: 3ede 84bc 1861 be3d fe81 c1bd a34b 96bd
-0.2501297 0.37618756 -0.011637148 -0.39318678 -0.4039622 -0.42103207 0.15413275 0.2503111
-0.035968173 0.27436945 -0.63588136 -0.20220174 -0.016219255 0.09295863 -0.09448622 -0.07338645

fc_mu.0.weight f4 [4, 32]
00000000: 347e 023e a3e8 85bd 2920 083e b265 013e
00000010: d792 21be b41b fabc 2a7a 6abe f353 ce3e
00000020: 71b7 a33e 7c25 1c3e a5c3 843e 0416 84bd
00000030: 0db2 9a3e ee61 7ebe d107 62be dac5 233c
00000040: bfec b3bd cc22 7abe 815c fabc d097 1e3e
00000050: a766 e3be caee 643e fb7b a8be f966 9c3e
00000060: 97e3 d9bd ec21 a93d f871 053e b9e9 cf3e
00000070: 271e 50bd 90bf 28be 0c31 e23d 2d80 1fbe
00000080: c6fe 883e bfda 02be 8d2c 253e 1ce7 073d
00000090: 0247 2e3e 756b 753e f01b 82be 7200 8f3e
000000a0: 9fad 64be 9f20 083e 653b a7be 719f bbbe
000000b0: aaf6 923d 68e2 44be 60d7 c73c 5ff3 83be
000000c0: 31e0 c33d d9d4 83bd d3d7 9d3d b8c5 02be
000000d0: bcdc 053e 5d39 81be fd76 7cbd d15e e0be
000000e0: 616a 073f 5262 ebbd c454 88bd 3459 7f3e
000000f0: 064b adbe 9cb1 b2bd 5bb2 cf3c 85a9 c6bd
00000100: 4e51 62be 4e28 e0be 3e66 15be 7e11 963e
00000110: 5d9b 223d c4c1 2ebe eafa 2ebe 62be 89bd
00000120: 0007 a3be 00f9 e9bd 23db 0dbb 4ab6 cd3e
00000130: bbdc 2dbe 7eba 9bbd c719 293e 201e c2bc
00000140: a566 96be fb20 43bd 3a19 76be 4802 4fbe
00000150: f03f 103f 11b8 3abd 62bf 5bbd 9f18 36be
00000160: 31a3 1c3e 7e4a dc3d e185 fabd f9ed 3e3d
00000170: 4453 f7bd 9847 bfbe cb72 60bd c275 ef3e
00000180: 4e04 e83d ad45 ccbd e567 1bbe a5b1 b33e
00000190: af99 2ebd 2d3a 783e 6396 d8bd 2a80 7a3e
000001a0: 4c81 ab3e 6093 60bd bfc5 433e ed40 3dbe
000001b0: 449e ed3a dbd0 633e 0c88 2c3e dc36 b2be
000001c0: 66c4 8c3e e9fb 36be 4cf9 6bbd 7d67 a4be
000001d0: 44cd 76be cbdb f93d bfc6 a4bd 7dec d9be
000001e0: 370d 69be 3987 7e3e ae96 ef3e 9e45 3cbe
000001f0: c4b3 b53d 4dce d4bd 25e8 4dbc 1c37 dc3c
0.12743455 -0.065385126 0.13293518 0.1263645 -0.15778671 -0.030530788 -0.22898164 0.40298423
0.31975892 0.15248674 0.25930515 -0.06449512 0.30213967 -0.24842045 -0.22073294 0.009995902
-0.0878539 -0.24427336 -0.030561687 0.154876 -0.44414255 0.22356716 -0.3290709 0.30547312
-0.106391124 0.08258423 0.13031757 0.40608004 -0.050810006 -0.16479325 0.11044511 -0.15576239
0.26756877 -0.12778758 0.16130276 0.033179387 0.17019275 0.23966773 -0.2541194 0.27930027
-0.22331856 0.13293694 -0.32662502 -0.36645082 0.07175954 -0.19226992 0.024394691 -0.25771615
0.095642455 -0.06437082 0.07707181 -0.12770736 0.13072485 -0.25239077 -0.061636914 -0.4382234
0.52896696 -0.114933625 -0.06656793 0.24936372 -0.338463 -0.087252825 0.025353601 -0.09700302
-0.22101328 -0.4378075 -0.14589784 0.2931022 0.039698947 -0.17066103 -0.17087904 -0.06725766
-0.31841278 -0.11424446 -0.0021645508 0.40178138 -0.16978733 -0.0760393 0.1651374 -0.023696005
-0.29375187 -0.047638875 -0.2403306 -0.20215714 0.5634756 -0.045585696 -0.053649314 -0.1778283
0.15296628 0.10756396 -0.122325666 0.046613667 -0.120764285 -0.3735931 -0.054796975 0.4676953
0.11328946 -0.09974227 -0.15176351 0.3509647 -0.042627033 0.24240942 -0.10575559 0.24462953
0.33497083 -0.054828048 0.19118403 -0.18481798 0.0018128832 0.22247641 0.16848773 -0.3480748
0.2749359 -0.17869534 -0.057610795 -0.32110205 -0.2410174 0.12200125 -0.0804572 -0.4256324
-0.22758947 0.24856271 0.46794647 -0.18385932 0.08872178 -0.10390911 -0.012567555 0.026881747

fc_mu.0.bias f4 [4]
00000000: 3ab8 19bd 1ec7 19bd ddef 2a3d 7b2d 00bd
-0.037529208 -0.03754341 0.041732658 -0.031293374

fc_mu.1.weight f4 [1, 4]
00000000: 1768 27bf ed08 43be 47ce 763c 4077 a2bc
-0.65393203 -0.19046374 0.015063829 -0.019832253

fc_logvar.0.weight f4 [4, 32]
00000000: 347e 023e a3e8 85bd 2920 083e b265 013e
00000010: d792 21be b41b fabc 2a7a 6abe f353 ce3e
00000020: 71b7 a33e 7c25 1c3e a5c3 843e 0416 84bd
00000030: 0db2 9a3e ee61 7ebe d107 62be dac5 233c
00000040: bfec b3bd cc22 7abe 815c fabc d097 1e3e
00000050: a766 e3be caee 643e fb7b a8be f966 9c3e
00000060: 97e3 d9bd ec21 a93d f871 053e b9e9 cf3e
00000070: 271e 50bd 90bf 28be 0c31 e23d 2d80 1fbe
00000080: c6fe 883e bfda 02be 8d2c 253e 1ce7 073d
00000090: 0247 2e3e 756b 753e f01b 82be 7200 8f3e
000000a0: 9fad 64be 9f20 083e 653b a7be 719f bbbe
000000b0: aaf6 923d 68e2 44be 60d7 c73c 5ff3 83be
000000c0: 31e0 c33d d9d4 83bd d3d7 9d3d b8c5 02be
000000d0: bcdc 053e 5d39 81be fd76 7cbd d15e e0be
000000e0: 616a 073f 5262 ebbd c454 88bd 3459 7f3e
000000f0: 064b adbe 9cb1 b2bd 5bb2 cf3c 85a9 c6bd
00000100: 4e51 62be 4e28 e0be 3e66 15be 7e11 963e
00000110: 5d9b 223d c4c1 2ebe eafa 2ebe 62be 89bd
00000120: 0007 a3be 00f9 e9bd 23db 0dbb 4ab6 cd3e
00000130: bbdc 2dbe 7eba 9bbd c719 293e 201e c2bc
00000140: a566 96be fb20 43bd 3a19 76be 4802 4fbe
00000150: f03f 103f 11b8 3abd 62bf 5bbd 9f18 36be
00000160: 31a3 1c3e 7e4a dc3d e185 fabd f9ed 3e3d
00000170: 4453 f7bd 9847 bfbe cb72 60bd c275 ef3e
00000180: 4e04 e83d ad45 ccbd e567 1bbe a5b1 b33e
00000190: af99 2ebd 2d3a 783e 6396 d8bd 2a80 7a3e
000001a0: 4c81 ab3e 6093 60bd bfc5 433e ed40 3dbe
000001b0: 449e ed3a dbd0 633e 0c88 2c3e dc36 b2be
000001c0: 66c4 8c3e e9fb 36be 4cf9 6bbd 7d67 a4be
000001d0: 44cd 76be cbdb f93d bfc6 a4bd 7dec d9be
000001e0: 370d 69be 3987 7e3e ae96 ef3e 9e45 3cbe
000001f0: c4b3 b53d 4dce d4bd 25e8 4dbc 1c37 dc3c
0.12743455 -0.065385126 0.13293518 0.1263645 -0.15778671 -0.030530788 -0.22898164 0.40298423
0.31975892 0.15248674 0.25930515 -0.06449512 0.30213967 -0.24842045 -0.22073294 0.009995902
-0.0878539 -0.24427336 -0.030561687 0.154876 -0.44414255 0.22356716 -0.3290709 0.30547312
-0.106391124 0.08258423 0.13031757 0.40608004 -0.050810006 -0.16479325 0.11044511 -0.15576239
0.26756877 -0.12778758 0.16130276 0.033179387 0.17019275 0.23966773 -0.2541194 0.27930027
-0.22331856 0.13293694 -0.32662502 -0.36645082 0.07175954 -0.19226992 0.024394691 -0.25771615
0.095642455 -0.06437082 0.07707181 -0.12770736 0.13072485 -0.25239077 -0.061636914 -0.4382234
0.52896696 -0.114933625 -0.06656793 0.24936372 -0.338463 -0.087252825 0.025353601 -0.09700302
-0.22101328 -0.4378075 -0.14589784 0.2931022 0.039698947 -0.17066103 -0.17087904 -0.06725766
-0.31841278 -0.11424446 -0.0021645508 0.40178138 -0.16978733 -0.0760393 0.1651374 -0.023696005
-0.29375187 -0.047638875 -0.2403306 -0.20215714 0.5634756 -0.045585696 -0.053649314 -0.1778283
0.15296628 0.10756396 -0.122325666 0.046613667 -0.120764285 -0.3735931 -0.054796975 0.4676953
0.11328946 -0.09974227 -0.15176351 0.3509647 -0.042627033 0.24240942 -0.10575559 0.24462953
0.33497083 -0.054828048 0.19118403 -0.18481798 0.0018128832 0.22247641 0.16848773 -0.3480748
0.2749359 -0.17869534 -0.057610795 -0.32110205 -0.2410174 0.12200125 -0.0804572 -0.4256324
-0.22758947 0.24856271 0.46794647 -0.18385932 0.08872178 -0.10390911 -0.012567555 0.026881747

fc_logvar.0.bias f4 [4]
00000000: 3ab8 19bd 1ec7 19bd ddef 2a3d 7b2d 00bd
-0.037529208 -0.03754341 0.041732658 -0.031293374

fc_logvar.1.weight f4 [1, 4]
00000000: 1a3d 38bd 910f bc3d 57f3 e7bd 0304 473c
-0.044980146 0.091826566 -0.1132571 0.012146953

temp_derivative_decoder.0.weight f4 [16, 32]
00000000: 4e5e 95be e83b 0bbf b840 03bf 3c3e 853e
00000010: 6e3d 46bf 0bcc c6be 81bb 67be 4e73 98be
00000020: b0a8 68be df46 003e 2581 3abe 82cc 2fbe
00000030: 81be 1b3f bb9e 21bf 64d3 ed3e baeb b6be
00000040: 2e23 bb3e 72e3 bd3d f8b7 b03e b6b3 70be
00000050: e089 b33d 2775 813e 00b9 cabe e216 1bbf
00000060: f030 8f3e 38c3 003f 17d5 223e a317 10be
00000070: 2ef6 4bbe 953e e53e 5088 b3be 1448 8f3d
00000080: a548 48bd c73b 83be 1900 3abe de2e 553d
00000090: 8faf 33bd 2b84 e0be b6b0 873e 7a02 a0bb
000000a0: fb04 6d3d 6a0f f43d 4eab 593e b64b 433e
000000b0: 4064 28be cb35 e83c e239 a83d 18ee 7b3e
000000c0: 7d74 3f3e f564 22be 5edc adbe 32ca 25bf
000000d0: 005e 793d cd65 823e df1c 2e3e 9d29 ba3d
000000e0: e92a 2b3e 6097 23be e474 a33c 94d3 0a3d
000000f0: af44 f3bd 28eb 093e bf8b 0c3f 1ab2 16be
00000100: 73a1 353d b76f 1a3e 90c2 783e f3f8 87bd
00000110: 1619 673e b3f4 a03d e4c8 8a3b c4b7 06bd
00000120: 6197 1cbd c336 42bd 8c35 8c3e 4626 1bbe
00000130: 750c a53d 4eb8 edbd 9744 193d 8387 9e3d
00000140: 4661 d73e 0a7b 173e 67fc 0ebe c484 353e
00000150: d60c 8bbe 6e78 89be 48d9 9dbe 15e4 a63e
00000160: d3df e4be 4709 e4bd f03d 363d 52e2 d4be
00000170: 8692 e9be 889a 18be d8a7 b63d b67c 843b
00000180: 964d 9bbe 5640 813e 00da f93e 9011 523d
00000190: 3c77 c73e 8adc 3bbd 348f a2bd eeeb 303d
000001a0: 49bd 33bd 9f25 953e 091c 84bd f96d 9d3e
000001b0: f58b f6be da49 2c3e 958a 88be 4ef0 993e
000001c0: 97ff 24be 2dc4 c9bc 7b48 71be 5831 d03d
000001d0: 7af3 6dbe 668c 02bc 58f8 b53e 12c6 803e
000001e0: a7f9 0f3e 1772 b5be 50d9 d83e 0228 893e
000001f0: 9481 9b3e ad05 2fbe 3493 65bd 9431 b3bd
00000200: d9ac f2be 5368 c4bd ec6c e03e e6e5 ae3e
00000210: ff6f 47be 0768 1abe cdaf 2bbe b226 113d
00000220: 463b 103e 21f5 083e 3a44 d53e b957 2bbe
00000230: b7d1 90be 65a1 7abd ffbd 75bd 8492 b6be
00000240: 4c86 b03d 0662 11be c831 6fbd aff0 803e
00000250: f84e b2bd ab0a 0dbe 2b83 e23e 9afa 94bd
00000260: 70ae 05be 451d 833e c75b 193f 3a63 cd3d
00000270: ff7a 5fbc e76f e63d 44df a3bd 0718 d33e
00000280: b21d 28be b570 ca3e 65c4 443e 3cbd b93d
00000290: 8d7d 683f 7ff0 ec3e 2aac f83b df2c 973e
000002a0: 72a3 0dbc 722b a1bc 99e9 c63d 43f1 7fbe
000002b0: db67 373d c773 023d 9586 f93b 33d0 0d3d
000002c0: 2a5f 833e 8bd8 10be d598 c3bd db1b 62bd
000002d0: 1594 8d3e e427 113d 9ca3 203e c28b 723e
000002e0: 6c7f babd 6467 06bf c636 53be 1c5e d4bd
000002f0: d110 5ebd 113e df3d 014f e23e dd70 64be
00000300: 4cd7 6dbe cab8 b03e f8d9 a2be 63d9 653d
00000310: ee71 67be 6ce5 da3e 31e6 cf3e c13b 97bd
00000320: 0aca 98be aa20 073f fad3 0bbe b15a bfbe
00000330: 49c5 c93e 085b 41be 2a2c 15be 6e53 c0bd
00000340: 507f 8dbd 5980 473d 1ee5 213e 3fd3 773e
00000350: 7669 983e 5836 10be 129e 063e a88d cf3e
00000360: dfda f0bd 25f0 96be 52e9 ff3e 7f56 6b3e
00000370: 4011 01bf 4f55 8dbe 5927 17be 2bf6 6e3e
00000380: 2770 aebd 6cb9 5bbe 3e25 fbbd dbbc d4bd
00000390: 4e4b b6be e7aa fe3e 40df 973e e3fd 9c3d
000003a0: d461 373e 882c 44be 2452 0e3e df0a e4be
000003b0: 8f30 cb3e 1d9a 9abe 4fbd 07be e0ba 10bb
000003c0: d7ff 57be 0bc9 09be db36 5abe 4d9f 1fbe
000003d0: fb65 483e 0d08 8dbe 58c8 913e 87e2 a03c
000003e0: d0a8 9b3e 9c23 80bd ee9c e43d 2a12 c1bd
000003f0: 5495 b33e de62 83bc f3fb 86be d9f9 b7be
-0.2917351 -0.54388285 -0.5127063 0.26024044 -0.77437484 -0.38827547 -0.22630121 -0.2977547
-0.22720599 0.12527035 -0.18213327 -0.17167857 0.6083756 -0.6313283 0.4645034 -0.3572672
0.36550277 0.092718974 0.34515357 -0.23506054 0.08766532 0.25284693 -0.3959427 -0.6058179
0.27967024 0.5029788 0.159016 -0.14071517 -0.19918129 0.4477431 -0.35064936 0.0699617
-0.048897404 -0.25631544 -0.181641 0.05204665 -0.043868598 -0.43850836 0.26502007 -0.0048831077
0.057866078 0.119170025 0.21256754 0.1907185 -0.16444492 0.028345963 0.08214165 0.24602544
0.1869678 -0.15858825 -0.3395719 -0.6476165 0.06088066 0.25468293 0.17003201 0.09089968
0.16715588 -0.15975714 0.019953199 0.033893183 -0.11878335 0.13468611 0.54900736 -0.14716378
0.044343423 0.15081678 0.2429297 -0.0663928 0.22568163 0.07859173 0.004235374 -0.032890096
-0.038230304 -0.047415506 0.27384603 -0.15151319 0.080590166 -0.11607419 0.037418928 0.077406906
0.420664 0.1479303 -0.13963471 0.17726427 -0.2715823 -0.26849693 -0.30829835 0.32595888
-0.44702014 -0.11134582 0.044492662 -0.4157892 -0.456196 -0.14902699 0.089187324 0.004043187
-0.3033263 0.25244397 0.48799133 0.05128628 0.38958156 -0.04586462 -0.0793747 0.04319375
-0.04388169 0.29130265 -0.0645066 0.30747965 -0.48153654 0.16825047 -0.2666823 0.3006615
-0.16113125 -0.024629677 -0.23562805 0.101656616 -0.2323741 -0.007968044 0.35541034 0.25151116
0.14060079 -0.35438606 0.42353296 0.26788336 0.30372298 -0.17092009 -0.056048587 -0.08749691
-0.47397497 -0.09590211 0.438331 0.34159774 -0.19476317 -0.15078746 -0.16766281 0.035437293
0.14085111 0.1337476 0.41653615 -0.16732682 -0.28285 -0.061189074 -0.059995648 -0.35658658
0.08619365 -0.14197549 -0.058397084 0.25183627 -0.08706468 -0.13773601 0.44240698 -0.07274361
-0.13054824 0.25608268 0.59905666 0.100286916 -0.013640164 0.112518124 -0.08001569 0.4122927
-0.16417578 0.39539114 0.19215544 0.09069297 0.90816575 0.46277234 0.007588883 0.2952642
-0.008644925 -0.019674037 0.09712524 -0.24994378 0.04477678 0.031848695 0.0076149204 0.034622382
0.25658542 -0.14145105 -0.09550635 -0.055202346 0.2765204 0.035438433 0.15687412 0.23686126
-0.09106335 -0.5250151 -0.20626363 -0.103695124 -0.054215256 0.1090051 0.442009 -0.22308679
-0.2322666 0.34515983 -0.31806922 0.05611552 -0.22602054 0.4275316 0.4060531 -0.07384444
-0.29841644 0.52784216 -0.13655081 -0.3737388 0.3940833 -0.18882382 -0.14567629 -0.09390913
-0.069090486 0.048706386 0.15810058 0.24201678 0.2976796 -0.1408323 0.13146237 0.40537763
-0.11760496 -0.2948009 0.49982697 0.22982214 -0.50416946 -0.27604148 -0.14761104 0.23336093
-0.08517485 -0.21457452 -0.12262963 -0.10387584 -0.35604328 0.49739763 0.29662514 0.076656125
0.17908412 -0.19157612 0.13898522 -0.44539544 0.39685485 -0.30195704 -0.13255809 -0.0022084042
-0.21093689 -0.13455598 -0.21309988 -0.15588112 0.19570152 -0.27545205 0.28473163 0.019639267
0.3040223 -0.06256792 0.111627445 -0.09427293 0.35074866 -0.016038354 -0.26364097 -0.35932806

temp_derivative_decoder.0.bias f4 [16]
00000000: dbb6 3c3e 8ad7 f6bb 8474 de3d f8ab fabb
00000010: 15e3 f7bb 5682 f2bb 0000 0000 0000 0000
00000020: 0000 0000 a461 f8bb 849b fd3b 3ef5 d0bb
00000030: 02a5 f8bb 65e3 03bc d52c de3d ad8e f6bb
0.18429129 -0.0075330185 0.10862067 -0.007649895 -0.007564912 -0.007400791 0.0 0.0
0.0 -0.007579999 0.007739486 -0.0063768914 -0.00758803 -0.008049821 0.10848395 -0.0075243325
