.archive/piae_sde/experiments/2024-11-25_16-28-22-146595/best_model.pth (torch, 25122 bytes, 28 tensors)

encoder.0.weight f4 [16, 18]
0.33233243 -0.33882776 0.14306353 -0.4583882 -0.11693863 -0.33075693 -0.102143556 -0.32780626
-0.096633226 -0.27639377 0.10171639 0.03482662 0.007062692 -0.03475439 0.18684302 0.22226258
0.07879977 0.2330939 -0.38630116 -0.09011078 -0.17588122 0.30184224 -0.55483764 -0.7189415
-0.17613973 0.03167072 -0.19666788 0.9043398 -0.13760495 -0.35953012 0.18915966 0.3755982
0.40609002 -0.17464392 -0.10838377 -0.15708818 0.04756625 -0.19088453 -0.09952772 -0.19898847
0.09868779 0.06628826 0.049415827 0.3533725 -0.024792679 0.83632016 0.19638929 0.4461227
0.34681952 0.6497313 0.39614317 -0.34832942 -0.73215926 -0.35914975 -0.30564532 -0.18299973
0.16530451 -0.001432912 0.03662146 0.26224285 0.055584133 0.054878052 0.18036157 0.01203544
-0.8056786 0.023121012 -0.12616865 -0.17842826 0.00050247926 -0.5954602 0.18538068 0.48288837
-0.018035937 0.08745037 0.3245554 -0.47068843 0.21878046 0.08265059 -0.033933852 -0.07592938
0.2733056 -0.050345764 -0.6081956 0.04548037 -0.059346307 0.2499768 0.14495292 -0.72822165
0.24055839 0.2381342 0.03131886 -0.22290888 0.25755012 0.01953758 0.4528651 1.0347838
0.24319321 -0.26401645 0.116721615 0.5476854 -0.00083180465 0.18900329 -0.49449417 -0.20618382
0.11054283 0.10171868 -0.13301155 -0.5261692 0.27521706 0.16440958 0.3953377 0.14765023
-0.12830117 -0.20679751 -0.07809425 0.4595108 -0.118320785 0.5289515 0.06337853 0.06767519
0.030132733 0.12229412 0.16889973 0.10657511 0.14528932 0.5941247 -0.07594761 -0.030217117
0.4250602 -0.26567805 0.585317 0.17760825 -0.07393756 -0.2132836 -0.86183494 -0.49045306
-0.28950182 0.11681002 0.004091245 0.38237277 -0.05156075 0.278989 -0.16660424 -0.02734482
-0.6556299 0.20242749 0.23011526 0.30528447 -0.042028334 -0.16914767 -0.42675555 -0.1921113
0.43078864 -0.06752805 0.717411 -0.15901022 -0.31821507 -0.15568784 0.16540304 -0.117222846
-0.43324995 -0.040843606 0.23508894 0.002607237 -0.0983847 0.3811175 -0.042960133 -0.026994664
0.392062 0.06970996 -0.37260225 -0.44820556 0.39113688 0.30055383 -0.083412774 0.038680065
-0.704044 0.3944382 0.14687681 -0.7646899 0.115035385 -0.27787125 -0.44092092 0.9776875
0.042001285 -0.39268023 -0.3870629 -0.4708223 -0.34092194 -0.21092173 0.17629841 -0.22457503
0.10646796 -0.246464 0.46494576 -0.22961256 -0.38350475 0.25963274 -0.04281136 0.11337549
0.18130739 0.28923422 -0.31988576 0.0014974745 0.29363286 0.33655837 0.0057379813 0.7833465
0.40594655 0.12041797 0.040379338 -0.59153086 0.06179975 -0.20806506 0.09903549 0.33416638
0.14843446 0.09428632 -0.095106706 0.5781079 0.018441955 0.16576461 0.23347977 0.06474008
-0.005160876 -0.90750825 -0.17602524 0.11608982 -0.12221458 -0.4603812 -0.045654435 -0.026689624
0.334957 -0.64048964 0.70213336 0.32219964 -0.48467728 0.13431929 0.6679651 0.26506218
-0.19479297 0.015557349 0.06851259 0.15934896 0.60806036 -0.16545157 0.22644748 0.2890131
0.21974716 0.19731614 0.1701102 0.58015656 -0.53402996 -0.083406284 0.16521478 -0.35331857
00000000: 7a27 aa3e d57a adbe 3f7f 123e dcb1 eabe
00000010: 857d efbd f958 a9be a430 d1bd 39d6 a7be
00000020: a4e7 c5bd 7c83 8dbe af50 d03d 5ca6 0e3d
00000030: 286e e73b 9f5a 0ebd c753 3f3e cd98 633e
00000040: c661 a13d 2bb0 6e3e 44c9 c5be 008c b8bd
00000050: 351a 34be 118b 9a3e d709 0ebf 8d0c 38bf
00000060: f95d 34be 28b9 013d 4e63 49be d082 673f
00000070: 50e8 0cbe 5514 b8be 12b3 413e 684e c03e
00000080: 08eb cf3e dbd5 32be 4ff8 ddbd b9db 20be
00000090: d4d4 423d 3c77 43be 30d5 cbbd a2c3 4bbe
000000a0: d31c ca3d 24c2 873d 4068 4a3d 3eed b43e
000000b0: 041a cbbc 1419 563f 461a 493e 326a e43e
000000c0: 5492 b13e ca54 263f 47d3 ca3e 3c58 b2be
000000d0: ca6e 3bbf 7ae2 b7be 8b7d 9cbe 4864 3bbe
000000e0: 9645 293e 8cd0 bbba 6200 163d b244 863e
000000f0: 30ac 633d cfc7 603d b4b0 383e 4b30 453c
00000100: f440 4ebf 4768 bd3c 5b32 01be e6b5 36be
00000110: d0b8 033a 1470 18bf 6fd4 3d3e 253d f73e
00000120: 1ac0 93bc 2e19 b33d 202c a63e 13fe f0be
00000130: fc07 603e b644 a93d 39fe 0abd dd80 9bbd
00000140: b6ee 8b3e 5c37 4ebd b5b2 1bbf a049 3a3d
00000150: 1d15 73bd ebf9 7f3e 8a6e 143e bc6c 3abf
00000160: f054 763e 74d9 733e 3448 003d 3a42 64be
00000170: 9cdd 833e 460d a03c efdd e73e cc73 843f
00000180: a407 793e 2a2d 87be be0b ef3d 1c35 0c3f
00000190: 770d 5aba 148a 413e 572e fdbe da21 53be
000001a0: 4764 e23d e251 d03d 2e34 08be 06b3 06bf
000001b0: 40e9 8c3e fc5a 283e b469 ca3e 9f31 173e
000001c0: 6261 03be bac2 53be e1ef 9fbd 0045 eb3e
000001d0: 2b52 f2bd 5e69 073f 9acc 813d 4a99 8a3d
000001e0: ecd8 f63c 5775 fa3d 0df4 2c3e 0d44 da3d
000001f0: b9c6 143e 8e18 183f 6c8a 9bbd e389 f7bc
00000200: 7ea1 d93e f406 88be 56d7 153f f0de 353e
00000210: 936c 97bd 0467 5abe 37a1 5cbf aa1c fbbe
00000220: 9539 94be 173a ef3d da0f 863b 5dc6 c33e
00000230: 5d31 53bd a5d7 8e3e 4d9a 2abe 3e02 e0bc
00000240: 5cd7 27bf 2749 4f3e 56a3 6b3e 3f4e 9c3e
00000250: e725 2cbd 0c35 2dbe b47f dabe d3b8 44be
00000260: 5490 dc3e 254c 8abd 3fa8 373f 93d3 22be
00000270: 16ed a2be a26c 1fbe 6a5f 293e 8812 f0bd
00000280: f0d2 ddbe a04b 27bd 28bb 703e 2ede 2a3b
00000290: eb7d c9bd d521 c33e f7f6 2fbd ea23 ddbc
000002a0: 5abc c83e 18c4 8e3d b9c5 bebe 337b e5be
000002b0: 1843 c83e 31e2 993e 51d4 aabd fd6e 1e3d
000002c0: 3a3c 34bf cef3 c93e e066 163e b8c2 43bf
000002d0: ac97 eb3d 2445 8ebe 63c0 e1be ba49 7a3f
000002e0: 8a09 2c3d 620d c9be 1c2d c6be 9f0f f1be
000002f0: 528d aebe defb 57be 9287 343e fff6 65be
00000300: e00b da3d 0f61 7cbe 5f0d ee3e 8e1f 6bbe
00000310: bc5a c4be 95ee 843e f75a 2fbd 6931 e83d
00000320: a5a8 393e 8216 943e 11c8 a3be e846 c43a
00000330: 0c57 963e 6151 ac3e ad05 bc3b 6589 483f
00000340: 3ad8 cf3e b29d f63d ce64 253d 916e 17bf
00000350: bc21 7d3d 020f 55be 1ed3 ca3d db17 ab3e
00000360: 34ff 173e 3019 c13d 4ec7 c2bd e1fe 133f
00000370: 9513 973c 33be 293e 5215 6f3e 7296 843d
00000380: 911c a9bb 7652 68bf f63f 34be 80c0 ed3d
00000390: a34b fabd 16b7 ebbe 2500 3bbd 33a4 dabc
000003a0: 7c7f ab3e 21f7 23bf 03bf 333f 5af7 a43e
000003b0: 9f27 f8be ff8a 093e c3ff 2a3f 3bb6 873e
000003c0: cf77 47be 40e4 7e3c 5450 8c3d 602c 233e
000003d0: d8a9 1b3f 236c 29be d9e1 673e 86f9 933e
000003e0: 6605 613e 3e0d 4a3e 5e31 2e3e 2485 143f
000003f0: 30b6 08bf ead0 aabd 102e 293e 2ce6 b4be

encoder.0.bias f4 [16]
-0.020748902 -0.03871588 0.0 -0.03907405 -0.103981614 0.0 -0.07085718 -0.05574698
0.0 0.1497633 0.0 0.0017355854 -0.08003042 0.12802058 0.0 0.0
00000000: 9af9 a9bc 8b94 1ebd 0000 0000 1c0c 20bd
00000010: 50f4 d4bd 0000 0000 921d 91bd f256 64bd
00000020: 0000 0000 8d5b 193e 0000 0000 957c e33a
00000030: fde6 a3bd d417 033e 0000 0000 0000 0000

encoder.2.weight f4 [16, 16]
-0.6031265 -0.23570226 0.5850405 -0.2714771 -0.58271223 0.5532936 0.3901969 0.31845015
0.27864352 0.12807454 -0.2032277 0.3002739 -0.2646933 0.2015424 0.18346722 -0.45358235
-0.07462581 -0.46756536 -0.40082648 -0.9971014 -0.1993802 -0.08808577 -0.31994674 -0.039492134
-0.37909284 -0.3511918 -0.11203984 0.5322597 0.41454569 0.07920823 -0.18841459 -0.067759536
0.2924641 -0.6987915 -0.6271039 -0.25864094 0.6804842 0.2582101 0.3152467 -0.7994727
-0.18703075 -0.024732117 0.35492772 -0.44559175 0.4500787 -0.54122907 0.057577167 0.32773396
-0.40406895 -0.32947138 0.107617654 -0.1458662 0.1098963 0.5331182 -0.3078722 0.0227494
0.21292228 0.0031380353 0.57622975 -0.38062534 0.43858892 0.14173585 0.12636612 -0.31952626
0.17172734 -0.12723067 0.30839646 0.17402527 0.0446474 -0.44247344 0.30976906 -0.37914816
-0.04683133 -0.042986628 -0.023268769 0.48017225 0.022541262 -0.17627244 -0.2987192 -1.1163929
-0.63320434 0.16616985 -0.14372765 -0.12047296 0.17445211 0.2829286 0.92011756 0.6420274
-0.3099533 -0.649983 0.4429424 0.25983244 -0.0706562 -0.3545108 0.299475 0.15984307
-0.034696326 -0.20650886 -0.066598214 0.40014973 0.408332 0.56350607 -0.57045305 0.38127795
0.028220257 0.42577857 -0.18652226 -0.44647658 -0.80473953 0.23557192 -0.3085127 0.4272818
-0.41901731 0.083883636 0.050516505 0.23793809 -0.23157814 -0.09946797 0.7179135 -0.5163877
0.030943595 0.25960654 -0.51688546 -0.07993144 -0.41860232 0.50619483 0.7820207 -0.273573
-0.2647966 -0.46193314 -0.008322737 -0.1826837 -0.30531806 0.073624745 0.15402006 0.2901337
0.090056464 0.048207108 0.2303517 -0.2796698 0.200082 -0.5793933 1.0374374 0.42076808
-0.24313267 0.028919697 0.30803645 -0.4187671 0.4070159 0.21434899 -0.074235156 0.28588596
-0.03963952 -0.429046 0.42454782 0.5581497 0.18062264 -0.60653085 -0.05545586 0.07513966
0.389007 0.32182863 0.66510415 0.020327542 0.08645221 -0.12268817 -0.41039848 0.12095884
-0.77224225 0.22515039 -0.04394276 0.31092876 -0.122570254 0.38042694 0.044824146 0.45140207
0.4344239 0.4806374 -0.28400967 0.19616507 -0.13209721 0.24050824 0.80799055 0.14577837
-0.25109616 -0.36871794 0.3540541 0.21170942 -0.24950507 -0.10252405 -0.34266022 0.0815275
-0.3404998 -0.24406454 0.4090516 -0.67462635 -0.22056198 -0.017114742 1.0496174 -0.3497334
-0.079777874 -0.14383931 -0.1585011 -0.41896978 -0.13854635 -0.113677256 -0.68469816 0.23482066
-0.44634083 0.016760714 0.17717957 0.27971897 0.66308177 0.05566545 0.017742546 0.044773504
-0.6433786 0.6827272 0.9933769 -0.2798625 -0.63009167 -0.18450688 0.44763935 -0.05209952
-1.083628 -0.764273 -0.39448485 0.39182234 -0.037879974 0.29093334 0.061423924 -0.17259654
0.7935345 0.036102667 0.22021724 -0.09133847 -0.24498901 -0.13769686 0.20797838 -0.47805062
-0.09310318 0.36233684 0.35318047 -0.37699428 0.6119119 -0.39967528 0.010124876 0.38387346
-0.720737 0.4236283 -0.61221194 -0.25022325 -0.40753263 -0.030855153 0.10854465 -0.15003745
00000000: 8066 1abf ef5b 71be 37c5 153f 0cff 8abe
00000010: a12c 15bf a6a4 0d3f e3c7 c73e e60b a33e
00000020: 5daa 8e3e f925 033e ec1a 50be 80bd 993e
00000030: e185 87be 2261 4e3e d5de 3b3e f23b e8be
00000040: 6bd5 98bd ba64 efbe 2139 cdbe 0a42 7fbf
00000050: 532a 4cbe 5066 b4bd 0fd0 a3be 81c2 21bd
00000060: 7518 c2be 69cf b3be 2575 e5bd 2c42 083f
00000070: 553f d43e ed37 a23d c1ef 40be 83c5 8abd
00000080: dbbd 953e 00e4 32bf e289 20bf 966c 84be
00000090: 3634 2e3f 1d34 843e 0468 a13e 3eaa 4cbf
000000a0: fd84 3fbe 029b cabc 16b9 b53e 9a24 e4be
000000b0: b770 e63e fd8d 0abf 09d6 6b3d bfcc a73e
000000c0: 20e2 cebe 79b0 a8be a566 dc3d f35d 15be
000000d0: 5011 e13d 6f7a 083f 6da1 9dbe f35c ba3c
000000e0: 4c08 5a3e 7fa7 4d3b cb83 133f 53e1 c2be
000000f0: ba8e e03e 3423 113e 1f66 013e f298 a3be
00000100: 4bd9 2f3e c248 02be 24e6 9d3e ae33 323e
00000110: 31e0 363d e18b e2be 0d9a 9e3e b51f c2be
00000120: 35d2 3fbd bf12 30bd 259e bebc 23d9 f53e
00000130: 74a8 b83c c380 34be b9f1 98be f6e5 8ebf
00000140: ae19 22bf 6e28 2a3e 572d 13be 87ba f6bd
00000150: 93a3 323e 04dc 903e d38c 6b3f e85b 243f
00000160: 33b2 9ebe 4965 26bf 59c9 e23e c208 853e
00000170: 33b4 90bd 7182 b5be ca54 993e e7ad 233e
00000180: bc1d 0ebd 0f77 53be a564 88bd 6de0 cc3e
00000190: e410 d13e ef41 103f 3609 12bf dd36 c33e
000001a0: 2b2e e73c a6ff d93e b1ff 3ebe 9498 e4be
000001b0: 6903 4ebf c439 713e 60f5 9dbe aec4 da3e
000001c0: 7089 d6be 2fcb ab3d 65ea 4e3d 0ba6 733e
000001d0: d222 6dbe ddb5 cbbd 2ec9 373f fc31 04bf
000001e0: 6c7d fd3c 26eb 843e 9b52 04bf 18b3 a3bd
000001f0: 0b53 d6be fc95 013f 8232 483f c311 8cbe
00000200: 6c93 87be 8082 ecbe 175c 08bc 7011 3bbe
00000210: a652 9cbe 92c8 963d 6fb7 1d3e 688c 943e
00000220: 866f b83d d174 453d 51e1 6b3e e130 8fbe
00000230: 4ce2 4c3e 1f53 14bf c0ca 843f ea6e d73e
00000240: c5f7 78be 00e9 ec3c f4b6 9d3e a468 d6be
00000250: 6364 d03e 4d7e 5b3e 9a08 98bd a55f 923e
00000260: 0d5d 22bd ebab dbbe 555e d93e e6e2 0e3f
00000270: 24f5 383e 9b45 1bbf af25 63bd d2e2 993d
00000280: ed2b c73e b9c6 a43e 4444 2a3f f285 a63c
00000290: db0d b13d ef43 fbbd c01f d2be 45b9 f73d
000002a0: abb1 45bf d38d 663e 53fd 33bd 0e32 9f3e
000002b0: 1d06 fbbd 52c7 c23e 8699 373d 2c1e e73e
000002c0: cf6c de3e 1b16 f63e b769 91be 7fdf 483e
000002d0: 7e44 07be cb47 763e 78d8 4e3f ed46 153e
000002e0: ad8f 80be 99c8 bcbe 9446 b53e 5bca 583e
000002f0: 427e 7fbe 21f8 d1bd 2971 afbe e4f7 a63d
00000300: fd55 aebe 0eec 79be 366f d13e 50b4 2cbf
00000310: 00db 61be 3734 8cbc dd59 863f 4210 b3be
00000320: 9562 a3bd 9d4a 13be 1d4e 22be 3583 d6be
00000330: 18df 0dbe 9fcf e8bd 6148 2fbf d474 703e
00000340: c986 e4be c44d 893c 906e 353e 5337 8f3e
00000350: babf 293f 7401 643d d158 913c 6c64 373d
00000360: 76b4 24bf 36c7 2e3f f34d 7e3f 234a 8fbe
00000370: b04d 21bf 5fef 3cbe fc30 e53e 4e66 55bd
00000380: 53b4 8abf 65a7 43bf ebf9 c9be f09c c83e
00000390: 0828 1bbd 37f5 943e a797 7b3d 26bd 30be
000003a0: 1425 4b3f 64e0 133d a180 613e aa0f bbbd
000003b0: 66de 7abe 6800 0dbe 49f8 543e 0dc3 f4be
000003c0: e1ac bebd 3784 b93e 12d4 b43e 6505 c1be
000003d0: 42a6 1c3f 3da2 ccbe cfe2 253c 108b c43e
000003e0: 3882 38bf cfe5 d83e ecb9 1cbf 431d 80be
000003f0: 1ea8 d0be f2c3 fcbc a84c de3d 6ba3 19be

encoder.2.bias f4 [16]
0.05474445 0.042430237 -0.12942876 -0.11587124 -0.08630624 0.005493104 0.11172951 0.08443884
-0.007596255 -0.06984861 0.074219935 0.049334787 0.055473827 -0.09820528 -0.018584156 0.019534554
00000000: b73b 603d 54cb 2d3d f988 04be e74d edbd
00000010: 53c1 b0bd 7fff b33b 71d2 e43d 45ee ac3d
00000020: 01ea f8bb ca0c 8fbd 9f00 983d 4613 4a3d
00000030: 8638 633d da1f c9bd cd3d 98bc ee06 a03c

encoder.3.weight f4 [32, 16]
-0.8570375 0.5390984 -0.08517937 -0.33627522 -0.57264954 0.22529186 -0.13853338 -0.33211455
0.017310692 0.2540006 0.44991666 0.9000984 0.47463182 0.16860288 0.17141134 -0.46004915
-0.26935336 0.00046723627 0.123203605 -0.37375766 -0.17843312 -0.8074881 0.83074266 -0.01221406
-0.18009168 -0.017188402 0.5105004 0.32465369 -0.28064862 -0.03473536 -0.52785486 -0.109636836
0.08616122 -0.17688198 0.035200205 -0.17699441 0.10972283 0.38741627 0.03195799 -0.37647003
0.48006317 0.15030245 -0.12738812 -0.6510168 0.003501024 -0.05811301 0.116084136 -0.22110187
-0.22243278 0.16402118 -0.54783785 0.054089356 -0.09863538 -0.44305128 -0.5727281 -0.09006617
-0.2797297 -0.16841112 -0.14026919 -0.49392045 0.2970001 0.095982365 -0.3187099 0.032458242
-0.12868 0.27110493 0.04881701 -0.4008702 0.42958897 -0.030447569 -0.11419696 -0.09795829
0.18128495 -0.37375206 -0.012342763 -0.24870162 0.40536982 -0.1585388 0.13407475 -0.15240094
0.27375802 0.3082142 0.13212089 -0.36833945 -0.15906677 -0.2820495 -0.75751436 0.6713365
0.20139119 0.14364628 0.49243355 -0.25775257 -0.025895402 -0.12421541 -0.039754886 0.098708145
0.030581078 -0.5923835 -0.3902554 0.029214723 0.32917967 0.37625927 0.33360845 -0.18326
-0.25552157 -0.6887994 0.040996294 -0.093451805 -0.488445 0.08090955 -0.44163316 -0.41278827
0.0072898134 -0.375352 0.53661454 -0.24146748 -0.25247696 0.34903064 -0.22060338 0.32123458
-0.26813075 0.04748504 -0.20351106 0.1670236 0.4210967 -0.68793046 0.3041684 -0.04536565
0.88904464 -0.010354742 0.056916475 0.015263379 0.3103668 -0.26300013 0.09061799 -0.0060593495
0.35600942 0.2475774 -0.30587524 -0.18252824 -0.08837608 0.632985 -0.5308641 0.43087155
-0.108184375 -0.105469935 -0.096677765 -0.5241107 0.44613215 -0.21359298 -0.4094536 -0.022638047
0.015851218 0.052520607 0.340037 -0.021660715 0.16914245 -0.5532113 -0.49061763 0.06240258
-0.015112379 -0.16532584 -0.49534222 0.60915166 -0.3752372 0.67989236 -0.06374015 -0.040306948
-0.17155388 -0.38443184 0.34962812 0.026435941 -0.33803886 0.1581793 -0.18504426 0.46807253
0.22219747 -0.0070921243 0.17300464 -0.5818191 0.64084274 0.41792595 0.09233177 0.008165041
0.11940889 -0.05930462 -0.78467876 -0.9692507 -0.13643491 0.6547116 -0.2717533 0.10733172
-0.31521097 -0.021966463 0.034017596 -0.16855378 -0.54627615 0.330704 0.6585247 -0.30129427
-0.15568446 0.12605135 -0.00335289 0.13909182 -0.1269698 0.092170365 -0.10698863 -0.11377119
-0.18867816 0.18831906 0.08415949 -0.433765 0.11854251 0.65995127 -0.10705249 -0.23954196
-0.08524399 0.24769415 0.440954 -0.4559986 -0.11579313 0.052489746 -0.1950192 0.21079041
-0.88469124 0.47903946 0.084486194 0.09924059 -0.3375618 -0.07277142 -0.17491344 -0.40518844
-0.051512364 -0.26987126 -0.1719228 -0.3926718 -0.015242849 -0.039722867 0.028573744 -0.34758446
-0.23226468 0.43646356 -0.09078022 -0.10915854 -0.060584832 -0.11218717 0.7854491 0.3613297
-0.031661186 -0.55956364 0.021291627 -0.1398463 -0.044457823 -0.1170214 -0.5456935 -0.3875722
00000000: cf66 5bbf 5a02 0a3f 8672 aebd 442c acbe
00000010: 2999 12bf e9b2 663e b2db 0dbe eb0a aabe
00000020: 27cf 8d3c 5e0c 823e 7a5b e63e d96c 663f
00000030: f102 f33e 3ca6 2c3e 7486 2f3e 908b ebbe
00000040: afe8 89be 64f7 f439 2c52 fc3d 2a5d bfbe
00000050: 2cb7 36be 8ab7 4ebf 8dab 543f 7b1d 48bc
00000060: f469 38be b1ce 8cbc 27b0 023f 0239 a63e
00000070: 2db1 8fbe aa46 0ebd 7f21 07bf 4789 e0bd
00000080: 4b75 b03d 8d20 35be 172e 103d 063e 35be
00000090: 5db6 e03d 6d5b c63e 62e6 023d aec0 c0be
000000a0: d7ca f53e e3e8 193e 0872 02be 09a9 26bf
000000b0: 7071 653b e807 6ebd 85bd ed3d 8768 62be
000000c0: 6bc5 63be 2bf5 273e 1a3f 0cbf cd8c 5d3d
000000d0: 5901 cabd 9ed7 e2be 4f9e 12bf 9d74 b8bd
000000e0: bb38 8fbe f773 2cbe baa2 0fbe 24e3 fcbe
000000f0: 6610 983e 6792 c43d f22d a3be eff2 043d
00000100: b1c4 03be 44ce 8a3e 58f4 473d dc3e cdbe
00000110: 16f3 db3e 2e6d f9bc 19e0 e9bd 5b9e c8bd
00000120: c3a2 393e 6e5c bfbe 4d39 4abc a3ab 7ebe
00000130: a28c cf3e ff57 22be e44a 093e fe0e 1cbe
00000140: 032a 8c3e 40ce 9d3e b34a 073e fd96 bcbe
00000150: 66e2 22be cb68 90be 76ec 41bf b5dc 2b3f
00000160: 7e39 4e3e 0318 133e 4020 fc3e 25f8 83be
00000170: 9822 d4bc a664 febd 05d6 22bd 7f27 ca3d
00000180: 2b85 fa3c 72a6 17bf 8ecf c7be b753 ef3c
00000190: 3d8a a83e 0ea5 c03e bace aa3e 82a8 3bbe
000001a0: b9d3 82be 2855 30bf bbeb 273d a963 bfbd
000001b0: 7715 fabe e8b3 a53d be1d e2be fc58 d3be
000001c0: 63df ee3b 232e c0be 925f 093f 4043 77be
000001d0: a944 81be 25b4 b23e dae5 61be dc78 a43e
000001e0: 6f48 89be ac7f 423d 3465 50be 3c08 2b3e
000001f0: fd99 d73e 361c 30bf f6bb 9b3e 55d1 39bd
00000200: 6e98 633f f0a6 29bc 4021 693d 4013 7a3c
00000210: 66e8 9e3e f4a7 86be ed95 b93d 828d c6bb
00000220: de46 b63e ee84 7d3e ae9b 9cbe afe8 3abe
00000230: 85fe b4bd 4e0b 223f b6e6 07bf 329b dc3e
00000240: c58f ddbd 9f00 d8bd fefe c5bd 1e2c 06bf
00000250: 6f6b e43e 1eb8 5abe e7a3 d1be 6d73 b9bc
00000260: 6ada 813c d91f 573d 5419 ae3e d071 b1bc
00000270: ae33 2d3e 419f 0dbf 3c32 fbbe d999 7f3d
00000280: e999 77bc 2d4b 29be 7f9d fdbe 5df1 1b3f
00000290: 171f c0be 6d0d 2e3f 328a 82bd e618 25bd
000002a0: d2ab 2fbe 40d4 c4be 7502 b33e 3090 d83c
000002b0: 6e13 adbe c1f9 213e 3e7c 3dbe 34a7 ef3e
000002c0: bc87 633e 0d65 e8bb 2128 313e 19f2 14bf
000002d0: 450e 243f 64fa d53e 7018 bd3d aac6 053c
000002e0: a68c f43d 67e9 72bd b5e0 48bf d020 78bf
000002f0: 98b5 0bbe 2e9b 273f 4023 8bbe bcd0 db3d
00000300: 5563 a1be 03f3 b3bc 0956 0b3d 5d99 2cbe
00000310: c1d8 0bbf 0952 a93e 1395 283f 3e43 9abe
00000320: bf6b 1fbe 9b13 013e 29bc 5bbb 166e 0e3e
00000330: 5f04 02be d1c3 bc3d db1c dbbd df00 e9bd
00000340: d934 41be b6d6 403e d05b ac3d 7216 debe
00000350: 6ac6 f23d 91f2 283f 563e dbbd 7d4a 75be
00000360: 6794 aebd 89a3 7d3e b9c4 e13e a678 e9be
00000370: f324 edbd 7dff 563d 1db3 47be 71d9 573e
00000380: 207b 62bf a944 f53e 1907 ad3d a73e cb3d
00000390: e6d4 acbe 2f09 95bd 821c 33be dc74 cfbe
000003a0: a1fe 52bd 912c 8abe 880c 30be 470c c9be
000003b0: 24bd 79bc 72b4 22bd 7c13 ea3c 97f6 b1be
000003c0: cbd6 6dbe 2778 df3e fbea b9bd 838e dfbd
000003d0: cd27 78bd 63c2 e5bd 3113 493f 3500 b93e
000003e0: 29af 01bd 903f 0fbf c76b ae3c de33 0fbe
000003f0: 6819 36bd eaa8 efbd 92b2 0bbf dd6f c6be

encoder.3.bias f4 [32]
0.03732113 0.039091572 -0.09321104 0.007148819 -0.032113355 0.045548324 0.015415988 0.04112875
0.11381405 0.026269836 0.025610425 -0.07273062 0.038320042 -0.048543833 -0.021026958 0.036466587
-0.024715701 -0.037115548 0.036676884 0.052323963 -0.11813306 -0.11122752 0.017221639 -0.05017226
-0.060228847 -0.037185527 0.031713888 0.008690876 0.12213737 -0.045957677 0.048727006 -0.044527438
00000000: 0bde 183d 7c1e 203d 6ee5 bebd a440 ea3b
00000010: 4b89 03bd e190 3a3d 5793 7c3c 9f76 283d
00000020: 5717 e93d d733 d73c f4cc d13c cbf3 94bd
00000030: 7af5 1c3d e6d5 46bd ba40 acbc fd5d 153d
00000040: 9578 cabc 7906 18bd 803a 163d a751 563d
00000050: bfef f1bd 41cb e3bd 6514 8d3c 6d81 4dbd
00000060: 86b2 76bd da4f 18bd 6ce6 013d 2d64 0e3c
00000070: 2823 fa3d 1e3e 3cbd f895 473d 6762 36bd

nee_decoder.0.weight f4 [16, 32]
0.021993361 -0.27437636 0.23207316 -0.22551784 0.038156774 0.28116247 0.12168592 0.5142645
0.2933854 0.29200685 0.033520177 0.0020996905 0.19505727 0.044149928 -0.430971 -0.26757193
-0.14862578 -0.11812665 0.46361127 0.21025023 -0.25030285 -0.28522846 0.05313342 0.323608
-0.23625447 0.10630776 0.16586599 -0.012410658 0.2751572 -0.040722422 0.34473112 -0.102803774
-0.022346396 0.3009992 -0.41602615 -0.30952406 -0.0140041765 -0.42808992 -0.75640917 0.17645814
-0.4746403 0.22857243 0.14177643 -0.20786385 0.028518224 0.04789024 0.08139789 -0.26127046
0.4770523 0.013622245 0.055548057 -0.063346505 -0.13801907 0.2873313 0.12545553 -0.18700519
-0.17820595 0.2071045 -0.09495149 -0.092693895 -0.31910068 -0.1395918 -0.013143532 0.037045978
-0.22200447 0.22067626 -0.16380139 0.46381924 0.28186446 -0.24757081 0.3296245 -0.1174396
-0.46720377 -0.36911446 -0.29182968 0.25902033 0.3543549 0.008246943 0.23060466 -0.07689088
0.36400506 0.23850708 -0.0215328 -0.064643875 0.1414052 0.29358125 -0.0026122213 -0.30892462
0.23310943 0.028220868 0.08353996 0.17274144 0.29474348 -0.14288594 0.07751559 -0.30335894
-0.029434009 -0.29051185 0.27134284 -0.4219602 0.40975496 0.03232637 0.08771526 0.02887089
-0.019938929 0.2637293 0.030569596 0.20143618 -0.06881697 0.28661004 -0.063286625 -0.034256384
-0.2785502 0.51658535 0.3044143 -0.2208069 -0.37928006 -0.020231104 -0.20202595 -0.38506606
-0.20374706 -0.20285833 -0.4910227 -0.10128272 -0.12553802 -0.24150185 0.30692732 0.523602
-0.15917367 -0.04855312 0.103481166 0.34528074 0.51438177 0.13949642 -0.15506738 -0.23928858
-0.22108053 -0.39677128 0.10613061 -0.14888144 -0.06826218 0.11764674 -0.1739469 -0.16236266
-0.5719128 0.20733878 -0.6166007 -0.08263832 -0.20680967 -0.09608834 0.2333111 -0.52313405
0.12781323 0.42733508 0.16720004 0.00602261 0.23067327 0.44218528 0.21418451 0.2912879
0.0650694 0.07551266 -0.14228864 0.09222617 -0.54811984 0.5868159 0.1901878 -0.14876609
-0.6890939 0.11993729 -0.056395244 0.4549396 0.16226126 0.005995453 -0.12418076 -0.06390403
-0.21329924 -0.31976116 -0.24856742 -0.014333278 0.042275544 -0.010171171 -0.37855986 -0.10282776
-0.04560772 0.01718987 0.24527226 -0.20329002 0.062722735 0.405436 0.05926542 -0.050174017
-0.50533676 0.15340497 0.2346511 0.08050991 0.11161307 -0.18775505 -0.37984475 -0.009796574
-0.08492305 0.17135558 -0.22298156 0.0132564595 0.1420271 0.018653639 -0.2576855 -0.12600791
0.03509685 -0.059189532 -0.0065925894 -0.038365524 -0.001535772 -0.10129036 -0.5299361 0.3543909
-0.10769956 0.4985072 0.01348738 0.42134628 -0.056048106 -0.4920853 -0.38261133 -0.3205173
0.36046547 -0.38323426 -0.31253088 0.10815777 0.1731301 0.34735933 0.20294014 -0.18887417
0.18281959 -0.39903122 -0.689702 -0.14581586 0.0527643 -0.3151203 -0.03226397 -0.002349726
-0.033447925 -0.037071135 0.15593852 -0.2665769 0.22508813 -0.1253922 -0.026436014 0.020308886
-0.060782053 0.04368284 0.02311518 0.4195796 -0.23947184 -0.3812662 -0.5766912 0.49793127
00000000: 6c2b b43c 0f7b 8cbe 96a4 6d3e 26ee 66be
00000010: 474a 1c3d 87f4 8f3e 7836 f93d d7a6 033f
00000020: 9c36 963e ec81 953e 744c 093d f69a 093b
00000030: 18bd 473e 8ed6 343d 3ba8 dcbe 30ff 88be
00000040: 5b31 18be 63ec f1bd 755e ed3e d64b 573e
00000050: b227 80be 7709 92be 6ea2 593d f3af a53e
00000060: b1ec 71be e2b7 d93d c6d8 293e 1356 4bbc
00000070: 68e1 8c3e 8ecc 26bd 9980 b03e c98a d2bd
00000080: ca0f b7bc 911c 9a3e 6101 d5be f079 9ebe
00000090: c671 65bc 9a2e dbbe 08a4 41bf 71b1 343e
000000a0: 0e04 f3be e40e 6a3e d72d 113e 43da 54be
000000b0: 0d9f e93c 8e28 443d f0b3 a63d 3ec5 85be
000000c0: 3340 f43e d62f 5f3c 5c86 633d d0bb 81bd
000000d0: df54 0dbe 171d 933e 6a77 003e 4a7e 3fbe
000000e0: 9f7b 36be 3413 543e ed75 c2bd 4cd6 bdbd
000000f0: 2a61 a3be 27f1 0ebe f857 57bc 86bd 173d
00000100: 2455 63be f5f8 613e 8dbb 27be b779 ed3e
00000110: 8a50 903e 3483 7dbe 8bc4 a83e 2c84 f0bd
00000120: 5535 efbe 92fc bcbe b36a 95be 509e 843e
00000130: 016e b53e 301e 073c a123 6c3e f778 9dbd
00000140: df5e ba3e 333b 743e 8e65 b0bc 0264 84bd
00000150: 86cc 103e 4850 963e cd31 2bbb 5e2b 9ebe
00000160: 3db4 6e3e 732f e73c 0017 ab3d 22e3 303e
00000170: 9ee8 963e b150 12be 7ec0 9e3d dd51 9bbe
00000180: 971f f1bc f8bd 94be 73ed 8a3e 2b0b d8be
00000190: 67cb d13e a868 043d 0fa4 b33d a582 ec3c
000001a0: f756 a3bc 8707 873e 176d fa3c 4945 4e3e
000001b0: e9ef 8cbd 8dbe 923e 6b9c 81bd 6c50 0cbd
000001c0: 229e 8ebe f03e 043f 31dc 9b3e 341b 62be
000001d0: ff30 c2be b3bb a5bc e4df 4ebe 6127 c5be
000001e0: 12a3 50be 18ba 4fbe 5467 fbbe 516d cfbd
000001f0: 0a8d 00be 434c 77be 9425 9d3e c80a 063f
00000200: 6cfe 22be a3df 46bd efed d33d a3c8 b03e
00000210: 86ae 033f 26d8 0e3e fcc9 1ebe 1108 75be
00000220: ef62 62be 9b25 cbbe 015b d93d 6074 18be
00000230: 0bcd 8bbd c6f0 f03d 231f 32be 6642 26be
00000240: e168 12bf 9e50 543e 8bd9 1dbf 483e a9bd
00000250: eac5 53be f7c9 c4bd 1be9 6e3e 1dec 05bf
00000260: 79e1 023e aacb da3e 7d36 2b3e 5059 c53b
00000270: 9d35 6c3e 1c66 e23e 2f53 5b3e b023 953e
00000280: 1b43 853d 62a6 9a3d 1db4 11be 13e1 bc3d
00000290: 9551 0cbf 9139 163f 97c0 423e 2356 18be
000002a0: 7568 30bf afa1 f53d b3fe 66bd d8ed e83e
000002b0: d127 263e 8175 c43b 7b52 febd 1ee0 82bd
000002c0: 1e6b 5abe bcb7 a3be 7588 7ebe 20d6 6abc
000002d0: 1f29 2d3d fca4 26bc 99d2 c1be 5c97 d2bd
000002e0: 29cf 3abd c5d1 8c3c a728 7b3e 422b 50be
000002f0: c774 803d 4f95 cf3e 4cc0 723d 4583 4dbd
00000300: c05d 01bf 3116 1d3e 6148 703e 61e2 a43d
00000310: 6595 e43d dc42 40be 037b c2be cf81 20bc
00000320: 23ec adbd d677 2f3e 4755 64be 9f31 593c
00000330: 8d6f 113e 84cf 983c 5bef 83be 3808 01be
00000340: b7c1 0f3d b970 72bd a606 d8bb 2b25 1dbd
00000350: f54b c9ba 5271 cfbd e4a9 07bf b972 b53e
00000360: 9691 dcbd 563c ff3e 2cfa 5c3c b3ba d73e
00000370: b392 65bd 9bf2 fbbe a2e5 c3be d81a a4be
00000380: ee8e b83e 4837 c4be 0c04 a0be d281 dd3d
00000390: 0449 313e 15d9 b13e 8acf 4f3e 3b68 41be
000003a0: 0f35 3b3e d24d ccbe 4f90 30bf c150 15be
000003b0: 611f 583d 7357 a1be 3927 04bd dcfd 19bb
000003c0: b100 09bd e7d7 17bd 59ae 1f3e c47c 88be
000003d0: 817d 663e d066 00be 5790 d8bc d25e a63c
000003e0: 9af6 78bd c7ec 323d 0c5c bd3c 23d3 d63e
000003f0: 1b38 75be 5335 c3be 09a2 13bf d9f0 fe3e

nee_decoder.0.bias f4 [16]
-0.015819652 -0.01228905 -0.013917038 -0.014835299 -0.011291431 -0.012755285 -0.009064725 0.0
0.008806415 0.0066900975 0.021159321 -0.026314454 0.0082606 -0.01893862 0.00020800909 -0.012127151
00000000: 3798 81bc 0358 49bc 4a04 64bc c10f 73bc
00000010: b2ff 38bc 8bfb 50bc 3684 14bc 0000 0000
00000020: c848 103c 9b38 db3b 5056 ad3c 6991 d7bc
00000030: 7857 073c 2a25 9bbc 041d 5a39 f5b0 46bc

nee_decoder.2.weight f4 [16, 16]
-0.1754713 0.35107777 -0.4449753 0.017183172 -0.3822726 -0.48353153 0.1625047 0.2335634
0.31529486 -0.25850427 -0.64109355 -0.21229815 -0.031134048 -0.28258154 -0.13999984 -0.3765269
-0.22341159 -0.58864194 -0.23567176 0.40248898 0.111729056 0.3007243 -0.7331324 -0.6406996
-0.14160931 0.43529984 -0.15550597 0.16801059 0.1203269 0.24176727 -0.12328478 -0.04019945
-0.21974948 0.015936615 0.0610032 0.13854696 -0.13843033 -0.1705919 0.2623874 -0.055215273
-0.3248183 -0.30693194 0.33304712 -0.21224011 0.10752618 -0.17761222 -0.21571995 0.34383464
-0.120536126 -0.37329414 -0.82087314 -0.075433284 -0.008405488 0.74327874 0.19755712 0.20242596
-0.0048831017 -0.39394066 0.5296319 -0.96728814 -0.080769084 -0.2815424 -0.15219615 0.32168248
0.047499776 0.9629838 0.37857077 -0.26218355 -0.09223051 -0.22074094 0.6289397 0.06571564
-0.54669154 0.2540197 0.22127321 0.009641927 -0.10622642 -0.6145376 0.2152707 -0.37364024
0.21972728 0.56566507 0.16617917 0.25910026 0.19140306 -0.65023047 -0.07304319 -0.0067328014
-0.055853494 -0.25711048 -0.003842328 -0.44519544 -0.45963523 0.16652827 0.1443724 0.28218853
0.1347216 0.2832872 0.29009515 -0.34808928 0.032364335 0.33297858 0.20474198 0.28312942
-0.5455749 0.11388995 -0.11886825 -0.16338189 -0.8256772 0.13343006 0.15022802 0.31112728
0.29419932 0.031504817 -0.45121664 -0.4276392 -0.672238 -0.14933424 0.08755764 0.6929346
-0.2279339 0.5960306 0.07334897 -0.115286864 -0.41129905 -0.1941329 0.11184269 0.27040166
-0.2982028 -0.007625454 -0.09024888 0.5322121 0.20070317 0.13586476 0.3818101 -0.35121176
0.24329858 0.17213468 -0.07286456 0.09341279 0.055342454 -0.42680314 0.7320127 -0.21906005
-0.5503223 0.13066773 0.14437503 -0.12802479 0.96259314 0.09034816 -0.110456765 0.33306843
-0.87792444 -0.27436852 -0.25479943 -0.26992667 -0.21297982 0.7610825 0.15430371 -0.525218
0.13351561 -0.001908684 0.0266308 0.02252133 0.5258708 -0.10753887 0.50183827 -0.5455811
0.17847471 0.07902813 0.07828498 0.93026733 -0.12224084 -0.20925666 -0.021844367 0.034088872
-0.16324422 0.31860575 -0.38502577 0.17115782 0.5579284 -0.2420378 -0.46745965 -0.2035912
-0.18909039 -0.25689206 0.12232436 -0.110002585 0.034209117 -0.48351198 0.13145441 0.16951798
0.0007681578 0.0053652404 0.46438432 0.02210106 0.07811282 0.04699666 0.58052313 -0.15891019
-0.0752549 -0.13977176 -0.37388492 -0.06236105 -0.30570737 -0.0018380344 0.5654921 0.13040733
-0.20328835 -0.28946394 -0.36754352 0.22132844 0.20991842 0.3882917 -0.0061134477 -0.7149398
-0.017999975 0.36559355 -0.036592286 -0.32745162 0.43176207 -0.17402598 0.14832193 0.29853785
0.04031561 0.13135412 -0.31996793 -0.02732114 -0.6329975 0.24166863 0.23295371 -0.49583882
-0.044461776 0.060534153 -0.1609972 -0.010747857 -0.23453839 -0.5082604 0.0016051081 -0.2943377
-0.5307694 -0.20710455 -0.25270876 -0.6754576 0.0049398863 0.0075621037 -0.054542396 -0.11746277
0.4310852 0.019778168 0.42116824 0.30234814 -0.16171274 0.47768566 -0.03008445 -0.2958559
00000000: c0ae 33be 77c0 b33e cdd3 e3be b9c3 8c3c
00000010: 3cb9 c3be 7291 f7be a267 263e 3e2b 6f3e
00000020: 546e a13e ac5a 84be b51e 24bf b064 59be
00000030: d50c ffbc 87ae 90be 1e5c 0fbe 22c8 c0be
00000040: 02c6 64be 3db1 16bf f053 71be 0913 ce3e
00000050: 34d2 e43d 89f8 993e 91ae 3bbf e404 24bf
00000060: 0802 11be 9fdf de3e f53c 1fbe f80a 2c3e
00000070: f36d f63d d791 773e bb7c fcbd 2ea8 24bd
00000080: 0206 61be 818d 823c 7ede 793d 41df 0d3e
00000090: aec0 0dbe a5af 2ebe a457 863e 6929 62bd
000000a0: 964e a6be 2f26 9dbe 2785 aa3e 7955 59be
000000b0: b036 dc3d fadf 35be b1e5 5cbe 180b b03e
000000c0: a5db f6bd 6920 bfbe be24 52bf c47c 9abd
000000d0: 2cb7 09bc 8447 3e3f 6a4c 4a3e c048 4f3e
000000e0: 6d02 a0bb 97b2 c9be f595 073f 32a0 77bf
000000f0: 436a a5bd 5326 90be 4fd9 1bbe 91b3 a43e
00000100: 208f 423d 1b86 763f 07d4 c13e ec3c 86be
00000110: 5ae3 bcbd ea09 62be 3102 213f ec95 863d
00000120: faf3 0bbf df0e 823e 7295 623e 2cf9 1d3c
00000130: 3d8d d9bd 5652 1dbf ec6f 5c3e c64d bfbe
00000140: 3000 613e 6dcf 103f df2a 2a3e caa8 843e
00000150: 2aff 433e 8175 26bf ab97 95bd d59e dcbb
00000160: a2c6 64bd fca3 83be 91cf 7bbb a8f0 e3be
00000170: 4f55 ebbe 6386 2a3e 5cd6 133e 047b 903e
00000180: 76f4 093e 050b 913e 5a87 943e c238 b2be
00000190: 7790 043d 2b7c aa3e e2a7 513e 57f6 903e
000001a0: ccaa 0bbf 223f e93d 3271 f3bd 954d 27be
000001b0: 955f 53bf e4a1 083e 60d5 193e 134c 9f3e
000001c0: 4ba1 963e 320b 013d de05 e7be 86f3 dabe
000001d0: ca17 2cbf 13eb 18be 6c51 b33d 2964 313f
000001e0: 8167 69be 7695 183f fc37 963d 851b ecbd
000001f0: ca95 d2be c6ca 46be c80d e53d 1672 8a3e
00000200: 0aae 98be f2de f9bb 68d4 b8bd 0d3f 083f
00000210: 2285 4d3e 2220 0b3e 9d7c c33e 07d2 b3be
00000220: 4323 793e 1344 303e 043a 95bd 344f bf3d
00000230: c5ae 623d f185 dabe 2f65 3b3f 4751 60be
00000240: ece1 0cbf c3cd 053e 0cd7 133e ee18 03be
00000250: 816c 763f 7508 b93d 2837 e2bd f287 aa3e
00000260: a8bf 60bf 087a 8cbe 1275 82be d433 8abe
00000270: 6217 5abe 4dd6 423f cb01 1e3e b074 06bf
00000280: 51b8 083e cf2c faba d628 da3c a77e b83c
00000290: 789f 063f 573d dcbd 7978 003f 34ab 0bbf
000002a0: 13c2 363e 80d9 a13d e053 a03d 0026 6e3f
000002b0: 6859 fabd 6147 56be f5f2 b2bc c6a0 0b3d
000002c0: 7e29 27be 4b20 a33e 1922 c5be ff43 2f3e
000002d0: 65d4 0e3f c2d8 77be df56 efbe 367a 50be
000002e0: e9a0 41be 5b87 83be 3285 fa3d 0949 e1bd
000002f0: dc1e 0c3d e28e f7be fc9b 063e 1f96 2d3e
00000300: 335e 493a e6ce af3b c8c3 ed3e 480d b53c
00000310: 9df9 9f3d 927f 403d 2a9d 143f 5ab9 22be
00000320: 3e1f 9abd 5420 0fbe d86d bfbe 4d6e 7fbd
00000330: ad85 9cbe 33ea f0ba 17c4 103f 8089 053e
00000340: d22a 50be 9e34 94be aa2e bcbe eca3 623e
00000350: dbf4 563e 2bce c63e 5153 c8bb 4b06 37bf
00000360: af74 93bc 142f bb3e cbe1 15bd bda7 a7be
00000370: eb0f dd3e de33 32be b4e1 173e f4d9 983e
00000380: fb21 253d b281 063e d6d2 a3be 95d0 dfbc
00000390: 200c 22bf fb77 773e 6b8b 6e3e 96de fdbe
000003a0: 8d1d 36bd a9f2 773d 73dc 24be c817 30bc
000003b0: d52a 70be 5b1d 02bf 7e62 d23a 6eb3 96be
000003c0: 81e0 07bf 3713 54be 0b63 81be caea 2cbf
000003d0: c5de a13b 86cb f73b d967 5fbd 5290 f0bd
000003e0: 33b7 dc3e d305 a23c 5da3 d73e 60cd 9a3e
000003f0: 0698 25be 3793 f43e aa73 f6bc 6d7a 97be

nee_decoder.2.bias f4 [16]
0.011095902 -0.009437237 0.012439555 -0.009956367 -0.010041465 -0.010217736 -0.008646733 0.015042971
-0.01603814 -0.010425408 -0.011016767 0.010225933 -0.010525459 -0.0118585555 -0.010472543 0.011121726
00000000: 96cb 353c a49e 1abc 46cf 4b3c 0820 23bc
00000010: f584 24bc 4a68 27bc 07ab 0dbc cb76 763c
00000020: 6b62 83bc 55cf 2abc ab7f 34bc ac8a 273c
00000030: fa72 2cbc 634a 42bc 0795 2bbc e637 363c

nee_decoder.3.weight f4 [1, 16]
-0.2632027 0.0674544 -0.09992406 0.17963922 0.037009638 0.36631313 0.09095541 -0.04285278
0.03127611 0.461744 0.49902254 -0.007431336 0.42060155 0.19965874 0.34505627 -0.124269664
00000000: 81c2 86be 8825 8a3d fca4 ccbd 58f3 373e
00000010: 6b97 173d 658d bb3e d446 ba3d 6686 2fbd
00000020: 611b 003d b669 ec3e e27f ff3e 9182 f3bb
00000030: 1659 d73e 5773 4c3e 37ab b03e 1881 febd

fc_mu.0.weight f4 [4, 32]
0.41912043 0.11778361 0.030344041 0.10029867 -0.24823721 -0.15038447 -0.23326977 0.094487555
0.11625045 -0.056177184 0.38792515 -0.19233593 -0.29717466 0.7423829 0.20580429 -0.39904714
-0.069223896 0.16725543 0.11242607 -0.1337631 -0.30147105 -0.29365435 0.35849962 0.029988552
0.4612984 -0.070843324 -0.08532886 -0.19173487 -0.16059218 -0.2473315 -0.03882917 -0.05110107
-0.19644183 0.07007107 -0.059428517 -0.14153787 -0.11309605 -0.07266292 0.20687898 0.07355902
0.4303887 0.32193583 0.00972131 -0.22942318 -0.0011780487 -0.37617642 0.14439894 0.22047289
0.10067218 -0.2807647 -0.15872687 -0.03031894 -0.044876594 0.13617687 0.17633554 0.18838038
-0.15315372 0.4256156 0.38887343 -0.02925409 0.080733374 -0.017773397 -0.015822576 -0.45125642
0.23468843 0.24065502 0.09509665 -0.28180343 0.19241895 -0.06440187 -0.43825775 -0.08981014
0.55147827 -0.21010421 0.15063372 -0.11836491 0.10358198 0.15604888 0.34638545 0.34415957
0.18614933 -0.16606829 0.010826464 0.023147684 0.09475872 -0.6417809 0.16866286 -0.048334107
-0.16085124 0.25885305 0.30729693 0.2582284 0.21800093 -0.27796012 0.25782987 -0.24225576
-0.31301817 0.07993426 0.15586703 0.32036647 -0.49810204 -0.20386516 -0.13232742 0.036430493
-0.0031659284 0.054044303 -0.07633384 -0.33791068 -0.4175431 -0.07899881 0.07560377 -0.36251572
-0.14348556 0.27198616 0.35219574 0.33121026 0.10100464 0.40898812 -0.23284218 0.08417944
-0.23271069 0.41278818 0.2117864 0.18385729 -0.363431 0.46063122 0.075328365 -0.43515804
00000000: f496 d63e 8938 f13d 1194 f83c 6469 cd3d
00000010: e531 7ebe 63fe 19be 45de 6ebe b182 c13d
00000020: b714 ee3d 0c1a 66bd 209e c63e b6f3 44be
00000030: 4727 98be ce0c 3e3f 5cbe 523e e84f ccbe
00000040: 42c5 8dbd 0245 2b3e a43f e63d 32f9 08be
00000050: 6a5a 9abe dd59 96be 438d b73e 8daa f53c
00000060: 4e2f ec3e 4e16 91bd e6c0 aebd 2556 44be
00000070: 4772 24be 7844 7dbe 560b 1fbd 5b4f 51bd
00000080: 0c28 49be 6c81 8f3d 516b 73bd 4eef 10be
00000090: e79e e7bd 4cd0 94bd 15d8 533e 1da6 963d
000000a0: e85b dc3e c6d4 a43e 2146 1f3c e9ed 6abe
000000b0: c168 9aba 329a c0be 51dd 133e a5c3 613e
000000c0: 372d ce3d 64c0 8fbe 4c89 22be 6d5f f8bc
000000d0: 85d0 37bd f371 0b3e 4e91 343e c9e6 403e
000000e0: 54d4 1cbe 4aea d93e 6b1a c73e 46a6 efbc
000000f0: 8a57 a53d 8499 91bc 599e 81bc 150b e7be
00000100: 2a52 703e 456e 763e 08c2 c23d 8a48 90be
00000110: 7909 453e 21e5 83bd 5263 e0be 61ee b7bd
00000120: ae2d 0d3f 8f25 57be ba3f 1a3e 4d69 f2bd
00000130: ca22 d43d 47cb 1f3e 6f59 b13e af35 b03e
00000140: ee9d 3e3e ce0d 2abe 7b61 313c 36a0 bd3c
00000150: dc10 c23d c14b 24bf f5b5 2c3e fcf9 45bd
00000160: 30b6 24be 6388 843e 0656 9d3e 8336 843e
00000170: a33b 5f3e ca50 8ebe 4702 843e e511 78be
00000180: eb43 a0be 93b4 a33d 9b9b 1f3e 1307 a43e
00000190: 3b07 ffbe 07c2 50be d780 07be 2438 153d
000001a0: 777b 4fbb 8f5d 5d3d eb54 9cbd a102 adbe
000001b0: 36c8 d5be 21ca a1bd 26d6 9a3d a99b b9be
000001c0: e1ed 12be c541 8b3e 0053 b43e 6494 a93e
000001d0: 85db ce3d e466 d13e 2e6e 6ebe 4566 ac3d
000001e0: b64b 6ebe f958 d33e 89de 583e 1645 3c3e
000001f0: a113 babe dbd7 eb3e c245 9a3d 09cd debe

fc_mu.0.bias f4 [4]
0.005926542 0.0111950515 0.0084765125 0.008903848
00000000: 7033 c23b 736b 373c 12e1 0a3c 72e1 113c

fc_mu.1.weight f4 [1, 4]
-0.88847315 -0.8435826 -0.63087416 -0.008922627
00000000: fa72 63bf 07f5 57bf f880 21bf 3630 12bc

fc_logvar.0.weight f4 [4, 32]
0.41912043 0.11778361 0.030344041 0.10029867 -0.24823721 -0.15038447 -0.23326977 0.094487555
0.11625045 -0.056177184 0.38792515 -0.19233593 -0.29717466 0.7423829 0.20580429 -0.39904714
-0.069223896 0.16725543 0.11242607 -0.1337631 -0.30147105 -0.29365435 0.35849962 0.029988552
0.4612984 -0.070843324 -0.08532886 -0.19173487 -0.16059218 -0.2473315 -0.03882917 -0.05110107
-0.19644183 0.07007107 -0.059428517 -0.14153787 -0.11309605 -0.07266292 0.20687898 0.07355902
0.4303887 0.32193583 0.00972131 -0.22942318 -0.0011780487 -0.37617642 0.14439894 0.22047289
0.10067218 -0.2807647 -0.15872687 -0.03031894 -0.044876594 0.13617687 0.17633554 0.18838038
-0.15315372 0.4256156 0.38887343 -0.02925409 0.080733374 -0.017773397 -0.015822576 -0.45125642
0.23468843 0.24065502 0.09509665 -0.28180343 0.19241895 -0.06440187 -0.43825775 -0.08981014
0.55147827 -0.21010421 0.15063372 -0.11836491 0.10358198 0.15604888 0.34638545 0.34415957
0.18614933 -0.16606829 0.010826464 0.023147684 0.09475872 -0.6417809 0.16866286 -0.048334107
-0.16085124 0.25885305 0.30729693 0.2582284 0.21800093 -0.27796012 0.25782987 -0.24225576
-0.31301817 0.07993426 0.15586703 0.32036647 -0.49810204 -0.20386516 -0.13232742 0.036430493
-0.0031659284 0.054044303 -0.07633384 -0.33791068 -0.4175431 -0.07899881 0.07560377 -0.36251572
-0.14348556 0.27198616 0.35219574 0.33121026 0.10100464 0.40898812 -0.23284218 0.08417944
-0.23271069 0.41278818 0.2117864 0.18385729 -0.363431 0.46063122 0.075328365 -0.43515804
00000000: f496 d63e 8938 f13d 1194 f83c 6469 cd3d
00000010: e531 7ebe 63fe 19be 45de 6ebe b182 c13d
00000020: b714 ee3d 0c1a 66bd 209e c63e b6f3 44be
00000030: 4727 98be ce0c 3e3f 5cbe 523e e84f ccbe
00000040: 42c5 8dbd 0245 2b3e a43f e63d 32f9 08be
00000050: 6a5a 9abe dd59 96be 438d b73e 8daa f53c
00000060: 4e2f ec3e 4e16 91bd e6c0 aebd 2556 44be
00000070: 4772 24be 7844 7dbe 560b 1fbd 5b4f 51bd
00000080: 0c28 49be 6c81 8f3d 516b 73bd 4eef 10be
00000090: e79e e7bd 4cd0 94bd 15d8 533e 1da6 963d
000000a0: e85b dc3e c6d4 a43e 2146 1f3c e9ed 6abe
000000b0: c168 9aba 329a c0be 51dd 133e a5c3 613e
000000c0: 372d ce3d 64c0 8fbe 4c89 22be 6d5f f8bc
000000d0: 85d0 37bd f371 0b3e 4e91 343e c9e6 403e
000000e0: 54d4 1cbe 4aea d93e 6b1a c73e 46a6 efbc
000000f0: 8a57 a53d 8499 91bc 599e 81bc 150b e7be
00000100: 2a52 703e 456e 763e 08c2 c23d 8a48 90be
00000110: 7909 453e 21e5 83bd 5263 e0be 61ee b7bd
00000120: ae2d 0d3f 8f25 57be ba3f 1a3e 4d69 f2bd
00000130: ca22 d43d 47cb 1f3e 6f59 b13e af35 b03e
00000140: ee9d 3e3e ce0d 2abe 7b61 313c 36a0 bd3c
00000150: dc10 c23d c14b 24bf f5b5 2c3e fcf9 45bd
00000160: 30b6 24be 6388 843e 0656 9d3e 8336 843e
00000170: a33b 5f3e ca50 8ebe 4702 843e e511 78be
00000180: eb43 a0be 93b4 a33d 9b9b 1f3e 1307 a43e
00000190: 3b07 ffbe 07c2 50be d780 07be 2438 153d
000001a0: 777b 4fbb 8f5d 5d3d eb54 9cbd a102 adbe
000001b0: 36c8 d5be 21ca a1bd 26d6 9a3d a99b b9be
000001c0: e1ed 12be c541 8b3e 0053 b43e 6494 a93e
000001d0: 85db ce3d e466 d13e 2e6e 6ebe 4566 ac3d
000001e0: b64b 6ebe f958 d33e 89de 583e 1645 3c3e
000001f0: a113 babe dbd7 eb3e c245 9a3d 09cd debe

fc_logvar.0.bias f4 [4]
0.005926542 0.0111950515 0.0084765125 0.008903848
00000000: 7033 c23b 736b 373c 12e1 0a3c 72e1 113c

fc_logvar.1.weight f4 [1, 4]
1.1821938 -0.1016429 0.35773206 -0.063439496
00000000: 2052 973f 272a d0bd a828 b73e 91ec 81bd

temp_derivative_decoder.0.weight f4 [16, 32]
-0.111756876 0.18894322 0.060844544 -0.17055887 0.04269487 0.24100323 0.22835742 0.17797537
0.29318127 0.3340524 0.2007284 0.23271237 0.004772883 0.15253513 0.28809473 -0.17151555
-0.05193318 -0.1957115 0.27924442 -0.4192218 -0.09307926 0.055358738 -0.13771369 -0.20704481
0.01960777 0.29858714 -0.42692378 -0.08904795 0.014424114 -0.3882096 -0.23674585 0.01818862
0.21178724 -0.22136001 0.48149413 0.04094526 0.08341471 0.15439919 0.38674667 -0.06693169
-0.12856989 -0.10979088 0.047807556 0.51576453 0.15027171 0.14640602 0.0024381904 -0.18494761
0.20016478 0.16549592 -0.32671157 -0.0313755 0.17630672 0.33740094 -0.0058971117 0.19396958
-0.30313846 -0.36708596 0.1810938 -0.22747062 -0.10309095 0.051872905 -0.47280112 -0.04734727
0.031199526 -0.4800894 -0.062161557 0.19423455 -0.11049445 0.18486716 -0.09575016 0.057026986
-0.3498047 -0.24135002 -0.09358086 -0.15587503 -0.4638885 0.10590415 -0.023242077 0.4512048
0.15049624 0.11144557 0.14593858 -0.3712878 0.40254718 0.37494975 0.3394356 0.2925785
0.06329495 0.15810175 0.16766441 -0.21407296 -0.05181265 -0.037095245 -0.1233634 -0.14619505
-0.053994168 0.005194508 -0.22745603 0.2546545 -0.09150765 0.047729224 0.29677507 -0.3417035
-0.14323974 -0.15958337 -0.013251968 -0.28415513 0.3365084 0.057285786 0.073071375 0.029148458
0.28858277 0.03712686 0.013179304 0.003873756 -0.06138066 -0.43730384 0.052495923 0.15067905
-0.12695219 0.25292873 -0.13974087 0.7342624 0.22758783 0.044419765 0.1832715 0.17167558
-0.056741733 0.14876752 -0.29082698 -0.35418972 -0.09229324 0.35067177 -0.51312345 -0.2786226
0.034037404 0.0954051 -0.0015083058 0.4164116 0.683309 -0.13189614 -0.090752184 -0.00493053
-0.36358494 -0.047559287 -0.68495274 -0.21653257 0.1470116 0.44411477 -0.09258115 0.4172492
0.14785352 -0.17069861 0.09450511 -0.007891479 -0.036520325 0.387269 0.07366642 -0.30766645
0.2316053 0.009766917 0.024651863 -0.0377433 0.2949531 -0.12922467 -0.49907392 -0.26470113
-0.08335821 -0.31888586 0.15523763 0.23803426 0.13350423 0.07936541 0.026989369 -0.020249499
-0.05055882 0.3899892 0.017226335 -0.2181579 -0.21262974 0.09764122 -0.83559966 0.22141191
-0.39820594 -0.2565239 0.13279901 -0.1341798 -0.026519185 -0.07235784 -0.02862838 0.14854665
0.32818562 0.109296106 -0.49937588 0.085445784 -0.21839333 -0.29374257 0.5437154 -0.15412924
-0.20589367 -0.14374962 -0.025998475 0.25654283 -0.06463993 0.020518247 0.4595052 -0.04712011
0.2028662 -0.18013164 -0.30757833 0.30285162 -0.2844926 0.17254192 0.1371792 0.06234288
-0.07463062 -0.28064343 -0.255816 0.040792 -0.02739348 -0.38334802 -0.44818646 -0.13061996
0.18162435 -0.31235924 -0.016863178 0.7458365 -0.06444549 0.041920695 -0.5449515 -0.27266067
0.552684 -0.042600047 0.050965093 0.3026104 0.22363229 0.059507504 -0.023040814 -0.22477934
-0.3486381 -0.06956405 0.0004697831 0.043922037 0.032120716 0.09253025 0.21722141 -0.18483132
-0.14101872 -0.0058936095 0.25908837 -0.37253794 -0.85817534 -0.43887347 -0.10154828 0.2647071
00000000: cae0 e4bd 557a 413e 2138 793d fca6 2ebe
00000010: d1e0 2e3d 8dc9 763e 87d6 693e 2d3f 363e
00000020: db1b 963e eb08 ab3e bf8b 4d3e 274c 6e3e
00000030: d865 9c3b 2b32 1c3e 2781 933e c6a1 2fbe
00000040: e3b7 54bd 9868 48be 20f9 8e3e 3da4 d6be
00000050: 57a0 bebd d8bf 623d d104 0dbe 8e03 54be
00000060: 79a0 a03c 6ae0 983e c195 dabe c65e b6bd
00000070: 1e53 6c3c 69c3 c6be 816d 72be 4d00 953c
00000080: c1de 583e 33ac 62be 6686 f63e 38b6 273d
00000090: 55d5 aa3d d21a 1e3e a903 c63e 7b13 89bd
000000a0: d3a7 03be 0ada e0bd dbd1 433d 2509 043f
000000b0: d4e0 193e 76eb 153e 0cca 1f3b e862 3dbe
000000c0: fff7 4c3e c377 293e bd46 a7be 9983 00bd
000000d0: c089 343e d1bf ac3e 8f3c c1bb f69f 463e
000000e0: f734 9bbe b1f2 bbbe a770 393e 0fee 68be
000000f0: 5921 d3bd af78 543d fd12 f2be 36ef 41bd
00000100: 2696 ff3c 47ce f5be 1e9d 7ebd 6ce5 463e
00000110: ea4a e2bd d14d 3d3e a918 c4bd 2195 693d
00000120: 9a19 b3be 7624 77be 52a7 bfbd b49d 1fbe
00000130: cb82 edbe 46e4 d83d 2b66 bebc 5104 e73e
00000140: b01b 1a3e 933d e43d ec70 153e 6f19 bebe
00000150: aa1a ce3e 6af9 bf3e 81ca ad3e d9cc 953e
00000160: c8a0 813d 6de5 213e 38b0 2b3e f135 5bbe
00000170: 8039 54bd 2ff1 17bd f3a5 fcbd 28b4 15be
00000180: fd28 5dbd b136 aa3b 3cea 68be 1362 823e
00000190: 5d68 bbbd b87f 433d e7f2 973e c3f3 aebe
000001a0: 70ad 12be d369 23be c81e 59bc c87c 91be
000001b0: d44a ac3e 80a4 6a3d 72a6 953d bfc8 ee3c
000001c0: 1fc1 933e 5612 183d 02ee 573c d7de 7d3b
000001d0: 496a 7bbd 4ae6 dfbe f705 573d 9c4b 1a3e
000001e0: c1ff 01be e07f 813e 3b18 0fbe 9ff8 3b3f
000001f0: c90c 693e 80f1 353d 86ab 3b3e b9cb 2f3e
00000200: 056a 68bd 8356 183e 46e7 94be 5b58 b5be
00000210: 3d04 bdbd 408b b33e 0f5c 03bf 9fa7 8ebe
00000220: ce6a 0b3d c063 c33d 58b2 c5ba e733 d53e
00000230: 57ed 2e3f c80f 07be 48dc b9bd 4990 a1bb
00000240: ce27 babe 87cd 42bd 1059 2fbf b7ba 5dbe
00000250: 358a 163e 0363 e33e 309b bdbd b0a1 d53e
00000260: ea66 173e 9ecb 2ebe e58b c13d 434b 01bc
00000270: 5696 15bd 1f48 c63e 6cde 963d 7586 9dbe
00000280: f129 6d3e 6b05 203c b4f2 c93c b898 1abd
00000290: 1804 973e 7953 04be 9e86 ffbe e886 87be
000002a0: b6b7 aabd 0245 a3be 9df6 1e3e 41bf 733e
000002b0: 55b5 083e 558a a23d cf18 dd3c 47e2 a5bc
000002c0: c416 4fbd aaac c73e 3e1e 8d3c c964 5fbe
000002d0: 9cbb 59be 1ff8 c73d dce9 55bf ceb9 623e
000002e0: a6e1 cbbe 1a57 83be 77fc 073e 6e66 09be
000002f0: c33e d9bc 5930 94bd 1086 eabc 9d1c 183e
00000300: f207 a83e a3d6 df3d 32ae ffbe 33fe ae3d
00000310: 80a2 5fbe 6d65 96be ef30 0b3f 0ed4 1dbe
00000320: cad5 52be 1a33 13be c1fa d4bc 9559 833e
00000330: f161 84bd e215 a83c 4444 eb3e 0401 41bd
00000340: 28bc 4f3e 6e74 38be e87a 9dbe 5e0f 9b3e
00000350: 04a9 91be d4ae 303e b478 0c3e 3f5b 7f3d
00000360: f0d7 98bd 7fb0 8fbe 51fa 82be 8315 273d
00000370: 4b68 e0bc 3146 c4be b278 e5be 3dc1 05be
00000380: bcfb 393e 8ded 9fbe a624 8abc 24ef 3e3f
00000390: fffb 83bd 09b5 2b3d f181 0bbf 2e9a 8bbe
000003a0: b37c 0d3f 637d 2ebd c6c0 503d c0ef 9a3e
000003b0: ddff 643e 24be 733d 17c0 bcbc 8e2c 66be
000003c0: b180 b2be 9977 8ebd 384d f639 98e7 333d
000003d0: 0391 033d 8080 bd3d 4a6f 5e3e 6c44 3dbe
000003e0: 3667 10be 2e1f c1bb 3ba7 843e 4bbd bebe
000003f0: 61b1 5bbf 06b4 e0be 8bf8 cfbd b087 873e

temp_derivative_decoder.0.bias f4 [16]
-0.03417093 -0.009510583 -0.030695464 -0.020930571 -0.018991258 0.0 -0.0041761445 -0.015320771
0.12592895 -0.011954895 -0.055213336 0.021408517 -0.008530753 -0.012570364 -0.010200406 0.027217038
00000000: d1f6 0bbd 47d2 1bbc 0e75 fbbc 9776 abbc
00000010: 8e93 9bbc 0000 0000 0ad8 88bb f903 7bbc
00000020: 85f3 003e 77de 43bc 6127 62bd ea60 af3c
00000030: 92c4 0bbc eef3 4dbc 9b1f 27bc 44f6 de3c
