.archive/piae_sde/experiments/2024-11-27_19-38-20-498414/best_model.pth (torch, 31074 bytes, 33 tensors)

encoder.0.weight f4 [16, 20]
0	0x3ebbc477	0.36673328
1	0xbe195242	-0.14972785
2	0x3e902181	0.2815056
3	0xbe9593d1	-0.29214337
4	0xbea6c260	-0.3257017
5	0x3ec6d6f3	0.38835868
6	0x3eb3f912	0.35150963
7	0xbe8458b4	-0.25848925
8	0xbc60df57	-0.013725123
9	0x3dabddaa	0.083918884
10	0xbeb5f52b	-0.3553861
11	0x3ddb181a	0.106979564
12	0xbeca4fe4	-0.39514077
13	0xbe6f19d4	-0.23349696
14	0xbeb34bd0	-0.35018778
15	0x3e793e7d	0.24340244
16	0xbebe19bb	-0.37129006
17	0xbe2b0b22	-0.16703466
18	0x3e4376f3	0.19088344
19	0x3e16d355	0.14729054
20	0xbe309338	-0.1724366
21	0xbe20e07c	-0.15710634
22	0xbe4b2ff0	-0.19842505
23	0xbec74c64	-0.3892547
24	0xbe7c9801	-0.2466736
25	0xbe8b0330	-0.2715087
26	0x3e8fcec0	0.28087425
27	0x3eb7e228	0.3591473
28	0xbe62bd99	-0.22142638
29	0xbe66d836	-0.22543415
30	0x3e9ce445	0.30642906
31	0xbd73e83d	-0.05954765
32	0x3e9b2763	0.30303487
33	0x3e9d3e0c	0.307114
34	0xbd82d79a	-0.06388779
35	0x3e5f5236	0.21808705
36	0xbdf236ee	-0.11826883
37	0x3bae0d36	0.0053116335
38	0x3dcc666d	0.09980474
39	0xbdb816bc	-0.08988711
40	0x3e075525	0.13216074
41	0xbead7830	-0.33880758
42	0xbeb51a3c	-0.35371578
43	0xbdbe2fe3	-0.092864774
44	0xbe0c7270	-0.1371553
45	0x3de2aa88	0.110676825
46	0x3e554a0e	0.20829031
47	0xbe87e7f6	-0.2654416
48	0xbce6a3f4	-0.02815435
49	0xbd48dcf2	-0.049038835
50	0xbe3597d8	-0.17733705
51	0x3e7c3eb7	0.24633299
52	0xbdbe86cc	-0.09303054
53	0x3e88fa75	0.26753584
54	0x3eb52dc6	0.35386485
55	0xbe3598dc	-0.17734092
56	0x3e2c2739	0.16811837
57	0xbdb346ec	-0.08753762
58	0x3e3577d3	0.1772149
59	0xbdb061d4	-0.08612409
60	0x3e80849d	0.25101176
61	0xbe573025	-0.2101446
62	0x3df9e738	0.122023046
63	0x3c2fdb44	0.010733429
64	0x3e91043f	0.28323552
65	0xbe944893	-0.2896162
66	0xbeb1dcfe	-0.34738916
67	0x3d0ff1b1	0.035142604
68	0x3e784a3d	0.2424707
69	0xbd976000	-0.073913574
70	0x3eae869e	0.3408708
71	0xbe051311	-0.12995555
72	0xbdfa8105	-0.1223164
73	0xbe76bfd4	-0.24096614
74	0x3e2d4814	0.16922027
75	0x3dbfa273	0.093571566
76	0xbd747cd3	-0.059689354
77	0xbe41d58a	-0.18929115
78	0x3ec7db65	0.39034572
79	0x3ec23e9b	0.3793839
80	0xbd616a3c	-0.055032954
81	0xbe6c52be	-0.23078439
82	0x3e30bedf	0.17260312
83	0x3ed78bfc	0.42098987
84	0xbbc248da	-0.0059290947
85	0x3ec6792f	0.3876433
86	0x3e6b4a4a	0.22977558
87	0x3e25710f	0.1615641
88	0xbe9ddd97	-0.30833122
89	0x3e8619cd	0.2619156
90	0x3ebf0d75	0.37314954
91	0xbdd11d6a	-0.102106884
92	0xbe19d9e9	-0.15024532
93	0x3e40f304	0.18842703
94	0x3dd38ae4	0.10329226
95	0x3e0e8396	0.13917384
96	0xbe62a0cd	-0.22131653
97	0x3e855c73	0.26047096
98	0x3e4db970	0.2009027
99	0x3ea95aeb	0.33077177
100	0xbecdf3cb	-0.40225062
101	0xbda5239d	-0.08063433
102	0x3cd97150	0.02654329
103	0x3e240765	0.16018446
104	0x3d8c5abe	0.06853245
105	0xbec21154	-0.37903845
106	0x3d1fd45d	0.039020885
107	0x3e88d0c4	0.26721776
108	0x3da8726a	0.08224948
109	0xbe4847aa	-0.19558588
110	0x3e36dcf8	0.1785773
111	0x3ea131cd	0.31483307
112	0xbea06b18	-0.31331706
113	0xbd7573fd	-0.05992507
114	0x3e8ec7cd	0.2788681
115	0xbea577ec	-0.32318056
116	0x3d270249	0.040773664
117	0x3e52e199	0.20593871
118	0xbdb17d58	-0.086664855
119	0x3ca53787	0.020168079
120	0x3e3866fc	0.18008035
121	0x3e189273	0.14899616
122	0xbecfaa69	-0.405597
123	0x3e87da2c	0.2653364
124	0x3e87f01c	0.26550376
125	0xbe94af6b	-0.29040083
126	0xbed0e712	-0.40801293
127	0x3db78a69	0.089619465
128	0xbe1440ea	-0.14477888
129	0xbdd9eb44	-0.106405765
130	0x3e3e6572	0.18593386
131	0xbbb87cf9	-0.0056301323
132	0xbd5003a1	-0.05078471
133	0x3eb1862f	0.34672686
134	0xbdb9b26f	-0.09067237
135	0x3eadf324	0.33974564
136	0x3d873a8a	0.06602962
137	0x3e8c94c5	0.27457252
138	0x3d87f0a5	0.06637696
139	0xbdc7a0e6	-0.09747486
140	0xbe628810	-0.22122216
141	0x3ea1fdd9	0.31638983
142	0xbe0b235a	-0.13587704
143	0xbdaa48b0	-0.08314645
144	0x3d5c0542	0.05371595
145	0x3e04a693	0.12954168
146	0xbe9fcc83	-0.31210718
147	0xbe888354	-0.26662695
148	0x3e1b66bb	0.15175907
149	0x3ea87cb1	0.32907632
150	0xbe896c87	-0.26840612
151	0xbec11edd	-0.3771886
152	0x3ea4fa23	0.3222209
153	0xbdb57bf8	-0.08861536
154	0xbeb38535	-0.35062566
155	0xbe498d48	-0.19682801
156	0x3e801e31	0.25023034
157	0x3ea1a390	0.315701
158	0x3e9d0169	0.30665138
159	0xbeaaebc1	-0.3338299
160	0x3e867653	0.2626215
161	0x3e1a439b	0.15064852
162	0xbea4a916	-0.32160252
163	0x3ddf2305	0.10895351
164	0xbc410421	-0.01178077
165	0x3e2610b8	0.16217315
166	0xbe50777f	-0.20358084
167	0x3ea7f501	0.3280411
168	0x3eb3bc85	0.35104766
169	0x3eb11e98	0.34593654
170	0xbea7a58b	-0.32743487
171	0xbec0e2f1	-0.37673143
172	0xbe3e4554	-0.18581134
173	0x3dc93d6a	0.09826167
174	0x3d8b2284	0.06793693
175	0xbeb19e62	-0.3469115
176	0xbeab2b46	-0.33431453
177	0xbdf8fa3a	-0.12157102
178	0xbb8ec059	-0.0043564257
179	0xbe92c148	-0.28663087
180	0x3dd9b602	0.10630418
181	0x3e664a07	0.22489177
182	0x3d5c9543	0.053853285
183	0x3e4a0c5f	0.19731282
184	0x3de282b2	0.110600844
185	0x3e601026	0.2188116
186	0x3e388124	0.18018013
187	0xbe3812b9	-0.17975892
188	0xbc9cd596	-0.019144814
189	0x3e3a1c87	0.18174945
190	0x3e466b36	0.19376835
191	0xbdc95059	-0.09829778
192	0x3ec14c91	0.37753728
193	0xbe3991d4	-0.18122035
194	0x3e4cef30	0.20013118
195	0xbd1eac18	-0.03873834
196	0xbe7fe0ae	-0.24988052
197	0x3eb82956	0.35969037
198	0x3e6054d3	0.21907358
199	0xbdfebe94	-0.12438694
200	0xbe5465e2	-0.2074199
201	0xbec85ab8	-0.39131713
202	0x3e07f2cb	0.13276212
203	0x3e061ec4	0.13097674
204	0xbe5f6f36	-0.21819767
205	0x3caffa6e	0.021481719
206	0xbe90cefc	-0.28282917
207	0xbdeb5b26	-0.114919946
208	0xbe56231d	-0.20911832
209	0x3eb6dc88	0.35715127
210	0x3e9887b9	0.29791048
211	0x3d75d4ee	0.06001752
212	0x3dd502ec	0.10400948
213	0x3db45e53	0.088070534
214	0xbe8eb15d	-0.27869692
215	0xbe3b3958	-0.18283594
216	0xbec2cbd4	-0.38046134
217	0x3eb29b23	0.34883985
218	0xbe2a7a0a	-0.16648117
219	0x3e864655	0.26225534
220	0xbdd379a1	-0.10325933
221	0x3e6ded79	0.2323512
222	0x3eb237d4	0.34808218
223	0xbe9fb4d9	-0.31192663
224	0xbe103946	-0.14084348
225	0xbecb0bc3	-0.3965741
226	0x3e072a16	0.13199648
227	0x3bc775dd	0.0060870484
228	0xbede62c6	-0.43434733
229	0xbe81f018	-0.2537849
230	0x3d84d453	0.0648581
231	0xbd031f33	-0.032012176
232	0x3ecc6ab6	0.39925164
233	0xbea7739f	-0.327054
234	0xbe049edf	-0.1295123
235	0x3eb1a7e1	0.34698394
236	0x3ebf8935	0.37409368
237	0x3e86efb9	0.2635477
238	0x3e926f13	0.28600368
239	0x3e978ae1	0.29598144
240	0x3a9c3caf	0.0011919941
241	0xbded5e17	-0.11590212
242	0x3e83ef4d	0.2576851
243	0x3e25f131	0.16205288
244	0x3ebff927	0.37494776
245	0x3ea7161c	0.32634056
246	0xbe01a82f	-0.12661813
247	0x3e90f53f	0.28312108
248	0x3e633bb0	0.22190738
249	0x3e665873	0.22494678
250	0xbde9e155	-0.11419932
251	0x3e2cd681	0.16878702
252	0xbed6d19c	-0.41956794
253	0xbde59d0e	-0.112115964
254	0xbe04e7b2	-0.1297901
255	0xbde4b9a8	-0.111682236

encoder.0.bias f4 [16]
0	0xbc89f6cd	-0.016841317
1	0xbbbfc688	-0.005852524
2	0xbcfc1eb3	-0.030776357
3	0x3cd64196	0.02615432
4	0x3cba01bd	0.022705907
5	0xbc50eefa	-0.012752289
6	0x3a16c1c9	0.0005750922
7	0xbc7ae52c	-0.015313428
8	0x00000000	0.0
9	0x00000000	0.0
10	0x3cc888e8	0.024479344
11	0xbcbbf179	-0.022942292
12	0xbc747f7c	-0.014922973
13	0x3d9e4417	0.07727831
14	0x00000000	0.0
15	0x00000000	0.0

encoder.2.weight f4 [16, 16]
0	0xbe362d4d	-0.17790718
1	0x3dff09a0	0.12453008
2	0x3eb4024e	0.35158008
3	0xbdb4fe77	-0.08837598
4	0xbd4702f9	-0.04858682
5	0xbebfe482	-0.37479025
6	0xbde61fab	-0.11236509
7	0xbdc75780	-0.09733486
8	0xbe626284	-0.22107893
9	0x3e32c04b	0.17456166
10	0x3e0f91c5	0.1402045
11	0x3e87ae82	0.26500326
12	0xbe4fb125	-0.20282419
13	0xbefa6c77	-0.48910877
14	0xbe119016	-0.1421512
15	0x3c697fe3	0.014251682
16	0xbe1d6a5a	-0.15372601
17	0xbda249ee	-0.07924257
18	0x3eae1960	0.34003735
19	0xbedf4324	-0.43605912
20	0xbd29daef	-0.041468557
21	0x3ed4b61f	0.41545197
22	0xbe400101	-0.18750383
23	0x3e31dd22	0.17369512
24	0xbe6f344a	-0.2335979
25	0xbe55f814	-0.20895416
26	0xbed27b2e	-0.41109604
27	0x3ec04494	0.3755232
28	0xbe918ae1	-0.2842627
29	0xbd8cb85b	-0.068711005
30	0x3ec53a83	0.38521203
31	0xbd064c58	-0.03278765
32	0x3e8c3d94	0.2739073
33	0x3e8e5e59	0.27806357
34	0x3eb912f6	0.3614728
35	0xbec02838	-0.37530684
36	0x3ece548b	0.40298876
37	0xbdff68ea	-0.12471183
38	0xbeb69165	-0.35657802
39	0x3e6f3cfe	0.2336311
40	0xbed250a1	-0.4107714
41	0xbc8063f0	-0.015672654
42	0xbd9b79f5	-0.07591621
43	0x3ed7d95b	0.42158017
44	0xbcd2aea4	-0.02571804
45	0xbe9582b7	-0.2920129
46	0x3e67e8f0	0.22647452
47	0xbe8cf5f4	-0.27531397
48	0x3ed39d30	0.41330862
49	0x3eb84e24	0.35997117
50	0xbe96307d	-0.2933387
51	0x3d6e8466	0.058231734
52	0xbe868be3	-0.262786
53	0x3d2e00de	0.042481296
54	0x3e8d8406	0.27639788
55	0xbe9dd908	-0.30829644
56	0xbe84cb5c	-0.259364
57	0xbec12a88	-0.3772776
58	0x3d4f6011	0.050628725
59	0x3cc085f7	0.02350138
60	0x3d9c5740	0.07633829
61	0x3ed8b484	0.42325222
62	0xbe803015	-0.25036684
63	0xbe95cb07	-0.2925646
64	0x3ea6ce21	0.3257914
65	0x3ec7c77f	0.3901939
66	0x3ea3489a	0.31891328
67	0x3d10ec1f	0.035381433
68	0xbe489fb5	-0.19592173
69	0x3e6c1bf1	0.23057534
70	0xbbdfe65e	-0.006832882
71	0x3d37ad55	0.044843037
72	0xbeb793f0	-0.35855055
73	0x3ec6f1b0	0.38856268
74	0xbee263ce	-0.4421677
75	0x3ec48e2f	0.38389727
76	0x3e803f27	0.2504818
77	0xbe7d971d	-0.24764676
78	0xbedabf3f	-0.42724034
79	0xbde79680	-0.113080025
80	0xbd9f50db	-0.07779094
81	0x3e91fafd	0.285118
82	0x3eb1c8bc	0.3472346
83	0x3e9b710a	0.3035968
84	0xbe315729	-0.17318405
85	0x3ec91b7d	0.39278784
86	0xbdad051d	-0.08448241
87	0x3a93b2e0	0.0011268519
88	0xbd1e5852	-0.038658448
89	0x3ed5f9d3	0.41792163
90	0x3e52b32d	0.20576163
91	0x3e9a7f2a	0.30175143
92	0xbdcbfa18	-0.09959811
93	0xbe1d9069	-0.1538712
94	0x3daad83b	0.08342024
95	0x3e3420fc	0.17590708
96	0x3e98b361	0.29824355
97	0xbe7eb109	-0.24872221
98	0xbd5e5a63	-0.05428542
99	0xbe744769	-0.23855366
100	0xbdfe4518	-0.12415522
101	0xbdd15a17	-0.102222614
102	0x3ebd4484	0.36966336
103	0x3e48ad2e	0.19597313
104	0xbe87effb	-0.26550278
105	0xbce564f7	-0.028002245
106	0x3e1ee9d4	0.15518886
107	0xbe7f8377	-0.24952494
108	0xbe3a9800	-0.18222046
109	0xbd398883	-0.045296203
110	0xbe9b7e98	-0.3037002
111	0x3edc5392	0.4303251
112	0x3ec1a909	0.37824276
113	0xbec21461	-0.37906173
114	0xbd885662	-0.06657101
115	0x3c7ecb22	0.01555136
116	0x3e0cd2e7	0.13752328
117	0x3e01d6ae	0.1267955
118	0x3edbbaa6	0.4291584
119	0x3e89669d	0.268361
120	0x3e7d1108	0.24713528
121	0xbe5b01cf	-0.21387409
122	0xbe5ede90	-0.21764588
123	0x3ebf1cab	0.3732656
124	0x3e077e8f	0.13231872
125	0xbeb62a34	-0.35579073
126	0x3e76b90b	0.24094026
127	0x3e1b55e9	0.15169491
128	0x3d4aed5c	0.04954277
129	0xbda7796a	-0.08177455
130	0x3ec8db82	0.3922997
131	0xbee41b93	-0.44552287
132	0xbedeeb2b	-0.43538794
133	0x3ea00b55	0.31258646
134	0x3edb7b50	0.42867517
135	0xbe812fe8	-0.25231862
136	0xbe21798b	-0.15769021
137	0x3e3d2f21	0.1847501
138	0xbe715854	-0.23568851
139	0x3e8e7c09	0.27829006
140	0x3ea892c7	0.32924482
141	0xbe05948b	-0.13044946
142	0x3e0625fb	0.13100426
143	0x3e75549f	0.23958062
144	0xbd5f795e	-0.054559104
145	0x3de6b15b	0.112642966
146	0x3e13e0d8	0.1444124
147	0x3e81e363	0.25368795
148	0x3e6ab399	0.22920074
149	0x3eae2a51	0.3401666
150	0xbdaa777b	-0.0832357
151	0xbeb24b6a	-0.3482316
152	0xbe56a330	-0.20960689
153	0xbdd1a840	-0.10237169
154	0x3ead4343	0.3384038
155	0xbea6d9a1	-0.32587913
156	0x3ea7711b	0.3270348
157	0x3e65f982	0.22458461
158	0xbe56b5f4	-0.20967847
159	0x3dc07c08	0.09398657
160	0x3e932c58	0.2874477
161	0x3d67e970	0.056619108
162	0xbdd6d254	-0.10489336
163	0x3e4b4090	0.19848847
164	0xbe827d5a	-0.2548626
165	0xbed548de	-0.41657156
166	0x3ea07f46	0.31347102
167	0x3d4af4d0	0.049549878
168	0x3e809be6	0.2511894
169	0x3ec743b4	0.3891884
170	0x3e9740d8	0.2954166
171	0x3ea121da	0.3147114
172	0xbc93b354	-0.018029846
173	0xbd1893d1	-0.037250344
174	0x3e41edd3	0.18938379
175	0x3e301495	0.17195351
176	0x3e22b10b	0.15887849
177	0x3e8c2ea0	0.27379322
178	0xbd13edf0	-0.036115587
179	0xbe6f06cc	-0.23342437
180	0x3e3c3f2c	0.18383473
181	0xbe4a2b3f	-0.1974306
182	0x3cae45d7	0.021273537
183	0xbdd55938	-0.10417408
184	0xbe654044	-0.22387797
185	0xbed28cb9	-0.41122988
186	0x3e7c6986	0.24649629
187	0xbe6446c5	-0.22292621
188	0x3e28517c	0.16437334
189	0xbe5ecfb5	-0.21758921
190	0x3dae2920	0.08503938
191	0xbe6bd807	-0.23031627
192	0x3e83acb8	0.2571771
193	0xbed7326d	-0.4203066
194	0xbea8d77f	-0.3297691
195	0x3c215915	0.009847899
196	0xbe96380a	-0.2933963
197	0x3e059d79	0.13048352
198	0x3eaa3d17	0.33249733
199	0xbe982cc0	-0.29721642
200	0x3d2bc2a7	0.04193368
201	0x3e5688ec	0.20950669
202	0xbe6417c3	-0.2227469
203	0xbd13ba08	-0.036066085
204	0xbd937e0f	-0.07201778
205	0xbd7cc7b1	-0.061713878
206	0xbec40119	-0.38282087
207	0xbe504b7c	-0.20341295
208	0xbe5891eb	-0.21149413
209	0x3e2ab795	0.16671593
210	0x3e8b2a43	0.2718068
211	0xbcf43161	-0.029808702
212	0xbe69844f	-0.22804378
213	0x3e3ee939	0.18643655
214	0x3eb2c471	0.34915498
215	0x3e850ae3	0.25984868
216	0x3e89ad97	0.2689025
217	0x3e24fa53	0.16111116
218	0xbddd1bb1	-0.10796297
219	0xbe2cb45b	-0.16865675
220	0xbda3b838	-0.07994121
221	0x3ec15642	0.37761122
222	0x3e286d48	0.16447937
223	0xbec5b1e0	-0.3861227
224	0x3ec489d2	0.383864
225	0xbd820334	-0.06348267
226	0x3dce77a7	0.100814156
227	0x3db93b4b	0.09044512
228	0x3ecf80bc	0.40527904
229	0xbd623c93	-0.05523355
230	0x3f649989	0.89296776
231	0x3f3cbfb7	0.73730034
232	0x3d8884dc	0.06665966
233	0x3ec003d3	0.37502918
234	0x3e8befc8	0.27331376
235	0xbe89c413	-0.26907405
236	0x3d2f9577	0.04286715
237	0xbe92ff04	-0.28710186
238	0xbe942e63	-0.2894164
239	0x3da1703f	0.07882737
240	0x3dbb323f	0.09140443
241	0x3cfcec7f	0.030874489
242	0x3ec85b5f	0.3913221
243	0xbec4b634	-0.3842026
244	0xbe441309	-0.19147886
245	0x3e261916	0.16220507
246	0xbe5a7b72	-0.21336153
247	0x3e2b5bae	0.16734192
248	0xbe15e357	-0.14637505
249	0x3e309633	0.17244796
250	0xbd8a092a	-0.06740029
251	0xbe961328	-0.2931149
252	0x3d72cd30	0.059277713
253	0x3ec2544a	0.37954932
254	0xbe36223d	-0.17786498
255	0xbecbc9f5	-0.39802518

encoder.2.bias f4 [16]
0	0xbc83bf7b	-0.016082516
1	0xbc29793c	-0.010343846
2	0x3bb7a9ad	0.0056049437
3	0xbcb3ccf9	-0.021948325
4	0xbc317fb5	-0.01083367
5	0x3ca8bb8f	0.020597247
6	0x00000000	0.0
7	0x3a32142e	0.0006793168
8	0xbc2c6f8b	-0.010524641
9	0xbb9dfcab	-0.00482138
10	0x3c1b861c	0.009492423
11	0x00000000	0.0
12	0x00000000	0.0
13	0xbad8a292	-0.0016527942
14	0x3b84a63b	0.0040481365
15	0xbb9caa82	-0.0047810683

encoder.4.weight f4 [32, 16]
0	0x3e866862	0.26251513
1	0xbb8a1cda	-0.004214865
2	0xbdb732ac	-0.08945212
3	0x3ea0df9a	0.31420594
4	0x3ea5578a	0.3229335
5	0x3e6a8a5e	0.22904345
6	0xbdfd7073	-0.123749636
7	0x3dbdcb1b	0.09267255
8	0x3e2c67e9	0.16836514
9	0x3d25b52d	0.040455986
10	0x3e4edee9	0.20202221
11	0xbe2d2fce	-0.16912767
12	0xbcc447a0	-0.023959935
13	0x3e2ab972	0.16672304
14	0x3cecb06b	0.028892716
15	0x3ae7718f	0.0017657744
16	0xbccf8ba3	-0.025335139
17	0xbe890b3e	-0.2676639
18	0xbe1019ad	-0.14072295
19	0x3ea7ad35	0.32749334
20	0x3e8457c4	0.2584821
21	0xbe5092f7	-0.20368563
22	0xbd1542e7	-0.036440756
23	0x3eb52292	0.35377938
24	0x3d016418	0.031589597
25	0xbe38bc00	-0.18040466
26	0x3db0062e	0.08594929
27	0xbe0ce119	-0.13757743
28	0x3d976d40	0.07393885
29	0xbe599a07	-0.21250163
30	0xbe774536	-0.24147496
31	0x3e187ef8	0.14892185
32	0x3e6f3511	0.23360087
33	0x3d9256bf	0.07145452
34	0x3d291c19	0.04128656
35	0x3e53fac1	0.20701124
36	0xbe9db30b	-0.3080066
37	0xbe9c9f5d	-0.30590335
38	0xbdc09146	-0.09402709
39	0x3e948cd0	0.2901368
40	0x3e7d01ca	0.24707714
41	0x3e601a3e	0.2188501
42	0x3e90c577	0.28275654
43	0x3e499110	0.19684243
44	0xbe1db887	-0.15402423
45	0x3e848401	0.2588196
46	0xbe0b23c0	-0.13587856
47	0x3d80c709	0.06287963
48	0xbddaef11	-0.106901295
49	0x3dc36423	0.09540584
50	0x3e19b010	0.15008569
51	0xbe3d25ae	-0.18471405
52	0x3ea0aa58	0.31379962
53	0xbe9e8468	-0.30960393
54	0x3e905deb	0.28196654
55	0x3cbf912e	0.023384657
56	0x3e6c3389	0.23066534
57	0x3e0e0bcf	0.13871692
58	0xbcc2db5b	-0.023786237
59	0x3c27f319	0.01025083
60	0x3d303372	0.043017812
61	0x3e5418bd	0.20712562
62	0xbea48c0b	-0.32138094
63	0xbdc4482b	-0.095840774
64	0x3eb078cf	0.3446717
65	0x3e150771	0.1455362
66	0x3e8cd94b	0.2750953
67	0x3cc37aea	0.02386232
68	0x3daa3644	0.083111316
69	0x3bf9da0f	0.0076248716
70	0xbdd60034	-0.104492575
71	0xbc67e495	-0.014153619
72	0xbe4160b9	-0.18884553
73	0xbd0a64d6	-0.03378757
74	0xbe11b152	-0.14227799
75	0x3d5ea134	0.054352954
76	0xbb42be90	-0.0029715635
77	0x3ea56336	0.32302254
78	0x3d1ecc8c	0.03876929
79	0x3c218400	0.009858131
80	0x3e5fa7c1	0.21841337
81	0x3e211f5f	0.15734623
82	0xbe4e328e	-0.20136473
83	0x3e2022b8	0.15638244
84	0xbe9a8872	-0.30182225
85	0x3e939870	0.28827238
86	0xbdbaf63f	-0.09128999
87	0x3b8a4e26	0.004220742
88	0x3d14b020	0.03630078
89	0xbe95a3f1	-0.2922664
90	0x3de43164	0.11142233
91	0xbe9a60b6	-0.3015191
92	0xbe1e0ecb	-0.1543533
93	0xbe83d83b	-0.25750908
94	0xbe9436dc	-0.28948104
95	0xbc87e62f	-0.016589252
96	0x3dba72d3	0.09103932
97	0x3e1059e0	0.14096785
98	0xbda58dac	-0.080836624
99	0x3e630202	0.22168735
100	0xbdc6c310	-0.09705174
101	0x3d046381	0.032321457
102	0x3de94878	0.113907754
103	0xbeb4054b	-0.35160288
104	0x3e99e3dd	0.30056658
105	0xbdc67ea3	-0.09692123
106	0xbb20328f	-0.0024444198
107	0xbe573546	-0.21016416
108	0xbea5791c	-0.32318962
109	0x3e578199	0.21045531
110	0xbe75f7c4	-0.24020296
111	0xbe6aaefc	-0.22918314
112	0x3e427582	0.18990138
113	0x3d2a659a	0.0416008
114	0x3eb0c5be	0.34525865
115	0xbe34a603	-0.17641453
116	0xbe3352c9	-0.17512049
117	0x3e2fd8b6	0.17172512
118	0x3e46ac9c	0.19401783
119	0x3d19e5bb	0.037572604
120	0x3dd9e15a	0.106386855
121	0x3eae8af4	0.34090388
122	0xbe571d3d	-0.21007247
123	0xbe9152ad	-0.2838339
124	0xbe61f8ac	-0.22067517
125	0x3e72940e	0.23689291
126	0x3e54af3e	0.20769975
127	0x3e142608	0.14467633
128	0xbe0f3674	-0.13985616
129	0x3e62342c	0.22090214
130	0xbd6489b6	-0.055795394
131	0x3e0d3396	0.1378921
132	0xbe99296f	-0.29914424
133	0xbe5183da	-0.20460454
134	0x3ea08f2c	0.3135923
135	0xbd801449	-0.06253869
136	0x3e93707d	0.2879676
137	0x3d32ba52	0.04363472
138	0xbd4699d4	-0.048486546
139	0x3e0e5f36	0.13903508
140	0x3dbbff91	0.09179605
141	0xbe40754e	-0.18794748
142	0xbe8e03fb	-0.27737412
143	0xbe8d9670	-0.27653837
144	0xbdedb8d8	-0.11607522
145	0x3e82b88f	0.25531432
146	0xbe581cbe	-0.21104714
147	0xbd634a66	-0.055490874
148	0xbdd6e8e2	-0.104936376
149	0xbd9ea066	-0.07745437
150	0xbe7225a7	-0.23647176
151	0xbe404807	-0.18777476
152	0x3d5a474a	0.053290643
153	0x3c04262b	0.008065741
154	0x3eb676b2	0.35637432
155	0x3e6a4c66	0.22880706
156	0x3e313ae3	0.1730762
157	0x3e0aaa8a	0.13541618
158	0x3d056765	0.032569308
159	0x3e5203ae	0.20509216
160	0x3e8ea3d6	0.27859372
161	0xbe8a9da1	-0.27073386
162	0xbe490b63	-0.1963325
163	0x3ceee666	0.029162597
164	0x3e8af648	0.27141023
165	0x3ea86f20	0.32897282
166	0xbd907325	-0.07053212
167	0x3e419a2f	0.18906473
168	0xbe1ce663	-0.1532226
169	0xbcf60090	-0.030029565
170	0xbeaab2f7	-0.33339664
171	0xbe3c1905	-0.18368919
172	0x3d71f46f	0.059071
173	0xbdbbb533	-0.091654204
174	0xbe1d38be	-0.15353677
175	0xbeba94e1	-0.3644171
176	0x3d36718e	0.044541888
177	0x3e983391	0.29726842
178	0xbe9698b0	-0.29413366
179	0x3e1ce880	0.15323067
180	0x3d8f7cdf	0.07006239
181	0x3d01a6c0	0.031653166
182	0xbd5a0f1e	-0.053237073
183	0xbc7c9f6f	-0.015418871
184	0x3eb0afa1	0.34508994
185	0xbe99e9d7	-0.30061218
186	0xbdadaecc	-0.084806055
187	0xbdbfcea5	-0.09365586
188	0xbdfc3da7	-0.12316447
189	0xbe5d97c2	-0.21639922
190	0xbea14db2	-0.3150459
191	0x3e8544e2	0.26029116
192	0x3e4db026	0.20086727
193	0xbea98a8b	-0.33113512
194	0x3e9ea171	0.30982545
195	0xbd944f63	-0.07241704
196	0xbe9ee770	-0.31035948
197	0x3eb08ed7	0.34483978
198	0xbe949108	-0.290169
199	0xbd9fbec3	-0.07800057
200	0x3d96f9e6	0.07371883
201	0x3e3388f2	0.17532709
202	0xbdb47a5b	-0.088124
203	0x3d8b0011	0.06787122
204	0x3d5c519f	0.053788777
205	0xbea9f6f6	-0.3319623
206	0xbe467679	-0.19381131
207	0x3e7acc97	0.24492107
208	0x3e95c034	0.29248202
209	0xbdc244d1	-0.09485782
210	0x3e46e099	0.19421615
211	0xbea5411f	-0.32276246
212	0x3d6b68b2	0.057472892
213	0xbdf30e93	-0.11868014
214	0x3d53a30d	0.05166917
215	0x3e853f6f	0.26024958
216	0x3ea8fe41	0.3300648
217	0x3e428d2d	0.18999167
218	0x3d1271ab	0.035752933
219	0x3e9af501	0.30265048
220	0xbd7e101f	-0.062027093
221	0xbd06a9f2	-0.032876916
222	0x3dc50795	0.09620587
223	0x3d3e0afb	0.04639719
224	0xbcaaf0f5	-0.02086685
225	0xbe9f95e6	-0.3116905
226	0x3e049f08	0.1295129
227	0x3e58e184	0.21179777
228	0x3ea4a722	0.32158762
229	0x3e6557d6	0.22396788
230	0x3de43660	0.11143184
231	0xbe98fdf4	-0.2988125
232	0x3e9c2cd2	0.30502945
233	0x3d8dc21c	0.06921789
234	0xbea2a5a0	-0.31766987
235	0x3dfc2405	0.12311558
236	0xbeb1d983	-0.3473626
237	0xbe3b6080	-0.1829853
238	0x3eba2941	0.363596
239	0x3dbfac38	0.0935902
240	0x3ea913bd	0.33022872
241	0xbe648433	-0.22316055
242	0x3e9a33be	0.301176
243	0xbea0c2af	-0.31398532
244	0x3e5bb91f	0.21457337
245	0xbdc6b060	-0.097016096
246	0x3dededef	0.11617648
247	0x3e60a035	0.21936114
248	0xbe3432d0	-0.17597508
249	0x3e9c4764	0.30523217
250	0xbe869080	-0.2628212
251	0x3e68ee20	0.22747087
252	0xbe6debc2	-0.23234466
253	0xbe5fe7a1	-0.21865703
254	0x3e2df1a4	0.1698671
255	0xbce80252	-0.028321419

encoder.4.bias f4 [32]
0	0xbccefda1	-0.025267424
1	0x3cc8402a	0.024444658
2	0x3c357ae9	0.011076667
3	0xbc34ae05	-0.011027818
4	0x3cd4ffe8	0.026000932
5	0xbc42d0ca	-0.0118905995
6	0xbcce247a	-0.025163878
7	0x3a9ed487	0.0012117781
8	0xbbdd2335	-0.006748582
9	0x3cc2f238	0.02379714
10	0x3c525d2c	0.012839597
11	0x3c4c52ac	0.012470882
12	0x3cc3674c	0.023852967
13	0xbb0b0d40	-0.0021217614
14	0x3c8844f3	0.01663444
15	0xbc44bfb5	-0.012008597
16	0x3adc4cc1	0.0016807542
17	0x3c25e9cc	0.010126542
18	0x3bb1bd70	0.005424194
19	0x3c372823	0.011179003
20	0x3abaa903	0.0014241043
21	0xbc9047be	-0.017612334
22	0x3bfcdb68	0.007716585
23	0x3c4b4a06	0.012407785
24	0x3c0bec76	0.008540263
25	0xbc273183	-0.010204676
26	0x3c3f82b0	0.011688873
27	0x3c1b3653	0.009473401
28	0x3c95a714	0.018268146
29	0xbc6ebc26	-0.014571225
30	0x3c4ccdb6	0.012500217
31	0x3c2fbbcb	0.010725926

nee_decoder.0.weight f4 [16, 32]
0	0xbd860846	-0.06544547
1	0xbd7e24d3	-0.062046837
2	0x3e65960b	0.22420518
3	0x3e1b600a	0.15173355
4	0x3eac531b	0.33657154
5	0xbe853dba	-0.26023656
6	0x3e51aae2	0.20475343
7	0xbd04c17a	-0.032411076
8	0x3e8a6459	0.27029684
9	0x3e1a447b	0.15065186
10	0xbea0face	-0.3144135
11	0x3e7f47eb	0.24929778
12	0x3d3b281b	0.045692544
13	0xbe3b7a48	-0.18308365
14	0x3e2e19b0	0.17001987
15	0x3e35004b	0.17675893
16	0xbe5b2f9e	-0.21404883
17	0x3e11917d	0.14215656
18	0x3e026b05	0.12736137
19	0x3e932a46	0.2874319
20	0xbde3b060	-0.11117625
21	0x3e93cac6	0.2886564
22	0x3e72e76e	0.23721096
23	0xbe8eec0c	-0.27914464
24	0xbe26063a	-0.16213313
25	0x3e9803f0	0.29690504
26	0x3e7e06ef	0.24807332
27	0x3e63a0db	0.2222933
28	0xbe3606b9	-0.17776002
29	0x3e35ca1f	0.17752884
30	0x3e065271	0.13117386
31	0xbda2eb9e	-0.07955097
32	0xbea46f1f	-0.3211603
33	0x3e93f412	0.28897148
34	0xbb6d54bc	-0.0036213836
35	0x3d8e4fff	0.06948852
36	0x3e22b55a	0.15889493
37	0xbe983458	-0.29727435
38	0xbe8861c0	-0.26637077
39	0x3e82deda	0.25560647
40	0xbeaa29ee	-0.33235115
41	0xbeb21e67	-0.3478882
42	0xbe52793d	-0.20554061
43	0xbdf28492	-0.11841692
44	0x3d01424c	0.031557366
45	0x3e85cd26	0.26133078
46	0x3e3adc89	0.1824819
47	0xbe4a4ed8	-0.19756639
48	0xbd85c123	-0.065309785
49	0xbd8e9107	-0.069612555
50	0xbe052f8d	-0.1300642
51	0xbeaf2c2e	-0.34213394
52	0x3ea28cc8	0.31748033
53	0xbd2dac17	-0.042400446
54	0xbe5a2b3d	-0.21305557
55	0xbe686d22	-0.22697881
56	0x3d9aa299	0.07550544
57	0x3d7f2c78	0.062298268
58	0xbe7b8f6e	-0.24566433
59	0xbdee7eb7	-0.11645263
60	0xbe871b85	-0.26388183
61	0xbd714b91	-0.058909956
62	0x3e99a625	0.3000957
63	0xbdc0a6f4	-0.09406844
64	0xbd14649b	-0.036228757
65	0xbdca19be	-0.09868191
66	0x3e077cbc	0.13231176
67	0xbde0c94d	-0.10975895
68	0x3e8e995f	0.27851388
69	0x3e02f980	0.12790489
70	0x3e23ddd7	0.16002594
71	0x3eabe759	0.33574942
72	0x3e5f6d64	0.21819073
73	0xbdd9e67b	-0.10639664
74	0xbe4a5dfd	-0.19762416
75	0xbe9e7920	-0.30951786
76	0x3e89e757	0.2693431
77	0xbd897dd5	-0.06713454
78	0xbe5ad305	-0.2136956
79	0x3e546d3d	0.20744796
80	0xbd50e3b3	-0.0509984
81	0xbe7dbb9a	-0.24778596
82	0xbe7679ec	-0.24069947
83	0xbe589d37	-0.21153723
84	0x3eaf85cc	0.34281766
85	0x3d97775f	0.07395815
86	0x3e217a94	0.15769416
87	0xbde6d177	-0.11270421
88	0xbd4432e6	-0.047900103
89	0x3e666bf6	0.22502121
90	0x3ea481d6	0.32130307
91	0xbe527951	-0.20554091
92	0xbdc659c7	-0.096850924
93	0xbd205b7b	-0.039149743
94	0x3e9834ad	0.29727688
95	0x3e18dd6c	0.14928216
96	0x3e9ae455	0.3025233
97	0x3e39718b	0.1810972
98	0xbe7458b7	-0.23861967
99	0x3dab36ef	0.08360087
100	0xbe3845f6	-0.17995438
101	0xbd89f7ae	-0.06736694
102	0x3bf6a0e1	0.0075265025
103	0x3d62819a	0.05529938
104	0xbe6bd585	-0.2303067
105	0x3e995356	0.29946393
106	0xbe905342	-0.2818852
107	0xbea79b25	-0.32735553
108	0x3ddf77f3	0.109115504
109	0xbde5b624	-0.11216381
110	0x3e903185	0.2816278
111	0x3e86280f	0.26202437
112	0x3e99a73e	0.30010408
113	0xbe62c1e9	-0.22144283
114	0x3e4718fb	0.19443123
115	0x3e893c8b	0.26804003
116	0x3cdb2db8	0.026755199
117	0xbe9d98df	-0.30780694
118	0x3ec0300f	0.37536666
119	0xbe1a17b9	-0.15048112
120	0xbedeef51	-0.4354196
121	0x3df187b5	0.11793462
122	0x3e667201	0.22504427
123	0x3e1d5d2b	0.15367572
124	0xbe5299b2	-0.20566443
125	0x3e81406b	0.2524446
126	0xbe9c6f90	-0.30553865
127	0xbb3c63cd	-0.002874601
128	0xbdedf150	-0.11618292
129	0xbe431576	-0.19051155
130	0xbe603a0c	-0.21897143
131	0x3e6c9918	0.23105276
132	0x3d54b85a	0.051933624
133	0x3bbfd768	0.005854536
134	0x3eb31e40	0.34984016
135	0x3ec7427e	0.38917917
136	0xbd952333	-0.07282104
137	0xbe80e8f3	-0.25177726
138	0x3ed04b0a	0.4068225
139	0xbe535d70	-0.20641112
140	0xbe1566fe	-0.1459007
141	0xbdc91010	-0.09817517
142	0x3efe5b9f	0.49679276
143	0x3d16a379	0.036776993
144	0xbe192c91	-0.14958407
145	0x3e6b9174	0.23004705
146	0x3e8ad988	0.27119088
147	0x3e5e6b79	0.21720685
148	0xbe0f6bea	-0.1400601
149	0xbdde97ed	-0.10868821
150	0x3ec17339	0.3778322
151	0xbd6c08b8	-0.057625502
152	0xbee2b58c	-0.44279134
153	0x3e92a713	0.28643093
154	0x3dd2a63b	0.10285612
155	0xbec654d7	-0.38736603
156	0x3de726e4	0.11286715
157	0x3d854cbe	0.06508778
158	0x3e807309	0.25087765
159	0x3dad1ab6	0.0845236
160	0xbe28a96b	-0.16470878
161	0xbe5a0f35	-0.21294864
162	0x3e7a698c	0.24454325
163	0xbe2d9894	-0.16952735
164	0xbea667d7	-0.325011
165	0xbd74f547	-0.059804227
166	0x3dabefa7	0.083953194
167	0xbcc9ba0a	-0.024624843
168	0x3d64edac	0.055890724
169	0xbdb73de8	-0.089473546
170	0x3e42801b	0.18994181
171	0x3dc6f464	0.097145826
172	0x3e0e6b1c	0.13908046
173	0x3c961571	0.018320771
174	0x3e7e5df6	0.24840531
175	0x3e6c9053	0.2310193
176	0xbe24db42	-0.16099265
177	0xbe71cb06	-0.23612604
178	0x3b826245	0.003979
179	0x3e8046b8	0.25053954
180	0x3dbf7466	0.09348373
181	0x3e7f17e5	0.24911459
182	0xbd8bd7f4	-0.06828299
183	0xbdbd4ad8	-0.09242791
184	0x3dbfa94d	0.093584634
185	0xbd895cdd	-0.067071654
186	0xbe6f4969	-0.23367848
187	0x3e05bcfe	0.13060376
188	0xbe154459	-0.14576854
189	0xbe3d1c52	-0.18467835
190	0xbe409a09	-0.1880876
191	0x3e6a7c65	0.22899015
192	0xbe48fa18	-0.19626653
193	0xbe19b163	-0.15009074
194	0xbe842ece	-0.2581696
195	0xbe0a4676	-0.13503441
196	0xbeb3bd4a	-0.35105354
197	0x3e2e0ba9	0.16996635
198	0xbe693ba7	-0.22776662
199	0x3e88ad14	0.26694548
200	0x3ced6c83	0.028982406
201	0x3e991a12	0.29902703
202	0xbe19dddc	-0.15026039
203	0xbe9d9299	-0.30775908
204	0x3ea602b7	0.32423946
205	0x3e81176b	0.2521318
206	0x3ea3bdf2	0.31980854
207	0x3d9fb9cc	0.0779911
208	0xbd48c1ef	-0.049013074
209	0x3df21977	0.11821263
210	0x3e9eb50d	0.30997506
211	0x3d9a5a79	0.075367875
212	0xbe967fb2	-0.293943
213	0xbeac4606	-0.33647174
214	0xbea718e9	-0.32636192
215	0xbe972d62	-0.29526812
216	0xbe482909	-0.19546904
217	0x3e546346	0.20740995
218	0xbe8e7dce	-0.27830356
219	0xbe4a220d	-0.19739552
220	0x3eb22f18	0.34801555
221	0x3e4b439d	0.19850011
222	0x3e68cfa5	0.2273546
223	0x3e802b20	0.25032902
224	0x3dd529f5	0.10408393
225	0x3cfbf157	0.030754728
226	0xbd9666a5	-0.07343797
227	0x3e22780b	0.15866105
228	0x3e3eab64	0.18620068
229	0xbe9283f6	-0.28616303
230	0x3e3ee795	0.18643029
231	0xbd37d3f4	-0.04487987
232	0x3dfe32c1	0.12412024
233	0xbd0de91d	-0.034646142
234	0x3dbfb871	0.09361351
235	0x3e60a042	0.21936134
236	0xbeaf58db	-0.3424748
237	0xbea1e22c	-0.31617868
238	0x3ec87df8	0.39158607
239	0xbc4eae29	-0.012614765
240	0xbe57f384	-0.21088988
241	0x3e1d0331	0.15333249
242	0xbea9ddc0	-0.33176994
243	0x3b10a673	0.0022071868
244	0xbe0318be	-0.12802407
245	0xbe154a98	-0.14579237
246	0x3d08c7de	0.033393733
247	0x3e582cbc	0.21110815
248	0x3e6070ff	0.21918105
249	0xbd90f2f7	-0.07077592
250	0xbd900b4a	-0.07033403
251	0xbeae3c3c	-0.3403033
252	0xbc9e83e7	-0.019350005
253	0x3d120135	0.035645682
254	0x3d924f3a	0.071440175
255	0x3d38921c	0.045061216

nee_decoder.0.bias f4 [16]
0	0xbc984a0a	-0.018589992
1	0x00000000	0.0
2	0x00000000	0.0
3	0x3d5345aa	0.05158011
4	0x3d08741b	0.03331385
5	0x00000000	0.0
6	0x00000000	0.0
7	0x3bd6a773	0.006550723
8	0xbc26c8ab	-0.010179679
9	0x3cbd124f	0.02308002
10	0x3cf0456e	0.029329982
11	0x3bd8af07	0.0066126618
12	0xbcd9dc2c	-0.026594244
13	0x3cd389dc	0.025822572
14	0x00000000	0.0
15	0x3d14af28	0.036299855

nee_decoder.2.weight f4 [16, 16]
0	0xbe0d7a67	-0.13816224
1	0x3e6ea5d1	0.23305441
2	0x3e24ec22	0.16105703
3	0x3e6ecc26	0.23320064
4	0x3e02d8e7	0.12778054
5	0x3db2a3fc	0.08722684
6	0x3df9584c	0.121750444
7	0xbd710c9e	-0.058849923
8	0xbdf1fd6a	-0.11815913
9	0x3e80f844	0.25189412
10	0x3ee4fa94	0.44722426
11	0xbe8e8800	-0.27838135
12	0xbe311e16	-0.17296633
13	0x3e52afc2	0.20574859
14	0xbea7540d	-0.32681313
15	0x3ea67e19	0.3251808
16	0x3e82d854	0.2555567
17	0xbe7f388b	-0.24923913
18	0xbea4ef7e	-0.32213968
19	0xbde1c71e	-0.11024307
20	0xbedae3c9	-0.4275191
21	0x3e3122e0	0.1729846
22	0x3d63b525	0.055592675
23	0xbeaa40d1	-0.33252576
24	0x3e7a1afd	0.24424358
25	0x3a9b7e1f	0.0011863149
26	0x3dad87b4	0.08473149
27	0x3ebb66a5	0.3660175
28	0xbde05baf	-0.10954987
29	0x3b105bf7	0.0022027472
30	0x3eda34a4	0.42618287
31	0xbedd45eb	-0.43217406
32	0x3e204287	0.15650378
33	0x3df038f3	0.11729612
34	0xbdc0e2ed	-0.09418283
35	0x3eb43fc6	0.35204905
36	0xbc99c6f7	-0.018771632
37	0x3cf6dc41	0.030134322
38	0x3e2b3543	0.16719536
39	0x3e5c5ed3	0.21520548
40	0x3cdc7ff8	0.026916489
41	0x3ecefb1a	0.4042595
42	0x3ecec6ac	0.4038595
43	0x3eb8e9ba	0.3611582
44	0xbd144b40	-0.036204576
45	0xbe2847d1	-0.16433646
46	0x3eb789f0	0.35847425
47	0xbde7dc48	-0.11321312
48	0xbeca841a	-0.3955391
49	0xbece50e8	-0.40296102
50	0x3d41c39b	0.047305685
51	0x3dcd21e2	0.10016228
52	0x3eb199ad	0.34687558
53	0x3e9bfb8d	0.30465356
54	0x3e8a5a46	0.27021998
55	0xbe0c5c86	-0.1370717
56	0xbead7d0d	-0.3388447
57	0x3e0160c5	0.12634571
58	0xbe806081	-0.25073627
59	0x3ea42232	0.3205734
60	0x3e0b6063	0.13610987
61	0x3eb8905c	0.36047637
62	0xbe3e867b	-0.18605988
63	0xbd533d2c	-0.05157201
64	0x3e67295b	0.2257437
65	0x3ec1bb4b	0.37838206
66	0xbe2a1e71	-0.16613175
67	0x3e2731fc	0.16327661
68	0xbee87459	-0.45401266
69	0x3ca83222	0.020531718
70	0xbeb0ac02	-0.34506232
71	0x3eb3d8e6	0.35126418
72	0x3dfb4105	0.12268261
73	0xbed4cde6	-0.41563338
74	0x3e6f8b67	0.23393022
75	0xbcf56b17	-0.029958291
76	0x3e25bbb4	0.16184884
77	0x3ec3ac2d	0.38217297
78	0x3eb2d8a2	0.34930903
79	0xbe8cc183	-0.27491388
80	0x3e721115	0.23639329
81	0x3e609280	0.21930885
82	0xbda9555c	-0.08268234
83	0x3ed1fafa	0.41011792
84	0x3eac3ff1	0.33642533
85	0xbe4a5295	-0.19758065
86	0x3ed7400c	0.4204105
87	0x3ecd4afe	0.40096277
88	0x3e35573b	0.17709057
89	0xbe78e4f9	-0.24306096
90	0x3e91970c	0.28435552
91	0xbe4e4a7c	-0.20145601
92	0x3e988349	0.29787663
93	0x3cf007b2	0.029300544
94	0xbed5487e	-0.4165687
95	0xbdc7648a	-0.09735973
96	0xbe648457	-0.22316109
97	0x3cd45910	0.025921375
98	0xbe0beadd	-0.13663812
99	0xbe7b176f	-0.24520658
100	0xbeda83bc	-0.4267863
101	0xbe1295c9	-0.14314951
102	0x3cd92fea	0.026512105
103	0xbd2d26dc	-0.042273387
104	0xbaaff72d	-0.0013425105
105	0xbd92863d	-0.0715451
106	0xbe4d8331	-0.20069577
107	0xbed6cf67	-0.4195511
108	0x3eae4c2a	0.34042484
109	0xbdca19df	-0.09868216
110	0x3e147436	0.14497456
111	0x3e92ad2f	0.28647754
112	0xbe4e151a	-0.20125237
113	0x3e1919d5	0.1495126
114	0x3ea39bc5	0.3195478
115	0x3ed3339c	0.41250312
116	0x3f0d0b2b	0.55095166
117	0xbe0389b1	-0.12845494
118	0xbdac83a4	-0.08423546
119	0x3ea3f7f9	0.32025126
120	0xbede967e	-0.4347419
121	0x3e83f31f	0.25771424
122	0xbe0995fc	-0.13436121
123	0xbe13b53e	-0.14424607
124	0xbe61b408	-0.22041333
125	0x3efb0928	0.49030423
126	0xbea7e56e	-0.32792228
127	0x3dc02280	0.0938158
128	0xbe64b8a7	-0.22336064
129	0x3d5dfc51	0.054195706
130	0x3cfa63bc	0.030565135
131	0x3ef63fed	0.48095647
132	0xbc97b79c	-0.018520169
133	0x3d8e615c	0.069521636
134	0xbe0e9fbd	-0.13928123
135	0xbea19541	-0.31559184
136	0x3db61f7f	0.08892726
137	0xbd40daea	-0.047083773
138	0xbe63d76b	-0.22250144
139	0xbe5ee56a	-0.21767202
140	0xbdda3ec6	-0.10656504
141	0x3c3b2faa	0.011424938
142	0xbcfe8256	-0.031068008
143	0xbe05a93e	-0.13052842
144	0xbec4ef4f	-0.38463828
145	0x3ed220e5	0.41040722
146	0x3e45cf59	0.19317378
147	0xbcf76e3d	-0.030203933
148	0xbe512cfc	-0.20427316
149	0xbe5e2b80	-0.21696281
150	0xbec4e85c	-0.38458526
151	0xbe04c36b	-0.12965171
152	0xbe974245	-0.29542747
153	0xbee04136	-0.43799752
154	0x3e6ce43f	0.23133944
155	0x3ea5b001	0.32360843
156	0xbe01264d	-0.12612267
157	0xbe240281	-0.1601658
158	0xbe9db65b	-0.3080319
159	0xbec184f9	-0.37796763
160	0x3e55f2da	0.20893422
161	0xbe40bf87	-0.18823062
162	0x3eb17ccd	0.34665528
163	0xbe3cceab	-0.18438213
164	0x3e32ebfb	0.17472832
165	0xbd721867	-0.059105303
166	0x3ea945dc	0.3306111
167	0xbcbe7034	-0.023246862
168	0x3e6f2618	0.23354375
169	0xbdfca9a6	-0.12337045
170	0x3e99156d	0.2989916
171	0x3e296770	0.16543365
172	0xbe27e10c	-0.16394442
173	0x3bb521bd	0.0055277036
174	0xbd01a897	-0.03165492
175	0x3e6e1262	0.232492
176	0xbd1a0db4	-0.037610725
177	0x3eb6a34f	0.3567147
178	0x3ea2a53b	0.31766686
179	0x3ea11780	0.31463242
180	0xbeb66b48	-0.35628724
181	0xbd8f06be	-0.06983708
182	0x3ea460ab	0.32105002
183	0xbf4137f2	-0.7547599
184	0x3e437c39	0.19090356
185	0x3ec36325	0.3816158
186	0x3c8caa86	0.017171156
187	0x3e64707e	0.22308537
188	0xbe00865a	-0.12551251
189	0x3d76b8fe	0.060235016
190	0x3ec62269	0.38698128
191	0x3cb832c8	0.022485152
192	0x3e2e31aa	0.17011133
193	0xbe4e1671	-0.20125748
194	0xbe6d1169	-0.23151173
195	0xbea54580	-0.32279587
196	0xbed67b68	-0.41891026
197	0x3edbccd1	0.429297
198	0xbd3f1edd	-0.046660293
199	0xbeb71a25	-0.35762134
200	0xbdd582c2	-0.10425331
201	0xbe15135b	-0.14558165
202	0x3eb15e4f	0.34642264
203	0xbe60b714	-0.21944839
204	0xbeb75474	-0.3580662
205	0xbec471c2	-0.3836804
206	0xbe9cd20e	-0.3062901
207	0x3db581fb	0.088626824
208	0xbe998a0d	-0.29988137
209	0xbe896a1d	-0.2683877
210	0xbca57130	-0.020195574
211	0x3e567967	0.20944749
212	0x3e39285f	0.18081807
213	0xbe3b8e04	-0.18315893
214	0xbe685ca5	-0.22691591
215	0xbed75cb5	-0.42062917
216	0xbe3c9a06	-0.1841813
217	0x3dfc0027	0.123047166
218	0xbecc34b2	-0.39883953
219	0xbe9be66c	-0.30449235
220	0xbe4d1fec	-0.20031708
221	0xbe550db6	-0.20806012
222	0x3e572ec7	0.21013938
223	0xbd5b5f26	-0.053557537
224	0x3e240b38	0.16019905
225	0xbb72b265	-0.00370326
226	0x3e7c66ce	0.24648592
227	0xbe0836ce	-0.13302156
228	0x3e04a13d	0.12952133
229	0xbe99f650	-0.30070734
230	0x3e8161a8	0.25269818
231	0x3e907068	0.2821076
232	0xbe4082f2	-0.18799952
233	0xbcb5e720	-0.022204936
234	0x3e502cc2	0.20329574
235	0xbe8a3a35	-0.26997533
236	0x3e34827a	0.17627898
237	0xbc789230	-0.015171573
238	0xbeb47e3b	-0.35252556
239	0xbec8030e	-0.3906483
240	0xbd82126c	-0.0635117
241	0xbe9fecf5	-0.3123547
242	0xbebf79cb	-0.37397608
243	0xbdf5ae79	-0.11996169
244	0xbbc767f7	-0.0060853916
245	0xbec8d444	-0.39224446
246	0x3e096ecc	0.13421172
247	0x3e83e88f	0.25763366
248	0xbe12e972	-0.14346865
249	0x3d050a8a	0.032480754
250	0x3edca85b	0.43097195
251	0x3dc7dfc5	0.097594775
252	0x3ed17ff7	0.40917942
253	0x3e8be630	0.27324057
254	0xbec554c5	-0.38541237
255	0xbcfbca34	-0.030736066

nee_decoder.2.bias f4 [16]
0	0x3d0a8e2e	0.033827
1	0xbcc6af4f	-0.024253516
2	0x3d0d9065	0.034561533
3	0xbd05f951	-0.03270847
4	0xbcfa5633	-0.030558681
5	0x3d096c11	0.033550326
6	0x00000000	0.0
7	0x3d444af5	0.047923047
8	0x3d1b6b9b	0.037944417
9	0x3d07602d	0.033050705
10	0x3d09fea8	0.033690125
11	0x3db08578	0.08619207
12	0xbcdfc2ff	-0.027314661
13	0x00000000	0.0
14	0xbd64e1e4	-0.05587949
15	0x3d0a279e	0.03372919

nee_decoder.4.weight f4 [1, 16]
0	0xbec108c3	-0.37701997
1	0x3eee2124	0.4650966
2	0xbe0e7e9f	-0.1391549
3	0xbc94fdcd	-0.018187428
4	0x3e502cd9	0.20329608
5	0xbecef0c4	-0.40418065
6	0x3e083506	0.13301477
7	0xbf10f816	-0.5662855
8	0xbf29e81f	-0.66369814
9	0xbda6d5aa	-0.08146222
10	0xbf1042e5	-0.5635207
11	0x3eaba6e9	0.3352578
12	0x3d97009b	0.07373162
13	0xbe57245f	-0.21009968
14	0x3efbc1b2	0.49171215
15	0xbefd11e7	-0.4942772

fc_mu.0.weight f4 [4, 32]
0	0x3e2a50ca	0.16632381
1	0xbe898f65	-0.26867214
2	0x3e10d9f6	0.14145645
3	0x3e92d4e9	0.28678063
4	0xbe8162f6	-0.25270814
5	0xbe1b2603	-0.15151219
6	0x3e9ce1af	0.30640933
7	0xbe55ee27	-0.20891629
8	0xbec377d6	-0.38177365
9	0xbe64ade8	-0.22331965
10	0xbe48ad29	-0.19597305
11	0xbe988779	-0.29790857
12	0xbe94a4ce	-0.29031986
13	0x3ec39973	0.3820301
14	0xbe820f96	-0.25402516
15	0x3e895d5d	0.26829043
16	0xbe02565c	-0.12728256
17	0xbde9926b	-0.1140488
18	0x3e830c31	0.2559524
19	0x3e619451	0.22029234
20	0xbd7641b5	-0.060121257
21	0x3e4c28e3	0.19937472
22	0x3ebb4b22	0.3658076
23	0x3ebf5b7b	0.37374482
24	0x3eaf21e6	0.3420555
25	0xbc8cebe2	-0.017202321
26	0x3e3604ea	0.17775312
27	0xbe00898a	-0.12552467
28	0xbec2e23f	-0.38063237
29	0x3e81430f	0.25246474
30	0xbe784e0e	-0.24248526
31	0xbcddc9e3	-0.027073806
32	0x3ead7750	0.3388009
33	0x3eb2b8b0	0.3490653
34	0xbe881947	-0.26581785
35	0x3daedc7a	0.08538146
36	0xbece8419	-0.40335158
37	0xbec47288	-0.3836863
38	0xbecac0a1	-0.3960009
39	0x3da11e1d	0.07867072
40	0xbcc59ee4	-0.024123617
41	0x3eb5a4a2	0.35477167
42	0x3dffb990	0.12486565
43	0x3ec848b6	0.39117974
44	0xbeaa5dff	-0.33274838
45	0xbd461639	-0.048361037
46	0x3d76c5f8	0.06024739
47	0x3e6a5b3e	0.22886369
48	0x3de7f168	0.113253415
49	0x3dc1ad01	0.09456826
50	0x3ec91072	0.3927036
51	0x3ecd3de7	0.4008629
52	0xbe29215d	-0.16516633
53	0x3e8a7092	0.2703901
54	0xbe4d58bc	-0.2005338
55	0xbe4df687	-0.20113574
56	0x3ea97652	0.33098084
57	0x3e3001dc	0.1718821
58	0x3cc3e5df	0.023913322
59	0xbe8d3f88	-0.27587533
60	0x3e5cf24b	0.21576802
61	0xbd38194f	-0.04494601
62	0x3ece9797	0.4035003
63	0x3e7497e5	0.23886068
64	0x3e0b1d67	0.13585435
65	0x3e87b7d5	0.2650744
66	0xbe9729b3	-0.29524
67	0x3e9f45a7	0.31107828
68	0xbea7f629	-0.32804993
69	0xbe4c8325	-0.19971903
70	0xbeaa7a13	-0.3329626
71	0x3ebea752	0.3723703
72	0xbec2881c	-0.37994468
73	0x3e36d827	0.17855893
74	0xbecadd67	-0.39622042
75	0x3d81bca6	0.0633481
76	0x3ec6f298	0.3885696
77	0x3d1fb45e	0.03899037
78	0x3e64902f	0.22320627
79	0x3eafbcf3	0.34323844
80	0x3ea73b0c	0.32662237
81	0x3df6c113	0.12048545
82	0x3ec0bbb3	0.37643203
83	0x3dcf2a6e	0.10115515
84	0xbea8e0e4	-0.32984078
85	0xbe317532	-0.17329863
86	0x3e2ba469	0.16761936
87	0x3eb089a5	0.34480014
88	0xbe60647e	-0.21913335
89	0xbe57ea60	-0.210855
90	0xbe960345	-0.2929937
91	0x3e74165b	0.23836653
92	0xbea9e0c6	-0.331793
93	0x3d8c937e	0.068640694
94	0xbe9cf731	-0.30657342
95	0xbdd41526	-0.10355596
96	0xbe998402	-0.29983526
97	0xbe20e329	-0.15711655
98	0x3e8be830	0.27325583
99	0x3ea00b63	0.31258687
100	0x3d9c1edd	0.07623074
101	0x3e8dd768	0.27703404
102	0x3e4befbe	0.19915673
103	0x3e5a6565	0.21327741
104	0xbe57506e	-0.21026775
105	0xbebb7d2f	-0.36618945
106	0x3eb2799e	0.34858412
107	0xbe74b978	-0.23898876
108	0xbd89a12a	-0.06720193
109	0x3cd988fe	0.02655458
110	0x3e359ae7	0.17734872
111	0xbdc8293c	-0.0977349
112	0x3e112841	0.14175512
113	0x3ea7db12	0.32784325
114	0xbe9b9311	-0.3038564
115	0xbe377639	-0.17916192
116	0xbec2e4c3	-0.38065156
117	0xbec23427	-0.37930414
118	0xbed11067	-0.40832826
119	0x3da214bf	0.07914113
120	0x3eb582c1	0.3545132
121	0x3e578e51	0.21050383
122	0x3dbeb249	0.09311349
123	0x3e8ca2bc	0.27467906
124	0xbdcc218c	-0.09967336
125	0xbe11438f	-0.14185928
126	0x3e5da244	0.2164393
127	0xbe227b5a	-0.15867367

fc_mu.0.bias f4 [4]
0	0xbbd0d6bd	-0.006373255
1	0xbbd0be84	-0.0063703675
2	0x3bd0cd75	0.0063721486
3	0xbbd07ca3	-0.006362514

fc_mu.2.weight f4 [1, 4]
0	0x3f4a626a	0.7905642
1	0xbdc7ac59	-0.097496696
2	0x3ea39512	0.3194967
3	0xbf6c571e	-0.9232043

fc_logvar.0.weight f4 [4, 32]
0	0x3e2a50ca	0.16632381
1	0xbe898f65	-0.26867214
2	0x3e10d9f6	0.14145645
3	0x3e92d4e9	0.28678063
4	0xbe8162f6	-0.25270814
5	0xbe1b2603	-0.15151219
6	0x3e9ce1af	0.30640933
7	0xbe55ee27	-0.20891629
8	0xbec377d6	-0.38177365
9	0xbe64ade8	-0.22331965
10	0xbe48ad29	-0.19597305
11	0xbe988779	-0.29790857
12	0xbe94a4ce	-0.29031986
13	0x3ec39973	0.3820301
14	0xbe820f96	-0.25402516
15	0x3e895d5d	0.26829043
16	0xbe02565c	-0.12728256
17	0xbde9926b	-0.1140488
18	0x3e830c31	0.2559524
19	0x3e619451	0.22029234
20	0xbd7641b5	-0.060121257
21	0x3e4c28e3	0.19937472
22	0x3ebb4b22	0.3658076
23	0x3ebf5b7b	0.37374482
24	0x3eaf21e6	0.3420555
25	0xbc8cebe2	-0.017202321
26	0x3e3604ea	0.17775312
27	0xbe00898a	-0.12552467
28	0xbec2e23f	-0.38063237
29	0x3e81430f	0.25246474
30	0xbe784e0e	-0.24248526
31	0xbcddc9e3	-0.027073806
32	0x3ead7750	0.3388009
33	0x3eb2b8b0	0.3490653
34	0xbe881947	-0.26581785
35	0x3daedc7a	0.08538146
36	0xbece8419	-0.40335158
37	0xbec47288	-0.3836863
38	0xbecac0a1	-0.3960009
39	0x3da11e1d	0.07867072
40	0xbcc59ee4	-0.024123617
41	0x3eb5a4a2	0.35477167
42	0x3dffb990	0.12486565
43	0x3ec848b6	0.39117974
44	0xbeaa5dff	-0.33274838
45	0xbd461639	-0.048361037
46	0x3d76c5f8	0.06024739
47	0x3e6a5b3e	0.22886369
48	0x3de7f168	0.113253415
49	0x3dc1ad01	0.09456826
50	0x3ec91072	0.3927036
51	0x3ecd3de7	0.4008629
52	0xbe29215d	-0.16516633
53	0x3e8a7092	0.2703901
54	0xbe4d58bc	-0.2005338
55	0xbe4df687	-0.20113574
56	0x3ea97652	0.33098084
57	0x3e3001dc	0.1718821
58	0x3cc3e5df	0.023913322
59	0xbe8d3f88	-0.27587533
60	0x3e5cf24b	0.21576802
61	0xbd38194f	-0.04494601
62	0x3ece9797	0.4035003
63	0x3e7497e5	0.23886068
64	0x3e0b1d67	0.13585435
65	0x3e87b7d5	0.2650744
66	0xbe9729b3	-0.29524
67	0x3e9f45a7	0.31107828
68	0xbea7f629	-0.32804993
69	0xbe4c8325	-0.19971903
70	0xbeaa7a13	-0.3329626
71	0x3ebea752	0.3723703
72	0xbec2881c	-0.37994468
73	0x3e36d827	0.17855893
74	0xbecadd67	-0.39622042
75	0x3d81bca6	0.0633481
76	0x3ec6f298	0.3885696
77	0x3d1fb45e	0.03899037
78	0x3e64902f	0.22320627
79	0x3eafbcf3	0.34323844
80	0x3ea73b0c	0.32662237
81	0x3df6c113	0.12048545
82	0x3ec0bbb3	0.37643203
83	0x3dcf2a6e	0.10115515
84	0xbea8e0e4	-0.32984078
85	0xbe317532	-0.17329863
86	0x3e2ba469	0.16761936
87	0x3eb089a5	0.34480014
88	0xbe60647e	-0.21913335
89	0xbe57ea60	-0.210855
90	0xbe960345	-0.2929937
91	0x3e74165b	0.23836653
92	0xbea9e0c6	-0.331793
93	0x3d8c937e	0.068640694
94	0xbe9cf731	-0.30657342
95	0xbdd41526	-0.10355596
96	0xbe998402	-0.29983526
97	0xbe20e329	-0.15711655
98	0x3e8be830	0.27325583
99	0x3ea00b63	0.31258687
100	0x3d9c1edd	0.07623074
101	0x3e8dd768	0.27703404
102	0x3e4befbe	0.19915673
103	0x3e5a6565	0.21327741
104	0xbe57506e	-0.21026775
105	0xbebb7d2f	-0.36618945
106	0x3eb2799e	0.34858412
107	0xbe74b978	-0.23898876
108	0xbd89a12a	-0.06720193
109	0x3cd988fe	0.02655458
110	0x3e359ae7	0.17734872
111	0xbdc8293c	-0.0977349
112	0x3e112841	0.14175512
113	0x3ea7db12	0.32784325
114	0xbe9b9311	-0.3038564
115	0xbe377639	-0.17916192
116	0xbec2e4c3	-0.38065156
117	0xbec23427	-0.37930414
118	0xbed11067	-0.40832826
119	0x3da214bf	0.07914113
120	0x3eb582c1	0.3545132
121	0x3e578e51	0.21050383
122	0x3dbeb249	0.09311349
123	0x3e8ca2bc	0.27467906
124	0xbdcc218c	-0.09967336
125	0xbe11438f	-0.14185928
126	0x3e5da244	0.2164393
127	0xbe227b5a	-0.15867367

fc_logvar.0.bias f4 [4]
0	0xbbd0d6bd	-0.006373255
1	0xbbd0be84	-0.0063703675
2	0x3bd0cd75	0.0063721486
3	0xbbd07ca3	-0.006362514

fc_logvar.2.weight f4 [1, 4]
0	0x3f3b0c04	0.7306521
1	0x3ec131ca	0.377333
2	0xbf223d26	-0.63374555
3	0x3e1b483e	0.15164277

temp_derivative_decoder.0.weight f4 [16, 32]
0	0xbe921694	-0.2853285
1	0xbe5967d9	-0.21231021
2	0xbdc89bd0	-0.09795344
3	0xbbb56beb	-0.0055365465
4	0xbc979e85	-0.018508205
5	0x3d6960e1	0.056977157
6	0xbd8db965	-0.06920127
7	0xbdb0a48e	-0.08625136
8	0xbe9c9f0d	-0.30590096
9	0xbcf0ca94	-0.029393472
10	0xbd9eb429	-0.077492066
11	0x3c44ad8f	0.01200427
12	0x3e3aab21	0.18229343
13	0x3e61df07	0.22057734
14	0xbd6d5f18	-0.057952017
15	0xbc12b701	-0.008954764
16	0x3eb11925	0.34589496
17	0xbe41220a	-0.18860641
18	0xbcc8436d	-0.024446214
19	0x3e853e21	0.26023963
20	0xbbdd9294	-0.0067618582
21	0x3e673504	0.22578818
22	0xbe49feb6	-0.19726071
23	0xbe26d99e	-0.16293952
24	0xbe24767b	-0.16060822
25	0xbd8e0304	-0.06934169
26	0x3d9c593a	0.07634206
27	0x3dc99f37	0.09844821
28	0xbd24554a	-0.0401204
29	0x3d7888ed	0.060677458
30	0x3e943bef	0.28951976
31	0xbd9a77ee	-0.07542406
32	0xbe9c5302	-0.3053208
33	0xbe67af85	-0.22625549
34	0x3e3acfd7	0.18243347
35	0x3ea6fc54	0.32614386
36	0xbe009f44	-0.12560755
37	0x3e37fa10	0.17966485
38	0x3e761493	0.24031286
39	0x3d2a4078	0.04156539
40	0x3e497fa3	0.19677596
41	0xbbcdaeb5	-0.00627693
42	0xbe2b44cc	-0.16725463
43	0x3e167ea3	0.14696746
44	0x3e9dbaa3	0.30806455
45	0x3e7542ed	0.23951311
46	0xbeb2820c	-0.34864843
47	0xbe5fed9f	-0.21867989
48	0xbe036f9c	-0.12835544
49	0x3e7dbe44	0.24779612
50	0xbd4c9f5a	-0.049956657
51	0x3ea6ea73	0.32600746
52	0x3e66fd57	0.22557579
53	0xbe74e876	-0.23916802
54	0xbe49a09e	-0.19690177
55	0xbe5edf60	-0.21764898
56	0xbd5e4e84	-0.054274097
57	0x3e3f5f1e	0.18688628
58	0xbe784374	-0.24244481
59	0x3be50d2f	0.006990097
60	0x3d81a27d	0.0632982
61	0x3e9d7deb	0.3076013
62	0xbea735cf	-0.3265824
63	0x3e893730	0.26799917
64	0x3de14c68	0.110009015
65	0xbc78e324	-0.015190873
66	0x3e26e26e	0.16297314
67	0xbd458d28	-0.04823032
68	0x3e8dce0e	0.2769627
69	0xbdf3e540	-0.1190896
70	0x3e83b8c0	0.2572689
71	0xbe8b55ca	-0.2721389
72	0x3e21a791	0.15786578
73	0x3e4945a3	0.1965547
74	0xbda1fcf9	-0.07909579
75	0xbe6cf98e	-0.23142073
76	0xbe0e4e23	-0.13896994
77	0xbde4ecd8	-0.11177987
78	0xbda028b3	-0.07820263
79	0x3de4efb8	0.11178535
80	0xbbfda907	-0.007741097
81	0xbe4914bc	-0.19636816
82	0x3e827bd8	0.2548511
83	0xbd3ded7e	-0.04636907
84	0xbe6b463f	-0.22976016
85	0x3e9d546e	0.30728477
86	0x3e8d57b6	0.2760598
87	0x3d842ebb	0.06454226
88	0xbe3c9958	-0.18417871
89	0xbe8c77a1	-0.2743502
90	0x3e7d5dbb	0.24742787
91	0xbe2a4ea5	-0.16631563
92	0x3e9bd449	0.30435398
93	0x3e1845b8	0.14870346
94	0x3e587b3c	0.2114076
95	0x3de96f50	0.11398184
96	0xbc1c7287	-0.00954879
97	0x3d957a36	0.072987005
98	0x3e0429fd	0.12906642
99	0x3e1f6d52	0.15569046
100	0xbe39d1b7	-0.18146406
101	0x3d17cb5d	0.037059177
102	0xbe22b58d	-0.15889569
103	0xbe69bf16	-0.228268
104	0x3e9fc488	0.3120463
105	0x3e577cd3	0.2104371
106	0x3e83c9a2	0.2573977
107	0x3e0a0a80	0.13480568
108	0x3cb3fd49	0.021971362
109	0xbe97c142	-0.29639632
110	0xbd53d3d7	-0.051715698
111	0x3e3b68ee	0.18301746
112	0xbe8f3dca	-0.2797683
113	0x3d22d5a0	0.03975451
114	0x3e92a906	0.2864458
115	0x3e7ab976	0.2448481
116	0x3e654744	0.22390467
117	0xbd1745ad	-0.036931682
118	0xbe42e05c	-0.19030899
119	0x3e67f4fe	0.22652051
120	0x3e450ee0	0.19243956
121	0x3d5694df	0.05238807
122	0xbe412a74	-0.18863851
123	0xbeac20db	-0.33618817
124	0x3e1edf06	0.15514764
125	0xbe4beb0d	-0.19913884
126	0xbe675215	-0.22589906
127	0x3e38b819	0.18038978
128	0x3da2722a	0.07931931
129	0x3e7691ea	0.240791
130	0x3dc16b70	0.0944432
131	0x3ddf5b4a	0.10906084
132	0x3e556896	0.20840678
133	0xbe348311	-0.17628123
134	0x3e96ea84	0.29475796
135	0xbe9d14e0	-0.3067999
136	0xbeb115c4	-0.34586918
137	0xbe90eeb6	-0.28307122
138	0xbe48c193	-0.19605093
139	0x3b3a6505	0.002844156
140	0xbeb58b8d	-0.3545803
141	0xbe95163e	-0.29118532
142	0xbde77d55	-0.11303202
143	0x3e80dd4c	0.25168836
144	0xbe530a92	-0.20609501
145	0x3d92d579	0.07169623
146	0xba252c5b	-0.000630086
147	0x3cfd001b	0.03088384
148	0xbe44f6fc	-0.19234842
149	0xbe782f73	-0.2423685
150	0xbe5f02cf	-0.21778415
151	0x3eb0dd47	0.3454382
152	0x3ebb3bbc	0.3656901
153	0x3d84611e	0.06463836
154	0x3e9484bb	0.29007515
155	0xbd1b8f56	-0.037978493
156	0x3e22ae57	0.15886818
157	0x3d8691d3	0.065707825
158	0x3e0cf139	0.13763894
159	0xbea937c9	-0.33050373
160	0xbe40be42	-0.18822578
161	0xbde2df2b	-0.11077722
162	0x3eb25f4c	0.3483833
163	0xbdcee133	-0.10101547
164	0x3e4d3cc8	0.20042717
165	0x3ea0fea7	0.31444284
166	0x3e46673b	0.19375317
167	0x3e905043	0.28186235
168	0xbdb0abe1	-0.08626533
169	0x3e426956	0.18985495
170	0x3e8a6b0b	0.27034792
171	0x3d70ffec	0.058837816
172	0xbe9b65ff	-0.30351254
173	0x3e1861a6	0.14881
174	0xbde00d14	-0.109399945
175	0xbd12fcfc	-0.035885796
176	0xbe9d54f2	-0.3072887
177	0x3db226e0	0.08698821
178	0x3cb5f704	0.022212513
179	0x3e8ed175	0.27894178
180	0xbe80ef28	-0.25182462
181	0xbe24f482	-0.16108897
182	0xbe8cebb0	-0.27523565
183	0xbe02d9d7	-0.12778412
184	0x3dd1e041	0.10247851
185	0xbe801dbd	-0.25022689
186	0xbd88f7ec	-0.06687912
187	0xbe18e15d	-0.1492972
188	0x3da698ab	0.08134588
189	0x3d95f446	0.07321982
190	0x3e9b9f79	0.30395105
191	0x3ea0023e	0.3125171
192	0x3d830d5e	0.06399034
193	0x3eb860b8	0.3601129
194	0xbe787330	-0.2426269
195	0xbeb75b25	-0.35811725
196	0xbd9d2707	-0.076734595
197	0xbec58f8a	-0.38586074
198	0x3d8dacfa	0.06917758
199	0xbea55719	-0.32293013
200	0x3e471059	0.1943983
201	0xbe7ea5f9	-0.24868001
202	0x3e9e459b	0.3091248
203	0x3e888453	0.26663455
204	0xbe679876	-0.22616753
205	0x3e2e96bb	0.17049687
206	0x3e1a4eeb	0.15069167
207	0xbea82a6b	-0.32844862
208	0x3e822173	0.25416145
209	0x3e834e48	0.2564566
210	0xbe9a19bb	-0.30097756
211	0x3e3cbb82	0.18430904
212	0x3e762153	0.2403615
213	0x3cbfa5a0	0.023394406
214	0xbe8e9f67	-0.2785599
215	0xbe27fe85	-0.16405685
216	0x3e39312b	0.18085162
217	0xbe29dd4b	-0.16588323
218	0x3e9243e0	0.2856741
219	0xbb4477d3	-0.0029978647
220	0x3ebca7e1	0.3684683
221	0xbda9f5c8	-0.08298832
222	0xbdb84893	-0.089982174
223	0x3cdec7cd	0.027194882
224	0xbea96739	-0.33086565
225	0xbe2abf87	-0.16674624
226	0xbe76b5d9	-0.24092807
227	0xbe912ba2	-0.28353602
228	0x3de1e3ec	0.11029801
229	0x3e105f03	0.14098744
230	0x3dd46d81	0.10372449
231	0x3c970269	0.018433766
232	0xbea78475	-0.32718244
233	0x3c49d03a	0.0123177115
234	0xbea5f7e4	-0.32415688
235	0x3d7974d8	0.060902447
236	0x3d300aa8	0.042978913
237	0xbea72ced	-0.32651463
238	0xbe154a42	-0.14579108
239	0xbd6b5880	-0.057457447
240	0xbe97de81	-0.29661945
241	0xbe294f94	-0.16534263
242	0x3bb647be	0.0055627516
243	0x3e51c3e0	0.20484877
244	0xbdb2cb2d	-0.08730159
245	0x3d882e6b	0.066494785
246	0x3eac3da0	0.33640766
247	0x3ea03023	0.31286725
248	0x3e1c93f9	0.15290822
249	0x3e2368e1	0.15957977
250	0xbe1664a9	-0.14686836
251	0xbeac67c8	-0.3367293
252	0xbe466282	-0.19373515
253	0x3eaffcca	0.3437255
254	0xbe9d0f7d	-0.3067588
255	0x3da160a6	0.07879762
