.archive/piae_sde/seed_experiments/AE255/best_model.pth (torch, 17378 bytes, 17 tensors)

encoder.0.weight f4 [16, 18]
-0.21493931 -0.015543153 0.08495715 0.30384675 -0.19420455 -0.352982 0.39657274 -0.30556458
0.186411 0.08797813 0.11198862 -0.06703438 0.30286136 -0.19734672 0.3982791 0.09364088
-0.14584406 0.108622134 -0.15375799 -0.08211011 -0.007119027 -0.28540522 -0.066000246 -0.011491129
-0.13089377 0.027234426 -0.37577388 -0.20668654 0.06845396 0.2339048 0.17673914 -0.41338935
0.284148 0.19708195 -0.3195029 0.18596765 0.15014385 -0.07682379 -0.26254216 -0.12762022
-0.13902822 0.1391334 -0.11776828 0.10276946 0.08412513 -0.07781458 -0.28423646 0.22138731
-0.07691983 0.21582702 0.17316952 -0.30035895 0.33599907 -0.21791525 0.30284125 0.1360523
-0.14047232 0.3499086 -0.40056136 -0.03773777 0.3804756 -0.37364793 -0.14301136 0.11131625
0.085027196 -0.10562755 -0.09803384 -0.11333765 0.04669751 0.19265015 -0.31725082 0.1975568
0.37962964 -0.21542254 -0.044603102 -0.014982763 -0.40438455 0.043109026 0.06650713 0.29501173
0.17479302 -0.3932578 0.27323404 0.366887 0.25622076 -0.3428583 0.16744393 0.38416243
-0.31316403 0.13395783 0.10559709 -0.023175552 -0.3438005 -0.17963958 -0.2326141 -0.16580497
-0.22186573 0.15621458 0.3239911 0.20799921 -0.23967646 -0.38363636 0.35401565 -0.37123188
-0.11217166 -0.2916445 -0.050588045 -0.2640714 -0.40062106 -0.3575353 -0.29621765 -0.21069868
-0.23574792 -0.2141081 0.32843974 -0.15209095 -0.24459358 -0.39915192 -0.1924895 0.08606692
0.32101503 0.404352 -0.30181 0.09752374 -0.21927598 0.4176078 0.22345346 0.042187348
0.17161319 0.1264712 -0.23187998 0.032382175 -0.1718647 0.17914477 -0.17583282 -0.12963109
0.38430518 -0.0059175817 0.2975128 -0.037493426 -0.1833149 -0.29999197 0.25969443 0.009354731
-0.28852844 0.32325244 -0.015324721 -0.043375082 -0.08630415 0.21730085 -0.21784595 -0.15338363
0.053468544 0.14762941 -0.10399235 -0.26514405 0.1871259 0.0030796826 -0.2400328 0.25466803
-0.097610705 -0.09747872 -0.20080893 -0.31578335 -0.2841396 0.19624037 -0.0170948 0.25520924
-0.21339686 0.21170421 -0.30976218 0.27543348 -0.027614944 -0.23553368 0.18038763 0.10757105
0.21120805 0.054075297 0.081397675 -0.16943456 -0.12967749 0.2305492 3.7988142e-05 -0.23148924
-0.16834861 -0.20809156 0.3553341 -0.08266653 -0.10819564 -0.20306548 -0.36667302 0.38832748
-0.048812717 0.054545224 -0.08657301 -0.11259653 0.38922235 -0.4157752 0.060925566 -0.28029323
0.057954464 -0.32531482 -0.07664119 -0.1893478 0.13232172 -0.28116393 0.1329477 -0.3796121
-0.22960347 0.114124954 -0.24741769 0.3021987 -0.027181743 0.10821987 0.11801064 -0.2648451
0.1481155 0.15940085 0.1250877 -0.008650273 -0.016380964 0.021898903 0.12724756 -0.00262858
-0.021197138 0.020740706 -0.12993269 0.14014584 0.07728566 0.15783973 -0.22350937 0.1492724
0.23860839 0.28895378 0.04036096 0.09570981 0.19325049 -0.22934537 0.22667293 0.19823316
0.24721038 -0.012201729 0.25505236 0.32483417 -0.3022724 0.17224412 -0.15076058 0.16497926
-0.059719432 0.09017531 0.13250384 -0.29300314 -0.06481118 0.077189475 -0.121495366 0.28668168
00000000: 0d19 5cbe b5a8 7ebc 04fe ad3d cd91 9b3e
00000010: 8fdd 46be 0fba b4be 950b cb3e f672 9cbe
00000020: 86e2 3e3e e12d b43d 4a5a e53d 5249 89bd
00000030: a510 9b3e 4215 4abe 3deb cb3e cac6 bf3d
00000040: 2558 15be 4875 de3d bc72 1dbe 5829 a8bd
00000050: ba46 e9bb a220 92be 232b 87bd 4a45 3cbc
00000060: 0409 06be bb1a df3c 6f65 c0be a3a5 53be
00000070: 9731 8c3d bd84 6f3e 1bfb 343e c5a7 d3be
00000080: d97b 913e dacf 493e e295 a3be 4e6e 3e3e
00000090: 4fbf 193e cb55 9dbd ed6b 86be e0ae 02be
000000a0: 6a5d 0ebe fc78 0e3e 7f30 f1bd cb78 d23d
000000b0: cc49 ac3d 405d 9fbd 7187 91be 5bb3 623e
000000c0: 2588 9dbd c201 5d3e 5a53 313e a6c8 99be
000000d0: 1208 ac3e 2d25 5fbe 020e 9b3e 4b51 0b3e
000000e0: fad7 0fbe 3827 b33e 6116 cdbe eb92 1abd
000000f0: b3cd c23e c84e bfbe 9271 12be c6f9 e33d
00000100: bd22 ae3d 4253 d8bd f7c5 c8bd 921d e8bd
00000110: e345 3f3d 1546 453e b36e a2be 544c 4a3e
00000120: d15e c23e ba97 5cbe beb1 36bd 437a 75bc
00000130: 7e0b cfbe 1793 303d e434 883d c70b 973e
00000140: f1fc 323e 1659 c9be 55e5 8b3e 9dd8 bb3e
00000150: 5e2f 833e 208b afbe 6c76 2b3e f0b0 c43e
00000160: 0957 a0be 3e2c 093e 4a43 d83d a8da bdbc
00000170: 9e06 b0be 70f3 37be 6432 6ebe c7c8 29be
00000180: c530 63be b7f6 1f3e 29e2 a53e bffd 543e
00000190: bf6d 75be fc6b c4be 8a41 b53e 1b12 bebe
000001a0: 41ba e5bd 6e52 95be 6935 4fbd 5e34 87be
000001b0: 341e cdbe de0e b7be d7a9 97be 65c1 57be
000001c0: e767 71be 273f 5bbe 4129 a83e bbbd 1bbe
000001d0: bd76 7abe a45d ccbe f81b 45be da43 b03d
000001e0: 155c a43e 3a07 cf3e d786 9abe 87ba c73d
000001f0: e289 60be b1d0 d53e fcd0 643e a4cc 2c3d
00000200: 5ebb 2f3e ab81 013e f271 6dbe 2ca3 043d
00000210: 4dfd 2fbe ba71 373e 850d 34be 03be 04be
00000220: a6c3 c43e 46e8 c1bb 9953 983e b592 19bd
00000230: e7b6 3bbe 8c98 99be abf6 843e 9644 193c
00000240: 00ba 93be 5881 a53e 8a14 7bbc 12aa 31bd
00000250: 3bc0 b0bd 1d84 5e3e 0213 5fbe 9910 1dbe
00000260: d501 5b3d 2a2c 173e f1f9 d4bd f6c0 87be
00000270: ef9d 3f3e 80d4 493b 29cb 75be d963 823e
00000280: 1fe8 c7bd eca2 c7bd dba0 4dbe 5bae a1be
00000290: bf7a 91be 3cf3 483e 650a 8cbc c9aa 823e
000002a0: b584 5abe fdc8 583e 2699 9ebe 9e05 8d3e
000002b0: bc38 e2bc be2f 71be 89b7 383e 364e dc3d
000002c0: ec46 583e 0f7e 5d3d d3b3 a63d 4180 2dbe
000002d0: 2dca 04be 1715 6c3e 7555 1f38 840b 6dbe
000002e0: 9463 2cbe f415 55be 5aee b53e 124d a9bd
000002f0: ad95 ddbd 66f0 4fbe 91bc bbbe dcd2 c63e
00000300: d8ef 47bd d06a 5f3d 314d b1bd 0299 e6bd
00000310: 2748 c73e 7de0 d4be 168d 793d 9882 8fbe
00000320: a961 6d3d aa8f a6be 0ef6 9cbd 64e4 41be
00000330: 587f 073e b8f4 8fbe 7123 083e 845c c2be
00000340: 2c1d 6bbe 58ba e93d 105b 7dbe cab9 9a3e
00000350: 3fac debc 61a2 dd3d 90af f13d c799 87be
00000360: 97ab 173e fa39 233e fd16 003e e0b9 0dbc
00000370: 5f31 86bc 5465 b33c 2f4d 023e 4144 2cbb
00000380: 9fa5 adbc 6ae8 a93c 130d 05be 6482 0f3e
00000390: f247 9e3d bda0 213e a4df 64be ddda 183e
000003a0: c255 743e c0f1 933e 8951 253d 8103 c43d
000003b0: 75e3 453e 83d9 6abe f31c 683e a2fd 4a3e
000003c0: b824 7d3e c3e9 47bc 3996 823e aa50 a63e
000003d0: 73c3 9abe c360 303e fb60 1abe 53f0 283e
000003e0: 5d9c 74bd d5ad b83d 16af 073e 8204 96be
000003f0: b9bb 84bd 8415 9e3d 90d2 f8bd f1c7 923e

encoder.0.bias f4 [16]
-0.036561657 0.0 -0.027873432 0.0 0.0 -0.008364862 0.0 -0.0030522638
-0.031235047 0.013759985 0.0070536067 -0.036316916 -0.021461558 0.0024492433 0.012229246 0.013226893
00000000: adc1 15bd 0000 0000 d356 e4bc 0000 0000
00000010: 0000 0000 c60c 09bc 0000 0000 7d08 48bb
00000020: a4e0 ffbc 8f71 613c f121 e73b 0cc1 14bd
00000030: 26d0 afbc 7c83 203b 2d5d 483c 9cb5 583c

encoder.2.weight f4 [16, 16]
-0.36525676 0.37902325 0.3310445 0.36325702 -0.22051571 0.18544619 -0.24758479 0.35301965
0.24211468 0.3651617 0.30700135 -0.12136826 -0.049588073 -0.10385353 -0.10120812 0.14313616
0.09471482 0.27010256 0.18615974 0.3956541 -0.089997604 0.2695376 -0.3373455 0.36394894
-0.40971187 0.08592715 0.23553906 -0.080875374 -0.35636985 0.35076967 -0.007815575 -0.06332896
-0.06667375 -0.40832898 0.38510856 -0.31905994 0.32284534 0.08950268 -0.3364775 0.52414185
-0.18262711 0.124373995 -0.15154554 0.53445554 0.046439793 0.5575021 0.46214792 0.010620244
-0.16139725 -0.1177321 0.21365799 0.010193179 -0.3010124 0.24270885 0.033028193 0.12651487
-0.21789403 -0.31061682 -0.28143463 -0.11443996 0.13906081 -0.031330742 0.14888173 0.17781694
0.09638304 0.1787678 0.266317 0.06830538 0.139988 -0.42072952 0.030658 0.0013252181
-0.10281272 -0.21467434 -0.20479923 -0.04855007 -0.27055582 -0.117897846 -0.4131118 0.038385537
0.23811229 -0.1866899 0.22757858 -0.03457388 -0.28842503 -0.25366944 0.38603318 -0.05031141
0.28335422 0.2944237 -0.03981938 -0.320533 -0.08276687 -0.05660559 -0.16197252 -0.18274783
0.09417096 -0.42084488 -0.3654672 -0.06270424 0.36366662 -0.22709875 0.31665722 -0.07629819
-0.23407714 -0.18522732 -0.38878438 -0.12237648 -0.41293126 0.3790248 -0.3496336 -0.1470047
0.32824564 -0.08040754 0.021419125 -0.26909855 -0.108094394 -0.22862348 -0.093376696 -0.0054338914
0.34426844 0.34190848 0.10893336 0.31304735 -0.26154426 0.236273 0.37327194 -0.3756406
0.24642453 -0.12532388 0.42336163 -0.42733723 -0.3989635 0.051296696 -0.37973493 0.16850293
0.44273633 0.31644976 0.14602444 0.135044 0.3255649 0.102391355 -0.06304789 -0.40673125
-0.19272117 0.34160846 -0.118608706 -0.08389601 0.20439304 0.05788673 -0.42419052 0.07196022
-0.15780295 -0.033699192 0.17030364 -0.40634242 -0.054031678 -0.34951246 -0.40958863 0.24418007
-0.23841098 0.41901657 -0.15967461 -0.12728587 -0.37573147 0.13382916 0.17299612 -0.08054913
-0.20113948 -0.15409319 -0.20773275 0.31171486 -0.19070008 0.04970443 0.06108717 -0.30762213
0.30886284 -0.22904809 -0.046647232 0.31298918 0.07930201 -0.43172836 -0.25408477 -0.34311545
-0.33795905 0.21650052 -0.34494096 0.09197596 -0.119476825 0.014367412 0.003114647 -0.22699746
0.1540219 0.2587112 0.13398583 -0.21223322 -0.2650506 0.19833553 0.26102072 0.3924058
0.4598234 0.1913533 0.23299229 -0.42520136 -0.08427212 0.40133637 -0.44523355 -0.32957882
0.23906933 0.38935447 0.06687238 -0.13066083 0.15362918 0.010637104 -0.22868381 -0.060463972
0.2982021 -0.38736394 -0.2000097 -0.18805444 -0.099847876 0.25493714 -0.12998334 -0.2284348
0.03378336 0.09126882 0.1284948 0.22719052 -0.24993536 -0.23902169 -0.02869575 0.36231312
0.1471262 0.23504135 0.0044968566 0.165287 0.29343775 0.1729669 0.16146973 0.313962
-0.1982851 -0.06972429 -0.098129645 0.09991421 -0.030917127 0.31634077 0.018323503 0.35893878
-0.15609051 0.23124017 0.2490088 0.11312688 0.103327945 -0.060374565 -0.3666999 -0.10138537
00000000: ef02 bbbe 560f c23e aa7e a93e d3fc b93e
00000010: dfce 61be 9be5 3d3e de86 7dbe febe b43e
00000020: e9ec 773e 79f6 ba3e 482f 9d3e ec8f f8bd
00000030: dd1c 4bbd 29b1 d4bd 3446 cfbd 4992 123e
00000040: d8f9 c13d e24a 8a3e a9a0 3e3e 2d93 ca3e
00000050: aa50 b8bd d500 8a3e 8db8 acbe 8457 ba3e
00000060: c1c5 d1be 93fa af3d 2731 713e fda1 a5bd
00000070: 1c76 b6be 1598 b33e e60c 00bc 9db2 81bd
00000080: 3f8c 88bd 7f10 d1be f32c c53e d35b a3be
00000090: fc4b a53e 2e4d b73d c746 acbe 292e 063f
000000a0: 9a02 3bbe cbb7 fe3d c12e 1bbe 14d2 083f
000000b0: a737 3e3d 75b8 0e3f a79e ec3e 8800 2e3c
000000c0: 5245 25be 871d f1bd 29c9 5a3e 4b01 273c
000000d0: 4c1e 9abe ab88 783e 9248 073d 1d8d 013e
000000e0: 9d1f 5fbe 2b09 9fbe 3318 90be 7f5f eabd
000000f0: f565 0e3e aa54 00bd 7474 183e a515 363e
00000100: 7964 c53d e80e 373e b45a 883e b1e3 8b3d
00000110: 0459 0f3e dc69 d7be 7c26 fb3c f1b2 ad3a
00000120: 7a8f d2bd 97d3 5bbe e4b6 51be 70dc 46bd
00000130: 4b86 8abe 6d74 f1bd 6483 d3be 273a 1d3d
00000140: b5d3 733e a32b 3fbe 5c0a 693e 579d 0dbd
00000150: 72ac 93be f6e0 81be 24a6 c53e 5613 4ebd
00000160: ce13 913e b4be 963e a519 23bd e71c a4be
00000170: ad81 a9bd 43db 67bd 20dc 25be 3f22 3bbe
00000180: b4dc c03d fb78 d7be 841e bbbe 156b 80bd
00000190: 8332 ba3e 938c 68be e520 a23e 3a42 9cbd
000001a0: ebb1 6fbe 3bac 3dbe bf0e c7be 85a0 fabd
000001b0: ba6b d3be 8a0f c23e 2d03 b3be 6688 16be
000001c0: d00f a83e b5ac a4bd 2977 af3c 49c7 89be
000001d0: 9860 ddbd 461c 6abe 483c bfbd c90e b2bb
000001e0: f443 b03e a10e af3e 7418 df3d be47 a03e
000001f0: 21e9 85be 8df1 713e 801d bf3e f753 c0be
00000200: b656 7c3e e754 00be dbc2 d83e f2cb dabe
00000210: f244 ccbe 7c1c 523d 9e6c c2be 088c 2c3e
00000220: 56ae e23e b405 a23e 6e87 153e f948 0a3e
00000230: 71b0 a63e 8fb2 d13d 411f 81bd 143f d0be
00000240: b358 45be 4ee7 ae3e 1fe9 f2bd acd1 abbd
00000250: 694c 513e a31a 6d3d 802f d9be e15f 933d
00000260: 1997 21be 2a08 0abd 1464 2e3e 1d0c d0be
00000270: 5250 5dbd 4cf3 b2be 9ab5 d1be 570a 7a3e
00000280: 0222 74be 5789 d63e be81 23be 3a57 02be
00000290: e05f c0be 830a 093e e525 313e f1f6 a4bd
000002a0: 82f7 4dbe 9bca 1dbe e5b7 54be 1799 9f3e
000002b0: e246 43be df96 4b3d 8a36 7a3d a680 9dbe
000002c0: 4523 9e3e 958b 6abe 2b11 3fbd 1e40 a03e
000002d0: 1869 a23d 800b ddbe 6617 82be d4ac afbe
000002e0: f808 adbe 50b2 5d3e 1a9c b0be e45d bc3d
000002f0: 44b0 f4bd 4b65 6b3c 1b1f 4c3b 0672 68be
00000300: ebb7 1d3e cb75 843e 9533 093e aa53 59be
00000310: b6b4 87be 7818 4b3e 82a4 853e 6ae9 c83e
00000320: f96d eb3e 1ff2 433e 8895 6e3e feb3 d9be
00000330: dc96 acbd f67b cd3e a7f5 e3be 8ebe a8be
00000340: 97ce 743e 7859 c73e 63f4 883d f4cb 05be
00000350: f850 1d3e 3f47 2e3c 172c 6abe 12a9 77bd
00000360: f2ad 983e 9154 c6be 58cf 4cbe 5891 40be
00000370: 0b7d ccbd 1f87 823e 5a1a 05be d0ea 69be
00000380: 6c60 0a3d 26eb ba3d 2494 033e a2a4 683e
00000390: 0eef 7fbe 1ac2 74be 5913 ebbc 1b81 b93e
000003a0: 40a8 163e aeae 703e 5e5a 933b ff40 293e
000003b0: 793d 963e 3c1e 313e 5258 253e a1bf a03e
000003c0: 400b 4bbe 9ccb 8ebd 32f8 c8bd d29f cc3d
000003d0: ea45 fdbc 6bf7 a13e 2c1b 963c d3c6 b73e
000003e0: 31d6 1fbe 39ca 6c3e 2afc 7e3e 11af e73d
000003f0: 9a9d d33d 524b 77bd 17c0 bbbe 22a3 cfbd

encoder.2.bias f4 [16]
0.01143348 0.04147325 0.5388559 -0.049375616 0.0 -0.015133591 0.0 -0.041305095
-0.012184674 -0.014399271 0.0 0.0 0.026519628 0.0 0.0074584265 -0.008426473
00000000: 7e53 3b3c dbdf 293d 76f2 093f 163e 4abd
00000010: 0000 0000 e2f2 77bc 0000 0000 882f 29bd
00000020: 3aa2 47bc ecea 6bbc 0000 0000 0000 0000
00000030: b13f d93c 0000 0000 d165 f43b 300f 0abc

encoder.4.weight f4 [32, 16]
-0.22168796 0.25001374 -0.18748315 -0.11731392 0.22703597 0.27846816 0.27955624 0.32309404
0.08964173 0.21069303 0.16834551 -0.1245401 0.13118057 0.15401693 0.06873026 0.2883637
0.2625669 -0.14259961 -0.07196888 -0.097629376 0.33993018 -0.25976756 -0.28142136 -0.3016891
0.23024565 -0.052355424 -0.2594118 0.03273609 0.36994222 -0.041349217 -0.22901186 0.0005263229
-0.21786036 -0.07570747 -0.0021625964 0.08323287 0.24438167 -0.1503883 -0.18545537 0.27742898
0.20258832 0.04938327 -0.26247013 0.29923883 0.15599307 -0.08241597 0.10158298 -0.3761403
0.3482647 -0.25764924 -0.016847908 -0.24538787 0.19098152 -0.15859489 -0.13365765 -0.19414172
-0.18101864 -0.30942544 -0.15463658 -0.14135736 0.22798379 -0.019264396 0.04271572 -0.172392
0.015939038 -0.26461053 -0.1673213 -0.025158731 -0.118756585 -0.0907888 -0.23427065 0.25133675
-0.1107235 0.027990218 -0.017505398 -0.01227333 0.3134986 -0.0448064 0.30269942 0.102875434
0.036782097 0.1365184 0.27021724 0.2572863 -0.0037734073 -0.15587339 0.067161 0.09823363
-0.36945727 0.13197756 -0.19668184 0.012699182 0.26587448 0.22755496 -0.21128006 -0.19640999
0.2515829 0.25621566 0.14349319 -0.25831217 -0.18915308 -0.25267845 0.05476414 -0.3117213
-0.28296715 0.22790961 0.08111932 0.06949973 -0.010992704 -0.28578967 -0.22497053 -0.12352082
0.2966795 -0.30406424 0.31877515 0.13255306 -0.32093966 0.26423648 0.1881757 -0.12569742
-0.119386144 -0.28854877 0.14251687 -0.0386734 -0.25847837 0.30907214 -0.27409956 -0.31949067
0.10113115 -0.08609207 0.17854969 -0.028433835 0.13203192 -0.098178595 0.302844 0.07398159
0.21728684 -0.1306825 -0.26886123 0.15475462 0.104756154 0.024040857 -0.35966182 -0.24008515
0.25072303 -0.10554452 -0.014165136 0.22898822 -0.19309667 0.05430925 -0.09691685 0.08959204
-0.06648868 0.3062514 0.015594039 -0.3182444 0.27050483 0.23346539 -0.17597312 -0.20693415
0.08754486 -0.27861544 -0.0064425985 0.24970558 0.033440996 -0.023832371 -0.10522041 -0.29856873
0.08315468 -0.31395888 0.30468187 -0.036123767 0.108385935 0.2726339 -0.013343982 -0.12925059
-0.06379383 0.08728461 -0.2876908 -0.074018456 -0.20441811 -0.11112602 0.09317303 -0.046434868
0.05904059 -0.1653498 0.032503437 0.15940304 0.031123282 -0.026359987 0.22523713 0.3156749
0.08638524 -0.038873907 0.110921115 -0.15203588 -0.014227301 0.13334961 -0.15945986 -0.23949395
-0.19790286 -0.036557507 0.26635274 -0.17137557 0.33205447 0.32871744 -0.13936695 0.29696938
-0.22079547 -0.28418902 -0.021675207 -0.081450656 -0.19222726 0.35979202 -0.22521843 0.09962865
0.2161753 0.29904285 0.026860692 0.18106307 -0.0044970196 -0.105329275 0.17629492 0.11842663
-0.11243102 -0.33088416 0.43053994 -0.21876529 -0.32718116 0.010793548 -0.04561208 0.21503487
-0.18979234 -0.33237493 -0.24142435 -0.15107381 0.236975 0.26143673 -0.10688116 -0.24545707
-0.05637345 -0.31198668 -0.15988381 -0.043299433 0.28638327 0.2027697 0.13703015 0.21839707
0.15450822 -0.020953603 -0.1780322 -0.3401188 0.097535014 -0.1556607 0.23795334 0.1097753
00000000: 2b02 63be cd01 803e 95fb 3fbe 4842 f0bd
00000010: 1e7c 683e 6193 8e3e ff21 8f3e 956c a53e
00000020: 1596 b73d eabf 573e c462 2c3e e10e ffbd
00000030: 3354 063e 9db6 1d3e 73c2 8c3d 68a4 933e
00000040: 2b6f 863e a205 12be 6c64 93bd e9f1 c7bd
00000050: 540b ae3e 4100 85be 7616 90be fe76 9abe
00000060: 84c5 6b3e a472 56bd a0d1 84be 4716 063d
00000070: 1169 bd3e cc5d 29bd 1682 6abe eff8 093a
00000080: c916 5fbe 850c 9bbd 59ba 0dbb ff75 aa3d
00000090: 303f 7a3e 64ff 19be 03e8 3dbe 2c0b 8e3e
000000a0: 5073 4f3e 1d46 4a3d 7c62 86be d535 993e
000000b0: a6bc 1f3e b4c9 a8bd bd0a d03d 7695 c0be
000000c0: c04f b23e 9aea 83be a004 8abc f546 7bbe
000000d0: a990 433e b366 22be 8ddd 08be 16cd 46be
000000e0: f35c 39be 036d 9ebe 0d59 1ebe fcbf 10be
000000f0: 9574 693e 5ed0 9dbc aef6 2e3d 8787 30be
00000100: 9692 823c 087b 87be 4656 2bbe af19 cebc
00000110: a736 f3bd 7aef b9bd a5e4 6fbe 36af 803e
00000120: 01c3 e2bd be4b e53c 7b67 8fbc 1416 49bc
00000130: e382 a03e ea86 37bd 6bfb 9a3e 5bb0 d23d
00000140: d3a8 163d 7bcb 0b3e ea59 8a3e 08bb 833e
00000150: 454b 77bb 469d 1fbe b58b 893d b72e c93d
00000160: 8129 bdbe 2025 073e f766 49be 3b10 503c
00000170: b320 883e 2b04 693e cd59 58be b31f 49be
00000180: 79cf 803e b32e 833e e1ef 123e 7e41 84be
00000190: 58b1 41be 125f 81be 5d50 603d ef99 9fbe
000001a0: 12e1 90be 2361 693e e321 a63d e055 8e3d
000001b0: be1a 34bc 0653 92be ad5e 66be 7cf8 fcbd
000001c0: 60e6 973e 4fae 9bbe 7f36 a33e fdbb 073e
000001d0: 3452 a4be 014a 873e 21b1 403e d3b6 00be
000001e0: b980 f4bd aabc 93be f1ef 113e 0068 1ebd
000001f0: 4757 84be b43e 9e3e c756 8cbe 4894 a3be
00000200: d91d cf3d 0a51 b0bd bbd5 363e 13ee e8bc
00000210: 6033 073e dc11 c9bd 5e0e 9b3e a983 973d
00000220: 7180 5e3e a2d1 05be 2ea8 89be ff77 1e3e
00000230: 658a d63d 55f1 c43c 9825 b8be e2d8 75be
00000240: c55e 803e ba27 d8bd e314 68bc e37b 6a3e
00000250: 22bb 45be 6073 5e3d 577c c6bd 087c b73d
00000260: 382b 88bd fccc 9c3e 247e 7f3c eef0 a2be
00000270: 9c7f 8a3e 8d11 6f3e 4c32 34be 8ce6 53be
00000280: b84a b33d afa6 8ebe 6f1c d3bb d2b2 7f3e
00000290: 6df9 083d 1b3c c3bc cc7d d7bd 00de 98be
000002a0: 004d aa3d 38bf a0be 43ff 9b3e 84f6 13bd
000002b0: 72f9 dd3d ac96 8b3e b8a0 5abc 445a 04be
000002c0: 57a6 82bd 46c2 b23d 354c 93be fd96 97bd
000002d0: fb52 51be 0a96 e3bd 80d1 be3d 7d32 3ebd
000002e0: 8cd4 713d 7551 29be 5322 053d 8d3a 233e
000002f0: 41f6 fe3c e6f0 d7bc 90a4 663e 24a0 a13e
00000300: bfea b03d 3f3a 1fbd 9c2a e33d 4baf 1bbe
00000310: a019 69bc cd8c 083e 7249 23be e73d 75be
00000320: 0ca7 4abe 53bd 15bd 635f 883e 147d 2fbe
00000330: 0b03 aa3e a74d a83e 36b6 0ebe 5f0c 983e
00000340: 3518 62be 3981 91be 3490 b1bc 9acf a6bd
00000350: 39d7 44be a936 b83e a99f 66be 1b0a cc3d
00000360: 0f5d 5d3e 251c 993e f40a dc3c 9968 393e
00000370: bc5b 93bb e0b6 d7bd a886 343e a989 f23d
00000380: 3c42 e6bd a669 a9be bb6f dc3e 0204 60be
00000390: 4a84 a7be 6cd7 303c bbd3 3abd 1a32 5c3e
000003a0: ec58 42be 0c2d aabe f237 77be 18b3 1abe
000003b0: 93a9 723e 09db 853e 82e4 dabd 1959 7bbe
000003c0: d9e7 66bd b8bc 9fbe 95b8 23be bf5a 31bd
000003d0: d4a0 923e dca2 4f3e a251 0c3e 7ba3 5f3e
000003e0: 6737 1e3e e4a6 abbc 134e 36be 0d24 aebe
000003f0: 70c0 c73d 8565 1fbe 0aaa 733e dfd1 e03d

encoder.4.bias f4 [32]
0.035215534 0.01274098 -0.03369848 0.06562853 0.0016725935 -0.024353098 -0.007783437 -0.025846077
-0.026620764 0.031375032 -0.040668976 -0.009461445 0.057757284 0.011416399 0.004382441 -0.031123726
0.051264465 -0.08802788 -0.047706455 0.02666152 0.022445053 -0.0069251307 -0.0047771535 0.05703115
0.011190512 -0.038945537 -0.005552183 0.0661778 0.026305133 -0.023935005 -0.025470555 0.024422128
00000000: 2a3e 103d 8bbf 503c 6b07 0abd 4068 863d
00000010: ed3a db3a 2680 c7bc 340c ffbb 27bb d3bc
00000020: ca13 dabc 1b83 003d 8394 26bd 2d04 1bbc
00000030: e792 6c3d d90b 3b3c 949a 8f3b 2ff7 febc
00000040: b0fa 513d f647 b4bd d867 43bd 4369 da3c
00000050: b0de b73c 35ec e2bb ab89 9cbb 7f99 693d
00000060: 6958 373c 5b85 1fbd 16ef b5bb 3a88 873d
00000070: dd7d d73c 5813 c4bc a0a7 d0bc ea10 c83c

nee_decoder.0.weight f4 [16, 32]
-0.0072950698 -0.5943442 0.3257236 -0.055077393 -0.012214503 -0.21447574 0.30680934 0.7896821
0.20664695 -0.025923237 -0.1011921 -0.12226528 0.009996078 -0.23076418 0.44336602 -0.3896142
-0.13908912 -0.24102694 -0.054669134 0.101584114 -0.22534485 -0.240943 -0.07982783 -0.023202902
-0.11859228 0.6031536 0.05379352 -0.15835443 0.3590129 0.3181247 0.20365533 -0.23853348
-0.059524704 0.3198101 0.15519446 0.0559961 -0.31408605 0.21496794 0.18936032 -0.19581288
-0.29863778 -0.23826373 -0.20352554 -0.24014029 -0.086655095 -0.32133922 -0.16711181 0.07912884
-0.29703972 -0.11594767 0.017826986 0.13248342 0.23435861 -0.3266041 0.16547284 -0.18823275
-0.08185388 0.106022336 0.24799384 0.23069955 -0.22946371 0.23569077 -0.17727464 0.35805765
-0.329738 0.02757886 0.470725 0.1555936 -0.06281549 0.093357615 0.031424712 -0.3146484
0.4687256 -0.17814201 0.56088823 -0.25507402 0.03024028 0.080155686 -0.23110558 0.3315972
0.084506206 -0.1414996 0.8288082 -0.3619184 -0.10933784 -0.061227646 0.14924109 -0.08044657
0.18850875 0.29069805 -0.015148813 -0.33335045 -0.3704356 -0.017720332 0.12019998 -0.45631486
0.072519496 0.39113015 0.34020862 -0.20508519 0.20339471 -0.14260992 -0.22677538 -0.23265362
0.2739934 0.061821155 -0.062027894 -0.14804785 -0.19116206 0.048653644 -0.08311097 -0.017208908
0.11985828 -0.34157786 -0.08229946 0.100221366 0.24064839 -0.043088146 0.35050178 0.15941179
-0.039853707 0.38693208 -0.06399841 -0.2435376 -0.09212692 -0.016831843 -0.23842399 0.12955734
0.040208142 0.15861027 0.43485987 -0.19504598 -0.38193938 0.3661428 -0.09940885 0.27062705
0.11353151 0.14498405 0.44779095 -0.17487182 0.020658338 0.31710428 0.2800536 0.30807197
-0.048991572 -0.43463284 0.41833976 0.3096909 -0.22256333 -0.12176601 0.29234228 0.69863105
-0.3204076 0.2868501 0.29639143 0.3241107 0.23589723 0.13873051 0.11023591 -0.19449975
0.14853802 0.04426857 0.34550226 -0.19586362 -0.05645241 0.013805215 -0.21672796 -0.2393439
-0.23648687 0.16055031 -0.12937482 0.04670975 -0.15434623 -0.0041719917 -0.26261026 0.37719092
-0.18318261 0.03811653 0.08153116 -0.14514247 -0.05889843 -0.027214887 -0.33086115 -0.35842353
-0.2561181 -0.11813434 -0.023299046 -0.20397265 0.35096726 0.028480263 0.10966946 -0.24298069
-0.33726108 -0.33781317 -0.16041201 0.13497287 -0.029579844 0.00886224 0.19048308 0.3010541
-0.41534212 0.037082955 -0.052145958 -0.29469687 0.02959858 -0.036915272 0.01745614 -0.29361364
0.18932284 -0.42286167 0.07542938 -0.25948676 -0.10217973 -0.098647945 -0.030106958 0.008156647
-0.24029027 -0.0042816913 0.119811244 -0.07846183 0.024959436 -0.056310598 -0.08393041 -0.54330516
0.25763676 0.3241279 0.1306926 0.25940034 -0.2301775 -0.013560022 -0.089966044 -0.27943128
0.15732045 -0.20666704 -0.16181318 -0.17574258 -0.105275765 0.123473585 -0.1135342 0.16556968
-0.0155076245 0.33345327 0.17725815 -0.23375517 0.00043709704 0.19864483 0.05884067 0.08106764
-0.26975235 0.071248144 0.27777869 0.28888768 0.035504974 0.08275657 0.25868946 0.3294068
00000000: 7b0b efbb f126 18bf 3ec5 a63e d598 61bd
00000010: 571f 48bc 879f 5bbe 1d16 9d3e 9b28 4a3f
00000020: 429b 533e f85c d4bc ce3d cfbd 3866 fabd
00000030: 97c6 233c 724d 6cbe df00 e33e 837b c7be
00000040: 616d 0ebe c4cf 76be beec 5fbd 550b d03d
00000050: cdc0 66be c3b9 76be c67c a3bd 0314 bebc
00000060: 82e0 f2bd 4668 1a3f 9856 5c3d aa27 22be
00000070: 8ad0 b73e 3ee1 a23e 068b 503e 1f42 74be
00000080: 2dd0 73bd 26be a33e 4ceb 1e3e 2b5c 653d
00000090: e3cf a0be 8e20 5c3e ace7 413e 2c83 48be
000000a0: 0de7 98be 68fb 73be 0069 50be 56e7 75be
000000b0: 3a78 b1bd 9386 a4be 5c1f 2bbe 4d0e a23d
000000c0: 9715 98be f975 edbd e609 923c bca9 073e
000000d0: b4fb 6f3e a738 a7be b671 293e 16c0 40be
000000e0: 02a3 a7bd 3d22 d93d 19f2 7d3e 813c 6c3e
000000f0: 89f8 6abe ec58 713e 7c87 35be 5553 b73e
00000100: 6bd3 a8be 10ed e13c de02 f13e ee53 1f3e
00000110: 68a5 80bd 4732 bf3d 33b7 003d 9819 a1be
00000120: cdfc ef3e dc6a 36be 5f96 0f3f 1099 82be
00000130: 77ba f73c aa28 a43d f1a6 6cbe 1cc7 a93e
00000140: 9711 ad3d 45e5 10be c62c 543f 5e4d b9be
00000150: 84ec dfbd d7c9 7abd a8d2 183e 2cc1 a4bd
00000160: 7008 413e 60d6 943e ba32 78bc e9ac aabe
00000170: bca9 bdbe 3b2a 91bc 682b f63d 1aa2 e9be
00000180: 1a85 943d 3642 c83e d32f ae3e da01 52be
00000190: b446 503e 5608 12be ce37 68be c03c 6ebe
000001a0: dd48 8c3e 2e38 7d3d f610 7ebd db99 17be
000001b0: fdbf 43be 0b49 473d 1636 aabd b2f9 8cbc
000001c0: 4278 f53d 4be3 aebe 9f8c a8bd dc40 cd3d
000001d0: 886c 763e 327d 30bd f874 b33e d83c 233e
000001e0: a43d 23bd f61b c63e 9911 83bd ec61 79be
000001f0: 0aad bcbd efe2 89bc 6b25 74be aeaa 043e
00000200: 4bb1 243d bb6a 223e f4a5 de3e 22ba 47be
00000210: 8f8d c3be 1277 bb3e de96 cbbd a18f 8a3e
00000220: 3583 e83d b376 143e db44 e53e 9911 33be
00000230: ad3b a93c 7e5b a23e 2f63 8f3e 9cbb 9d3e
00000240: 63ab 48bd 3288 debe a130 d63e ce8f 9e3e
00000250: a4e7 63be 7560 f9bd e3ad 953e 7cd9 323f
00000260: 770c a4be 04de 923e 9ec0 973e d6f1 a53e
00000270: 0b8f 713e 5f0f 0e3e 5dc3 e13d f12a 47be
00000280: 5a1a 183e f652 353d ace5 b03e 7990 48be
00000290: a43a 67bd 452f 623c efed 5dbe 9116 75be
000002a0: 9d29 72be 4d67 243e d57a 04be b952 3f3d
000002b0: f00c 1ebe 34b5 88bb da74 86be 2b1f c13e
000002c0: 3994 3bbe 1420 1c3d cff9 a63d 3aa0 14be
000002d0: 7b3f 71bd c1f1 debc a266 a9be 4a83 b7be
000002e0: e921 83be 6bf0 f1bd a4dd bebc 35de 50be
000002f0: fbb1 b33e 714f e93c 629a e03d eecf 78be
00000300: 7cad acbe d9f5 acbe 0c43 24be 5436 0a3e
00000310: 6e51 f2bc ee32 113c ff0d 433e c323 9a3e
00000320: b9a7 d4be 4ce4 173d 0097 55bd 82e2 96be
00000330: b978 f23c 7834 17bd 2e00 8f3c 8754 96be
00000340: d9dd 413e 5381 d8be b87a 9a3d 73db 84be
00000350: 9b43 d1bd ef07 cabd dea2 f6bc 75a3 053c
00000360: a70e 76be 6e4d 8cbb 995f f53d 99b0 a0bd
00000370: bb77 cc3c f1a5 66bd b5e3 abbd 0c16 0bbf
00000380: f7e8 833e 18f4 a53e 48d4 053e 1fd0 843e
00000390: a7b3 6bbe db2a 5ebc 1e40 b8bd 9e11 8fbe
000003a0: 9d18 213e 86a0 53be 5bb2 25be ddf5 33be
000003b0: d29a d7bd b8df fc3d 9e84 e8bd 198b 293e
000003c0: b113 7ebc 63ba aa3e 2983 353e 845d 6fbe
000003d0: 2c2a e539 8d69 4b3e ea02 713d ca06 a63d
000003e0: fb1c 8abe 8cea 913d 0239 8e3e 16e9 933e
000003f0: aa6d 113d 477c a93d f272 843e 02a8 a83e

nee_decoder.0.bias f4 [16]
-0.13272834 0.0252521 -0.2779147 -0.15883224 0.14014542 0.017376497 0.3479715 -0.02257418
-0.039505422 -0.031097373 0.083065316 -0.037852842 0.08281177 0.05563305 -0.0034048546 -0.050156888
00000000: f0e9 07be 7edd ce3c d64a 8ebe eba4 22be
00000010: 4882 0f3e 2859 8e3c 5229 b23e 7ded b8bc
00000020: 70d0 21bd ebbf febc 261e aa3d 950b 1bbd
00000030: 3899 a93d 7bdf 633d fb23 5fbb 4f71 4dbd

nee_decoder.2.weight f4 [16, 16]
-0.402382 0.3054584 0.017236946 -0.407081 0.26003656 0.31278193 -0.6337542 0.03612793
0.11162413 -0.0973126 0.35923353 -0.2559516 0.5496376 -0.003946267 0.0826413 -0.38530782
0.16904433 -0.32487896 0.016034812 0.020534487 0.21705247 0.26445776 -0.42058662 0.14063156
0.27255207 0.2258125 0.7160844 0.19750062 0.55168575 -0.38417435 -0.25697297 -0.11280404
0.34670106 -0.33619383 0.47497615 0.055210046 -0.49062425 -0.13431187 0.6681496 0.056692757
0.071689054 0.3172451 -0.008431639 -0.19902231 -0.54697436 0.72671485 0.38622376 0.4540206
-0.27628317 -0.048439912 0.006028289 -0.3718284 -0.30732572 -0.12956096 -0.3043283 0.41311994
-0.24725829 -0.21034802 -0.32725325 -0.23522262 0.34784216 0.27334103 -0.32978058 0.13984543
0.054462574 -0.4022049 -0.3812404 0.32220572 0.096803375 -0.15627941 0.10404064 -0.08332552
-0.3357418 0.29900467 -0.2560274 -0.10580374 -0.20950384 -0.1635607 0.20127416 -0.40274954
0.2552142 0.23031484 0.6154226 0.28371274 -0.28632486 0.44033688 -0.028611924 0.22339194
0.24811454 -0.39202377 -0.16750187 0.3474108 -0.58185506 0.25602743 -0.14504004 -0.21876556
0.44092825 -0.0066005373 0.568895 0.019972848 -0.2732393 0.27119064 -0.031064676 -0.40598184
0.34114546 -0.36250108 -0.49622694 0.12989846 -0.6997498 0.76190305 0.31792417 0.40486577
-0.120794594 -1.0580496 0.22767511 -0.35736942 -0.030814663 -0.09599982 -0.22316663 -0.41504145
0.36000913 -0.25481725 -0.054158226 0.049069237 0.33135685 -0.39583516 0.08528834 -0.4494076
0.08537532 0.08679214 0.074741945 0.5433785 -0.67818576 0.31458953 0.6181438 0.18483078
-0.038973607 0.21987626 -0.7487606 0.07779733 0.076663956 0.80225503 0.29549226 0.079532504
-0.3017312 -0.38357732 -0.03934808 -0.10934808 -0.4271116 0.20691793 -0.2665416 -0.028055253
0.1451574 -0.33203435 0.007245271 0.37492013 -0.044292934 -0.24432187 -0.2998738 0.330887
0.22179267 -0.23872896 -0.019801669 0.3472242 -0.26400515 0.0793438 0.3522233 -0.3153106
-0.38865355 -0.19463 -0.37517413 -0.31895986 -0.11739456 -0.28817734 -0.20970866 -0.13029093
-0.013721605 -0.36808646 -0.22208054 0.1212172 0.2341492 0.098607644 -0.17381464 0.08537749
0.006931821 -0.34521034 -0.14367057 0.13212048 0.30598965 -0.25813815 -0.15584046 0.15459977
0.11081581 -0.12143853 -0.5861187 -0.20868047 -0.21291453 -0.40206152 -0.040028255 0.14532948
0.054088194 -0.11969817 -0.40789446 0.36111376 0.046486437 -0.24783693 0.041853875 0.021109376
0.099186614 0.40474278 -0.2858319 -0.18235196 0.12817588 0.20002708 0.13533762 0.35390276
0.31356338 -0.22630732 0.059906326 0.07532116 0.30350834 -0.6798176 -0.22064623 0.24592978
-0.11683289 0.31270206 -0.2933499 0.34205532 0.074178405 -0.08863298 0.01445561 0.2814325
0.06852728 0.24340554 0.42580596 -0.268949 -0.16046949 0.10175657 0.088308185 -0.06855007
0.2835857 0.10413405 0.079052575 0.436013 0.21582624 -0.27191207 0.25295088 0.24462357
-0.23011184 -0.036716174 0.7669669 -0.11549872 0.6602856 0.19986781 -0.1211922 -0.2837033
00000000: 0305 cebe 0b65 9c3e 7f34 8d3c ec6c d0be
00000010: 8323 853e f424 a03e b73d 22bf e1fa 133d
00000020: 319b e43d d44b c7bd 75ed b73e 170c 83be
00000030: 0db5 0c3f b04f 81bb d83f a93d 1147 c5be
00000040: f519 2d3e 8956 a6be 705b 833c f137 a83c
00000050: 0143 5e3e 0267 873e 2157 d7be b801 103e
00000060: f28b 8b3e 643b 673e 4f51 373f 9a3d 4a3e
00000070: 473b 0d3f 80b2 c4be f691 83be ce05 e7bd
00000080: cd82 b13e 9921 acbe 1330 f33e ee23 623d
00000090: 1a33 fbbe 0d89 09be da0b 2b3f aa36 683d
000000a0: b6d1 923d f36d a23e db24 0abc 81cc 4bbe
000000b0: 8306 0cbf fc09 3a3f 1fbf c53e 6375 e83e
000000c0: fd74 8dbe ee68 46bd f488 c53b 4b60 bebe
000000d0: cc59 9dbe a1ab 04be ebd0 9bbe 7584 d33e
000000e0: 4731 7dbe 7965 57be bd8d a7be 33de 70be
000000f0: 5e18 b23e 5bf3 8b3e 00d9 a8be a433 0f3e
00000100: 2614 5f3d cded cdbe f131 c3be 26f8 a43e
00000110: d940 c63d b607 20be 4213 d53d 92a6 aabd
00000120: 59e6 abbe 2417 993e 0616 83be a2af d8bd
00000130: 2d88 56be 757c 27be d01a 4e3e 3035 cebe
00000140: 70ab 823e a7d7 6b3e 568c 1d3f cc42 913e
00000150: 2c99 92be d673 e13e 8e63 eabc dbc0 643e
00000160: bd11 7e3e 57b7 c8be 9c85 2bbe d4df b13e
00000170: 74f4 14bf 0716 833e 6085 14be 1404 60be
00000180: 59c1 e13e 5249 d8bb 1aa3 113f 199e a33c
00000190: 06e6 8bbe 80d9 8a3e 597b febc dadc cfbe
000001a0: 9eaa ae3e be99 b9be 7511 febe 1a04 053e
000001b0: ce22 33bf 140c 433f f5c6 a23e 914a cf3e
000001c0: 2863 f7bd 2b6e 87bf aa23 693e 20f9 b6be
000001d0: 086f fcbc 8e9b c4bd cb85 64be 5080 d4be
000001e0: 1e53 b83e 6877 82be 04d5 5dbd d3fc 483d
000001f0: 9ba7 a93e e8aa cabe a7ab ae3d c118 e6be
00000200: 41d9 ae3d 14c0 b13d 4e12 993d da1a 0b3f
00000210: 959d 2dbf e111 a13e ac3e 1e3f 4844 3d3e
00000220: caa2 1fbd 3e27 613e c6ae 3fbf 3554 9f3d
00000230: fe01 9d3d 9660 4d3f c34a 973e f0e1 a23d
00000240: 837c 9abe 3f64 c4be 742b 21bd e3f1 dfbd
00000250: 5fae dabe 4be2 533e 2478 88be 21d4 e5bc
00000260: 24a4 143e 6800 aabe bd69 ed3b 88f5 bf3e
00000270: 826c 35bd 832f 7abe 0f89 99be 056a a93e
00000280: 9e1d 633e 5d75 74be 1c37 a2bc 5fc7 b13e
00000290: af2b 87be 017f a23d 9d56 b43e 6470 a1be
000002a0: 99fd c6be 164d 47be d316 c0be b54e a3be
000002b0: 8f6c f0bd fb8b 93be debd 56be fc6a 05be
000002c0: 95d0 60bc d475 bcbe 1569 63be b940 f83d
000002d0: cfc4 6f3e cef2 c93d 77fc 31be 65da ae3d
000002e0: 5424 e33b 69bf b0be 611e 13be 974a 073e
000002f0: adaa 9c3e af2a 84be a494 1fbe 674f 1e3e
00000300: 66f3 e23d c4b4 f8bd e00b 16bf 55b0 55be
00000310: 4406 5abe 02db cdbe abf4 23bd 40d1 143e
00000320: 958b 5d3d 5024 f5bd 8bd7 d0be e7e3 b83e
00000330: 9068 3e3d f7c8 7dbe f86e 2b3d 92ed ac3c
00000340: 5a22 cb3d 723a cf3e 8f58 92be 79ba 3abe
00000350: 8a40 033e e6d3 4c3e f295 0a3e be32 b53e
00000360: 618b a03e 1bbd 67be 5660 753d fb41 9a3d
00000370: 7265 9b3e 8708 2ebf 16f1 61be 04d5 7b3e
00000380: 1546 efbd 7c1a a03e f531 96be e021 af3e
00000390: d9ea 973d 3585 b5bd 39d7 6c3c ec17 903e
000003a0: 0858 8c3d 4d3f 793e 3d03 da3e afb3 89be
000003b0: 1d52 24be c065 d03d ecda b43d fb63 8cbd
000003c0: 2532 913e 3c44 d53d 51e6 a13d 193d df3e
000003d0: 8e01 5d3e 0f38 8bbe c782 813e 9a7e 7a3e
000003e0: 70a2 6bbe b363 16bd f157 443f 988a ecbd
000003f0: 7a08 293f 26aa 4c3e 9e33 f8bd 8f41 91be

nee_decoder.2.bias f4 [16]
0.034217108 0.02032296 -0.017979592 -0.0172531 0.0 -0.002980867 -0.0040212716 0.09306452
-0.003678374 0.009778758 -0.015120488 -0.01714041 -0.023093715 -0.009032063 0.022385325 0.09764249
00000000: 3d27 0c3d 567c a63c f049 93bc 6056 8dbc
00000010: 0000 0000 a65a 43bb dfc4 83bb 9c98 be3d
00000020: e010 71bb 1537 203c ecbb 77bc 0c6a 8cbc
00000030: 082f bdbc 38fb 13bc 6e61 b73c c9f8 c73d

nee_decoder.4.weight f4 [1, 16]
-0.6356025 -0.19235669 0.25951704 -0.03696589 -0.34085032 0.3101295 0.6724234 -0.263031
0.28393632 -0.324354 0.09158938 -0.52661324 -0.40747574 -0.25848997 -0.3228642 -0.80393213
00000000: d8b6 22bf 27f9 44be 6bdf 843e 8c69 17bd
00000010: ef83 aebe 4bc9 9e3e f123 2c3f 00ac 86be
00000020: 1a60 913e ba11 a6be 3693 bb3d 20d0 06bf
00000030: a9a0 d0be cc58 84be 754e a5be 7fce 4dbf

k_decoder.0.weight f4 [16, 32]
0.19727762 -0.0067869136 0.21462162 -0.24275574 0.17135605 0.2887417 0.05307065 -0.3130064
-0.24000405 -0.30784643 0.24372761 -0.037178215 -0.24668941 0.11710832 0.10326474 -0.30594775
0.18872964 0.09728783 -0.24487056 0.30283153 0.12628752 -0.10932588 -0.07428885 0.36154047
0.08796271 0.30384746 -0.15271291 -0.022730172 -0.08719262 0.33421668 0.019589389 0.073574215
-0.20312671 0.3316491 -0.15708664 -0.12906532 0.1628015 0.12804498 -0.24606974 -0.27545148
-0.33427057 -0.2703596 0.093917966 -0.19773643 0.17986053 -0.1359326 -0.05720231 0.2646694
0.25604478 0.3637788 0.19348124 0.31456286 0.027822359 0.3121191 -0.4063222 -0.40435869
0.12026043 0.2703443 0.07707624 -0.38826916 -0.089173995 -0.17405812 0.062916376 0.16662367
-0.08883532 -0.026262347 -0.39222392 0.09855901 0.32411024 -0.32374358 -0.2067458 0.13169001
-0.04818607 0.14551899 -0.2940154 0.06650026 -0.20979913 -0.24427353 -0.15351194 0.081377774
-0.0725378 0.15810676 -0.28201988 -0.07407156 0.20505382 0.023693085 -0.18753684 0.19176053
0.0071524144 -0.36435378 -0.08109689 -0.3691316 0.3679621 0.20902461 -0.2186839 -0.08124608
-0.13212886 0.38035858 0.010294925 0.27128583 0.10694923 -0.30762836 -0.3105958 -0.3747188
-0.11018403 0.047472317 -0.20322523 0.23860537 0.06528537 0.1637409 -0.34816718 -0.014767159
-0.24093382 -0.0537815 -0.2736182 0.21613175 0.2641397 0.024915727 -0.17784663 0.060784176
0.24653742 -0.1018595 -0.1458881 0.1910163 0.40966463 -0.23141675 -0.39263397 -0.17999896
0.054156616 -0.30294898 0.07289914 -0.32563695 -0.21726207 0.23216465 -0.12520482 -0.042360205
0.20308615 -0.15392013 0.011095692 0.2876257 -0.1390305 0.28519776 -0.18033856 0.28284287
0.27322707 0.28001305 0.20952915 -0.24817005 -0.029084519 -0.12062833 0.05857144 0.2658496
-0.30529594 0.06250256 0.09426275 -0.026339175 0.15573667 -0.32644755 0.11121042 -0.1338701
0.036222104 0.1293185 -0.054605126 0.041436825 0.018217273 -0.16747534 -0.006331486 -0.22291137
0.08513572 -0.38297948 -0.92861766 0.25351113 0.00034506 0.19820173 0.22517034 0.0961743
-0.2649614 -0.5011422 -0.6162469 0.12993337 -0.5511816 -0.6101256 -0.015821222 0.46255377
-0.42222977 -0.66590357 -0.07230022 0.13705422 -0.036632862 -0.14411642 -0.18032743 -0.003502375
-0.49412066 0.3122015 -0.08046436 0.009045615 0.41475248 -0.6026188 -0.22838016 -0.19756481
-0.027279224 -0.003601961 -0.06553653 -0.10636496 0.21909356 0.4072635 0.011369415 0.39414456
-0.53414977 -0.07163703 -0.2697712 -0.6907898 -0.22404386 0.33812213 -0.1780591 -0.668973
0.6780546 0.1193045 0.1720342 -0.3754741 0.027957432 -0.15813272 -0.19515072 -0.44911835
-0.5148323 0.79291594 -0.6141273 0.15272713 0.80371594 -0.15853609 -0.8138512 -0.37760893
-0.2518028 -0.9601734 -0.35145292 0.09337177 0.4803825 0.19771479 -0.7017891 0.5094586
-0.4679507 -0.35967392 -0.08600696 -0.28274328 -0.9549626 0.064924166 -0.700593 -0.5075043
0.4996823 -0.22430454 -0.35075426 -0.93484414 -0.42030522 -0.3023667 -0.61656433 -0.21320964
00000000: 2503 4a3e c264 debb c5c5 5b3e f694 78be
00000010: f677 2f3e f4d5 933e 9c60 593d 6042 a0be
00000020: 9fc3 75be 0c9e 9dbe bb93 793e 2f48 18bd
00000030: 269c 7cbe 7dd6 ef3d 777c d33d 2fa5 9cbe
00000040: 5842 413e d83e c73d 59bf 7abe bc0c 9b3e
00000050: 8451 013e 3fe6 dfbd c124 98bd d51b b93e
00000060: cb25 b43d e591 9b3e c660 1cbe a034 babc
00000070: 0b92 b2bd 731e ab3e ed79 a03c 14ae 963d
00000080: 7300 50be e9cd a93e 52db 20be b329 04be
00000090: 70b5 263e 391e 033e b5f9 7bbe fa07 8dbe
000000a0: 8325 abbe 936c 8abe 1058 c03d 6b7b 4abe
000000b0: 5c2d 383e ea31 0bbe f84c 6abd bf82 873e
000000c0: 4d18 833e 3741 ba3e f21f 463e 620e a13e
000000d0: b7eb e33c 13ce 9f3e 7709 d0be 1a08 cfbe
000000e0: 1a4b f63d 916a 8a3e 26da 9d3d 37cb c6be
000000f0: dba0 b6bd 4b3c 32be 4dda 803d 659f 2a3e
00000100: 4bef b5bd 2224 d7bc 93d1 c8be 4ed9 c93d
00000110: c7f1 a53e b8c1 a5be 2cb5 53be bfd9 063e
00000120: c25e 45bd ee02 153e 3089 96be 4a31 883d
00000130: 95d5 56be d722 7abe 3c32 1dbe 64a9 a63d
00000140: b38e 94bd bde6 213e e964 90be d4b2 97bd
00000150: a1f9 513e 0018 c23c a809 40be df5c 443e
00000160: cd5e ea3b 948c babe 2016 a6bd d1fe bcbe
00000170: 8765 bc3e 8c0a 563e acee 5fbe 5864 a6bd
00000180: ca4c 07be 5cbe c23e 0cac 283c fae5 8a3e
00000190: 3308 db3d 7781 9dbe 6a06 9fbe 24db bfbe
000001a0: 2aa8 e1bd 5572 423d 461a 50be f754 743e
000001b0: 56b4 853d b2ab 273e f842 b2be f4f1 71bc
000001c0: 5bb7 76be fd49 5cbd af17 8cbe a451 5d3e
000001d0: 523d 873e 111c cc3c 6d1d 36be d4f8 783d
000001e0: 4e74 7c3e b79b d0bd b163 15be c799 433e
000001f0: 90bf d13e 83f8 6cbe 5207 c9be a651 38be
00000200: 54d3 5d3d 211c 9bbe 254c 953d e3b9 a6be
00000210: f379 5ebe 92bc 6d3e b135 00be e581 2dbd
00000220: d1f5 4f3e 3d9d 1dbe b5ca 353c ad43 933e
00000230: 035e 0ebe 7105 923e acaa 38be c8d0 903e
00000240: 6be4 8b3e df5d 8f3e cf8e 563e 4a20 7ebe
00000250: a842 eebc fc0b f7bd 9be8 6f3d 701d 883e
00000260: c04f 9cbe 5801 803d d40c c13d 41c5 d7bc
00000270: 6f79 1f3e 2224 a7be 4ac2 e33d 3e15 09be
00000280: a15d 143d 126c 043e a0a9 5fbd a9b9 293d
00000290: 643c 953c a87e 2bbe 5b78 cfbb e142 64be
000002a0: a35b ae3d e315 c4be e3b9 6dbf 36cc 813e
000002b0: 2be9 b439 65f5 4a3e 0e93 663e 08f7 c43d
000002c0: 05a9 87be db4a 00bf 5bc2 1dbf 410d 053e
000002d0: 3d1a 0dbf 3131 1cbf 829b 81bc d9d3 ec3e
000002e0: 802e d8be a878 2abf 2312 94bd f157 0c3e
000002f0: 570c 16bd 4193 13be c1a7 38be 1a88 65bb
00000300: 62fd fcbe e0d8 9f3e 80ca a4bd 0f34 143c
00000310: 705a d43e 3a45 1abf 7ddc 69be 6e4e 4abe
00000320: ae78 dfbc e10e 6cbb 0438 86bd dfd5 d9bd
00000330: 105a 603e d784 d03e c846 3a3c 51cd c93e
00000340: 0abe 08bf 6fb6 92bd 731f 8abe 9ad7 30bf
00000350: c16b 65be 581e ad3e 2055 36be d141 2bbf
00000360: fc94 2d3f eb55 f43d bc29 303e 243e c0be
00000370: fc06 e53c 8bed 21be 97d5 47be d7f2 e5be
00000380: 0dcc 03bf 8afc 4a3f 7237 1dbf 8064 1c3e
00000390: 54c0 4d3f 4957 22be 8d58 50bf f555 c1be
000003a0: 4cec 80be edcd 75bf a3f1 b3be b339 bf3d
000003b0: b2f4 f53e bf75 4a3e 73a8 33bf e16b 023f
000003c0: 3c97 efbe 2e27 b8be 6b24 b0bd bac3 90be
000003d0: 6e78 74bf f6f6 843d 105a 33bf cdeb 01bf
000003e0: 5cd6 ff3e 17b0 65be 1096 b3be f251 6fbf
000003f0: 3f32 d7be cfcf 9abe 29d7 1dbf a153 5abe

k_decoder.0.bias f4 [16]
-0.0134517215 0.11085064 0.10051582 0.095571786 0.009093091 0.078082696 0.6396998 0.66290736
-0.01980898 0.58577555 0.09211302 0.07349152 0.074380815 0.12746476 0.0 -0.00033851678
00000000: 9c64 5cbc a905 e33d 3ddb cd3d 24bb c33d
00000010: 30fb 143c d2e9 9f3d 5ec3 233f 4cb4 293f
00000020: 7146 a2bc 63f5 153f c0a5 bc3d b982 963d
00000030: f854 983d 1f86 023e 0000 0000 f47a b1b9

k_decoder.2.weight f4 [16, 16]
-0.37091824 0.39534348 0.18137842 0.055625208 -0.18187721 -0.025481699 0.05275107 0.67986333
0.11144039 0.4015496 0.2455525 0.37822 -0.12969515 0.37543344 0.35562968 -0.14964993
0.32764113 -0.05959075 0.025688421 0.47288042 0.14856724 0.9923096 0.004334436 0.80435884
0.3720321 0.9990195 0.20298879 0.44111794 -0.28863734 0.2753048 -0.009233012 0.017596869
0.100388415 0.13783522 -0.34827778 -0.3354457 0.16391307 -0.48193464 0.5645679 0.24943814
-0.09441387 -0.3572512 0.066666864 0.36406472 -0.170911 0.25435546 0.06256017 -0.23081297
0.26976833 0.36451188 -0.15057226 -0.3360834 -0.33908698 -0.4276679 0.10438814 -0.4397721
-0.33207223 0.25065538 0.0046252976 0.27636722 -0.20710653 0.16102636 -0.08177922 0.14346434
0.3049038 0.048323713 -0.2730761 -0.25987527 -0.34714866 -0.31677404 0.24728295 -0.07147832
-0.3571266 -0.05832045 0.033504058 -0.3647364 -0.31148276 0.17554544 0.24616954 0.37177822
-0.121599406 -0.22560261 0.0637592 0.17646752 0.029772887 0.16070797 0.105205424 -0.38768607
0.15054582 -0.011434309 -0.10236291 0.06584214 -0.29213136 0.04874226 0.109958775 -0.028425626
-0.41079676 0.42092043 -0.11368268 0.22948599 -0.2707227 0.87177634 0.12370323 0.32313967
-0.24965602 0.4050213 0.11299287 0.5331468 0.15189263 0.08882536 0.42540336 0.11990029
-0.075935 0.015392637 0.098769456 0.22846797 -0.081913866 0.34015524 -0.25114474 -0.3920599
-0.4182876 -0.06409305 0.007190028 0.24129456 0.015618255 -0.32261065 -0.19534482 -0.2606664
0.08995325 0.015967783 -0.22881092 0.053273544 -0.22861798 0.034182806 -0.16614234 0.34561226
0.1849066 0.19541338 -0.17367348 -0.23747467 -0.01254797 -0.26612264 0.19184339 0.23148797
0.010786275 0.07294949 -0.32980663 -0.011230615 -0.33820233 -0.2713861 0.71442866 0.7671146
-0.26087204 0.32752186 0.39713964 0.24415031 0.122290075 0.21694738 -0.18630502 -0.22909442
0.41683212 -0.0024582357 -0.13708772 0.29468554 0.077347845 -0.40828243 0.4456372 0.8146881
-0.36115986 0.8372179 0.29662704 -0.18181483 -0.013331421 0.4478917 0.14538875 -0.23033345
0.1279466 -0.07691757 0.20484038 -0.39602134 0.37103185 0.002758733 -0.025676649 -0.17457798
0.3368551 -0.24613558 0.29726192 -0.16155294 0.039359044 -0.12824738 -0.06213189 0.24192402
-0.27499655 -0.2650417 -0.24842124 -0.027660599 0.31372872 0.46175155 0.29530022 -0.25158554
0.41260803 0.120587505 -0.008334948 -0.27960202 -0.034294322 -0.16858679 -0.004704826 0.4050888
-0.06717942 0.052357353 0.2870347 0.2792307 0.47006398 0.12402592 0.42992783 0.74383026
-0.20239305 0.57754266 -0.08527218 -0.0917442 0.012575577 0.23427857 0.41354242 0.45190802
0.34522685 0.32350528 0.32172114 -0.20474584 0.036643706 0.3570377 0.017126527 0.35506055
0.12114477 -0.4298374 -0.368087 -0.20490101 0.08291378 -0.111859985 0.16938701 0.13291492
-0.069552146 0.22118862 0.20733678 -0.016892748 0.47632992 0.388919 -0.07035674 1.1436702
-0.11560033 0.8801038 -0.33544594 0.32610703 0.3891041 0.14887348 -0.40395072 -0.22231708
00000000: ffe8 bdbe 766a ca3e 44bb 393e 42d7 633d
00000010: 053e 3abe ffbe d0bc 8211 583d 860b 2e3f
00000020: dc3a e43d e997 cd3e 1d72 7b3e 0da6 c13e
00000030: cece 04be d038 c03e 1815 b63e d53d 19be
00000040: 94c0 a73e 6e15 74bd 8670 d23c 621d f23e
00000050: 0322 183e 0008 7e3f e207 8e3b 76ea 4d3f
00000060: fe7a be3e bebf 7f3f 4bdc 4f3e 36da e13e
00000070: 46c8 93be c0f4 8c3e 0f46 17bc 4f27 903c
00000080: 7198 cd3d ad24 0d3e 7751 b2be 8abf abbe
00000090: d4d8 273e 23c0 f6be 8687 103f b66c 7f3e
000000a0: 0f5c c1bd a1e9 b6be a388 883d b166 ba3e
000000b0: 4b03 2fbe e13a 823e 8c1f 803d 3c5a 6cbe
000000c0: 131f 8a3e 4da1 ba3e 9d2f 1abe 2013 acbe
000000d0: cf9c adbe 49f7 dabe 73c9 d53d cf29 e1be
000000e0: 5f05 aabe e755 803e cf8f 973b 0180 8d3e
000000f0: bc13 54be 18e4 243e dd7b a7bd 51e8 123e
00000100: 5a1c 9c3e 16ef 453d a1d0 8bbe 5f0e 85be
00000110: 78bd b1be 3530 a2be be37 7d3e 3a63 92bd
00000120: 4cd9 b6be 6de1 6ebd 8d3b 093d bbbe babe
00000130: ab7a 9fbe 2fc2 333e de13 7c3e b759 be3e
00000140: 1c09 f9bd 5f04 67be 2f94 823d e7b3 343e
00000150: 45e6 f33c a190 243e f175 d73d ca7e c6be
00000160: af28 1a3e f856 3bbc a5a3 d1bd 3ed8 863d
00000170: 3e92 95be f7a5 473d 1132 e13d dcdc e8bc
00000180: f453 d2be e282 d73e 77d2 e8bd 60fe 6a3e
00000190: 2a9c 8abe bc2c 5f3f 1e58 fd3d 9072 a53e
000001a0: d4a5 7fbe f45e cf3e ce68 e73d 4f7c 083f
000001b0: be89 1b3e 12ea b53d 78ce d93e 498e f53d
000001c0: cf83 9bbd 6631 7c3c a447 ca3d 82f3 693e
000001d0: 75c2 a7bd d428 ae3e 0b96 80be 13bc c8be
000001e0: cb29 d6be 3843 83bd 549a eb3b ec15 773e
000001f0: b6e3 7f3c 392d a5be 7908 48be 1176 85be
00000200: 6939 b83d dece 823c 694d 6abe 5c35 5a3d
00000210: d51a 6abe 4503 0c3d 3821 2abe 17f4 b03e
00000220: 2858 3d3e 721a 483e 76d7 31be 8f2c 73be
00000230: 0096 4dbc 3a41 88be 9872 443e 2f0b 6d3e
00000240: ebb8 303c 8b66 953d 6adc a8be 9d00 38bc
00000250: db28 adbe 1ef3 8abe cce4 363f 9f61 443f
00000260: 0591 85be f2b0 a73e e355 cb3e 8a02 7a3e
00000270: 3873 fa3d 7427 5e3e bec6 3ebe ba97 6abe
00000280: 056b d53e 5a1a 21bb b960 0cbe 06e1 963e
00000290: 8c68 9e3d 650a d1be 8f2a e43e 668f 503f
000002a0: f2e9 b8be ea53 563f 80df 973e ab2d 3abe
000002b0: 086c 5abc 1052 e53e cae0 143e 88dc 6bbe
000002c0: 6f04 033e f586 9dbd adc1 513e 4fc3 cabe
000002d0: e3f7 bd3e dccb 343b d657 d2bc 92c4 32be
000002e0: 4678 ac3e f70a 7cbe b732 983e 226e 25be
000002f0: f336 213d 4853 03be 027e 7ebd eeba 773e
00000300: 59cc 8cbe 8cb3 87be 2362 7ebe 7b98 e2bc
00000310: 0da1 a03e b36a ec3e 9731 973e d2cf 80be
00000320: 5c41 d33e 95f6 f63d 4e8f 08bc ff27 8fbe
00000330: 3478 0cbd 04a2 2cbe f12a 9abb cd67 cf3e
00000340: 5d95 89bd aa74 563d 36f6 923e 54f7 8e3e
00000350: 3aac f03e 4d01 fe3d 801f dc3e a96b 3e3f
00000360: 2040 4fbe d6d9 133f 2ea3 aebd 62e4 bbbd
00000370: cb09 4e3c b9e6 6f3e d5bb d33e 7d60 e73e
00000380: 93c1 b03e 7ca2 a53e a2b8 a43e e5a8 51be
00000390: b617 163d a5cd b63e ee4c 8c3c 7fca b53e
000003a0: c01a f83d a613 dcbe e675 bcbe 92d1 51be
000003b0: b3ce a93d d916 e5bd ca73 2d3e d91a 083e
000003c0: 5b71 8ebd 457f 623e 1850 543e a962 8abc
000003d0: 84e1 f33e 6420 c73e 3217 90bd c963 923f
000003e0: debf ecbd 7c4e 613f 92bf abbe 80f7 a63e
000003f0: a738 c73e 4a72 183e a1d2 cebe 17a7 63be

k_decoder.2.bias f4 [16]
0.08057607 0.08609421 -0.052927732 -0.036148317 -0.008511368 0.0011548387 0.08121823 -0.011401877
-0.090617195 0.09438095 0.083088115 0.0073389583 -0.008929547 0.57048446 -0.012974174 0.08621203
00000000: 1105 a53d 2952 b03d c0ca 58bd 4210 14bd
00000010: 4473 0bbc f55d 973a be55 a63d f0ce 3abc
00000020: 8295 b9bd cd4a c13d 1a2a aa3d a57b f03b
00000030: 3c4d 12bc 450b 123f a191 54bc ef8f b03d

k_decoder.4.weight f4 [2, 16]
0.45066732 0.22873518 -0.36353952 -0.26338038 -0.43571 0.13964576 0.21714921 -0.24725373
0.46437487 0.3090546 0.5176617 0.017903656 -0.32823208 0.9701933 -0.03779491 0.49162078
-0.09063279 -0.37509248 0.5177265 -0.17496087 -0.13464601 -0.18233791 -0.54461586 -0.0106828585
0.24943487 0.3653278 0.34215263 -0.5222453 -0.455439 0.44792816 0.1202583 -0.110884644
00000000: debd e63e 8e39 6a3e da21 babe cbd9 86be
00000010: 6215 dfbe 4cff 0e3e 5d5c 5e3e 1530 7dbe
00000020: 8bc2 ed3e 683c 9e3e 7a85 043f b0aa 923c
00000030: 090e a8be 975e 783f d6ce 1abd b8b5 fb3e
00000040: af9d b9bd 1f0c c0be b989 043f f128 33be
00000050: a5e0 09be cab6 3abe f26b 0bbf 2807 2fbc
00000060: db6b 7f3e 3f0c bb3e a12e af3e deb1 05bf
00000070: 4d2f e9be d756 e53e fc49 f63d 7d17 e3bd

k_decoder.4.bias f4 [2]
0.07549838 0.021240642
00000000: e59e 9a3d db00 ae3c
