.archive/piae_sde/experiments/2024-11-27_14-33-10-190572/PIAE_SDE_Sampling0/best_model.pth (torch, 25314 bytes, 28 tensors)

encoder.0.weight f4 [16, 18]
00000000: 3b40 083e 44b2 bf3d 2156 0dbe 18a3 70be
00000010: 26b7 7639 d8fe e23d bdc5 603d e68e 873e
00000020: f511 883e b565 0abe 5c06 4d3e 599a 9d3c
00000030: 960c 9d3e 4fc0 b83d 35cc 10be 26f3 55be
00000040: 68a9 283e 66c5 98be a4c5 d63d 625d 34be
00000050: e9da 513e 61ce 113e 5fce edbd e8c1 ba3d
00000060: 0230 3fbe 09ba eabc b0d0 673d b15c 23bd
00000070: 11fc 64bc 4f89 b73b 6dbd 26be 1bde 6d3d
00000080: 6467 853c a1b8 013e bc29 993e 5c90 61be
00000090: cdbf 623e 311c 81bd bf3f dd3e 017d ffbd
000000a0: fdb1 b03d c663 3b3d 593d 7fbe d91f e1bd
000000b0: 8c39 ad3e 96e6 163e 993f 7cbd f619 3bbe
000000c0: 8a83 75bc b256 1c3e ac40 0ebe 3ecc e23e
000000d0: fcf4 ad3c dffe ed3e ff93 adbe a26f 863e
000000e0: 4173 0fbe 08cd a7be d673 7c3e 186c 6e3d
000000f0: b685 d9ba 0fd0 05bf 5445 953e a4cb 973e
00000100: 4130 2dbe b737 b93e cd9d 80be d65f 0c3f
00000110: 90df 22be db6f e53e 6ceb d4bd 8538 653e
00000120: fdc6 5cbe 1071 93be b9b9 9bbe 8723 bb3d
00000130: f2da 2dbe 6196 823e c308 013e 19b1 0f3e
00000140: 4426 5abd b771 bdbd 5d4f 14be 1259 45be
00000150: 4c67 b23e 5d30 3a3d e5b7 dfbd 08df d2be
00000160: fa84 d7ba 8c05 e0be e4b0 34be a808 c83d
00000170: e906 81be cb38 553c 70dd 2cbd 6efc 74be
00000180: ba87 c3be 89ba 843e a187 63be c3cc 8a3e
00000190: eebb 013e 1187 7f3e 396d 65be 49a5 b83e
000001a0: dcb6 c6be 8726 b2be 1f77 613e 646d d8bc
000001b0: c11f 01be a062 ae3d 9b5d b1be 708c 23be
000001c0: 8772 47be 16e8 453e 16e3 9f3d a232 a93c
000001d0: 4288 70be 2478 913e 9652 9cbd 9673 cb3d
000001e0: 0380 61bd 9b30 413d c618 c33d a3c1 b43e
000001f0: 3125 8e3e a2b2 b83d ac6c 783e 1f5b a93d
00000200: 6a1f a93e 3292 963e ab5c 3d3e bca7 74be
00000210: 1c08 c4be 4364 563c c289 0fbc c430 3c3e
00000220: 39a4 e63c 874e ad3d 0a52 843e 41ef 56be
00000230: 9783 903e 534a 6e3e d220 a03e 785a a93e
00000240: 1cfe 68be 7b2d 9b3e e34e 923e d161 8cbe
00000250: f2d3 f6bb d337 d03d 1827 12bd 9007 eb3b
00000260: 6d2a ce3e e007 7a3d 8f5c 2ebe 1dea e73e
00000270: 2522 3f3e 52d1 433e dbed 1e3f 79f3 b13e
00000280: 35ce f0bd 6992 413d 3b8c 973d f696 a8bd
00000290: 5df4 d3bd 442d 42be 2fa1 74be a7d4 563e
000002a0: a077 ffbd fe5d 4ebe 2c77 bd3e 9f8d 893d
000002b0: e92f 9b3e f500 c43e ed63 72bd 9e54 803d
000002c0: 7269 c73e 14fc 93be bdf9 00be 1bd9 743d
000002d0: 52ac 82bd 22f1 513d 6151 443e 68b4 68bb
000002e0: d125 073e 84eb db3e 846e 46be 2116 84be
000002f0: b749 28be dff3 c73e 0352 98be 3117 09be
00000300: d32d 773e 0b5f 5dbe abe8 c93e ec5f 5cbe
00000310: f1c7 063d 29d4 b63c 9537 30be 8344 d7bc
00000320: d9fe d93e bb28 4fbe 5413 3a3e eb94 c43d
00000330: 68c2 133e 996c 2dbe ea5f 94bc 33d1 163e
00000340: 8fe7 dbbe 212d edbe 9e54 9bbe 96a0 7e3b
00000350: 6066 38be f15b 14be ec98 d13e bbf9 b4bd
00000360: ef34 c9bb e897 633d 5f20 bbbd 4b48 ec3d
00000370: d5ad c53d e9f9 a33d a278 99be 0597 eb3e
00000380: 8c09 df3d c26e d5be c04b 053d 4ea7 1d3e
00000390: c9ff 88be 9a12 32be ca72 8dbe 984a 513e
000003a0: 0f47 253d 3281 103e 9f9d 36be 5e90 9e3e
000003b0: d501 753d 5e75 a8be dd31 e5bd 99da 613e
000003c0: 15d2 c93d 28ef 6dbd 691b 93be 5ca2 82be
000003d0: a1ad bc3e 1fbd 7cbe 3b41 953e b9a8 09be
000003e0: 47fc 293c 9a9b d4be e527 12be ff25 b23e
000003f0: 6311 84be a9a2 eb3c 7864 81be ebdd 923d
0.13305752 0.09360173 -0.13802387 -0.23499715 0.00023528616 0.11083764 0.054876078 0.2647621
0.265762 -0.1351536 0.20021957 0.019238638 0.30673665 0.09021055 -0.14140399 -0.20893535
0.16470873 -0.29838103 0.10486916 -0.17613748 0.20493664 0.14238884 -0.11611628 0.09119016
-0.18670657 -0.028653162 0.056595504 -0.03988332 -0.013976113 0.0056010853 -0.16283198 0.058073144
0.016284652 0.12668087 0.29914653 -0.22027725 0.22143479 -0.06304205 0.43212697 -0.124750145
0.086276986 0.04574945 -0.24925746 -0.109924026 0.33832967 0.14736399 -0.06158409 -0.18271622
-0.014984975 0.15267447 -0.13891858 0.4429645 0.021234982 0.46483514 -0.33901975 0.26257044
-0.1400881 -0.32773614 0.24653563 0.058208555 -0.0016595635 -0.522706 0.29154456 0.29647553
-0.16912939 0.3617532 -0.25120392 0.54833734 -0.15905595 0.448119 -0.10396466 0.22384842
-0.21560283 -0.28797197 -0.30415133 0.09137636 -0.16978052 0.25505355 0.12600999 0.14032401
-0.05325915 -0.09250205 -0.144834 -0.19272259 0.34844434 0.04545628 -0.10923747 -0.41185784
-0.0016442828 -0.43754232 -0.17645603 0.09767276 -0.25200585 0.013014029 -0.042203367 -0.2392442
-0.3818949 0.25923565 -0.22219707 0.27109346 0.12669346 0.24953867 -0.22404946 0.36063603
-0.38811386 -0.3479502 0.22018097 -0.026419349 -0.1260977 0.08514905 -0.34641728 -0.15971541
-0.19477282 0.19326815 0.07806985 0.020654026 -0.23489478 0.28411973 -0.076329395 0.09934156
-0.055053722 0.047165494 0.095262095 0.35303983 0.2776275 0.090184465 0.24260205 0.08269333
0.3303178 0.29408413 0.18492381 -0.2389211 -0.38287437 0.013085428 -0.008760871 0.18377978
0.02815448 0.084622435 0.2584384 -0.20989706 0.28225395 0.2327054 0.3127504 0.33076835
-0.22753185 0.30308136 0.2857581 -0.27418378 -0.00753259 0.101668976 -0.035681814 0.0071725324
0.40266743 0.061042666 -0.17027496 0.45295802 0.18665369 0.19122818 0.6208169 0.34756067
-0.11758081 0.04725877 0.07399794 -0.082319185 -0.10349343 -0.1896258 -0.23889612 0.20979558
-0.124739885 -0.20153043 0.37004983 0.06716465 0.3030999 0.3828198 -0.059177328 0.062661394
0.38947636 -0.28903258 -0.12595268 0.05977736 -0.06380524 0.051255353 0.19171669 -0.003550792
0.1319802 0.42953122 -0.19378096 -0.25798133 -0.1643437 0.39053246 -0.2975007 -0.13387753
0.24138574 -0.21618287 0.39435324 -0.21520966 0.032905523 0.022317963 -0.17208703 -0.026277786
0.42577246 -0.20230381 0.18171436 0.09598716 0.14429629 -0.16935958 -0.018112142 0.1472824
-0.42950103 -0.46323493 -0.30337995 0.003885304 -0.18007803 -0.14488198 0.40936983 -0.08836695
-0.0061403434 0.05556479 -0.09137034 0.11537226 0.096522965 0.08006651 -0.29974848 0.46013656
0.10890493 -0.41686064 0.032542944 0.15395853 -0.2675765 -0.17389908 -0.2762664 0.20438612
0.04035097 0.14111784 -0.17833565 0.30969518 0.0598162 -0.32902044 -0.11191151 0.22056045
0.09854523 -0.058089405 -0.2873185 -0.25514495 0.36851218 -0.24681519 0.2915133 -0.13443269
0.010375089 -0.41524965 -0.14273031 0.34794614 -0.25794515 0.028764086 -0.25271964 0.07171234

encoder.0.bias f4 [16]
00000000: d6fc 06bd d857 c7bb 7017 4f3e ad81 c8bb
00000010: 5633 cbbc 4a38 19bd 02e3 233d 0afb 033d
00000020: 06ac ba3c 0000 0000 17de 0fbd 9f7d 21bc
00000030: 6f01 05bc f260 cabb f9ca d4bd 5520 813c
-0.032955967 -0.00608347 0.20223784 -0.006118974 -0.024804752 -0.037407197 0.040011413 0.03222183
0.022787105 0.0 -0.03512391 -0.009856611 -0.008118018 -0.0061761076 -0.103902765 0.015762487

encoder.2.weight f4 [16, 16]
00000000: 7b3a 663e feaa cfbe dcb1 4fbe e36b 423d
00000010: 6129 f13d 0579 72bd 966c 273e fd12 073e
00000020: f9e5 ccbe a8db 0b3e 6434 10bd 4590 98be
00000030: bb6c 6f3c f519 dabd 3d77 6bbe 0506 cabe
00000040: d277 b93e 9fa3 86be 8f37 6e3d 199b b13e
00000050: f371 5fbd 924e 91be df7c d6be bd58 933d
00000060: dd7b 5ebe c757 013d 09a2 0d3e 8643 fbbd
00000070: 3a53 963e 49cd 66bd 08f5 30be d696 92be
00000080: 6c98 203e ffc7 75be 2713 af3d a95c 733d
00000090: ae79 c33e a1dd 3cbe db23 3fbe e4cd ebbc
000000a0: a035 9cbe a40b 293e 791d fabd cac9 513e
000000b0: 0f9d 8f3e 9a98 7c3e 493a b8bd 858a 863e
000000c0: 9f1e 71be 270e e0be ae17 42bd 46e9 a3be
000000d0: 57c2 abbe 71c6 d43d b849 ba3e a5d1 34be
000000e0: 0441 fbbc 4b9f a0be 7f58 8e3d a72d f03d
000000f0: 4bc7 94bd 1584 a53e a86e b2be 71a1 83bd
00000100: 8c74 58be 196c ce3e f862 ea3d d20e 6b3e
00000110: ca2e d13e c676 4e3e 4d37 9ebe 93c4 8abe
00000120: 240a 75be ccef c5be f1da a03e 189c 5b3e
00000130: 4402 003e 4058 bebe fc8f 053f 9baa bebc
00000140: ab9c 22be 541a 7e3e 1cf7 10bd cfc3 75be
00000150: 34c9 003e 79bc 87be f369 d93e d8de cd3e
00000160: 202d 3b3d d392 6a3e 9806 d0be e6fb 5ebe
00000170: 9368 cabe f7c7 60be 8f61 47bc 93a8 ae3e
00000180: c1b5 7a3e 2844 883e 8c0e b0be 0210 bd3e
00000190: 4449 06bd 25f7 cabd 8019 793e 2a50 983e
000001a0: 7a05 c9be 3b11 d33e 4640 ccbc 89ef 013e
000001b0: ffe7 d7be fbbe 5e3d 4fc3 69be 66a2 85be
000001c0: 58e2 49be 78cb 9fbc f7ef 43be 0296 99be
000001d0: c01e 993e a5f0 e53d 416f d7be 5c61 953d
000001e0: 105e 9e3d 6458 823c 9b1c bb3d f097 5bbd
000001f0: 49ce 313e f412 9cbe defb 80be b000 9d3e
00000200: 98a8 8ebe 880f 533e b7da 7c3e 2c0f 02bc
00000210: 47c8 38be efab b73e 53ce 0abd 7412 9f3d
00000220: 4a05 243d 10ba 363e f0df 42be 3c65 413d
00000230: 2f9d 913e 95ec 2ebd 4da7 44bf aa44 113e
00000240: ac34 aebd f07e 84bd 33d7 a23e 811f 803d
00000250: 55c8 6bbe 59ea 30be 7b10 21bd 492a a3bd
00000260: aed0 2e3e 2089 97be b0ac ae3e 2298 803e
00000270: ba73 e43d d470 d53d c3d3 b33e 284f b33e
00000280: 15ab c83d f016 873d 9ebe 73be 87ea 133e
00000290: bc69 cfbe 46d8 0b3e 5b2b c0be 4783 37be
000002a0: 3317 6a3e 760c 84be 2889 b03e 85fd 74be
000002b0: 9dfe d13e aba9 083e c226 40be 3036 873e
000002c0: ac52 b3be 3b55 76be 83c3 8ebe 0a24 f83d
000002d0: 07fc a13d 64ee acbe 3f04 e73e ea7e 093d
000002e0: e19d 19be cf75 293c 264c 19be 972c 1d3e
000002f0: c92c 423e b2e7 eebd 980c 503e 14fe 943e
00000300: 7eee 83be 94ee a0bd 62e6 2cbe 0e1e 21bf
00000310: 741a f43b ef9a 333d ff4c a9be 0ac0 dc3d
00000320: 074e 203e 27d8 6b3e 4365 47be 57e7 d63e
00000330: 4f29 8bbe 961f 5bbe cfca 0d3f 5223 b93e
00000340: ebf5 e23e 17c8 cd3e a065 d0be 1eda 26bd
00000350: bda7 7dbe 3448 273d 8838 c63e 352d 773e
00000360: e673 10bf 51d4 3ebe 86cb a8be 01a1 6f3e
00000370: df64 d4bc 51e8 9ebe 9019 fb3c e9cd 2d3e
00000380: 8823 933d e76f e03e 8aba 743b e320 2c3e
00000390: eaf8 bdbd 11fc ae3d 6da4 403d 060c cf3e
000003a0: 169c 733e 67b1 7cbe effc b1be 723e c2be
000003b0: 7c5e 00be 6f44 653d fb75 203f ebbc 32bc
000003c0: 05d1 1b3e 9f9b 4d3e 327b 0fbf cc81 e2be
000003d0: 6792 073e 962b 3c3e 24be 62be e90e 413d
000003e0: ea71 f7be 08d9 b23b dfc5 b63d 2dae 71bc
000003f0: ce3d bbbd eae1 3e3e 2c24 8fbe 74ac 9a3e
0.22483246 -0.40560144 -0.20282692 0.04746617 0.117754705 -0.059197444 0.16350016 0.13190837
-0.40019205 0.13658011 -0.035206214 -0.2979757 0.014613326 -0.10649482 -0.22994705 -0.39457718
0.36224228 -0.26296708 0.058158454 0.34688643 -0.05455203 -0.28380257 -0.41892144 0.0719466
-0.21726938 0.03157785 0.13831343 -0.122687384 0.29360372 -0.05634812 -0.17280972 -0.28630704
0.15683144 -0.24002074 0.08548575 0.05941454 0.38178772 -0.1844392 -0.18666022 -0.0287847
-0.30509663 0.16508347 -0.12212653 0.20487133 0.28049514 0.24667588 -0.08995492 0.26277557
-0.23546837 -0.43760797 -0.047385864 -0.3201391 -0.33546707 0.10389412 0.36384368 -0.17658098
-0.03067065 -0.3137153 0.06950473 0.117274575 -0.072645746 0.32327333 -0.3485005 -0.06427277
-0.21138209 0.40316847 0.11444658 0.22954872 0.4085601 0.20162496 -0.30901566 -0.271031
-0.2392965 -0.38659513 0.3141704 0.21446264 0.12500864 -0.37176704 0.5217283 -0.02327471
-0.15880077 0.24814731 -0.035391912 -0.24000476 0.12576753 -0.2651098 0.42463645 0.4020908
0.04569733 0.22907571 -0.4063003 -0.21775779 -0.3953291 -0.2195128 -0.012169256 0.34112987
0.24483396 0.266145 -0.34386098 0.36926275 -0.032784715 -0.0991042 0.24326134 0.2974866
-0.3926199 0.41224083 -0.024932992 0.12689032 -0.42169186 0.054381352 -0.2282841 -0.26100463
-0.1971525 -0.019506201 -0.19134508 -0.2999726 0.29906273 0.1122754 -0.42077067 0.072939605
0.07732785 0.015911289 0.091363154 -0.053611696 0.17363848 -0.3048321 -0.2519216 0.30664587
-0.27863002 0.20611393 0.24692808 -0.007938188 -0.1804515 0.35873362 -0.033888172 0.077671915
0.040044107 0.17844415 -0.19030738 0.047215685 0.28440234 -0.04270609 -0.7681778 0.1418635
-0.0850614 -0.06469524 0.3180481 0.06256009 -0.2302564 -0.17276897 -0.039322358 -0.0796705
0.17071792 -0.29596806 0.34116125 0.25116068 0.111548856 0.10421911 0.351225 0.3502133
0.09798256 0.06596172 -0.23803183 0.14444934 -0.40510356 0.1365672 -0.37533078 -0.17921172
0.22860412 -0.25790757 0.34479642 -0.23924835 0.41014567 0.13345973 -0.18764785 0.2640853
-0.3502401 -0.2405595 -0.2788354 0.12116249 0.079093985 -0.33775628 0.45120427 0.0335683
-0.15001632 0.010343029 -0.14970455 0.15349041 0.18962397 -0.11665286 0.20317304 0.29100096
-0.25767893 -0.07858005 -0.16884759 -0.62936485 0.0074494425 0.043848928 -0.33066556 0.10778816
0.15654765 0.23031674 -0.19472222 0.41973373 -0.27179953 -0.21398768 0.55387586 0.3615976
0.44328246 0.4019172 -0.40702534 -0.040735357 -0.24771018 0.040840343 0.38715005 0.24138339
-0.56426847 -0.1863568 -0.32967776 0.23401262 -0.025927005 -0.31036618 0.030651838 0.1697308
0.071845114 0.43835375 0.0037342631 0.1680942 -0.09275992 0.085441716 0.04703181 0.4043886
0.23790011 -0.24677049 -0.34763286 -0.37938267 -0.12536043 0.055973466 0.62680024 -0.010909299
0.15216453 0.20078896 -0.56047356 -0.44239652 0.13239442 0.18376002 -0.22142845 0.04713336
-0.48329097 0.005458001 0.0892446 -0.014750999 -0.09142648 0.18640867 -0.27957284 0.30209696

encoder.2.bias f4 [16]
00000000: 0000 0000 0000 0000 283c 1f3d 9560 cabb
00000010: 7df5 3ebc e5cc d53c 35eb 683c c56b 93bc
00000020: 092f d73c e4f9 e33c 0000 0000 da28 1b3d
00000030: 8be1 7abd 27f0 2a3c ad67 193d e917 3ebd
0.0 0.0 0.03887573 -0.0061760643 -0.011655209 0.026098678 0.014216234 -0.017995724
0.026267545 0.027829118 0.0 0.037880756 -0.06125025 0.010433233 0.03745239 -0.04640952

encoder.4.weight f4 [32, 16]
00000000: d3ea 9bbe 6ae7 4ebe d2c5 64be 5d8d a0be
00000010: 27a5 9b3e afb0 7fbd 9e91 82be 79af c73d
00000020: 79da 7cbe 7119 4e3d 511b 2c3e d73c c7bc
00000030: aeb7 5c3e c03d c83d 065d 7bbe 1109 bd3d
00000040: 9762 693e fdda a7bd a20b 943c 2773 1f3d
00000050: 0eb2 24bc cc57 683d c431 bfbe d9f7 703e
00000060: d01d f23d a311 e93b d1c0 833d d371 a4be
00000070: 283b 0cbe 0098 50bd 102f 473d 9e2a 6abe
00000080: d2a7 193d 39b7 e0bd 4e10 8a3e c437 98be
00000090: 92ed 9e3d 2e96 8b3e 3e44 77be 182d a53c
000000a0: 85cb 473e e5d3 353e a44d 2a3d 5cd0 343e
000000b0: 1234 58be 01cf a73e ba15 313d 5126 853e
000000c0: 292e a03d 7d1a 21bd 0837 153e fbad a83e
000000d0: 0d95 b73e 4278 94be 2d71 e63c 7383 7abe
000000e0: 73ce 5a3e 0e7d 853e 0139 7ebe bd26 78bc
000000f0: 7f07 813e 6d6a 763e b3e1 84be b150 793e
00000100: b730 80bd b1f3 99be 4598 9e3d fcfb 2e3e
00000110: 1f54 323e 3d5b 73be 2118 7fbe 0a9d 82be
00000120: 697f 4f3e 483c a6be 9d62 43bb 5ac3 d0bd
00000130: 71be 093e e331 893d 92c7 45be 82cb 763d
00000140: 1496 a63e f16d 6e3d 50bf 33be 9e7e b93b
00000150: 8371 b3be b3c9 82be 6417 c1bd 6db8 7ebe
00000160: 6198 8a3e 9be2 293d 0a35 8c3e e496 d9bd
00000170: 1c44 9cbd 5791 793d f553 06be 340c 18be
00000180: 5693 b1be ce5e 883e 4460 a83e b764 b6be
00000190: 2cc8 8cbd 7a2f 71be bb0a e9bd 02b0 983e
000001a0: d726 603e 7c31 fa3b 99a0 1a3e 7f55 0c3e
000001b0: b173 6a3e f287 81be d0c1 153e f99b 9cbe
000001c0: b019 6ebe 4aea 06be 95ee 55bd aefd adbe
000001d0: 24cf 37bd ff07 c13c 135c 32be 5c44 ab3d
000001e0: 7717 8d3e f15b cbbd 65d0 40be ee7c b1be
000001f0: 412d 98be b531 6cbe 011e 99be bef5 2fbe
00000200: 0e71 473e 6f94 e23d 56c0 bf3e f58f b03e
00000210: 46e6 20be ccc4 20be 3b07 ee3c 0273 9bbe
00000220: cb06 323e 8528 aebd 9e92 97be 9d2f 91be
00000230: 3cd9 88be 2589 9d3d 1a93 7d3e bb08 853e
00000240: d860 c7bd d54a 52be 85d2 1abe ccfd 70be
00000250: a0ca 4fbd 4922 94be 1e2a 613e ad5a 9abe
00000260: 4129 42be 204f 8a3e 7567 87be 8819 eb3d
00000270: 73f3 983e 8aab c23e b16f 583e 652c 83bd
00000280: b9e1 4e3e 192c 3fbc aa9c cabd 451b f03b
00000290: b3dd f83d efae 8a3e c681 3b3e c2cb 4d3e
000002a0: f779 b33d eadd 893c d604 183e 7835 ed3d
000002b0: dd39 9bbe fae9 bb3d 29ab fcbd 7823 1dbe
000002c0: e602 0c3e ca10 943d abc1 2b3d c56b 25be
000002d0: a67a 363e 5241 af3e 84d2 643d 123d 263e
000002e0: 7e21 98be 574f 643e 2a89 fb3d 3d37 273e
000002f0: 2b90 253e 1fbb a2bd bae5 0ebc c1bc b63e
00000300: 5775 843e a8c0 81be 4c51 913e 6e51 b73e
00000310: 6cca 7c3d 6355 88be da6e 9d3d 0946 79bd
00000320: ab51 863e 7ee0 a7be 3e4b b93d 0a14 653c
00000330: 1762 223d 3982 813e 8eda 913c 1cb3 8dbe
00000340: d230 53be 31f6 10be b324 283d ef08 123e
00000350: be28 12bd 20c3 dbbd 948e 403e 49b0 9fbe
00000360: 695b 8f3e 58a5 1abc c7ea 7b3e 7693 973e
00000370: 1fab 8f3d fff5 133e ba3b 2dbe e056 923e
00000380: 42e6 533e 0b72 63bd 0660 163e 2e46 5fbc
00000390: cc76 a23e 06ce 363e 6b6e 963e 38a5 93be
000003a0: c579 c23e 4d34 2a3e 4504 303e e231 df3d
000003b0: 45c5 883e 1aa0 bc3e 83d1 223b 9a2f 82be
000003c0: 3239 a63e a5b3 98bd d092 20be a430 653e
000003d0: aef7 2c3e 1121 a93c 1a00 45bd c69e c0bd
000003e0: 10e1 983e 0eda 413e 659b 573e 9465 4b3e
000003f0: 89c1 58be e9b6 433d d849 aabe d425 383e
-0.30452594 -0.20205465 -0.22341087 -0.31357852 0.3039944 -0.062424358 -0.25501722 0.09750266
-0.24692716 0.05031723 0.16807295 -0.024321003 0.21554443 0.09777403 -0.24547204 0.09230245
0.22791515 -0.081960656 0.018071953 0.038928177 -0.010052217 0.056724355 -0.37342656 0.23532046
0.118220925 0.007112698 0.06433261 -0.3211809 -0.13694441 -0.05092621 0.048628867 -0.2286782
0.03751356 -0.10972447 0.26965564 -0.29730046 0.07760157 0.27263016 -0.24147126 0.020163104
0.1951123 0.17756613 0.04157795 0.17657608 -0.21113613 0.3277512 0.04323361 0.26005796
0.07821304 -0.0393319 0.14571774 0.32945237 0.35855904 -0.28998 0.028130138 -0.24464206
0.21367817 0.26071972 -0.24826433 -0.015145955 0.25201032 0.24064036 -0.25953445 0.24347188
-0.062592916 -0.30068734 0.07743887 0.17088312 0.17414902 -0.23765273 -0.24911548 -0.25510436
0.20263447 -0.32467866 -0.0029813417 -0.1019351 0.13451554 0.06698968 -0.19314411 0.060252674
0.32536376 0.058210317 -0.17553449 0.005660846 -0.3504754 -0.2554451 -0.094282895 -0.2487504
0.2706938 0.041475873 0.27384216 -0.10624483 -0.07630178 0.060929623 -0.13117965 -0.14848405
-0.3468272 0.2663483 0.32885945 -0.35623714 -0.06874117 -0.23553267 -0.11379 0.29821783
0.21889816 0.0076352935 0.15100326 0.13704489 0.22895695 -0.2529903 0.14624715 -0.30587748
-0.23251987 -0.13175312 -0.052229483 -0.33982605 -0.04487528 0.023563383 -0.17417936 0.08362648
0.27556965 -0.09929646 -0.18829496 -0.34665626 -0.29722026 -0.23065837 -0.29905704 -0.17183587
0.1947672 0.11063468 0.37451428 0.3448483 -0.15712842 -0.15700072 0.029056182 -0.30361181
0.17385404 -0.08503822 -0.29604048 -0.2835664 -0.26728237 0.07692174 0.24763146 0.25983223
-0.09735268 -0.20536359 -0.1511937 -0.23534316 -0.050730348 -0.28932407 0.21988723 -0.30147305
-0.1896105 0.27013493 -0.2644612 0.11479479 0.29873237 0.380215 0.21136357 -0.06404952
0.20203294 -0.011668229 -0.098931625 0.0073274695 0.12151661 0.2708659 0.18311223 0.20097259
0.08763497 0.01682945 0.14845595 0.11582464 -0.30317584 0.09175487 -0.12337334 -0.15345562
0.1367298 0.07229765 0.041932743 -0.16154392 0.17820224 0.34229523 0.055864826 0.16234234
-0.29713053 0.22295891 0.12282021 0.16329665 0.16168277 -0.07945847 -0.008721763 0.35690883
0.25870773 -0.25342298 0.28382337 0.35804313 0.061716482 -0.26627645 0.07687159 -0.060857806
0.26234183 -0.3278846 0.090475544 0.0139818285 0.039644327 0.25294665 0.01780441 -0.27675712
-0.20624092 -0.14156415 0.041050624 0.1426122 -0.035683386 -0.107305765 0.18804389 -0.31189182
0.27999428 -0.009438835 0.24601279 0.2960469 0.07015061 0.14449309 -0.16917315 0.28581905
0.20693305 -0.05552868 0.14685068 -0.013627572 0.3173126 0.17852029 0.29381117 -0.2883699
0.37983528 0.16621514 0.17189129 0.10898186 0.26713005 0.36840898 0.0024844117 -0.25426942
0.32465512 -0.074561395 -0.15681005 0.22381836 0.16891357 0.02064565 -0.0480958 -0.09405284
0.2985921 0.18930838 0.21055372 0.19862968 -0.21167578 0.04778186 -0.33259463 0.1798318

encoder.4.bias f4 [32]
00000000: 9862 823b fb9b 24bd 3004 ce3c 4576 5d3c
00000010: b84b eebc 23bc 03bd cccc 223d ad99 c4bc
00000020: 81aa 65bc 317e 9a3c 1529 443d d166 adba
00000030: a549 ceba f88e 113d ffd8 b63c a6ef e7bc
00000040: cd4d 86bd 403e 1f3c 19fa b73b af4a 74bc
00000050: 176b 66bc 45b1 0f3d 8d3f ecbb 90da edbc
00000060: c734 573c 500e 2f3c b6f3 2abd 1776 2c3d
00000070: 0d72 6fbc 8c7a 11bd cc7a 0ebd f451 00bc
0.0039790384 -0.040187817 0.025148481 0.013516967 -0.02908884 -0.032161843 0.03974609 -0.02399906
-0.014017702 0.018859 0.04789074 -0.0013229494 -0.00157385 0.035536736 0.022320269 -0.028312515
-0.06557808 0.009719431 0.0056145308 -0.014910384 -0.014063618 0.035081167 -0.0072097243 -0.029034883
0.013135142 0.010684565 -0.041736327 0.042104807 -0.014614594 -0.03551726 -0.034785077 -0.007832039

nee_decoder.0.weight f4 [16, 32]
00000000: 6658 1c3e f0a5 653d 6471 263e 12a8 8a3d
00000010: 4b4d fa3d f527 173e 94eb 51be d48e 24bd
00000020: 8f3f 853d 2ec1 dfbc 7c2c 98be 515f 473d
00000030: 509d 713e 3665 31be 1791 b93e 831c ad3d
00000040: ca2d 283e 619c 1bbe e076 96be ce7a 08be
00000050: bad0 153d a680 18be 0efb a73e f3d1 76be
00000060: 0231 83be 2cda dcbd cd16 b53e d573 55be
00000070: 6608 ba3e 7d67 163e d180 19bd 0968 2f3e
00000080: e26b 1d3e 2a3f 21be 0f9d adbd b9d4 a23e
00000090: f3ec 493e d553 32be e3b8 a4bd 7b4a 603e
000000a0: 6d48 253e 43d1 373b 4942 68be 4afb 8cbe
000000b0: 2d0c c3bd 0df2 e83d 0b01 58bd 3ef2 9abe
000000c0: 809e d8bd e7ce bb3e afa3 91be d311 8abe
000000d0: 1ab8 4a3e 940b ae3e 7854 b5be e256 9cbe
000000e0: edd3 bdbd ce21 ab3e 635a 72be 6ca3 883d
000000f0: ce9d 823e 650f d2bd ec03 02be bb0d 76be
00000100: 1f69 5e3c a5f5 a83e d30a 143e 2f79 7e3e
00000110: 5be2 bfbc d205 66bd ff5b 81bd d47c 4e3e
00000120: b5e4 3dbd 3da0 9abe 2c42 febd 87af 0d3e
00000130: 2f7d b03e 21a9 83bd 649b 9dbe ab49 85be
00000140: 5d6d 8ebe 65f0 113e 3f6f 853e 7f22 d63d
00000150: 7ca8 f93d 72dc 6b3e 8088 773e 5c2f 583e
00000160: b373 4a3e 8fed c33d fade 3a3e 186b 78be
00000170: ce54 6abe 38bc c23d 6a5d 613d 5923 9fbe
00000180: 1b0c 81be 3416 82be 51c4 853e 6e9e 523e
00000190: 644d 35be 1859 7b3d e325 83bd e33d ab3e
000001a0: 8302 aabe 7907 93be 34b8 9cbe 176d 3b3e
000001b0: 5061 4cbe 6210 423e a1b6 c73d 1eb8 3ebe
000001c0: bdd1 d1bd a619 f8bd d5d6 253e b47a 04be
000001d0: 7e91 c33d 6e01 be3b 14b5 9abe 6ae3 4bbe
000001e0: f0ff 63be 1769 263e 47a5 7b3d 8d88 d93b
000001f0: bfd7 73be ff7f a5be 7898 11be da8e 8cbe
00000200: 55cf cebe 4379 aabe 5570 63be 8c8b b6be
00000210: 79d8 953d 2736 e13d b914 143e 03c2 b3be
00000220: 373a 5a3e 2d5c 783d 23ef 583e 29d5 a2bd
00000230: bd13 283e a3ff aabe ad9d 003e 2d28 963e
00000240: 556d fb3d b52c afbe e742 debd 1be3 74bd
00000250: 85cf 2f3e cab0 febd 272d 633d b7ae 08be
00000260: 75fe 5bbd 8a09 13bc 04d2 89be 3c3f 39be
00000270: 07fc 853e 8fda 9a3e 08ff 9cbc 5ad7 a63e
00000280: ac7d 8b3e 9d0a 64be fddb 0fbe 48aa 78be
00000290: e819 ea3d 007f 123c 7e98 46bd 9f66 863e
000002a0: 9e82 0dbe f623 46be acae 80be fb2d 38be
000002b0: bc78 ae3e 1005 30be 753b c7bd 102d 233e
000002c0: 6007 8bbe 14be 5bbe 533b 853e 7fdb 0abe
000002d0: 51dd 3bbe 1d5c 3bbd c859 4ebd e553 843d
000002e0: 27bb 043e 0393 8bbe e280 a43e ce1a acbe
000002f0: e63b f53d 924d ccbd 28e3 18be 4654 a93e
00000300: a687 b2be 5c58 4e3d 5d71 563e 3ff5 933e
00000310: f098 96be aca3 393d 7baa bb3e 2c05 a4be
00000320: 268c 8d3d df9a 80be 995f 4e3d d137 aebe
00000330: a9c7 1a3e 4e42 c9bd b60f 443e 9b8d 75bc
00000340: 986f 82bd fa57 86bd 291e a1be 254a 12be
00000350: 1100 81bc c4d4 94be 5ab0 953e 7e59 56be
00000360: 39cc edbd 25e4 8cbd d5f0 9fbe 662e e43c
00000370: d23c 51be 09f1 89be 3286 25bc f107 a03e
00000380: b54d b23d 884d 953e cc96 62bb 35bb fcbd
00000390: dce4 913e c5ca 40be 4076 a7be 3c79 9e3d
000003a0: 506e 343e f869 58be 73d9 fe3d fa71 00be
000003b0: a0b5 2fbd e352 a0bd f6df 9abd ed49 93be
000003c0: 9f75 b13d ca76 bebd f069 8a3e a6b6 713d
000003d0: 9c0a 94be 13b6 89be 6eae 3cbe 3f5f 2d3e
000003e0: a9bf 69be 759f 25be b774 833d 2a00 7bbe
000003f0: ea46 32be 4925 a43e 5568 3fbe fa3d f1bd
0.15268096 0.056066453 0.16254193 0.06770338 0.12221774 0.14761336 -0.20500022 -0.040175274
0.065062635 -0.027313795 -0.2972144 0.048674885 0.23595166 -0.17323765 0.36243507 0.08452704
0.16423717 -0.15196373 -0.2938757 -0.13328096 0.03657601 -0.14892825 0.32808727 -0.24103527
-0.25623327 -0.107838005 0.35368958 -0.20844968 0.36334532 0.14687915 -0.037476365 0.1712953
0.15373185 -0.15746751 -0.08477222 0.3180292 0.19719295 -0.17414792 -0.08043077 0.21903412
0.1614091 0.0028048314 -0.22681536 -0.27535468 -0.09523807 0.113742925 -0.05273537 -0.3026294
-0.105771065 0.3668129 -0.28445193 -0.26966724 0.19796792 0.33993208 -0.35416007 -0.30535036
-0.09268937 0.33424228 -0.23667292 0.06671795 0.2551102 -0.102568425 -0.12696809 -0.24028675
0.0135748675 0.32999912 0.14457254 0.24850915 -0.023423364 -0.056157894 -0.06316375 0.20164806
-0.04636069 -0.30200377 -0.12414965 0.1383649 0.34470508 -0.06428743 -0.30782616 -0.26032767
-0.27817813 0.1425186 0.26061437 0.10455798 0.12190339 0.23033312 0.24173164 0.21111816
0.19770698 0.09566795 0.18249121 -0.24259603 -0.22883913 0.09508556 0.055020727 -0.31081656
-0.25204548 -0.25407565 0.2612634 0.20568249 -0.17705303 0.061364263 -0.06403711 0.33445653
-0.3320504 -0.2871664 -0.30609286 0.18303333 -0.19958997 0.18951562 0.097516306 -0.18624923
-0.102450825 -0.12114267 0.16195233 -0.12937433 0.09549235 0.0057985103 -0.30216277 -0.1991097
-0.22265601 0.16251026 0.061436918 0.0066385926 -0.2381277 -0.32324216 -0.14218318 -0.27452737
-0.40392557 -0.3329564 -0.2221082 -0.3565334 0.073166795 0.10996657 0.1446103 -0.35108957
0.2131127 0.06063478 0.21184973 -0.07950813 0.1641378 -0.3339816 0.12560149 0.29327527
0.12276713 -0.34213796 -0.10852604 -0.059786897 0.17169006 -0.124360636 0.055462983 -0.13347898
-0.053709466 -0.008974442 -0.26918042 -0.18090528 0.26168844 0.30244872 -0.019164577 0.32586175
0.27244318 -0.22269674 -0.14048763 -0.24283707 0.114307225 0.008941412 -0.04848527 0.2625017
-0.13819358 -0.19349656 -0.25133264 -0.1798629 0.34076488 -0.17189431 -0.097281374 0.15935159
-0.27154064 -0.21459228 0.26021823 -0.13560294 -0.18346144 -0.045742143 -0.05037859 0.06461314
0.12962018 -0.272606 0.3212958 -0.336142 0.11974315 -0.09975733 -0.14930403 0.33072108
-0.34869117 0.050377235 0.20941682 0.28898045 -0.29413557 0.045322105 0.36653504 -0.32035196
0.06911497 -0.25118157 0.050384138 -0.3402696 0.15115227 -0.098271 0.19146618 -0.014987375
-0.06368941 -0.06559749 -0.31468323 -0.14286096 -0.015747102 -0.29068577 0.29236108 -0.20932576
-0.11611218 -0.068794526 -0.31238428 0.027854156 -0.20433357 -0.26941708 -0.010102795 0.3125606
0.08706228 0.29160714 -0.0034574745 -0.123403944 0.28494918 -0.1882735 -0.32707405 0.07737967
0.17620206 -0.21134174 0.12443819 -0.12543479 -0.04289782 -0.078283094 -0.075622484 -0.28767338
0.086650126 -0.09300001 0.2703395 0.059012078 -0.28914344 -0.26896724 -0.18425915 0.16930865
-0.22827019 -0.1617411 0.06418746 -0.24511781 -0.17409864 0.32059696 -0.18692143 -0.11779399

nee_decoder.0.bias f4 [16]
00000000: d1f9 a4bd 292e 8b3d 0000 0000 75fe 1d3d
00000010: 52b8 b53d 0000 0000 a3f5 8d3d 0000 0000
00000020: cbe8 81bd 08a0 2fbc a895 26bc df5d 18bd
00000030: 8c73 b83d 0000 0000 0000 0000 ec1e d83d
-0.08055461 0.06795914 0.0 0.038572747 0.08873047 0.0 0.06931617 0.0
-0.0634323 -0.010719307 -0.010167517 -0.037198897 0.09006414 0.0 0.0 0.10552773

nee_decoder.2.weight f4 [16, 16]
00000000: 99a4 a5bd 2da8 65bd b93d 803e c5af 573e
00000010: f312 9fbc 0211 283c 206d d63d c11e bf3e
00000020: 4a9d 683e f1ae 54be 7836 5abe fd01 113e
00000030: 528e dabc 2f3b 8ebe 9994 d6be d718 b23d
00000040: 0b7c 01be 95fe 80be 5dd1 a63d f3e3 d73e
00000050: 5c24 b83e eecf 7c3e 6535 a7be 7e10 7d3e
00000060: 4c56 653e 63f0 133e 37e8 dcbd 9912 f7bb
00000070: 9380 70be aac2 c7bd 5afb 91bd d73e 7bbd
00000080: 9709 d1be 057d 173e 1f65 b5be 573a 98be
00000090: 3133 4a3e 287b b5be eec6 e23e 524a d43e
000000a0: 0c4f e8bd 85c8 aebd 589d a9be 53be 7a3d
000000b0: 1805 d13d 863c 73be 640b 0b3e 3afb 9cbb
000000c0: dab4 02be 945b c4ba d8e6 d6be a52c 9cbe
000000d0: 14c5 6a3d 621a d63e 7968 83be 2a21 8e3e
000000e0: 1052 223d 48c4 3ebe 1dbd f839 5f94 543e
000000f0: 2c02 533d 5741 c43e e0d5 a7bd 770c 94be
00000100: 1274 cd3e 81f0 bbbd 9cab 8c3e dad6 973e
00000110: bb0f b73d 35f6 b5be 99b3 d5be 2980 523e
00000120: 9530 d73d 4d7b 863e d0e9 bebe d70c 71bd
00000130: 2849 c63e d6f4 683e 093e b83e 30a8 b83e
00000140: 2298 d9bd cdf9 96be d832 84be 9897 163e
00000150: da00 30be 9917 e13a 4185 8d3d b5a0 893e
00000160: dc49 773e bc11 7d3e 9f2b 903c f852 7a3e
00000170: 9794 4fbe cd78 31be 5569 8cbd 8ebf 80be
00000180: d691 cc3e 5f3b 06bd 9de8 003e c0bf f13a
00000190: cc0d 2c3c b254 6cbe 05fc a0bc d34f c6be
000001a0: a63b 51be da19 b03e 827b cbbe b5b9 9b3d
000001b0: aad4 b03d d631 d4be 0435 ad3d 71b3 673e
000001c0: df5a ae3e 9261 003e b74c ad3e 3209 713d
000001d0: 1fcc 503e ade5 023e bdf9 8fbe e4aa c2bd
000001e0: 52fe 98be 2b43 ac3e 3e74 5c3e 9b6d 23be
000001f0: d61c 16bd 06bd ec3d be4e c1be c55c 8d3d
00000200: d6f2 3a3e 0e6e 5e3c 0331 23bd 9f17 803e
00000210: 1e20 243e a617 c5be 3f5b 6b3e e6dc aebe
00000220: 940d 6d3e 1339 b53e fb21 003d a2b1 27be
00000230: f30b 82be aee3 44be ac77 a3bd 799c 60be
00000240: a08d e33e 9a57 1bbe c718 383e de3e c4be
00000250: 2221 743e 49a6 bc3e f81c 97be 7543 e2bd
00000260: 6c1b d93d 6dbb cebe d7cf 87be 5ce2 203e
00000270: f6f2 da3e ee76 04be 7038 81bb 2db8 c7be
00000280: 4914 d6be 8422 b33e 6d23 bc3e f474 06be
00000290: 663d 33be e9a1 e5bc 513e 513e 3240 d6be
000002a0: 7d2c 6ebe ea26 1dbe 13ff 40be 1a95 4cbb
000002b0: 1b32 a03e e99f c13d f9a2 c8be a4f4 c63e
000002c0: 9e74 a93e 99f5 cd3d ba09 593e 6dd0 0f3e
000002d0: 32c7 aa3e 8e3b d5be f754 93be f23c 61bd
000002e0: 9398 b6bd b8b8 98be ee0e d9be 2603 afbe
000002f0: 51b9 b9bd 9032 bc3e fcfb 923e cd98 be3d
00000300: d974 a7be a43e 69be 74dc 2a3d 2178 f1be
00000310: 91f9 b2bd 7c55 b43d 3cb8 a33e 3dc9 e8bd
00000320: 2698 c43e ca5a 313d 5a0b 9ebe 0fbb b03e
00000330: 40b0 9c3e 072e afbe c59b 80be e2d8 193e
00000340: 406a 88be 40bf 963e 0690 53be e69d 09be
00000350: f492 febd e282 d33e 0cf1 15be b96f acbd
00000360: a425 863e 06b0 97be 7db1 08bb 923f abbe
00000370: 6fa0 ccbe 1478 cabd e210 443d 8e0f bd3e
00000380: 8395 cabe d947 06be ec5e e93d 053e 3e3e
00000390: 6cdf 8a3e c044 b2be a153 a2bd dc0e cd3d
000003a0: b439 a7be 4a76 543e 958a d3be d20f 9a3e
000003b0: e29e 233e a1e5 fbbd 94d9 0f3e 3fc7 c03e
000003c0: f5dc 9b3e ae09 6a3e 460f 81be 2b64 dd3d
000003d0: b280 9d3e 6368 9c3d 470a 8c3e fb7e 89be
000003e0: 9b05 9a3e a577 cdbc e45d cbbe 34a4 f1bd
000003f0: 868c ba3e 92e6 1abe aa97 99bd 5e53 4cbe
-0.08088035 -0.056068588 0.2504709 0.21063145 -0.019418215 0.010257961 0.10470033 0.3732815
0.22716251 -0.2076986 -0.2130984 0.14160915 -0.026679192 -0.27779528 -0.41910246 0.08696144
-0.12644975 -0.2519423 0.081454016 0.421661 0.3596524 0.24688694 -0.32657924 0.24713323
0.22396201 0.14447169 -0.10786479 -0.007540059 -0.23486547 -0.09753926 -0.0712802 -0.061339226
-0.4082763 0.14793785 -0.35428712 -0.2973201 0.1974609 -0.35445523 0.44292396 0.41462952
-0.11343202 -0.0853434 -0.33127856 0.061216664 0.1020605 -0.23753557 0.13578564 -0.0047906907
-0.12764302 -0.0014980906 -0.41972995 -0.3050281 0.057316855 0.41817003 -0.25665644 0.27759677
0.039629042 -0.18629563 0.00047443146 0.20759724 0.051515743 0.383311 -0.0819509 -0.2891576
0.40127617 -0.09176732 0.27474678 0.29656106 0.08938547 -0.35539404 -0.41738585 0.20556702
0.10507313 0.26265946 -0.3728776 -0.058850136 0.3872769 0.22749647 0.3598483 0.36065817
-0.1062472 -0.29487458 -0.2582004 0.14706266 -0.17187825 0.001717317 0.06910182 0.26880422
0.24149269 0.24713796 0.017598925 0.24445713 -0.20271526 -0.17331238 -0.06856028 -0.25146145
0.39955014 -0.032771464 0.12588735 0.0018443987 0.010501336 -0.23079184 -0.019651422 -0.38732776
-0.2043291 0.34394723 -0.39742666 0.0760378 0.086343125 -0.41444272 0.084573776 0.22627045
0.34053704 0.1253722 0.3384759 0.05884666 0.20390366 0.12782927 -0.28120223 -0.09505251
-0.2988153 0.33644995 0.21528718 -0.1595978 -0.036648594 0.11559491 -0.37755388 0.0690246
0.18256697 0.013576044 -0.039841663 0.2501802 0.16027877 -0.38494605 0.22984026 -0.34152907
0.23149711 0.35395107 0.031282406 -0.16376355 -0.25399742 -0.19227478 -0.0798181 -0.2193469
0.4444399 -0.15170136 0.17978202 -0.38329214 0.23840764 0.36845616 -0.2951429 -0.11048023
0.106009334 -0.4037737 -0.26525757 0.15711349 0.4276349 -0.12935993 -0.0039434955 -0.39007702
-0.4181235 0.3498727 0.36745778 -0.13130552 -0.1750389 -0.028031306 0.20433928 -0.41845852
-0.23259158 -0.15346876 -0.18847303 -0.00312168 0.31288227 0.094543286 -0.39186838 0.3885852
0.33096784 0.1005661 0.21195117 0.14044352 0.333551 -0.41647 -0.2877576 -0.054989763
-0.0891582 -0.2982843 -0.42394203 -0.3418209 -0.090685494 0.36757326 0.28707874 0.09306488
-0.32706335 -0.22777802 0.041714147 -0.47161964 -0.08739007 0.08805367 0.31976497 -0.11366508
0.3839733 0.043299474 -0.30868036 0.34517714 0.30603218 -0.34214804 -0.25118843 0.1502414
-0.26643562 0.29442787 -0.2066041 -0.1343914 -0.12430373 0.41310793 -0.14642733 -0.08419747
0.26200593 -0.29626483 -0.0020857744 -0.33446938 -0.3996615 -0.09886184 0.047867663 0.3692593
-0.39567193 -0.13113345 0.11395058 0.18578346 0.27123582 -0.34818077 -0.07926107 0.100126
-0.32661211 0.20748249 -0.41316667 0.30090195 0.15978578 -0.122996576 0.14047843 0.37652013
0.30442014 0.22855255 -0.25206965 0.10810121 0.3076225 0.07637098 0.2735159 -0.2685469
0.30082402 -0.025081465 -0.3972007 -0.117988974 0.36435336 -0.15127018 -0.07499631 -0.19953677

nee_decoder.2.bias f4 [16]
00000000: 0c64 8bbd 0000 0000 af62 063e 0000 0000
00000010: 8196 9ebd 0000 0000 6cfe 8bbd 0453 53bd
00000020: 5e81 343d 1820 8abd 6861 c73d cc77 663d
00000030: 31d3 d5bd 0000 0000 b86a f73d a804 883d
-0.06806192 0.0 0.13123582 0.0 -0.0774355 0.0 -0.068356365 -0.05159284
0.044068687 -0.06744403 0.09735376 0.05626659 -0.10440672 0.0 0.12080902 0.06641513

nee_decoder.4.weight f4 [1, 16]
00000000: 40ef a5be cec9 d23d 2fd4 c53e 39de 8f3d
00000010: 00af 5cbd 8ec3 0c3d 6a4d ebbe 623c b4be
00000020: 7313 703c c497 f7be ac61 873e da08 703d
00000030: c566 8b3a 9728 1cbd d05e 013f 2854 063f
-0.32409096 0.102923974 0.38638446 0.070248075 -0.05387783 0.034366183 -0.459575 -0.35202318
0.014653075 -0.48357975 0.26441705 0.05860219 0.0010635486 -0.038124647 0.505353 0.5247216

fc_mu.0.weight f4 [4, 32]
00000000: 3317 67be fd8a 9b3e ebee 50be 1dab a6be
00000010: ad22 b73d 54d7 81be 638f 8dbc a8ab 84be
00000020: b5a7 b03d 1a7e 88bd 83a1 5c3d a53c 413e
00000030: c796 86be 0f88 0ebe 9161 8bbe 7b0f ae3e
00000040: 36ae 15be 796f 1d3e def5 c03d e437 cebe
00000050: 9f63 94be 31e0 d6bd 363d a0be 4bab 5d3e
00000060: 4864 833e 4454 44ba f0c0 4c3d c954 dc3d
00000070: 750a 0b3e 91b7 a1bd 5a7e 24be 8f3e 81be
00000080: 61ce a63c dcd2 b03e 62e0 8fbd e9ec a63e
00000090: db0c 223e ca65 43be f105 373e 8293 3c3e
000000a0: 9160 26be 6cac c0bd 18d4 76bd 003b ff3d
000000b0: f144 943e c112 e5bd 625d 7a3e 9ddc 4c3e
000000c0: cd12 acbe a78d a23e fcea 99bc 49e7 9b3e
000000d0: 53ae 983e 278b d4be f00a b7be 0d48 e5bc
000000e0: 3e4b 1d3e 2b9a b1bd 792e c1be 4ea7 5b3e
000000f0: 9030 87be ade5 563e c85a 823e 3729 1dbe
00000100: 3ac4 7b3e 2d5d 5e3d 893d 03be a1f3 d83c
00000110: 1255 163e 69fd 553e 8ce2 6fbe ff3b 9c3e
00000120: 45b8 45be da0e b4be 03b8 34be 8b0d b9be
00000130: 3c1b ea3d 0225 e13c f3db a2bc 0877 8dbe
00000140: 9d60 5c3e 1eed 883d c4d6 d1bd f521 943d
00000150: d070 133e f728 7bbe cacf f0bd c1d7 3dbe
00000160: 4e00 b93e edbc ce3d 47bf 9dbe 599e 933e
00000170: 9fc2 84bd 2c2f e63c a95b 583d 074c 43bd
00000180: e293 d33e 9546 5c3e 6f1d 6d3d 31d5 3cbe
00000190: 96f9 ef3d a3f5 8ebe f90b eabd 467a 733e
000001a0: 8820 d9be f905 34bd 9429 3bbe c633 3a3e
000001b0: 0f0e a5be eafc 113d 69fb 1abe e545 a03e
000001c0: 4fa4 b3bd 0614 89be 6941 d5bd 2586 9c3e
000001d0: 2bd7 053e 1fe1 653d 5c56 6b3e 89ad 3e3e
000001e0: 8569 b2bc 31cc 81be f399 bcbe 19c7 5b3e
000001f0: 9571 8e3e 46e3 e3bd 9281 59be c82b 1a3d
-0.22567444 0.30379477 -0.2040364 -0.32552424 0.08942161 -0.25359595 -0.017280286 -0.25912213
0.086257376 -0.06664677 0.053864967 0.1887079 -0.2628691 -0.1391909 -0.27222875 0.33996186
-0.14617237 0.15374555 0.094218954 -0.40277016 -0.28982255 -0.1049198 -0.312967 0.21647374
0.25662446 -0.0007489363 0.049988687 0.10758359 0.13578208 -0.07896341 -0.16063824 -0.2524304
0.020362081 0.34535873 -0.070252195 0.32602623 0.15825216 -0.19081798 0.1787336 0.18415645
-0.16247775 -0.09407887 -0.060260862 0.12462425 0.28958848 -0.11185218 0.24449685 0.20006032
-0.33608094 0.31748697 -0.018788807 0.30449894 0.298205 -0.41512415 -0.35750532 -0.027988458
0.15360734 -0.08671983 -0.37730768 0.2145054 -0.26404238 0.20986052 0.25459886 -0.15347753
0.24586573 0.054288078 -0.12816443 0.026483359 0.14680889 0.2089745 -0.23426265 0.30514523
-0.19308574 -0.3516758 -0.1764832 -0.36143145 0.11430976 0.027483467 -0.01988027 -0.27629876
0.2152123 0.066858515 -0.102460414 0.07233039 0.14398503 -0.24527346 -0.117583826 -0.18539335
0.36133045 0.100946285 -0.30809996 0.28831747 -0.064824335 0.028098665 0.05282179 -0.047679927
0.41323763 0.215113 0.0578894 -0.18440701 0.117175266 -0.2792178 -0.11428065 0.23777112
-0.42407632 -0.04395101 -0.1827758 0.18183812 -0.32237288 0.03564159 -0.15134968 0.31303325
-0.08771574 -0.2677309 -0.104128666 0.30571094 0.13070361 0.056122895 0.22982162 0.18620886
-0.021778831 -0.25351098 -0.36836204 0.21462668 0.2782103 -0.11127333 -0.21240833 0.03763941

fc_mu.0.bias f4 [4]
00000000: 0000 0000 b72b a9bc 0000 0000 e356 03bc
0.0 -0.020650728 0.0 -0.008016321

fc_mu.2.weight f4 [1, 4]
00000000: 7639 193e 16d0 483f 5b91 e2be ab9e 66bf
0.14963326 0.78442514 -0.44251522 -0.9008586

fc_logvar.0.weight f4 [4, 32]
00000000: 3317 67be fd8a 9b3e ebee 50be 1dab a6be
00000010: ad22 b73d 54d7 81be 638f 8dbc a8ab 84be
00000020: b5a7 b03d 1a7e 88bd 83a1 5c3d a53c 413e
00000030: c796 86be 0f88 0ebe 9161 8bbe 7b0f ae3e
00000040: 36ae 15be 796f 1d3e def5 c03d e437 cebe
00000050: 9f63 94be 31e0 d6bd 363d a0be 4bab 5d3e
00000060: 4864 833e 4454 44ba f0c0 4c3d c954 dc3d
00000070: 750a 0b3e 91b7 a1bd 5a7e 24be 8f3e 81be
00000080: 61ce a63c dcd2 b03e 62e0 8fbd e9ec a63e
00000090: db0c 223e ca65 43be f105 373e 8293 3c3e
000000a0: 9160 26be 6cac c0bd 18d4 76bd 003b ff3d
000000b0: f144 943e c112 e5bd 625d 7a3e 9ddc 4c3e
000000c0: cd12 acbe a78d a23e fcea 99bc 49e7 9b3e
000000d0: 53ae 983e 278b d4be f00a b7be 0d48 e5bc
000000e0: 3e4b 1d3e 2b9a b1bd 792e c1be 4ea7 5b3e
000000f0: 9030 87be ade5 563e c85a 823e 3729 1dbe
00000100: 3ac4 7b3e 2d5d 5e3d 893d 03be a1f3 d83c
00000110: 1255 163e 69fd 553e 8ce2 6fbe ff3b 9c3e
00000120: 45b8 45be da0e b4be 03b8 34be 8b0d b9be
00000130: 3c1b ea3d 0225 e13c f3db a2bc 0877 8dbe
00000140: 9d60 5c3e 1eed 883d c4d6 d1bd f521 943d
00000150: d070 133e f728 7bbe cacf f0bd c1d7 3dbe
00000160: 4e00 b93e edbc ce3d 47bf 9dbe 599e 933e
00000170: 9fc2 84bd 2c2f e63c a95b 583d 074c 43bd
00000180: e293 d33e 9546 5c3e 6f1d 6d3d 31d5 3cbe
00000190: 96f9 ef3d a3f5 8ebe f90b eabd 467a 733e
000001a0: 8820 d9be f905 34bd 9429 3bbe c633 3a3e
000001b0: 0f0e a5be eafc 113d 69fb 1abe e545 a03e
000001c0: 4fa4 b3bd 0614 89be 6941 d5bd 2586 9c3e
000001d0: 2bd7 053e 1fe1 653d 5c56 6b3e 89ad 3e3e
000001e0: 8569 b2bc 31cc 81be f399 bcbe 19c7 5b3e
000001f0: 9571 8e3e 46e3 e3bd 9281 59be c82b 1a3d
-0.22567444 0.30379477 -0.2040364 -0.32552424 0.08942161 -0.25359595 -0.017280286 -0.25912213
0.086257376 -0.06664677 0.053864967 0.1887079 -0.2628691 -0.1391909 -0.27222875 0.33996186
-0.14617237 0.15374555 0.094218954 -0.40277016 -0.28982255 -0.1049198 -0.312967 0.21647374
0.25662446 -0.0007489363 0.049988687 0.10758359 0.13578208 -0.07896341 -0.16063824 -0.2524304
0.020362081 0.34535873 -0.070252195 0.32602623 0.15825216 -0.19081798 0.1787336 0.18415645
-0.16247775 -0.09407887 -0.060260862 0.12462425 0.28958848 -0.11185218 0.24449685 0.20006032
-0.33608094 0.31748697 -0.018788807 0.30449894 0.298205 -0.41512415 -0.35750532 -0.027988458
0.15360734 -0.08671983 -0.37730768 0.2145054 -0.26404238 0.20986052 0.25459886 -0.15347753
0.24586573 0.054288078 -0.12816443 0.026483359 0.14680889 0.2089745 -0.23426265 0.30514523
-0.19308574 -0.3516758 -0.1764832 -0.36143145 0.11430976 0.027483467 -0.01988027 -0.27629876
0.2152123 0.066858515 -0.102460414 0.07233039 0.14398503 -0.24527346 -0.117583826 -0.18539335
0.36133045 0.100946285 -0.30809996 0.28831747 -0.064824335 0.028098665 0.05282179 -0.047679927
0.41323763 0.215113 0.0578894 -0.18440701 0.117175266 -0.2792178 -0.11428065 0.23777112
-0.42407632 -0.04395101 -0.1827758 0.18183812 -0.32237288 0.03564159 -0.15134968 0.31303325
-0.08771574 -0.2677309 -0.104128666 0.30571094 0.13070361 0.056122895 0.22982162 0.18620886
-0.021778831 -0.25351098 -0.36836204 0.21462668 0.2782103 -0.11127333 -0.21240833 0.03763941

fc_logvar.0.bias f4 [4]
00000000: 0000 0000 b72b a9bc 0000 0000 e356 03bc
0.0 -0.020650728 0.0 -0.008016321

fc_logvar.2.weight f4 [1, 4]
00000000: 8748 cfbd 25b8 533f 5159 9bbc 7aec d3bd
-0.10121255 0.8270286 -0.018963488 -0.10347839

temp_derivative_decoder.0.weight f4 [16, 32]
00000000: 2508 c7be 5ea7 fc3d db18 0fbc cf13 5d3d
00000010: 38e7 5d3e b3ec 523e 6adf bf3b 6f82 4abb
00000020: 6a9b 25be 1345 943e 3a2a 9d3e 776b b8bc
00000030: f9c5 a83e e2b6 9a3e ea4e 3e3e a86a 4e3e
00000040: c7fa 503e 1d77 3bbd 021f dabd b16d 913e
00000050: f2c2 93bd 03fb cc3d a296 00be cc0b 9c3d
00000060: 2639 673e 58da 533e 29cb 473e 32ad 623e
00000070: 0203 06be 7e15 ad3e 6a30 6b3e 1d82 c03e
00000080: 6b5c 92be 900e 24be 4f4f 96be bc48 003d
00000090: cd50 8a3e 3671 77be 1980 bd3d ffd0 e7bb
000000a0: d289 a8be 3078 63bc c507 2abd d797 2fbe
000000b0: 4aef 61be 9f08 563e 4a9c 14bd ff81 8fbd
000000c0: 7d4f c9bd 6329 39bd d7b7 c7bd e1e3 58be
000000d0: a777 1a3e 8244 abbb b9e0 a1be ffcc 35be
000000e0: 76b9 93bd 8516 0abe c5cf aa3d 2759 a93e
000000f0: 89a5 82be f2ff a9bb 4049 9d3e 0c09 53be
00000100: 8bc1 8cbe aba1 013e e57e acbc dd49 58bd
00000110: 4d10 6a3e 8a1b 92be fbe9 41be 3645 8a3e
00000120: 15da 0cbe 9e75 a0bd 2f77 1c3e 0a18 59be
00000130: 30fa a7be 6d69 74be 1106 93be 348e a1be
00000140: 86d5 a5bd 9b8f 9ebe 0059 ccbe 2a1f d93c
00000150: b85f a13e 1fb5 a93e 58b5 8f3e d78f 683d
00000160: dbf9 7d3e 3a3e 11be 687a 63be 9929 463e
00000170: bd7a 3bbd ce78 2a3e 4fc8 53bd af34 08be
00000180: 8516 933e f917 683e b772 3fbe 9ab8 683e
00000190: 9766 273e d3f1 ac3c 94d2 1b3d 0953 ad3e
000001a0: 54b1 7ebc dbba b73d 9e8d 643e a5bc 82bc
000001b0: e480 943e 6071 77be 9959 8bbd c454 c3ba
000001c0: 0a4f 71bb 5983 64be 23cd b63e 1806 28be
000001d0: b78b 633e 7bd7 31be e70f d93d 5431 24be
000001e0: d1de f6bd 2e11 783d 3c4f 803e d973 32bc
000001f0: 7f40 cb3d 0242 26be a8f5 a53d 7c7b 66bd
00000200: 09f9 a4bd 7340 323e 4f5a f0bd ed1a 5dbe
00000210: 4a63 cdbd 178c 343e 474b ad3e 20a3 a33e
00000220: 78e5 7c3e e86c 5fbe 53a7 a13e bb62 133e
00000230: cdb2 803d 1ce1 51be 1a59 40be 7bcc ba3d
00000240: 0966 00bd 1e8e ccbd 492d 8abe 7b4a 9a3e
00000250: bc29 e03d 3b48 3e3d 3d0f 083d d1d0 423e
00000260: 9f53 5abe 0351 67bc ecc6 9f3e deca 60bd
00000270: fbfd 9abe d7f9 57be b873 603e 1aa8 3e3e
00000280: 9de2 793e 3ce7 ffbd b054 28be 0209 a0be
00000290: 60d3 c73c f282 9cbd 15c0 ab3e ba19 23be
000002a0: cd0c 66be ebd1 123e c217 04be bb72 06bd
000002b0: 3d95 b43e 92cf 613e 856b b4be 02af 8b3c
000002c0: 844c 363c 9f09 b13e 0a80 9cbe 4fdf 5e3e
000002d0: 10bf b1be 1ff3 b1be 9f95 39be 1122 adbe
000002e0: 562d b2bc d62d 923e ace0 c8bd 3d47 89be
000002f0: f42a f9bc 2855 93be 779e 753e 8160 513d
00000300: 4e97 983e c37f 3f3e d140 be3d e5d0 973d
00000310: 7b94 b83e 5b7a 49be 4230 42be 048b a23e
00000320: b9ab f73d be25 8d3e 8e9a 803d 1059 ab3d
00000330: 3c1d 383e 9e7d 4c3e 5e9a 1e3e 3b5d 92be
00000340: b7d3 113e cf95 4dbe bcf4 e7bd 33fc 593e
00000350: 644b 19be 35c7 8b3e c294 8f3e 526e 133e
00000360: d29f 5dbe df92 cebc 6c57 8c3e 6669 1a3e
00000370: f48f 813e 8767 813d 865c 50be 3fab 703e
00000380: ab9d ef3d 7ee3 473e d652 58be dc40 89be
00000390: d27b 723e 6b4e fd3d 1a6f 843e 23ec 96be
000003a0: b597 26be 4191 37bc e509 3cbe 0030 623e
000003b0: d0c4 8f3e ebe5 9c3e 965b 4b3d 6961 a4be
000003c0: c3db 01be 73fb a73d e968 c3bd 609d 1a3e
000003d0: 2580 c1bd dc94 953e bfcd 9c3e 1c5c b33e
000003e0: 49cd ef3d 9416 75be 9166 bbbd 9234 41be
000003f0: bdd6 223e 7f1c febc 40f5 103e ad2d d23d
-0.388734 0.1233661 -0.008733953 0.05397397 0.21670234 0.20598106 0.0058554905 -0.0030900498
-0.16172567 0.2895895 0.3069628 -0.02251218 0.3296354 0.30217654 0.18584791 0.20157874
0.20408164 -0.045767892 -0.106504455 0.28404 -0.07214917 0.10008814 -0.12557462 0.076194376
0.22580394 0.2068876 0.19511093 0.22136381 -0.13087085 0.3380546 0.22967687 0.3759927
-0.28586134 -0.1602118 -0.29357383 0.031319365 0.2701477 -0.2416428 0.09252948 -0.007074475
-0.3291765 -0.013883635 -0.041511316 -0.17147766 -0.22063938 0.20901726 -0.03628186 -0.07007217
-0.09829614 -0.045205485 -0.097518615 -0.21180679 0.15084706 -0.0052266726 -0.31616762 -0.17753981
-0.07213108 -0.13485153 0.0834041 0.3307583 -0.25516918 -0.0051879818 0.30719948 -0.2060892
-0.27491412 0.12659328 -0.021056602 -0.052804817 0.22857781 -0.28536636 -0.18936913 0.2700593
-0.13755067 -0.07834934 0.1527984 -0.21200576 -0.32808065 -0.23868342 -0.28715566 -0.31553805
-0.08097367 -0.30968937 -0.39911652 0.026504118 0.3151834 0.33145997 0.28068042 0.0567778
0.24802344 -0.14183894 -0.22214663 0.19351806 -0.04577135 0.16647646 -0.0517047 -0.13301347
0.2872812 0.22665395 -0.18696104 0.2272667 0.16347729 0.021111405 0.03804262 0.33852413
-0.015545208 0.08971187 0.22319648 -0.015959093 0.29004586 -0.24164343 -0.06804199 -0.0014902581
-0.0036820793 -0.2231573 0.35703382 -0.16408575 0.22221266 -0.17367356 0.10598736 -0.16034442
-0.120542176 0.06056326 0.2506045 -0.010891878 0.09924411 -0.16236117 0.08103496 -0.056270108
-0.08055312 0.17407398 -0.11735975 -0.21592303 -0.100287035 0.17631565 0.33846495 0.31960392
0.2469691 -0.21818888 0.3157297 0.14393131 0.062841035 -0.20496029 -0.1878399 0.09121033
-0.03134731 -0.09988044 -0.26987675 0.3013495 0.1094546 0.046455603 0.033217657 0.1902497
-0.21320961 -0.014118436 0.31206453 -0.05488097 -0.30271897 -0.210914 0.21919143 0.18618813
0.24402852 -0.12495276 -0.16438556 -0.31256872 0.024392784 -0.07642163 0.33544984 -0.15927783
-0.2246582 0.1433789 -0.12899688 -0.03282426 0.3527011 0.22051838 -0.3523828 0.017051224
0.011126641 0.34577653 -0.30566436 0.21764873 -0.34716082 -0.347558 -0.18123482 -0.33815053
-0.021750133 0.28550595 -0.09808478 -0.26812163 -0.03041599 -0.28775907 0.23986231 0.051117424
0.29802936 0.18701081 0.092897065 0.0741289 0.36050782 -0.19675581 -0.18963721 0.31746686
0.120933 0.27567858 0.06279479 0.08366597 0.17979902 0.19969794 0.15488574 -0.28586754
0.14240919 -0.20076679 -0.11325976 0.21287613 -0.14970165 0.2730042 0.2804318 0.14397553
-0.21642998 -0.025216518 0.27410448 0.15079269 0.2530514 0.063185744 -0.20347795 0.23502825
0.11699995 0.19520375 -0.2112535 -0.26807296 0.23680046 0.12368473 0.25866014 -0.29477033
-0.16268809 -0.011204065 -0.1836315 0.22088623 0.28079844 0.30644163 0.04964789 -0.32105568
-0.12681489 0.08202257 -0.095414944 0.15099096 -0.0944827 0.29215133 0.30625722 0.3503121
0.11709077 -0.23934394 -0.09150422 -0.1886771 0.15902229 -0.031019447 0.14156055 0.10262618

temp_derivative_decoder.0.bias f4 [16]
00000000: f829 ce3c 0000 0000 a654 f13c d5f2 f0bc
00000010: 0000 0000 0000 0000 352d 07bd 0000 0000
00000020: 2fdd 88bb 0000 0000 0000 0000 44fb 23bd
00000030: 0000 0000 ab69 58bd b805 efbc e883 763b
0.025166497 0.0 0.029459309 -0.029412666 0.0 0.0 -0.033002097 0.0
-0.0041767578 0.0 0.0 -0.040034547 0.0 -0.052835148 -0.029177532 0.0037615243
