.archive/piae_sde/experiments/2024-11-25_18-0-46-603734/0/best_model.pth (torch, 25314 bytes, 28 tensors)

encoder.0.weight f4 [16, 18]
0	0x3ea52074	0.32251322
1	0x3ea3d998	0.32001948
2	0xbe4d4cf0	-0.2004888
3	0xbe5da38b	-0.21644418
4	0x3a99630e	0.0011702494
5	0x3d2e6508	0.04257682
6	0xbb9df3a1	-0.0048203026
7	0x3e21a353	0.1578496
8	0x3e79d3bc	0.24397177
9	0xbdfa50fb	-0.12222477
10	0x3e24d688	0.16097462
11	0x3d82155c	0.0635173
12	0x3e4bca54	0.19901401
13	0x3dda5220	0.10660195
14	0xbe37209e	-0.17883536
15	0xbe56e400	-0.20985413
16	0x3e29db05	0.16587456
17	0xbe928f73	-0.28625068
18	0x3dc3c2ee	0.09558664
19	0xbe8a12bd	-0.2696742
20	0x3e85ec9b	0.26157078
21	0x3e3e23ed	0.18568392
22	0xbdbd4a60	-0.092427015
23	0x3df12898	0.11775321
24	0xbe1e0c55	-0.15434392
25	0x3d81c8ee	0.063371524
26	0x3bfd73e6	0.0077347634
27	0xbd95b38c	-0.073096365
28	0xbc29dfcf	-0.0103683015
29	0xbc82e68a	-0.01597907
30	0xbdfc1adb	-0.1230981
31	0x3dcc5f3f	0.09979104
32	0x3d01fdc6	0.031736158
33	0x3e12f778	0.14352214
34	0x3e9a7acc	0.30171812
35	0xbe601741	-0.2188387
36	0x3dbe5c40	0.09294939
37	0x3c76a3e7	0.015053726
38	0x3e96690c	0.2937702
39	0xbe87fa87	-0.26558325
40	0xbd7de0cc	-0.06198196
41	0x3cb1657e	0.02165484
42	0xbec09bd7	-0.37618896
43	0xbeba2aa7	-0.36360666
44	0x3ee596ac	0.44841516
45	0x3e397832	0.18112257
46	0xbda34c53	-0.07973542
47	0xbe312dc8	-0.1730262
48	0x3cb5a74f	0.022174506
49	0x3dcfd057	0.101471595
50	0xbdd5d55a	-0.10441084
51	0x3eb39708	0.35076165
52	0x3a9fb433	0.0012184441
53	0x3ee5f506	0.449135
54	0xbea71f62	-0.3264113
55	0xbe71a10b	-0.2359659
56	0xbc93cbb3	-0.018041467
57	0xbe8d18c8	-0.2755797
58	0x3e9abf8a	0.30224258
59	0x3ea49c50	0.32150507
60	0x3eb9f8db	0.36322674
61	0xbe87625e	-0.26442236
62	0x3e969317	0.29409096
63	0x3e92d876	0.28680772
64	0xbe30f50a	-0.17280975
65	0x3d47d282	0.04878474
66	0x3e5e8864	0.21731716
67	0x3e929c20	0.2863474
68	0xbed08d2f	-0.40732715
69	0x3ed284d8	0.41116977
70	0xbddfd889	-0.10929973
71	0x3e29e159	0.1658987
72	0xbe77fcac	-0.2421748
73	0xbe9bc7a7	-0.3042576
74	0xbe9c395e	-0.30512518
75	0x3e51e1b6	0.20496258
76	0xbe418ee6	-0.18902168
77	0x3e763d05	0.24046715
78	0x3e11ef6c	0.14251488
79	0x3e1695af	0.14705537
80	0xbd999006	-0.074981734
81	0xbdea4f15	-0.11440865
82	0xbe34a285	-0.17640121
83	0xbe6029fd	-0.21891017
84	0x3ebd7f38	0.37011123
85	0xbc33cbaa	-0.01097385
86	0xbe2c5301	-0.16828538
87	0xbed06906	-0.40705127
88	0x3b10864a	0.0022052699
89	0xbeddae26	-0.43296927
90	0x3b2ac366	0.0026056408
91	0x3e70c44a	0.23512378
92	0xbe5e576e	-0.2171304
93	0x3e1327ed	0.14370699
94	0xbe022001	-0.12707521
95	0xbe9549ad	-0.29157773
96	0xbed18b6e	-0.4092669
97	0x3e70bf61	0.23510505
98	0xbea19b5e	-0.31563848
99	0x3e57cfb2	0.21075323
100	0x3d7faeee	0.062422685
101	0x3e840fc3	0.25793275
102	0xbe8d3f6f	-0.27587458
103	0x3ec4244f	0.3830895
104	0xbece2ab2	-0.4026695
105	0xbeb29d73	-0.3488575
106	0x3e60f2ca	0.21967617
107	0xbc8b7e16	-0.017027896
108	0xbe8910bb	-0.26770577
109	0xbd718a97	-0.05897006
110	0xbeceebb8	-0.40414214
111	0xbe951fa3	-0.291257
112	0xbdcaba1b	-0.09898778
113	0x3e88735d	0.26650515
114	0x3ddab58a	0.10679157
115	0x3d42a36f	0.047519144
116	0xbe109dd7	-0.14122711
117	0x3eb4981a	0.35272294
118	0xbc3c1beb	-0.011481266
119	0x3de368e3	0.1110399
120	0xbc878d0d	-0.01654675
121	0x3d0a7fda	0.033813335
122	0x3ddec7b2	0.108779326
123	0x3eb3f55f	0.3514814
124	0x3e8e8569	0.2783616
125	0x3daf7232	0.08566703
126	0x3dc8a6d1	0.09797443
127	0xbdce16d7	-0.1006295
128	0x3e825140	0.25452614
129	0x3e4d3a76	0.20041832
130	0x3e99869c	0.2998551
131	0xbe22d9e7	-0.15903436
132	0xbeba1bd7	-0.36349365
133	0x3d4735ed	0.048635412
134	0x3dd5034e	0.10401021
135	0x3e8bbcaf	0.27292392
136	0x3de2911a	0.11062832
137	0x3e05ee31	0.13079144
138	0x3e96ec80	0.2947731
139	0xbe637802	-0.22213748
140	0x3e96639d	0.29372874
141	0x3e6f695d	0.23380037
142	0x3ea1222d	0.31471387
143	0x3ea63e1c	0.3246926
144	0xbe72af07	-0.2369958
145	0x3e4e5c75	0.20152457
146	0x3e973d28	0.29538846
147	0xbe586426	-0.21131954
148	0x3dda22fb	0.10651203
149	0xbe5144de	-0.20436427
150	0xbdfea755	-0.1243426
151	0xbd8e0005	-0.069335975
152	0x3e84ee6d	0.25963154
153	0xbdb2152b	-0.08695444
154	0xbe61c0a2	-0.2204614
155	0x3da5c7a7	0.08094721
156	0x3b9858bb	0.0046492494
157	0xbd3728d8	-0.044716686
158	0x3ec0d99d	0.37666026
159	0x3ec42096	0.3830611
160	0x3ac92088	0.0015344778
161	0x3d4b9b65	0.049708743
162	0x3d978c3b	0.07399794
163	0xbda896f6	-0.082319185
164	0xbdd3f45d	-0.10349343
165	0xbe422d44	-0.1896258
166	0xbe74a12f	-0.23889612
167	0x3e56d4a7	0.20979558
168	0xbdff77a0	-0.124739885
169	0xbe4e5dfe	-0.20153043
170	0x3ebd772c	0.37004983
171	0x3d898d9f	0.06716465
172	0x3e9b2fe9	0.3030999
173	0x3ec400f5	0.3828198
174	0xbd7263ed	-0.059177328
175	0x3d80549e	0.062661394
176	0x3ec76972	0.38947636
177	0xbe93fc14	-0.28903258
178	0xbe00f9bd	-0.12595268
179	0x3d74d91b	0.05977736
180	0x3c6b884f	0.01437576
181	0x3da5f15d	0.08102677
182	0x3e82ab3f	0.25521275
183	0xbe5fa7c2	-0.21841338
184	0x3d279ae5	0.040919203
185	0x3ee2874c	0.44243848
186	0xbe6c6db4	-0.23088723
187	0xbe7feb0f	-0.24992011
188	0xbe9156bd	-0.2838649
189	0x3e9412b0	0.28920507
190	0xbeb7f99d	-0.35932627
191	0xbe34fc1f	-0.17674302
192	0x3e9e9487	0.30972692
193	0xbe4b38c4	-0.19845873
194	0x3ec9fedc	0.39452255
195	0xbe658ad8	-0.22416246
196	0x3cf474e7	0.0298409
197	0x3cc1b10f	0.023643998
198	0xbdd74200	-0.105106354
199	0x3e70c19b	0.23511355
200	0x3eac326a	0.33632213
201	0xbe852ae3	-0.26009282
202	0x3e419904	0.18906027
203	0x3d1cd9f6	0.0382938
204	0x3cddb317	0.027062936
205	0xbea04889	-0.3130534
206	0x3d1629d1	0.036660973
207	0x3e5da3ed	0.21644564
208	0xbedb89ee	-0.4287867
209	0xbebf9d50	-0.37424707
210	0xbec70752	-0.38872772
211	0x3bd093e7	0.0063652876
212	0xbe57a378	-0.21058452
213	0xbe07d417	-0.132645
214	0x3ed2ec6c	0.41196
215	0xbdc2f8b3	-0.09520092
216	0xbe58323e	-0.21112916
217	0x3c31f4aa	0.010861555
218	0xbe46edce	-0.19426653
219	0xbdb197ee	-0.086715564
220	0x3e443297	0.19159923
221	0x3e183126	0.14862499
222	0xbe96f2b9	-0.29482058
223	0x3eddeaad	0.43343106
224	0x3e9de57a	0.3083914
225	0xbe866587	-0.26249334
226	0x3e3dee0a	0.18547836
227	0x3e41d6ad	0.18929549
228	0xbe96f543	-0.29483995
229	0xbe8202e2	-0.25392824
230	0xbe9d9a0f	-0.307816
231	0x3e295561	0.16536476
232	0x3d232938	0.03983423
233	0x3e1518ab	0.14560191
234	0xbe369d9f	-0.17833565
235	0x3e9e905e	0.30969518
236	0x3d7501d5	0.0598162
237	0xbea8755e	-0.32902044
238	0xbde531dd	-0.11191151
239	0x3e61da99	0.22056045
240	0x3dc9d214	0.09854522
241	0xbd6def28	-0.058089405
242	0xbe931b69	-0.2873185
243	0xbe82a25c	-0.25514495
244	0x3ebcada1	0.36851218
245	0xbe7cbd1f	-0.24681519
246	0x3e95413b	0.2915133
247	0xbe09a8b9	-0.13443269
248	0x3c29fc48	0.01037509
249	0xbed49b9a	-0.41524965
250	0xbe1227e5	-0.14273031
251	0x3eb225ff	0.34794614
252	0xbef7d722	-0.4840632
253	0x3e8453bd	0.25845137
254	0xbe99cc4c	-0.3003868
255	0xbd613301	-0.05498028

encoder.0.bias f4 [16]
0	0xbc5d956d	-0.013524395
1	0x3c8f6ac2	0.01750696
2	0xbc18e995	-0.009333034
3	0xbb8d61fa	-0.004314658
4	0xbc87349e	-0.016504582
5	0xbd09eeff	-0.03367519
6	0x3d19016c	0.03735487
7	0x3d11a1be	0.03555464
8	0x3dc25b24	0.0949004
9	0x00000000	0.0
10	0xbd1a3cca	-0.03765563
11	0x3cbb79a1	0.022885146
12	0xbd0ab0e3	-0.0338601
13	0xbbca60f2	-0.0061761076
14	0x3e05a008	0.13049328
15	0x3ce77ee8	0.028258756

encoder.2.weight f4 [16, 16]
0	0x3e663a7b	0.22483246
1	0xbecfaafe	-0.40560144
2	0xbe4fb1dc	-0.20282692
3	0x3d426be3	0.04746617
4	0x3df12961	0.117754705
5	0xbd727905	-0.059197444
6	0x3e276c96	0.16350016
7	0x3e0712fd	0.13190837
8	0xbecce5f9	-0.40019205
9	0x3e0bdba8	0.13658011
10	0xbd103464	-0.035206214
11	0xbe989045	-0.2979757
12	0x3c6f6cbb	0.014613326
13	0xbdda19f5	-0.10649482
14	0xbe6b773d	-0.22994705
15	0xbeca0605	-0.39457718
16	0x3eb977d2	0.36224228
17	0xbe86a39f	-0.26296708
18	0x3d6e378f	0.058158454
19	0x3eb19b19	0.34688643
20	0xbd5f71f3	-0.05455203
21	0xbe914e92	-0.28380257
22	0xbed67cdf	-0.41892144
23	0x3d9358bd	0.0719466
24	0xbe5e7bdd	-0.21726938
25	0x3d0157c7	0.03157785
26	0x3e0da209	0.13831343
27	0xbdfb4386	-0.122687384
28	0x3e96533a	0.29360372
29	0xbd66cd49	-0.05634812
30	0xbe30f508	-0.17280972
31	0xbe9296d6	-0.28630704
32	0x3e2551d5	0.16144498
33	0xbe73c692	-0.23806217
34	0x3d5bbd33	0.05364723
35	0xbd5bd94c	-0.053674027
36	0x3eaad622	0.33366495
37	0xbe38fb23	-0.18064551
38	0xbe3c9b3c	-0.18418592
39	0xbcdd65f7	-0.02702616
40	0xbdc5ae70	-0.09652412
41	0x3e290ba4	0.16508347
42	0xbdfc5346	-0.12320571
43	0x3e54e656	0.20790991
44	0x3e90bc48	0.28268647
45	0x3e849f36	0.25902718
46	0xbc89f419	-0.016840028
47	0x3e87b20d	0.2650303
48	0xbe689b40	-0.22715473
49	0xbedbc5c1	-0.42924312
50	0xbd18cdc8	-0.037305623
51	0xbea05894	-0.3131758
52	0xbeabc257	-0.33546707
53	0x3de5cde7	0.112209134
54	0x3ebe844a	0.37210304
55	0xbe2c55ed	-0.16829653
56	0xbc9ff7cf	-0.019527344
57	0xbea09f4b	-0.3137153
58	0x3d9f31d9	0.077731796
59	0x3e0093d3	0.1255639
60	0xbd842fff	-0.06454467
61	0x3eabd6ee	0.33562416
62	0xbeab44ee	-0.33451027
63	0xbd656dc2	-0.056012876
64	0xbe5b3ec2	-0.21410659
65	0x3ecefd8d	0.4042782
66	0x3e2d1eec	0.16906327
67	0x3ebed587	0.37272283
68	0x3ed8e1a6	0.42359656
69	0x3e4b7567	0.19869004
70	0xbe9ddfb8	-0.30834746
71	0xbe8aa9d8	-0.27082705
72	0x3cdbd9a2	0.026837174
73	0xbec5efcc	-0.38659513
74	0x3e9cdcdd	0.30637255
75	0x3e5aa56c	0.21352166
76	0x3e00f647	0.12593947
77	0xbebe583e	-0.37176698
78	0x3ed64e20	0.4185648
79	0xbcbe675b	-0.023242643
80	0xbe21cb86	-0.15800294
81	0x3e7fe77f	0.24990653
82	0x3be07f42	0.006851108
83	0xbe706e5a	-0.23479596
84	0x3dfd24a0	0.12360501
85	0xbe8773dd	-0.26455584
86	0x3eda55e0	0.42643642
87	0x3ece8fc3	0.40344056
88	0x3e7576bd	0.23971076
89	0x3e6a92d3	0.22907571
90	0xbed05aaf	-0.40694186
91	0xbe5dbd1e	-0.21654174
92	0xbec99aa6	-0.393758
93	0xbe60c7f3	-0.21951275
94	0xbe693dbf	-0.2277746
95	0x3eaf5f7a	0.3425253
96	0x3e7dcc77	0.24785028
97	0x3e898f7c	0.26867282
98	0xbeb314d5	-0.3497683
99	0x3e9f9ccb	0.3117431
100	0xbd46519e	-0.04841768
101	0xbdc61296	-0.09671514
102	0x3e7c358e	0.24629804
103	0x3e9971a9	0.29969528
104	0xbe2aa40f	-0.16664146
105	0x3ed3113b	0.41224083
106	0xbcd88103	-0.026428705
107	0x3e04c600	0.12966156
108	0xbed6411d	-0.41846552
109	0x3d5ebf12	0.054381438
110	0xbe3eb003	-0.1862183
111	0xbe845688	-0.25847268
112	0xbe4a1190	-0.19733262
113	0xbc9ef41a	-0.019403506
114	0xbe0ee1f9	-0.13953389
115	0xbe9b79aa	-0.3036626
116	0x3e99cd82	0.30039603
117	0x3de5d4f9	0.11222262
118	0xbed76ef9	-0.42076853
119	0x3d95a7a8	0.073073685
120	0x3db90d5d	0.09035752
121	0x3c825864	0.015911289
122	0x3dba926d	0.0910996
123	0xbd5b88ea	-0.05359737
124	0x3e31cb64	0.17362744
125	0xbe9c12f4	-0.3048321
126	0xbe4e49aa	-0.20145288
127	0x3e9d0573	0.3066822
128	0xbe8e7db2	-0.27830273
129	0x3e4fb53b	0.20283978
130	0x3e4c0ad2	0.19926003
131	0xbea7b3b9	-0.32754305
132	0xbe4e5079	-0.20147885
133	0x3eb8027d	0.35939398
134	0xbd1515b9	-0.03639767
135	0x3d99dec3	0.075131916
136	0x3e3806d7	0.17971359
137	0x3e36ba10	0.17844415
138	0xbe420e3e	-0.18950745
139	0x3d3d0b45	0.046153326
140	0x3e90c8cd	0.282782
141	0xbd2eeca9	-0.042706165
142	0xbf256eeb	-0.6462237
143	0x3e0e8bd4	0.13920528
144	0xbdab718c	-0.08371267
145	0xbd82e910	-0.063921094
146	0x3e8eaaf7	0.2786481
147	0x3d598853	0.053108525
148	0xbe71c075	-0.23608573
149	0xbe308673	-0.17238788
150	0xbd1c8d2c	-0.03822057
151	0xbda2b7c1	-0.079452045
152	0x3cd85afd	0.026410574
153	0xbe978920	-0.29596806
154	0x3eae0e62	0.33995348
155	0x3e81130c	0.25209844
156	0x3de4e0ca	0.111756876
157	0x3dd570ef	0.10421931
158	0x3e31253a	0.17299357
159	0x3eb3c51b	0.35111317
160	0x3dc8ab15	0.09798256
161	0x3d8716f0	0.06596172
162	0xbe73be9e	-0.23803183
163	0x3e13ea87	0.14444934
164	0xbecf69bc	-0.40510356
165	0x3e0bd846	0.1365672
166	0xbec02b5b	-0.37533078
167	0xbe378347	-0.17921172
168	0x3e6a1733	0.22860412
169	0xbe840c76	-0.25790757
170	0x3eb08928	0.34479642
171	0xbe74fd85	-0.23924835
172	0x3ed1fe9d	0.41014567
173	0x3e08a9ab	0.13345973
174	0xbe4026c2	-0.18764785
175	0x3e873630	0.2640853
176	0xbeb29334	-0.34877932
177	0xbe753075	-0.23944266
178	0xbe90c110	-0.28272295
179	0x3d2d8474	0.042362645
180	0x3d92e654	0.07172838
181	0xbeac8e75	-0.33702436
182	0x3ee7b27d	0.45253363
183	0x3d0bf2ec	0.034167215
184	0xbdaa9f12	-0.083311215
185	0x3c2975cf	0.010343029
186	0xbe1a8633	-0.15090255
187	0x3e1e57d6	0.15463194
188	0x3e432dfe	0.19060513
189	0xbdeee7ad	-0.116652824
190	0x3e12bb5b	0.14329283
191	0x3e9582d1	0.29201367
192	0xbe8296c0	-0.25505638
193	0xbd950464	-0.07276228
194	0xbdfce56d	-0.12348447
195	0xbeb21289	-0.34779766
196	0x3d81309a	0.06308098
197	0x3d362a97	0.04447421
198	0xbea707f3	-0.32623252
199	0x3de58a72	0.11208047
200	0x3e992869	0.29913643
201	0x3e6bd827	0.23031674
202	0xbe4ba024	-0.19885308
203	0x3ed834ff	0.42227933
204	0xbe8ba87d	-0.27276984
205	0xbe5b1f8a	-0.2139875
206	0x3eeff64b	0.46867594
207	0x3ebbf9d8	0.36714053
208	0x3ee4079f	0.44537064
209	0x3ececb17	0.4038932
210	0xbec05820	-0.37567234
211	0x3d8b9a1a	0.06816502
212	0xbe78a166	-0.24280319
213	0x3d2e2ab1	0.042521182
214	0x3ec74b2e	0.38924545
215	0x3e795311	0.24348094
216	0xbec907f2	-0.39263874
217	0xbe3ed451	-0.1863568
218	0xbea8f5b0	-0.32999945
219	0x3e71782f	0.23581003
220	0xbccbd145	-0.02488006
221	0xbe9ee850	-0.31036615
222	0xbca39421	-0.019968094
223	0x3e3038eb	0.17209212
224	0x3d96a385	0.073554076
225	0x3ee12b6b	0.43978438
226	0xbc6ae38b	-0.014336477
227	0x3e0504a3	0.1299005
228	0xbdd29ff2	-0.102844134
229	0x3db05c64	0.08611372
230	0x3d475cb9	0.04867241
231	0x3ecf5caa	0.40500385
232	0x3eb54f7f	0.35412213
233	0xbe7cb167	-0.24677049
234	0xbeb32611	-0.3498998
235	0xbec19b06	-0.37813586
236	0xbdfe23db	-0.12409183
237	0x3d65446f	0.055973466
238	0x3f0343a3	0.5127508
239	0xbc1f45c6	-0.009721225
240	0x3e1c0af8	0.15238559
241	0x3e4f53c3	0.20246796
242	0xbefd168a	-0.49431258
243	0xbed42804	-0.4143678
244	0x3e128282	0.14307597
245	0x3e3d7755	0.18502553
246	0xbe60d7ec	-0.21957368
247	0x3d4b5bc1	0.04964805
248	0xbee77484	-0.45206082
249	0x3bb2d908	0.005458001
250	0x3db76d68	0.089564145
251	0xbc544cf5	-0.012957801
252	0xbdb570c1	-0.08859397
253	0x3e3ee1ee	0.18640873
254	0xbd46a4d9	-0.048497055
255	0x3e9b9802	0.3038941

encoder.2.bias f4 [16]
0	0x00000000	0.0
1	0x00000000	0.0
2	0x3d0b91b7	0.03407451
3	0x3b0864de	0.0020812075
4	0x3cc5ebc5	0.024160275
5	0x3cc9e358	0.024644539
6	0x3c7b5976	0.015341153
7	0xbc920b4e	-0.017827656
8	0xbc56d3f1	-0.013112054
9	0x3cee7cb8	0.029112205
10	0x00000000	0.0
11	0x3d14ba24	0.03631033
12	0x3d01ad45	0.031659383
13	0x3d03771d	0.032096017
14	0x3d11560b	0.035482448
15	0xbc9539ae	-0.01821598

encoder.4.weight f4 [32, 16]
0	0xbe9bead3	-0.30452594
1	0xbe4ee76a	-0.20205465
2	0xbe5fc281	-0.21851541
3	0xbe9a3c12	-0.30123955
4	0x3e9037bf	0.2816753
5	0xbd6db37d	-0.0580325
6	0xbe813e61	-0.25242904
7	0x3dc804fc	0.09766576
8	0xbe788068	-0.24267733
9	0x3d429c56	0.047512375
10	0x3e2c1b51	0.16807295
11	0xbcec4900	-0.028843403
12	0x3e578785	0.2104779
13	0x3dca0548	0.098642886
14	0xbe80f989	-0.2519038
15	0x3dbf8d50	0.09353125
16	0x3e696297	0.22791515
17	0xbda7dafd	-0.081960656
18	0x3c891714	0.016734637
19	0x3d5595e7	0.05214491
20	0xbbd58b43	-0.0065168454
21	0x3d620a02	0.055185325
22	0xbec04d02	-0.37558752
23	0x3e6e69b7	0.23282515
24	0x3dee3d9b	0.11632844
25	0x3bc02eb9	0.005864945
26	0x3d83c0d1	0.06433261
27	0xbea3f30e	-0.32021374
28	0xbe0dd409	-0.13850416
29	0xbd58f8c8	-0.05297163
30	0x3d41b5a1	0.047292355
31	0xbe6cbb51	-0.2311833
32	0x3d19a7d2	0.03751356
33	0xbde0b739	-0.10972447
34	0x3e8aea49	0.2713187
35	0xbe948a35	-0.29011694
36	0x3d98d5b7	0.07462638
37	0x3e8b90c8	0.27258897
38	0xbe7793df	-0.24177502
39	0x3ca3017b	0.019898167
40	0x3e47b66b	0.1950318
41	0x3e350273	0.17676716
42	0x3d2a4da4	0.04157795
43	0x3e34ce03	0.17656712
44	0xbe58e19a	-0.2117981
45	0x3ea7a8e4	0.3274604
46	0x3d2d252a	0.04227177
47	0x3e850c41	0.2598591
48	0x3da02e29	0.07821304
49	0xbd211a7d	-0.0393319
50	0x3e1aaa4c	0.15104026
51	0x3ea25300	0.3170395
52	0x3eb8ef49	0.3612006
53	0xbe94caaa	-0.2906087
54	0x3cec6374	0.028856017
55	0xbe7a8bf4	-0.2446745
56	0x3e5a2233	0.21302108
57	0x3e861124	0.26184952
58	0xbe7e3901	-0.24826433
59	0xbc347a60	-0.011015505
60	0x3e81e915	0.2537314
61	0x3e778ee6	0.24175605
62	0xbe8416aa	-0.2579854
63	0x3e7a53e8	0.2444607
64	0xbd8030b7	-0.062592916
65	0xbe99f3b1	-0.30068734
66	0x3d8ff76b	0.07029613
67	0x3e4089e5	0.18802603
68	0x3e5d4a3f	0.21610354
69	0xbe8031e1	-0.25038055
70	0xbe862653	-0.26201114
71	0xbe832487	-0.25613806
72	0x3e407ebb	0.18798344
73	0xbea3cf7a	-0.3199423
74	0xbb43629d	-0.0029813417
75	0xbde255c5	-0.110515155
76	0x3e15837f	0.14600943
77	0x3d7649e8	0.060129076
78	0xbe3e26bd	-0.18569465
79	0x3d556bb9	0.052104685
80	0x3ea69614	0.32536376
81	0x3d6e6df1	0.058210317
82	0xbe3d409c	-0.18481678
83	0xb918b6aa	-0.00014563897
84	0xbeb7bf84	-0.35888302
85	0xbe83287c	-0.25616825
86	0xbdc30130	-0.09521711
87	0xbe7eaa0a	-0.24869552
88	0x3e8a9885	0.27069488
89	0x3d1d1f35	0.03835984
90	0x3e8c350a	0.27384216
91	0xbde04921	-0.10951448
92	0xbda410fe	-0.080110535
93	0x3d73806f	0.059448656
94	0xbe0aa507	-0.13539515
95	0xbe18b6e1	-0.14913513
96	0xbeb19356	-0.3468272
97	0x3e885ece	0.2663483
98	0x3ea87bf0	0.32907057
99	0xbebda3b6	-0.37038964
100	0xbdb111d0	-0.086459756
101	0xbe7282fc	-0.23682779
102	0xbde92d98	-0.113856494
103	0x3e98bf73	0.29833564
104	0x3e604039	0.21899499
105	0x3b581270	0.0032969974
106	0x3e1aa099	0.15100326
107	0x3e0bd877	0.13656794
108	0x3e654b74	0.22392064
109	0xbe8211d9	-0.25404242
110	0x3e0fcda9	0.14043297
111	0xbe9c8a7b	-0.30574402
112	0xbe6e19b0	-0.23251987
113	0xbe06ea4a	-0.13175312
114	0xbd44a3f7	-0.04800793
115	0xbead812d	-0.33887616
116	0xbd05d22e	-0.032671146
117	0x3cb62a63	0.022237008
118	0xbe323092	-0.1740134
119	0x3dac6da0	0.08419347
120	0x3e8cf0e3	0.27527532
121	0xbdc13a4f	-0.094349496
122	0xbe40d065	-0.18829496
123	0xbeb0e9ae	-0.34553283
124	0xbe95af1a	-0.29235154
125	0xbe6ae443	-0.22938637
126	0xbe9795b1	-0.29606393
127	0xbe306007	-0.17224132
128	0x3e47710e	0.1947672
129	0x3de2946f	0.11063468
130	0x3ea93bfc	0.33053577
131	0x3ea77da6	0.3271305
132	0xbe18dc84	-0.1492787
133	0xbe2444a4	-0.1604181
134	0x3cdc2b48	0.026876107
135	0xbe9b9571	-0.30387452
136	0x3e2f6759	0.17129268
137	0xbdb000c2	-0.085938945
138	0xbe97929e	-0.29604048
139	0xbe948099	-0.29004362
140	0xbe8876d1	-0.2665315
141	0x3d9a711b	0.075411044
142	0x3e7e3c3e	0.24827668
143	0x3e849351	0.25893643
144	0xbdc760d8	-0.09735268
145	0xbe524ad5	-0.20536359
146	0xbe148703	-0.14504628
147	0xbe6c524c	-0.23078269
148	0xbd595600	-0.05306053
149	0xbe9256a9	-0.2858174
150	0x3e63c52f	0.22243188
151	0xbe9a7630	-0.30168295
152	0xbe3f7bb9	-0.1869954
153	0x3e8b4915	0.27204195
154	0xbe876775	-0.2644612
155	0x3df0c5b1	0.11756457
156	0x3e99764a	0.2997306
157	0x3ec3bafd	0.38228598
158	0x3e5a60d0	0.21325994
159	0xbd7ffb81	-0.062495712
160	0x3e4ee1b9	0.20203294
161	0xbc3f2c19	-0.011668229
162	0xbdc523ce	-0.0962597
163	0xbbfcd4a4	-0.0077157784
164	0x3df6f1c2	0.120578304
165	0x3e8aed83	0.27134332
166	0x3e3c3af4	0.18381864
167	0x3e4d9cf2	0.20079401
168	0x3db3ec96	0.087853596
169	0x3c8ea7e7	0.017414046
170	0x3e1804d6	0.14845595
171	0x3df01204	0.11722186
172	0xbe9b03e7	-0.30276415
173	0x3dbd6626	0.09247999
174	0xbdfa85bc	-0.12232539
175	0xbe1c6d9a	-0.15276185
176	0x3e0c02e6	0.1367298
177	0x3d9410ca	0.07229765
178	0x3d71844c	0.05896406
179	0xbe18be3d	-0.1491632
180	0x3e315c36	0.17320332
181	0x3eb19e11	0.34690908
182	0x3d6cc1f7	0.057802167
183	0x3e26de07	0.16295634
184	0xbe96dadc	-0.2946385
185	0x3e66ff65	0.22558363
186	0x3dfb892a	0.12282021
187	0x3e2f7b21	0.17136814
188	0x3e261aa4	0.162211
189	0xbd9f6c52	-0.07784332
190	0xbbe5af21	-0.0070094024
191	0x3eb7072e	0.35747665
192	0x3e847557	0.25870773
193	0xbe81c0a8	-0.25342298
194	0x3e93dbb8	0.2887857
195	0x3eb1fd0e	0.34763378
196	0x3d672b60	0.05643785
197	0xbe87a576	-0.26493424
198	0x3d9f5a1b	0.07780858
199	0xbd78aaf8	-0.060709924
200	0x3e8700d2	0.26367813
201	0xbea79f3c	-0.32738674
202	0x3db94b3e	0.090475544
203	0x3c399794	0.011327643
204	0x3d2379f8	0.03991124
205	0x3e81dd84	0.25364316
206	0x3c95ac99	0.018270778
207	0xbe8d43ce	-0.27590793
208	0xbe5330d2	-0.20624092
209	0xbe10f631	-0.14156415
210	0x3d5442ee	0.05182164
211	0x3e13a6eb	0.14419143
212	0xbcd3844f	-0.025819926
213	0xbdd68cbb	-0.10476061
214	0x3e42d262	0.19025567
215	0xbe9fba45	-0.311968
216	0x3e900a71	0.28132966
217	0xbbb16828	-0.0054140277
218	0x3e7beac7	0.24601279
219	0x3e9a376a	0.30120403
220	0x3d97573c	0.073896855
221	0x3e16802f	0.14697336
222	0xbe28431b	-0.16431849
223	0x3e930e10	0.28721666
224	0x3e53e642	0.20693305
225	0xbd63720b	-0.05552868
226	0x3e1a2ce3	0.15056185
227	0xbbe1184a	-0.0068693506
228	0x3ea45756	0.32097882
229	0x3e37d8e6	0.17953834
230	0x3e968a8c	0.29402578
231	0xbe93c6ec	-0.28862703
232	0x3ec2a067	0.38013002
233	0x3e2b8321	0.1674924
234	0x3e300445	0.17189129
235	0x3de0f20e	0.10983668
236	0x3e89645d	0.26834384
237	0x3ebce104	0.36890423
238	0x3b8b5054	0.004251519
239	0xbe822ef2	-0.2542644
240	0x3ea63932	0.32465512
241	0xbd98b3a5	-0.074561395
242	0xbe2fb2b8	-0.1715802
243	0x3e77d1fb	0.24201195
244	0x3e2e7b0c	0.17039126
245	0x3ca7227c	0.020402186
246	0xbd469c90	-0.048489153
247	0xbdc0dc45	-0.09417013
248	0x3e98a9a9	0.2981694
249	0x3e40d5fb	0.18831627
250	0x3e579b65	0.21055372
251	0x3e4b20f7	0.19836794
252	0xbe59857a	-0.21242324
253	0x3d416e24	0.04722418
254	0xbeaaaf41	-0.33336833
255	0x3e37e2a6	0.17957553

encoder.4.bias f4 [32]
0	0x3ce824da	0.028337885
1	0xbd2601f2	-0.0405292
2	0x3d07e803	0.033180248
3	0x3c0efa3f	0.0087266555
4	0xbcbc6bc9	-0.023000615
5	0xbcf113dd	-0.029428417
6	0x3d0311b2	0.031999297
7	0xbd14b627	-0.036306527
8	0xbcb0a578	-0.021563277
9	0x3d104b3e	0.035228007
10	0x3d103010	0.035202086
11	0x3c88c213	0.016694104
12	0x3c56a953	0.0131018935
13	0x3d11ad5c	0.03556572
14	0x3d15a7ab	0.036536854
15	0xbcdb97b1	-0.02680573
16	0xbd14ca7f	-0.036325928
17	0xbade8ebf	-0.0016979798
18	0x3cbfbb33	0.023404693
19	0xbc9b7005	-0.018974314
20	0xbbc71085	-0.0060749673
21	0x3d079847	0.033104207
22	0x3cb777be	0.022395965
23	0xbd043888	-0.032280475
24	0xbc1daf0d	-0.009624255
25	0x3ca9f56c	0.02074691
26	0xbcd1b114	-0.025597133
27	0x3ce98530	0.028505892
28	0x3d0d133e	0.03444218
29	0xbcf8a756	-0.03035323
30	0xbd18e940	-0.03733182
31	0xbc89b054	-0.016807713

nee_decoder.0.weight f4 [16, 32]
0	0x3e0f32f9	0.13984288
1	0x3d62e534	0.055394366
2	0x3e2a5a16	0.16635928
3	0x3d908e4e	0.070583925
4	0x3dfde385	0.123969115
5	0x3e1af670	0.15133071
6	0xbe589ae5	-0.21152838
7	0xbd1fcd12	-0.03901393
8	0x3d9d8b5c	0.07692596
9	0xbce425ef	-0.02785012
10	0xbe94c29c	-0.29054725
11	0x3d4d8823	0.05017866
12	0x3e75d9cf	0.24008869
13	0xbe2cd402	-0.1687775
14	0x3ebb7034	0.36609042
15	0x3dc8462b	0.097790085
16	0x3e3ab3fe	0.18232724
17	0xbe1cf1f9	-0.1532668
18	0xbe9cc2ac	-0.30617273
19	0xbe0f65ac	-0.14003628
20	0x3d072c05	0.033000965
21	0xbe13d4b4	-0.14436609
22	0x3ea8e6cd	0.32988587
23	0xbe7642aa	-0.24048868
24	0xbe84b9eb	-0.25923094
25	0xbdd8f2cf	-0.10593187
26	0x3eb51003	0.35363778
27	0xbe5775b5	-0.21040995
28	0x3ebc4ce7	0.36777422
29	0x3e1219e0	0.14267683
30	0xbcecff3d	-0.0289303
31	0x3e529b69	0.20567097
32	0x3e276e6c	0.16350716
33	0xbe259d58	-0.16173303
34	0xbdaca3ac	-0.084296554
35	0x3ea458bc	0.3209895
36	0x3e450ff6	0.1924437
37	0xbe3c3a3b	-0.18381588
38	0xbda22d22	-0.07918765
39	0x3e5a5da0	0.21324778
40	0x3e255a6e	0.16147777
41	0x3bfe6e80	0.0077646375
42	0xbe6a8048	-0.22900498
43	0xbe8b49cb	-0.27204737
44	0xbdc0e021	-0.09417749
45	0x3de9f2eb	0.11423286
46	0xbd540201	-0.051759724
47	0xbe9e02c0	-0.30861473
48	0xbde10eda	-0.10989161
49	0x3ebac354	0.3647715
50	0xbe8ef595	-0.2792174
51	0xbe8951b1	-0.26820138
52	0x3e51e7b7	0.20498548
53	0x3eade14a	0.33960944
54	0xbeb3adef	-0.35093638
55	0xbe9ef1be	-0.3104381
56	0xbdc1ff28	-0.09472495
57	0x3eac7a64	0.33687127
58	0xbe76b9cd	-0.24094315
59	0x3d80110d	0.06253252
60	0x3e83a1e5	0.25709453
61	0xbdd3a69e	-0.10334514
62	0xbe01d81e	-0.12680098
63	0xbe82233b	-0.25417504
64	0x3c5e691f	0.0135748675
65	0x3ea8f5a5	0.32999912
66	0x3e140ad3	0.14457254
67	0x3e7e792f	0.24850915
68	0xbcbfe25b	-0.023423364
69	0xbd6605d2	-0.056157894
70	0xbd815bff	-0.06316375
71	0x3e4e7cd4	0.20164806
72	0xbd3de4b5	-0.04636069
73	0xbe9aa03d	-0.30200377
74	0xbdfe422c	-0.12414965
75	0x3e0daf87	0.1383649
76	0x3eb07d2f	0.34470508
77	0xbd83a921	-0.06428743
78	0xbe9d9b64	-0.30782616
79	0xbe8549ab	-0.26032767
80	0xbe8e6d5d	-0.27817813
81	0x3e11f065	0.1425186
82	0x3e856f3f	0.26061437
83	0x3dd6227f	0.10455798
84	0x3df9a87c	0.12190339
85	0x3e6bdc72	0.23033312
86	0x3e778880	0.24173164
87	0x3e582f5c	0.21111816
88	0x3e4a73b3	0.19770698
89	0x3dc3ed8f	0.09566795
90	0x3e3adefa	0.18249121
91	0xbe786b18	-0.24259603
92	0xbe6a54ce	-0.22883913
93	0x3dc2bc38	0.09508556
94	0x3d615d6a	0.055020727
95	0xbe9f2359	-0.31081656
96	0xbe808aed	-0.25105992
97	0xbe84e6ef	-0.25957438
98	0x3e8768d3	0.26447162
99	0x3e57a7d1	0.2106011
100	0xbe3e5d7f	-0.18590353
101	0x3d4f2e09	0.050581012
102	0xbd846a86	-0.0646563
103	0x3ea774ba	0.32706243
104	0xbeabe6b9	-0.33574465
105	0xbe8f8e2e	-0.28038162
106	0xbe9d0d32	-0.3067413
107	0x3e41254a	0.18861881
108	0xbe4a235d	-0.19740053
109	0x3e44c1a3	0.19214492
110	0x3dced4f0	0.10099208
111	0xbe3feae9	-0.18741955
112	0xbde69cbf	-0.11260366
113	0xbe01062d	-0.12600012
114	0x3e2be558	0.16786706
115	0xbe020eef	-0.12701009
116	0x3dd18aba	0.10231538
117	0x3c0c1209	0.008549222
118	0xbe991fbf	-0.29907033
119	0xbe52b968	-0.2057854
120	0xbe68473f	-0.22683428
121	0x3e2a440f	0.16627525
122	0x3d5fec5d	0.054668773
123	0x3c3e3ffd	0.011611936
124	0xbe71901e	-0.23590133
125	0xbea799d3	-0.32734546
126	0xbe11ec67	-0.14250337
127	0xbe9213fd	-0.28530875
128	0xbec04208	-0.37550378
129	0xbeaadd5b	-0.33372006
130	0xbe69d804	-0.2283631
131	0xbeb7a8bd	-0.35870925
132	0x3d990d2d	0.07473216
133	0x3dd9d6e2	0.10636689
134	0x3e187708	0.14889157
135	0xbeb491f8	-0.35267615
136	0x3e509d0e	0.20372412
137	0x3d7d3b4d	0.06182413
138	0x3e4cebe5	0.20011862
139	0xbda470d3	-0.08029332
140	0x3e211eb2	0.15734366
141	0xbeadc3b9	-0.33938387
142	0x3df5e50f	0.1200658
143	0x3e8d18b4	0.2755791
144	0x3dff6eeb	0.12472328
145	0xbead546d	-0.33853474
146	0xbdbcb6cb	-0.092145525
147	0xbd56e2b3	-0.05246229
148	0x3e35b786	0.1774579
149	0xbe078598	-0.13234556
150	0x3d615b32	0.05501861
151	0xbe07f9e0	-0.13278913
152	0xbd52631e	-0.051364057
153	0xbc2b02ad	-0.01043765
154	0xbe83ae4a	-0.2571891
155	0xbe4edc6d	-0.20201273
156	0x3e866c85	0.2625467
157	0x3e9d84f6	0.30765504
158	0xbcc15562	-0.023600284
159	0x3e95523b	0.291643
160	0x3e8b7dac	0.27244318
161	0xbe640a9d	-0.22269674
162	0xbe0fdbfd	-0.14048763
163	0xbe78aa48	-0.24283707
164	0x3dea19e8	0.114307225
165	0x3c127f00	0.008941412
166	0xbd46987e	-0.04848527
167	0x3e86669f	0.2625017
168	0xbe0d829e	-0.13819358
169	0xbe4623f6	-0.19349656
170	0xbe80aeac	-0.25133264
171	0xbe382dfb	-0.1798629
172	0x3eae78bc	0.34076488
173	0xbe300510	-0.17189431
174	0xbdc73b75	-0.097281374
175	0x3e232d10	0.15935159
176	0xbe8b0760	-0.27154064
177	0xbe5bbe14	-0.21459228
178	0x3e853b53	0.26021823
179	0xbe0adb7f	-0.13560294
180	0xbe3bdd51	-0.18346144
181	0xbd3b5c1d	-0.045742143
182	0xbd4e59c8	-0.05037859
183	0x3d8453e5	0.06461314
184	0x3e04bb27	0.12962018
185	0xbe8b9303	-0.272606
186	0x3ea480e2	0.3212958
187	0xbeac1ace	-0.336142
188	0x3df53be6	0.11974315
189	0xbdcc4d92	-0.09975733
190	0xbe18e328	-0.14930403
191	0x3ea95446	0.33072108
192	0xbeaf2465	-0.34207454
193	0x3d3ccad6	0.046091877
194	0x3e57e46f	0.21083234
195	0x3e956a65	0.29182735
196	0xbe9a463f	-0.3013172
197	0x3d1215ae	0.035665207
198	0x3ebc975c	0.36834228
199	0xbea73a25	-0.32661548
200	0x3d8a43df	0.06751227
201	0xbe7bb1e7	-0.24579583
202	0x3d4bb62e	0.049734287
203	0xbeac5ba3	-0.33663663
204	0x3e1c47fc	0.15261835
205	0xbdc7a69a	-0.097485736
206	0x3e45ce94	0.19317085
207	0xbcaada53	-0.020856058
208	0xbd96e563	-0.07367971
209	0xbd8d48fd	-0.06898687
210	0xbe9e0e92	-0.3087049
211	0xbe10bbb1	-0.14134099
212	0xbc0a6c31	-0.008448646
213	0xbe946805	-0.2898561
214	0x3e9747da	0.29547006
215	0xbe5c7689	-0.21529593
216	0xbdf22220	-0.11822915
217	0xbd870327	-0.06592398
218	0xbea3ce40	-0.31993294
219	0x3cf2142a	0.02955063
220	0xbe50a8b6	-0.20376858
221	0xbe8a8c67	-0.27060243
222	0xbc3c3200	-0.01148653
223	0x3e970542	0.294962
224	0x3db24db5	0.08706228
225	0x3e954d88	0.29160714
226	0xbb6296cc	-0.0034574745
227	0xbdfcbb35	-0.123403944
228	0x3e91e4dc	0.28494918
229	0xbe40cac5	-0.1882735
230	0xbea77640	-0.32707405
231	0x3d9e793c	0.07737967
232	0x3e346e50	0.17620206
233	0xbe5869f8	-0.21134174
234	0x3dfed973	0.12443819
235	0xbe0071fa	-0.12543479
236	0xbd2fb5a0	-0.04289782
237	0xbda052e3	-0.078283094
238	0xbd9adff6	-0.075622484
239	0xbe9349ed	-0.28767338
240	0x3db1759f	0.086650126
241	0xbdbe76ca	-0.09300001
242	0x3e8a69f0	0.2703395
243	0x3d71b6a6	0.059012078
244	0xbe940a9c	-0.28914344
245	0xbe89b613	-0.26896724
246	0xbe3cae6e	-0.18425915
247	0x3e2d5f3f	0.16930865
248	0xbe69bfa9	-0.22827019
249	0xbe259f75	-0.1617411
250	0x3d8374b7	0.06418746
251	0xbe7b002a	-0.24511781
252	0xbe3246ea	-0.17409864
253	0x3ea42549	0.32059696
254	0xbe3f6855	-0.18692143
255	0xbdf13dfa	-0.11779399

nee_decoder.0.bias f4 [16]
0	0x3c1ff179	0.009762161
1	0xbb3e6056	-0.002904912
2	0x00000000	0.0
3	0xbc8aac68	-0.016927913
4	0xbb15c9eb	-0.0022855948
5	0x00000000	0.0
6	0xbbec322a	-0.0072081285
7	0x00000000	0.0
8	0xbbd3142e	-0.0064416146
9	0xbc4d3145	-0.012523954
10	0xbc26e16a	-0.010185579
11	0xb95ea4ce	-0.00021232964
12	0x3b0a74b9	0.00211267
13	0x00000000	0.0
14	0x00000000	0.0
15	0x3c09e860	0.008417219

nee_decoder.2.weight f4 [16, 16]
0	0xbd990836	-0.07472269
1	0xbd88a51b	-0.06672116
2	0x3e803db9	0.2504709
3	0x3e5485eb	0.2075421
4	0xbcbb0eac	-0.022834145
5	0x3c281102	0.010257961
6	0x3dd49fe2	0.10382058
7	0x3ebf1ec1	0.3732815
8	0x3e780de4	0.24224049
9	0xbe52d55f	-0.20589207
10	0xbe5a4dd2	-0.21318749
11	0x3e1b545a	0.15168896
12	0xbce7a4c6	-0.028276812
13	0xbe8e3b2f	-0.27779528
14	0xbed69499	-0.41910246
15	0x3d9629cf	0.07332193
16	0xbe017c0b	-0.12644975
17	0xbe80fe95	-0.2519423
18	0x3da6d15d	0.081454016
19	0x3ed7e3f3	0.421661
20	0x3eb8245c	0.3596524
21	0x3e7ccfee	0.24688694
22	0xbea73565	-0.32657924
23	0x3e7d107e	0.24713323
24	0x3e65564c	0.22396201
25	0x3e13f063	0.14447169
26	0xbddce837	-0.10786479
27	0xbbf71299	-0.007540059
28	0xbe708093	-0.23486547
29	0xbdc7c2aa	-0.09753926
30	0xbd91fb5a	-0.0712802
31	0xbd7b3ed7	-0.061339226
32	0xbed406c8	-0.41411424
33	0x3e23c7fc	0.15994257
34	0xbeb5651f	-0.35428712
35	0xbe96cf33	-0.29454955
36	0x3e4fef48	0.20306122
37	0xbeb57b28	-0.35445523
38	0x3ee32c37	0.4436967
39	0x3ed44a52	0.41462952
40	0xbe191b83	-0.14951901
41	0xbdb27b91	-0.08714975
42	0xbea99d58	-0.33127856
43	0x3d53aafd	0.05167674
44	0x3dd4e438	0.10395092
45	0xbe733c86	-0.23753557
46	0x3e0b0b64	0.13578564
47	0x3beef4c5	0.0072923624
48	0xbe02b4da	-0.12764302
49	0xbac45b94	-0.0014980906
50	0xbed6e6d8	-0.41972995
51	0xbe9c2ca5	-0.3050281
52	0x3d6ac514	0.057316855
53	0x3ed61a62	0.41817003
54	0xbe836879	-0.25665644
55	0x3e8e212a	0.27759677
56	0x3d225210	0.039629042
57	0xbe3ec448	-0.18629563
58	0x39f8bd1d	0.00047443146
59	0x3e54945f	0.20759724
60	0x3d53022c	0.051515743
61	0x3ec44157	0.383311
62	0xbda7d5e0	-0.0819509
63	0xbe940c77	-0.2891576
64	0x3ed2b25e	0.41151708
65	0xbdca90c9	-0.09890897
66	0x3e8cab9c	0.27474678
67	0x3e97f5da	0.29679757
68	0x3db664b8	0.08905929
69	0xbeb5f635	-0.35539404
70	0xbed47191	-0.41492894
71	0x3e528029	0.20556702
72	0x3e003cd3	0.12523203
73	0x3e8768e9	0.26447228
74	0xbebef58f	-0.3729672
75	0xbd38bb7e	-0.04510068
76	0x3ec749ab	0.38923392
77	0x3e68f4d6	0.22749647
78	0x3eb83e09	0.3598483
79	0x3eb365dd	0.35038653
80	0xbdd99822	-0.1062472
81	0xbe96f9cd	-0.29487458
82	0xbe8432d8	-0.2582004
83	0x3e169798	0.14706266
84	0xbe3000da	-0.17187825
85	0x3ae11799	0.001717317
86	0x3d8d8541	0.06910182
87	0x3e89a0b5	0.26880422
88	0x3e7749dc	0.24149269
89	0x3e7d11bc	0.24713796
90	0x3c902b9f	0.017598925
91	0x3e7a52f8	0.24445713
92	0xbe4f9497	-0.20271526
93	0xbe3178cd	-0.17331238
94	0xbd8c6955	-0.06856028
95	0xbe80bf8e	-0.25146145
96	0x3ecfa700	0.40557098
97	0xbd32c725	-0.04364695
98	0x3e00e89d	0.12588735
99	0xbac07279	-0.0014682553
100	0x3be0a8bf	0.0068560536
101	0xbe6c54b2	-0.23079184
102	0xbca9fdc0	-0.02075088
103	0xbec64fd3	-0.38732776
104	0xbe41c4d1	-0.18922736
105	0x3eb1069d	0.34575358
106	0xbecb872b	-0.39751562
107	0x3db00b62	0.08595921
108	0x3dad1d6e	0.08452879
109	0xbed431d6	-0.41444272
110	0x3dad3504	0.084573776
111	0x3e59774b	0.21236913
112	0x3eaf2376	0.34206742
113	0x3ddf9ca2	0.10918547
114	0x3ead4cb7	0.3384759
115	0x3d3a1e5a	0.0454391
116	0x3e43eb39	0.19132699
117	0x3e02e5ad	0.12782927
118	0xbe95b4ba	-0.29239446
119	0xbdc2aae4	-0.09505251
120	0xbe90e0f0	-0.28296614
121	0x3eac432b	0.33644995
122	0x3e5c6157	0.21521507
123	0xbe1ff4d0	-0.15620732
124	0xbd405c63	-0.046963107
125	0x3decbd06	0.11559491
126	0xbec14ebe	-0.37755388
127	0x3d3e2618	0.046423048
128	0x3e41b406	0.1891633
129	0x3d0fd605	0.035116214
130	0xbd233103	-0.039841663
131	0x3e87dc6a	0.2653535
132	0x3e337950	0.17526746
133	0xbec517a6	-0.38494605
134	0x3e788418	0.2426914
135	0xbeaedce6	-0.34152907
136	0x3e692d7b	0.22771256
137	0x3eb448f2	0.35211903
138	0x3d007e64	0.031370535
139	0xbe24cdac	-0.16094083
140	0xbe753d09	-0.23949064
141	0xbe44e3ae	-0.19227478
142	0xbda377ac	-0.0798181
143	0xbe4521b0	-0.19251132
144	0x3ee5fc2e	0.4491896
145	0xbe27ffdf	-0.16406201
146	0x3e3818c7	0.17978202
147	0xbec77172	-0.3895374
148	0x3e6dd517	0.23225819
149	0x3ebca649	0.36845616
150	0xbe994684	-0.29936612
151	0xbde24375	-0.11048023
152	0x3df7e6cb	0.12104567
153	0xbecdceaf	-0.4019675
154	0xbe87db83	-0.26534662
155	0x3e2942b8	0.16529357
156	0x3ed8bafc	0.42330158
157	0xbe0476ee	-0.12935993
158	0xbb813870	-0.0039434955
159	0xbed0374b	-0.40667185
160	0xbed8f9ad	-0.42377988
161	0x3eb95174	0.36194956
162	0x3ebc236d	0.36745778
163	0xbe015cb1	-0.12633015
164	0xbe2c227f	-0.16810034
165	0xbce5a1e9	-0.028031306
166	0x3e543ab4	0.20725518
167	0xbed64032	-0.41845852
168	0xbe84f6d9	-0.2596958
169	0xbe1f0081	-0.15527536
170	0xbe40ff13	-0.18847303
171	0xbc47787a	-0.01217472
172	0x3ea1e070	0.31616545
173	0x3dc19fe9	0.094543286
174	0xbec8a2f9	-0.39186838
175	0x3eccdac1	0.40010646
176	0x3ea87357	0.32900497
177	0x3dea4b44	0.11440137
178	0x3e5909ba	0.21195117
179	0x3e155d4c	0.14586371
180	0x3eadbf32	0.33934933
181	0xbed53b8e	-0.41647
182	0xbe91994d	-0.28437272
183	0xbd613cf2	-0.054989763
184	0xbdcb5796	-0.09928815
185	0xbe99a616	-0.30009526
186	0xbed90349	-0.4238532
187	0xbeb254f6	-0.34830445
188	0xbdb0f7b3	-0.08640995
189	0x3ebc3290	0.36757326
190	0x3e92fbfc	0.28707874
191	0x3ddf17c0	0.10893202
192	0xbe8c15fe	-0.2736053
193	0xbe37d621	-0.17952777
194	0x3d2adc74	0.041714147
195	0xbed5dc3a	-0.41769582
196	0xbd09733a	-0.033557154
197	0x3db4557c	0.08805367
198	0x3ec0138c	0.37514913
199	0xbde8c93d	-0.11366508
200	0x3ed660c9	0.41870716
201	0x3d38e141	0.045136694
202	0xbe9e00b1	-0.30859903
203	0x3ecbb756	0.39788312
204	0x3eb9a3b1	0.362577
205	0xbeaf2e07	-0.34214804
206	0xbe809bc5	-0.25118843
207	0x3e4fada2	0.2028108
208	0xbe886a40	-0.26643562
209	0x3e96bf40	0.29442787
210	0xbe539006	-0.2066041
211	0xbe099de6	-0.1343914
212	0xbdfe92f4	-0.12430373
213	0x3ed382e2	0.41310793
214	0xbe15f10c	-0.14642733
215	0xbdac6fb9	-0.08419747
216	0x3e8625a4	0.26200593
217	0xbe97b006	-0.29626483
218	0xbb08b17d	-0.0020857744
219	0xbeab3f92	-0.33446938
220	0xbecca06f	-0.3996615
221	0xbdca7814	-0.09886184
222	0x3d4410e2	0.047867663
223	0x3ebd0f8e	0.3692593
224	0xbed1da9e	-0.40987104
225	0xbdff5bb3	-0.12468662
226	0x3de95eec	0.11395058
227	0x3e3901a9	0.1806704
228	0x3e894eef	0.26818034
229	0xbeb244c0	-0.34818077
230	0xbdb46597	-0.08808439
231	0x3dcd0edc	0.100126
232	0xbebf8776	-0.37408036
233	0x3e529cd0	0.20567632
234	0xbed38a95	-0.41316667
235	0x3e8fee86	0.28111666
236	0x3e1c7f4c	0.15282935
237	0xbdfbe5a1	-0.122996576
238	0x3e0fd994	0.14047843
239	0x3ec1f43a	0.37881643
240	0x3e994a3a	0.29939443
241	0x3e7614ca	0.24031368
242	0xbe810f46	-0.25206965
243	0x3de5f838	0.112289846
244	0x3e9fcc33	0.3121048
245	0x3d9c6863	0.07637098
246	0x3e8d0d21	0.2754908
247	0xbe897efb	-0.2685469
248	0x3e92d22f	0.28675982
249	0xbcdc4376	-0.026887637
250	0xbecb523a	-0.3971117
251	0xbe020509	-0.12697233
252	0x3ebbf4b9	0.36710146
253	0xbe1ae692	-0.15127018
254	0xbd9997aa	-0.07499631
255	0xbe3d25a9	-0.18471397

nee_decoder.2.bias f4 [16]
0	0x3c002d95	0.007823368
1	0x00000000	0.0
2	0x3d21d93b	0.039513808
3	0x00000000	0.0
4	0x3bcbcab8	0.0062192343
5	0x00000000	0.0
6	0x3bffeb4a	0.007810031
7	0x3cafa42c	0.021440588
8	0xbc230370	-0.00994955
9	0x3c0008d3	0.007814604
10	0x3c4a5bfe	0.012351034
11	0xbc35e034	-0.0111008175
12	0xbca19bb6	-0.01972757
13	0x00000000	0.0
14	0x3baf980e	0.0053587025
15	0xbc0481d2	-0.008087592

nee_decoder.4.weight f4 [1, 16]
0	0xbea960ff	-0.33081815
1	0x3dd2c9ce	0.102923974
2	0x3eeee437	0.4665849
3	0x3d8fde39	0.070248075
4	0xbd697dfe	-0.05700492
5	0x3d0cc38e	0.034366183
6	0xbeee03fa	-0.4648741
7	0xbeb8c5f7	-0.36088535
8	0x3c783b3b	0.01515084
9	0xbefe59a5	-0.49677768
10	0x3ea967a7	0.33086893
11	0x3d895586	0.067057654
12	0xbb109b10	-0.002206508
13	0xbd1c2897	-0.038124647
14	0x3f158785	0.5840991
15	0x3f06a3e3	0.5259382

fc_mu.0.weight f4 [4, 32]
0	0xbe671733	-0.22567444
1	0x3e9b8afd	0.30379477
2	0xbe50eeeb	-0.2040364
3	0xbea6ab1d	-0.32552424
4	0x3db722ad	0.08942161
5	0xbe81d754	-0.25359595
6	0xbc8d8f63	-0.017280286
7	0xbe84aba8	-0.25912213
8	0x3db0a7b5	0.086257376
9	0xbd887e1a	-0.06664677
10	0x3d5ca183	0.053864967
11	0x3e413ca5	0.1887079
12	0xbe8696c7	-0.2628691
13	0xbe0e880f	-0.1391909
14	0xbe8b6191	-0.27222875
15	0x3eae0f7b	0.33996186
16	0xbe15ae36	-0.14617237
17	0x3e1d6f79	0.15374555
18	0x3dc0f5de	0.094218954
19	0xbece37e4	-0.40277016
20	0xbe94639f	-0.28982255
21	0xbdd6e031	-0.1049198
22	0xbea03d36	-0.312967
23	0x3e5dab4b	0.21647374
24	0x3e836448	0.25662446
25	0xba445444	-0.0007489363
26	0x3d4cc0f0	0.049988687
27	0x3ddc54c9	0.10758359
28	0x3e0b0a75	0.13578208
29	0xbda1b791	-0.07896341
30	0xbe247e5a	-0.16063824
31	0xbe813e8f	-0.2524304
32	0x3cba807b	0.022766342
33	0x3ea9e6c6	0.3318388
34	0xbd76485f	-0.060127612
35	0x3eaf33fa	0.34219342
36	0x3e1b62f5	0.15174468
37	0xbe4d1b77	-0.20030008
38	0x3e2b03a6	0.1670061
39	0x3e30c93b	0.17264263
40	0xbe2d4c54	-0.16923648
41	0xbda59517	-0.08085077
42	0xbd55bf90	-0.05218464
43	0x3e0a3150	0.13495374
44	0x3e9e592d	0.3092741
45	0xbdca7909	-0.09886367
46	0x3e830c14	0.25595152
47	0x3e584c27	0.211228
48	0xbeae4e29	-0.34044006
49	0x3e9d6a3c	0.30745113
50	0xbc2aaa77	-0.010416619
51	0x3e9d54f5	0.3072888
52	0x3e9eb0d9	0.309943
53	0xbecf4a1b	-0.40486225
54	0xbeb2f6a6	-0.34953803
55	0xbd1805df	-0.037114974
56	0x3e0ff4fe	0.14058301
57	0xbd9882b0	-0.07446802
58	0xbec42814	-0.38311827
59	0x3e5a2168	0.21301806
60	0xbe77f715	-0.24215348
61	0x3e471e5c	0.19445175
62	0x3e8f0ba3	0.27938566
63	0xbe1617ed	-0.14657564
64	0x3e7bc43a	0.24586573
65	0x3d5e5d2d	0.054288078
66	0xbe033d89	-0.12816443
67	0x3cd8f3a1	0.026483359
68	0x3e165512	0.14680889
69	0x3e55fd69	0.2089745
70	0xbe6fe28c	-0.23426265
71	0x3e9c3bff	0.30514523
72	0xbe45b845	-0.19308574
73	0xbeb40eda	-0.3516758
74	0xbe34b803	-0.1764832
75	0xbeb90d8b	-0.36143145
76	0x3dea1b3c	0.11430976
77	0x3ce12502	0.027483467
78	0xbca2dbf3	-0.01988027
79	0xbe8d7708	-0.27629876
80	0x3e5c609d	0.2152123
81	0x3d88ed1e	0.066858515
82	0xbdd1d6c4	-0.102460414
83	0x3d9421f5	0.07233039
84	0x3e1370d0	0.14398503
85	0xbe7b28f7	-0.24527346
86	0xbdf0cfca	-0.117583826
87	0xbe3dd7c1	-0.18539335
88	0x3eb9004e	0.36133045
89	0x3dcebced	0.100946285
90	0xbe9dbf47	-0.30809996
91	0x3e939e59	0.28831747
92	0xbd84c29f	-0.064824335
93	0x3ce62f2c	0.028098665
94	0x3d585ba9	0.05282179
95	0xbd434c07	-0.047679927
96	0x3ed3d32b	0.41372046
97	0x3e50e4fc	0.2039985
98	0x3d7af50d	0.061268855
99	0xbe30c0fc	-0.17261118
100	0x3dfeb0f8	0.12436098
101	0xbe870ba9	-0.26376083
102	0xbdeedb49	-0.11662919
103	0x3e705459	0.23469676
104	0xbed8659a	-0.42265016
105	0xbd182036	-0.037140094
106	0xbe391b44	-0.18076807
107	0x3e397614	0.1811145
108	0xbe8fa765	-0.280574
109	0x3d3880db	0.04504476
110	0xbe1454eb	-0.14485519
111	0x3ea30765	0.3184158
112	0xbda1ed04	-0.07906535
113	0xbe8aac1f	-0.27084443
114	0xbdd64123	-0.104616426
115	0x3ea2ea36	0.31819314
116	0x3e068b9c	0.13139194
117	0x3d794787	0.06085923
118	0x3e68ad7c	0.22722429
119	0x3e3e8995	0.18607171
120	0xbcda36bf	-0.026637433
121	0xbe793f7b	-0.24340622
122	0xbeb5a5ea	-0.35478145
123	0x3e5335ff	0.20626067
124	0x3e999c82	0.30002218
125	0xbe05f052	-0.13079956
126	0xbe534753	-0.20632677
127	0x3d4c2282	0.049837597

fc_mu.0.bias f4 [4]
0	0x00000000	0.0
1	0xbc16ac92	-0.009196417
2	0x00000000	0.0
3	0xbcd35151	-0.02579561

fc_mu.2.weight f4 [1, 4]
0	0x3e193976	0.14963326
1	0x3f48dcf1	0.7846213
2	0xbee2915b	-0.44251522
3	0xbf644e6c	-0.8918216

fc_logvar.0.weight f4 [4, 32]
0	0xbe671733	-0.22567444
1	0x3e9b8afd	0.30379477
2	0xbe50eeeb	-0.2040364
3	0xbea6ab1d	-0.32552424
4	0x3db722ad	0.08942161
5	0xbe81d754	-0.25359595
6	0xbc8d8f63	-0.017280286
7	0xbe84aba8	-0.25912213
8	0x3db0a7b5	0.086257376
9	0xbd887e1a	-0.06664677
10	0x3d5ca183	0.053864967
11	0x3e413ca5	0.1887079
12	0xbe8696c7	-0.2628691
13	0xbe0e880f	-0.1391909
14	0xbe8b6191	-0.27222875
15	0x3eae0f7b	0.33996186
16	0xbe15ae36	-0.14617237
17	0x3e1d6f79	0.15374555
18	0x3dc0f5de	0.094218954
19	0xbece37e4	-0.40277016
20	0xbe94639f	-0.28982255
21	0xbdd6e031	-0.1049198
22	0xbea03d36	-0.312967
23	0x3e5dab4b	0.21647374
24	0x3e836448	0.25662446
25	0xba445444	-0.0007489363
26	0x3d4cc0f0	0.049988687
27	0x3ddc54c9	0.10758359
28	0x3e0b0a75	0.13578208
29	0xbda1b791	-0.07896341
30	0xbe247e5a	-0.16063824
31	0xbe813e8f	-0.2524304
32	0x3cba807b	0.022766342
33	0x3ea9e6c6	0.3318388
34	0xbd76485f	-0.060127612
35	0x3eaf33fa	0.34219342
36	0x3e1b62f5	0.15174468
37	0xbe4d1b77	-0.20030008
38	0x3e2b03a6	0.1670061
39	0x3e30c93b	0.17264263
40	0xbe2d4c54	-0.16923648
41	0xbda59517	-0.08085077
42	0xbd55bf90	-0.05218464
43	0x3e0a3150	0.13495374
44	0x3e9e592d	0.3092741
45	0xbdca7909	-0.09886367
46	0x3e830c14	0.25595152
47	0x3e584c27	0.211228
48	0xbeae4e29	-0.34044006
49	0x3e9d6a3c	0.30745113
50	0xbc2aaa77	-0.010416619
51	0x3e9d54f5	0.3072888
52	0x3e9eb0d9	0.309943
53	0xbecf4a1b	-0.40486225
54	0xbeb2f6a6	-0.34953803
55	0xbd1805df	-0.037114974
56	0x3e0ff4fe	0.14058301
57	0xbd9882b0	-0.07446802
58	0xbec42814	-0.38311827
59	0x3e5a2168	0.21301806
60	0xbe77f715	-0.24215348
61	0x3e471e5c	0.19445175
62	0x3e8f0ba3	0.27938566
63	0xbe1617ed	-0.14657564
64	0x3e7bc43a	0.24586573
65	0x3d5e5d2d	0.054288078
66	0xbe033d89	-0.12816443
67	0x3cd8f3a1	0.026483359
68	0x3e165512	0.14680889
69	0x3e55fd69	0.2089745
70	0xbe6fe28c	-0.23426265
71	0x3e9c3bff	0.30514523
72	0xbe45b845	-0.19308574
73	0xbeb40eda	-0.3516758
74	0xbe34b803	-0.1764832
75	0xbeb90d8b	-0.36143145
76	0x3dea1b3c	0.11430976
77	0x3ce12502	0.027483467
78	0xbca2dbf3	-0.01988027
79	0xbe8d7708	-0.27629876
80	0x3e5c609d	0.2152123
81	0x3d88ed1e	0.066858515
82	0xbdd1d6c4	-0.102460414
83	0x3d9421f5	0.07233039
84	0x3e1370d0	0.14398503
85	0xbe7b28f7	-0.24527346
86	0xbdf0cfca	-0.117583826
87	0xbe3dd7c1	-0.18539335
88	0x3eb9004e	0.36133045
89	0x3dcebced	0.100946285
90	0xbe9dbf47	-0.30809996
91	0x3e939e59	0.28831747
92	0xbd84c29f	-0.064824335
93	0x3ce62f2c	0.028098665
94	0x3d585ba9	0.05282179
95	0xbd434c07	-0.047679927
96	0x3ed3d32b	0.41372046
97	0x3e50e4fc	0.2039985
98	0x3d7af50d	0.061268855
99	0xbe30c0fc	-0.17261118
100	0x3dfeb0f8	0.12436098
101	0xbe870ba9	-0.26376083
102	0xbdeedb49	-0.11662919
103	0x3e705459	0.23469676
104	0xbed8659a	-0.42265016
105	0xbd182036	-0.037140094
106	0xbe391b44	-0.18076807
107	0x3e397614	0.1811145
108	0xbe8fa765	-0.280574
109	0x3d3880db	0.04504476
110	0xbe1454eb	-0.14485519
111	0x3ea30765	0.3184158
112	0xbda1ed04	-0.07906535
113	0xbe8aac1f	-0.27084443
114	0xbdd64123	-0.104616426
115	0x3ea2ea36	0.31819314
116	0x3e068b9c	0.13139194
117	0x3d794787	0.06085923
118	0x3e68ad7c	0.22722429
119	0x3e3e8995	0.18607171
120	0xbcda36bf	-0.026637433
121	0xbe793f7b	-0.24340622
122	0xbeb5a5ea	-0.35478145
123	0x3e5335ff	0.20626067
124	0x3e999c82	0.30002218
125	0xbe05f052	-0.13079956
126	0xbe534753	-0.20632677
127	0x3d4c2282	0.049837597

fc_logvar.0.bias f4 [4]
0	0x00000000	0.0
1	0xbc16ac92	-0.009196417
2	0x00000000	0.0
3	0xbcd35151	-0.02579561

fc_logvar.2.weight f4 [1, 4]
0	0xbdcf4887	-0.10121255
1	0x3f58e02b	0.84717053
2	0xbc9b5951	-0.018963488
3	0xbd46ba70	-0.048517644

temp_derivative_decoder.0.weight f4 [16, 32]
0	0xbeb130d3	-0.34607562
1	0x3db7461d	0.0894892
2	0x3c9e9d5f	0.01936215
3	0x3dcf4499	0.10120506
4	0x3e49e355	0.19715627
5	0x3e25a6d5	0.16176923
6	0xbca296b4	-0.019847251
7	0xbd39dceb	-0.0453767
8	0xbe207e79	-0.15673245
9	0x3eaca6ea	0.33721095
10	0x3ea06003	0.3132325
11	0x3c929233	0.017891979
12	0x3ebba61d	0.36650172
13	0x3ea837f6	0.32855195
14	0x3e61db7b	0.22056381
15	0x3e4f0e67	0.20220338
16	0x3e2c7894	0.16842872
17	0xbda562cd	-0.080754854
18	0x3c1af465	0.009457682
19	0x3e8a9902	0.2706986
20	0xbd250ecc	-0.040297315
21	0x3e031ca8	0.128039
22	0xbdc38aee	-0.09547983
23	0x3d244569	0.040105257
24	0x3e3fc3eb	0.1872708
25	0x3e72830d	0.23682804
26	0x3e3dd082	0.1853657
27	0x3e0f73d1	0.14009024
28	0xbd855224	-0.06509808
29	0x3e9bd00b	0.30432162
30	0x3e89dcf6	0.26926392
31	0x3eb7edb7	0.3592355
32	0xbe925c6b	-0.28586134
33	0xbe240e90	-0.1602118
34	0xbe964f4f	-0.29357383
35	0x3d0048bc	0.031319365
36	0x3e8a50cd	0.2701477
37	0xbe777136	-0.2416428
38	0x3dbd8019	0.09252948
39	0xbbe7d0ff	-0.007074475
40	0xbea889d2	-0.3291765
41	0xbc637830	-0.013883635
42	0xbd2a07c5	-0.041511316
43	0xbe2f97d7	-0.17147766
44	0xbe61ef4a	-0.22063938
45	0x3e56089f	0.20901726
46	0xbd149c4a	-0.03628186
47	0xbd8f81ff	-0.07007217
48	0xbdc94f7d	-0.09829614
49	0xbd392963	-0.045205485
50	0xbdc7b7d7	-0.097518615
51	0xbe58e3e1	-0.21180679
52	0x3e1a77a7	0.15084706
53	0xbbab4482	-0.0052266726
54	0xbea1e0b9	-0.31616762
55	0xbe35ccff	-0.17753981
56	0xbd93b976	-0.07213108
57	0xbe0a1685	-0.13485153
58	0x3daacfc5	0.0834041
59	0x3ea95927	0.3307583
60	0xbe82a589	-0.25516918
61	0xbba9fff2	-0.0051879818
62	0x3e9d4940	0.30719948
63	0xbe53090c	-0.2060892
64	0xbe88e69d	-0.26738444
65	0x3dd43c57	0.103630714
66	0xbc565525	-0.0130818235
67	0xbc5c8ba2	-0.013461025
68	0x3e6cc91f	0.23123597
69	0xbe9625af	-0.29325625
70	0xbe4f9d26	-0.20274791
71	0x3e824a9c	0.25447547
72	0xbe832e96	-0.2562148
73	0xbd67c7d0	-0.05658704
74	0x3e1eb71e	0.15499541
75	0xbe4f1bbd	-0.20225425
76	0xbe904114	-0.2817465
77	0xbe61698d	-0.2201292
78	0xbe8b471e	-0.27202696
79	0xbe9fa19c	-0.31177986
80	0xbd8776cc	-0.066144556
81	0xbea3670b	-0.31914553
82	0xbe534ec2	-0.20635512
83	0x3d0d99b5	0.034570415
84	0x3ea40d3b	0.32041344
85	0x3eade871	0.339664
86	0x3e92c5fe	0.2866668
87	0x3d457e56	0.048216186
88	0x3e6a7dc6	0.22899541
89	0xbdf41699	-0.11918373
90	0xbe5f624b	-0.2181484
91	0x3e308b90	0.17240739
92	0x3e12988d	0.14316006
93	0x3e093b43	0.13401513
94	0x3e1fcba7	0.15605031
95	0xbdc70485	-0.09717659
96	0x3e92884c	0.2861961
97	0x3e5ee09e	0.21765372
98	0xbe390474	-0.18068105
99	0x3e6f798c	0.2338621
100	0x3e1e6bce	0.15470812
101	0x3ba10e07	0.0049150023
102	0x3d033611	0.032033984
103	0x3ea8f952	0.33002716
104	0xbc4f5c41	-0.012656272
105	0x3dc90193	0.098147534
106	0x3e6d95be	0.23201653
107	0xbc035f2a	-0.008018294
108	0x3e97fcb6	0.2968499
109	0xbe711846	-0.23544416
110	0xbd79a520	-0.06094849
111	0x3b1b706e	0.0023718136
112	0xbb1a9408	-0.0023586769
113	0xbe6b0942	-0.2295275
114	0x3eb9a2b9	0.3625696
115	0xbe31f647	-0.17379104
116	0x3e6abb33	0.22922973
117	0xbe2be35f	-0.16785954
118	0x3dea1eed	0.1143168
119	0xbe2c594e	-0.16830942
120	0xbe02cccf	-0.12773441
121	0x3d8c1b28	0.06841117
122	0x3e7475ec	0.23873109
123	0xbc39a780	-0.011331439
124	0x3dda5bd8	0.10662049
125	0xbe2d5f58	-0.16930902
126	0x3daff166	0.08590965
127	0xbd7bcee5	-0.061476607
128	0xbda4f909	-0.08055312
129	0x3e324073	0.17407398
130	0xbdf05a4f	-0.11735975
131	0xbe5d1aed	-0.21592303
132	0xbdcd634a	-0.100287035
133	0x3e348c17	0.17631565
134	0x3ead4b47	0.33846495
135	0x3ea3a320	0.31960392
136	0x3e7ce578	0.2469691
137	0xbe5f6ce8	-0.21818888
138	0x3ea1a753	0.3157297
139	0x3e1362bb	0.14393131
140	0x3d80b2cd	0.062841035
141	0xbe51e11c	-0.20496029
142	0xbe40591a	-0.1878399
143	0x3dbacc7b	0.09121033
144	0xbd006609	-0.03134731
145	0xbdcc8e1e	-0.09988044
146	0xbe8a2d49	-0.26987675
147	0x3e9a4a7b	0.3013495
148	0x3de029bc	0.1094546
149	0x3d3e483b	0.046455603
150	0x3d080f3d	0.033217657
151	0x3e42d0d1	0.1902497
152	0xbe5a539f	-0.21320961
153	0xbc675103	-0.014118436
154	0x3e9fc6ec	0.31206453
155	0xbd60cade	-0.05488097
156	0xbe9afdfb	-0.30271897
157	0xbe57f9d7	-0.210914
158	0x3e6073b8	0.21919143
159	0x3e3ea81a	0.18618813
160	0x3e79e29d	0.24402852
161	0xbdffe73c	-0.12495276
162	0xbe2854b0	-0.16438556
163	0xbea00902	-0.31256872
164	0x3cc7d360	0.024392784
165	0xbd9c82f2	-0.07642163
166	0x3eabc015	0.33544984
167	0xbe2319ba	-0.15927783
168	0xbe660ccd	-0.2246582
169	0x3e12d1eb	0.1433789
170	0xbe0417c2	-0.12899688
171	0xbd0672bb	-0.03282426
172	0x3eb4953d	0.3527011
173	0x3e61cf92	0.22051838
174	0xbeb46b85	-0.3523828
175	0x3c8baf02	0.017051224
176	0x3c364c84	0.011126641
177	0x3eb1099f	0.34577653
178	0xbe9c800a	-0.30566436
179	0x3e5edf4f	0.21764873
180	0xbeb1bf10	-0.34716082
181	0xbeb1f31f	-0.347558
182	0xbe39959f	-0.18123482
183	0xbead2211	-0.33815053
184	0xbcb22d56	-0.021750133
185	0x3e922dd6	0.28550595
186	0xbdc8e0ac	-0.09808478
187	0xbe89473d	-0.26812163
188	0xbcf92af4	-0.03041599
189	0xbe935528	-0.28775907
190	0x3e759e77	0.23986231
191	0x3d516081	0.051117424
192	0x3eab2f50	0.33434534
193	0x3e334cf7	0.17509829
194	0x3dd1537b	0.10221001
195	0x3dc35e08	0.095394194
196	0x3eb5f926	0.35541648
197	0xbe63ff0c	-0.22265261
198	0xbe477d8c	-0.19481486
199	0x3e98968e	0.29802364
200	0x3de00e06	0.10940175
201	0x3e98b2a0	0.2982378
202	0x3d687d55	0.05676015
203	0x3dd037f3	0.101669215
204	0x3e471dad	0.19444914
205	0x3e537e23	0.20653586
206	0x3e2ceadf	0.16886471
207	0xbe987989	-0.29780224
208	0x3db58450	0.08863127
209	0xbe5d244b	-0.21595876
210	0x3d7ead6d	0.06217711
211	0x3e5bfdae	0.2148349
212	0xbe0f00a3	-0.13965087
213	0x3e90880e	0.282288
214	0x3e949dc7	0.29026625
215	0x3e033937	0.12814794
216	0xbe6d8970	-0.2319696
217	0xbc80e4fa	-0.015734185
218	0x3e8b7f32	0.2724548
219	0x3db13589	0.08652789
220	0x3e916a33	0.28401336
221	0x3d51735d	0.05113541
222	0xbe3fabd9	-0.18717898
223	0x3e513735	0.20431216
224	0x3def9dab	0.11699995
225	0x3e47e37e	0.19520375
226	0xbe5852d6	-0.2112535
227	0xbe8940dc	-0.26807296
228	0x3e727bd2	0.23680046
229	0x3dfd4e6b	0.12368473
230	0x3e846f1a	0.25866014
231	0xbe96ec23	-0.29477033
232	0xbe2697b5	-0.16268809
233	0xbc379141	-0.011204065
234	0xbe3c09e5	-0.1836315
235	0x3e623000	0.22088623
236	0x3e8fc4d0	0.28079844
237	0x3e9ce5eb	0.30644163
238	0x3d4b5b96	0.04964789
239	0xbea46169	-0.32105568
240	0xbe01dbc3	-0.12681489
241	0x3da7fb73	0.08202257
242	0xbdc368e9	-0.095414944
243	0x3e1a9d60	0.15099096
244	0xbdc18025	-0.0944827
245	0x3e9594dc	0.29215133
246	0x3e9ccdbf	0.30625722
247	0x3eb35c1c	0.3503121
248	0x3defcd49	0.11709077
249	0xbe751694	-0.23934394
250	0xbdbb6691	-0.09150422
251	0xbe413492	-0.1886771
252	0x3e22d6bd	0.15902229
253	0xbcfe1c7f	-0.031019447
254	0x3e10f540	0.14156055
255	0x3dd22dad	0.10262618
