.archive/piae_sde/experiments/2024-11-27_14-37-46-545510/best_model.pth (torch, 25314 bytes, 28 tensors)

encoder.0.weight f4 [16, 18]
-0.28736463 0.3891539 0.3732396 0.11184683 -0.29413888 0.26220208 -0.15358979 0.049357947
-0.006450837 0.034060948 -0.35598168 0.05957134 0.2911697 -0.23648842 -0.08163813 0.41745865
-0.37873375 -0.30681884 -0.30085707 -0.339265 0.12252682 -0.20217377 0.32167688 -0.1391401
-0.08315044 0.0067644515 0.13415383 -0.38459963 0.3262575 -0.029588982 0.059051935 -0.21603644
0.3784285 0.089758255 0.17866494 0.4554603 -0.24242412 -0.07962075 -0.24531348 -0.2594396
0.31903931 -0.081847765 0.09199338 0.045475587 -0.20030221 0.078963436 -0.01565775 0.065367036
0.105174735 -0.37893453 0.3731778 0.018463587 0.1398464 -0.19752178 0.3733981 -0.41270956
-0.21053393 0.24527353 0.08131292 0.32686773 -0.08084254 -0.32505658 0.14096929 0.19460349
0.41896513 -0.29918566 -0.027927954 0.11879213 -0.118670546 -0.0056046206 -0.2677179 -0.40248144
0.18505982 0.005303314 -0.15722667 -0.38960415 0.19060355 0.19529285 -0.1456903 -0.3366343
0.19014281 -0.1100388 0.09217194 -0.12797698 0.38443205 -0.16885534 -0.07292501 -0.31236333
-0.15642607 0.35316402 0.48047048 0.2003709 -0.049045198 0.13460591 0.3999078 -0.43372545
-0.1067298 0.058323104 0.24816328 0.24555087 -0.20266604 -0.059126034 -0.16464241 0.18917693
-0.38438514 -0.06809048 0.44773632 -0.254243 -0.1573949 -0.090457246 -0.029792305 0.015738688
0.2863545 -0.21535714 -0.34446713 0.2626202 0.121383265 -0.22376317 -0.17729756 0.10450535
0.07574991 -0.36250243 0.07240251 0.14486946 -0.13286944 0.41562173 0.26207238 -0.05027874
0.30894127 0.15826924 -0.08062319 0.024322767 -0.29191753 0.1431063 0.13959633 -0.26542827
-0.28164765 0.06970451 -0.19275787 0.20242685 -0.40613955 0.3007558 0.18958092 -0.32805148
-0.061378554 0.37897417 0.07460493 0.27446285 0.24160708 0.01834229 -0.16028084 0.20295154
0.3511711 0.40106645 0.120876126 -0.034500733 -0.35570046 0.25281277 0.16024533 -0.12095039
-0.27281368 0.37336382 0.10857674 0.31242648 0.28714278 0.00631137 -0.2583647 0.14715762
-0.38944492 -0.3738262 -0.17775863 0.09596987 -0.35495085 -0.059629932 0.33820087 -0.20236878
-0.29841202 -0.2272948 -0.39980358 -0.11087326 0.351647 0.10884556 -0.012127871 0.069791414
-0.31037593 0.12022084 0.2781718 -0.26629534 0.0197188 -0.21416503 0.32530227 -0.0763435
0.17260295 0.018738717 -0.15052013 0.028586831 0.2656428 -0.089759625 0.18024907 -0.4189004
0.259779 0.055135738 -0.2572483 0.25521216 0.38910052 -0.058432117 0.4032401 -0.011697901
0.015831783 -0.1223694 0.1187702 -0.3960003 -0.41911632 0.15871435 -0.35886592 0.171915
-0.0046484554 -0.07088617 0.16042818 0.06650924 -0.08036596 -0.018671423 -0.087313645 0.10675583
0.021860894 -0.16956344 0.0012077816 0.017597536 -0.055069283 -0.18395507 0.04220227 -0.36543065
0.18933302 0.0077701756 -0.1466724 0.010447434 -0.06338754 -0.08299976 0.13946985 -0.15591632
-0.00056218886 0.05146438 0.09415731 -0.024488239 -0.056425523 0.028833538 0.015392827 -0.18129288
0.18524186 -0.03169313 0.005281745 0.8263951 0.13541229 0.36586806 0.018132012 0.23210008
00000000: 7521 93be 2e3f c73e 4319 bf3e f30f e53d
00000010: 5f99 96be 5a3f 863e a446 1dbe 8f2b 4a3d
00000020: 8b61 d3bb 7e83 0b3d 3b43 b6be 1401 743d
00000030: 3214 953e 052a 72be e431 a7bd 24bd d53e
00000040: 64e9 c1be 5c17 9dbe f009 9abe 24b4 adbe
00000050: 57ef fa3d a406 4fbe d5b2 a43e be7a 0ebe
00000060: c74a aabd 55a8 dd3b 9f5f 093e 3eea c4be
00000070: 390b a73e 9864 f2bc 71e0 713d a838 5dbe
00000080: 61c1 c13e 2dd3 b73d f1f3 363e 1832 e93e
00000090: 073e 78be 3410 a3bd 7533 7bbe 44d5 84be
000000a0: 1f59 a33e cd9f a7bd 0667 bc3d 9c44 3a3d
000000b0: 061c 4dbe 95b7 a13d af44 80bc 27df 853d
000000c0: da65 d73d b503 c2be 2911 bf3e f340 973c
000000d0: e533 0f3e 2643 4abe 092e bf3e ab4e d3be
000000e0: 3596 57be fc28 7b3e 6387 a63d 355b a73e
000000f0: c690 a5bd d16d a6be 415a 103e 2346 473e
00000100: 9982 d63e dd2e 99be 2ac9 e4bc 4a49 f33d
00000110: 8b09 f3bd f7a6 b7bb 5212 89be 0c12 cebe
00000120: 5280 3d3e 6cc7 ad3b 0700 21be 327a c7be
00000130: 942d 433e d9fa 473e d72f 15be 555b acbe
00000140: ccb4 423e 065c e1bd a4c4 bc3d 660c 03be
00000150: 47d4 c43e 6ae8 2cbe b559 95bd 16ee 9fbe
00000160: 282e 20be ead1 b43e 3a00 f63e 072e 4d3e
00000170: 9ee3 48bd 22d6 093e b7c0 cc3e 4311 debe
00000180: 2795 dabd 35e4 6e3d 841e 7e3e b071 7b3e
00000190: b087 4fbe 242e 72bd 0598 28be 99b7 413e
000001a0: 21ce c4be 0673 8bbd b23d e53e 232c 82be
000001b0: 212c 21be a641 b9bd fe0e f4bc 6cee 803c
000001c0: 0f9d 923e 9586 5cbe ff5d b0be 2876 863e
000001d0: ca97 f83d 2c22 65be 7e8d 35be e706 d63d
000001e0: c522 9b3d eb99 b9be c447 943d a958 143e
000001f0: ed0e 08be 5fcc d43e 5a2e 863e 14f1 4dbd
00000200: 8d2d 9e3e 5511 223e c51d a5bd 8a40 c73c
00000210: 3776 95be 758a 123e 57f2 0e3e 37e6 87be
00000220: 1f34 90be 3dc1 8e3d 5262 45be fc48 4f3e
00000230: 86f1 cfbe aafc 993e 8021 423e 5df6 a7be
00000240: 1468 7bbd e708 c23e 78ca 983d 6586 8c3e
00000250: d967 773e 9242 963c a920 24be 87d2 4f3e
00000260: b3cc b33e 9558 cd3e e78d f73d a450 0dbd
00000270: 5f1e b6be ad70 813e 5a17 243e d7b4 f7bd
00000280: 3cae 8bbe 8b29 bf3e 7b5d de3d 5df6 9f3e
00000290: 6104 933e 9ccf ce3b 6148 84be 7db0 163e
000002a0: 5365 c7be 2666 bfbe 5c06 36be da8b c43d
000002b0: 1ebc b5be 843e 74bd aa28 ad3e c339 4fbe
000002c0: 76c9 98be f8bf 68be 0eb3 ccbe 8511 e3bd
000002d0: 130b b43e 6cea de3d fab3 46bc cdee 8e3d
000002e0: 98e9 9ebe 5836 f63d 896c 8e3e dd57 88be
000002f0: 5289 a13c 144e 5bbe 058e a63e fb59 9cbd
00000300: d4be 303e f081 993c f321 1abe ee2e ea3c
00000310: 5502 883e e5d3 b7bd 3693 383e 1d7a d6be
00000320: c101 853e 03d6 613d 0db6 83be 2bab 823e
00000330: 2f38 c73e 8456 6fbd 7d75 ce3e 8ea8 3fbc
00000340: a8b1 813c cf9c fabd ca3d f33d 8dc0 cabe
00000350: 6a96 d6be 0486 223e 46bd b7be 7c0a 303e
00000360: 1252 98bb c52c 91bd 4947 243e ff35 883d
00000370: e996 a4bd d0f4 98bc 7fd1 b2bd cda2 da3d
00000380: 9e15 b33c 0aa2 2dbe 6d4e 9e3a b528 903c
00000390: 5490 61bd b85e 3cbe 4adc 2c3d ba19 bbbe
000003a0: 84e0 413e f59c fe3b 4a31 16be b72b 2b3c
000003b0: 54d1 81bd c7fb a9bd 2fd1 0e3e 87a8 1fbe
000003c0: db5f 13ba 50cc 523d 8cd5 c03d 8f9b c8bc
000003d0: 731e 67bd 5034 ec3c 3232 7c3c d7a4 39be
000003e0: 0bb0 3d3e a8d0 01bd 7d12 ad3b a18e 533f
000003f0: 85a9 0a3e 0f53 bb3e 9689 943c a5ab 6d3e

encoder.0.bias f4 [16]
0.0 0.042905904 -0.072217435 0.0 -0.011141005 -0.05207363 0.0 -0.047220595
0.0 0.0 0.00270997 0.0 -0.021567151 0.08665456 0.0 -0.014301364
00000000: 0000 0000 1abe 2f3d bce6 93bd 0000 0000
00000010: c388 36bc 294b 55bd 0000 0000 626a 41bd
00000020: 0000 0000 0000 0000 c199 313b 0000 0000
00000030: 98ad b0bc f277 b13d 0000 0000 4550 6abc

encoder.2.weight f4 [16, 16]
-0.32392138 0.15435949 -0.32724014 0.32105663 0.31839794 -0.3387337 0.16093071 -0.4155213
0.1364955 0.21868916 0.12099763 -0.16631784 -0.023616685 0.27978867 0.24912128 0.032323904
0.3398173 -0.443971 -0.17191935 0.25087675 -0.10670842 0.016112052 -0.34783936 0.1450498
-0.31851262 -0.16769937 0.06645407 -0.39176014 -0.11033362 0.3102234 0.13983303 0.14101803
0.37613073 -0.22540326 -0.29442647 -0.30673024 -0.18920411 -0.020434776 -0.035227016 0.16465054
-0.06250437 -0.23697582 -0.14055881 0.34812945 -0.41500148 0.41684312 -0.09250588 -0.13019806
-0.15178756 0.22350825 -0.3194411 0.3861818 0.090517715 -0.100162685 -0.11013758 0.24944429
-0.33837083 -0.38192597 0.30508813 0.043336328 -0.046032317 1.2856872 -0.36854365 -0.2797551
0.40634742 -0.28911507 0.22368783 -0.3898907 0.14524749 0.16508748 -0.14414856 0.28503466
-0.046882924 -0.05552944 0.15798295 -0.3533051 0.35252967 -0.4752013 0.10153143 -0.25155765
-0.10465475 -0.03685165 0.313171 -0.029065084 0.38780916 -0.00047099142 0.094943434 0.33350286
-0.34616736 0.31398195 0.012311724 0.21332537 -0.41148362 0.057058685 -0.3276188 -0.07138949
0.026293859 0.425722 -0.36077437 -0.35003647 0.02523642 0.13501725 0.0108838435 0.25502527
0.01023272 -0.10730684 0.42549205 -0.28493854 -0.22272824 0.35575017 -0.4014028 0.20285544
-0.42164266 0.3601066 -0.07404357 0.41028583 -0.16264921 -0.4259992 0.3273411 -0.15620415
-0.40502858 -0.029969193 -0.26793614 -0.3749007 -0.20605564 -0.12172443 0.08139507 -0.20973805
0.009791118 -0.2739006 -0.08552622 -0.31170514 0.37365374 -0.2788858 0.12875707 -0.07346339
-0.26573762 0.07287512 0.4306694 -0.122815706 -0.029220331 -0.22978587 -0.28254235 0.1618736
-0.2765234 -0.39359286 -0.23837118 0.26199737 -0.020797092 -0.13579513 -0.11731739 -0.33572754
0.03299944 0.14354864 -0.15870608 0.26205653 0.3823478 -0.2338338 -0.24004029 -0.06119753
-0.120802976 0.028683586 0.35372284 0.41777322 0.31812748 0.27295843 -0.022400226 0.06348678
0.4238828 -0.16458297 -0.2061898 -0.11230192 0.38480175 0.04233742 0.06972031 0.44814813
-0.33834454 -0.072014734 0.40732622 0.11699043 -0.40305164 -0.18920638 -0.17484495 0.42326796
-0.18109599 0.2538221 0.121184304 0.29562965 0.16370595 -0.19485338 0.4003246 0.40437356
0.3745644 0.21216558 0.27315703 0.24621543 -0.27502888 0.059568305 -0.39643115 -0.25382414
-0.38612512 -0.30717996 0.23638536 -0.22136247 0.369035 -0.30232123 -0.1095754 -0.0007887393
0.017461153 0.17051947 0.2476429 -0.33144173 -0.17117096 -0.30340686 0.2909745 0.20628333
-0.1669717 -0.05803359 -0.27258492 0.31608504 -0.3040505 0.357225 -0.36758032 -0.19862047
-0.05563784 0.16797315 0.3767851 -0.06783079 -0.14700702 0.08963528 0.20607221 0.34696645
-0.3952134 -0.22288126 -0.030140068 0.088175446 -0.056915075 0.5629492 -0.41100937 0.10505848
-0.3870919 -0.17505948 0.3680299 0.1379621 0.3826754 -0.16007671 -0.11865489 0.070588
0.14930356 -0.14015813 0.39022288 0.17337717 0.37985522 0.55320674 -0.23442164 0.19628319
00000000: 06d9 a5be 6a10 1e3e 058c a7be 8961 a43e
00000010: 0e05 a33e 816e adbe 05cb 243e 35bf d4be
00000020: 7ac5 0b3e 0df0 5f3e 9bcd f73d 394f 2abe
00000030: c777 c1bc 7640 8f3e a619 7f3e 1266 043d
00000040: 88fc ad3e 2b50 e3be a00b 30be eb72 803e
00000050: f289 dabd 6cfd 833c 0018 b2be ef87 143e
00000060: 1614 a3be 62b9 2bbe 1219 883d c994 c8be
00000070: 98f6 e1bd 9ad5 9e3e 6430 0f3e 0867 103e
00000080: 3594 c03e 1dd0 66be 11bf 96be bf0b 9dbe
00000090: b9be 41be d566 a7bc 344a 10bd 279a 283e
000000a0: 4b02 80bd caa9 72be a6ee 0fbe 063e b23e
000000b0: 137b d4be 766c d53e b973 bdbd a452 05be
000000c0: 336e 1bbe 59df 643e c98d a3be 9fb9 c53e
000000d0: 5a61 b93d 1822 cdbd d08f e1bd 536e 7f3e
000000e0: f13e adbe cd8b c3be 8334 9c3e 6f81 313d
000000f0: 628c 3cbd 6691 a43f c1b1 bcbe 0f3c 8fbe
00000100: c50c d03e e406 94be 6c0e 653e c19f c7be
00000110: c2bb 143e b10c 293e ae9b 13be 10f0 913e
00000120: 4f08 40bd d772 63bd 48c6 213e 68e4 b4be
00000130: c57e b43e 964d f3be b6ef cf3d 2acc 80be
00000140: 3b55 d6bd c1f1 16bd f357 a03e e619 eebc
00000150: ec8e c63e 66ef f6b9 b471 c23d e3c0 aa3e
00000160: d93c b1be 3ec2 a03e 1db7 493c f771 5a3e
00000170: fbad d2be 5eb6 693d a7bd a7be a734 92bd
00000180: 3866 d73c 3cf8 d93e 6bb7 b8be fb37 b3be
00000190: 9cbc ce3c f641 0a3e 2652 323c ac92 823e
000001a0: 23a7 273c b0c3 dbbd 18da d93e 77e3 91be
000001b0: df12 64be e324 b63e ab84 cdbe 56b9 4f3e
000001c0: 8ce1 d7be e45f b83e 28a4 97bd fc10 d23e
000001d0: 848d 26be 911c dabe 4199 a73e fbf3 1fbe
000001e0: e85f cfbe f481 f5bc ed2e 89be fcf2 bfbe
000001f0: 4000 53be a84a f9bd 75b2 a63d 92c5 56be
00000200: ed6a 203c b33c 8cbe 5f28 afbd d197 9fbe
00000210: 8b4f bf3e 1fca 8ebe e5d8 033e f973 96bd
00000220: c30e 88be 8d3f 953d b380 dc3e cd86 fbbd
00000230: 7a5f efbc fd4c 6bbe 64a9 90be 31c2 253e
00000240: 7a94 8dbe 0185 c9be 9317 74be 8524 863e
00000250: aa5e aabc e10d 0bbe 1a44 f0bd 7be4 abbe
00000260: 6c2a 073d 6afe 123e d983 22be 462c 863e
00000270: 17c3 c33e 2172 6fbe 1fcd 75be 43aa 7abd
00000280: 8d67 f7bd d7f9 ea3c 291b b53e 5fe6 d53e
00000290: 9be1 a23e 35c1 8b3e ae80 b7bc 5b05 823d
000002a0: 2b07 d93e 7088 28be 6b23 53be 8dfe e5bd
000002b0: bc04 c53e 016a 2d3d 86c9 8e3d ac73 e53e
000002c0: 7f3b adbe 767c 93bd 108d d03e ae98 ef3d
000002d0: c95c cebe 51bf 41be 8e0a 33be 94b6 d83e
000002e0: 3a71 39be f8f4 813e 7a2f f83d c55c 973e
000002f0: 88a2 273e a587 47be 59f7 cc3e 0d0a cf3e
00000300: e8c6 bf3e ef41 593e 3ddb 8b3e e61f 7c3e
00000310: 96d0 8cbe e5fd 733d 06f9 cabe 3df5 81be
00000320: 31b2 c5be b146 9dbe 010f 723e d8ac 62be
00000330: 28f2 bc3e d9c9 9abe 1169 e0bd 66c3 4eba
00000340: b10a 8f3c a89c 2e3e 1a96 7d3e bbb2 a9be
00000350: 7147 2fbe 2558 9bbe 9cfa 943e f03b 533e
00000360: a1fa 2abe a1b4 6dbd 4090 8bbe e6d5 a13e
00000370: 82ac 9bbe 32e6 b63e 7d33 bcbe 2a63 4bbe
00000380: 81e4 63bd 2701 2c3e fae9 c03e dfea 8abd
00000390: 0289 16be b492 b73d 9804 533e 96a5 b13e
000003a0: 6959 cabe fc3a 64be 4ee8 f6bc 5495 b43d
000003b0: c81f 69bd 701d 103f d26f d2be e628 d73d
000003c0: e930 c6be cb42 33be 6a6e bc3e f045 0d3e
000003d0: 08ee c33e 26eb 23be 5601 f3bd 7190 903d
000003e0: 08e3 183e 9d85 0fbe 4bcb c73e c989 313e
000003f0: 627c c23e f59e 0d3f 3a0c 70be 76fe 483e

encoder.2.bias f4 [16]
0.0 0.0012056606 0.0 0.09548721 -0.009272948 -0.14263706 0.014282342 0.0
0.0041954704 0.0 0.0015457044 -0.0433145 0.038857277 0.0 0.009272171 -0.061373133
00000000: 0000 0000 4207 9e3a 0000 0000 cc8e c33d
00000010: 90ed 17bc 730f 12be 7c00 6a3c 0000 0000
00000020: 287a 893b 0000 0000 3c99 ca3a 8c6a 31bd
00000030: cf28 1f3d 0000 0000 4eea 173c 6562 7bbd

encoder.4.weight f4 [32, 16]
-0.04641485 0.23013592 0.16480193 -0.018582119 0.015620761 0.06342798 0.08268414 -0.25599942
0.24465683 -0.15132467 0.19512431 0.023943007 -0.08750729 -0.23737505 0.14050023 -0.16661836
0.31581083 0.29880914 0.011389722 0.26955923 -0.046410147 -0.25078228 0.14664681 -0.30035904
0.0767815 -0.31764576 -0.11833428 -0.33015886 -0.39396393 -0.26926437 -0.2608731 0.094149455
0.2009906 -0.050095152 -0.19013378 -0.46821222 0.28807682 0.8509379 -0.05407104 0.20344701
-0.024117898 -0.3159718 -0.24898544 0.29150116 0.25324798 -0.24694529 -0.021193344 -0.20998387
-0.053241372 -0.11840953 -0.24247658 0.15202056 0.03817001 0.52011895 0.18069059 0.053379953
-0.25192654 0.058169648 0.19905362 0.2703752 -0.13946469 0.10518985 0.15663026 -0.15159203
-0.09388838 -0.013266789 -0.33932325 -0.19715458 -0.15923917 0.35893598 -0.2977684 -0.07766138
0.068397224 0.14998007 -0.0182264 -0.12845081 0.20162477 0.18520264 -0.20245914 -0.3169893
-0.19488369 0.30889723 -0.16897056 0.008245722 -0.2567068 0.4412936 0.03501724 -0.26083302
-0.16542286 -0.13980147 -0.28484046 -0.31381974 0.017338669 -0.085077755 -0.18188213 0.2472162
0.107591465 -0.08250869 -0.09789629 -0.02887445 0.17224443 0.101727225 0.2799349 0.06798717
-0.096831694 -0.08931604 0.044802044 0.16029418 0.32330903 -0.21353461 0.20426609 -0.26262027
-0.12516451 -0.05489303 -0.08353248 0.4094438 0.011495478 -0.15126574 0.058310427 -0.13837345
0.06283945 0.14838126 0.16404368 0.3143824 -0.19728756 -0.17665438 -0.15086108 0.36561167
0.16172947 -0.38973472 0.17638667 -0.23795985 0.3172071 0.51552296 0.249747 -0.21180059
0.15006806 0.1777655 0.12448765 -0.15541604 -0.3504357 -0.17023315 -0.2527271 0.20708087
0.12679432 0.2931738 -0.106243014 0.22628382 -0.020936083 -0.3220679 -0.1683259 -0.2536382
0.17928977 -0.2923301 0.25914827 -0.12058682 0.20312874 -0.31864634 0.39279133 0.3501693
0.036377575 -0.18036401 -0.09958529 0.083301425 -0.32198337 0.10484215 -0.31847832 -0.2635608
0.30638066 0.2817669 -0.02294357 -0.11851987 -0.14160322 0.3061151 0.20571394 0.0033932182
-0.27918544 -0.15213092 0.2502507 0.034408547 -0.37374935 0.32036814 0.04495971 0.2129939
-0.19480228 -0.20896268 -0.14231747 -0.07066327 0.13336033 -0.19166873 -0.31547323 -0.3383142
-0.035821956 -0.4587773 -0.19904059 -0.21908434 0.3455232 0.3244394 0.03430319 0.12591219
0.045601655 -0.059731398 0.27130383 -0.023935566 -0.18613128 -0.34014478 0.25781128 0.20244317
-0.23554926 -0.09207397 -0.074449584 -0.04907453 -0.35624057 -0.42927742 0.12468441 -0.32221535
0.023495702 0.020753825 0.15363686 -0.14023021 -0.20192596 0.2779383 -0.11554396 -0.07887556
0.12552933 -0.07461509 0.14600009 -0.34808263 0.25390634 0.0453352 -0.302212 -0.28144985
-0.24873972 -0.0054867608 0.18362941 0.23475319 0.2303189 -0.15838149 -0.19946668 -0.29321507
0.15597466 -0.119839214 0.27893412 0.0810546 0.18192317 -0.27090743 -0.08131375 0.2638593
-0.09633534 0.31246847 0.15062115 0.06118025 0.20415041 -0.2702053 0.2118424 0.14077282
00000000: 7f1d 3ebd c0a8 6b3e d6c1 283e 8739 98bc
00000010: 38ee 7f3c 87e6 813d 4d56 a93d 5b12 83be
00000020: 5287 7a3e dbf4 1abe abce 473e 2024 c43c
00000030: 0637 b3bd 7212 73be 4bdf 0f3e 019e 2abe
00000040: f5b1 a13e 83fd 983e f59b 3a3c ab03 8a3e
00000050: 9118 3ebd 8966 80be 952a 163e a9c8 99be
00000060: 9e3f 9d3d 77a2 a2be 3e59 f2bd 950a a9be
00000070: a4b5 c9be 05dd 89be 2991 85be 6ed1 c03d
00000080: 7bd0 4d3e 9330 4dbd 6eb2 42be 83b9 efbe
00000090: ce7e 933e 11d7 593f 9879 5dbd 6a54 503e
000000a0: e692 c5bc 0ec7 a1be 0af6 7ebe a43f 953e
000000b0: b8a9 813e 3adf 7cbe aa9d adbc 0306 57be
000000c0: a013 5abd b280 f2bd c84b 78be 47ab 1b3e
000000d0: 2858 1c3d 8426 053f f406 393e f0a4 5a3d
000000e0: 84fc 80be 4c43 6e3d b6d4 4b3e 9e6e 8a3e
000000f0: d5cf 0ebe c76d d73d af63 203e f13a 1bbe
00000100: 8d48 c0bd f25c 59bc c7bb adbe e4e2 49be
00000110: 980f 23be 75c6 b73e 1a75 98be ee0c 9fbd
00000120: d813 8c3d 6094 193e 884f 95bc 9c88 03be
00000130: b976 4e3e c3a5 3d3e 7351 4fbe 6c4c a2be
00000140: 978f 47be c727 9e3e 9e06 2dbe 1119 073c
00000150: 136f 83be 3cf1 e13e 3d6e 0f3d e88b 85be
00000160: 9c64 29be 1e28 0fbe 9cd6 91be fbac a0be
00000170: d309 8e3c 3f3d aebd 4f3f 3abe 3e26 7d3e
00000180: ea58 dc3d 51fa a8bd da7d c8bd 1c8a ecbc
00000190: d860 303e 5d56 d03d a153 8f3e db3c 8b3d
000001a0: b24f c6bd 54eb b6bd 5982 373d 2824 243e
000001b0: c388 a53e d1a8 5abe 212b 513e 2a76 86be
000001c0: 202b 00be 84d7 60bd 1413 abbd 9ea2 d13e
000001d0: 8857 3c3c 68e5 1abe ead6 6e3d c5b1 0dbe
000001e0: f8b1 803d 42f1 173e 11fb 273e bbf6 a03e
000001f0: c005 4abe e3e4 34be 547b 1abe 7431 bb3e
00000200: 699c 253e 4f8b c7be b59e 343e bfab 73be
00000210: f868 a23e 50f9 033f adbd 7f3e 41e2 58be
00000220: 71ab 193e 2908 363e 62f3 fe3d 6225 1fbe
00000230: 4f6c b3be 9951 2ebe 7265 81be 020d 543e
00000240: 5fd6 013e e01a 963e f095 d9bd f2b6 673e
00000250: 2682 abbc 15e6 a4be a05d 2cbe dedc 81be
00000260: bd97 373e 4aac 95be 15af 843e 39f6 f6bd
00000270: fb00 503e 9d25 a3be f21b c93e 6449 b33e
00000280: a700 153d 58b1 38be 5ff3 cbbd f099 aa3d
00000290: 01db a4be 7bb7 d63d 970f a3be 71f1 86be
000002a0: eddd 9c3e c043 903e 27f4 bbbc 8cba f2bd
000002b0: 6f00 11be 1ebb 9c3e ada6 523e c160 5e3b
000002c0: 65f1 8ebe 35c8 1bbe dc20 803e faef 0c3d
000002d0: 135c bfbe 4b07 a43e ac27 383d 131b 5a3e
000002e0: 407a 47be 50fa 55be acbb 11be e8b7 90bd
000002f0: 9c8f 083e cf44 44be b585 a1be 8537 adbe
00000300: 0bba 12bd dce4 eabe 4cd1 4bbe a557 60be
00000310: 6be8 b03e ec1c a63e 8081 0c3d 20ef 003e
00000320: cdc8 3a3d e9a8 74bd 56e8 8a3e 8514 c4bc
00000330: 3399 3ebe 7527 aebe d7ff 833e 434d 4f3e
00000340: d333 71be 4791 bcbd 0679 98bd 6002 49bd
00000350: 2a65 b6be 40ca dbbe 8a5a ff3d 69f9 a4be
00000360: 0f7a c03c ed03 aa3c fb52 1d3e 8298 0fbe
00000370: aec5 4ebe ee4d 8e3e 50a2 ecbd 8289 a1bd
00000380: c38a 003e cccf 98bd 0c81 153e e337 b2be
00000390: 0300 823e 67b1 393d 88bb 9abe 321a 90be
000003a0: a0b5 7ebe 49ca b3bb 5909 3c3e 2463 703e
000003b0: b8d8 6b3e c22e 22be fe40 4cbe 4920 96be
000003c0: d2b7 1f3e 436e f5bd 74d0 8e3e f4ff a53d
000003d0: 114a 3a3e 61b4 8abe d387 a6bd 9118 873e
000003e0: 764b c5bd defb 9f3e 6e3c 1a3e 2498 7a3d
000003f0: ce0c 513e 5958 8abe 37ed 583e c026 103e

encoder.4.bias f4 [32]
-0.013869944 -0.0054059834 -0.0185128 -0.0005472281 0.044430286 -0.005101619 0.040836796 0.025602503
-0.05242753 0.029429628 -0.048749086 -0.013267262 -0.011557452 -0.057988092 -0.04836892 -0.030634075
-0.036824334 -0.022202203 0.0090612685 -0.032494895 -0.013897596 0.06952646 0.027486727 -0.01761085
0.008542064 0.017678255 0.014260823 0.03381912 -0.016360175 0.021782657 -0.0017882285 0.015044306
00000000: c33e 63bc ad24 b1bb 28a8 97bc db73 0fba
00000010: 88fc 353d 7b2b a7bb 7c44 273d 57bc d13c
00000020: 40be 56bd 6716 f13c 1fad 47bd ee5e 59bc
00000030: 785b 3dbc ec84 6dbd 7d1e 46bd 50f4 fabc
00000040: 1dd5 16bd 65e1 b5bc b775 143c 5e19 05bd
00000050: beb2 63bc e363 8e3d d82b e13c a144 90bc
00000060: 03f4 0b3c fdd1 903c 3aa6 693c eb85 0a3d
00000070: c605 86bc 8b71 b23c fe62 eaba 657c 763c

nee_decoder.0.weight f4 [16, 32]
0.10628088 0.037314977 -0.3347184 -0.26978967 -0.12854768 -0.026922815 -0.2256398 0.11356843
0.21610758 0.06992977 0.14713646 0.07258102 0.21171899 0.20564783 -0.16315173 0.008186166
0.13578525 0.19105259 -0.11050487 0.35158163 -0.1340656 0.14711222 -0.05800784 -0.2129486
0.3345603 0.1652395 -0.08710024 -0.15667297 -0.29264137 0.14391741 0.07196386 -0.15472758
-0.02147049 -0.20936736 -0.056525875 -0.2117438 0.33239597 0.27880195 0.0066948463 0.06680081
0.062158383 -0.24769029 -0.15951242 -0.3411987 0.26608598 -0.20393445 0.26040092 -0.0702025
0.22359568 0.26647615 -0.18965906 -0.16614969 -0.35455307 0.1134519 -0.021246012 -0.34953675
-0.21843883 0.07936582 -0.044557106 0.31985134 -0.2525876 -0.12133845 0.35986057 0.33151743
0.29160285 0.25098792 0.36241865 0.046114966 -0.14110185 0.1910886 0.18136927 0.31223455
0.32247385 -0.14003877 0.21761827 0.20200814 0.2254974 -0.05679078 0.16992491 -0.3432655
-0.11068056 -0.08642288 -0.14548494 -0.19269024 0.14343904 0.0018352142 0.32514372 -0.31890714
0.06422722 0.32716712 0.31059065 -0.07194874 -0.35883945 0.11758504 -0.13377076 0.32523707
0.032180805 -0.14311768 0.31934142 -0.113389336 0.28612074 -0.21950442 0.33801076 -0.34384888
0.2986882 0.14319661 0.066939026 -0.116646014 0.14962472 -0.30529624 0.31998163 -0.17427118
0.00031097967 0.34165683 0.07750201 0.28853372 -0.3475029 0.065331034 -0.011563062 -0.10977153
0.20467272 0.32102898 -0.29727313 -0.25650734 0.033991095 -0.12753533 -0.07060498 -0.18636486
-0.06138389 0.16141227 0.1264123 0.12738387 -0.06943466 0.28286418 -0.3440618 0.046011545
-0.15209976 0.29688057 0.23681805 0.09518878 0.123826936 -0.20336533 -0.04937204 -0.15826575
-0.0059108003 -0.1437854 -0.162394 -0.141618 0.10614818 0.29585886 -0.046523333 -0.014442882
-0.29205236 -0.09330604 -0.081279054 -0.1805102 0.14252901 0.13125013 0.23037826 -0.14055611
-0.30018649 -0.11606597 0.01163645 -0.13041587 -0.06900046 0.28098047 -0.33939132 -0.019084599
0.34971958 -0.16395462 0.13054599 -0.1907319 -0.17061035 -0.3262256 0.31739193 -0.21861081
-0.025157243 0.3145243 -0.026771003 0.22141269 0.23173386 0.29320082 -0.3252113 0.3104612
-0.106989436 -0.280279 0.20197633 -0.33539346 -0.012796668 -0.07108504 0.33893374 -0.03942804
-0.1461688 0.17637005 -0.23713797 0.34990984 0.28350532 -0.23435758 0.073374785 -0.18960483
0.06567007 0.2813736 -0.22687693 -0.22274324 -0.296871 0.062223252 0.03290676 0.08698872
0.2839247 -0.19339937 -0.25029308 0.29040876 0.333071 0.25786775 0.022265064 -0.14000957
0.20698516 -0.0070661996 0.05296366 -0.2828445 0.3294421 -0.33447656 0.31377035 0.22143734
-0.0627156 -0.35173747 -0.07130896 -0.063184306 0.22117189 0.2658966 0.23344149 -0.16748804
0.3113375 -0.06954429 -0.0047474126 -0.031910535 0.34629238 0.18478993 0.1740764 -0.10514794
-0.12673901 0.07671605 0.11056896 0.25643003 -0.1930134 -0.04865716 -0.18263263 -0.08767061
-0.07394819 0.3028386 0.17979008 -0.20739953 -0.033493925 0.13515946 -0.22131754 -0.14670447
00000000: caa9 d93d 97d7 183d 3660 abbe df21 8abe
00000010: 01a2 03be 3c8d dcbc 1f0e 67be 9196 e83d
00000020: 4e4b 5d3e 5737 8f3d f1aa 163e 5ca5 943d
00000030: ddcc 583e 5895 523e 3f11 27be 451f 063c
00000040: 4a0b 0b3e 4aa3 433e 6150 e2bd 8202 b43e
00000050: 7e48 09be 96a4 163e a199 6dbd 330f 5abe
00000060: 7d4b ab3e 8b34 293e 9c61 b2bd e16e 20be
00000070: 17d5 95be 165f 133e ca61 933d e870 1ebe
00000080: e2e2 afbc 6664 56be ad87 67bd 5ed3 58be
00000090: ce2f aa3e 21bf 8e3e 7160 db3b ddce 883d
000000a0: ca99 7e3d 86a2 7dbe 3957 23be 99b1 aebe
000000b0: 6c3c 883e 31d4 50be 4553 853e 54c6 8fbd
000000c0: 44f6 643e 906f 883e fc35 42be 2523 2abe
000000d0: fb87 b5be 7859 e83d 1e0c aebc 7bf6 b2be
000000e0: 6eae 5fbe 8c8a a23d 8381 36bd 8ec3 a33e
000000f0: 2953 81be 4b80 f8bd a53f b83e a7bc a93e
00000100: f84c 953e 7d81 803e f08e b93e 0ce3 3c3d
00000110: 017d 10be bbac 433e deb8 393e 35dd 9f3e
00000120: 4b1b a53e 5366 0fbe 53d7 5e3e 39db 4e3e
00000130: cae8 663e 739d 68bd cc00 2e3e 7fc0 afbe
00000140: 7dac e2bd 7bfe b0bd 01fa 14be 9750 45be
00000150: afe1 123e 928b f03a 3d79 a63e cc47 a3be
00000160: 9089 833d 7382 a73e bd05 9f3e dc59 93bd
00000170: ceb9 b7be 6dd0 f03d 34fb 08be 7985 a63e
00000180: 05d0 033d 718d 12be b880 a33e ab38 e8bd
00000190: 6b7e 923e c4c5 60be bf0f ad3e f60c b0be
000001a0: a9ed 983e 22a2 123e 5417 893d 1be4 eebd
000001b0: 3937 193e ca4f 9cbe a2d4 a33e 2574 32be
000001c0: fc0a a339 a5ed ae3e 60b9 9e3d b1ba 933e
000001d0: e6eb b1be 47cc 853d ff72 3dbc e5cf e0bd
000001e0: ba95 513e e95d a43e 2f34 98be ee54 83be
000001f0: 3f3a 0b3d 9f98 02be 5899 90bd 6ed6 3ebe
00000200: ad6d 7bbd 4249 253e 3a72 013e eb70 023e
00000210: c233 8ebd 93d3 903e de28 b0be 9a76 3c3d
00000220: 0ac0 1bbe bb00 983e 6e80 723e 56f2 c23d
00000230: fa98 fd3d 003f 50be 563a 4abd 6b10 22be
00000240: 63af c1bb 7b3c 13be 9d4a 26be 4f04 11be
00000250: 3864 d93d d07a 973e 408f 3ebd d6a1 6cbc
00000260: e387 95be 3d17 bfbd a275 a6bd aad7 38be
00000270: 20f3 113e 6f66 063e 47e8 6b3e f1ed 0fbe
00000280: 0bb2 99be ffb3 edbd cfa6 3e3c bd8b 05be
00000290: 1d50 8dbd acdc 8f3e b3c4 adbe 4e57 9cbc
000002a0: 720e b33e b8e3 27be d9ad 053e 394f 43be
000002b0: 7bb4 2ebe 0b07 a7be 3281 a23e 83db 5fbe
000002c0: 9016 cebc 5409 a13e dd4e dbbc 02ba 623e
000002d0: a44b 6d3e 6b1e 963e 1882 a6be c5f4 9e3e
000002e0: 471d dbbd bb80 8fbe e2d2 4e3e b1b8 abbe
000002f0: 1ea9 51bc 0995 91bd b988 ad3e 4c7f 21bd
00000300: 46ad 15be 5a9a 343e 4cd4 72be 6227 b33e
00000310: 9c27 913e 6ffb 6fbe 8545 963d c527 42be
00000320: 087e 863d 3310 903e 6d52 68be ce16 64be
00000330: 7aff 97be cfdd 7e3d 3dc9 063d 2427 b23d
00000340: 945e 913e 7c0a 46be 6a26 80be 75b0 943e
00000350: 4888 aa3e 3e07 843e 3965 b63c ab5e 0fbe
00000360: ebf3 533e 948b e7bb 6cf0 583d ffd0 90be
00000370: a3ac a83e 8340 abbe 82a6 a03e 78c0 623e
00000380: 0971 80bd ef16 b4be 6f0a 92bd c666 81bd
00000390: e27a 623e 9923 883e 490b 6f3e fc81 2bbe
000003a0: a167 9f3e 3d6d 8ebd 2f90 9bbb 9fb4 02bd
000003b0: 3c4d b13e 9239 3d3e 1541 323e ce57 d7bd
000003c0: dfc7 01be 4e1d 9d3d fb71 e23d cc4a 833e
000003d0: 4ea5 45be bb4c 47bd 0c04 3bbe a68c b3bd
000003e0: 2672 97bd a90d 9b3e e41a 383e 8b60 54be
000003f0: ed30 09bd 3e67 0a3e 11a1 62be b239 16be

nee_decoder.0.bias f4 [16]
0.032114245 -0.116992705 0.081947185 -0.0043911813 0.0 0.0 0.0061325626 0.012840176
0.07523822 -0.0040980633 -0.010331664 -0.013344562 0.040793095 -0.052069165 0.0 -0.021386344
00000000: 3a8a 033d df99 efbd edd3 a73d e6e3 8fbb
00000010: 0000 0000 0000 0000 aaf3 c83b 9a5f 523c
00000020: 7f16 9a3d 0c49 86bb 2446 29bc 26a3 5abc
00000030: a916 273d 7a46 55bd 0000 0000 6a32 afbc

nee_decoder.2.weight f4 [16, 16]
0.17365482 -0.38756773 -0.1677369 0.22710626 0.04691808 0.4218646 -0.22443321 -0.19525759
0.19979434 0.2595169 0.054973025 0.1388473 0.47637677 -0.22669908 -0.34762412 -0.2504776
0.3045595 0.253347 0.037989475 -0.16513865 0.27374148 -0.062000003 0.17305604 -0.34676525
-0.24738899 0.38811758 -0.056106444 0.36681625 0.074153 -0.03692653 0.1702825 0.12564039
-0.25441042 -0.3367343 -0.3649074 -0.16897777 0.29330236 -0.28543586 -0.09799836 -0.16482063
-0.13187447 -0.29709312 -0.26825556 0.038086887 -0.025779549 0.3954447 0.28023028 0.2045639
0.27084538 0.13762645 0.13578993 0.32949206 -0.33615753 -0.25543043 0.040977325 0.31576648
0.40503705 -0.09137418 0.22550754 -0.20475276 -0.0785913 -0.43855298 -0.2249724 0.050668187
-0.09797993 -0.1935124 -0.42523602 0.04174109 0.35036013 -0.37527865 0.16228668 0.072029546
0.025578005 -0.065201834 -0.033373784 0.40643808 -0.39433444 -0.11724068 -0.114704534 -0.15084505
-0.7681495 -0.6039404 0.45636153 0.2145045 -0.42446765 0.35206166 -0.114440896 -0.40269265
0.37401384 -0.34416318 -0.13405862 0.07781257 0.349002 -0.12247063 0.08312493 0.08892719
-0.40919518 -0.2535972 0.20931548 0.36391667 -0.11365403 0.24159129 -0.3883243 0.034564193
-0.17760392 0.0318471 0.31071335 0.39680094 0.21565853 0.00015079498 0.37066963 -0.08919382
-0.12510285 0.0022500707 0.16226612 -0.047230918 -0.39335814 0.14056768 0.20787482 0.3896535
0.24033946 0.15098776 -0.3826368 0.3704839 0.09912516 -0.38560775 0.15078518 -0.40287903
-0.24148667 0.41063035 0.1856414 0.4163394 -0.2593769 0.3825314 -0.37404364 0.26288307
-0.119794 0.12844981 0.29343697 -0.19115798 0.43570727 -0.30416992 0.27859378 -0.26470557
-0.17049876 0.34514445 -0.1319272 0.11202823 0.41959116 -0.12602817 0.23473702 -0.41393572
0.37756577 0.24767211 -0.24026868 0.20944223 0.17999198 0.37744132 0.2917314 0.24817951
-0.22435066 0.21468829 -0.30963564 0.333047 0.32175064 -0.18797712 -0.041318897 -0.020994876
0.15223642 0.36981803 -0.05113879 0.41134068 -0.24806082 -0.15475811 0.033505205 -0.09562456
-0.01310623 0.14589648 -0.43349394 -0.22974187 -0.089091584 0.3019481 0.13143407 0.22617634
0.30398163 -0.1655549 0.15992427 -0.18621816 -0.29289585 0.104421005 -0.1192656 -0.4630555
-0.4073962 -0.43162167 0.027335525 0.2732176 -0.061730962 0.25932607 -0.24706107 -0.10997916
0.25738266 0.24482462 -0.26938894 -0.116524205 0.11320249 -0.033916518 0.28771535 0.06405605
-0.37094218 0.24852626 0.018794011 0.33476418 -0.2572329 -0.10964188 0.37766945 0.092952125
-0.21499355 0.17629334 -0.42426935 -0.25893128 -0.36271265 -0.29896313 0.15272532 0.07112209
-0.40437073 -0.04067464 -0.28707814 0.35797808 0.13244583 -0.02281571 0.18168904 -0.09321958
-0.22298464 -0.17188871 -0.26661333 0.15936281 0.20882787 0.13699827 -0.2858258 -0.009675918
0.22735742 0.18350813 0.42957795 0.16909996 -0.40576485 0.29129395 0.0040477947 0.43849477
0.32848293 0.067837715 -0.40742368 0.09215142 0.1939053 0.029215107 0.255774 0.2598005
00000000: 92d2 313e 476f c6be 39c3 2bbe 8b8e 683e
00000010: 2c2d 403d a3fe d73e d2d1 65be 9bf1 47be
00000020: e396 4c3e 66df 843e 652b 613d fd2d 0e3e
00000030: a8e7 f33e ce23 68be cafb b1be 9a3e 80be
00000040: 39ef 9b3e b3b6 813e da9a 1b3d 1b1a 29be
00000050: d827 8c3e b7f3 7dbd 9a35 313e 378b b1be
00000060: 8a53 7dbe 59b7 c63e dfcf 65bd 57cf bb3e
00000070: 87dd 973d 4640 17bd 895e 2e3e e0a7 003e
00000080: 1542 82be 7068 acbe 25d5 babe 8208 2dbe
00000090: ba2b 963e a624 92be 5db3 c8bd bdc6 28be
000000a0: 1a0a 07be 971c 98be cb58 89be ff00 1c3d
000000b0: a22f d3bc ba77 ca3e 587a 8f3e 3379 513e
000000c0: 3fac 8a3e f3ed 0c3e 840c 0b3e 2fb3 a83e
000000d0: d71c acbe c7c7 82be d7d7 273d 25ac a13e
000000e0: 0461 cf3e 6322 bbbd 73eb 663e b5aa 51be
000000f0: 7af4 a0bd 048a e0be 2a5f 66be 7289 4f3d
00000100: b4a9 c8bd 1d28 46be 89b8 d9be b5f8 2a3d
00000110: 6762 b33e 8624 c0be 7b2e 263e 3a84 933d
00000120: f788 d13c 8a88 85bd f3b2 08bd a718 d03e
00000130: 34e6 c9be e21b f0bd 36ea eabd 2077 1abe
00000140: 72a5 44bf d79b 1abf 38a8 e93e 11a7 5b3e
00000150: d353 d9be 6d41 b43e fd5f eabd bb2d cebe
00000160: be7e bf3e 2836 b0be aa46 09be 325c 9f3d
00000170: 64b0 b23e e2d1 fabd 673d aa3d 751f b63d
00000180: 0882 d1be 7ed7 81be cc56 563e 4953 ba3e
00000190: 72c3 e8bd b563 773e 71d2 c6be 2f93 0d3d
000001a0: cddd 35be 1b72 023d d215 9f3e 7e29 cb3e
000001b0: 97d5 5c3e b81e 1e39 69c8 bd3e 40ab b6bd
000001c0: f61a 00be ec75 133b 1729 263e 3575 41bd
000001d0: 3d66 c9be f9f0 0f3e 23dd 543e aa80 c73e
000001e0: 8c1b 763e 899c 1a3e f8e8 c3be 11b0 bd3e
000001f0: 2202 cb3d 616e c5be 6e67 1a3e 2946 cebe
00000200: 4848 77be 243e d23e c718 3e3e 702a d53e
00000210: 0dcd 84be 28db c33e a682 bfbe 9c98 863e
00000220: 8f56 f5bd 5988 033e 5f3d 963e ebbe 43be
00000230: 0615 df3e 29bc 9bbe d8a3 8e3e 7d87 87be
00000240: 3a97 2ebe c6b6 b03e ed17 07be 0f6f e53d
00000250: a7d4 d63e 870d 01be e75e 703e 62ef d3be
00000260: 4d50 c13e c29d 7d3e fe08 76be 0678 563e
00000270: d14f 383e fd3f c13e d15d 953e c522 7e3e
00000280: 2ebc 65be 3fd7 5b3e 9088 9ebe 2385 aa3e
00000290: 80bc a43e 137d 40be 013e 29bd 72fd abbc
000002a0: dde3 1b3e ca58 bd3e e876 51bd 3f9b d23e
000002b0: a803 7ebe e978 1ebe c13c 093d cfd6 c3bd
000002c0: 83bb 56bc e365 153e ebf2 ddbe 7441 6bbe
000002d0: a675 b6bd f198 9a3e a796 063e c59a 673e
000002e0: 7ba3 9b3e 3987 29be 30c3 233e f9af 3ebe
000002f0: 72f6 95be aeda d53d 8641 f4bd 9c15 edbe
00000300: 3c96 d0be 84fd dcbe c0ee df3c 2de3 8b3e
00000310: 9bd9 7cbd 63c6 843e 94fd 7cbe c13c e1bd
00000320: a9c7 833e 4eb3 7a3e 59ed 89be 3ea4 eebd
00000330: b5d6 e73d 0cec 0abd 6d4f 933e d12f 833d
00000340: 22ec bdbe ab7d 7e3e e6f5 993c 3666 ab3e
00000350: 08b4 83be ec8b e0bd e45d c13e af5d be3d
00000360: 4527 5cbe 3e86 343e d539 d9be a492 84be
00000370: 79b5 b9be b211 99be 0764 1c3e 75a8 913d
00000380: ae09 cfbe 749a 26bd e8fb 92be e748 b73e
00000390: e19f 073e 03e8 babc b10c 3a3e e8e9 bebd
000003a0: 1656 64be 9803 30be 8b81 88be 0130 233e
000003b0: f9d6 553e 4649 0c3e c257 92be be87 1ebc
000003c0: 62d0 683e 8ee9 3b3e a4f1 db3e 8a28 2d3e
000003d0: 69c0 cfbe 7b24 953e 5da3 843b 6382 e03e
000003e0: ea2e a83e 80ee 8a3d d699 d0be e2b9 bc3d
000003f0: 1c8f 463e 8554 ef3c cff4 823e 9204 853e

nee_decoder.2.bias f4 [16]
0.052681405 0.011383802 -0.007511583 -0.031735428 0.0 0.05627507 -0.0006246811 0.04442717
-0.023084262 -0.053379018 -0.04198161 -0.032149293 0.05277427 0.0 -0.008464751 0.05286292
00000000: 75c8 573d 2083 3a3c ba23 f6bb 02fd 01bd
00000010: 0000 0000 b080 663d a4c1 23ba 44f9 353d
00000020: 351b bdbc f5a3 5abd e9f4 2bbd faae 03bd
00000030: d529 583d 0000 0000 bdaf 0abc ca86 583d

nee_decoder.4.weight f4 [1, 16]
0.48727795 0.07408461 -0.4796517 -0.22025283 -0.11035415 0.43282604 -0.55823 0.4621611
0.62198377 -0.3096735 -0.6079151 -0.43968564 0.34079266 0.34614787 -0.48592454 0.472075
00000000: 7f7c f93e acb9 973d e894 f5be f589 61be
00000010: 5b01 e2bd 609b dd3e 29e8 0ebf 61a0 ec3e
00000020: 543a 1f3f 868d 9ebe 53a0 1bbf 7a1e e1be
00000030: 607c ae3e 4b3a b13e 1acb f8be d0b3 f13e

fc_mu.0.weight f4 [4, 32]
-0.09128881 0.27291363 0.1917608 0.40543634 -0.2791159 0.25600424 -0.02024975 0.29647934
0.15498115 -0.36053 0.30903545 0.037584983 -0.19471833 0.19640708 0.2205387 -0.22664168
0.1842415 0.1662513 0.32385755 -0.14521378 0.34532428 0.2929096 -0.30301026 -0.1767644
0.32580224 0.26434347 0.23667745 -0.22075653 0.18515794 0.1345375 -0.10744835 -0.37084398
0.38434586 -0.05974407 0.40552318 0.218022 -0.3738737 -0.36516085 0.3496682 -0.36187306
-0.32903087 -0.21123505 -0.20160337 -0.0048969095 0.34890923 0.1841252 0.062078506 -0.033303786
-0.119590126 -0.0930192 -0.3279718 0.43333396 0.052229155 -0.30986264 -0.29565787 0.042693138
0.10517088 -0.35566843 -0.076504804 -0.25774303 -0.002584161 0.40163824 -0.15626556 0.0052802293
-0.08421073 0.19268496 -0.55375934 0.363759 0.11591177 0.2139932 0.39798418 0.26529238
-0.14896378 -0.22347982 -0.3324334 0.32778063 -0.08889879 -0.16504999 -0.31472254 -0.074687295
-0.32179832 -0.2829288 -0.41351908 0.38831297 -0.0067416066 0.22115898 -0.08243612 0.0030691775
0.29576382 0.44466475 -0.19813678 -0.101368524 -0.18277198 0.33033052 0.13004088 0.27723774
0.24393107 -0.2704761 0.06771369 -0.25588718 -0.032126345 0.09348199 -0.012590004 -0.19725831
0.40701047 -0.40129676 -0.31322265 0.13251448 -0.17646797 0.09182395 0.23462059 0.26111233
-0.28607956 0.17204526 0.24469145 0.08994108 -0.29497603 0.35984465 -0.26181784 -0.40266055
0.19485635 0.19907466 0.1925179 -0.18832383 0.33531567 -0.30799255 0.018483091 -0.18179661
00000000: a1f5 babd 56bb 8b3e f15c 443e 5a95 cf3e
00000010: 47e8 8ebe fd12 833e cee2 a5bc 24cc 973e
00000020: 61b3 1e3e 6397 b8be e539 9e3e b6f2 193d
00000030: 3e64 47be f01e 493e e6d4 613e c214 68be
00000040: cea9 3c3e c83d 2a3e a8d0 a53e ecb2 14be
00000050: 58ce b03e 3ff8 953e 2924 9bbe ba01 35be
00000060: 8dcf a63e 0758 873e 935b 723e 000e 62be
00000070: 0b9a 3d3e 33c4 093e e10d dcbd 43df bdbe
00000080: fbc8 c43e 33b6 74bd bca0 cf3e 2941 5f3e
00000090: 606c bfbe 5df6 babe b607 b33e 6d47 b9be
000000a0: bc76 a8be 004e 58be 1d71 4ebe 4176 a0bb
000000b0: 3ba4 b23e 518b 3c3e 0846 7e3d 8d69 08bd
000000c0: abeb f4bd da80 bebd ebeb a7be f3dd dd3e
000000d0: 3dee 553d 51a6 9ebe 7860 97be 00df 2e3d
000000e0: d563 d73d 2c1a b6be 8dae 9cbd e5f6 83be
000000f0: 075b 29bb 87a3 cd3e 1404 20be c605 ad3b
00000100: ad76 acbd 354f 453e 2cc3 0dbf 9f3e ba3e
00000110: 2663 ed3d 0921 5b3e 95c4 cb3e 67d4 873e
00000120: f689 18be e5d7 64be b634 aabe ddd2 a73e
00000130: 9210 b6bd dd02 29be 5023 a1be a7f5 98bd
00000140: c0c2 a4be 0bdc 90be c6b8 d3be f5d0 c63e
00000150: b2e8 dcbb 8077 623e 45d4 a8bd 4124 493b
00000160: 5b6e 973e 19ab e33e 5ee4 4abe 4d9a cfbd
00000170: 9428 3bbe 1521 a93e 7029 053e 1bf2 8d3e
00000180: 11c9 793e d87b 8abe 7aad 8a3d a503 83be
00000190: ea96 03bd 7c73 bf3d 4e46 4ebc 15fe 49be
000001a0: ad63 d03e c576 cdbe b85e a0be e0b1 073e
000001b0: 05b4 34be 320e bc3d 6140 703e 84b0 853e
000001c0: 0579 92be a22c 303e 6590 7a3e 0733 b83d
000001d0: 1907 97be 8f3d b83e fd0c 86be 8629 cebe
000001e0: 6c88 473e 3ada 4b3e 6a23 453e f6d7 40be
000001f0: 7fae ab3e 33b1 9dbe da69 973c e428 3abe

fc_mu.0.bias f4 [4]
0.0 -0.18247475 0.23004295 0.0
00000000: 0000 0000 a9da 3abe 6190 6b3e 0000 0000

fc_mu.2.weight f4 [1, 4]
-0.79643303 -0.105442226 0.59684646 -0.15744759
00000000: 09e3 4bbf 18f2 d7bd eeca 183f f139 21be

fc_logvar.0.weight f4 [4, 32]
-0.09128881 0.27291363 0.1917608 0.40543634 -0.2791159 0.25600424 -0.02024975 0.29647934
0.15498115 -0.36053 0.30903545 0.037584983 -0.19471833 0.19640708 0.2205387 -0.22664168
0.1842415 0.1662513 0.32385755 -0.14521378 0.34532428 0.2929096 -0.30301026 -0.1767644
0.32580224 0.26434347 0.23667745 -0.22075653 0.18515794 0.1345375 -0.10744835 -0.37084398
0.38434586 -0.05974407 0.40552318 0.218022 -0.3738737 -0.36516085 0.3496682 -0.36187306
-0.32903087 -0.21123505 -0.20160337 -0.0048969095 0.34890923 0.1841252 0.062078506 -0.033303786
-0.119590126 -0.0930192 -0.3279718 0.43333396 0.052229155 -0.30986264 -0.29565787 0.042693138
0.10517088 -0.35566843 -0.076504804 -0.25774303 -0.002584161 0.40163824 -0.15626556 0.0052802293
-0.08421073 0.19268496 -0.55375934 0.363759 0.11591177 0.2139932 0.39798418 0.26529238
-0.14896378 -0.22347982 -0.3324334 0.32778063 -0.08889879 -0.16504999 -0.31472254 -0.074687295
-0.32179832 -0.2829288 -0.41351908 0.38831297 -0.0067416066 0.22115898 -0.08243612 0.0030691775
0.29576382 0.44466475 -0.19813678 -0.101368524 -0.18277198 0.33033052 0.13004088 0.27723774
0.24393107 -0.2704761 0.06771369 -0.25588718 -0.032126345 0.09348199 -0.012590004 -0.19725831
0.40701047 -0.40129676 -0.31322265 0.13251448 -0.17646797 0.09182395 0.23462059 0.26111233
-0.28607956 0.17204526 0.24469145 0.08994108 -0.29497603 0.35984465 -0.26181784 -0.40266055
0.19485635 0.19907466 0.1925179 -0.18832383 0.33531567 -0.30799255 0.018483091 -0.18179661
00000000: a1f5 babd 56bb 8b3e f15c 443e 5a95 cf3e
00000010: 47e8 8ebe fd12 833e cee2 a5bc 24cc 973e
00000020: 61b3 1e3e 6397 b8be e539 9e3e b6f2 193d
00000030: 3e64 47be f01e 493e e6d4 613e c214 68be
00000040: cea9 3c3e c83d 2a3e a8d0 a53e ecb2 14be
00000050: 58ce b03e 3ff8 953e 2924 9bbe ba01 35be
00000060: 8dcf a63e 0758 873e 935b 723e 000e 62be
00000070: 0b9a 3d3e 33c4 093e e10d dcbd 43df bdbe
00000080: fbc8 c43e 33b6 74bd bca0 cf3e 2941 5f3e
00000090: 606c bfbe 5df6 babe b607 b33e 6d47 b9be
000000a0: bc76 a8be 004e 58be 1d71 4ebe 4176 a0bb
000000b0: 3ba4 b23e 518b 3c3e 0846 7e3d 8d69 08bd
000000c0: abeb f4bd da80 bebd ebeb a7be f3dd dd3e
000000d0: 3dee 553d 51a6 9ebe 7860 97be 00df 2e3d
000000e0: d563 d73d 2c1a b6be 8dae 9cbd e5f6 83be
000000f0: 075b 29bb 87a3 cd3e 1404 20be c605 ad3b
00000100: ad76 acbd 354f 453e 2cc3 0dbf 9f3e ba3e
00000110: 2663 ed3d 0921 5b3e 95c4 cb3e 67d4 873e
00000120: f689 18be e5d7 64be b634 aabe ddd2 a73e
00000130: 9210 b6bd dd02 29be 5023 a1be a7f5 98bd
00000140: c0c2 a4be 0bdc 90be c6b8 d3be f5d0 c63e
00000150: b2e8 dcbb 8077 623e 45d4 a8bd 4124 493b
00000160: 5b6e 973e 19ab e33e 5ee4 4abe 4d9a cfbd
00000170: 9428 3bbe 1521 a93e 7029 053e 1bf2 8d3e
00000180: 11c9 793e d87b 8abe 7aad 8a3d a503 83be
00000190: ea96 03bd 7c73 bf3d 4e46 4ebc 15fe 49be
000001a0: ad63 d03e c576 cdbe b85e a0be e0b1 073e
000001b0: 05b4 34be 320e bc3d 6140 703e 84b0 853e
000001c0: 0579 92be a22c 303e 6590 7a3e 0733 b83d
000001d0: 1907 97be 8f3d b83e fd0c 86be 8629 cebe
000001e0: 6c88 473e 3ada 4b3e 6a23 453e f6d7 40be
000001f0: 7fae ab3e 33b1 9dbe da69 973c e428 3abe

fc_logvar.0.bias f4 [4]
0.0 -0.18247475 0.23004295 0.0
00000000: 0000 0000 a9da 3abe 6190 6b3e 0000 0000

fc_logvar.2.weight f4 [1, 4]
-0.04220932 -1.6790233 0.31420615 -0.033889607
00000000: aee3 2cbd 3cea d6bf a1df a03e d4cf 0abd

temp_derivative_decoder.0.weight f4 [16, 32]
0.020688917 0.34042045 0.32148826 -0.017112842 -0.19337682 0.35281292 -0.24223934 -0.072464295
-0.13105537 0.21053961 -0.015528753 -0.19861846 0.17431313 0.23614517 0.14320336 -0.097473055
-0.09086076 0.32077414 -0.12558989 -0.34256104 0.31634605 0.19431737 -0.21634871 0.11412308
0.113728635 0.29194823 0.07627939 -0.16470878 -0.21294864 0.24454325 -0.16952735 -0.325011
-0.06642389 0.0908365 -0.018943233 0.049866095 -0.08329291 0.19631578 0.09067159 0.13303795
0.012265244 0.24215887 0.23751017 -0.15462886 -0.24234106 -0.0016739479 0.2551164 0.08726262
0.2555017 -0.07444061 -0.08620224 0.08748251 -0.07399845 -0.22757594 0.13657364 -0.14613183
-0.19090535 -0.18175009 0.22292519 -0.20254382 -0.15622641 -0.26452348 -0.12890172 -0.35705882
0.17212032 -0.22856484 0.24057622 0.037414063 0.29100713 -0.15136015 -0.3002714 0.32923132
0.25983796 0.32527468 0.07064167 -0.054051675 0.12247724 0.32991844 0.02032251 -0.28802758
-0.34557638 -0.314539 -0.32826146 -0.19039986 0.21304081 -0.28333765 -0.19847196 0.37259975
0.2091553 0.22394422 0.25758997 0.10019998 0.093330376 -0.041977067 0.147593 0.16679779
-0.29082355 0.2266146 -0.040917154 0.12891564 0.01499791 0.037512768 0.18498698 -0.35986808
-0.3504028 0.2774851 -0.004957374 -0.19901416 0.10923126 -0.3489994 -0.053054675 -0.14582434
-0.0944976 -0.02080726 0.19527847 0.16156632 -0.09680735 -0.018354718 -0.2516093 -0.04172719
0.02716051 0.10994894 -0.0015068654 0.050325908 -0.10276001 -0.3587116 -0.005913404 -0.37019828
-0.011481864 0.30704314 0.16000228 0.294864 0.3500618 -0.00035411713 -0.33833733 0.20562397
0.24281654 0.33067244 -0.31768128 -0.10032982 -0.18006064 0.36306268 -0.31751722 0.16015615
0.15772872 -0.104974136 -0.25693673 0.03907765 -0.2365582 -0.2953023 0.2789397 -0.17718396
-0.050953634 0.09300118 0.053531583 0.021104466 0.1555969 0.27565438 -0.31027654 -0.028765416
-0.17213535 -0.068569474 -0.26645267 -0.053237233 -0.0073446855 0.11872643 0.10452321 0.05251174
0.29622415 0.35277608 0.046217274 -0.13635229 0.3044563 0.26982462 0.29678917 0.17568423
0.35460582 0.25098372 -0.26033282 0.07962494 0.20983233 -0.18956462 0.21027708 0.2022583
-0.08714145 -0.0075102216 -0.3216343 0.34310663 0.338138 -0.058002494 0.21173064 -0.25300917
-0.07848728 -0.2390219 0.19661812 -0.0071206987 -0.19545937 -0.022983234 -0.17815125 0.32425836
-0.07757374 0.18551423 -0.21316326 0.22366701 -0.032254998 0.14328308 -0.24275921 -0.026534474
-0.17253289 -0.23556805 0.2372493 0.25014228 -0.35645157 0.00041960727 0.18911766 -0.18867478
-0.190333 0.21384147 -0.2348898 0.023676058 0.087533064 -0.20749395 -0.13488412 0.074195094
0.28949928 -0.15108429 0.01984411 -0.08014033 0.083302535 -0.15577655 -0.11316394 0.17349248
0.31425273 0.17037784 0.32739797 -0.035261616 0.33587596 0.20902796 0.26073208 0.19155747
0.27367246 -0.34415945 -0.20745866 0.08212119 -0.25932735 -0.26952815 -0.17144004 0.12418333
0.16306886 -0.083263576 -0.22249496 0.2470098 0.27361634 -0.11623724 -0.055462454 -0.19995534
00000000: ce7b a93c 974b ae3e 1c9a a43e 3b30 8cbc
00000010: 9304 46be e5a3 b43e 970d 78be 2968 94bd
00000020: 6133 06be b297 573e 506c 7ebc a362 4bbe
00000030: 247f 323e 0ad0 713e e7a3 123e f49f c7bd
00000040: 3515 babd 823c a43e a39a 00be 2964 afbe
00000050: 1cf8 a13e 22fb 463e 848a 5dbe 5db9 e93d
00000060: 8fea e83d 3d7a 953e 5e38 9c3d 6ba9 28be
00000070: 350f 5abe 8c69 7a3e 9498 2dbe d767 a6be
00000080: 4009 88bd 7d08 ba3d d72e 9bbc 6440 4c3d
00000090: 7995 aabd 0107 493e 07b2 b93d 1a3b 083e
000000a0: 29f4 483c 7ff8 773e de35 733e 0757 1ebe
000000b0: 4128 78be 5f68 dbba 9e9e 823e bfb6 b23d
000000c0: 1ed1 823e 5274 98bd cd8a b0bd 082a b33d
000000d0: 808c 97bd ab09 69be f6d9 0b3e 95a3 15be
000000e0: b17c 43be b21c 3abe 8046 643e a667 4fbe
000000f0: d1f9 1fbe 9f6f 87be d0fe 03be 6ad0 b6be
00000100: 4f40 303e e70c 6abe 9d59 763e 7d3f 193d
00000110: e3fe 943e 28fe 1abe 2cbd 99be 0291 a83e
00000120: 7b09 853e 678a a63e 94ac 903d 4a65 5dbd
00000130: 59d5 fa3d 12eb a83e 647b a63c 5a78 93be
00000140: 63ef b0be 410b a1be e311 a8be 2ef8 42be
00000150: 5f27 5a3e a211 91be 3c3c 4bbe 65c5 be3e
00000160: cf2c 563e a251 653e d5e2 833e a635 cd3d
00000170: ff23 bf3d 25f0 2bbd 9f22 173e 0acd 2a3e
00000180: d3e6 94be a80d 683e bf98 27bd 7602 043e
00000190: cbb9 753c fda6 193d 3a6d 3d3e a140 b8be
000001a0: ff67 b3be 8712 8e3e 7871 a2bb 5eca 4bbe
000001b0: a4b4 df3d 0db0 b2be dc4f 59bd fa52 15be
000001c0: f587 c1bd fd73 aabc 14f7 473e a471 253e
000001d0: ef42 c6bd a25c 96bc efd2 80be 21ea 2abd
000001e0: b87f de3c e92c e13d 0382 c5ba 8a22 4e3d
000001f0: d773 d2bd 0ca9 b7be 3ac5 c1bb a18a bdbe
00000200: 6e1e 3cbc c234 9d3e a3d7 233e 6af8 963e
00000210: 4d3b b33e cca8 b9b9 8d3a adbe 178f 523e
00000220: e6a4 783e e64d a93e 1fa7 a2be b879 cdbd
00000230: d161 38be 5ae3 b93e 9e91 a2be f9ff 233e
00000240: a383 213e aefc d6bd 368d 83be e30f 203d
00000250: 503c 72be dd31 97be 2fd1 8e3e b66f 35be
00000260: c2b4 50bd 6777 be3d ef43 5b3d 46e3 ac3c
00000270: cb54 1f3e 9222 8d3e 91dc 9ebe 73a5 ebbc
00000280: 4044 30be 276e 8cbd 7c6c 88be 490f 5abd
00000290: b0ab f0bb d826 f33d 4410 d63d 8d16 573d
000002a0: b1aa 973e 119f b43e 534e 3d3d ef9f 0bbe
000002b0: b2e1 9b3e 7426 8a3e c0f4 973e 91e6 333e
000002c0: e58e b53e f080 803e 584a 85be 6712 a33d
000002d0: 49de 563e 3a1d 42be e052 573e cd1c 4f3e
000002e0: 3777 b2bd 4e18 f6bb 40ad a4be acab af3e
000002f0: 6d20 ad3e 0694 6dbd ebcf 583e 6b8a 81be
00000300: f0bd a0bd 28c2 74be 4356 493e c054 e9bb
00000310: 8026 48be 5647 bcbc 486d 36be 3105 a63e
00000320: fbde 9ebd 71f7 3d3e 7847 5abe f708 653e
00000330: d11d 04bd cdb8 123e df95 78be d35e d9bc
00000340: 76ac 30be c038 71be 7bf1 723e a612 803e
00000350: d280 b6be bcfe db39 0fa8 413e f633 41be
00000360: a7e6 42be 42f9 5a3e f486 70be 4bf4 c13c
00000370: 8944 b33d 4b79 54be 101f 0abe 99f3 973d
00000380: 4039 943e d7b5 1abe 1d90 a23c 9d20 a4bd
00000390: 859a aa3d e383 1fbe 7fc2 e7bd 03a8 313e
000003a0: bce5 a03e 8777 2e3e b5a0 a73e 7c6e 10bd
000003b0: eff7 ab3e 6d0b 563e ad7e 853e a427 443e
000003c0: cc1e 8c3e ab35 b0be 0b70 54be 282f a83d
000003d0: 8ec6 84be 98ff 89be fa8d 2fbe d453 fe3d
000003e0: 86fb 263e 1886 aabd b8d5 63be 23f0 7c3e
000003f0: 7117 8c3e ca0d eebd 992c 63bd 18c1 4cbe

temp_derivative_decoder.0.bias f4 [16]
0.0 -0.0058939382 0.0013431773 -0.02930264 -0.017737743 0.00668192 -0.008680287 -0.008275411
0.010099331 -0.012419794 0.0 -0.006005503 0.0 0.007698562 0.0054261843 -0.042180795
00000000: 0000 0000 f021 c1bb 8d0d b03a 170c f0bc
00000010: be4e 91bc 02f4 da3b c337 0ebc 9795 07bc
00000020: aa77 253c 647c 4bbc 0000 0000 cfc9 c4bb
00000030: 0000 0000 3844 fc3b 22ce b13b c5c5 2cbd
