.archive/piae_sde/experiments/2024-11-26_14-54-47-118452/0_AE/best_model.pth (torch, 15714 bytes, 15 tensors)

encoder.0.weight f4 [16, 18]
00000000: eacd 363e a199 313e d3aa 813e 1e48 94be
00000010: 9e7c 993e 5d5d 3bbe e364 84be 38d3 aa3d
00000020: 9a34 b63e c06e 8ebe 4aab 653e 6b0f 45bd
00000030: 3853 093e a8c7 a73e fc98 e93d 748d b2be
00000040: 3d83 01be 9ac1 aa3d fe09 57be 5344 ea3d
00000050: eb67 acbd a0d3 64bd 21d6 a43d 3e36 2abe
00000060: 635d 84bd 2788 333e 22a9 68be 30aa 7d3e
00000070: fccf 57be 14b1 10bd cbb0 5e3d b422 073e
00000080: 8de7 c1bd f19a 9a3d c7e3 5c3e 0908 bd3e
00000090: f10e 95be ed4a 40be 95bd ffbd 21f8 c3bd
000000a0: fd84 2cbe 2e0b 81be 2510 6cbe ce39 bebe
000000b0: 3f3a 4bbe e9a7 1bbe 0fae 19be 24c8 4e3d
000000c0: d759 563e 4e84 d13b 43cc 333d 4179 d33c
000000d0: 920b 663e 9716 64be e061 a33c e7c1 c83e
000000e0: 408d 993e 222c d5be 9483 81bd e450 803b
000000f0: 070a 0ebe 794e 8dbe 11a9 95be 68ea 8e3e
00000100: c543 0bbe c076 ddbc ac72 fc3d 0e04 84be
00000110: af5d 193d 3fde 7f3e 5483 7bbe 7e4d fa3d
00000120: 8872 84bd ac48 863e f862 44bd 4b87 0cbe
00000130: d152 663d 9211 9cbe 753e 113e 6aff 213e
00000140: 38b7 bcbc b64a f3bd ac6b 1cbc 0808 e33d
00000150: f931 7fbb be51 65bd f3e2 d3bc c60c 3e3e
00000160: edc9 753e bed2 e6bb 58ca 573e 6425 0f3e
00000170: 80ca 90bd d78c afbd 95a2 28be 051e 90be
00000180: 65d0 f93d bd16 7f3e ba02 9f3d a151 30be
00000190: 152e 3c3e fc16 b93d 189f 9dbd 2fbb 5bbd
000001a0: 62e8 c2bd e38c c937 a615 6a3d 4b95 a33d
000001b0: 9c37 53be 44d6 38bd 6cc9 f2bd c5c9 08be
000001c0: 3a3e cdbd 5972 8abe f539 36bd 5f6d 84be
000001d0: 64c2 80be 8213 16be d63d 47be dbd7 253e
000001e0: 1fdb 7f3e 19e2 3bbe 9f24 883e abb0 6b3e
000001f0: 2dc9 313e 51e3 99bd 73e4 6ebe a11c d03d
00000200: 961d 33bd 0204 b4bd c218 823d 5dae 45be
00000210: b9dd 0ebd 6de1 86bd c859 70bd 7f3c 81bd
00000220: 5114 25bd 14f1 dd3b 77a4 963c 8724 b83d
00000230: 7414 09be 7966 2f3e 7ada d23e 398a ad3d
00000240: a23c 7abe 7168 153e ce54 833d 8cab d5bc
00000250: 0aa0 933e 0c28 a23c 9280 3b3c c9d6 8ebc
00000260: d56e 26bd bcfc a63d f40b 61be f4e8 b3bc
00000270: 36fe 4fbb 6ac2 f23b bc39 533d b568 913e
00000280: 7c86 be3e 9ff2 c9be f5b0 8cbd 2372 263e
00000290: 5933 a83d 5ae9 42bd a516 893c 6621 c1bd
000002a0: 0247 f8bc 9415 ba3d 38c6 29bd fa84 e83d
000002b0: a8d8 b93c 9ba8 183d 26c8 383d 0b67 d1bd
000002c0: cddf 713d ebcf 1d3e 1f63 913c 47c8 36bc
000002d0: 283b 683e 5594 94be 618a 78bc e2ca 88bc
000002e0: df00 2a3d 41f0 05be 5e61 4d3d 629d 13be
000002f0: 835b c1bd db02 9c3d 0218 dbbd 8bd9 203d
00000300: b2fb b8bd eb9d 0bbe f611 2c3e 8928 383e
00000310: 41e6 3cbc 7027 b13e c9ab 47be 02ea 5a3c
00000320: e10e 253e 1947 eebc b663 d53c a8a3 503d
00000330: f5d7 a5bd 0427 c2be a272 cf3d 76b2 18be
00000340: 1cb1 1c3e 1e1b 5d3d b27f c73d b652 b4bd
00000350: a166 2f3d f64f abbe 51d7 263e 994b b5be
00000360: 5db5 d6be bb65 59be 6e98 b5be f085 29be
00000370: 9f67 87be abb0 5cbe 137c cc3e 7620 a2bd
00000380: 6f6b b23e 71b5 183c 3c44 5dbd d1e3 fbbd
00000390: 48bf 99be dace acbe 9ded 943e 4f8f 04be
000003a0: 9ab3 d1be 5863 c53e 0ac1 b93d fc6b 47bb
000003b0: f290 10be 6bb1 c5bc b50c 51bb 9afe b6bd
000003c0: a0e1 b83d f691 b63d b530 52be 2be5 863c
000003d0: 21b5 d4bd 8d19 b3bc f5d0 ecbd 106a fb3c
000003e0: 706b e9b6 3398 383e 8304 803e e227 053e
000003f0: 7c1b 3dbe 5e92 0abd 2fd8 ad3c 16e2 a3bd
0.17851987 0.17343761 0.2532564 -0.2896127 0.29977888 -0.18297334 -0.2585822 0.08341068
0.35587007 -0.2781887 0.22428623 -0.048110407 0.13410652 0.32769513 0.114061326 -0.34873545
-0.1264772 0.08337708 -0.20999905 0.11438813 -0.08418258 -0.055865884 0.08048654 -0.16622254
-0.064631246 0.17532407 -0.22720769 0.24771953 -0.21075433 -0.035325125 0.05436782 0.13196832
-0.09467993 0.07549084 0.21571265 0.36920193 -0.29112962 -0.18778582 -0.12487332 -0.09568811
-0.16847606 -0.25203842 -0.23053034 -0.37153476 -0.19846438 -0.15200771 -0.15007804 0.050483838
0.20932709 0.006393946 0.04389597 0.025814654 0.22465351 -0.22274242 0.019944131 0.39210436
0.29990578 -0.41635233 -0.06323925 0.003915893 -0.13871013 -0.27598932 -0.2923055 0.27913213
-0.13600071 -0.027034163 0.123265594 -0.25784343 0.03744286 0.24987124 -0.24561816 0.12221812
-0.064671576 0.2622732 -0.047945946 -0.13723485 0.056231324 -0.30482155 0.14183982 0.15820089
-0.023036584 -0.11879484 -0.009547155 0.11085516 -0.0038939698 -0.05598616 -0.025865054 0.1855956
0.2400281 -0.0070441654 0.21073282 0.13979107 -0.07069874 -0.08571785 -0.1646827 -0.28147903
0.12197951 0.24911018 0.07764192 -0.17218639 0.18376954 0.09037587 -0.0769636 -0.05364531
-0.0951698 2.4026673e-05 0.05714955 0.0798746 -0.20626682 -0.045126215 -0.118548244 -0.13358219
-0.100216344 -0.27040365 -0.044488866 -0.25864694 -0.25148308 -0.14655879 -0.19457182 0.16195624
0.24985932 -0.18347968 0.2659044 0.23016612 0.17361899 -0.0751406 -0.23329334 0.101617105
-0.043729387 -0.08789827 0.063523784 -0.19304796 -0.03487942 -0.06585965 -0.058679372 -0.06310367
-0.04030258 0.0067731235 0.01838897 0.08991342 -0.13386708 0.17128934 0.4118231 0.084736295
-0.24437192 0.14590622 0.064126596 -0.026082776 0.28833038 0.019794486 0.011444228 -0.017436402
-0.04063304 0.08153674 -0.21977216 -0.021961667 -0.0031737215 0.00740843 0.05156873 0.28400198
0.37211978 -0.39442918 -0.068696894 0.16254477 0.08212919 -0.047585823 0.01673443 -0.09430198
-0.030307297 0.09086147 -0.0414488 0.11353488 0.022686318 0.03727017 0.04511275 -0.10224732
0.059051324 0.15411346 0.01774746 -0.011156148 0.22678816 -0.29019418 -0.015169711 -0.016698305
0.041504737 -0.13079931 0.050141685 -0.14415506 -0.094412826 0.07617732 -0.106979385 0.039269965
-0.09032382 -0.1363446 0.16803727 0.17984213 -0.011529506 0.346004 -0.19499125 0.013361456
0.16118957 -0.029086636 0.026048522 0.050937325 -0.08097831 -0.37920392 0.10129286 -0.14911827
0.15301937 0.05398094 0.09741153 -0.08804838 0.042822484 -0.33459443 0.16293074 -0.3540924
-0.41935244 -0.21230213 -0.35467857 -0.16555 -0.26446244 -0.21551768 0.3993841 -0.07916348
0.3484759 0.009320603 -0.05402015 -0.12299312 -0.3002875 -0.33751565 0.29087535 -0.12945293
-0.40957338 0.38552356 0.090700224 -0.0030429354 -0.14117792 -0.024132451 -0.0031898443 -0.0893528
0.090274096 0.089145586 -0.20526393 0.016466698 -0.1038611 -0.02186277 -0.11563293 0.030690223
-6.9564485e-06 0.1802681 0.25003442 0.13003495 -0.18467516 -0.033830993 0.021221248 -0.08002107

encoder.0.bias f4 [16]
00000000: 0000 0000 fd7b b23c 19c0 2a3d 0000 0000
00000010: 1ebc b83c acba c83c 7101 be3c 7096 913e
00000020: 6b2f 963a d3bf 50bc 7526 48bb a7b8 d73c
00000030: 0000 0000 5c82 9d3c fbb6 f33c 0000 0000
0.0 0.021787638 0.041687105 0.0 0.022550639 0.024503075 0.023194047 0.28435087
0.0011458223 -0.012741047 -0.00305405 0.026333166 0.0 0.0192272 0.029750338 0.0

encoder.2.weight f4 [32, 16]
00000000: f285 693e 9e76 51be 4fae 98bd 64a1 363e
00000010: 91ef bf3c c68e 9ebe 4500 b4be 7103 30be
00000020: 70b5 a03e 42f5 86be 4488 473e 22a8 763e
00000030: 6710 16be 2a60 2cbe ee7a 88be b5e2 613d
00000040: 7672 4abd 77b7 8c3c c309 1d3e 8eff 173e
00000050: bb71 e4bd f9eb c63c 8300 ac3d 339b f63b
00000060: 30e5 903d 7ca8 12be 7560 943e a489 14bd
00000070: db48 39bd 9777 a2be 1437 83be 7730 343c
00000080: 4bf6 5fbd baca 0ebe 01bf 653e a6a5 01bd
00000090: 4216 293e 2276 aa3e 1cff febd a94c 15bf
000000a0: 3f64 05bd 4ea9 db3b 5e08 06be c362 35bd
000000b0: 5ef7 26bc 08b4 493e 4ff5 ba3e e10b 863e
000000c0: f143 193d 1d84 b6bc 7279 b93d e176 6cbc
000000d0: 1a0d 3ebd 20fd f83d 0147 93be 0bf2 99be
000000e0: 90b5 bb3a 6977 dbbd 7312 33be c684 a8be
000000f0: e383 723e f5cc 66bc af83 42be 6d79 13be
00000100: b75c be3d 009a 87be 7e94 6d3c 09de 8ebb
00000110: dd8b e53d faa2 063e 2a2d 75be 19d8 18bc
00000120: e17b 843e b7eb 743c 183c 2f3e 0656 11be
00000130: acd2 8f3d a465 c23d 82ca 2fbe 6c87 5f3e
00000140: 3e27 abbe abfe 07be e404 55be 6aeb 56be
00000150: bb60 5bbe a692 aabe 1587 783d 0f3c 8fbd
00000160: 946b 98be 4b78 18b9 523c 71bd c059 153e
00000170: 39ca 8dbe 89b3 cbbd 3e0a 953d a276 193e
00000180: fb1a db3c daaf 233d 0693 983e 41d4 fabd
00000190: 3f4d 403e a7ce 753e 1bfc bcbe 33f6 c1bd
000001a0: 7d30 163e 1dce c3bd 086b 1e3e 06e0 37bd
000001b0: 96ce 893e d235 43bd 30ac 8fbe 1a79 893e
000001c0: fd57 d73d a901 943e d9b5 ea3d c13e 403e
000001d0: 3281 823e 28eb 693d d45d 89bd 0d43 993d
000001e0: 314c 5dbe 8979 ed3d 8c32 a4be a248 613d
000001f0: d952 8fbe b658 6f3e c07a 9ebe 390a 1b3e
00000200: a16c 6e3e befe c2be 6bc4 8c3e 1f91 86be
00000210: 883e e9bd 0943 1c3e 49be 18be c537 843e
00000220: 2eb0 60be 226b 6cbd c2da 4ebe 21df 42be
00000230: a0a5 b03e 621b 583e 4594 e2bc 4524 ee3c
00000240: b69c 99be d629 803e ebee 28bc 0d01 17be
00000250: cae1 7ebe b541 5e3e e62d 2b3e 82d2 333e
00000260: 7a80 103d da49 e3be 7f6c 093e e111 f13d
00000270: 69fb f23d 72c8 bbbd 728c 39be c29a 943e
00000280: 08b9 f23d 1aa6 28be beb9 203c 8765 9dbd
00000290: fdeb 4bbd a1fb 2e3e ca6b 9bbe 71df c33d
000002a0: 84a0 5e3e c1b8 72bc 8389 22be 8dde 4c3d
000002b0: eda2 6fbe 2a43 553e e0e0 54be 565a 8a3d
000002c0: a917 b2be 731c e63d df1b 423e 9bde 873e
000002d0: 7b31 4dbc b68c 153e a4ab 883d 5a53 85be
000002e0: 1220 1a3e 8968 a8be 49d0 42bd 0d28 2abe
000002f0: 40df 2cbe 311e 463e 019f d2bd 00f6 603d
00000300: 3ff3 633e 40b2 733e be35 413e f9d4 7cbd
00000310: 145c a1be 9bc6 adbe 4f99 e33d e37b 89bb
00000320: 89bd 64be 391d 1e3e 374f a43e e164 513e
00000330: 044a 4cbd 95ae 433d 7dee 66be 32e1 2a3e
00000340: dc47 8cbe 5490 4e3e acae 53be db96 0fbe
00000350: d28f adbe 52d6 04be 4789 a1bd 1673 bfbb
00000360: 0b8e 543e cbe9 2a3e 0994 abbe 2201 a9bd
00000370: bd71 f33d 6fe5 973e fbf5 02be 3244 5e3e
00000380: 7542 a2bc 1836 00be 2427 6b3e f74d a1be
00000390: ed81 a13e df2d b33e 3688 b0bd 241a fbbe
000003a0: da64 ba3e f143 053e feb9 293e f255 133e
000003b0: 861e 14be 1e15 c73d 3056 35be 3093 9a3e
000003c0: 8323 1bbe c230 803d 3613 f5bd ff0d 353e
000003d0: e08d 37bc d636 3e3e 9c28 ecbd d272 54be
000003e0: 5657 f23d 25e3 5bbe 579f 94be 929e f43d
000003f0: d0bd 59be 0109 1abe 9c0b d9bd dfa8 cd3c
0.22805002 -0.20455405 -0.07455122 0.17835003 0.023429664 -0.30968302 -0.35156456 -0.17188813
0.31388426 -0.26358992 0.19485575 0.24087575 -0.14654694 -0.16833559 -0.26656288 0.055147845
-0.049425565 0.017177327 0.15335755 0.1484358 -0.11154505 0.024282442 0.08398535 0.0075258254
0.07074964 -0.14322084 0.2897984 -0.036264077 -0.045235496 -0.31731865 -0.2562796 0.010997883
-0.054678243 -0.13944522 0.22436143 -0.031652115 0.16512397 0.33293253 -0.12451002 -0.583201
-0.032566305 0.0067035323 -0.1308913 -0.04428364 -0.010190813 0.19697583 0.3651528 0.26180938
0.03741831 -0.022279793 0.09056367 -0.01443264 -0.046399213 0.12157655 -0.2876511 -0.30067477
0.0014321078 -0.10716135 -0.17487507 -0.32913798 0.23683123 -0.0140869515 -0.18995546 -0.14401789
0.09295028 -0.2648468 0.014500735 -0.0043599647 0.112083174 0.13148108 -0.2394301 -0.009328865
0.25875762 0.014948777 0.17112768 -0.14192972 0.07022604 0.09492043 -0.17167094 0.21829003
-0.33428377 -0.13280742 -0.20802647 -0.20988241 -0.21423618 -0.3331501 0.0606757 -0.06993877
-0.29769576 -0.00014540662 -0.058895417 0.14585018 -0.27693346 -0.09946353 0.07277344 0.14986661
0.026746264 0.039962627 0.2979967 -0.122475155 0.18779467 0.24004613 -0.3691109 -0.09470787
0.14666934 -0.09560797 0.15470517 -0.04489138 0.26915425 -0.04765875 -0.28061056 0.26850206
0.10514829 0.28907517 0.11460466 0.18773939 0.25489193 0.057109028 -0.067073494 0.07483492
-0.21611096 0.115954466 -0.32069814 0.05500091 -0.27992895 0.23373684 -0.30953026 0.15140618
0.23283626 -0.38084978 0.27493605 -0.26282594 -0.1138888 0.15259947 -0.14916338 0.258238
-0.21942207 -0.057719357 -0.20200637 -0.1903043 0.34501362 0.21104196 -0.027658591 0.029070029
-0.30002373 0.25031918 -0.010310869 -0.14746495 -0.24890819 0.21704753 0.16716728 0.17560771
0.035278775 -0.44392282 0.13420294 0.11770988 0.11864359 -0.09169091 -0.18119982 0.2902432
0.11851698 -0.16469613 0.009809909 -0.076853804 -0.049785603 0.17088176 -0.30355674 0.095641024
0.2174092 -0.014814557 -0.15872769 0.05001693 -0.23401995 0.20826402 -0.20788908 0.067555115
-0.34783676 0.11235895 0.18955944 0.26537022 -0.012524004 0.14604458 0.06673363 -0.26040155
0.15051296 -0.32892254 -0.047561917 -0.1661684 -0.16882038 0.19347455 -0.10284234 0.054922104
0.2226076 0.23798466 0.18868157 -0.061726544 -0.31515563 -0.33940586 0.11113226 -0.0041956767
-0.22337927 0.15440835 0.32091686 0.20448638 -0.049875274 0.047773916 -0.22551914 0.16687468
-0.27398574 0.20172244 -0.20672101 -0.1402239 -0.3389879 -0.12972382 -0.07887512 -0.0058425767
0.2075731 0.16690747 -0.3351138 -0.08252169 0.11886928 0.2966723 -0.12789147 0.21705702
-0.01980708 -0.12520635 0.2296415 -0.31504795 0.31544438 0.34995934 -0.0861973 -0.4904338
0.3640507 0.13014199 0.16574857 0.14388254 -0.14464769 0.09720825 -0.17708659 0.3019042
-0.15150265 0.062593 -0.11966555 0.1768112 -0.011203259 0.18575606 -0.11531183 -0.20746925
0.11833064 -0.21473368 -0.29027817 0.119443074 -0.21263814 -0.15042497 -0.105979174 0.025104938

encoder.2.bias f4 [32]
00000000: c6f2 47bc 0000 0000 35de 2b3d 0000 0000
00000010: 6f94 12bc 0000 0000 0ae5 59bd dc0f 25be
00000020: 325d a4bd ed1a c1bd b5d5 9cbc ff77 2bbd
00000030: 0000 0000 6dba 1abd 66be dd3c bf57 84bc
00000040: 0f68 76bd 2e86 e0bc ec6c cd3c 6b76 4b3d
00000050: 3be8 8dbc 707c 293d 8c65 ccbc e22d 4d3d
00000060: 45f2 02be 66f6 5cbd ab3e d3bd 3b55 693d
00000070: cd98 91bc feb5 9abc 0000 0000 3ad1 63bc
-0.012203878 0.0 0.04195996 0.0 -0.008946522 0.0 -0.053196944 -0.16119331
-0.08025588 -0.09428964 -0.019144872 -0.041862484 0.0 -0.037775446 0.027068328 -0.016155122
-0.06015783 -0.027407732 0.025076352 0.04967348 -0.01732265 0.04137844 -0.024950765 0.050092585
-0.12787731 -0.05394592 -0.10314687 0.056966048 -0.017773056 -0.018885609 0.0 -0.013904864

nee_decoder.0.weight f4 [16, 32]
00000000: 2620 873e 54a0 84bd 3da6 8dbc ca6e 5ebe
00000010: 7313 5abe 39f1 3b3d 578c 893e f268 d53d
00000020: 7f9e 033d 3a1f dc3e 1500 993e 37b7 b7bd
00000030: 96a9 a93e 4d93 cc3d bd56 a03e 61c9 8039
00000040: b311 a5be 43de fcbd 75e4 b03d fcf5 3b3e
00000050: d25b b3be 8111 7f3e 4fad acbe 4eb4 5d3e
00000060: 38a6 b13e 4436 f0bd f130 26be 4f8d 613e
00000070: f888 0fbe f5d8 8dbe 9a77 80be c025 9a3e
00000080: b33f 8a3e 278f 6a3c 0d78 aebe fcde b1be
00000090: 6f45 47bd 796f 433e c542 71be 6d56 34bd
000000a0: dc68 44be c6b8 5d3e 4ea7 c8bd da54 ecbd
000000b0: bdc4 9ebe 6997 8ebe 527b a63d 6327 6a3d
000000c0: a474 0d3e b72c 7abe 20b8 2cbc b6e9 dcbd
000000d0: cf5e 543e 866f 6dbe ddb8 d73d edee 8cbd
000000e0: a2c1 813e fd4a 983e 5bc2 4a3e f5e0 44bd
000000f0: 3440 443e 639e 5ebe f3d6 8fbe 744b 9bbe
00000100: d4a6 5cbe 8b39 19be c810 923d f761 9ebd
00000110: 6ac2 40be 1ba5 423b 2364 bfbd 3a70 953e
00000120: 0e4b 90be 8c31 d1bd 0d81 58be c1a7 813d
00000130: a902 9e3c e80c b73c 27c5 ac3e 1302 f3bd
00000140: d99b 0abd 836c fe3d 583c a33e 45a1 833e
00000150: 25d3 1b3d bfc0 b1bd cd1f 1e3e 807f 593e
00000160: d408 393e 827c 213f 0014 1b3f 149e 81be
00000170: 14ea 99ba 7b52 a9be e136 a63d c4f7 663e
00000180: 904f 80bd 9914 673d 7e5e a43d d51a f7bb
00000190: 1122 823e f506 533d 4c71 bfbe b67b 95be
000001a0: 0259 b3be 30c0 6e3c 4d3b 433e a5ce 9ebd
000001b0: bfc1 a23e 59d1 b3bd 5757 253d 837b a63e
000001c0: ef2c 1b3e 4544 35bd 6dd1 9d3e 3d94 79be
000001d0: bfd9 063e f865 3d3e 9505 5abe ae04 bcbe
000001e0: dc9a e73d 7a5a 09be ffd5 48be 0ccf 1e3d
000001f0: 8d43 91be 1395 9a3e b3fe 01bd 34e3 e7bd
00000200: 742c 943e fc9c c93d 5f67 3d3d 151a 2dbe
00000210: 7426 a23e 0088 dcbd 3e2f 8b3e 5529 4fbd
00000220: d9e0 423e 6758 883e 772f 90be b9bf 84be
00000230: 7100 b3be ba99 683e 61ea 953e 50a9 0ebe
00000240: 78fa 47be 7beb f13c dd2e 2a3e ad33 9c3d
00000250: 06c4 92bd 48b6 86be dfdd 8f3e 5d10 71be
00000260: a751 92be 0575 adbe 6d9b afbc 124c 153e
00000270: 02e3 cf3d 41b3 60be 60f2 0abe 129e acbd
00000280: 1752 2fbe bf77 98be e737 943d 0493 d2bd
00000290: 723b aebe 8f66 53be be6b 59be 852b 1cbe
000002a0: 88b4 5fbe 4c23 7bbd bebd 013e 6080 92be
000002b0: 7c1c f8bc cb61 d0bd 6218 39be b6c7 a0bd
000002c0: 7c71 19be 4138 3a3c 37ab 82be 2e50 893d
000002d0: 1f33 a63e a0fe 953e c752 22be 5c2e df3d
000002e0: a819 abbe 7568 983e c265 b4be 7dc3 a1be
000002f0: fd7c a2be b51a a8be 961f 443d 3e78 bfbd
00000300: 9940 ba3d e934 b3bc 5b74 2c3c 3fcc 02be
00000310: 927c 41be 388f 97be 0101 4f3e 594d 50be
00000320: 7f66 b1bd fc25 013e ad6a 8dbd 4432 8abd
00000330: f959 71be 676b 8ebe 6815 413e 5041 8abd
00000340: 1155 7b3e db7c 3f3d d259 aa3c 0ce9 9bbe
00000350: dda8 b93b 9757 80bd 80b9 2dbe 170a 93bd
00000360: 2a7a 2dbb 8755 5cbe fdb5 923c 0d0a 823e
00000370: 6dee c13d 37da b43e 48f1 283e 057f 96be
00000380: a1bb 14be 7c3e aebd 20ab 2f3e e236 25bc
00000390: 3de0 973e 073a 283d b00b 65be 7adf b73c
000003a0: 8c49 8ebe 0c6b 0ebc dae2 2c3e 1770 323d
000003b0: ee9e acbe 50f6 a2be cd29 543e ac59 a3be
000003c0: 803a 8fbe 764e 38be 02ca c73e f414 c9bc
000003d0: 3475 1fbe 9806 3ebe 44ff 5a3e d5c1 e03c
000003e0: 4478 493e 74dc 95bd 0516 f73c ea43 b63e
000003f0: 750c 01bd 608a 613d 2c16 bcbc 4fcd 0fbe
0.26391715 -0.06475893 -0.017291183 -0.2172195 -0.21296482 0.045884345 0.26864883 0.10420407
0.032133576 0.42992574 0.29882875 -0.08970492 0.33137196 0.09989033 0.31316176 0.00024564101
-0.32240066 -0.123470806 0.08637325 0.18355554 -0.3503099 0.24909021 -0.33725974 0.21650812
0.34697127 -0.117291 -0.16229607 0.22026561 -0.14017093 -0.27704588 -0.2509125 0.30106926
0.27001724 0.014316357 -0.34075966 -0.34740436 -0.0486502 0.19085492 -0.23560627 -0.044027735
-0.19180626 0.21652517 -0.09797536 -0.11539622 -0.31009474 -0.27849892 0.0812899 0.05716647
0.13814026 -0.2443112 -0.010541946 -0.10786764 0.20739292 -0.23187074 0.10533307 -0.06881509
0.25343043 0.29744712 0.19800703 -0.0480661 0.19165117 -0.21740107 -0.2809368 -0.30331004
-0.21548015 -0.14963357 0.07132107 -0.07733529 -0.18824163 0.0029700461 -0.093452714 0.29187185
-0.28182262 -0.102145284 -0.21142979 0.06330825 0.019288378 0.022345021 0.33744165 -0.1186563
-0.033840034 0.12423041 0.31881976 0.25708976 0.03804316 -0.086793415 0.15441819 0.21240044
0.18069774 0.6308061 0.6057739 -0.25315917 -0.0011742734 -0.3307074 0.08115936 0.22555453
-0.06265175 0.056416128 0.080258355 -0.0075410404 0.25416616 0.051520307 -0.37391126 -0.29195946
-0.35028845 0.014572188 0.1906559 -0.07754258 0.31788442 -0.08780164 0.040366497 0.32516107
0.1515386 -0.04425456 0.30823842 -0.24372955 0.13169001 0.18495929 -0.21291192 -0.3672232
0.11308834 -0.1341342 -0.19612883 0.038771674 -0.2837185 0.3019186 -0.03173704 -0.113226324
0.28940165 0.098443955 0.04624116 -0.16904481 0.31669962 -0.107681274 0.2718448 -0.050576527
0.19031085 0.26629946 -0.28161213 -0.25927523 -0.34961274 0.22714892 0.2928038 -0.13931775
-0.1952914 0.029531231 0.1661944 0.07627044 -0.07166295 -0.26310945 0.28098962 -0.23541398
-0.2857792 -0.3387834 -0.021436417 0.145798 0.1015072 -0.2194338 -0.13569021 -0.08428587
-0.17121159 -0.2977886 0.07237225 -0.10281947 -0.34029728 -0.20644592 -0.21232507 -0.15250976
-0.21846211 -0.06131296 0.12670037 -0.28613567 -0.03028702 -0.101749025 -0.18075708 -0.07850592
-0.14984697 0.011365951 -0.25521252 0.06704746 0.32460877 0.29295826 -0.1585189 0.10897514
-0.33418012 0.29767194 -0.35233885 -0.31594458 -0.31735983 -0.32832876 0.047881685 -0.09349106
0.09094352 -0.021875815 0.010525788 -0.12773226 -0.18895176 -0.29601455 0.20215227 -0.20342006
-0.08662128 0.12612146 -0.069051124 -0.06747869 -0.23569478 -0.27816316 0.18855822 -0.067507386
0.24544169 0.04674993 0.020794783 -0.30451238 0.005665882 -0.062667064 -0.16965294 -0.07179659
-0.002647052 -0.21517001 0.017909044 0.25398293 0.09469304 0.35322735 0.16498291 -0.29393783
-0.145247 -0.08508012 0.17155123 -0.010083886 0.29663268 0.041070964 -0.2236774 0.02244543
-0.27790487 -0.008692514 0.16883412 0.04356393 -0.33715004 -0.31828547 0.2071907 -0.31904352
-0.2797432 -0.1799868 0.39021307 -0.024546124 -0.15572053 -0.18557203 0.21386439 0.027436176
0.19674784 -0.07317439 0.030161867 0.3559869 -0.03150602 0.055063605 -0.022959791 -0.14043163

nee_decoder.0.bias f4 [16]
00000000: 1151 b03a a96b 61be 824d bc3d 99d9 fabc
00000010: e1f0 80bd 0000 0000 840f 203d 01ff ba3d
00000020: 80b9 06be 6e15 9c3d 70f5 93bd 0a87 58bd
00000030: f6b9 5dbd fdd2 bb3c 2997 7b3d 2749 273d
0.0013451894 -0.22013725 0.09194471 -0.030621337 -0.06295944 0.0 0.039077297 0.091306694
-0.131567 0.07621275 -0.07224548 -0.05286316 -0.054132424 0.022927755 0.061423454 0.040841248

nee_decoder.2.weight f4 [16, 16]
00000000: 6342 0cbe e375 4fbe 6ed9 77be a96a cc3e
00000010: 53c7 c0bc d725 3ebe e945 cebe f050 9a3c
00000020: fc11 dcbe 9014 a7bb 12fc 8b3e 3163 7fbe
00000030: d99f 733e 1e71 0dbe 8183 aabe 3295 dbbe
00000040: effd 6c3e a896 36be a173 573e 906b 383d
00000050: e6a5 5f3e dea6 a6be 0336 b63e 2fc8 a6be
00000060: 73a0 c7be a4c9 643e 2d00 39be 9d89 91be
00000070: 7ac1 60bd 840c ccbe 0949 cabe 37e8 e9bd
00000080: 8e8f af3e 9888 91bd ede7 833d dfd5 07be
00000090: c1da c13e 3de4 873b 8f91 fc3d 44fa 903d
000000a0: 5273 8abd 5834 c43d 8854 9ebe 2321 333e
000000b0: 4c3b 20be 1553 1b3e 933f 16be fc55 863e
000000c0: 64f9 dc3d 8adf 4d3e 716a b1bd 5f33 bcbe
000000d0: fc4a 873d 2a57 343e d34a a83e 016a 633e
000000e0: f86c b43d 6b0b a13e 94e2 bdbe c2ca ba3e
000000f0: 8f9e 47bd cc77 893e 7a33 943e 38a3 bfbe
00000100: 2c41 283e ba1b 373f 9569 8bbe 9b2b eebc
00000110: f733 2abe 7d23 d6bd 16a3 5f3e 11b4 453e
00000120: b00a d4bd ba90 383e f437 673f 216b 453f
00000130: a495 56bd 295b 0a3f c9ca cd3e 8cc2 09bc
00000140: 003b 5f3b 0471 8f3e 0f85 88bd 434d b5bd
00000150: 23f4 38be 8f28 7cbe bfdc 743e 7664 45be
00000160: 2258 94bd 35a7 dd3e 505a 363f dc44 cb3e
00000170: 9c7a 1b3f fb66 21bd 6e0f a53d 4854 df3e
00000180: b34e b0be 9e54 10be 96d7 63bb 5f40 31bd
00000190: c54d ca3d 9b27 693e 55eb 45be 1ead 93bd
000001a0: 49be a23e 9ebc 97be ac57 96be 5f7b aebe
000001b0: 0501 0e3e 8b64 e2be 87f5 65be 7023 803e
000001c0: 09e8 84be ad4a b43e a246 4fbe 214b 8c3d
000001d0: 7c2b 683d 2104 2ebc 0e16 8a3e f94b bc3e
000001e0: 366c 8abe 22ad 783e aaf1 ec3d d733 04bc
000001f0: 2204 9bbe e887 033e 84eb a03e c34b bebe
00000200: 6c00 d4be c2f3 d9be da3a aa3d bd2e 0fbe
00000210: 6a77 16be ae70 ce3e 5cd8 fdbd d26d b9be
00000220: 38d5 3abd e6f2 82be 49ea 01be 6147 5f3e
00000230: 50d4 d5bc fc80 9fbe 81da cc3e 4053 8e3e
00000240: 9b24 bcbe 4fd5 d93e afc7 4e3e 88b8 95be
00000250: 6dd3 bfbe 3593 b7be a3f9 423e 03d8 8cbc
00000260: 23c7 a43e 5a57 68bd b68d 803f f5c3 3d3f
00000270: 1a86 ffbc 9590 91bd 7a34 453e f8bf 353e
00000280: 98aa 87bd dae4 9abe 04ea 89be c239 bf3e
00000290: 8eff 7dbe 981b 9d3e 256a 14be aed3 8d3b
000002a0: 44e4 d7be 9522 10be 01e4 ba3e 5f0b c7be
000002b0: c11a 5f3e d594 babe f757 813d e800 c9be
000002c0: c517 3cbf ffda 54be be44 b0be 1026 373d
000002d0: 06ac aebe f0bf e03d 7d39 7b3e b59d 783d
000002e0: b783 9e3e 6896 bc3e cb62 853e 1777 093e
000002f0: 1bcf 683e 2b78 193e b1e9 05be 6df4 793e
00000300: f455 c8be d667 133f 3f86 853e af4e 99be
00000310: 1341 adbe 8860 ad3e 9b6b e63e 876c dabc
00000320: e3d4 0abd 3fcb 983e 27d5 563f c18f 013d
00000330: eb9c 0f3f 62c5 9a3e 02c1 fd3d 10ef 843e
00000340: d359 d9be dcb1 4fbe d1a0 c43c b8ca d43d
00000350: 62fd 96bd 966c 273e 7ff0 ef3d a1cd d8be
00000360: 6221 d43d 4790 79bd 4590 98be a7fe d43b
00000370: 8938 1bbe 835b 7fbe 3b13 d1be e8d1 af3e
00000380: 4d9b abbe ae56 8e3e 0b5a 9d3e 9e16 a3bd
00000390: 4ba2 9fbe df7c d6be 7523 4b3d d9cf a7be
000003a0: 6fa8 203e 895e 223e 5044 103f 7de3 f73e
000003b0: eecf 423e a351 44be e31c a0be 3f2f d33d
000003c0: 1d46 9dbe 2a0b 283d 487a cdbd bc5d 983e
000003d0: 5860 59be 616e 5abe 9436 65bd 6d69 87be
000003e0: a40b 293e cdb5 58be 08b7 043e 57c5 4a3e
000003f0: 575f 543e 29d0 fcbd 6ffb 713e f3f6 8abe
-0.136972 -0.20259814 -0.24204037 0.39925125 -0.023532545 -0.18569122 -0.40287712 0.018837422
-0.4298247 -0.005098887 0.27340752 -0.24940182 0.23791446 -0.13812682 -0.33303455 -0.42887264
0.23143743 -0.17830908 0.21040203 0.045024455 0.21840629 -0.32549185 0.35588083 -0.32574603
-0.389896 0.22342545 -0.18066473 -0.28425303 -0.054872014 -0.398533 -0.39508846 -0.114212446
0.3428921 -0.07106131 0.06440721 -0.13265179 0.37862208 0.004147081 0.123324506 0.070789844
-0.06760277 0.09580296 -0.30923867 0.1749311 -0.1564762 0.15168412 -0.14672689 0.26237476
0.10789755 0.20104805 -0.0866288 -0.36757943 0.06606099 0.17611375 0.32869586 0.22208406
0.08809847 0.31454024 -0.37086928 0.36482817 -0.048735198 0.2684921 0.28945524 -0.37429214
0.16431111 0.7152668 -0.2722899 -0.029073527 -0.16621386 -0.104559876 0.21839556 0.19306971
-0.10353601 0.18023959 0.9031975 0.7711659 -0.052388802 0.5404535 0.40193775 -0.0084082
0.0034062266 0.28015912 -0.06666004 -0.08852627 -0.18061881 -0.24624847 0.23912333 -0.19276604
-0.072433725 0.4329163 0.71231556 0.39700973 0.6073396 -0.03940485 0.080595836 0.4361899
-0.34435043 -0.14094779 -0.003476595 -0.04327428 0.098781146 0.22769015 -0.19328053 -0.07210754
0.317858 -0.2963609 -0.29363763 -0.340785 0.13867576 -0.44217333 -0.22456942 0.25027037
-0.2595828 0.35213223 -0.20241788 0.06850267 0.056682095 -0.010621102 0.2696995 0.36776713
-0.27035683 0.24284795 0.11569531 -0.008069 -0.3027659 0.12844813 0.31429684 -0.37167177
-0.41406572 -0.42568785 0.08312006 -0.13982673 -0.1469399 0.40320343 -0.12394783 -0.362166
-0.045613497 -0.25575942 -0.12687029 0.21804573 -0.026102215 -0.31153095 0.40010455 0.2779789
-0.36746678 0.42545554 0.20193361 -0.2924235 -0.37465993 -0.35854498 0.19040541 -0.017192846
0.3218318 -0.05672393 1.0043247 0.7412713 -0.031191874 -0.07107655 0.192583 0.17749012
-0.06624335 -0.30252725 -0.26936352 0.37348753 -0.24804518 0.30685115 -0.14493616 0.0043282127
-0.4216634 -0.14075692 0.36502078 -0.38875863 0.2178755 -0.36441675 0.06315606 -0.39258504
-0.7347377 -0.20786665 -0.34427446 0.044714034 -0.34115618 0.10974109 0.24533649 0.060697276
0.30959865 0.368335 0.26051936 0.13424335 0.22735254 0.14987247 -0.13077427 0.24409647
-0.39128077 0.57580316 0.26078984 -0.29942843 -0.3383871 0.3386271 0.4500397 -0.026663078
-0.03389443 0.29842564 0.83918995 0.031631235 0.5609881 0.30228716 0.12390329 0.2596364
-0.42451343 -0.20282692 0.024002464 0.10390228 -0.07372548 0.16350016 0.11715793 -0.42344382
0.1035793 -0.06092861 -0.2979757 0.0065000835 -0.15158285 -0.24937253 -0.40834984 0.34339833
-0.33516923 0.27800506 0.3073276 -0.07963298 -0.31178507 -0.41892144 0.04959436 -0.32775763
0.15689252 0.15856375 0.56354237 0.48415747 0.19024631 -0.19171767 -0.3127204 0.10311746
-0.30717555 0.041026272 -0.10033089 0.29759014 -0.21228158 -0.21331169 -0.055960253 -0.2644762
0.16508347 -0.21163101 0.12960446 0.19801842 0.20739494 -0.12344391 0.2363107 -0.27141532

nee_decoder.2.bias f4 [16]
00000000: 0000 0000 e45e 123c 8427 bdbc 1af7 923b
00000010: dcdd 303e cdc9 dc3c 16c5 32bd 0000 0000
00000020: 0b71 81bc 39cb be3d 0000 0000 df8f 33be
00000030: 31e8 f03c 32f1 a7bc 5ad9 97bd 8ab0 43bd
0.0 0.0089337565 -0.023090132 0.004485023 0.17272133 0.026951695 -0.043644987 0.0
-0.015800973 0.093161054 0.0 -0.17535351 0.029407592 -0.020500753 -0.074145034 -0.047775783

nee_decoder.4.weight f4 [1, 16]
00000000: 0d88 17bf dbea 82bd 3790 d4be 88d8 e6be
00000010: 247b 393f f65c 133f cc30 46be bca6 09bd
00000020: a114 d6be f244 ce3e 1570 2d3e 11bb e63e
00000030: c53b 063f 5c99 ecbe 1193 1d3e a670 97be
-0.5919197 -0.063924514 -0.41516277 -0.45087075 0.7245352 0.5756372 -0.19354552 -0.033606276
-0.41812614 0.40286976 0.16937287 0.45064595 0.5243495 -0.46210754 0.15388133 -0.2957813

k_decoder.0.weight f4 [16, 32]
00000000: 9685 a23e 7453 993e ef60 df3e b98b a63e
00000010: aca0 233e f09b 8abe b83d 4dbe ef9f 4e3f
00000020: d283 a3be b3bd 803f 1ed0 3b3e e5af 1f3e
00000030: 67ff 9dbe cbde 923e c1d3 1b3d 37f4 06be
00000040: 760a 683e 6b5d db3d c9b1 99bd 1fc0 2b3e
00000050: c72f 64be e9ee e13e 8d00 aa3e 7806 893e
00000060: 9689 8b3f e63d 063f 2329 bd3e 615b 7fbe
00000070: ad8c 04be 7078 8bbe 403e 853e 99d3 693f
00000080: 9535 553e bbb8 20be 7af8 893e 0e42 51bd
00000090: a799 bbbd f2ee 423e dec0 6f3e a81a 82be
000000a0: f355 ac3e 5a29 12bd d2d9 c03d 613f b4be
000000b0: 7037 213d c62d 33be e9af 62be 1d29 17be
000000c0: 65dc d7ba ab46 cebd 7beb 67be 689b 813e
000000d0: 9469 d73d f376 a8be 51e3 973d 73de b13d
000000e0: 5bda 543c 15d3 af3d e07d f2bc bf55 1e3e
000000f0: 2bde 7ebe de5d 1abe 4a9a 873e 324c 60be
00000100: d201 3e3e 007e a73e 12f1 a9be 5e9c 1ebe
00000110: ec56 973e 9321 afbc 1379 7c3d 10dd 87bd
00000120: 2132 153e 5cc0 88be bee6 553d 0dff 6d3e
00000130: 1b57 f4bc 6d14 aabe ffd5 e83d 632a 97bd
00000140: 1cdb a9bd 5ac3 333e ba05 5a3d c0db 63be
00000150: 9b6c 2cbe 9c2f 7dbd ee2a 96bd 6e00 acbd
00000160: 2cbb e3be 727c 503d 08d3 393e e7a5 7a3d
00000170: 2e1e 933d 11be 313d b55a 873e 7497 35bd
00000180: 9499 783d 4204 47be 2d05 663e 1f5a a9be
00000190: e29c e03d d7e7 9cbe 3ea8 e7bd 087f 733f
000001a0: 5eba 4bbe fe72 8e3f 95ac 39be c6e0 d53e
000001b0: 5b2b df3d bbfb 11be 99d5 9b3e ac98 97be
000001c0: 2329 3fbe 2fe5 0dbe 9c16 113e bc3c 0a3e
000001d0: 2c68 9abe ae5b ec3e 9369 353c f0f3 93bd
000001e0: 89ae 743f ecfd 083f e173 573f 414d 783e
000001f0: 02ad e8bc c8f9 e63c 796a 573e ace8 1e3f
00000200: 4c29 95bd 70a3 55bd 13c8 6fbe 7be5 eb3c
00000210: 12b3 613c ea36 92be 91a6 9c3d 0dd1 9e3e
00000220: ec90 403e de11 81be a86c a53e 540c 74be
00000230: b713 38be a8cf 253e 2ad3 903e a6d1 af3e
00000240: 9dcc 9d3e 9a34 41be baf4 a63d c01e 61be
00000250: 0fd7 ff3b 2e8c 8e3e 176a 383e 5b33 b0be
00000260: 8faf 46be dafe aebe ea24 0b3e e968 3ebd
00000270: fdca 83be 4713 dbbd ca9d ed3d 1033 a3bc
00000280: 2ded ac3e 98cf 99bb ad69 ea3d b457 dbbd
00000290: 305b 6a3d fd82 4f3c 3103 a33e 5fd9 9dbd
000002a0: ad52 4ebe ad35 6bbf 2603 a5be 0eac debd
000002b0: 2c32 3b3d 8d8d b23e 935b a7bc 86d8 143e
000002c0: 2671 463e f316 6abe 0208 8cbe f3d0 173e
000002d0: e4bf 283e 4d4b 29be 2eab 7d3d 133a a9be
000002e0: a543 923d 94e4 6a3e 85ba aa3d 936d 21bd
000002f0: aa56 253e 5dec aebd e9bf 863e 1402 3abf
00000300: 6ae7 4ebe f31e 97be 58b1 aebe 0533 863e
00000310: 8330 b3bd 1032 8ebe 3c2e 963d b4d8 98be
00000320: 48b8 953c 05ef 103e 1e07 c5bd e4f1 043e
00000330: ee9c 943d d841 91be 4f30 453d 9762 693e
00000340: bec5 d3bd 2866 2b3b 5c84 983c 36c8 123c
00000350: 1b39 bc3d 66fd b9be 9657 893e db5e 063e
00000360: fd74 893b f790 633c 05d8 9ebe 07a8 fabd
00000370: 0ad3 16bd b21e ac3d 7c99 46be ca46 733c
00000380: 2fd7 d3bd a1c2 833e 70cc 4cbe 3561 173d
00000390: 9cb7 823e 3098 8cbe 9a0c 0f3d b3ba 7f3f
000003a0: c1e8 113e 19ca 4a3f 9ae4 1e3e 5a03 24be
000003b0: b2c4 963e 4308 133d c446 a43e 5ab8 ba3d
000003c0: f025 213c f181 753e 605b dd3e 02ab e53e
000003d0: d031 92be 93ea 0c3e 47f1 79be 9e4e a43e
000003e0: 047f 863f c8c8 743e f54d f03e 815d b63e
000003f0: ca2c 9a3e 8290 81be 6e15 733e c965 373f
0.31742543 0.29946482 0.43628642 0.32528475 0.1597926 -0.27072096 -0.20043075 0.8071279
-0.31936508 1.0057892 0.18341109 0.15594442 -0.3085892 0.28685603 0.03804374 -0.13179098
0.2266024 0.107111774 -0.07504613 0.16772507 -0.2228385 0.44127586 0.33203545 0.26762748
1.0901363 0.524382 0.36945447 -0.24937202 -0.12944289 -0.27240324 0.26024055 0.913385
0.20821221 -0.15695469 0.26947385 -0.051088385 -0.09160166 0.19036463 0.23413417 -0.25410962
0.33659324 -0.035683967 0.09416546 -0.35204604 0.03935951 -0.1749793 -0.22137417 -0.14761777
-0.0016468881 -0.100720726 -0.22648422 0.25313878 0.10518184 -0.3290325 0.07416404 0.08685007
0.012991513 0.085851826 -0.029601038 0.15462397 -0.24889438 -0.1507487 0.264849 -0.21904066
0.18555382 0.32713318 -0.33191735 -0.15489337 0.29558504 -0.021378314 0.061638903 -0.06633961
0.14569904 -0.2670926 0.052222006 0.23241825 -0.029826691 -0.3321871 0.113689415 -0.073811315
-0.08293745 0.1755499 0.053228118 -0.22251797 -0.16838305 -0.061812982 -0.07332407 -0.083985195
-0.44478738 0.05089993 0.18146908 0.061193373 0.07183491 0.043394152 0.2643639 -0.04433389
0.06069334 -0.19435218 0.22462912 -0.3307657 0.10967423 -0.3064563 -0.113113865 0.9511571
-0.19895312 1.1128843 -0.18132241 0.4177305 0.10896941 -0.14256184 0.304364 -0.29608667
-0.18668036 -0.13856958 0.14168781 0.13499731 -0.30157602 0.46163696 0.011072534 -0.07224262
0.9557882 0.53512454 0.8416119 0.2424822 -0.028402809 0.028195277 0.2103671 0.6207378
-0.072832674 -0.05215782 -0.23416166 0.028795948 0.013775604 -0.2855752 0.076489575 0.31018868
0.18805283 -0.25208944 0.3230946 -0.23832828 -0.1797627 0.16192496 0.28286105 0.34339637
0.3082017 -0.18867722 0.08152147 -0.21984386 0.0078076194 0.27841324 0.1800922 -0.3441418
-0.19402908 -0.3417881 0.135883 -0.04648677 -0.25740805 -0.10697036 0.116023615 -0.01992181
0.337747 -0.0046939366 0.11445937 -0.107100874 0.05721587 0.012665507 0.31838372 -0.07707476
-0.20148726 -0.9187878 -0.32228965 -0.108726606 0.045702145 0.3487362 -0.020429408 0.14535722
0.193791 -0.22860317 -0.2734986 0.14825802 0.1647945 -0.16532631 0.061930828 -0.3305212
0.071418084 0.22938758 0.08336357 -0.03941114 0.16146341 -0.085411765 0.2631829 -0.7265942
-0.20205465 -0.295158 -0.34119678 0.262108 -0.08749487 -0.2777257 0.07333037 -0.2985283
0.018276349 0.14153679 -0.09620498 0.12982899 0.072564945 -0.28370547 0.048141774 0.22791515
-0.10340451 0.002615342 0.018617801 0.008958867 0.091905795 -0.3632614 0.26824635 0.13122122
0.0041948543 0.013889543 -0.31024185 -0.1223908 -0.036822356 0.08404292 -0.19394487 0.01484842
-0.103437774 0.25734428 -0.19999862 0.03695794 0.25530708 -0.2745986 0.034924127 0.99894255
0.14248945 0.79214627 0.15516892 -0.16016904 0.29446942 0.03589655 0.3208524 0.091171935
0.009835705 0.2397535 0.43233776 0.4485703 -0.2855363 0.13761358 -0.24408446 0.3209123
1.0507512 0.23904717 0.46934476 0.35618213 0.30112296 -0.25305563 0.23738644 0.71639687

k_decoder.0.bias f4 [16]
00000000: 2859 1e3e 0000 0000 0687 16bc 5b0c 5d3e
00000010: 104d 84bb 3dbd b93c ddcb 33bd d1d2 0d3e
00000020: 75cb 05be 3355 52bd b15b 2c3e 8e82 703d
00000030: 106e 153e b203 ca3e b084 de3d f9fe 07be
0.15463698 0.0 -0.0091874655 0.21586744 -0.004037507 0.022673244 -0.04389559 0.13849951
-0.13065894 -0.051350784 0.16831852 0.058718257 0.14592767 0.39455944 0.10865152 -0.13280858

k_decoder.2.weight f4 [16, 16]
00000000: 6597 a43e 0cc8 06be 16cc 06be 75a1 80bd
00000010: ead0 bebe 168d 04bd a2a3 9cbe 9290 d8bd
00000020: ba76 80be 6d7d 893e ca92 1a3f ac31 3ebe
00000030: 5a91 063f b9f7 1c3f 0518 ec3e cd5f 413d
00000040: 1d9b f13e 766f 573e 2e04 96be d5f6 c1bd
00000050: 67b9 7c3c 4f84 babe 8e12 f8bd d506 e33e
00000060: fcc4 3cbd 736d cc3e f74c 5a3e 1bac db3e
00000070: 7b7a dc3e 47ce 803e 197a 363e 946f d1bd
00000080: e059 9f3e d0bc a3be 83fb b93e 7502 063f
00000090: 3ab5 263e a0d2 993e d488 913e 421f 7dbd
000000a0: d7da 1ebf 77c8 24bc 135c ff3e 8c4f 1a3d
000000b0: aca1 433e 2f0e 0d3f 9c26 963e c263 a43e
000000c0: e675 463d 42d0 463d 00a6 f2bd ce79 b4bd
000000d0: d8cd 71be f38a 8e3e 1c34 ca3e b423 153e
000000e0: b994 493c c85e 12be abd1 e2be e634 a4bd
000000f0: f430 a5be b741 a9be 667c cfbd 4174 aebd
00000100: 1403 a13d beb1 a0be 45c4 9a3e c352 cebe
00000110: 5dfe 51be 73d0 2dbe cfb2 da3c b0ce 2d3e
00000120: e7b3 e9bd 4a67 8a3d 9679 e3bd 4965 2ebe
00000130: c709 8dbd 4f8d b23d 7ddd dbbe 8550 9abe
00000140: 4c1e 813e 4580 483e ca7d efbc 4ece a2bd
00000150: 2c39 5c3d a1d0 b9bd 91ee 8bbe b9ba 47be
00000160: cdb2 f5be 4e2b 83be 24a8 4bbe d0d2 993f
00000170: 42eb 783e 70dd 1dbd 5a6c 1dbe 4538 dc3d
00000180: 0b57 bc3e 7f51 06be 4f5c 88bd bff8 503d
00000190: e5c7 99be f636 0dbf 95f8 c1be 802b 09be
000001a0: 5715 06bf 785b a83e 4de6 3dbe e2f4 503f
000001b0: 4eda 9d3e 52e3 90bd 7948 ee3e 6400 16bd
000001c0: 5ac7 bbbe 714e 76bd 9f22 5b3e 128f d7be
000001d0: 6fe9 04bd fd69 343e 60ce 2cbe 9489 213d
000001e0: d2c7 2dbe 5fbd 94be ce9f ad3e 5b6b 9dbe
000001f0: 1159 a6bb 2dae 133e c7cb 77be 2a18 563e
00000200: 641d b8be b8bc d33e 6f79 453e 2b19 7bbd
00000210: bd6b b8be 1cc9 5a3c a547 1d3e 43d1 70be
00000220: f35c 5fbd 88f1 dcbe fba2 ddbe 8a9f 40bd
00000230: 3382 b93e def3 a6bc 4503 0b3e 693c 31be
00000240: 29cc 563e 1ff4 42bd 465b 81be b03e 163f
00000250: 4fbb 993e b5d6 5ebf f393 1d3e d917 f93d
00000260: f16f 2bbf 90c4 44bd ba83 2e3e 3913 183f
00000270: d752 d23e 8a5d 1f3f 3960 623e 88c2 a63d
00000280: 050c 3c3e e090 3ebe 3cf2 7c3e 23f2 0f3f
00000290: b926 0fbd a11c 153d e59e a73e abd2 f33e
000002a0: bdf1 f0be 757b 93be d689 33be cc68 e3be
000002b0: a2ea 023f b71a ac3d 2c1d 8a3e ac83 c9bc
000002c0: 6b1b 73be 0711 313e 47b8 6b3e 30de 1f3e
000002d0: aca5 4d3d 481e b43d 95a4 943e 4420 fb3e
000002e0: c820 13be 5af2 ce3d 63d7 e43d df71 1ebe
000002f0: c339 71bc dfb3 08be 2361 a43e fe04 d53c
00000300: 6796 593b a7a7 3c3e d8fa 0a3d 40d1 473d
00000310: ca87 2e3e 1046 8bbe e050 cfb9 6938 63bc
00000320: a3a4 20bd b7ba 8cbe 2079 b3bd 5d63 923f
00000330: f8ff a9be 2da9 963e e789 383c 3a49 8b3e
00000340: 7365 1bbe 035b b5be b9ef 7abc 6e25 133c
00000350: 490c 4abe 7a94 cc3e a5e5 8dbe 2f9f 88be
00000360: b295 04be 9de6 c63e b6ee 4ebe 38f6 093f
00000370: bc42 433e 3350 94bd 6e37 5f3e 65cc 523e
00000380: 61b6 76be 5d92 b6bd 0dbf cd3e f38c 693e
00000390: b9b7 5ebe 72ff 02be 6586 783e 1a68 4c3e
000003a0: 5e97 0c3d 29a7 8ebe 83d4 adbe 9e2d bbbd
000003b0: 52e4 0d3e 58ec 85bd 2df7 c3be c656 d9bd
000003c0: 7ff9 ce3e cb3d b7be 7f59 afbe d175 7b3e
000003d0: 7698 dc3e 9abd 2ebe 435f b9be 6b33 1cbe
000003e0: dff7 db3e ab3e 42be af9c 2d39 4c4f 123f
000003f0: f777 4bbe 1925 27be aebb b1be ea9e cd3c
0.32146755 -0.1316225 -0.1316379 -0.062807955 -0.37268764 -0.032361113 -0.30593592 -0.105744496
-0.2509058 0.26853505 0.6038023 -0.18573636 0.5256554 0.61315495 0.46112075 0.047210503
0.47188655 0.21038613 -0.29300064 -0.094709076 0.015425063 -0.36429068 -0.12112914 0.4434115
-0.046086296 0.39927253 0.21318422 0.42904744 0.43062195 0.25157377 0.17820014 -0.1022636
0.31123257 -0.3197999 0.363247 0.523475 0.1628007 0.30043507 0.28424704 -0.061797388
-0.62052673 -0.01005756 0.49874935 0.037673518 0.19104642 0.5509977 0.29326332 0.3210736
0.04845228 0.048538454 -0.11848068 -0.08812295 -0.2361368 0.27840385 0.3949288 0.14564401
0.012303525 -0.14293969 -0.4430059 -0.08017902 -0.3226391 -0.3305795 -0.10131149 -0.085182674
0.07861915 -0.31385607 0.30227867 -0.40297517 -0.20507188 -0.16974048 0.02669659 0.16973376
-0.11411267 0.06757982 -0.11107175 -0.17030825 -0.068866305 0.08718359 -0.4294242 -0.30139557
0.25218427 0.19580181 -0.029234786 -0.07949506 0.05376546 -0.09072996 -0.2733045 -0.19504823
-0.47987977 -0.25618976 -0.1988836 1.201746 0.24308494 -0.038541257 -0.15373364 0.1075292
0.3678516 -0.13117026 -0.066582315 0.051018473 -0.3003532 -0.5516199 -0.37884966 -0.133955
-0.5237631 0.32882285 -0.18544884 0.8162366 0.30830616 -0.07074608 0.46539667 -0.036621466
-0.3667553 -0.0601334 0.21399926 -0.4210134 -0.032449182 0.17618556 -0.16875601 0.039437845
-0.16970757 -0.2905073 0.33910984 -0.30745968 -0.0050765355 0.14421912 -0.24198829 0.20907655
-0.35959923 0.41354918 0.19284604 -0.0613033 -0.36019698 0.013353612 0.15359361 -0.23517327
-0.054532003 -0.43153024 -0.43288407 -0.04702715 0.36232147 -0.020379957 0.13575466 -0.17308201
0.20976318 -0.047596093 -0.2526495 0.58689404 0.30025718 -0.87046367 0.1538847 0.12162752
-0.66967684 -0.04803902 0.17042437 0.5940433 0.41078827 0.62252104 0.22107019 0.08142573
0.1836396 -0.18609953 0.2470178 0.56228846 -0.03494904 0.036404256 0.32738414 0.47621664
-0.47059432 -0.28805128 -0.17533049 -0.4441589 0.5113927 0.08403533 0.2697538 -0.024598919
-0.23740928 0.17291652 0.23019515 0.15612102 0.050206825 0.08794838 0.29031816 0.49048054
-0.14367974 0.10104819 0.11173894 -0.15473126 -0.014723244 -0.13349865 0.3210536 0.026003357
0.003320122 0.1842333 0.03393063 0.04878354 0.17043987 -0.2720189 -0.00039542373 -0.01386843
-0.03921951 -0.27486202 -0.08763337 1.1436573 -0.332031 0.29425946 0.011263347 0.27204305
-0.15175419 -0.35421 -0.015315943 0.008981092 -0.19731249 0.3995703 -0.27714267 -0.26683947
-0.12947729 0.3884782 -0.20208248 0.53891325 0.19068426 -0.07241859 0.21798488 0.20585783
-0.2409301 -0.08914635 0.40184823 0.22807674 -0.21749772 -0.12792757 0.24270017 0.19961587
0.034324042 -0.27861908 -0.33951196 -0.0913956 0.13856629 -0.065392196 -0.38274518 -0.10612254
0.40424725 -0.35789332 -0.34247968 0.24556662 0.43085068 -0.17064515 -0.3620549 -0.1525399
0.42962548 -0.18969218 0.00016556935 0.5715225 -0.19869982 -0.16322745 -0.347135 0.02510019

k_decoder.2.bias f4 [16]
00000000: 781d c33d e356 ba3d 503e c13d ea3c 73bc
00000010: 347b 13bc aed9 88bd 3299 c53d 0000 0000
00000020: 0000 0000 6b44 443f d634 db3d 8d57 c03d
00000030: 53e0 87bd 6698 0b3e f270 a3bc 8960 c43d
0.09527105 0.090986036 0.09435713 -0.014846066 -0.009001542 -0.06682144 0.0964836 0.0
0.0 0.766669 0.10703437 0.09391699 -0.06634583 0.13632354 -0.019951317 0.09588725

k_decoder.4.weight f4 [2, 16]
00000000: f9b9 383f 2bb1 be3e 48a3 163f 4015 cdbc
00000010: d7ba a6bd cfd4 c1bc 3137 f83e 1c0c 9bbd
00000020: cb80 fcbe 85ea 7c3f 73c7 b53e 4c9e 2b3f
00000030: 6a83 04bd 69ab 2bbf 45f7 d0be 0075 3bbf
00000040: 3d95 923d 6bb6 993e 1002 963c a48e 593e
00000050: bde0 c53e 632b ee3e fa86 573e 244d a53e
00000060: 79f9 1f3e f41e c73d 0a57 04bf 5c74 f7be
00000070: 1198 173e 7e0d 963e 965f fbbe 4f54 983f
0.7215877 0.37244543 0.588429 -0.025034547 -0.081411056 -0.023661045 0.48479608 -0.07570669
-0.4931701 0.9879535 0.3550373 0.67038417 -0.03235189 -0.67058426 -0.40813652 -0.732254
0.07157371 0.30021986 0.01831153 0.2124582 0.38648024 0.46517476 0.21047583 0.32285416
0.1562251 0.09722701 -0.5169531 -0.48330963 0.14804102 0.2930717 -0.49096364 1.1900729

k_decoder.4.bias f4 [2]
00000000: 9244 af3d 1b23 5dbd
0.085580006 -0.053988557
