.archive/piae_sde/experiments/2024-11-26_14-54-47-118452/255_AE/best_model.pth (torch, 15522 bytes, 15 tensors)

encoder.0.weight f4 [16, 15]
00000000: ef0f a33e decd 86be 9602 353e e1f0 833e
00000010: dd3a da3d fe37 41be bc02 05bf d791 3a3f
00000020: 3199 4c3e 1d4b d4be bc81 313e d90d 353b
00000030: ee70 84be 63ce 2dbc 1de2 133e 8ded 113f
00000040: 8d7d e03c 47a3 9a3d 6492 853b 395f debd
00000050: 5003 53bd b9d3 67bf a540 3cbe 3a23 b9be
00000060: a6e6 54be 2755 263f c964 5cbe 0443 203e
00000070: 1626 94be 197e 7cbe 5343 b9be 750b 25bd
00000080: 29ea 54be be7e 523d 24d9 83be 0ac2 55bd
00000090: 239e 29be ce56 153e 1c9c a9be 8469 863e
000000a0: cd51 023f d256 213f 47e4 9dbe 644f aabe
000000b0: c1fa 0f3e 6f11 2ebe 31c8 d9be 52cb 38bf
000000c0: 441c b63b 79b8 ae3e b8ba 4dbd 1ebd 6dbf
000000d0: 3469 593e 82c8 9fbd 38d1 693d cb94 e93e
000000e0: a822 0dbf b3b1 123f 4ef6 8c3e c84a 63bb
000000f0: 0c63 aa3e df7a 703e ac63 fbbd c751 383c
00000100: 82ed a3bd 8dfd c33d 564b 9d3e 61f5 8c3d
00000110: b863 58bd a592 b6be 0e28 86be e3b2 1b3e
00000120: 6aa9 e73e 0c5a 0f3e 8f71 333e 8736 4abe
00000130: f982 b23e 4fab 40bf 348b 0fbe 9f0d 0a3e
00000140: c6da a63e 87a3 a1bd 6a85 cdbe 8b2d 09be
00000150: eabb c8bb 0eba dd3e 0656 3cbe f3ae a03e
00000160: c5df 273b 820e af3e 6329 0dbe 37aa 87bd
00000170: bd67 a73e d614 843e cf85 c33e 0a00 283f
00000180: f370 b5be 06c7 4dbe 12da 7dbf b507 51bf
00000190: 2395 16bf 8df4 74bd 2537 7a3c 20b2 f73e
000001a0: 38dd 053f 401c d9bd 4893 bd3d bef9 eebe
000001b0: 7d8f 853d 3544 1e3e d5e6 8c3e 2910 21bf
000001c0: 51e8 423e f52b c63e 29f3 0cbe 75fd 57be
000001d0: eda5 c6be 6dcc 9bbd 2a83 92bc 6e38 abbd
000001e0: 8d36 61be f721 813e 5645 653e fecb 743d
000001f0: 3500 04be 32da 9a3e 0f46 b6bd 8c88 393e
00000200: 3058 e33e 4c53 61be 55a4 103f 601f 3d3e
00000210: 6565 173f a061 1d3f 24dc d53e 6ec0 8fbc
00000220: 3ea6 15be 5a4b f3be 5356 ffbc 037b 003f
00000230: 6f33 22be 8344 b33e 29e6 a4bd f19c ba3c
00000240: aea6 0b3e 2c2d cb3d e71f 1b3e 2a6d 03bf
00000250: 2139 14be 2d14 cb3d 9b09 b83e badf 07bf
00000260: 799e 52be 557d 16bd 57d7 29be 778f d4be
00000270: f048 53bf 6031 a8bc e72f bebe 6590 873e
00000280: f12c f5bd 2704 883f 3759 483d 7a09 8e3e
00000290: 5e55 f93e 9cd2 be3e 02e8 d73e 78a4 10bf
000002a0: 8180 1bbd ca36 95be bbe8 883e 25de 053d
000002b0: 0208 8fbe d334 2fbc 8a40 1c3e 8e73 c1bd
000002c0: 2e83 493e dde0 04bf cbbe 6d3e 4e9c aabe
000002d0: 48be ecbc 7a6b 863e 36cd ebbe d0f5 963e
000002e0: b859 063e 8712 4e3e 082d 23bf 221b 20bf
000002f0: 9613 f0bd 01ae 37be 7c60 183e 4432 ebbe
00000300: 4776 a7be f08c 34be 9409 c8be cde4 fd3e
00000310: 2df6 1c3c 7eac a3bd 46bf 533e 5c52 603e
00000320: 8f78 dbbd 561f 943d 56c9 4f3e fa62 b33e
00000330: 9af5 f3be 3613 113f 275f 9fbe de7a 2d3f
00000340: 9224 93be 95f8 24be 9326 35be 261f c33e
00000350: 13fd 1a3e c53c a5bc 2c21 24be e8c4 c43e
00000360: e5b3 29be 9087 b83d 29aa d33c 0a7e 443e
00000370: 1997 293f 33b3 d83e 6584 7cbe 99d2 e3be
00000380: 3eab 12be 1e48 f4bd 6657 19be ba5f fabe
00000390: d50c 40bc 4e8d 54be aeb2 1ebe 6895 28bf
000003a0: 398e c13e bdf8 133d 2f6f e7be a9a9 e43d
000003b0: 86ae 8ebf f302 b1be b0fa 7d3e 1915 7f3e
0.31848094 -0.2632894 0.17676768 0.25769714 0.106557585 -0.18869016 -0.519573 0.72878784
0.19980313 -0.41463557 0.17334646 0.0027626662 -0.2586741 -0.010608288 0.14441724 0.570031
0.027403617 0.07550674 0.004076289 -0.10858006 -0.05151683 -0.9055744 -0.18384035 -0.36159688
-0.2079111 0.6497368 -0.21522821 0.15650564 -0.28935307 -0.24657477 -0.36184177 -0.04029413
-0.2079245 0.051390402 -0.25751603 -0.052187003 -0.1656423 0.14583895 -0.33126915 0.26252377
0.5090607 0.630231 -0.30838224 -0.33263695 0.14060499 -0.16998838 -0.42535546 -0.7218524
0.0055575687 0.34125116 -0.050226897 -0.92866695 0.21231538 -0.07801916 0.057084292 0.45621333
-0.55131006 0.573024 0.27531666 -0.0034682024 0.33278692 0.23484372 -0.1227487 0.011249966
-0.080042854 0.09569845 0.3072154 0.0688274 -0.052829474 -0.35658756 -0.26202434 0.15204959
0.4524644 0.13999194 0.17523788 -0.19747363 0.3486555 -0.75261396 -0.14017946 0.13481759
0.32588786 -0.078925185 -0.4014085 -0.1339628 -0.0061259167 0.4330601 -0.1839219 0.31383476
0.0025615555 0.34190756 -0.13785319 -0.06624263 0.32696334 0.25797147 0.38188025 0.6562506
-0.35437736 -0.20095453 -0.99160874 -0.81652385 -0.58821315 -0.059803534 0.015271937 0.48378086
0.5229068 -0.106010914 0.09256607 -0.46674913 0.06521509 0.15455706 0.2751986 -0.62915283
0.19033934 0.38705412 -0.13764633 -0.2109278 -0.38798466 -0.076073505 -0.01788481 -0.083603725
-0.21993466 0.25221226 0.22389731 0.059764855 -0.12890704 0.30244595 -0.08900081 0.18118495
0.4440322 -0.22004431 0.5650075 0.18469 0.5913909 0.6147709 0.41769516 -0.017547812
-0.14614198 -0.47518426 -0.031169092 0.501877 -0.15839933 0.35013208 -0.08051712 0.022779914
0.13637802 0.09920725 0.15148889 -0.51338446 -0.14474918 0.099159576 0.35944828 -0.53075755
-0.20568265 -0.03674062 -0.16586052 -0.41515705 -0.8253317 -0.020531356 -0.37145922 0.26477352
-0.119714625 1.0626267 0.048913207 0.27741605 0.48697942 0.37270057 0.42169195 -0.5650096
-0.037964348 -0.29143363 0.2674006 0.032682557 -0.27935797 -0.010693747 0.15258995 -0.094458684
0.19678947 -0.51905614 0.23217313 -0.33322376 -0.028899327 0.26253873 -0.46055 0.29484415
0.13120162 0.20124255 -0.6374059 -0.625414 -0.11722486 -0.17937471 0.14880556 -0.45936787
-0.32707426 -0.17631888 -0.39069808 0.49588624 0.009580177 -0.07991885 0.20678434 0.21906418
-0.10716354 0.07232539 0.20291647 0.3503645 -0.47648317 0.5666994 -0.31127283 0.67765605
-0.28738838 -0.16110452 -0.17690496 0.38109702 0.15135603 -0.020170579 -0.16028279 0.38431478
-0.1657253 0.090102315 0.025837975 0.19188705 0.6624618 0.42324218 -0.2465988 -0.4449661
-0.14323136 -0.11927818 -0.14974746 -0.4890116 -0.011721809 -0.20757028 -0.15497848 -0.65852976
0.3780382 0.036125887 -0.45202014 0.111651726 -1.114701 -0.34572563 0.24802661 0.24910392

encoder.0.bias f4 [16]
00000000: 3465 953e ec53 143f a7ba 033f 198d 123f
00000010: ec4a 423f 0824 e23e b144 d13e 8af1 143f
00000020: 5802 b33e 744c fb3e 0895 fa3e a7c8 df3e
00000030: c446 b33e e775 073f b7d2 103f 5341 c63e
0.29178774 0.57940555 0.51456684 0.5724655 0.7589557 0.44168115 0.4087272 0.5818106
0.34962726 0.49081767 0.48941827 0.43707773 0.35014927 0.5291428 0.56571525 0.38721713

encoder.2.weight f4 [32, 16]
00000000: 5bb4 5dbe f69e 1a3e e696 b33d 01f4 d03d
00000010: ddae 8a3e 91b0 88bd e545 823d cf96 89be
00000020: ebcc 903e 3d5a e03e fbcc af3c 66c1 013e
00000030: f525 c33e 693e 1dbe dd92 913b ba4f da3d
00000040: c03a 9a3d e16b bd3e a9e0 e53e a2f5 7b3e
00000050: c47f 3c3e 95e5 a63b a19a 96bf 1eb3 c33e
00000060: b7a0 b6be 82e1 96be f806 153e e218 d43d
00000070: 6184 a8bd c19f c03e b40f db3d d9ee fe3e
00000080: 086b cf3e 8bad 5b3e 0cd4 f0bd 1b68 b93e
00000090: 8dba 873e e786 e43e 21fd bb3d 11f7 cdbd
000000a0: c99b bc3e 08d9 923d ce98 b73e b275 823e
000000b0: 1041 903e 1624 9c3d e6b1 b73e 1910 a53d
000000c0: 72d5 a13e 15d1 393e a407 c43e 2382 19be
000000d0: acbe a83e 435d 0dbd 284b 7f3e fa95 863d
000000e0: db60 6e3e 07a4 2b3d 9424 16bd 72be e13e
000000f0: ed1a 0c3e 4744 1cbc bf21 4ebd 3811 9a3e
00000100: c2f4 ba3e 32b4 613e f422 35be a8e4 823d
00000110: f8e3 753e 8558 ebbc b1d5 123e dda6 d6bd
00000120: 633f b43e 09f4 163e e509 113f 5b07 683e
00000130: dd9a 323b acf8 a23e e562 0cbe 542a d83e
00000140: 4011 89be 05e8 2ebd eb3a a5bc 2985 683e
00000150: bb6d 58be 46e6 b6be 9084 613e 8f46 b2be
00000160: 55fa 9c3d d551 423d 4675 123d c268 20be
00000170: e1fc 3e3e 926e 64be 7a8a 793e ae1c 193d
00000180: 5a47 f2bd 095e 5a3d eb8a 25be f99d 04be
00000190: 0f97 92bd d43f 8ebe 1d62 9cbd f048 80bd
000001a0: 497a 20be 5cd9 21bd 92c9 9ebe 17f0 4bbe
000001b0: 3968 f13b ae9f fa3d ab4a de3d cdc0 afbe
000001c0: 8037 a33e 147d 9c3e f61f cfbd 5a13 9d3e
000001d0: e3eb 923e 34c6 cb3d 9ecf e8be 8ac0 eabd
000001e0: 3973 63be 6d35 bb3e d3ad a7bd 42a4 693e
000001f0: cafe e73d f0d3 cfbd 799d 2bbc 15da 193f
00000200: 99bf a3bc 1d74 c43e e311 ae3e bdc6 36bd
00000210: dee7 0f3f 952c 6bbc 59fe 1b3e 1978 353e
00000220: c3be 7dbd d61d ee3e caf8 efbd f571 a83d
00000230: abef c43e bba8 42be 305a 543d 6ea1 cb3e
00000240: 415a e9bd a81b 1fbf 499b 07be e770 f23e
00000250: b81b 47bf 8b12 013f 9a3b c1bd 5317 023e
00000260: c6cc 423f e141 053e 2ffb 75be b117 4b3e
00000270: cf65 d1be dd3d 0cbe 4fab 9f3e aff5 bf3e
00000280: 13a2 6a3e b99c 34be e311 8d3e 3520 b63e
00000290: 7e27 063f 5d0b afbe cfd5 1abe de56 9c3e
000002a0: 6e4b b7be f771 8c3c 1762 6b3e e15c cabd
000002b0: 7192 98be 5202 03be 7598 ca3c e800 593e
000002c0: 99b4 103c 2112 ac3e 8b7d e93e 7bbf a33e
000002d0: 9aab 883e b186 55be ae6c 073e f533 6fbe
000002e0: 7567 bcbd 5922 fbbd 1c3d 423e eb1e 8bbe
000002f0: 5069 5abe b7c3 e6bd 1767 023c 9329 403e
00000300: 4538 0fbe 83af aeba 7f28 c93e f80b e8bc
00000310: 05ae 5a3c a357 7dbe 1dbd eabe 0f76 fa3d
00000320: 7717 663e e3da f83e dd23 afbd 660e 213e
00000330: c082 c6bd 8e6d eb3e f466 573e 733b 803e
00000340: ae0d b33e 490b 863e 3966 abbd 23b2 193e
00000350: 7433 0c3e bcc3 8a3e e31f d8be 9fa1 9dbd
00000360: a29b 983e c660 d53d ad36 f93e f6e4 7fbc
00000370: b8a8 95bd 3b17 5dbe 9694 ae3e 7acf a83e
00000380: ccb6 163d 1433 2b3f e477 253e 4f22 44bd
00000390: 7196 df3d 629c 173d 31be 74bf 99ba 5d3b
000003a0: 78b7 4fbd 91b2 f2bc 3f64 263d f155 8cbe
000003b0: d9b2 f33d d9a4 f73c 8426 483e 6958 183f
000003c0: b84f 913c 2d54 fc3d 94f4 97bd a0ef 08bd
000003d0: f788 833d 96ce c13e f5a4 553c a168 713e
000003e0: 88e3 81be 5998 4d3e 793e c4bd 1bcf d73e
000003f0: e735 8c3d 1bda 2ebe 5c75 a23e 8045 0c3f
-0.21650831 0.15099701 0.08769016 0.1020279 0.27086535 -0.06674302 0.063609876 -0.2687287
0.2828134 0.43818846 0.021460047 0.12671432 0.38114896 -0.15355839 0.0044425563 0.10659738
0.07530737 0.36996368 0.44897965 0.2460542 0.18408114 0.0050932863 -1.1765939 0.38222593
-0.3566949 -0.29468924 0.1455344 0.103563085 -0.08228374 0.37621883 0.106963545 0.497916
0.40511346 0.2145292 -0.11759195 0.3621224 0.26509514 0.44634172 0.0917914 -0.1005689
0.36837605 0.07170302 0.35858768 0.2548042 0.2817464 0.0762407 0.35877913 0.08059711
0.31608158 0.18146165 0.3828708 -0.1499105 0.3295797 -0.03451277 0.24931014 0.065715745
0.23279135 0.041904476 -0.036655977 0.4409061 0.13682146 -0.009537763 -0.05032515 0.30091262
0.3651486 0.22041395 -0.17689115 0.06391269 0.24012744 -0.028728733 0.1433933 -0.104810454
0.3520461 0.1474153 0.5665572 0.22659056 0.002725295 0.31830347 -0.137096 0.42219794
-0.26770973 -0.04270174 -0.020169696 0.22707047 -0.21135609 -0.3572256 0.22023225 -0.34819457
0.076649345 0.047441322 0.035756372 -0.15664962 0.18651153 -0.22307804 0.24369231 0.037380867
-0.118300155 0.053312335 -0.16166274 -0.12950887 -0.071577184 -0.27783072 -0.07635901 -0.06263912
-0.15671648 -0.03951393 -0.3101316 -0.19915806 0.0073671606 0.12237488 0.108540855 -0.34326783
0.3187828 0.30564177 -0.10113518 0.30678827 0.28695592 0.099499136 -0.454709 -0.11462505
-0.22211923 0.36564198 -0.08187451 0.22816566 0.11327894 -0.10147846 -0.010474556 0.6009839
-0.019988822 0.38369837 0.3399802 -0.044623125 0.56213176 -0.014353891 0.15233745 0.17721595
-0.061949503 0.46507138 -0.117173746 0.082248606 0.38464102 -0.19009678 0.051843822 0.397716
-0.11394168 -0.62151575 -0.1324283 0.47351763 -0.7777667 0.5041892 -0.09435196 0.1270421
0.7609371 0.13013412 -0.240216 0.19833256 -0.40897986 -0.13695474 0.31185386 0.3749213
0.22913389 -0.1763791 0.2755271 0.35571447 0.5240401 -0.34188357 -0.15120624 0.30535024
-0.35799736 0.017144186 0.22986637 -0.098809965 -0.29799226 -0.12793854 0.0247309 0.21191752
0.00883212 0.3360758 0.45603594 0.31982026 0.26693422 -0.20852162 0.13225052 -0.23359664
-0.0919942 -0.12262411 0.18968624 -0.27172026 -0.21329236 -0.112677984 0.007959149 0.1876586
-0.13986309 -0.0013327453 0.3928871 -0.02832602 0.013347154 -0.24740462 -0.45847407 0.12229549
0.22469889 0.48604497 -0.08551762 0.15728149 -0.09692907 0.4598202 0.21035367 0.25045356
0.34971374 0.26180485 -0.08369107 0.1500936 0.13691503 0.27102458 -0.42211828 -0.076968424
0.29806238 0.10418849 0.48674527 -0.015618553 -0.07307571 -0.21590893 0.34097737 0.32970792
0.036795422 0.66874814 0.16159016 -0.04788428 0.10917366 0.037014373 -0.9560271 0.0033833145
-0.05071208 -0.029626163 0.040622946 -0.27409318 0.11899347 0.030229973 0.19545943 0.59509903
0.017738208 0.12320743 -0.074196965 -0.03343165 0.06422608 0.37852925 0.013039817 0.23575069
-0.25368905 0.20077647 -0.09582228 0.42150196 0.068462186 -0.17075388 0.31730163 0.5479355

encoder.2.bias f4 [32]
00000000: 5364 c43e 03ef 593f 2eaa a73e 89c6 ad3e
00000010: bb2f bb3e 1d6f 83bd fb31 92bd 07cc c83e
00000020: 66b8 b53e 934b 85be 146b 2f3f 0ddf 2b3f
00000030: c9c3 aa3e 3f2c d23e 3546 3d3f e248 b83e
00000040: eb64 b83e 9b54 c33e 6602 b03e b16d b43e
00000050: baa5 aa3e 8fa5 be3e 5336 dc3e 25e0 a63e
00000060: 4612 b43e 5ea8 c43e 3bd1 bb3e c954 e53e
00000070: c529 af3e 78e2 f73e dbf8 a73e 919a b73e
0.3835779 0.8513033 0.32747024 0.33940533 0.36559853 -0.064176776 -0.07138439 0.3921816
0.35492247 -0.2603422 0.68522763 0.67137223 0.33352497 0.41049382 0.7393525 0.35993105
0.36014494 0.38150486 0.3437683 0.35239938 0.33329564 0.37235686 0.43010196 0.32592884
0.35170192 0.38409704 0.36683068 0.44791248 0.34211555 0.4841497 0.3280705 0.35860112

nee_decoder.0.weight f4 [16, 32]
00000000: 3715 2fbe 8106 803e 29f6 edbd f127 cabd
00000010: 5483 093e 7ea9 c83c 0afb b8be ebf0 403d
00000020: 0967 18be 1508 0cbd 0ef6 023e 2353 a7be
00000030: 352f 4bbd 0a61 96be 8499 a4be cf2a 3e3e
00000040: c55b 5bbe 502c a13e 64a2 24be 43cd 00be
00000050: cd37 a4be 7090 b93d 43b5 e43d c65c c1bd
00000060: 184a 3dbe c630 21be 1c51 40be f9fc 743e
00000070: 2353 35be f701 e13c 00ea 9b3c 9c9c 91be
00000080: 219a a43e a410 8fbe 0b10 00be e275 b83e
00000090: 47eb ffbc 1bd2 11bf 343f 7cbe 925e a1be
000000a0: a806 afbc 3d34 b23e 8f37 8fbe dd71 4b3e
000000b0: de6d 52bd b3bd 893b 0824 e63d 1fa4 1ebe
000000c0: 412d 603e 0036 9e3e b0dd 863d c2a9 6ebe
000000d0: b2d3 40be 2af9 c53d 8160 373e e49a cc3e
000000e0: 99e8 983e 6cb7 8c3e da38 423e 278b 34be
000000f0: fa33 12bd 833f 3d3e aa00 babe e8ae 3abe
00000100: d039 373e 3607 cc3e 4aa4 04bd 9f38 08be
00000110: 6f04 8d3d c594 023d 7825 0dbe 217f b3bd
00000120: 0487 7b3e 4e48 e4be 44eb eb3c 2cde 1fbe
00000130: c891 d23c 4c21 143e 3be1 01bd dc9f 81be
00000140: c555 d9bd 0a70 603d 31ea e73a 1eda ec3d
00000150: e992 aabe 7c94 84be 90eb 05bd 8311 6f3e
00000160: 4629 aa3d 8c6c 793e bd3e 0cbe 5459 1a3e
00000170: 521e 363e 8372 663e fd1d 103e ad11 5d3e
00000180: d644 57be 208e 8c3c 68dd c6bc beef 23bc
00000190: 3870 a43d ae1c 9e3e a183 6e3d 9842 d73e
000001a0: a712 b0be 6f2a 2e3e 6d1a 2f3e 4307 0abe
000001b0: 7743 c33d 012b 2b3d 1b93 abbe 5cfc 5cbd
000001c0: b101 a6be a94e 263e 3b46 83bc 6ad9 1f3d
000001d0: 0c7d 483e 6b2e a63e 5a29 cc3e 74f1 a83e
000001e0: f9ff 1b3e 2f44 023e 2e08 173e 27d8 a4be
000001f0: 7187 cc3d b647 633e 308e ff3d 6dc8 943e
00000200: ebd3 3c3e f633 11bd abc2 8d3e 08c3 5abe
00000210: 1681 eb3e 7777 6bbe f0ab 73be f4ee 2abe
00000220: 8620 213d 87d5 7dbd b6c9 03be e8cf c0bd
00000230: 3532 c33e 8f37 433d 4cab a2be f997 7739
00000240: c8b2 89be b7a3 cfbd 1b5b 8fbd 4462 8b3e
00000250: 827e 783e 2452 76bd f1a8 53bd a892 9a3e
00000260: b84a ab3e 8895 32bd 881a 85be 18d8 213e
00000270: 3a4c 273e cec7 683d 953f 503e 6409 adbe
00000280: 75b8 563e c5f2 c1be 7acb 99be 3381 afbe
00000290: af7c fe3d fc1f 4abe ae16 2fbe 456f a1be
000002a0: 6df0 9cbe b012 aebe f2d7 43be 431a 2ebe
000002b0: 6d38 c83d a9fd 97bd f817 89bd aa6c 9abe
000002c0: d924 8bbd 3e0f b1be b5ab 473d 558a d1bd
000002d0: cda8 2cbe 31aa 39be 2a99 97be 3c8c 3c3e
000002e0: d359 40be 4391 cebc 6c8d 8bbd 5ff4 e3bc
000002f0: 38c0 6e3e bdb1 fcbd aefb 613e 4cd0 e43c
00000300: 2489 bc3d bcdd d83d 3e65 ac3d c2af 393e
00000310: fd34 093e 44c3 c4bd dc83 eb3d 21c8 8e3d
00000320: 5053 02bf 30c8 67be 55cc 0bbe 9b89 75bd
00000330: ab9c 993e 7f97 d33e e90c cbbe 2115 54be
00000340: 0d8e 8b3e c653 a93e 3435 1e3c d539 68bc
00000350: 94ef 96be 2793 88be 9602 ac3e e5b4 81be
00000360: b69c e8bd 71d9 273e 768a 1bbd dcdf 4cbe
00000370: 0413 3abd ee93 98be ed6c d4bd 896a 67bb
00000380: a2dd 8c3e 76e2 9fbe a69c 3e3e 29be f63d
00000390: a6a6 d0be 9457 7d3e 46af 253e 5ddf fbbd
000003a0: 82f2 05be 4577 a3be cdf8 0e3e 278b bdbd
000003b0: 48ea 7fbe f791 7d3e 28aa 8fbe 4e61 afbe
000003c0: cd87 583d 5762 3bbe 741e 4d3e b33a 4abd
000003d0: 5e72 d83d cad9 25be 5a8b 723e f11e c63c
000003e0: 4dde 433e ecc7 52be 91e1 9abe 1c7e d13d
000003f0: bf9f a93d dbe3 d03a c1e2 c9be 516e 94be
-0.17097937 0.25004962 -0.11619217 -0.098708995 0.13429004 0.024494883 -0.36129028 0.047104757
-0.14883055 -0.034187395 0.12789175 -0.32680616 -0.049605567 -0.2937091 -0.32148373 0.18571018
-0.21421726 0.3147912 -0.16077572 -0.12578301 -0.32073823 0.090607524 0.111673854 -0.09441523
-0.18485296 -0.15741262 -0.18780941 0.23924626 -0.17707495 0.027466757 0.019032478 -0.28439796
0.3214884 -0.27942383 -0.1250612 0.36027437 -0.031240119 -0.5696122 -0.24633485 -0.31517464
-0.021365479 0.3480548 -0.27972075 0.19867654 -0.05137431 0.004203522 0.11237341 -0.15492295
0.21892263 0.30900574 0.06585252 -0.23306945 -0.18830755 0.09666665 0.17907907 0.39961922
0.29864958 0.2748369 0.18967 -0.17631207 -0.0356941 0.18481259 -0.36328632 -0.18230784
0.17893147 0.39849252 -0.03238324 -0.13302849 0.06885611 0.03188016 -0.13783824 -0.08764482
0.24563223 -0.44586414 0.028798707 -0.15612096 0.02570428 0.14465827 -0.031708937 -0.25317276
-0.10612062 0.05479435 0.0017693696 0.1156504 -0.3331521 -0.25894535 -0.032695353 0.23346524
0.083086535 0.24357814 -0.13695808 0.15073138 0.17785004 0.2250462 0.1407394 0.21588774
-0.21022353 0.017157614 -0.024275497 -0.010005889 0.080292165 0.30881256 0.058231 0.42042994
-0.3438923 0.17008375 0.17099924 -0.13479333 0.09534352 0.04178906 -0.3351067 -0.053951606
-0.32423165 0.16240944 -0.0160247 0.0390257 0.19578952 0.3245729 0.398753 0.32996714
0.15234365 0.12721322 0.14749214 -0.3219616 0.09986771 0.22195324 0.12478292 0.29059163
0.18440215 -0.035449944 0.27687582 -0.21363461 0.45996922 -0.22994791 -0.23796058 -0.16692716
0.039337657 -0.061971214 -0.12869915 -0.09414655 0.38124242 0.047660407 -0.31771314 0.0002361237
-0.26894212 -0.10138648 -0.06999799 0.27223408 0.24267009 -0.06013693 -0.051674787 0.30190015
0.33455443 -0.043599635 -0.25996804 0.1580509 0.16337672 0.056831174 0.20336755 -0.33796227
0.20968802 -0.3788053 -0.30038053 -0.3427826 0.12426125 -0.19738764 -0.17098495 -0.31530204
-0.3065218 -0.33998632 -0.19125345 -0.17002206 0.09776387 -0.07421429 -0.06694025 -0.3016103
-0.067941375 -0.3458194 0.048747737 -0.10231463 -0.16861267 -0.18131329 -0.29609042 0.1841287
-0.18784265 -0.02521575 -0.068140835 -0.027826486 0.23315513 -0.123385884 0.22068664 0.027931355
0.09205845 0.105891675 0.08417748 0.18133453 0.1339912 -0.096075565 0.114997596 0.06971765
-0.50908375 -0.22634959 -0.13652165 -0.059945684 0.3000234 0.4132652 -0.39658287 -0.20711185
0.27256814 0.33071727 0.009656239 -0.0141739445 -0.2947966 -0.26674768 0.33595723 -0.25333324
-0.11358015 0.16391541 -0.037973844 -0.2000727 -0.04542829 -0.2980036 -0.103723384 -0.0035311303
0.27512842 -0.31227463 0.18614444 0.12047989 -0.40752143 0.2474044 0.16180143 -0.122984625
-0.1308079 -0.31926933 0.13962097 -0.09255057 -0.24991715 0.24762712 -0.28059506 -0.34253925
0.052863885 -0.18299232 0.20031148 -0.049372386 0.10568689 -0.16196361 0.23685971 0.024184676
0.1912777 -0.20584077 -0.3025022 0.102291316 0.08282422 0.0015937047 -0.39430812 -0.28990415

nee_decoder.0.bias f4 [16]
00000000: 59c5 fbbc ad7e 1bbe 317f 733d 698d 913d
00000010: a039 f13d d54f 73bd 3d3b f83d 4bf9 13bd
00000020: 8928 41bc 9ec2 19bc 1cbf 213d dd55 10be
00000030: ec57 9c3d 87ca 383e bed3 89bc 261c 023e
-0.030733751 -0.15185042 0.05944747 0.0710705 0.11778569 -0.059402306 0.12120674 -0.036126416
-0.0117894495 -0.009384779 0.039488897 -0.14095254 0.07633957 0.18046008 -0.0168246 0.1270605

nee_decoder.2.weight f4 [16, 16]
00000000: 4786 4fbe eef3 34be 2904 10be 6fff cc3e
00000010: 127b c6be dc2d bdbe 07c6 7dbe ef48 9dbe
00000020: c491 193e 2115 1ebf e7f3 42be 4a9a b53e
00000030: cd91 c3bd fdee a93d d889 b63e db17 7fbe
00000040: 25bb 423e e063 21be 3efd 61be ab78 d8be
00000050: 8a8c a1be 77cd a5bd 7d08 b83e dc83 e0be
00000060: 5ca8 613e d421 dbbe 1ad6 663e ca51 663e
00000070: 2da0 b93e ad99 9e3d ef26 123e a351 e73d
00000080: 79ac 0a3e 8036 a5be 70ef a0be 066f c5be
00000090: d913 5d3e 088f aabd a139 633d 736d 76be
000000a0: 7aad 80be 7713 c33e 99c3 d0be 941a 813e
000000b0: eda3 f4be 9f21 9cbd 7ded 73bd 64be 78be
000000c0: 26ec c83d ca73 a2be 9c12 853b 24c8 b0be
000000d0: 03f9 8fbe e2c5 9dbd ab97 193e a440 a5bd
000000e0: 3ae8 3bbe 587e 023e 3fca 23be dfed e53e
000000f0: ab2a a8be 6ce1 f13d 839f d03e 0d59 c4be
00000100: 7c6a 77be 8b2a 22be 5bfe 8a3e 8698 a3be
00000110: f60b 60be b625 223d da0b cabe 4db4 6b3e
00000120: ffd9 be3e 6632 833e cd4e d53e 0d3f 68be
00000130: 6924 24be 7b93 143e 9633 aabe daa6 25be
00000140: e91e c43d c8df fcbe d04e aabe f1dd bc3d
00000150: 73cf 883e 74ae 1f3e 04f6 90b8 89f8 013e
00000160: 8edb 0ebf 037c 623e 8384 7dbd 72f8 dabd
00000170: bd0b 80bd 88b3 dc3e 57b4 873d 3161 1b3f
00000180: a40b b63e 3629 aa3d 394e 37be 4d13 5a3d
00000190: ffd9 903e 4cf1 71be 8664 df3e f282 3a3e
000001a0: 6360 b9be ac14 7c3e 7a16 f93d 8f0d 5b3d
000001b0: 0a4b e53e 10a6 9c3e ee8e 683e 98a1 cd3d
000001c0: 446a 253d 0550 02bf c062 053e ce4d 983b
000001d0: e06f 893e 3163 6dbe b4b6 fa3e fe7f be3e
000001e0: 2014 413d 1472 1d3e 743f bdbe 4c63 b1bd
000001f0: d9a2 5c3e 8d7c fdbc da36 953e 8f8f 38be
00000200: 5aa1 83be 65f5 f8be da48 64be f652 973d
00000210: 15f0 e1be 0f1e cebe ce70 8dbe a9ba 63be
00000220: 99cd 0cbe d43b 423e fa50 82bd 4bfc c6be
00000230: a503 953e 8230 b33e e711 88bd 56db a8be
00000240: 53e4 91bd 1261 d03e 675c 5f3e e668 0c3e
00000250: 6d36 b8be c99e aa3e 221e 6d3e f99a 3dbe
00000260: 7696 a1be 9acb 8dbe 4439 80be 21ce adbe
00000270: c2b5 f4bc 530b 98be dc29 5ebe 2955 fa3d
00000280: 4563 9dbe a9d6 9ebe 819e dd3c 9a6c 443e
00000290: e4d3 943e 80d1 b4be 0337 a73e f6f8 4dbe
000002a0: 210c 95be 0200 093f 4cec a83e d42f 7f3e
000002b0: 4569 8fbe 97dd 053f 9fb2 9abe 6e13 273f
000002c0: d8f2 c5be e30b 92be 26ea c53e f614 d83e
000002d0: cba8 45bd 64d4 533e d06f d73e c82e 99be
000002e0: 870c 65ba dae5 7abd 241b ed3e 41b1 e8be
000002f0: ce12 9b3d bbd5 263e 5e03 c1be 21e6 113f
00000300: abf8 cf3d a6b5 0bbe d446 b93d cb75 c2be
00000310: 42da 98be 2720 82be c087 60ba 4851 a2bd
00000320: f023 cd3d 1568 933d 2535 e5bd 70fa bebe
00000330: 3b22 77be 50c5 15be 1a54 953e cec7 dabe
00000340: aa95 ea3d 9a03 c13e e8e5 e53e 15f8 0cbe
00000350: 37f3 8e3e e01e 11be f976 ecbd 22eb 87be
00000360: ee20 333e 0687 df3e dcd8 e8bd 3acc 94be
00000370: 6204 32be 98ac 043e 6db7 32be 29f7 843d
00000380: dd9a 3a3e 22c4 ebbe d60b 23be 9246 7c3e
00000390: f797 ae3e e565 e13b 5294 253f 923b 713e
000003a0: ff16 84be 3c1e 393f f5d4 a5bd cd08 73be
000003b0: 1b8f 463d 85d6 a23e 8844 8cbe 265d e63e
000003c0: acab 98be 1415 3d3e fca6 833e 057d 9cbe
000003d0: 6c3f ebbe 476e ad3e 7149 27be 9a55 183e
000003e0: 48a6 20be e053 1d3d 8e12 ab3e 24d9 a5bd
000003f0: e4c8 0abc 4a68 ba3e 1341 a63d 9859 c23e
-0.20266066 -0.17671177 -0.14064087 0.4003863 -0.3876577 -0.3694905 -0.24782573 -0.30719706
0.14997011 -0.6175099 -0.19038354 0.35469276 -0.09549294 0.082975365 0.3565204 -0.24911444
0.19016702 -0.15760756 -0.2206926 -0.42279562 -0.31552535 -0.0809583 0.35943976 -0.438506
0.2203688 -0.42799246 0.22542611 0.22492138 0.36255017 0.07744155 0.14272664 0.11294868
0.13542356 -0.32268143 -0.31432676 -0.38561267 0.21589603 -0.08328062 0.05547488 -0.24065189
-0.25132352 0.38100788 -0.4077423 0.2521559 -0.47781315 -0.076236 -0.05955266 -0.24291378
0.09810667 -0.31728965 0.0040610563 -0.34527695 -0.28119668 -0.07703759 0.14999263 -0.0806897
-0.18350306 0.12743509 -0.1599512 0.44908044 -0.32845053 0.11810574 0.40746698 -0.3834919
-0.24161714 -0.15836541 0.27147183 -0.31952304 -0.21879563 0.039586745 -0.39462167 0.23017998
0.37275693 0.25624388 0.41661683 -0.22680302 -0.16029514 0.14509384 -0.33242482 -0.1617693
0.09576208 -0.49389482 -0.33263254 0.092220195 0.2672077 0.15593892 -6.912279e-05 0.12692465
-0.55803764 0.22117619 -0.06189395 -0.106919184 -0.06252239 0.4310572 0.06626194 0.6069518
0.35555756 0.083086416 -0.17900933 0.053241063 0.28291318 -0.23627204 0.4363138 0.18214014
-0.3620635 0.2461726 0.1216249 0.053479727 0.44783813 0.30595446 0.22710773 0.10040587
0.040384546 -0.5090335 0.13025951 0.004647947 0.26843166 -0.2318237 0.48967516 0.37207025
0.047138333 0.15375549 -0.36962473 -0.086615175 0.21546496 -0.03094318 0.2914341 -0.18023513
-0.2570904 -0.4862472 -0.22293416 0.073888704 -0.4412848 -0.40257308 -0.27625126 -0.22239174
-0.13750304 0.18968135 -0.06363101 -0.3886436 0.29104343 0.34997946 -0.066440396 -0.3297984
-0.071236275 0.4069906 0.21812592 0.1371189 -0.35979024 0.33324268 0.23156026 -0.18516149
-0.31560105 -0.27694398 -0.2504369 -0.33946326 -0.029871825 -0.2969614 -0.21695656 0.12223274
-0.307398 -0.31023148 0.02705312 0.19182053 0.2906791 -0.35316086 0.32659158 -0.20114502
-0.29110816 0.53515637 0.3299278 0.24920589 -0.28010002 0.52291244 -0.30214402 0.6526402
-0.38661838 -0.28524694 0.38655204 0.42203492 -0.048256677 0.2068649 0.42077494 -0.29918504
-0.00087375235 -0.06125436 0.4630977 -0.45447734 0.07571946 0.16292469 -0.3769788 0.56991774
0.101548515 -0.13643512 0.090467125 -0.37980494 -0.29854017 -0.25415155 -0.000856515 -0.079256594
0.1001662 0.071975864 -0.11191777 -0.37300444 -0.24134152 -0.1462605 0.29165727 -0.42730564
0.114543274 0.3769806 0.44901967 -0.13766511 0.27919933 -0.14171934 -0.1154613 -0.2654658
0.1749303 0.43657702 -0.11369488 -0.29062063 -0.17384484 0.12956464 -0.17452784 0.064924546
0.18223138 -0.46048075 -0.15922484 0.24636295 0.34100315 0.006878602 0.64679444 0.2355788
-0.25798795 0.7231176 -0.08097259 -0.23733826 0.04847632 0.3180429 -0.27396035 0.44992942
-0.29818475 0.18465072 0.25713336 -0.30564132 -0.45946825 0.33873197 -0.1633661 0.14876404
-0.15688431 0.038410068 0.33412594 -0.08098057 -0.008470748 0.3640769 0.08117881 0.3795898

nee_decoder.2.bias f4 [16]
00000000: eb21 40be 88b3 d7bd e8f1 0ebc cf06 893e
00000010: 0c02 91bc c17e 853e 6678 d23d 98c7 d13d
00000020: 4eff 00bd 6fd1 933d 2f29 d13d ccda 9b3d
00000030: 452e 4ebd 41f0 e33d 6f8e cf3d 1574 dcbc
-0.18762939 -0.1053229 -0.008724667 0.26763007 -0.017701171 0.26073268 0.102768704 0.102431476
-0.031493478 0.07217681 0.10212933 0.076100916 -0.050337095 0.11129809 0.10134589 -0.026910821

nee_decoder.4.weight f4 [1, 16]
00000000: 7667 6ebe 1003 32bf 208c 9c3d 6c6a a33e
00000010: 0dcf 02bf e9d0 7e3f 4582 cf3e a0fe ae3e
00000020: fdd8 d3be 339b af3e fb80 1e3f dcb1 2b3f
00000030: f60a e53e 7173 a63e dacb 233f 6a74 acbe
-0.23281655 -0.69535923 0.07643914 0.3191713 -0.51097184 0.9953752 0.40529075 0.34178638
-0.41376486 0.34298095 0.6191556 0.67068267 0.44734925 0.3250995 0.6398293 -0.33682567

k_decoder.0.weight f4 [16, 32]
00000000: 513b 993e c2bb 7a3f c15f f53e 6e94 11bd
00000010: ed28 8a3d db2b 333e fbc6 98bd 1bcc 8f3d
00000020: e18c 09bd c5e8 6ebf 34dc c13e 3eae ce3e
00000030: 3934 ad3d 4b65 853e b879 123f dae9 043f
00000040: 199e cc3d faf1 6f3e b14a 9d3e 312d 353e
00000050: a994 2b3e e9f5 ed3d 6b86 a0bd 1409 03be
00000060: e68b 8dbc 437d 2e3e 97ec 5a3e 809e 103e
00000070: 734c e73e 1146 993e 52fe 983e f718 6abd
00000080: 1b90 86be 0066 8abe ac6f 2ebe befc d73d
00000090: a929 443d a717 093c e2f1 073e ff8c 4f3e
000000a0: 8f50 a9be 0748 153d d9b5 0dbe c33a 32be
000000b0: e472 2fbc ac6b 41be be6f fdbd 98fc 6dbe
000000c0: ed4e 0a3e 0af6 35be 65e0 b9bb b67c f9bb
000000d0: fa15 fabd 3879 1d3e 2e77 8dbd f8af a23c
000000e0: 919b 6dbe 41b6 afbe 7721 09bd 2ef8 25be
000000f0: aa89 8b3d bf33 16be a8d4 91be ad65 4bbe
00000100: 9846 df3e 361c 9d3f ae5e a33e daba bb3e
00000110: 7839 8cbd c86b ed3d 88f1 21bb fee5 d9bb
00000120: 7819 b13e 8524 a7bf ead1 bc3e 4db0 623e
00000130: 1142 ad3d a0d3 b63e 3954 253f b983 ba3e
00000140: 35bb 5f3e e696 113f ad52 e23e b01b ca3d
00000150: bc55 653e 8da0 c33e 4065 a93e c194 853e
00000160: c6c9 3e3c a4b1 aa3e 084a fa3e ae2d 153f
00000170: 7a91 373e 7da0 a03e 9df9 cf3e 19ca 093f
00000180: efa2 37be a5bd 8d3f 0a1e 043d fb2d be3e
00000190: 5dff 463e b069 d2bc 5219 a3bd fb64 d93e
000001a0: adf5 b93e 14d3 aebf 5230 0a3f 3134 d53e
000001b0: 4b1c e53e 98bd 4ebd 741b 183f c202 063f
000001c0: 3590 d73e e89d 023f 176b e03e 3838 e23d
000001d0: 8763 ea3e efb5 383e 581b 013d 2c82 f53e
000001e0: de56 0d3e 5998 073f 1a54 393c 4011 fd3c
000001f0: 6c3a 3dbe a8ce f23e d28a 793c 9795 b8bd
00000200: 9926 1bbe 6194 343f 4ae1 803d be4f 993e
00000210: 23b8 3fbe d298 96bd 7334 5ebd e891 0d3f
00000220: 75ca c33e 99c6 9ebf f0b8 a73e eaaf 823d
00000230: 90a5 b53e b730 0c3f 7f29 4f3f d200 783d
00000240: 3c4d 133f 3b27 2a3e 279b 4d3e 3e1a cd3e
00000250: 8d1e 843e c1ea 473e 8a33 db3e 9410 a43e
00000260: bf53 3b3e e923 343e e3f7 193c 4ba3 203f
00000270: 031f fc3e 78c9 173e 2b0e d73e 3a29 933e
00000280: c24b 7d3e e474 0e3f 3555 d63e c349 8e3e
00000290: ecda e73e 452b 28be d524 4ebd 754b 7f3e
000002a0: 334b b83e 910c 99bf 929b ca3e 266d fb3e
000002b0: 9e1c b73e d1cf 883e 90a1 243f ce97 13bc
000002c0: f1b5 073f a1ce 193d 29ab 013f d39c d13e
000002d0: 23cd 8f3e 8ecb 363e f18c 773d 3f5a 053f
000002e0: 3f7e 053f 0c74 9c3e 3b82 043f 02cd c13e
000002f0: 4440 c23e 0af3 2c3e a89c ee3e 9cbf 4e3e
00000300: 233f c83e 52c2 3f3f a4bd d43e 3224 de3c
00000310: cf27 c13e bdf2 b73e 4629 623d 97e4 1f3e
00000320: d067 a13d 109a 89bf 53a2 fa3e c378 ba3e
00000330: ed66 d43d 1fcc 943e b880 303f 7617 a43e
00000340: 4239 933e db07 003f 5e53 da3e 3a3f a73e
00000350: f7f5 d2bd a886 e03e 3586 103f a5fa f03c
00000360: de47 173f 4fee 1b3e 4105 393e caf5 db3c
00000370: 8e9b 9d3e be6c c23e 58bc 003f 05e5 9cbd
00000380: c179 0abe f97c a0be 6a83 32be a9bd e9be
00000390: 92a7 f93c 0283 803d 2a9f 70be 9fca 053e
000003a0: 93b8 01bd eead d33e 0a8b c13d a4d3 8a3c
000003b0: 024e d8be 018f 763e be61 0e3e 5c66 29be
000003c0: a1e3 bd3e 061c 9dbe 2312 66bd afb9 c53e
000003d0: a2be 753e cd70 d5bd 7607 5d3e 2420 f0bb
000003e0: e44d b63e 8304 36bc 60d2 97bc e775 9a3d
000003f0: 7d2c 453d 2cc4 18be 3b4c 953c 1600 2fbe
0.29928067 0.97942746 0.47924617 -0.035541944 0.06746087 0.17497198 -0.074598275 0.07021352
-0.03358162 -0.9332393 0.37863314 0.4036731 0.08457226 0.26053843 0.5721698 0.5191933
0.09991092 0.2343215 0.30721048 0.1769302 0.16755928 0.11619169 -0.07838138 -0.12796432
-0.017278623 0.17039971 0.21379314 0.14122963 0.45175514 0.2993627 0.2988153 -0.057152715
-0.2628182 -0.27030945 -0.17034787 0.105462536 0.047891293 0.008367456 0.13275865 0.2026863
-0.33069274 0.036445644 -0.138389 -0.17405228 -0.010708544 -0.1888873 -0.12374829 -0.23240888
0.1350667 -0.17769638 -0.005672502 -0.0076137437 -0.12211223 0.15378273 -0.06907497 0.019859299
-0.23203875 -0.34318736 -0.03347918 -0.16207954 0.06813367 -0.14668177 -0.28482556 -0.19863005
0.43608546 1.2274234 0.31908172 0.36665994 -0.06846899 0.11592823 -0.0024710614 -0.0066497317
0.34589744 -1.305802 0.36878902 0.22137566 0.08459867 0.35708332 0.6458164 0.3642862
0.21848758 0.5687088 0.44203702 0.09868562 0.22395986 0.38208428 0.3308506 0.26090053
0.011644786 0.33338654 0.48884606 0.58272827 0.17926589 0.31372443 0.40620127 0.53824
-0.17933248 1.10735 0.03225521 0.37144455 0.19433351 -0.025685161 -0.07963814 0.42459854
0.36320248 -1.3658166 0.5397998 0.4164138 0.44748148 -0.05047378 0.5941689 0.5234796
0.4210221 0.51022196 0.43831703 0.11045879 0.45779058 0.18038152 0.031520218 0.47950876
0.13802668 0.5296684 0.011311555 0.030892015 -0.18479317 0.4742329 0.015230851 -0.09012907
-0.15151443 0.7053891 0.062929705 0.2994365 -0.18722586 -0.07353367 -0.05424924 0.5530076
0.382404 -1.2404357 0.32758284 0.06381209 0.35477877 0.5476183 0.80922693 0.060547657
0.57539725 0.16616528 0.20078717 0.40059084 0.25804558 0.19523145 0.4281276 0.32043898
0.18293665 0.17591824 0.00939748 0.62749165 0.4924241 0.14822948 0.42002997 0.2874239
0.2473593 0.5564711 0.41861883 0.2779065 0.45284212 -0.16422756 -0.050328095 0.24931128
0.35994872 -1.195696 0.39571816 0.4910671 0.3576402 0.2672105 0.64309025 -0.009008361
0.53011996 0.037550572 0.50651795 0.4093996 0.28086194 0.17851087 0.060437147 0.5209083
0.5214576 0.30557287 0.51761216 0.3785172 0.37939656 0.16889587 0.46603894 0.2019028
0.3911067 0.74905884 0.41550934 0.027116869 0.37725684 0.35927382 0.055215143 0.15614544
0.07881129 -1.0750141 0.4895197 0.3642026 0.10371194 0.29061982 0.6894641 0.3204915
0.28754622 0.50011986 0.4264173 0.32665426 -0.1030082 0.43852735 0.56454784 0.029416392
0.59094036 0.15227626 0.1806841 0.0268506 0.3078274 0.3797359 0.5028739 -0.076608695
-0.13523008 -0.31345347 -0.17432943 -0.45652512 0.030475412 0.06274988 -0.23498216 0.13065575
-0.031670164 0.41343635 0.09450348 0.016946621 -0.42247015 0.24077989 0.13904473 -0.16542953
0.3708773 -0.30685443 -0.05616964 0.38618228 0.23998502 -0.10421906 0.21584877 -0.00732805
0.356063 -0.011109474 -0.018532932 0.07542019 0.04813813 -0.14918584 0.018224826 -0.17089877

k_decoder.0.bias f4 [16]
00000000: b2c0 9d3e 0000 0000 f006 993e 81c4 983e
00000010: 9f89 933e 9f4d 873e 04bf 9c3e 4926 00bd
00000020: 1241 10bd f1eb 8fbc 234b bd3e c780 76bd
00000030: 1a98 14bd 9173 30bd 7f20 d8bc fcdb bebc
0.30811077 0.0 0.29888105 0.2983742 0.28815934 0.26426408 0.30614483 -0.03128651
-0.035218306 -0.01756856 0.36971387 -0.060181405 -0.036277868 -0.043078963 -0.026382683 -0.023298256

k_decoder.2.weight f4 [16, 16]
00000000: e32a f03e 5d75 74be 0fe0 553e 1353 1c3f
00000010: 22c6 52bc 36aa 9e3e 0a42 183f 41c3 1fbf
00000020: 121e b3be 146b 38be 613c 80bd eb8a 27be
00000030: ccaa 8dbd 7db1 71be fadf 1ebe 8de5 f5bd
00000040: e5b7 713e b210 b1be a6a7 c13b a9d6 c73e
00000050: 3388 f63e 81c2 9a3e 831c b43d d345 e8bd
00000060: 2163 87bc 9b2e abbe a29d 2e3e e9c2 9f3e
00000070: 3252 b03e 1907 d83b 834e efbd b27f 3f3e
00000080: 0949 083e 5646 cabd 3b02 bfbe a1df 30be
00000090: 8cd4 46be 5756 b5be 684e 613e ef53 3b3e
000000a0: 5ebd 7f3e c154 e1bd 61c9 cbbe c28f cf3e
000000b0: 849c 873d 1bec 13be b448 b93d ab86 793d
000000c0: 5820 2c3d a9e6 dc3e d7e9 51be 8f67 50be
000000d0: 598a bb3d 443b 273e b669 29be 9bd2 b03e
000000e0: 74fe 213e 75e8 6ebe ac29 4c3d 1f8c 973d
000000f0: c481 8c3e 778f dcbe a87e 7cbe c566 7d3e
00000100: 8761 08be f8d1 ad3e ad28 afbe 1c62 923e
00000110: 2c98 1b3d 5898 aebd cf66 96be ff97 8e3e
00000120: 8f67 fb3d 4d3f 793e e227 dd3e d452 83be
00000130: 95d2 31be 1d88 b93e 297a bd3d b0da 7bbd
00000140: 4829 563e 11fa 263e 57dd 063c 5595 98be
00000150: d4c3 eabd 0baf 75be 88b0 553e 26a0 693e
00000160: b313 42be 43c2 50bd cba0 8f3e e5e7 81bd
00000170: 8ddf 893e 522c 573e d39a d1bd 53a1 88be
00000180: 3b30 36be 5cc9 18be e93b a93e 9f13 6d3e
00000190: f037 0f3c d84b d43e 6ae4 263f 91f0 f7be
000001a0: 671f 533e 80ae 6fbe bfb0 c73e a27c 40be
000001b0: 176b 86be f9aa 15be 5058 5bbe e0ba 9ebe
000001c0: 12d9 013f d495 053c 3a47 013f 9355 66bd
000001d0: d738 f23e decb 133f b65c 9e3e 94ad 1bbf
000001e0: c365 90be 8ca4 b1be 78c3 1e3f b987 fb3d
000001f0: 5e9b 8fbe cf30 273e 154d 1a3e 3881 b0be
00000200: f975 483e 2776 0b3e c477 a4be c012 b13e
00000210: c74a 103e b346 1bbe 96d9 cebd ad1e d53e
00000220: 3d3f dd3d 81b9 b23e e73e 68be b160 afbd
00000230: 7fdc d5bd 4517 c03e 0318 30bc 8563 c83d
00000240: 03cf 09bd c4c7 923e 243c 743e 3409 113e
00000250: 3d31 be3e c63f f23e c3d3 883d 16f5 20bf
00000260: b3d4 95be d68b 48be 8b2e f53e d2a6 e0bd
00000270: 369c 923e 2fd5 93bd 6c83 453a 7749 753e
00000280: 0221 1e3f c780 cd3e 3486 123f 95c0 1b3f
00000290: 56f0 e83e a7fe 0b3f 9e6f 22be 3eb4 30bf
000002a0: 8eb8 f53d ca32 d63e 22d9 023f dbdb 17be
000002b0: e28f f3bd 1d84 e3bd d8e3 363e eaee 293e
000002c0: 8bb0 25be c23a 1fbe 2d05 b0be 7168 1f3e
000002d0: 4b9e 933e 8a9f a4be d18b 2bbe d04d 773e
000002e0: 530e 8c3c 3594 513e cc92 babe f338 99ba
000002f0: 9318 5fbe 940a 7bbe 0536 e9bd e32c f63b
00000300: 24fd 8dbc 3370 063e 0d1e 7dbe 4a33 09be
00000310: 9798 ae3e f538 58bc 4735 40be 5ecc ac3e
00000320: 8763 3abd 2847 b5be 3b71 89bd 643c 99be
00000330: 7178 d23e 10e0 b33e f971 18be 075a 19be
00000340: 25f2 78be a9a7 b13e 1996 363d 907e ae3e
00000350: 4a9b 7dbc 9c80 b0be 98d2 abbe 14c6 c9be
00000360: 5d93 8cbd b5ab 643d b7ca a2be 3213 303e
00000370: 6ac0 ef3d b157 663e e13b c4be 4589 f9bd
00000380: 6bfc f33c 99c6 08be 7f7a 33bd b99f ef3e
00000390: 8520 213f 8c6e 333e 88ef 803c 4d12 2dbe
000003a0: 4f83 7a3e 6d31 bdbc ad93 0f3e 78c6 0f3f
000003b0: f157 e93e f712 33be 9c34 f0be 681c 91be
000003c0: 801d a83c f800 bdbe 7698 0e3d d2b0 e4be
000003d0: dfd9 9dbe 46bd 613e b838 45be 8deb aabd
000003e0: 64c1 563e c6de 3cbe 34d4 7abc 67ca a53e
000003f0: fb07 58be f726 9d3e fbed 89be 8ca0 a83e
0.4690772 -0.23872896 0.20886253 0.6106426 -0.012864621 0.30989236 0.5947577 -0.6240731
-0.3498388 -0.18009597 -0.06261516 -0.16361587 -0.069173425 -0.23602863 -0.15515128 -0.12006674
0.23605306 -0.3458305 0.005909878 0.3903096 0.48150787 0.3022652 0.08794501 -0.11341443
-0.01652676 -0.33433995 0.1705232 0.31203392 0.3443771 0.006592643 -0.11684897 0.18701056
0.1330911 -0.09876697 -0.3730639 -0.17272808 -0.19417018 -0.35417435 0.22002566 0.18293737
0.24974582 -0.11002494 -0.39802077 0.40539366 0.0662165 -0.14445536 0.0904707 0.060919445
0.042023033 0.4314473 -0.20499359 -0.20352004 0.09157247 0.16331202 -0.16544232 0.3453568
0.15819722 -0.23330863 0.04984443 0.07399773 0.27442753 -0.43078205 -0.2465769 0.24746235
-0.13318454 0.33949256 -0.3421072 0.28590477 0.03798692 -0.08525151 -0.29375312 0.2785034
0.122756116 0.24340554 0.4319449 -0.2564913 -0.17365487 0.3623666 0.09251816 -0.061487854
0.20914185 0.1630633 0.0082314825 -0.2980143 -0.114631325 -0.23992555 0.20868123 0.22814998
-0.18952827 -0.050966512 0.28052363 -0.063430585 0.26928368 0.21013 -0.102346085 -0.2668558
-0.17791836 -0.14920563 0.3305352 0.23152016 0.008741364 0.41464114 0.6519228 -0.48425725
0.20617448 -0.2340641 0.39002034 -0.18797544 -0.26253578 -0.14616002 -0.21420407 -0.3100195
0.5072185 0.008153398 0.5049931 -0.056233954 0.4730899 0.5773295 0.30930108 -0.60811734
-0.28202638 -0.34695852 0.6201701 0.122817464 -0.28048223 0.16327213 0.15068467 -0.34473586
0.19576253 0.1361929 -0.32122624 0.34584618 0.14091025 -0.15163688 -0.10100095 0.41624966
0.10803077 0.34907153 -0.22680245 -0.08563364 -0.10442447 0.37517753 -0.010747912 0.09784607
-0.033644687 0.28668034 0.23851067 0.14163667 0.3714694 0.4731428 0.06681015 -0.6287397
-0.2926384 -0.19584593 0.47887072 -0.109693184 0.28634804 -0.07218396 0.0007534537 0.23953806
0.61769116 0.40137312 0.5723603 0.6084073 0.45495862 0.54685444 -0.15862891 -0.6902503
0.11998092 0.41835624 0.5111257 -0.14829962 -0.11892678 -0.11109183 0.17860353 0.16595045
-0.16180627 -0.15549758 -0.3437895 0.15567185 0.28831705 -0.3215297 -0.16752554 0.24150777
0.017096674 0.20466693 -0.36440122 -0.0011689946 -0.21786718 -0.24515754 -0.113872565 0.007512675
-0.01733262 0.13128738 -0.24718495 -0.13398471 0.34100792 -0.013197173 -0.18770324 0.3374967
-0.045505073 -0.3540585 -0.0671105 -0.29928887 0.41107515 0.35131884 -0.14887227 -0.14975749
-0.24311121 0.34698227 0.044576738 0.34080935 -0.015478918 -0.3447312 -0.33559108 -0.39408934
-0.06864045 0.055827815 -0.31795284 0.17194822 0.11706622 0.22494389 -0.38326934 -0.12184385
0.029783448 -0.13357009 -0.043817993 0.46801546 0.62940246 0.17522639 0.015739217 -0.16901512
0.24464153 -0.023094857 0.14021178 0.56162214 0.45574906 -0.17487703 -0.46915138 -0.28341985
0.02052188 -0.36914802 0.034813367 -0.44666153 -0.30830285 0.22044858 -0.19259918 -0.08345709
0.2097221 -0.18444356 -0.015309382 0.32380983 -0.21096794 0.3069379 -0.26939377 0.32934988

k_decoder.2.bias f4 [16]
00000000: 5f29 583e 1e6c 503e bf70 b73c 74a1 ebbc
00000010: 5e87 8abc cc42 1abd e4a8 763e 6de4 473e
00000020: 78b7 cbbc 001a 853e 58bd 613e 39c4 c2bb
00000030: fcbf cb3c c712 1cbd d7ff 803e 2ec5 17bd
0.21109532 0.20353743 0.022392629 -0.02876351 -0.016910251 -0.03766136 0.24087864 0.19520731
-0.024867758 0.259964 0.22044885 -0.0059438017 0.024871819 -0.038103845 0.2519519 -0.03705328

k_decoder.4.weight f4 [2, 16]
00000000: f9be 2e3f 4f8e 3a3f 4e25 ab3e 5e32 bebe
00000010: 3326 76bc 1131 17be 8cbb b93e f048 293f
00000020: 8517 dcbe 81e6 b33e e94f f43e b1e3 aabb
00000030: f4d6 953e 1d8d 02bf 40b4 df3e dae6 34be
00000040: 5844 59be 8f41 d23e 2cf3 933e 3074 12be
00000050: 9f03 9abe 09e5 78be 1a18 fe3d 56b0 b13e
00000060: d3fe 9b3d 97ce 42be 7742 fcbe bdf3 c43e
00000070: 5e50 95be e378 cf3e cf8d e43e cd14 8a39
0.6826015 0.72873396 0.334269 -0.37147802 -0.015023756 -0.14764811 0.362759 0.6612692
-0.42986694 0.35136798 0.47717217 -0.005215131 0.2926556 -0.5099657 0.43692207 -0.17666188
-0.21217477 0.41065642 0.28896463 -0.14302135 -0.30080888 -0.2430612 0.12406941 0.34704846
0.07616963 -0.1902412 -0.4926946 0.38467208 -0.29162878 0.40521917 0.4463944 0.0002633691

k_decoder.4.bias f4 [2]
00000000: a21e 303e 5e11 de3d
0.17199185 0.10843156
