.archive/piae_sde/seed_experiments/AE41/best_model.pth (torch, 17378 bytes, 17 tensors)

encoder.0.weight f4 [16, 18]
00000000: 4add b03e e508 0abe de6b 86be a73c 9ebe
00000010: dd46 48be 2b28 17bd 9ab9 4d3e 7d29 60be
00000020: d1f4 d2be 7fa4 0a3e 7ad2 513e faa8 b2be
00000030: df5e 3ebe bd98 93be d535 743e dc5e 173e
00000040: 5d97 c4bd 65af a1bc 2034 4e3e 0594 b03e
00000050: 8216 9a3e d9db eebd da88 8cbe 068a f1be
00000060: 5022 fbbd 298f 993c e32a 99be 0896 f43d
00000070: 855c 8abe c88b 75be e065 1b3e 12c7 9bbe
00000080: 9663 003e ffa4 673e 813d 9b3e 6580 333e
00000090: 9981 ccbe 9c80 07be 3c4c 6dbe c477 d13e
000000a0: 27d4 bd3e b869 ca3e bcc1 c63d 6b75 833e
000000b0: e65f 57be ff4d 68be 5793 ac3e 0aba 8c3e
000000c0: c8a5 84be ff1c fabc 222c ba3d 69dc d2be
000000d0: ea96 bdbe 3a39 433e 7169 d63d 84ef e63d
000000e0: b519 903d d39f e9bb 3891 7abd f503 72be
000000f0: 37e8 07be 5d20 9bbd 9901 763e 1459 2a3e
00000100: 7a8a 3c3e 78c1 983d 4a46 813d 9b3f fe3b
00000110: b7d8 27be 651b 9cbe 6d4e 003d 8be7 a93e
00000120: f306 98be 7e31 18be ae71 bfbe 3f1e 93be
00000130: 2624 c9be 01e5 5abe 8743 95bd d5d0 963e
00000140: 67cf 33be 02f7 4ebe 872d 2dbe 5a5d 3bbd
00000150: 977d 863e 9586 c0be 1bb8 7cbe 5f42 8e3e
00000160: 2ee6 57be e7b0 693d a7df 023f 6420 143e
00000170: 1f14 3b3d 145c ffbb dd05 6dbe dd2d babe
00000180: 6dc7 763b 07f8 063e 328d aabe 8325 f53d
00000190: c404 0e3e 2d7e b2be 4a64 083e 1658 12be
000001a0: b606 523d f3fb 94be 9279 b43e c7a2 eb3e
000001b0: 51ee 85bd 770d 41bd 57df c23d 360b 3e3d
000001c0: 65c5 57be f742 06be c724 4c3e aa7e 3e3e
000001d0: d44d 203e 62db 86be 2890 01be 8f2c 8fbd
000001e0: 61e9 d7bc f0df 5b3e b4b9 c0bd eea2 81be
000001f0: 08de 4b3e bfd5 5bbe 9122 b4bd 318c 0fbe
00000200: 276e 573d 96e5 06be 1c99 de3d 6d12 63be
00000210: b7d4 cd3d dafa 71be 2833 243e ecb3 e2bd
00000220: 74d8 53be 02ea 29be ffed 9abe af7e 9b3e
00000230: ab97 20be 3b69 ccbe c803 c5be 9336 90be
00000240: cce1 5fbd 3383 90bd 69ba 23be 818b eabd
00000250: 8ad3 a8be 3350 a0be 74d0 a1be 63c4 39be
00000260: 84c2 8abe 4d4c d2be 75fd 51be 46ec 3c3c
00000270: 663a 5bbe 82fa 4cbe 1507 c5be 3927 39be
00000280: ca3c a2be 7449 6ebc 919a d4be de4b d9bd
00000290: 5d9a 833e ea30 90be b47c 673e a950 c1be
000002a0: 9e6a 0d3e aebd acbe 24cd bbbe 40d7 0dbe
000002b0: 0e66 66bd 4012 7c3e 7716 cd3e 74e9 7d3e
000002c0: 4c1a cebe c420 873e 48da 9ebe 9cfe 923e
000002d0: c6c1 153e 3906 af3e c7c4 b6bd e6f6 f0bd
000002e0: fc04 82be 35eb 41be 2b76 c9be 9bc1 2c3b
000002f0: 749f 99bd e653 00be e04d 35be a582 23be
00000300: cf9e 3dbd 20e1 debd bac2 8a3c dfb2 90be
00000310: 0667 06be 1971 c4ba 35be 73bc 74f0 00be
00000320: 69c4 b63d b76f 6e3d d142 a5bb 5238 e63d
00000330: ac22 d63d 542d 9abc 405c 18bd 7ec1 01be
00000340: 46ce 2bbe a5af 053d 0035 8ebd 72ac bc3d
00000350: 9eae fcbb f948 473e b41b 0b3d a77a 01bd
00000360: 921d 81be a5d7 bc3c eb08 21be 9378 4a3d
00000370: 1800 913d b335 003e 4d73 0dbd 308a a83e
00000380: 7635 a5be 5b77 943e 513b df3d 9c25 d53d
00000390: 5a88 293d d19f 873e 6a91 04be 4fea bdbe
000003a0: e23f b1bb 9541 f2bc 19b2 17be 96dd 8a3e
000003b0: 096d 72be 0778 33be 993f c2bd e3b6 a2bd
000003c0: 7e08 cb3d 1c2e d93e 62f9 5cbd 1d0a 6abd
000003d0: bbee c83c fce1 83be 2f2f 7f3d 8074 d13c
000003e0: 71b2 8f3e 921f b2bd 9881 9c3e c3f7 f5be
000003f0: c10e 92bd 852e 6c3e fd3f 38be 3bb5 1fbe
0.3454383 -0.13479955 -0.2625417 -0.3090565 -0.19558282 -0.03690354 0.20090333 -0.21890827
-0.41202405 0.13539313 0.20490447 -0.34894544 -0.18590878 -0.28827468 0.2384866 0.1478228
-0.09599183 -0.019736955 0.20137072 0.3448793 0.30095297 -0.11663026 -0.2744816 -0.47175616
-0.12262404 0.018745022 -0.29915532 0.11942679 -0.27023712 -0.23979104 0.15175581 -0.30425316
0.12537989 0.22621535 0.3032036 0.17529447 -0.39942625 -0.13232654 -0.23173612 0.40911686
0.37075922 0.39533782 0.09704921 0.2567552 -0.21032676 -0.22686003 0.3370616 0.27485687
-0.2590773 -0.030531405 0.09090449 -0.41183785 -0.370292 0.19064799 0.1046933 0.11276153
0.07036153 -0.0071296482 -0.061173648 -0.23634322 -0.13272177 -0.07574532 0.24024047 0.16635543
0.184122 0.07458776 0.06312235 0.007759047 -0.16391264 -0.3048965 0.031324793 0.33184466
-0.29692802 -0.1486263 -0.37391418 -0.28734013 -0.39285392 -0.2137642 -0.072882704 0.294562
-0.17559586 -0.20211414 -0.16911899 -0.045743324 0.26267692 -0.37602678 -0.24679606 0.27785012
-0.210839 0.057053473 0.51122516 0.14465481 0.045673486 -0.007792959 -0.23146768 -0.36363116
0.0037655488 0.13180552 -0.33310848 0.119700454 0.13869005 -0.3486189 0.13319507 -0.14291415
0.05127593 -0.29098472 0.35249 0.46022627 -0.06539596 -0.04713198 0.09515255 0.04639741
-0.21071394 -0.13111483 0.19935904 0.18603006 0.15654689 -0.2633925 -0.12652647 -0.06990921
-0.0263564 0.21472144 -0.0941042 -0.25319618 0.19908917 -0.21468256 -0.087956555 -0.14018323
0.052595284 -0.13173518 0.10869047 -0.22174998 0.10050338 -0.23630849 0.1603514 -0.110694736
-0.20688039 -0.16593173 -0.30259702 0.3037009 -0.15682857 -0.39924034 -0.38479447 -0.28166637
-0.054658696 -0.07056274 -0.15989079 -0.114523895 -0.32973891 -0.31311187 -0.3160435 -0.18141322
-0.2710153 -0.41073838 -0.20506842 0.011530941 -0.21408996 -0.20017436 -0.38481966 -0.18081369
-0.31687003 -0.01454388 -0.41524175 -0.10610174 0.25703707 -0.28162318 0.22606164 -0.3775685
0.13810202 -0.33738464 -0.36679947 -0.13851643 -0.05624967 0.24616337 0.40056202 0.24796087
-0.40254438 0.26392186 -0.3102591 0.28709877 0.146247 0.34184435 -0.08924251 -0.11765842
-0.25394428 -0.1893738 -0.39347968 0.0026360515 -0.075011164 -0.12532005 -0.17705488 -0.15967806
-0.04629403 -0.10882783 0.016938556 -0.28261468 -0.13125238 -0.0014987319 -0.014876892 -0.12591726
0.08924181 0.05821201 -0.0050433655 0.11241211 0.10455832 -0.018820442 -0.03719735 -0.12671468
-0.16777906 0.03263821 -0.06943703 0.09212579 -0.0077112457 0.1946143 0.033961967 -0.03161111
-0.25217873 0.023052046 -0.15726058 0.049431395 0.07080096 0.12520485 -0.034533788 0.3291793
-0.3226735 0.2899731 0.108999856 0.10407564 0.0413898 0.26489118 -0.12946096 -0.37092826
-0.0054092268 -0.029572288 -0.14814033 0.27122182 -0.23674406 -0.17526256 -0.094847865 -0.07945039
0.09913729 0.4241799 -0.053948767 -0.05713855 0.024527898 -0.2575835 0.062300857 0.025568247
0.28065827 -0.08697428 0.30567622 -0.4804059 -0.0713172 0.23064621 -0.1799316 -0.15596478

encoder.0.bias f4 [16]
00000000: 7600 acbd def6 71bd 0000 0000 285c 64bc
00000010: 0000 0000 036b d93c 08a1 41be 0000 0000
00000020: 0000 0000 0000 0000 0000 0000 00b2 92bd
00000030: 0acf 76bd d102 f2bd cc38 f2bd 631e 03be
-0.083985254 -0.05907332 0.0 -0.013937987 0.0 0.026540285 -0.18909085 0.0
0.0 0.0 0.0 -0.07162857 -0.06025604 -0.118169434 -0.118272394 -0.1280456

encoder.2.weight f4 [16, 16]
00000000: aaef babe aab0 68be bb69 953e 99eb dc3d
00000010: 4652 87be cdb2 00be 9d5c c03d 59ab 9b3c
00000020: 481e 3a3e 0d28 61bd b505 98be 83f1 ba3e
00000030: 1a5b cabe 7800 b83e b717 80be 22ec 92be
00000040: 1f8f e33d 4cb3 dabe 0620 e33d ab12 533e
00000050: b099 8cbe f194 dcbd fb30 cc3e 760d e33d
00000060: 5a64 67bd ea14 683d 81d0 033e d76f aebe
00000070: c7e5 70be 7277 94be 4d48 b23e 7a76 46be
00000080: 376d a73e 8c0f 593d 6648 743d 1407 24be
00000090: d9b9 743d f88e 77be 3f9b af3c 136c b2bd
000000a0: 19f9 4ebe 8a3b fe3a 6b15 fd3c 6cf1 94be
000000b0: 76a1 483e 9452 ab3e 4376 bcbd fa1e 723e
000000c0: 7429 dcbe d1d5 ccbe 3bb4 0fbe 68e7 993e
000000d0: 9cd4 1ebe cd67 ec3d 517a 893e fc1d 85be
000000e0: 6a4a bfbe 9790 6abe fb18 fe3d badc d8be
000000f0: 68fd 7ebe fe0f a5be 3c6a 8fbe bcde 4dbe
00000100: 77d0 b23e c257 c73e cf93 ad3e 4f33 a73b
00000110: 5194 5e3e b4dd 83be 5fb7 bebc 8c79 a33e
00000120: 4a87 263d a7fd 523e e222 233d f636 5bbe
00000130: b91b 81bd 9470 d83a 85be 96bd 275a 61be
00000140: d277 10bd 6ece 8bbe 31e2 18be 8ea8 c23e
00000150: 183a 43be a46e fbbd 2629 51be 5f4e b63e
00000160: 2196 c9be 9035 82bd 1e72 58be c18b b53e
00000170: 6a11 123e 4e78 a43e 172d aa3e 4dc6 4c3d
00000180: d967 1c3e c26e 84bd e2f9 bc3d 46ea 713e
00000190: b22d dc3d 0fab a2be 5b7d bd3e 03b4 87bd
000001a0: dd18 bdbe 3267 c3bd 884b 593e 8a76 553d
000001b0: 170e 5ebd 9cbe 58be f689 b03e ff90 993d
000001c0: 7ae4 afbd d608 ecbd bfd5 d7bd e9e8 3ebe
000001d0: d886 143e 267b 94be d837 b53e 37e4 92be
000001e0: 58ca 1fbe e423 b2be 86e7 ebbc 3b2e d6be
000001f0: e28f a23e 58ba c2be d50d 8e3e 814f 31be
00000200: 2c31 8a3e b0c7 94bd 2a7b 81be 5d5e 8bbe
00000210: d5ec 823d 3492 fabd 01f2 0a3e c008 4ebe
00000220: eaa7 283e a30d d8be d8f3 cdbc f969 7fbe
00000230: 0a59 bcbe 3b19 c0be 868b f3bd 1a02 bfbe
00000240: ef00 f6bb 6950 923d d4d0 b03e c110 5a3d
00000250: cba1 7dbe 37e9 ccbe 1b6d 9a3e 68cc bbbe
00000260: 5b9f 00be 819a eeba a911 88be 2bbb 963c
00000270: 416b b6bd 08a7 54be 36a2 63be cdb4 053e
00000280: b6c4 a93d 37f6 7f3d 5251 863d 62f7 ee3d
00000290: 33d6 653e 2192 7a3e 4584 393e e074 94be
000002a0: d91e 66be 673c b7bd c0b7 cbbe a629 5d3e
000002b0: 305f bfbd 1078 86bd f8de 77be 7b0f 1cbe
000002c0: ef7d babe fae3 843e 488b 613e 342f dbbd
000002d0: 8859 af3e f3f8 10be a4ad a5be dfe2 3dbd
000002e0: a938 a9be 7c05 483c 4bcc 6a3e 477b 983e
000002f0: b0ff c4be b995 45be be1d 373e 1f59 94bd
00000300: 18d0 29be 5887 9fbe 5c41 903e 7496 8b3e
00000310: 2676 b7be 988c 35be 0607 45be 6abc 523e
00000320: daf7 12be b272 c5be 9bac 5ebc f116 cbbe
00000330: 2dfe 80be 6dcd 833e 9ad7 a53e 0030 87be
00000340: 41b3 d73e 3ea5 223e 5218 8a3d 0545 413e
00000350: a8cb b4be 1fda 72be 3522 4abe a5e7 cbbe
00000360: 117a 733d fdb4 c03e 75ab 9a3e 4ed5 50be
00000370: 0223 403e d684 af3d 34ec c1be be79 7b3e
00000380: f0ed a23d 620f af3e 8f1a d6bd c66e a93c
00000390: fc8a 0cbe a8e1 47be e3b8 003e 6fa1 d73e
000003a0: c4bf debc 3008 aebe 065f c7be 8f04 9abe
000003b0: c313 963e 584d 603e 7477 f1be 42e3 823e
000003c0: 49ed 953e 6b5f ae3e a1bc 84be c9ec 2cbe
000003d0: bc0e 843e dc98 e1bd ac88 d4be 9451 e3bd
000003e0: ca0e 73be cc06 5dbd df2a cdbe 993b 853e
000003f0: 489c b5be e0b4 803e 8d40 b5be a7d2 a63e
-0.36510974 -0.22723642 0.29182228 0.10787124 -0.26429957 -0.12568207 0.093926646 0.019002603
0.18175614 -0.054969836 -0.29691854 0.36512384 -0.3952263 0.35937858 -0.25018093 -0.2869578
0.111112826 -0.42714918 0.11090092 0.2061259 -0.27461004 -0.10770596 0.3988112 0.11086552
-0.056492187 0.05666057 0.12872507 -0.34069702 -0.23525153 -0.2899738 0.34820786 -0.19381133
0.32700512 0.052993342 0.059639357 -0.16018325 0.05974755 -0.24175632 0.021436332 -0.0871202
-0.2021221 0.0019396406 0.030894002 -0.2909044 0.19592842 0.3346144 -0.09202244 0.23644629
-0.43000376 -0.4000688 -0.14033596 0.3005936 -0.15510792 0.11543236 0.26851133 -0.2599944
-0.3736146 -0.22906719 0.124071084 -0.423559 -0.24901354 -0.32238764 -0.28010738 -0.20104498
0.3492467 0.3893414 0.33901832 0.005102552 0.21736266 -0.25755084 -0.023280798 0.3192867
0.040656365 0.20604573 0.03982819 -0.21407685 -0.06304116 0.0016513043 -0.073605575 -0.22007047
-0.03527052 -0.2730593 -0.14930035 0.38019222 -0.1906513 -0.122769624 -0.20425853 0.35606667
-0.39372352 -0.063578725 -0.21137282 0.35458186 0.14264455 0.32123035 0.33237526 0.0499938
0.1527399 -0.06466438 0.09227349 0.23624524 0.10750903 -0.31771132 0.370097 -0.066261314
-0.36933032 -0.09541167 0.21220219 0.052115 -0.054212656 -0.21166462 0.34480256 0.07498359
-0.085885 -0.11525123 -0.10538816 -0.18643536 0.14504564 -0.29000205 0.35394168 -0.2868974
-0.15604532 -0.34793007 -0.028796922 -0.41832146 0.317504 -0.38032794 0.27744928 -0.17315485
0.2699064 -0.0726465 -0.2528928 -0.2722043 0.063928284 -0.12234917 0.1356888 -0.20120525
0.16470304 -0.42197904 -0.025140688 -0.24942769 -0.3678668 -0.3751925 -0.11891846 -0.3730629
-0.0075074355 0.07144243 0.34534323 0.053238634 -0.2476875 -0.4002168 0.30161366 -0.36679387
-0.1256079 -0.0018204005 -0.26575974 0.018399796 -0.08907176 -0.20766842 -0.22229847 0.13057251
0.08289473 0.06249067 0.06558479 0.11668278 0.22444992 0.24469806 0.18116863 -0.2899542
-0.22472705 -0.08947068 -0.39788628 0.21597919 -0.093443274 -0.06565869 -0.2420615 -0.1524028
-0.36424205 0.25955182 0.22025788 -0.10702363 0.34247994 -0.14157467 -0.3235904 -0.04635894
-0.3305104 0.012208339 0.22929494 0.29781553 -0.38476324 -0.19295396 0.1788244 -0.07243561
-0.16583288 -0.31157947 0.28174865 0.27263224 -0.35832328 -0.17729414 -0.1924096 0.20579687
-0.1435236 -0.38564068 -0.013590957 -0.3966594 -0.2519392 0.25742665 0.32391053 -0.2640381
0.42128947 0.15883347 0.0674292 0.18873985 -0.35311627 -0.23716019 -0.19739611 -0.39825168
0.059442583 0.37638083 0.30208936 -0.2039387 0.18763354 0.08570258 -0.3787552 0.2455816
0.07955539 0.34191424 -0.104542844 0.020682704 -0.13724893 -0.19519675 0.12570529 0.42115352
-0.02719105 -0.33990622 -0.38939685 -0.30081603 0.29311952 0.21904504 -0.47161448 0.2556401
0.29282597 0.34057173 -0.25925162 -0.16887201 0.2579249 -0.11015484 -0.41510522 -0.11099544
-0.2373611 -0.05396156 -0.4007177 0.26022032 -0.35470796 0.25137997 -0.3540081 0.3258259

encoder.2.bias f4 [16]
00000000: 0000 0000 0000 0000 a7d1 793b 0000 0000
00000010: 0d7f 7e3d 0388 b1bd cd9e 1bbe 0000 0000
00000020: 0000 0000 0000 0000 d7e8 dabd c6b8 0dbd
00000030: 0000 0000 0000 0000 632f 35bd 9150 9fbd
0.0 0.0 0.0038119347 0.0 0.062132884 -0.0866852 -0.15197296 0.0
0.0 0.0 -0.10688942 -0.03460004 0.0 0.0 -0.044234645 -0.07779039

encoder.4.weight f4 [32, 16]
00000000: 5ddc a13e f108 a1bc d712 94be 3bb9 0fbe
00000010: 2d92 313e 2d50 053e d34c 87bd 1c0e 2a3e
00000020: 6a90 2b3e e737 d7bc 00a6 89be cc00 a3bd
00000030: a356 8cbe d6ca 123e 4a40 ed3d a53f a13e
00000040: 8e1c 643e f263 a33e 5b82 1a3d 4ed5 6b3d
00000050: d622 ebbd 7bdd 903c 4b6a 7bbd 7b18 403e
00000060: 8177 a83e dc03 1fbe 931d 80be 2fd1 a0bd
00000070: 75b6 41bc a479 873c ed13 5c3d 3a2f 643e
00000080: 4b12 3abe 98c6 ad3e a63c fc3d 03f6 debd
00000090: dbdb 8dbe 40bb e63d ca8f 48bd 6185 a53e
000000a0: 98fc 933d e3e0 923d 0ff7 a63e d4e2 173e
000000b0: 94f5 ad3e 9967 d53c c6d1 6cbe 7d61 f43d
000000c0: 5acd c13c 2700 b5bd affc 653e 0486 aabe
000000d0: 0703 8cbe 6b90 d8bd 728d 06be b3ad d8bc
000000e0: ec99 99bd 1974 4a3b f18d 61be 7036 103d
000000f0: 6cee 64bc bad0 e43d fce6 debd 02a2 e7bd
00000100: 0108 adbe 50f9 45be e054 d2bd daaa 573d
00000110: 75a3 cbbc 77c8 debd 20ea 263e 8291 6c3e
00000120: c760 7a3e d609 6fbe b535 a43e c272 e5bc
00000130: e675 63be 1b0c 82be 2710 c73e 73e8 363d
00000140: a60b 9fbd e140 9b3e 481b 5cbe 7401 0cbe
00000150: c909 563e 3c80 433e b925 95be ce41 ca3d
00000160: 73a8 30be 3a0b c1bd 208f 9b3d fa09 fbbd
00000170: 35dc 7fbe 210f 87be e0fe f6bd 354e 23be
00000180: 818b f73d 3521 66be 317b 3cbc 8e67 51be
00000190: 9486 babd 1695 8abe 0a6d 8fbe 82ce eebc
000001a0: 1d17 e33d da4b 98be b20c dbbb 0242 33be
000001b0: 29bb 6ebe 1421 5bbd 82a1 4e3e d1bd 823e
000001c0: 76bc a13d ce14 263e 72fa 003e e7a3 31be
000001d0: 2392 eb3d 15c2 4fbd 722a 3b3e 530b 8cbe
000001e0: a596 a13e 48c6 8f3e 395b 193e ff42 a03e
000001f0: c58b 12bd 399a abbe e4ac c3bd ad05 0a3e
00000200: 0d5a 43be 219d 92be c6b9 dfbc 68e6 88be
00000210: 9d3a 7f3e 3fda 313e 6da4 04be 7a3d 84be
00000220: 02ae a43e 6955 9cbe 1806 17be dcca 8fbe
00000230: 5ca3 a53e 46d4 8cbe eac9 843d 2f1d c53b
00000240: 788b c7bd 4853 ad3e 8371 82bd 984b 0dbe
00000250: 85cc d3be cf03 15be 5db1 a5be 4bac 903e
00000260: 0c21 173e fe9c fabd 7c50 a1bd 9bca 183e
00000270: 2588 06be b4e6 ac3e 4c1f 763e 76ac 053e
00000280: 9a15 13be 5e44 6cbe 3d65 fcbc e2e8 ce3d
00000290: 5c32 8d3d 66ba 1fbd 1399 33bc f831 7f3e
000002a0: 22b8 9f3e 45be b2bd 1efa 813e 9ea7 e03d
000002b0: 8e6a 993e b8ea 063e 4fbd 01be 4d03 05be
000002c0: 6d78 183e b999 8c3e 3673 153e dbd0 aebd
000002d0: b7fb 67be 4354 88be 4100 713c 150f 543e
000002e0: 6699 3b3e ff4e 33be ccf0 5c3e 2abf 1abe
000002f0: f6c9 32bc ffdb 87bd bd03 afbe 03ab 483e
00000300: a4f5 b3bd ac49 5fbe 875c d8bd 107c 98be
00000310: 5bd4 063e 9c97 a7bd 5cd0 20be ea9b 9e3e
00000320: 235c 84bd 3fb3 3c3e f211 79bc 3cab b33c
00000330: d25a 4cbe e1a0 373e 48bf f8bd 79d7 a93e
00000340: d651 a03e 421b d43d f719 9bbe dacd 4d3e
00000350: c9ab 8e3e 50ec af3d e8f1 923e 19b3 a5be
00000360: 95f5 b23d 1a1d a2be f052 653d 74d1 cf3d
00000370: aca1 423e e1bf 573e 01f7 a23e 5a81 0f3d
00000380: 3a4e 80be ab70 e8bd cb7a 863e d39a ad3e
00000390: 2a2c 373e b066 04be a38f 093e 5c8a 9dbe
000003a0: 65fb 10be 3ce1 adbd 68c7 50bd 0d56 9ebd
000003b0: 9142 59be 716e 4a3c d06a 8fbe a829 31be
000003c0: 6ba6 733d 0985 af3e 3485 873e 22dd 86be
000003d0: 4638 2bbe 47de 21be 01f7 81be 8e51 88be
000003e0: a0ea 293e 1796 abbc 5dd2 3d3e 3003 c8bd
000003f0: 040c cf3c f7f5 2cbc 1cea 093d f190 6ebe
0.31613436 -0.019657584 -0.28920624 -0.14035504 0.17340918 0.13018866 -0.0660645 0.16606945
0.16754308 -0.026271774 -0.2688446 -0.07959136 -0.2740985 0.14335188 0.11584528 0.3149387
0.22276518 0.3191219 0.037721973 0.05757647 -0.11481254 0.017683735 -0.061380666 0.18759339
0.32903674 -0.15528816 -0.25022563 -0.078523986 -0.011823286 0.016537495 0.05372994 0.2228364
-0.1817104 0.33940578 0.12316255 -0.10886767 -0.277068 0.11266184 -0.048965253 0.32328323
0.07225913 0.071718 0.32610366 0.14832622 0.33976424 0.026050376 -0.23126897 0.11932657
0.02365749 -0.0883792 0.22459672 -0.3330537 -0.2734606 -0.105744205 -0.13139895 -0.026450014
-0.075000614 0.0030891954 -0.22026803 0.035208166 -0.01397286 0.11172624 -0.108839005 -0.113101974
-0.3379517 -0.19333386 -0.10270095 0.05265317 -0.024858216 -0.108780794 0.16300249 0.23102382
0.2445098 -0.23343596 0.32072225 -0.028008822 -0.22212943 -0.2539986 0.3887951 0.044655275
-0.07765894 0.30322936 -0.21494782 -0.1367243 0.2090217 0.19091886 -0.29130343 0.098758325
-0.17251758 -0.094259694 0.07595658 -0.12257762 -0.24986346 -0.2637873 -0.12060332 -0.15947802
0.12087155 -0.22473605 -0.0115039805 -0.20449659 -0.091077 -0.2706687 -0.28012878 -0.029151205
0.11088393 -0.2974537 -0.006684863 -0.17505649 -0.23313583 -0.053498343 0.20178798 0.25535443
0.07897274 0.16218874 0.12595537 -0.1734768 0.11502483 -0.0507222 0.1827791 -0.2735239
0.31560245 0.28080964 0.14976205 0.31301114 -0.035777826 -0.335161 -0.09554461 0.13478728
-0.1907732 -0.28635505 -0.027310263 -0.26738286 0.24924703 0.1736841 -0.12953348 -0.25828153
0.32164007 -0.30533913 -0.14748418 -0.28084457 0.32351196 -0.27505702 0.064838246 0.006015442
-0.097433984 0.338526 -0.06369307 -0.13798368 -0.41366974 -0.14552234 -0.3236188 0.2825645
0.147587 -0.12236975 -0.07876679 0.14921038 -0.13137873 0.33769763 0.24035376 0.1305407
-0.14363709 -0.23072955 -0.030809993 0.101030126 0.06894371 -0.038996123 -0.010961789 0.24921405
0.3119517 -0.08727697 0.25386137 0.109694704 0.29964107 0.13175476 -0.12669872 -0.1298954
0.14889689 0.2746103 0.1459473 -0.0853593 -0.22654615 -0.26626787 0.014709533 0.20708878
0.18320236 -0.17510603 0.21576232 -0.15111986 -0.010912409 -0.06633758 -0.3418254 0.19596486
-0.087870866 -0.21805447 -0.10564523 -0.29782152 0.13166945 -0.08183214 -0.15704483 0.30978328
-0.06462886 0.18427752 -0.015202032 0.021932237 -0.1995652 0.17932464 -0.12145859 0.33172205
0.31312436 0.103567615 -0.30293247 0.20098057 0.27865437 0.08589995 0.28700185 -0.32363203
0.08738247 -0.31662828 0.0559873 0.10147372 0.19006985 0.2106929 0.31829074 0.03503547
-0.25059682 -0.11349615 0.2626556 0.33907184 0.17887941 -0.12929797 0.134337 -0.30769622
-0.141584 -0.08490226 -0.05097142 -0.07731257 -0.212168 0.012355433 -0.2801118 -0.17301047
0.05948488 0.34281185 0.26468813 -0.26340586 -0.16720685 -0.15807448 -0.25383762 -0.2662472
0.16593409 -0.020945592 0.18537278 -0.09766233 0.025274284 -0.010556689 0.03367053 -0.23297478

encoder.4.bias f4 [32]
00000000: 36b7 3e3d bf12 8bbd b2b4 ac3b 6260 d23d
00000010: 6552 303d e441 843d d609 9f3d 2dca 7bbe
00000020: 565a bc3d 287e 163e 7a60 91bd 796c c93c
00000030: 50a6 3c3e c93b a8bd ab28 653c b649 153e
00000040: aa75 91bc 44e9 1d3d 78b1 da3c f3ae 733d
00000050: d9a9 0bbd 472f 79bd 7685 92bd 9bf2 99bb
00000060: b4ce 203d 7ed7 873e a407 7b3d 4276 9b3b
00000070: 77d4 b3bd a3c5 69be ed1f 0b3e 6e43 0f3d
0.046561442 -0.06790685 0.005270564 0.1027229 0.043047328 0.0645788 0.07765548 -0.24588843
0.09196918 0.14696562 -0.070984796 0.024587857 0.18422818 -0.08214528 0.013986747 0.145789
-0.017756302 0.038552538 0.026695952 0.059493016 -0.034097526 -0.060836103 -0.07154362 -0.0046981103
0.039259627 0.26531595 0.061286584 0.004744322 -0.08780759 -0.22829299 0.13586397 0.034976415

nee_decoder.0.weight f4 [16, 32]
00000000: f95e dd3b 4e40 743e 6543 d23d 52cb 88bd
00000010: ebdf dcbd f084 eb3c 5734 9d3e f497 8abe
00000020: 0182 80bd b2a2 aa3e bdac 8ebe 002f 06be
00000030: 77d4 0abe ebc3 acbd add1 943d 7dd7 993e
00000040: 71d2 f9bd cdb8 b2be d0f0 603e 130b 313d
00000050: b007 43be bcb1 55be 188b e93c 92e0 da3b
00000060: 4d0f 9cbe 47b6 823d 0ea3 283e f868 2fbe
00000070: ef2b d13e 72a7 903d d5e7 dd3d 4d63 8b3e
00000080: 6478 983e b455 32be 1e29 623e 1471 1b3e
00000090: 90a0 c13d 88b1 d33d 1aed 9dbe 2d42 c6bd
000000a0: 0834 fd3d ead9 c23d 395b 923e f94d 72be
000000b0: 85dd f03d 1caf 013e 1eb6 c1be beac 1cbd
000000c0: cfd4 b63e 3939 033e 658f 7d3e d682 7a3e
000000d0: 9098 8d3b deb1 a7bd 4e9f 333e edb0 8f3e
000000e0: 21e1 8c3e f60a e53d af7f 4abd 066a 8fbe
000000f0: 5ffc 3c3e 60a4 053e b2ef b4bd da1e 53be
00000100: 7b47 853e 422f 493e d816 313e a5e0 823e
00000110: 3427 4f3c 7927 9abe b7fb da3d 4c89 9abe
00000120: dfa4 a1be 7fb3 26be c7b6 74bb 10ea d0be
00000130: cffb bcbd 3b37 983e a7be 69bd cfad 78be
00000140: a9a6 02bf f197 0dbf 0c0e cfbd 7682 53bd
00000150: f163 193d d8d1 7fbe 3ea9 d6bb cf85 9abe
00000160: ead4 aa3e 509a 883e 52ca 47be 69ba 5ebd
00000170: 58f9 643c eec1 9b3e 063e 803c 28b5 653e
00000180: f9f3 74bc 5f89 4ebe c122 debb 77ec 6e3e
00000190: 28bc 0abe 8654 353e a038 aebe d252 4b3e
000001a0: 6532 723d 2231 4fbe 4311 583e eb01 b83e
000001b0: be70 00bd 69b0 a33e 2324 70bb fd44 d33c
000001c0: 70cb 2bbd c633 163e 577b a0be 3c8b acbe
000001d0: 854f f93d ce31 7ebe d831 093e 92aa 90bd
000001e0: 0725 59be 059d b23e 11a9 f1bd ec76 e53c
000001f0: c262 6a3d 471f 27be 2581 0d3e 91ef 0d3e
00000200: ab2a ab3b 181f 88be 0503 a43e 022b 07be
00000210: 905e 7bbe 7bc1 423d c79d 77be 3292 f43d
00000220: c010 9abd 06ca 983c 949b 933e 0a17 ed3d
00000230: ba05 90be 1258 17be eaa9 9dbe a0de 823e
00000240: 0ebb 383e 725e 433e 2523 77bd b84c 263d
00000250: 7cd3 513e 0233 af3e 91cd 0d3c e70b 853e
00000260: b324 d1be f0d2 9fbd e64c 753e 8a2f 003e
00000270: d005 943e d46a 7a3d 8738 3e3e b272 0f3c
00000280: cbad 8e3e da67 b8be 9409 a2be 1b47 1cbe
00000290: 5319 0cbe 9079 083e 0eed 383e 30b6 93be
000002a0: 1e83 8b3e 257f c03e bf0d d03d 3e02 60be
000002b0: e108 fabc 9e47 afbe e6d7 263e db45 62bb
000002c0: 164f 253e 93f4 8bbe 0ec8 9b3e 3cd0 9a3e
000002d0: 8796 3abe a83f 2b3e 43fd 933d afdc d73d
000002e0: 11db fbbd a567 fcbc f125 b73e 9989 843e
000002f0: 0c42 633d 97ae 4b3e 7cfd 36be bb2b 93be
00000300: b000 853d 4f8d 6dbe 0be7 6e3e 8023 a43e
00000310: 1057 c9be b4a5 1c3d 5363 b6be 5a96 d53d
00000320: bb99 553e 7586 ad3d 0d3a 7cbe cc46 913a
00000330: c8de 553e e214 1d3e 747a 053e 0e77 933e
00000340: 1385 bfbe 9e71 38be 3c08 663e 6028 b7be
00000350: cae0 6b3c e336 b8be 46cb 433d b4d4 95be
00000360: 6926 813d 4786 1b3e a3b0 95be e1d8 c5bd
00000370: a796 093e b1a6 223d b225 413e 7880 5c3e
00000380: 9337 89be adbb 1bbf 5518 8bbe 5e77 c6bd
00000390: a086 c73d e852 2dbd da4d 373e 9d04 27bd
000003a0: dd72 dabe 340d 8f3d 495c 023f f9d7 82be
000003b0: 450a bc3e 2f90 e8bd f79f 8fbd e2cf d8bd
000003c0: d7fa f33d 61e2 b7be 9642 ce3e 76de ab3d
000003d0: c18c 99be 619a c8bd 2cb3 5b3e 82d0 d2be
000003e0: ac0f 0fbe 1a2a 7f3e e072 883e b8b8 1ebd
000003f0: 7791 e33e f79d c1be 5be5 14be 04dd aa3e
0.0067557064 0.23852655 0.10266761 -0.06679405 -0.107848965 0.028749913 0.30703995 -0.27069056
-0.06274796 0.33327252 -0.27866164 -0.13103867 -0.13557611 -0.08435806 0.07266555 0.30047217
-0.12198342 -0.34906617 0.21966863 0.04322345 -0.19045901 -0.20868582 0.028508708 0.006679603
-0.30480424 0.06382423 0.1646845 -0.17129886 0.4085383 0.07063188 0.10835234 0.27224198
0.2977935 -0.17415506 0.22085997 0.15179855 0.09454453 0.10336596 -0.30844957 -0.09680591
0.1236344 0.0951422 0.28585222 -0.23662557 0.117610015 0.12664455 -0.37834257 -0.038250677
0.35709235 0.12814797 0.24761732 0.24463972 0.0043211654 -0.08188222 0.17541239 0.2806467
0.2751551 0.11183731 -0.049438175 -0.28010577 0.18455647 0.13050985 -0.08834781 -0.20617238
0.26031098 0.19646934 0.1729387 0.25562015 0.012643624 -0.3010824 0.10692542 -0.30182874
-0.315711 -0.1627941 -0.003734039 -0.40803576 -0.09227716 0.29729638 -0.057066586 -0.24285053
-0.51035553 -0.5530997 -0.10110101 -0.05163809 0.037448827 -0.24982393 -0.006550937 -0.30180213
0.33365566 0.2668023 -0.19510773 -0.054376993 0.013975464 0.30421394 0.015654575 0.22432387
-0.014950746 -0.2016959 -0.0067790453 0.23332392 -0.13548338 0.17708024 -0.34027576 0.19855812
0.05913009 -0.20233586 0.21100335 0.35938963 -0.03135752 0.31970528 -0.0036642633 0.025789732
-0.04194206 0.14668187 -0.313441 -0.33699977 0.1217337 -0.24823686 0.1339792 -0.07063784
-0.21205531 0.3488542 -0.11799825 0.028010808 0.05722309 -0.16320525 0.13818796 0.13860919
0.0052235923 -0.26586223 0.32033554 -0.132 -0.24547791 0.0475478 -0.24181281 0.11941947
-0.07522726 0.01865102 0.28829634 0.1157666 -0.2812937 -0.1477969 -0.30793697 0.25560474
0.18040106 0.19078997 -0.06033625 0.04060051 0.20490831 0.34218603 0.008654968 0.25985643
-0.40848312 -0.07803905 0.23955116 0.12518135 0.28910685 0.061137035 0.18576251 0.008755373
0.2786697 -0.36016732 -0.31647933 -0.152615 -0.13681535 0.13327622 0.18059179 -0.28849936
0.27248472 0.37597004 0.10158872 -0.21875855 -0.030521812 -0.34234327 0.16293296 -0.00345265
0.1614345 -0.27335033 0.30426067 0.30236995 -0.18221484 0.16723502 0.0722604 0.10540139
-0.12297643 -0.03081114 0.35771134 0.2588623 0.05548291 0.1989082 -0.17870134 -0.287443
0.06494272 -0.23198436 0.23330323 0.32058334 -0.39324236 0.038243964 -0.35622653 0.10429068
0.20859425 0.08472911 -0.2463152 0.0011083721 0.20885766 0.15339997 0.13034993 0.2880177
-0.37406215 -0.18012092 0.22464079 -0.3577299 0.014396856 -0.35979375 0.04780128 -0.29263842
0.06306154 0.15187941 -0.29236326 -0.09660507 0.13436376 0.03970975 0.18862036 0.21533382
-0.26800212 -0.60833246 -0.27167 -0.09690736 0.097424746 -0.042315394 0.17900792 -0.040775884
-0.4266576 0.0698494 0.50922066 -0.255554 0.36726585 -0.11355626 -0.07012933 -0.105865255
0.11913078 -0.359149 0.40285176 0.083920404 -0.299902 -0.097950704 0.21455067 -0.41174704
-0.13970822 0.24918404 0.26650143 -0.03875038 0.44446918 -0.3781583 -0.14540617 0.33371747

nee_decoder.0.bias f4 [16]
00000000: 5b41 73bd 82d8 2a3d 356f 26be 9823 aa3d
00000010: 04b7 a0bc e788 b0bc 5b97 953e 075a 043e
00000020: eb36 46bc dd37 68b9 0000 0000 6bac c03d
00000030: e894 06bc c673 96bc 4c16 1ebd fc60 0ebc
-0.0593885 0.041710384 -0.1625336 0.0830757 -0.019618519 -0.021549655 0.29217038 0.12924968
-0.012098054 -0.00022146055 0.0 0.09407886 -0.008214213 -0.018365752 -0.038595483 -0.008690115

nee_decoder.2.weight f4 [16, 16]
00000000: 0cff 893d 0e4d f0be b12b c0be 3d38 42be
00000010: 131d 5f3e 429b c0be b455 8d3e be09 c73e
00000020: 2157 223e e836 29be 3b54 0ebe 8e95 f63d
00000030: bd3b 4e3e 5c1f 26bb 8fbe afbe 0e15 87be
00000040: 70a1 943e 989d 463d 1536 623e 2385 b8be
00000050: 2fd6 f43e 4aa2 b83d 6c45 05bf 253b dcbe
00000060: a689 a93d 6d40 3ebd eb43 babe 8740 403e
00000070: ecff bc3e 3d77 f5be 128e 983e 884e c33d
00000080: f03f 10be 41e7 9cbe d924 babd da6f 143d
00000090: d97f 08be 6130 923e 8817 b93e 28f1 333e
000000a0: 8807 e0bd a2db 4cbe 7b1d 223e 4ea1 7b3e
000000b0: 15aa 9abe f7b5 b33e 7c58 b7be c4c3 22be
000000c0: 3061 77bd 330c 02be ce05 5d3e 8c6b 1dbd
000000d0: a2b7 9ebe 48ae a73c 1ace 873e cfbb 873d
000000e0: e574 2a3e e325 203e 5d31 af3e 3a5e 8dbe
000000f0: 076e 6ebe edc9 273f c05e ce3e b31a 3b3e
00000100: 87da dcbe f222 603e 7337 85be ba82 ca3e
00000110: 9b07 ef3e 3d4c b63e e924 83be 188f ddbb
00000120: 4199 523e 08a5 e63e 1a92 23be f49f f5bd
00000130: 1518 5fbe 51b1 adbe 6e1a 943e d8f8 133e
00000140: fd82 333e 4dff f7bd b360 9b3c 439c fbbd
00000150: ab61 4f3e bd5d 71be 9c6d e6be 31b2 c8bd
00000160: ec71 ddbd c17f 043f 104c 4dbe 71f5 2d3f
00000170: 3e33 f6be 4387 933e 321b c23e 0243 073c
00000180: 3c00 24be fe4d d4bd c59f 3c3e 3753 a8be
00000190: b7c8 123e 2c2f afbe aa13 b1be 7034 1a3f
000001a0: 3443 b63e 5886 2e3e 001f c2bd 5e6b f9bd
000001b0: 7458 c23e 8034 b93e c314 5d3d 4b75 aabe
000001c0: 79bc 1fbe c401 fa3d 7f25 40bd 87f2 0cbf
000001d0: 5d80 bdbd c8c7 913d 80c1 423e e93a 4bbe
000001e0: bb08 83be 2cf4 00be 1c08 24bd 1c3b d23c
000001f0: 08cd 88be 02fe a3be b977 aebe ebb3 33bd
00000200: 10fe 91be 81eb 64be 5268 26be a1f5 0b3f
00000210: fdff a73e e086 0a3d 778b b73d 4162 ab3d
00000220: abd2 95bd d332 b63e 4bd8 05bd 3446 30be
00000230: 6ac1 01bf 2758 1c3e 680e 713e aab4 93be
00000240: c71e 9fbd 68ee a7bd ac97 1bbd 219e babe
00000250: 380e 7b3e 9092 643e 270d cabe e726 293d
00000260: 3ef4 183d 8ab1 5e3e d2d3 d1bd 1b90 35be
00000270: f301 b03e 28e1 d8bd ada7 f2bc e320 283e
00000280: 145c edbd 8126 423e 5900 9ebe c422 a83e
00000290: e6a8 78be b4d0 a3be 872b 18bf 1746 1dbf
000002a0: a406 b5bc ac98 013f 48f2 a13e 9305 f93e
000002b0: 0ffa 56be 9063 cfbe 1662 a9be deb7 333e
000002c0: ed06 68be d8cf aa3e 8136 2a3d a496 823e
000002d0: a714 7bbd f5d1 c6bc 3dd4 873e 6575 c1be
000002e0: 8acd bd3e e026 f93e 6aeb 003e e8a0 043f
000002f0: 6bf2 adbe 94f3 333e f91d 673e 1909 a33e
00000300: 1090 933e 17b7 4dbd 8c8a ba3b 3607 14be
00000310: 4df2 263f 47f2 d1be 227d b1be 640b 1bbf
00000320: 465f 25be c468 103f eb12 dabc f982 353f
00000330: 93bc 723e 878d 0abe 5ec5 40be f423 8bbe
00000340: ee79 86be 0bc3 923d a9c5 5c3d 6cd1 153e
00000350: 1c29 b83e 3eae 793e eb8d a2be 8c60 2ebf
00000360: fec3 9bbe 7b55 873e 4347 313e c5f5 2f3f
00000370: 3521 003e 44e0 aabe 2719 94bc 4196 acbd
00000380: 1333 f73d 02dc e8bd 4f7b b33e a3fa 323d
00000390: b746 c9be 0da4 d8be 244d 043e d04d 7abe
000003a0: f5ef 8cbe a050 a13e a647 cf3c 485e 0dbe
000003b0: 40b5 833e 404b adbd fa1e c8be c2b4 82be
000003c0: 7cd7 c6be 3cb7 b43e e8d9 88be 141f 52be
000003d0: ba25 d6bd b6eb 573e f21a 19be 1bfc c33b
000003e0: 871c 3f3e 8341 723e a483 ca3e b336 ca3e
000003f0: ae53 793d 72db cabd 9076 53bc 4462 a53e
0.067380995 -0.46933788 -0.37533334 -0.18966766 0.21788435 -0.37618452 0.2760445 0.3887462
0.1585355 -0.16524851 -0.13899319 0.12040244 0.20139976 -0.0025348281 -0.34325072 -0.2638325
0.29029417 0.048490137 0.22090943 -0.36039075 0.4781966 0.09015329 -0.52059054 -0.43013874
0.082782075 -0.04644816 -0.36379942 0.18774615 0.36914003 -0.47942534 0.2979589 0.09536463
-0.1408689 -0.30645183 -0.090890594 0.036239482 -0.1333002 0.28552535 0.36150765 0.17572463
-0.109389365 -0.20005658 0.15831558 0.24573252 -0.30207887 0.35099766 -0.35809696 -0.15894991
-0.06039542 -0.12699966 0.21584246 -0.038432643 -0.30999476 0.020468846 0.2652443 0.066276185
0.16646154 0.15639453 0.3421735 -0.27610952 -0.2328416 0.6554249 0.40306664 0.18271904
-0.43135473 0.2188833 -0.26018867 0.3955286 0.4668549 0.3560504 -0.25614098 -0.006761443
0.20566274 0.45047784 -0.15973702 -0.11993399 -0.2178653 -0.33924344 0.28926414 0.14450395
0.17530437 -0.12109242 0.018967008 -0.12285664 0.20252101 -0.23570915 -0.450055 -0.09799612
-0.108127445 0.51757437 -0.20048547 0.6795264 -0.4808597 0.28814134 0.37911373 0.008255722
-0.16015714 -0.10366438 0.18420322 -0.32875988 0.14334379 -0.34215677 -0.34585315 0.60236263
0.35598147 0.17043436 -0.09478569 -0.12178682 0.3795811 0.36172867 0.053974878 -0.33292612
-0.1559924 0.12207368 -0.04691076 -0.5505757 -0.09252999 0.071181834 0.19019127 -0.19846691
-0.25592598 -0.12593144 -0.040046796 0.025662951 -0.26718926 -0.3202973 -0.34075716 -0.043872755
-0.28514147 -0.22355463 -0.16250733 0.54671675 0.3281249 0.033820033 0.08962148 0.0836835
-0.07315572 0.3558565 -0.032676976 -0.1721428 -0.5068575 0.15268002 0.23540652 -0.28848773
-0.07769542 -0.08199769 -0.037986442 -0.36448768 0.24517143 0.22321534 -0.3946316 0.041296866
0.037342303 0.21747413 -0.1024548 -0.17730753 0.34376487 -0.1058982 -0.02962097 0.16418795
-0.11589828 0.1896 -0.3085964 0.32839024 -0.2428318 -0.31995165 -0.5944142 -0.61435074
-0.022097893 0.50623584 0.31630158 0.48637065 -0.20993827 -0.40505648 -0.33082646 0.17550609
-0.22658892 0.33361697 0.041555885 0.25505555 -0.061298992 -0.024270037 0.26529112 -0.37784877
0.37070876 0.48662472 0.12589803 0.51808023 -0.33974013 0.17573386 0.22570027 0.31842878
0.28820848 -0.050223436 0.0056927856 -0.14455876 0.6521347 -0.41005155 -0.3466578 -0.60564256
-0.16149625 0.5640986 -0.026620349 0.70902973 0.23704748 -0.13530551 -0.1882529 -0.27175868
-0.262649 0.07166108 0.05389944 0.1463067 0.35968864 0.24382874 -0.317489 -0.6811607
-0.30422968 0.26432404 0.1731234 0.6873439 0.12512667 -0.33374226 -0.0180784 -0.08427096
0.120702885 -0.11370088 0.35055014 0.043696057 -0.39311764 -0.4231266 0.12920052 -0.24443746
-0.27526823 0.31506824 0.02530272 -0.13805497 0.2572422 -0.084616184 -0.39086133 -0.25528532
-0.38836277 0.35296047 -0.2672875 -0.20519668 -0.104564145 0.2108601 -0.14951685 0.005980981
0.18663226 0.23657803 0.3955356 0.39494857 0.06087082 -0.09905137 -0.0129066855 0.32301533

nee_decoder.2.bias f4 [16]
00000000: 1812 25bd 9204 90be c96b a1be 8528 63bc
00000010: 0fb9 3f3d a6c2 aa3e b4fe d3bb 6e4c 1cbe
00000020: 0891 5dbe 4356 213b cb64 823d 665f 2b3d
00000030: 1454 df3e b643 fb3d 54d3 6abe 6f84 81bb
-0.04030046 -0.28128487 -0.31527546 -0.013864641 0.046807345 0.3335163 -0.006469572 -0.1526353
-0.21637356 0.0024618066 0.06366881 0.041839026 0.43618834 0.12268774 -0.22932178 -0.003952555

nee_decoder.4.weight f4 [1, 16]
00000000: 7525 e5be b363 493f d20c 3fbf 7f5d 033f
00000010: 13f8 393e 9e42 1a3f db21 5fbe cd32 f6be
00000020: cb42 1fbf 5006 a9be ae1a 0c3f 383b 153f
00000030: d442 903f fe36 c03e 6ce5 17bf 357d cb3e
-0.4475514 0.78667754 -0.7462894 0.5131454 0.18161039 0.602579 -0.21790259 -0.48085633
-0.62211293 -0.3301263 0.5472821 0.58293486 1.1270394 0.37541956 -0.59334445 0.39743963

k_decoder.0.weight f4 [16, 32]
00000000: 9288 ab3e d76f dc3d a78f 773e c18a 8dbd
00000010: 42bd 303e c6df 35be 1fa9 47be c598 7e3e
00000020: d1d7 a83e 1b35 14be 9500 84bd 53d0 053e
00000030: b2fb 8abe e01e c13c 2429 8cbe a942 0ebe
00000040: 6f27 6bbe 071c 1d3e cea5 73be 9030 03be
00000050: 7ca6 ad3d e198 ed3d 031d 71be b85b 6ebe
00000060: 398e 14be d9e1 8ebe 6094 3dbe 952e 68be
00000070: 21ed 833e 4242 653e ff00 09be 764a 2cbe
00000080: 477d 913e 0176 8ebd 11f3 8a3e 18b2 913e
00000090: 9b12 83bd 2ce4 493e 9392 acbd f43b 72bb
000000a0: daaa d73d 3634 74bd 705e fd3d c372 9abe
000000b0: 0992 9fbe 3e30 8cbd dad8 0cbe aac2 003e
000000c0: 6864 2b3e b934 6dbe f579 4a3c 2681 b1bb
000000d0: 4cf5 14be 027e 813e 7819 b7bd e080 6e3e
000000e0: fa19 9e3e 9964 e5bd e2f6 233e b961 11bd
000000f0: c782 313e a266 86bd f071 5a3e 4694 1fbe
00000100: 6e39 4c3e 132d 443e 2ac7 7a3f c46b d6be
00000110: e78d 2fbe 725f 8abd fdab 453c 63ce 963d
00000120: 7785 9e3e c103 a2be c361 34be b6ab e8be
00000130: d135 b43d ba03 253e 3696 e8be b073 afbe
00000140: c433 9abe 240b 4d3f 29e4 35be a525 433d
00000150: c8d8 ce3e cb07 ee3e 2dd8 0f3e 72ee 123f
00000160: aa2e 49bd 6354 cc3d cb48 5cbf c3ad 0a3f
00000170: 6fb8 8b3d 3618 ac3d af48 7ebe d8a0 653e
00000180: d976 153e fd1d ab3d 9f31 78bd b651 6d3e
00000190: 133d e53d b568 9f3e aea4 a6be 087d f8bd
000001a0: 1416 a53d 1f5a 2c3e aa97 abbc 1d70 9abe
000001b0: cdab 893d af05 423e 50da 6fbd 1a08 0cbe
000001c0: c989 253e 44c0 e73e 2905 57be f33e 89bb
000001d0: 8cb8 773e f780 4ebe 17a7 963c cbdb 3b3e
000001e0: c478 1dbe 8af1 ae3d a54f 0f3d 0659 4f3e
000001f0: 1656 d7be ff31 593e b550 883e 1613 53be
00000200: 0c97 c4be 8f0f ca3d 9b38 3fbe c09a 00be
00000210: 323a 283e d4a1 88bc 44fd c7bc 08ba 9b3e
00000220: 78ed d8bd 8dc4 8a3e 2c4e a13d be71 633e
00000230: d4f5 2b3d af40 9dbd 2cff d7bd 1f52 853e
00000240: 5500 0abe eb43 91bd a3ec 493d 2cfe 933d
00000250: 6381 8abe 29f2 80be 3840 273e 38c7 9f3e
00000260: 7737 4dbe ee20 a7be a6ac 9a3e 456e e1bd
00000270: 8475 86be b78d 15be ee85 5d3e ac85 853e
00000280: d925 7a3e 9f5c 79be b609 4a3e fd73 243e
00000290: 0f07 9ebe 088c 833d 7542 a33c 55eb e13d
000002a0: 70ae 15be 5b08 823e 8f3a 8c3e 34cf a83e
000002b0: 389d a0be ed78 b6be 23ec 05be a6fd eb3d
000002c0: fc34 b63d 1b40 a9be 3caa a3be b8aa 0abe
000002d0: c7d4 0abd 9885 8ebe 3fa8 7d3d 1795 283e
000002e0: d237 9d3d 64d5 4d3e f2ee 003e f52f 233e
000002f0: 3ea3 3e3e cb44 3ebe 5355 3fbd ec51 023e
00000300: 3858 113e 9a91 8e3b 6c81 103f 9c96 8abe
00000310: b51a 8a3e 892d fbbd 1b5e acbe a291 d73e
00000320: df2b 183e c389 6ebe a5a7 1dbe bda8 e8be
00000330: 2189 6f3d d3ec 3d3e 3603 afbe e831 cabd
00000340: b98d fbbe 7759 d83d d559 8ebe d112 ac3e
00000350: dd93 cf3e 1158 aa3d 9d93 3c3e 66f5 753e
00000360: 908e b4be 7b32 83be 4202 f4be 2dc2 963e
00000370: 0bfb 73be 3646 ad3e 156f 17be 88e2 273e
00000380: 9587 873e 419f 69be fd3e febd b960 b4be
00000390: 9b28 e53d 74c2 a7bc 14e2 bfbe 89ed 2fbe
000003a0: b59d 653d aeb2 f5bc cd31 bd3e a5e8 95be
000003b0: 83e7 f5bd e4d7 ad3e 7557 b93e 29ab 693e
000003c0: 3245 8a3e 397c 9b3e d47b 2c3b d67b 12be
000003d0: f59b 793e 2022 253e 9e28 ac3e 1702 9f3e
000003e0: 69f8 09be ce00 613e 2534 5d3e 1f8a 493e
000003f0: 412b a3bd f666 3d3e 26d7 babe acc2 d6bd
0.33502632 0.10763519 0.24175893 -0.06911231 0.17259696 -0.17761144 -0.19498108 0.24862964
0.32977155 -0.14473383 -0.064454235 0.1306775 -0.27145153 0.023574293 -0.27375138 -0.13892616
-0.22964261 0.15342723 -0.23793718 -0.12811494 0.0847902 0.11601425 -0.23546223 -0.23277175
-0.14507379 -0.27906683 -0.18513632 -0.2267402 0.25766852 0.22388557 -0.13379286 -0.1682528
0.28415892 -0.06956101 0.2713857 0.28456187 -0.06400033 0.19715947 -0.08426394 -0.0036962004
0.10530634 -0.059620105 0.12371528 -0.3016568 -0.31166103 -0.06845139 -0.13754597 0.12574258
0.1673752 -0.23164643 0.012358178 -0.005417007 -0.14546698 0.2529145 -0.08940405 0.2329135
0.30879194 -0.11200828 0.16012147 -0.035493586 0.17335044 -0.065625444 0.21332526 -0.15583906
0.19943783 0.1915782 0.9796015 -0.41879094 -0.17143975 -0.06756486 0.012064931 0.07363584
0.309612 -0.3164349 -0.17615418 -0.45443505 0.08799327 0.16114703 -0.45427102 -0.3426795
-0.3011762 0.80095124 -0.17762817 0.047643322 0.40399766 0.4649032 0.14047308 0.5739509
-0.049116768 0.09977033 -0.86048573 0.5417139 0.06822287 0.08403055 -0.24832414 0.22424638
0.14596118 0.08355329 -0.060594197 0.23175701 0.111932896 0.31134573 -0.32547516 -0.12133223
0.08060852 0.16831253 -0.020946342 -0.3016366 0.067222215 0.1894748 -0.05855781 -0.13674966
0.16165842 0.45263875 -0.20998062 -0.0041884123 0.24191493 -0.20166384 0.018390222 0.18345563
-0.153781 0.08542164 0.034988064 0.20248803 -0.42057866 0.21210478 0.26624075 -0.2061275
-0.3839649 0.09866249 -0.18673937 -0.12559032 0.1642845 -0.016678728 -0.024412759 0.30415368
-0.105921686 0.2710308 0.07876238 0.22211358 0.041982487 -0.07678353 -0.10546717 0.26039216
-0.13476689 -0.070930324 0.04929794 0.07226214 -0.2705184 -0.25184754 0.16333091 0.3120668
-0.2004069 -0.3264231 0.30209845 -0.1100736 -0.26261532 -0.14604841 0.21633121 0.26078546
0.244285 -0.24351738 0.19730267 0.16059871 -0.3086476 0.06423193 0.01992915 0.11031214
-0.14617324 0.25397 0.27388427 0.32970583 -0.31369948 -0.35639134 -0.1307836 0.11522989
0.08896825 -0.3305672 -0.31965816 -0.13541687 -0.033894327 -0.278363 0.06192803 0.16463123
0.076766625 0.20100933 0.1259115 0.15936263 0.1861696 -0.1858093 -0.04671223 0.12726563
0.14193809 0.004350853 0.5644748 -0.2706803 0.269735 -0.122645445 -0.33665547 0.42103297
0.14860485 -0.2329474 -0.15395983 -0.45441237 0.058480386 0.18547373 -0.34182137 -0.098728
-0.49131563 0.10563939 -0.2780291 0.33608106 0.40542498 0.083175786 0.18415685 0.24019393
-0.35265017 -0.2562445 -0.47657973 0.2944502 -0.23826234 0.3384263 -0.14788468 0.16395009
0.26470628 -0.22814657 -0.12414358 -0.35230044 0.111893855 -0.020478465 -0.3747717 -0.17180456
0.056058604 -0.029992428 0.36952057 -0.29279056 -0.12007048 0.33953774 0.36199537 0.22819199
0.27005917 0.30368212 0.0026318925 -0.14305052 0.24375899 0.16126299 0.33624738 0.31056282
-0.13473667 0.21972963 0.21601923 0.19681595 -0.079672344 0.18496308 -0.3649227 -0.104863495

k_decoder.0.bias f4 [16]
00000000: 1984 0abe 4d91 1abc fa99 e83e 6050 083e
00000010: 8600 193d 0fd9 f6bc 6d74 213e 8e7d 8f3d
00000020: 37d0 dcbd 58e4 3f3e 805e 803e 59eb 453d
00000030: 170e 0b3e d8fd 793f 0490 7c3e acfa a0ba
-0.13526954 -0.0094340565 0.45429975 0.1331191 0.037354015 -0.030132798 0.15767069 0.070063695
-0.10781901 0.1873945 0.25072098 0.04832015 0.13579594 0.9765296 0.24664313 -0.0012281737

k_decoder.2.weight f4 [16, 16]
00000000: 2029 ae3d 07d8 6bbe b8ac 833e 6d32 d7be
00000010: 7fd7 a8be 1559 213c 0a38 96be 799d 053e
00000020: 173d aa3e c02c 98be a7c2 2b3d ec88 563e
00000030: c317 64be 08ba 13bd 0f7e 93bd b1c7 7cbd
00000040: 1901 c4be 7c4b 50be eb91 58be 294f 303e
00000050: 200a 8b3e 0325 ecbc 8509 75be 64d0 3e3e
00000060: 5c29 b33e 5949 853e 97ad 893e 53fa 243e
00000070: b11b ddbd 8305 2cbe ddd3 01be 4256 c13e
00000080: af46 623e c7ef bfbe 068a 223f 483b 083d
00000090: b10f da3c 1e2c ef3d e9dd 023f eb33 9dba
000000a0: 779d b33e 7d9b a83e 73df 2a3e d22e fc3e
000000b0: 9b81 b03e be30 013f 33a6 0d3e 312b 31be
000000c0: 632e 94be 3f70 a13d 3f32 bb3d 7fec fc3c
000000d0: e6cd ca3e c913 a1be 0913 44be 4f09 2b3e
000000e0: f993 55be 913d 303e 57e3 15be 3396 303e
000000f0: 2a09 8abd c8a1 93be 30cd 723d 4a54 c23e
00000100: 9cf0 dabd cb01 c6be b3cc 4f3f 8149 aa3d
00000110: 75f0 27bd 65f5 e23e e13c 143f 7539 c63e
00000120: 9680 53be 3e66 9e3e 2535 b83e cb00 093e
00000130: 54d8 be3e 1abe 703f c46d c53d 8c5b 4d3e
00000140: 794c b63d dd2a 03be 77d3 643c 25b2 b2be
00000150: 992a 23be 30d2 ae3e 1ba2 a63e 15cc 80be
00000160: ec4d 7bbd bf71 e53e 3819 7a3d 03eb 12bf
00000170: 9e57 e33d 636b f83e 4d04 053e 8bf8 85be
00000180: e03b c0be b0cc 743e 5d57 423e faad bbbd
00000190: 39a4 15be 867e 563e 210f febe 9710 26bf
000001a0: 7783 aebd 512e 7a3e d848 573e 5b6f 9ebd
000001b0: e12b 763e d8ba 933e aa5d 92be d7fb a93e
000001c0: 68f8 a7bd 463f d6be 76f2 793e 4706 9d3e
000001d0: 60cd 763e 3689 30be 5b2d 0b3f 93d4 94be
000001e0: f639 9a3e c2dd 5b3e f1bc e53e 9e48 063e
000001f0: 5a2e bd3d 5a70 a53f 5273 413e 3732 893e
00000200: aa3b 7dbe be18 c8be b191 493f 64ca 813f
00000210: 7097 323f 5752 fb3c b0be b43e ef88 b83e
00000220: f1f2 0fbe 448a 3a3e 1e62 6cbd d96b 023e
00000230: 2445 43bd 68d9 0b3e 6329 883e fe1d c73e
00000240: 559a 2ebc 2cb2 dd3b 0bd2 843e adbc 273e
00000250: c0bf 87be f0f5 523e 53dc c9be e061 a83e
00000260: 0afb e4bd 1ff5 afbc 82f9 1d3c 9ee1 b0be
00000270: 6f3c ea3d ca12 bdbe 5d8c 6cbe cd1e aabe
00000280: 9100 b4be bea8 29bd 489e 113e cd84 453e
00000290: b9b5 8dbd 2f60 993e a73f b3bd eb00 933d
000002a0: 2bdb 0e3e 468e ccbe a2ee c83e 8254 bbbd
000002b0: 2452 f73c 9ac9 83be 8da9 cabe 3bc3 833e
000002c0: d91a 8cbe b3dd 92be 8da7 6c3e 2c2d 403d
000002d0: a3fe d73e d5eb 55be 2cba 5dbe 5eaf 543e
000002e0: 4553 733e a221 343d d912 043e 1c29 db3e
000002f0: eb64 85be cafb b1be ee60 8abe 2137 953e
00000300: f7eb 6b3e d413 303e 343f 7fbe c1f9 7d3e
00000310: 5d90 abbd 5104 403e 0fa7 c5be 3864 8abe
00000320: e6a4 c43e 5661 c9bd 2483 a73e 16a1 883d
00000330: b91b 9dbd b7a9 cc3d 28b6 a73d 5ce0 7cbe
00000340: cbe0 c4be c9b8 aabe 602f 65be 4c3f 633e
00000350: ce24 94be 5db3 c8bd e76c 56be 357b 32be
00000360: c148 94be eb96 a0be 1f7f 06bc 7ea1 95bc
00000370: c7b8 b43e 605b 383e cfe0 233e 1619 2b3e
00000380: 975b f03d 70e5 4c3e d746 1d3f 2883 6dbe
00000390: 12ab 42be 6e98 583d f0a5 ed3e 2b70 f53e
000003a0: 7e62 febd 7672 c43e b9bf 46bd 2456 32be
000003b0: a301 9ebe 31ca 7d3f 7df7 573e be57 cdbd
000003c0: c78a 64be 89b8 d9be 9c9d a4bc 38db 173f
000003d0: 7b6e babe 7b2e 263e 530b 173d 6519 33bb
000003e0: ce27 3cbd b57d 94bd c82f bc3e 34e6 c9be
000003f0: bfba 1dbe ecab 85be 27f4 3dbe b2d2 91be
0.08503938 -0.23031627 0.2571771 -0.4203066 -0.3297691 0.009847899 -0.2933963 0.13048352
0.33249733 -0.29721642 0.04193368 0.20950669 -0.2227469 -0.036066085 -0.07201778 -0.061713878
-0.38282087 -0.20341295 -0.21149413 0.17217697 0.27156162 -0.028826242 -0.23929413 0.18634182
0.34992492 0.26032522 0.2689025 0.16111116 -0.10796297 -0.16798978 -0.12678476 0.37761122
0.22097276 -0.37487623 0.6349186 0.03325966 0.02661881 0.116783366 0.5111986 -0.0011993622
0.35081074 0.32931128 0.16686802 0.4925447 0.3447388 0.50465 0.13832931 -0.17301632
-0.2894164 0.07882737 0.09140443 0.030874489 0.39610213 -0.31460407 -0.19147886 0.1670277
-0.20857228 0.17210986 -0.14637505 0.17244796 -0.06740029 -0.28834367 0.059277713 0.37954932
-0.10690424 -0.38673243 0.8117172 0.08314801 -0.041000802 0.44327846 0.57905394 0.3871571
-0.2065452 0.3093738 0.35978046 0.13379209 0.3727442 0.9404007 0.09640077 0.20054454
0.08901305 -0.1280932 0.013966433 -0.34901538 -0.15934218 0.34144735 0.32545552 -0.25155702
-0.06135361 0.44813344 0.061059207 -0.5738985 0.11100696 0.4851943 0.12989922 -0.26166186
-0.3754568 0.23906207 0.18978639 -0.09164043 -0.14613427 0.20946702 -0.49620917 -0.64869064
-0.08521169 0.24431731 0.21023881 -0.07736083 0.24040176 0.28853488 -0.28587085 0.3319995
-0.082016766 -0.4184515 0.24408898 0.30668852 0.24101782 -0.17239842 0.5436608 -0.2906843
0.30122346 0.21471313 0.44870713 0.13113639 0.092373565 1.2924912 0.18891647 0.26796123
-0.24729791 -0.39081377 0.7873793 1.013989 0.69762325 0.030678911 0.35301733 0.36041972
-0.14057519 0.18216807 -0.05771076 0.12736453 -0.04767336 0.13657153 0.26594076 0.3889007
-0.010656913 0.0067656245 0.259415 0.16380568 -0.2651348 0.2060163 -0.39425907 0.32887173
-0.111806944 -0.021479188 0.009642007 -0.34547132 0.11437308 -0.36928397 -0.2310042 -0.33226624
-0.35156682 -0.04142069 0.14220536 0.1928894 -0.069194265 0.29956195 -0.08752375 0.071779095
0.13950793 -0.39952296 0.39244562 -0.09146978 0.030190535 -0.25739747 -0.39582482 0.25734887
-0.27364233 -0.28684768 0.2311079 0.04691808 0.4218646 -0.20890744 -0.2165305 0.20770022
0.23762234 0.043977387 0.12897815 0.428048 -0.26053557 -0.34762412 -0.27027076 0.29143623
0.23039232 0.17195064 -0.24926454 0.24802305 -0.083771445 0.18751647 -0.38604018 -0.27029586
0.38407058 -0.098330185 0.3271724 0.0667135 -0.07671303 0.09993308 0.081890404 -0.24694961
-0.38452753 -0.33344105 -0.22381353 0.22192115 -0.2893433 -0.09799836 -0.2093998 -0.17429812
-0.28961757 -0.3136514 -0.008209019 -0.018265482 0.35297224 0.18003607 0.16003726 0.16708788
0.117362194 0.20009398 0.6143622 -0.23194563 -0.1901057 0.052879743 0.46415663 0.4793714
-0.1242113 0.38368577 -0.048522685 -0.17415673 -0.30860624 0.99136645 0.21090503 -0.10026501
-0.22318564 -0.42523602 -0.020094685 0.59318876 -0.36412415 0.16228668 0.036876034 -0.0027328369
-0.0459364 -0.07250539 0.36755204 -0.39433444 -0.15403269 -0.26107728 -0.18550168 -0.2848106

k_decoder.2.bias f4 [16]
00000000: 0000 0000 0000 0000 d49a f43d 0000 0000
00000010: 5a11 d43d 0bea 86bc 7d3d 283e 20f8 293e
00000020: 05e8 9b3f 5a04 18bd 0000 0000 0000 0000
00000030: 1563 e4bc be53 1cbe 3e50 f53d 4195 ebbc
0.0 0.0 0.119435936 0.0 0.10354872 -0.016469022 0.16429706 0.16598558
1.2180182 -0.037113525 0.0 0.0 -0.027879277 -0.1526632 0.119781956 -0.028757693

k_decoder.4.weight f4 [2, 16]
00000000: 7d76 0abf ad3d cb3e 16f8 df3e 8de2 10bf
00000010: 4f20 213f 4eb6 f83d fa43 a23d 09cf 883f
00000020: 1ea4 6a3f 1faa 0ebe fcd8 bb3d d8bf 7f3e
00000030: 27b9 29be 1939 a83d 366f 973e f44d 08bf
00000040: d55a b0be 81fb d03e db35 c83e f72c 1bbe
00000050: e19d 683e 47c0 23bf 84c0 d5bf fca5 8cbe
00000060: 069b 803f 2de4 c93e d4cd 0a3f b347 973e
00000070: 97bd 163d 2b16 ef3e 89cf 46be 6581 21bd
-0.5408705 0.39695492 0.43743962 -0.5659569 0.62939924 0.12144147 0.07923122 1.0688182
0.9165667 -0.13932084 0.09172246 0.24975526 -0.16574536 0.082140155 0.29577035 -0.5324395
-0.344443 0.40816882 0.39103588 -0.15153871 0.22716476 -0.63965267 -1.6699376 -0.27470386
1.0047309 0.39431897 0.5422032 0.2954689 0.0368019 0.466966 -0.19415106 -0.03943004

k_decoder.4.bias f4 [2]
00000000: e1ca b03d 5df5 1cbd
0.08632446 -0.038319934
