.archive/piae_sde/experiments/2024-11-25_13-44-36-242061/best_model.pth (torch, 25122 bytes, 28 tensors)

encoder.0.weight f4 [16, 18]
0	0x3ce1f0eb	0.027580699
1	0xbdd76c9f	-0.10518765
2	0x3e985859	0.29754904
3	0x3c954ecc	0.01822605
4	0x3d1f012c	0.038819477
5	0xbd235f13	-0.03988559
6	0x3d96242c	0.07331118
7	0xbe40c336	-0.18824467
8	0x3e5bf6d0	0.2148087
9	0xbe4949be	-0.19657037
10	0x3ee797e7	0.4523308
11	0xbf09a2fc	-0.5376432
12	0x3dc2ae8f	0.09505951
13	0x3e633c6b	0.22191016
14	0x3f205092	0.6262294
15	0xbed01ce0	-0.4064703
16	0xbe483700	-0.19552231
17	0x3ea67191	0.3250852
18	0xbdb2cfb3	-0.08731022
19	0x3f09f90a	0.5389563
20	0x3ea75726	0.32683676
21	0x3da8ce66	0.082424924
22	0x3ed99df7	0.4250333
23	0x3dbfc2b8	0.093633115
24	0xbecf0bbf	-0.4043865
25	0xbd0b60a5	-0.034027714
26	0x3e707edb	0.23485892
27	0xbce2db75	-0.027692536
28	0xbe92c55c	-0.28666198
29	0x3f5f8962	0.87319005
30	0xbf56f11b	-0.8396165
31	0x3d6725d1	0.05643255
32	0x3eada7bc	0.33917034
33	0xbe32ca5c	-0.17460006
34	0x3e124f4e	0.14288065
35	0x3d921bc6	0.071342036
36	0x3ef20d35	0.472757
37	0xbeaee0f8	-0.34156013
38	0xbda74b6a	-0.08168681
39	0xbd6ca73a	-0.057776667
40	0xbcdc0ac9	-0.026860612
41	0x3f0c8eae	0.5490521
42	0xbd983319	-0.07431621
43	0xbe80cb77	-0.2515523
44	0x3ee75adc	0.45186508
45	0xbe83c7e8	-0.25738454
46	0xbe7bbef2	-0.24584559
47	0xbee244ea	-0.44193202
48	0x3e1968a1	0.14981319
49	0x3e4a0bda	0.19731084
50	0xbe8e62c3	-0.27809724
51	0x3eaffa8e	0.34370846
52	0x3dca6e86	0.09884362
53	0xbdb5789c	-0.08860895
54	0x3ec25b34	0.37960207
55	0xbe3ba537	-0.18324743
56	0x3f261b95	0.64885837
57	0x3e736646	0.23769483
58	0xbf1a5513	-0.6028606
59	0x3eb53e4b	0.35399088
60	0x3f01416f	0.5049047
61	0x3f18c9b1	0.59682757
62	0xbf3f9ae6	-0.7484573
63	0xbe6b85cd	-0.2300026
64	0xbeb06cd6	-0.34458035
65	0xbf286465	-0.6577819
66	0x3f0c4069	0.5478578
67	0xbe11976e	-0.14217922
68	0xbe91138a	-0.2833522
69	0x3e6e175a	0.23251095
70	0xbdccead1	-0.10005725
71	0xbd102378	-0.035190076
72	0xbf28ddd4	-0.6596348
73	0x3ef9a454	0.48758185
74	0x3efeeaf8	0.49788642
75	0x3ec857a7	0.39129373
76	0xbf538037	-0.82617515
77	0xbf283adc	-0.6571481
78	0xbc991353	-0.018685972
79	0x3e5dfa03	0.21677403
80	0xbe8495a8	-0.2589543
81	0xbda98f1e	-0.082792506
82	0xbf4238a7	-0.75867695
83	0xbecc29bc	-0.3987559
84	0x3ebc0a3e	0.36726564
85	0x3eee00ff	0.46485135
86	0xbd43982a	-0.047752537
87	0xbecf3610	-0.40470934
88	0xbebca8dc	-0.3684758
89	0xbe75b2af	-0.23993944
90	0x3e3fed1e	0.18742797
91	0x3eb85661	0.36003402
92	0xbd54f4b9	-0.0519912
93	0xbbe88bfe	-0.0070967665
94	0xbdc19566	-0.094523236
95	0xbf0f32d8	-0.55936956
96	0xbec0b07f	-0.37634656
97	0xbe2dd5f6	-0.16976151
98	0x3e872056	0.26391858
99	0x3c0381d8	0.008026563
100	0xbe9e599c	-0.30927742
101	0x3f520855	0.82043964
102	0xbf678e9e	-0.9045199
103	0xbcdc3fef	-0.026885955
104	0x3e9bd00e	0.3043217
105	0x3eee668e	0.46562618
106	0x3c2dc44e	0.010605885
107	0x3e4b2420	0.19838
108	0xbe68c9fa	-0.22733298
109	0x3e98fb22	0.298791
110	0xbe382e6b	-0.17986457
111	0xbea3a22a	-0.3195966
112	0xbefa53d3	-0.48892078
113	0x3d327a5c	0.043573722
114	0x3de91464	0.11380842
115	0xbd0c75d1	-0.034292046
116	0x3d7ab36c	0.061206266
117	0xbed9700f	-0.42468306
118	0x3e1711bc	0.14752859
119	0xbd22c238	-0.039736003
120	0xbef58403	-0.4795228
121	0x3f365d57	0.71236175
122	0xbed72582	-0.42020804
123	0x3f1bb8d4	0.608289
124	0xbecb5276	-0.3971135
125	0x3edad210	0.4273839
126	0x3ea5a3a6	0.32351416
127	0x3d58a6e9	0.052893553
128	0x3e0bf74f	0.1366856
129	0xbd6f676e	-0.058448248
130	0x3e3bdbc7	0.18345557
131	0xbe3d253f	-0.1847124
132	0xbebad1f7	-0.36488315
133	0x3e015599	0.12630309
134	0xbe93608e	-0.28784603
135	0xbe9f8aca	-0.31160575
136	0x3e2c2321	0.16810276
137	0x3d7fc818	0.062446684
138	0xbe398d64	-0.18120342
139	0xbf06fde1	-0.5273114
140	0x3dfb6336	0.12274782
141	0xbf32e0bb	-0.6987416
142	0xbcc7b085	-0.024376163
143	0xbdc830e2	-0.09774949
144	0x3df186d7	0.11793297
145	0x3e5a287f	0.2130451
146	0x3e7c621b	0.246468
147	0xbd3bc8e0	-0.045845866
148	0x3dac96ee	0.08427225
149	0x3e75c34f	0.24000286
150	0x3f04d001	0.5187989
151	0x3ec34cde	0.38144583
152	0xbf47a828	-0.7799096
153	0x3e0914c1	0.13386823
154	0x3dd019d4	0.10161176
155	0xbec1cd9e	-0.37852186
156	0x3f63c632	0.889743
157	0x3e8a39b6	0.26997155
158	0xbe20d5d3	-0.15706567
159	0x3e8c3c07	0.27389547
160	0x3d86590a	0.065599516
161	0xbe305239	-0.17218865
162	0x3c921e8c	0.017836832
163	0xbdfa2c3f	-0.122154705
164	0xbe343b9f	-0.17600869
165	0xbc362e7f	-0.011119484
166	0xbcfa6db9	-0.030569898
167	0x3d96ce17	0.07363527
168	0xbdf7a872	-0.12092675
169	0xbd4cadd5	-0.049970467
170	0x3d27f006	0.04100039
171	0x3e4e024f	0.20118068
172	0xbddb1ba4	-0.106986314
173	0xbc3b8b48	-0.011446781
174	0xbe200587	-0.15627109
175	0xbd81004c	-0.06298885
176	0x3d1add7e	0.037808888
177	0xbea77ef2	-0.3271404
178	0x3e9b7cc2	0.3036862
179	0xbbbb95ae	-0.0057246303
180	0xbecb98e7	-0.39765093
181	0x3da1f795	0.07908551
182	0xbe4d23bb	-0.20033161
183	0x3e91f7ef	0.2850947
184	0x3db655c0	0.08903074
185	0x3dfafb52	0.12254967
186	0x3d8cdb16	0.06877725
187	0x3f02d505	0.5110629
188	0x3d06254a	0.032750405
189	0xbe88dd26	-0.26731223
190	0xbf8b00fa	-1.0859673
191	0x3eff75c0	0.49894524
192	0x3ebbc902	0.36676794
193	0x3da93b6c	0.08263287
194	0xbea80e5e	-0.3282346
195	0x3eaedaef	0.34151408
196	0xbe32aa00	-0.17447662
197	0x3eafa92b	0.34308752
198	0xbf08477b	-0.5323407
199	0x3e0aa9a4	0.13541275
200	0x3e914526	0.2837307
201	0x3e022b4a	0.12711826
202	0x3e02f049	0.12786974
203	0xbeec5b64	-0.46163476
204	0xbdc80612	-0.09766783
205	0xbd979afa	-0.07402606
206	0xbd4e7bb0	-0.050410926
207	0xbcb650f1	-0.022255393
208	0x3ede81d2	0.4345842
209	0x3ec8b34c	0.39199293
210	0xbea5427b	-0.32277283
211	0x3e29e145	0.1658984
212	0xbe8653bf	-0.26235768
213	0x3eeb7ce3	0.45993719
214	0x3e572942	0.21011832
215	0x3e2516df	0.16122006
216	0x3ea8ca48	0.32966828
217	0x3e3f9716	0.18709978
218	0x3e65b773	0.22433262
219	0xbeae96af	-0.34099337
220	0xbf14070f	-0.5782327
221	0x3e100263	0.1406341
222	0xbe0fb797	-0.14034878
223	0xbcfa0d44	-0.030523904
224	0xbf2616f9	-0.64878803
225	0x3ea67bac	0.3251623
226	0xbe028457	-0.12745796
227	0x3d5c900b	0.053848308
228	0x3e33ede8	0.17571223
229	0x3b76dd9f	0.0037668718
230	0x3cec5cf3	0.028852915
231	0x3dd7deab	0.105405174
232	0xbf31d284	-0.69461846
233	0xbdf129de	-0.11775564
234	0xbe8e16c8	-0.27751756
235	0xbddfab43	-0.109213375
236	0x3e7b86ea	0.24563184
237	0x3e4fd172	0.20294741
238	0x3ef9f053	0.48816165
239	0x3e721f44	0.2364474
240	0x3ed62cee	0.41831154
241	0xbf14da2c	-0.58145404
242	0xbf69c66b	-0.91318387
243	0x3f431917	0.7621016
244	0xbe1a7148	-0.15082276
245	0x3e994892	0.2993818
246	0x3df3be70	0.119015574
247	0xbea2dc4a	-0.31808692
248	0x3e6b97dc	0.23007149
249	0x3e1b4220	0.15161943
250	0xbe111ee3	-0.14171939
251	0xbf2e4798	-0.68077993
252	0xbd613318	-0.054980367
253	0xbee01a88	-0.43770242
254	0x3e52365a	0.20528546
255	0xbe546256	-0.20740637

encoder.0.bias f4 [16]
0	0x00000000	0.0
1	0xbca3b852	-0.019985352
2	0xbe2245e7	-0.15846978
3	0x3e2c6b57	0.16837822
4	0x00000000	0.0
5	0xbe08a36b	-0.13343589
6	0x00000000	0.0
7	0xbd45e507	-0.04831412
8	0xbe262a2d	-0.16227026
9	0xbdd95f8c	-0.10613927
10	0x00000000	0.0
11	0xbcfeecb9	-0.031118738
12	0x00000000	0.0
13	0x00000000	0.0
14	0x00000000	0.0
15	0x00000000	0.0

encoder.2.weight f4 [16, 16]
0	0x3eb588f5	0.35456052
1	0x3dae1cdf	0.085016005
2	0xbdd7c746	-0.10536055
3	0x3d21165e	0.03932797
4	0x3ebc52ad	0.36781827
5	0xbe09bc9a	-0.13450852
6	0x3e329dc3	0.17442994
7	0xbe36cf49	-0.1785251
8	0xbe332f09	-0.17498411
9	0xbf78d800	-0.9720459
10	0xbdafefd9	-0.08590669
11	0x3e1b7555	0.15181477
12	0xbe8e0019	-0.2773445
13	0x3efa5d5b	0.4889935
14	0xbef545ec	-0.4790491
15	0xbf179263	-0.59207743
16	0xbf25be38	-0.64743376
17	0x3ec3f3a3	0.38271818
18	0xbe55ca0d	-0.20877858
19	0x3e5bcfd4	0.21465999
20	0xbda841a1	-0.08215643
21	0xbec277c2	-0.37981993
22	0x3e5675cd	0.20943375
23	0x3eebbf2c	0.4604429
24	0xbec73577	-0.38907978
25	0xbe94354c	-0.28946912
26	0xbf133f91	-0.5751887
27	0x3e1a4d3d	0.15068527
28	0x3f0a1272	0.53934395
29	0x3ec36d9c	0.38169563
30	0x3f28d50f	0.659501
31	0x3e7d4ed5	0.24737103
32	0x3e9176b8	0.28410888
33	0xbe5b4f47	-0.2141696
34	0xbefaf5f0	-0.4901576
35	0xbe006945	-0.12540157
36	0xbdc79374	-0.09744921
37	0xbe82e84c	-0.25567853
38	0xbcb96743	-0.022632247
39	0xbfa919d9	-1.3211013
40	0xbe87e636	-0.26542825
41	0x3e65e7f1	0.2245176
42	0xbe4903b6	-0.19630322
43	0xbe43e538	-0.19130409
44	0x3e06eaa8	0.13175452
45	0x3d11029f	0.03540289
46	0xbcb3f7a6	-0.021968674
47	0x3e66e58d	0.22548504
48	0x3d80bdc0	0.06286192
49	0xbdedd4f0	-0.1161288
50	0xbe2b5061	-0.16729881
51	0xbe0f44dc	-0.13991112
52	0xbf742a26	-0.95376813
53	0xbe2111f8	-0.15729511
54	0xbee3a693	-0.44463024
55	0x3b8c2286	0.0042765765
56	0xbc81f50a	-0.015863914
57	0xbe0eec00	-0.13957214
58	0xbe1dd31a	-0.1541256
59	0xbe623a4f	-0.22092555
60	0x3e82d677	0.2555425
61	0x3e4f549f	0.20247124
62	0xbf152311	-0.5825663
63	0xbe8872d9	-0.26650122
64	0xbd9a2b4e	-0.07527791
65	0xbf0c6792	-0.54845536
66	0x3da1de70	0.07903755
67	0x3eb7993f	0.35859105
68	0xbebfcd49	-0.37461308
69	0xbeff0808	-0.49810815
70	0x3e59b8f3	0.21261959
71	0x3d3f97e7	0.046775725
72	0xbca1b00d	-0.019737268
73	0x3aa2ce19	0.0012421041
74	0xbed42ff4	-0.41442835
75	0xbe3970e6	-0.18109474
76	0x3d94c55c	0.07264206
77	0xbd31b37b	-0.043384057
78	0xbf141218	-0.5784011
79	0x3e0b5c3a	0.136094
80	0x3e904579	0.28178003
81	0x3e51ebb9	0.20500077
82	0x3e4db4d1	0.20088507
83	0xbedff739	-0.43743303
84	0x3eb682bd	0.3564662
85	0x3e0143fe	0.12623593
86	0xbe0516df	-0.12997006
87	0xbf873bca	-1.0565121
88	0x3cf5fe91	0.030028613
89	0xbe80cfe5	-0.2515861
90	0x3d9b3ed0	0.0758034
91	0x3eec74b8	0.461828
92	0x3f508812	0.81457627
93	0xbf02e325	-0.51127845
94	0xbe37dc1d	-0.1795506
95	0xbf27917e	-0.6545638
96	0xbdd4eafe	-0.10396384
97	0x3f665037	0.8996615
98	0x3e1b1d34	0.15147859
99	0xbe81b2d8	-0.2533176
100	0xbdd56546	-0.10419707
101	0x3da8df18	0.08245677
102	0x3e13300c	0.14373797
103	0xbe80824c	-0.2509941
104	0x3dcb7cfa	0.09935947
105	0xbeac151a	-0.3360985
106	0xbf1f582b	-0.6224391
107	0xbeaaa95e	-0.33332342
108	0xbea07906	-0.31342334
109	0xbeb28029	-0.34863403
110	0xbc2ad70f	-0.0104272505
111	0xbdd0a897	-0.10188406
112	0xbf2f4ad2	-0.6847354
113	0x3e3eb120	0.18622255
114	0x3ece6f0f	0.40319106
115	0x3e9911e4	0.29896462
116	0xbf2cbdc8	-0.67477083
117	0xbdc11e77	-0.09429639
118	0x3d6ad74d	0.057334233
119	0xbf0fb835	-0.5614045
120	0x3e247d93	0.16063528
121	0x3e459f80	0.19299126
122	0xbe392d6f	-0.18083738
123	0xbf189a48	-0.59610415
124	0xbea78558	-0.3271892
125	0xbd4a4bd9	-0.04938874
126	0xbf0bd106	-0.5461582
127	0x3e5d3603	0.21602635
128	0x3e141efa	0.14464942
129	0x3dffcb73	0.12489977
130	0x3e71f1f1	0.2362745
131	0xbed8b7a8	-0.4232762
132	0xbe18033e	-0.14844987
133	0xbd379481	-0.04481936
134	0x389e7c23	7.5571494e-05
135	0xbe935655	-0.28776804
136	0xbef02ccb	-0.46909174
137	0xbe4cc22c	-0.19995946
138	0xbeee4ac6	-0.46541423
139	0x3ebfd7d5	0.37469354
140	0xbd78ac96	-0.060711466
141	0x3cb5cd1c	0.02219253
142	0xbe5e4e32	-0.21709517
143	0x3d70a3f4	0.058750108
144	0x3f3cecf7	0.7379908
145	0xbe41d2e9	-0.18928112
146	0xbdb8746a	-0.09006579
147	0x3f9231e6	1.1421478
148	0x3d62c739	0.055365775
149	0xbdd06ef1	-0.101774104
150	0x3ece7974	0.40327036
151	0xbe8422bb	-0.25807747
152	0x3ed4f4bc	0.41592968
153	0x3eb5bd0b	0.3549579
154	0xbc350e30	-0.011050746
155	0xbe5a5633	-0.21321945
156	0x3d8a932e	0.067663535
157	0x3ebccd6f	0.36875483
158	0x3d98a81c	0.07453939
159	0x3f1902c6	0.59769857
160	0x3e27e9b7	0.16397749
161	0x3e23ad95	0.15984185
162	0xbeb7b9b2	-0.35883862
163	0x3d8c1229	0.06839401
164	0xbe6e6607	-0.23281108
165	0x3c557ad4	0.013029773
166	0xbea51e72	-0.3224979
167	0xbf0fd926	-0.5619072
168	0xbf03aee2	-0.51438725
169	0xbe8bef2f	-0.2733092
170	0xbdd3ab82	-0.10335447
171	0xbe95b992	-0.2924314
172	0xbebe3fad	-0.37157956
173	0x3dfc8ca1	0.1233151
174	0x3dbbbe91	0.09167207
175	0xbdce39d4	-0.100696236
176	0xbeab084c	-0.33404768
177	0xbf182510	-0.5943155
178	0x3ebbb0d1	0.36658338
179	0xbe9c996f	-0.3058581
180	0x3dbad01c	0.09121725
181	0x3ea6e580	0.3259697
182	0xbe59fae3	-0.21287112
183	0x3e914ee6	0.28380507
184	0xbe3d6519	-0.18495597
185	0xbf01854e	-0.5059403
186	0x3ea0bfb6	0.31396264
187	0x3ee8a414	0.45437682
188	0x3e8e7dad	0.27830258
189	0x3ec35066	0.38147277
190	0xbe92d81f	-0.28680512
191	0xbeedfd56	-0.46482342
192	0x3dd85a00	0.10564041
193	0xbf044c19	-0.51678616
194	0x3e6dadbe	0.23210809
195	0x3e8da9ba	0.27668554
196	0x3deded5b	0.116175376
197	0xbda8ca9c	-0.0824177
198	0x3f2f71c6	0.6853298
199	0x3f074315	0.52836734
200	0xbdb206eb	-0.08692726
201	0x3ec76915	0.3894736
202	0xbe978d0e	-0.29599804
203	0xbe2f21ca	-0.17102733
204	0x3e8e03cb	0.2773727
205	0xbe68110b	-0.22662751
206	0xbe82b66f	-0.2552981
207	0x3f1bad11	0.60810953
208	0x3f047438	0.51739836
209	0xbf0848d8	-0.5323615
210	0x3f17254d	0.5904129
211	0x3f04b65a	0.51840746
212	0xbea3a771	-0.31963685
213	0xbf45ebf5	-0.77313167
214	0xbe1f1231	-0.15534283
215	0x3cab95d0	0.02094546
216	0x3e1454b0	0.1448543
217	0xbd8aefbc	-0.06784007
218	0x3e9a6884	0.30157864
219	0x3e7594bd	0.2398252
220	0xbdf5528f	-0.119786374
221	0xbe8a9db0	-0.2707343
222	0xbdd2cfc5	-0.10293535
223	0xbd8d8437	-0.069099836
224	0x3e64df0e	0.22350714
225	0x3c9de6ea	0.019275147
226	0x3e3268f9	0.17422856
227	0x3e90f204	0.28309643
228	0xbec6a4c4	-0.3879758
229	0x3ce4b0d9	0.027916359
230	0x3e2d2cea	0.16911665
231	0x3e6df42f	0.2323768
232	0xbe2ae9b7	-0.16690718
233	0x3df843d4	0.12122312
234	0x3f082aae	0.53190124
235	0xbe59138a	-0.2119886
236	0x3ea94f6d	0.3306841
237	0x3f56cd61	0.83907133
238	0x3ee009f0	0.43757582
239	0x3e8b6ad6	0.27229947
240	0x3e246f2a	0.1605803
241	0x3ee355e3	0.44401464
242	0x3f028d38	0.5099673
243	0x3da7d9d3	0.081958435
244	0xbe32541d	-0.17414899
245	0xbd41538a	-0.04719881
246	0xbd1b60a2	-0.037933953
247	0x3c80d3fc	0.015726082
248	0xbd52c1bd	-0.051454294
249	0xbe5fc181	-0.2185116
250	0xbeab334f	-0.33437583
251	0xbe1f7aaf	-0.15574144
252	0x3eef9705	0.46794906
253	0x3e97ad32	0.29624325
254	0xbd60ec9e	-0.054913156
255	0x3e4b33d4	0.1984399

encoder.2.bias f4 [16]
0	0x3d77585d	0.060387004
1	0x3e1331eb	0.14374511
2	0x3d2e90b6	0.042618476
3	0x3bb56bad	0.0055365176
4	0x3ba65381	0.0050758724
5	0xbd4898df	-0.048973914
6	0x3d5395e7	0.05165663
7	0xbd078e11	-0.03309447
8	0xbcfe834f	-0.031068472
9	0xbcdacff4	-0.026710488
10	0x3de4122d	0.11136279
11	0x3a63b406	0.00086861884
12	0xbad6c302	-0.0016385021
13	0xbcb4b659	-0.022059606
14	0x3d589cae	0.052883796
15	0xbe19f7bc	-0.1503591

encoder.3.weight f4 [32, 16]
0	0xbe854420	-0.26028538
1	0x3ef113f4	0.47085536
2	0x3d2793e8	0.04091254
3	0xbe3cd59c	-0.1844086
4	0x3e470c6d	0.19438334
5	0x3eb0c4db	0.3452519
6	0xbe5be786	-0.21475038
7	0xbf7bcdfc	-0.9836118
8	0xbe8ac563	-0.2710372
9	0x3ee7a645	0.4524404
10	0xbbffd7e7	-0.00780772
11	0xbf04d2e1	-0.51884276
12	0x3e9f0ae4	0.31062996
13	0xbec8b93c	-0.39203823
14	0x3e8e3c74	0.27780497
15	0xbe088a52	-0.13334015
16	0xbe0c0778	-0.13674724
17	0x3e893da4	0.2680484
18	0xbe088598	-0.13332212
19	0x3ce81c09	0.02833368
20	0x3de87e59	0.11352224
21	0x3f08e7d9	0.5347877
22	0x3ea68eb5	0.32530752
23	0xbe8f2a3d	-0.27961913
24	0x3e17584b	0.14779775
25	0x3de74756	0.11292903
26	0x3f6e403d	0.9306677
27	0x3ebfd935	0.37470403
28	0xbd727c99	-0.059200857
29	0xbd061b65	-0.03274097
30	0xbf5f5437	-0.87237877
31	0xbf4bf1d1	-0.7966586
32	0xbe016ded	-0.1263959
33	0x3f21f94c	0.6327102
34	0xbbde41ae	-0.006782732
35	0xbd6d6cee	-0.05796521
36	0x3eb6fd80	0.3574028
37	0xbe32afc4	-0.17449862
38	0xbac2a9dc	-0.0014851647
39	0xbeae2c39	-0.34018114
40	0x3dc7b470	0.097512126
41	0x3d942bed	0.07234941
42	0x3d496fd2	0.049178906
43	0xbf28e3e1	-0.65972716
44	0x3d64ef01	0.055891994
45	0x3f1af4fb	0.6053006
46	0x3ddbd5c0	0.10734129
47	0xbdb93781	-0.0904379
48	0x3eb027cc	0.34405363
49	0xbe9d61a8	-0.30738568
50	0xbee36ea9	-0.44420364
51	0x3e985c55	0.29757944
52	0x3f324a00	0.69644165
53	0x3ed0a425	0.40750232
54	0x3da6c8e2	0.08143784
55	0xbef9868f	-0.48735473
56	0xbe851399	-0.25991514
57	0x3e676334	0.22596437
58	0xbf14c871	-0.5811835
59	0xbdbf8502	-0.09351541
60	0x3cdb8edd	0.026801521
61	0xbc3b2729	-0.011422911
62	0xbe215de9	-0.1575848
63	0xbd7fd073	-0.062454652
64	0x3eb04930	0.34430838
65	0xbec54c3c	-0.38534725
66	0xbec8ab0d	-0.39193
67	0x3f10973e	0.5648078
68	0x3e09489f	0.13406609
69	0x3daa7be6	0.08324413
70	0x3e27a840	0.16372776
71	0x3f479029	0.77954346
72	0xbf2be706	-0.6714939
73	0xbbee181f	-0.007266059
74	0xbea943ad	-0.33059445
75	0x3e8bfb58	0.27340198
76	0xbee1bfcd	-0.44091645
77	0x3c2dbaba	0.010603601
78	0x3c8ddbe5	0.017316768
79	0x3ee04769	0.43804482
80	0x3eb0a11c	0.34497917
81	0x3e930462	0.2871428
82	0x3f9ab9f6	1.2088001
83	0x3f14ab5e	0.58073986
84	0x3e02cec2	0.12774184
85	0xbd60b872	-0.0548634
86	0x3eab30e8	0.3343575
87	0x3f10b2d7	0.5652289
88	0xbe9e97fa	-0.30975324
89	0x3dce1c49	0.10063989
90	0xbe1909f0	-0.14945197
91	0xbe727cfc	-0.2368049
92	0x3e944df5	0.28965726
93	0xbe004cf1	-0.12529351
94	0xbd9261f3	-0.071475886
95	0x3e70cc9d	0.23515554
96	0x3d084971	0.033273164
97	0xbecfd96d	-0.4059557
98	0x3eda471a	0.4263237
99	0xbf54748b	-0.8299033
100	0x3f27688b	0.65393895
101	0x3f04f64a	0.5193831
102	0x3d4ddd2d	0.050259758
103	0x3d6b720f	0.05748182
104	0xbf360e9d	-0.7111605
105	0x3ea1b527	0.3158352
106	0x3e94581b	0.2897347
107	0xbe3c72f2	-0.18403223
108	0xbe9ec3a8	-0.3100865
109	0x3e918439	0.2842119
110	0x3e743626	0.23848781
111	0xbe198d46	-0.14995298
112	0xbe4506f7	-0.19240938
113	0xbe1b9cfc	-0.15196604
114	0x3ec85859	0.39129904
115	0xbe525978	-0.20541942
116	0xbe164236	-0.14673695
117	0xbef4825f	-0.47755715
118	0x3c038d92	0.008029358
119	0x3db1528d	0.086583234
120	0x3e179d27	0.14806043
121	0xbdbd7434	-0.092506796
122	0xbe1fcaad	-0.15604658
123	0xbeccc442	-0.39993483
124	0xbea230ca	-0.31677848
125	0x3ece9d8a	0.40354568
126	0xbcfbfc13	-0.030759847
127	0x3e2c877d	0.1684856
128	0x3e57a70a	0.21059814
129	0x3dce16f1	0.100629695
130	0x3d8f0adf	0.06984495
131	0xbe3e9888	-0.18612874
132	0xbef1bade	-0.4721288
133	0xbee9bd31	-0.45652154
134	0x3ee615eb	0.44938597
135	0x3ea10b34	0.3145386
136	0xbe793de7	-0.2434002
137	0x3f211a33	0.629306
138	0xbeabee0c	-0.33580053
139	0x3ea27b04	0.31734478
140	0xbf215c1a	-0.6303116
141	0xbf0d0547	-0.5508618
142	0x3df666d2	0.1203133
143	0xbe89609f	-0.2683153
144	0xbea18d56	-0.31553143
145	0xbd226460	-0.039646506
146	0x3c0aa66d	0.008462531
147	0x3f1c2faf	0.6101026
148	0x3e36ab75	0.17838843
149	0x3e91e0f5	0.2849194
150	0xbd95bbec	-0.07311234
151	0x3e9533aa	0.2914098
152	0x3f0c27ac	0.54748034
153	0xbd75780c	-0.05992894
154	0x3eab49e9	0.33454826
155	0x3d0b7e25	0.034055848
156	0x3d58fd39	0.052975867
157	0x3f0e15b3	0.5550186
158	0xbea3bca9	-0.31979874
159	0xbf60fdc8	-0.8788724
160	0xbc3ce036	-0.011528065
161	0xbdebb85c	-0.11509773
162	0xbefb0df9	-0.49034098
163	0xbf012d7c	-0.5046003
164	0xbe8a170c	-0.26970708
165	0x3c5db62d	0.013532204
166	0xbf13a270	-0.57669735
167	0x3ea8e4e7	0.3298714
168	0xbeea0ffc	-0.4571532
169	0xbf858702	-1.0431826
170	0xbe9561b4	-0.29176104
171	0x3e9ad0bb	0.30237374
172	0xbe43a378	-0.19105327
173	0xbdb3ec9f	-0.08785366
174	0xbd93a6df	-0.072095625
175	0xbec47a38	-0.38374496
176	0x3d799e9e	0.060942285
177	0x3d2c6ccc	0.042095944
178	0x3f19f293	0.60135764
179	0x3e863d99	0.2621887
180	0xbe57cc49	-0.21074022
181	0x3ed00b3f	0.4063358
182	0xbeb4277d	-0.35186377
183	0x3dc3e76e	0.09565626
184	0x3df9cddc	0.12197468
185	0x3f3400e7	0.70313877
186	0xbf268385	-0.6504443
187	0xbe0a64fb	-0.13515083
188	0xbd281fc9	-0.041045938
189	0xbe36fdee	-0.17870304
190	0xbd68c313	-0.056826662
191	0xbe9fc19b	-0.31202397
192	0x3e91e445	0.28494468
193	0xbdc476a5	-0.09592942
194	0x3e30859d	0.1723847
195	0x3eebfa1a	0.4608925
196	0x3e175c84	0.14781386
197	0x3edda9bf	0.43293568
198	0xbe9c54ea	-0.30533534
199	0xbe96c5fd	-0.29447928
200	0xbe877598	-0.26456904
201	0x3dc563a8	0.096381485
202	0x3dc479ec	0.09593567
203	0xbdc570ba	-0.096406415
204	0x3e2dc544	0.16969782
205	0xbf2290e8	-0.6350236
206	0x3f0f18e8	0.5589738
207	0x3c99c91c	0.018772654
208	0xbd11870d	-0.035529185
209	0x3e9356b9	0.28777102
210	0x3e08d506	0.13362512
211	0xbe8cfcf9	-0.27536753
212	0xbbe24225	-0.0069048577
213	0xbebe9419	-0.37222365
214	0x3ea506b9	0.3223169
215	0xbd98e37d	-0.07465265
216	0x3e92eab0	0.28694677
217	0x3ee4b128	0.4466641
218	0xbeede417	-0.4646308
219	0x3e365ca2	0.17808774
220	0xbdc93d13	-0.09826102
221	0xbf0c106e	-0.5471257
222	0xbe557e97	-0.20849071
223	0xbeb31495	-0.3497664
224	0xbf26e9fb	-0.65200776
225	0xbec1c207	-0.37843344
226	0xbed962e8	-0.42458272
227	0x3f135f05	0.57566863
228	0x3f1cef5b	0.6130273
229	0x3d2c9779	0.042136643
230	0x3f0f4bed	0.5597523
231	0x3f15966c	0.5843265
232	0xbf1ca063	-0.6118223
233	0xbf0ec713	-0.55772513
234	0xbe10654c	-0.14101142
235	0xbe0e0e21	-0.13872577
236	0xbecb2423	-0.39676008
237	0x3e47b5fa	0.19503012
238	0x3cf3b69d	0.029750163
239	0x3ea9c004	0.3315431
240	0x3e9a7e76	0.30174607
241	0xbe40b6ad	-0.18819685
242	0xbf51f6d1	-0.82017237
243	0x3db37aaa	0.08763631
244	0x3dc91c1c	0.098198146
245	0xbf65ef32	-0.8981811
246	0xbda9f65c	-0.082989424
247	0xbee31236	-0.4434983
248	0xbf023f6b	-0.5087802
249	0xbeb772c3	-0.35829744
250	0xbf1be10f	-0.6089029
251	0xbd9d806b	-0.076905094
252	0x3c8bac6f	0.017049996
253	0x3eaf7241	0.34266856
254	0xbdeff428	-0.11716491
255	0x3cc512bc	0.024056785

encoder.3.bias f4 [32]
0	0x3c408fab	0.011753003
1	0x3d30839b	0.04309426
2	0x3e035a45	0.12827404
3	0xbc84d60c	-0.016215347
4	0xbbc41c6c	-0.0059848335
5	0x3cd0feec	0.025512181
6	0xbd793696	-0.060843073
7	0xbbcd0876	-0.006257112
8	0xbd2abcd7	-0.041683998
9	0xbcc408c3	-0.02392996
10	0xbad4e13b	-0.001624144
11	0xbc9ab89c	-0.018886857
12	0xbc48ff06	-0.012267834
13	0x3bba51a9	0.005686004
14	0xbd051ef2	-0.032500215
15	0xbd2f512f	-0.042802032
16	0x3d10840a	0.035282172
17	0x3dbd2d5a	0.09237166
18	0xbd51fdde	-0.051267497
19	0x3d705239	0.058672164
20	0x3cc74e8e	0.02432945
21	0x3c9d4797	0.019199176
22	0x3ce33470	0.027734965
23	0x3d4c3f59	0.0498651
24	0xbcc7c711	-0.024386914
25	0xbdc10d96	-0.094264194
26	0x3abcf062	0.0014414901
27	0xbd55e0e0	-0.05221641
28	0xbdad68df	-0.08467268
29	0xbbcc1cad	-0.0062290044
30	0xbc1bb4b9	-0.009503537
31	0xbd68c067	-0.056824114

nee_decoder.0.weight f4 [16, 32]
0	0x3ebb40f2	0.36572987
1	0xbc5d87e1	-0.013521166
2	0xbea5561c	-0.3229226
3	0xbe876062	-0.26440722
4	0xbef642c1	-0.48097804
5	0xbdb337eb	-0.087509
6	0x3e5ee23a	0.21765986
7	0x3e16cfac	0.14727658
8	0x3d777def	0.060422834
9	0x3da81734	0.08207551
10	0x3e2f1d23	0.17100959
11	0x3e72c530	0.23708034
12	0x3eac1894	0.33612502
13	0xbe1b4127	-0.15161572
14	0xbd91d2be	-0.07120274
15	0xbea085e1	-0.31352141
16	0x3e87bf47	0.2651312
17	0x3ce281ec	0.027649842
18	0xbe28625e	-0.16443774
19	0x3c29d8fa	0.010366673
20	0x3edc9bb0	0.4308753
21	0x3e93a5f0	0.28837538
22	0xbe5ec54d	-0.21754952
23	0x3ec0bb75	0.37643018
24	0x3da37778	0.07981771
25	0x3cb1b6ed	0.021693671
26	0xbeeeb4b1	-0.46622232
27	0x3cccdc0f	0.025007276
28	0x3dd50996	0.10402219
29	0xbcd49564	-0.025950141
30	0x3dd17ff3	0.102294825
31	0x3e4d1995	0.2002929
32	0xbe853de9	-0.26023796
33	0xbdf13f1c	-0.11779615
34	0xbeb969c4	-0.36213505
35	0xbe0d22b9	-0.13782777
36	0xbeff130b	-0.49819216
37	0xbdfc7fab	-0.12329038
38	0x3e99bd3e	0.30027193
39	0xbe17eedb	-0.1483721
40	0xbdaf2748	-0.08552414
41	0xbd4f6e2a	-0.05064217
42	0x3eb21a55	0.34785715
43	0x3df0fb78	0.11766714
44	0x3e21bb7c	0.15794176
45	0xbd07a0b7	-0.033112254
46	0x3d9a65a9	0.075389214
47	0xbce5635f	-0.028001485
48	0xbcb57c50	-0.022154003
49	0xbef38620	-0.47563267
50	0x3ed2da5b	0.41182217
51	0x3db58763	0.088637136
52	0xbb8d8c13	-0.0043196767
53	0x3e2c4cb0	0.16826129
54	0xbe73412c	-0.2375533
55	0xbe1db779	-0.1540202
56	0x3e8a7560	0.27042675
57	0x3ec716a4	0.3888446
58	0xbdf23d37	-0.11828082
59	0x3e2aba14	0.16672546
60	0xbd9f2f9f	-0.07772755
61	0xbdb6e039	-0.08929486
62	0x3d8a29f1	0.06746281
63	0xbd8ca296	-0.06866948
64	0x3e7c21eb	0.24622314
65	0x3db88cfa	0.09011264
66	0x3d5926d0	0.05301553
67	0xbd92b2f9	-0.071630426
68	0x3e8455a5	0.25846592
69	0xbe2508ec	-0.16116685
70	0xbdfbe9b3	-0.12300434
71	0x3ef54ede	0.47911733
72	0xbecd23ac	-0.40066278
73	0x3e0d9e29	0.13829865
74	0x3de34953	0.1109797
75	0xbec0964a	-0.3761466
76	0x3eb92f75	0.3616902
77	0xbb0dfc41	-0.0021665248
78	0x3ddd5336	0.10806887
79	0xbc9700e1	-0.018433036
80	0xbd578e70	-0.052626073
81	0xbda35b19	-0.0797636
82	0xbd49ed4b	-0.049298566
83	0xbe67cb06	-0.22636041
84	0xbdf7ca80	-0.12099171
85	0xbe59958a	-0.21248451
86	0x3eef4d19	0.46738508
87	0xbd6262db	-0.055270057
88	0xbe75e636	-0.240136
89	0x3c8f07e2	0.017459814
90	0xbdcf8c9f	-0.10134243
91	0xbb1a20d7	-0.002351811
92	0x3c9dd702	0.019267563
93	0x3e9454fa	0.28971082
94	0xbe86dd25	-0.26340595
95	0xbe6492c5	-0.22321613
96	0xbe3dad4c	-0.18523139
97	0xbf041c37	-0.5160555
98	0xbe297c02	-0.16551211
99	0x3e189c00	0.1490326
100	0x3d5726a4	0.052527085
101	0xbdd78b2c	-0.10524592
102	0x3e332021	0.17492725
103	0x3f00a59f	0.5025272
104	0xbed7c38a	-0.42141372
105	0xbe8ed1b9	-0.2789438
106	0x3d456024	0.04818739
107	0xbe783a8e	-0.24241087
108	0x3e05427a	0.1301364
109	0x3e477e6f	0.19481824
110	0xbee111f6	-0.43959016
111	0x3e021536	0.12703404
112	0xbbce10c9	-0.006288622
113	0x3e9472dc	0.2899388
114	0x3e4d37ba	0.20040789
115	0x3e201ef3	0.15636806
116	0x3defd737	0.11710971
117	0x3e04d264	0.12970883
118	0xbe5b9595	-0.2144378
119	0xbe28662f	-0.1644523
120	0x3e064639	0.13112725
121	0x39a5505b	0.00031531122
122	0x3ea1c402	0.31594855
123	0x3e25df15	0.1619838
124	0x3cdf27e4	0.027240701
125	0xbefc385d	-0.49261752
126	0x3e60fa83	0.21970563
127	0x3dc4e9da	0.09614916
128	0xbd2d5642	-0.04231859
129	0xbe483953	-0.19553117
130	0xbc34cf52	-0.011035757
131	0x3e01f4d1	0.12691046
132	0x3e003494	0.12520057
133	0xbdbb8950	-0.0915705
134	0x3d93f7fd	0.072250344
135	0x3e280c0a	0.16410843
136	0xbe76a83f	-0.24087618
137	0x3c3bde7f	0.011466621
138	0xbe921ec6	-0.28539103
139	0xbe1a4c49	-0.15068163
140	0xbe2f8e41	-0.1714411
141	0xbdf46cb7	-0.11934798
142	0x3e7205ba	0.23634997
143	0xbed61f62	-0.41820818
144	0x3b10126a	0.0021983632
145	0xbe109e64	-0.14122921
146	0x3f01bab8	0.50675535
147	0xbea0af80	-0.31383896
148	0xbf03810e	-0.51368797
149	0xbe191762	-0.14950326
150	0xbe5ece97	-0.21758495
151	0x3eafc8aa	0.34332782
152	0x3e329a24	0.17441612
153	0x3d940054	0.07226625
154	0x3e8c8cb1	0.2745109
155	0x3e84d140	0.25940895
156	0x3ec92b34	0.39290774
157	0x3e0e868f	0.13918518
158	0xbe40df77	-0.18835245
159	0x3e334b21	0.17509128
160	0x3edb0a77	0.42781422
161	0xbd9cfae2	-0.076650396
162	0xbe947fe7	-0.29003832
163	0x3dbe587e	0.09294222
164	0xbe88a3ea	-0.26687557
165	0xbc0bc393	-0.008530515
166	0xbc4c63f1	-0.012475
167	0x3d471688	0.04860547
168	0xbd5a31f7	-0.053270306
169	0x3eeb3b02	0.45943457
170	0xbe10a03d	-0.14123626
171	0xbeed22c9	-0.463156
172	0x3eaefc5b	0.34176907
173	0x3d99b22a	0.07504685
174	0xbd0d6cf6	-0.03452774
175	0xbedbfbe4	-0.42965615
176	0xbebd9c2b	-0.3703321
177	0x3e4f7cb5	0.20262416
178	0x3ed6569f	0.41862962
179	0xbb86494b	-0.0040980927
180	0xbe48f960	-0.19626379
181	0xbe8e5c73	-0.27804908
182	0x3e4a9045	0.19781597
183	0xbe9770e9	-0.2957833
184	0x3dec96b5	0.115521826
185	0x3e7809aa	0.24222437
186	0xbec35825	-0.38153186
187	0xbedff0da	-0.43738443
188	0xbe6ff965	-0.2343498
189	0x3e5a435c	0.21314758
190	0xbdf5ec7a	-0.12007995
191	0xbd317d77	-0.043332543
192	0x3e7a1d33	0.24425201
193	0xbca0bef1	-0.019622298
194	0x3e52338a	0.20527473
195	0xbe6cf08b	-0.23138635
196	0x3ebd5908	0.36981988
197	0x3df93fc7	0.12170368
198	0x3d9a956b	0.075480305
199	0xbe7dced7	-0.24785934
200	0x3d1f3e33	0.038877677
201	0x3e3e0f79	0.1856059
202	0x3e3eb2d7	0.1862291
203	0x3d5161b1	0.051118556
204	0xbe78a8fd	-0.24283214
205	0x3ec97bc5	0.3935224
206	0xbd1ea557	-0.0387319
207	0xbe81e077	-0.25366566
208	0x3d9319cb	0.07182654
209	0x3e99e127	0.3005459
210	0xbe865012	-0.26232964
211	0xbd76c75d	-0.06024872
212	0xbe99b9b7	-0.30024502
213	0xbe2e1633	-0.17000656
214	0x3e30b688	0.1725713
215	0xbe93a4be	-0.28836626
216	0xbdcd8355	-0.10034815
217	0x3e00ba82	0.12571147
218	0x3e430b61	0.1904731
219	0xbe2f708b	-0.17132775
220	0x3c8d6ba5	0.017263243
221	0x3ece6c2e	0.4031691
222	0x3e566a39	0.20938958
223	0x3dc6abe5	0.09700755
224	0xbdd813fc	-0.10550687
225	0xbc1f6e9c	-0.009730961
226	0x3e27d0ea	0.16388288
227	0x3db142eb	0.08655342
228	0x3ecd0bec	0.40048158
229	0x3dd2ac85	0.10286812
230	0xbed33c3d	-0.41256896
231	0x3ece67bb	0.40313515
232	0xbda3df35	-0.08001558
233	0x3e3bbb95	0.18333276
234	0xbd4c5f3e	-0.049895518
235	0x3ee95955	0.45575967
236	0xbc86c122	-0.016449515
237	0x3e45c601	0.19313814
238	0xbeaa9bf4	-0.33322108
239	0x3e6b19c7	0.22959052
240	0xbdc9430d	-0.09827242
241	0x3e9cd16d	0.3062853
242	0x3e9fff0a	0.31249267
243	0x3e114694	0.1418708
244	0xbdcb8f5a	-0.099394515
245	0xbd35d602	-0.044393547
246	0xbcf79b66	-0.030225467
247	0xbc67ea41	-0.014154972
248	0xbdbd5cef	-0.09246241
249	0xbdaa4bc3	-0.08315232
250	0x3ed686af	0.4189963
251	0x3e3cea9f	0.18448876
252	0x3e18cff2	0.14923075
253	0x3f1157fe	0.5677489
254	0x3c3f1de5	0.011664842
255	0x3f05fe34	0.5234101

nee_decoder.0.bias f4 [16]
0	0x3d02f186	0.031968616
1	0xbd75e5e3	-0.06003369
2	0xbd9bd7ac	-0.076094955
3	0x3cac8dac	0.021063648
4	0xbe6bb8dc	-0.23019737
5	0xbe3eb037	-0.18621908
6	0x3ce898f7	0.028393252
7	0xbd2e026f	-0.04248279
8	0xbd500cad	-0.05079334
9	0xbd021785	-0.03176071
10	0x3cffc6df	0.031222759
11	0xbc92cd5c	-0.017920189
12	0x00000000	0.0
13	0xbd95708f	-0.072968595
14	0xbcfcec8b	-0.030874511
15	0xbd2ad439	-0.041706298

nee_decoder.2.weight f4 [16, 16]
0	0x3ccaa6e5	0.024737785
1	0xbeaad53a	-0.33365804
2	0x3ece6bc6	0.403166
3	0xbe98a3a4	-0.29812348
4	0x3ea4e4f5	0.3220593
5	0xbed00f9d	-0.40636912
6	0xbec39fa4	-0.38207734
7	0x3f08161d	0.5315874
8	0x3ed8f814	0.4237677
9	0xbf10a95a	-0.5650841
10	0x3eca3e59	0.39500692
11	0xbeadee2f	-0.33970782
12	0x3f1ca43f	0.6118812
13	0x3c2e84fc	0.010651823
14	0x3e6ee120	0.23328066
15	0x3ef3bfe1	0.4760733
16	0x3ea90f82	0.33019644
17	0x3e899357	0.26870224
18	0xbcffa2fe	-0.03120565
19	0x3e09b3a1	0.13447429
20	0x3e233693	0.15938787
21	0xbd9e3c97	-0.077264
22	0xbe09088b	-0.13382165
23	0x3eb7400a	0.35791045
24	0xbe8ce100	-0.2751541
25	0x3ea83c05	0.3285829
26	0xbddd994f	-0.10820257
27	0x3eef780c	0.46771276
28	0x3db2ab8d	0.08724127
29	0xbf049fd2	-0.51806366
30	0xbf0a8114	-0.5410321
31	0xbf486159	-0.7827354
32	0x3e88a77f	0.2669029
33	0xbe121eff	-0.14269637
34	0x3cae7921	0.021297993
35	0x3b625973	0.003453818
36	0x3ef5071e	0.47856992
37	0x3d925144	0.071444064
38	0x3d11cfe8	0.035598665
39	0x3e8ccc88	0.27499795
40	0x3e496a25	0.19669397
41	0xbe402a30	-0.18766093
42	0x3f5b5625	0.8567832
43	0xbdaead63	-0.08529165
44	0x3c72c8c3	0.014818373
45	0x3e9aef7c	0.30260837
46	0xbe3be180	-0.1834774
47	0x3dc3e125	0.09564427
48	0x3d3fa000	0.046783447
49	0x3ee28fad	0.4425024
50	0xbf1141b3	-0.56740874
51	0xbe94ede1	-0.29087737
52	0x3d954097	0.0728771
53	0xbec0c44f	-0.37649772
54	0x3e199049	0.14996447
55	0xbe673991	-0.22580554
56	0x3f62b2c8	0.8855405
57	0x3eba0143	0.36329088
58	0x3e875ff0	0.26440382
59	0x3e1c3aaf	0.15256761
60	0xbe274cc1	-0.16337873
61	0x3e9c65eb	0.30546507
62	0x3e8520b7	0.26001522
63	0x3e6fcd25	0.234181
64	0xbe7098aa	-0.23495737
65	0xbd855cda	-0.06511851
66	0x3a5c067f	0.0008393302
67	0xbec3f1dc	-0.38270462
68	0x3e0cb6ce	0.1374161
69	0x3e32ee11	0.17473628
70	0x3ddef0c3	0.108857654
71	0x3d277b6e	0.040889196
72	0x3f147cab	0.5800273
73	0x3da88f4e	0.08230458
74	0xbf4200f2	-0.7578269
75	0xbd9d9681	-0.07694722
76	0xbec14f94	-0.37756026
77	0x3f6b2e2f	0.91867346
78	0xbe80e024	-0.25171006
79	0xbf192893	-0.59827536
80	0x3e2a3ffc	0.1662597
81	0xbf2c90aa	-0.6740824
82	0x3f1531eb	0.58279294
83	0x3e9235c7	0.28556654
84	0xbe2adf24	-0.16686684
85	0x3e04a29b	0.12952654
86	0x3edb06df	0.4277868
87	0xbd43588e	-0.047691874
88	0xbd44f524	-0.048085347
89	0xbefff239	-0.4998949
90	0xbd659c1e	-0.056057088
91	0x3d0c1f50	0.03420955
92	0xbe2dded1	-0.16979529
93	0x3de75972	0.11296357
94	0xbf1074f4	-0.56428456
95	0xbf3108aa	-0.69153845
96	0xbecc7ba0	-0.39938068
97	0x3da13807	0.078720145
98	0x3ebba3dc	0.36648452
99	0x3ec7633e	0.38942903
100	0xbe2d00fa	-0.16894904
101	0x3d338c3d	0.043834914
102	0x3eb547f4	0.35406458
103	0x3d000ee3	0.031264197
104	0x3e2ca36b	0.16859214
105	0xbe033787	-0.12814151
106	0x3e1070b7	0.14105497
107	0x3e564a85	0.20926864
108	0x3cac5f54	0.02104155
109	0x3e9ab8d0	0.30219126
110	0xbd63d4e0	-0.055622935
111	0xbe7e05cc	-0.24806899
112	0xbd81ba27	-0.06334334
113	0xbecccc4d	-0.3999962
114	0xbe85727c	-0.26063907
115	0xbe83bedf	-0.2573156
116	0x3db0785d	0.086167075
117	0xbea25653	-0.31706485
118	0x3ec56c8f	0.38559386
119	0xbbbbe3ab	-0.0057339272
120	0x3e30992a	0.17245927
121	0xbc7ec2ad	-0.015549344
122	0xbdf42415	-0.119209446
123	0xbe41b9a8	-0.18918478
124	0xbdf1c60d	-0.11805353
125	0xbed83b52	-0.42232758
126	0x3f0ae24a	0.5425154
127	0x3eb13a87	0.34614965
128	0x3e360a41	0.17777349
129	0x3e0e1106	0.13873681
130	0xbe929a3b	-0.28633294
131	0xbe83a6f3	-0.2571331
132	0x3d76ea6c	0.060282156
133	0x3f2b5400	0.6692505
134	0xbed618d3	-0.41815814
135	0x3eb661d3	0.3562151
136	0xbec870c7	-0.39148542
137	0xbf3ebe30	-0.74508953
138	0x3e3acbe6	0.18241844
139	0x3f162c9d	0.58661824
140	0x3dcfe11d	0.10150359
141	0xbea62896	-0.3245284
142	0x3c47313e	0.012157736
143	0x3e7fdada	0.24985829
144	0xbe70fe80	-0.23534584
145	0xbe843ea2	-0.25829035
146	0xbefbddd2	-0.49192673
147	0x3e598058	0.21240366
148	0xbcc91cc5	-0.024549851
149	0xbeb35c5f	-0.3503141
150	0x3f066552	0.5249835
151	0xbdf4d4a3	-0.1195462
152	0x3f55c67d	0.83505994
153	0x3d836c6b	0.064171635
154	0xbddc59bb	-0.10759302
155	0xbe779f67	-0.24181901
156	0x3d095711	0.0335303
157	0x3e4ea9d5	0.20181973
158	0xbf1df510	-0.6170206
159	0xbe2f32aa	-0.1710917
160	0xbe1161e1	-0.14197494
161	0x3c86daca	0.016461749
162	0x3e8bde2e	0.27317947
163	0xbe415e6d	-0.18883677
164	0x3ea933dd	0.3304738
165	0x3e13a443	0.1441813
166	0x3f0425cf	0.5162019
167	0x3f6ca8cd	0.9244507
168	0xbe924c7f	-0.28573987
169	0x3db507eb	0.08839401
170	0xbead1f58	-0.33812976
171	0xbd59b64f	-0.05315238
172	0xbe9a36fb	-0.30120072
173	0x3f125c61	0.5717221
174	0xbe706944	-0.23477656
175	0xbe5a4d27	-0.21318494
176	0xbebc6b10	-0.36800432
177	0xbe08f8e7	-0.13376199
178	0xbdc2b414	-0.095070034
179	0xbe51a1b5	-0.20471843
180	0x3f34d170	0.70632076
181	0xbef3b4c7	-0.4759886
182	0x3e418f12	0.18902233
183	0x3e90bb73	0.28268012
184	0x3e8e3464	0.27774346
185	0xbe4fd9e2	-0.2029796
186	0x3df65b71	0.1202916
187	0xbf38f911	-0.72255045
188	0x3d03268c	0.032019183
189	0x3e9b5622	0.30339152
190	0x3db9ccb5	0.09072248
191	0x3e2e5f7d	0.17028613
192	0xbe742bb0	-0.2384479
193	0x3e0986e9	0.1343037
194	0x3f22f569	0.63655716
195	0x3e86a20f	0.26295516
196	0xbbc40f0f	-0.0059832404
197	0xbe8acca4	-0.27109253
198	0xbe77d0e4	-0.24200779
199	0x3de67649	0.1125303
200	0xbdab565e	-0.083660826
201	0x3e8c43c1	0.27395442
202	0xbd9a7472	-0.075417414
203	0x3e095757	0.13412224
204	0xbf2edbfd	-0.68304425
205	0x3e1ed362	0.15510324
206	0x3f14a3e9	0.5806261
207	0x3e31a507	0.17348109
208	0xbd5195e1	-0.051168326
209	0xbed9a195	-0.4250609
210	0xbdf568eb	-0.11982902
211	0xbdf99919	-0.12187404
212	0xbe4ecd55	-0.20195515
213	0xbe889171	-0.26673463
214	0xbd53fdbe	-0.05175566
215	0xbe85d967	-0.26142427
216	0x3ed10af2	0.40828663
217	0x3e86a067	0.26294252
218	0x3f11db84	0.5697558
219	0xbedd05d3	-0.43168506
220	0x3e758be4	0.23979145
221	0x3dad8a48	0.08473641
222	0x3e459af2	0.19297388
223	0xbe2b2a74	-0.16715413
224	0xbe074a1c	-0.13211864
225	0xbcd9f331	-0.02660522
226	0x3e2be364	0.16785961
227	0xbe2b87c0	-0.16751003
228	0xbed66a13	-0.41877803
229	0x3e4db042	0.20086768
230	0x3ce52f49	0.027976649
231	0x3ddf3680	0.10899067
232	0x3f1673e4	0.58770585
233	0x3eafc574	0.34330332
234	0x3e959702	0.29216772
235	0xbeb15be6	-0.34640425
236	0xbe567568	-0.20943224
237	0x3cf830bf	0.030296681
238	0x3eb8bf32	0.3608337
239	0xbe1cb872	-0.15304735
240	0xbece0f9c	-0.40246284
241	0xbed87ccb	-0.4228271
242	0x3e0c53ed	0.1370389
243	0x3cb1a500	0.021685123
244	0xbe2024a8	-0.15638983
245	0xbe525444	-0.20539957
246	0xbd17680c	-0.03696446
247	0x3ec51205	0.3849031
248	0xbea1a60c	-0.31571996
249	0xbf1600b2	-0.5859481
250	0x3e8ca1c2	0.2746716
251	0x3e2d1636	0.16903004
252	0xbf224c82	-0.6339799
253	0x3ea621f5	0.32447782
254	0xbd917a25	-0.07103375
255	0x3b7880b7	0.0037918517

nee_decoder.2.bias f4 [16]
0	0xbd2e8aef	-0.042612966
1	0x3d56111e	0.052262418
2	0x3d2a1a58	0.04152903
3	0x3d3c3037	0.04594442
4	0xbd507994	-0.050897196
5	0x3d54a61f	0.051916238
6	0x3d1ebe47	0.03875568
7	0x3d79fcf6	0.061032258
8	0xbd2eb253	-0.042650532
9	0xbd5a9185	-0.053361434
10	0xbd757c63	-0.059933078
11	0x3d36834a	0.0445588
12	0xbd63710c	-0.05552773
13	0xbd272baa	-0.040813126
14	0xbd9e66b8	-0.07734436
15	0x3d7e043d	0.06201576

nee_decoder.3.weight f4 [1, 16]
0	0xbf0bfd8d	-0.5468376
1	0x3d7b80b2	0.06140203
2	0x3e57a3b5	0.21058543
3	0x3ecad10d	0.39612618
4	0xbee9180a	-0.45526153
5	0x3ef25e86	0.4733774
6	0x3e2eeb69	0.1708199
7	0x3e2ea355	0.17054494
8	0xbe749377	-0.23884378
9	0xbeef0c27	-0.4668896
10	0xbd57b7f4	-0.052665666
11	0x3e82b177	0.2552602
12	0xbea2e05f	-0.31811807
13	0xbe9e5889	-0.30926922
14	0xbc9a5f26	-0.018844198
15	0x3e32caa8	0.1746012

fc_mu.0.weight f4 [4, 32]
0	0xbe2b4a71	-0.16727616
1	0x3ebf9f29	0.37426117
2	0xbd5261a4	-0.05136265
3	0xbc7c5eab	-0.01540343
4	0x3e26b761	0.16280891
5	0xbe2c3d57	-0.16820274
6	0x3e2d1bdf	0.16905163
7	0x3e8da1c4	0.2766248
8	0x3e1c2ced	0.15251513
9	0x3da524cf	0.08063661
10	0x3ef71169	0.4825547
11	0xbdc845f0	-0.097789645
12	0xbef67efb	-0.48143753
13	0xbe4ef0a8	-0.2020899
14	0xbd2fa2de	-0.04287993
15	0xbdd0eb5a	-0.1020114
16	0xbed8a89d	-0.42316142
17	0xbd867787	-0.06565767
18	0xbdac8333	-0.08423462
19	0x3b80b4ca	0.0039278017
20	0x3e82e22d	0.25563183
21	0x3e8203fe	0.2539367
22	0x3cb32235	0.021866897
23	0x3e8b986e	0.27264732
24	0xbd194233	-0.037416648
25	0xbe896178	-0.26832175
26	0xbec8a374	-0.39187205
27	0xbe673f89	-0.2258283
28	0x3e6c65d1	0.23085715
29	0xbda7d43c	-0.08194777
30	0xbdcb78b6	-0.09935133
31	0x3e7a4f95	0.2444442
32	0xbdb602bb	-0.088872395
33	0xbe229099	-0.15875472
34	0x398b7a77	0.0002660339
35	0xbe3d7dbe	-0.18504998
36	0xbeaab336	-0.33339852
37	0x3ecfeb89	0.40609387
38	0x3e5ab326	0.21357402
39	0xbf3700c9	-0.71485573
40	0xbe0b5b1a	-0.13608971
41	0xbc6e0680	-0.014527917
42	0x3d97b00f	0.074066274
43	0xbc28ce3b	-0.010303075
44	0x3d8e0411	0.06934369
45	0xbd5db445	-0.054126997
46	0xbdd80fe9	-0.105499096
47	0xbc61f0f1	-0.013790355
48	0x3ec78836	0.38971108
49	0x3eef21e3	0.4670554
50	0xbe78ffb6	-0.24316296
51	0xbe3f7b8f	-0.18699478
52	0xbd08ae3a	-0.03336928
53	0xbe50fd40	-0.20409107
54	0x3d525111	0.051346842
55	0x3e0c3974	0.13693792
56	0x3e6f8016	0.23388705
57	0x3e440967	0.19144212
58	0xbdb88bf0	-0.09011066
59	0x3dd0362c	0.101665825
60	0xbda7997d	-0.081835724
61	0x3d027cde	0.031857364
62	0x3e22ff6d	0.1591775
63	0x3e275f7c	0.16345018
64	0x3e5540b1	0.20825459
65	0x3d265a7c	0.040613636
66	0xb9e82575	-0.00044278396
67	0x3bbe7956	0.005812804
68	0xbe4488c2	-0.19192794
69	0xbe1f7800	-0.1557312
70	0x3d9a10a0	0.07522702
71	0xbde4ee45	-0.11178259
72	0x3e25ef80	0.16204643
73	0xbe22442e	-0.15846321
74	0x3e5d8027	0.21630917
75	0x3f06264f	0.52402204
76	0xbdfabe78	-0.1224336
77	0xbd9a5889	-0.07536418
78	0x3cda6862	0.026661102
79	0xbed82e15	-0.42222658
80	0xbcf81bc7	-0.030286683
81	0x3e22a73d	0.15884109
82	0xbdc2dff8	-0.09515375
83	0xbf07a093	-0.5297939
84	0xbd36e28e	-0.044649653
85	0x3d69dae5	0.05709352
86	0xbe0a2c97	-0.13493572
87	0x3e899ec0	0.2687893
88	0x3d9e4a7d	0.07729051
89	0x3ddf4237	0.10901301
90	0x3e3b96da	0.18319264
91	0x3d0496ad	0.032370258
92	0x3e086846	0.13321027
93	0x3f2db52c	0.6785457
94	0x3e538285	0.20655258
95	0xbdf8a29a	-0.12140389
96	0xbe9f777f	-0.31145856
97	0xbf04fba1	-0.51946455
98	0x3eb20ea6	0.347768
99	0xbec7fe3a	-0.39061147
100	0x3e967a0c	0.2938999
101	0xbd40a677	-0.047033753
102	0x3e2dc72e	0.16970512
103	0xbedb8cab	-0.4288076
104	0x3d02e7c5	0.031959314
105	0x3de49a7e	0.111622795
106	0xbd0536ca	-0.032522954
107	0x3e3d957f	0.1851406
108	0xbe17dacd	-0.1482956
109	0x3c56aa04	0.013102058
110	0x3ededb24	0.43526566
111	0xbf154839	-0.5831333
112	0xbe7730da	-0.24139729
113	0x3e91841c	0.28421104
114	0xbe62cd63	-0.22148661
115	0xbe0f6f87	-0.14007388
116	0x3dea2846	0.11433463
117	0xbd69969b	-0.057028394
118	0x3ecd678f	0.4011807
119	0xbd5718ba	-0.052513815
120	0x3e61d9ae	0.22055694
121	0xbe141a94	-0.14463264
122	0x3d6ff4e5	0.05858316
123	0x3ee4f229	0.44716004
124	0x3e68be65	0.2272888
125	0xbda96427	-0.08271056
126	0xbe1ad478	-0.15120113
127	0x3dc7fd70	0.09765136

fc_mu.0.bias f4 [4]
0	0xbb3063db	-0.0026914987
1	0xbc70869d	-0.014680532
2	0xbcae5c49	-0.02128424
3	0xbb4764d2	-0.0030425084

fc_mu.1.weight f4 [1, 4]
0	0xb9bc7678	-0.0003594642
1	0xbf75d6f9	-0.9603115
2	0xbf05a545	-0.52205306
3	0x3ceb7dfc	0.028746597

fc_logvar.0.weight f4 [4, 32]
0	0xbe2b4a71	-0.16727616
1	0x3ebf9f29	0.37426117
2	0xbd5261a4	-0.05136265
3	0xbc7c5eab	-0.01540343
4	0x3e26b761	0.16280891
5	0xbe2c3d57	-0.16820274
6	0x3e2d1bdf	0.16905163
7	0x3e8da1c4	0.2766248
8	0x3e1c2ced	0.15251513
9	0x3da524cf	0.08063661
10	0x3ef71169	0.4825547
11	0xbdc845f0	-0.097789645
12	0xbef67efb	-0.48143753
13	0xbe4ef0a8	-0.2020899
14	0xbd2fa2de	-0.04287993
15	0xbdd0eb5a	-0.1020114
16	0xbed8a89d	-0.42316142
17	0xbd867787	-0.06565767
18	0xbdac8333	-0.08423462
19	0x3b80b4ca	0.0039278017
20	0x3e82e22d	0.25563183
21	0x3e8203fe	0.2539367
22	0x3cb32235	0.021866897
23	0x3e8b986e	0.27264732
24	0xbd194233	-0.037416648
25	0xbe896178	-0.26832175
26	0xbec8a374	-0.39187205
27	0xbe673f89	-0.2258283
28	0x3e6c65d1	0.23085715
29	0xbda7d43c	-0.08194777
30	0xbdcb78b6	-0.09935133
31	0x3e7a4f95	0.2444442
32	0xbdb602bb	-0.088872395
33	0xbe229099	-0.15875472
34	0x398b7a77	0.0002660339
35	0xbe3d7dbe	-0.18504998
36	0xbeaab336	-0.33339852
37	0x3ecfeb89	0.40609387
38	0x3e5ab326	0.21357402
39	0xbf3700c9	-0.71485573
40	0xbe0b5b1a	-0.13608971
41	0xbc6e0680	-0.014527917
42	0x3d97b00f	0.074066274
43	0xbc28ce3b	-0.010303075
44	0x3d8e0411	0.06934369
45	0xbd5db445	-0.054126997
46	0xbdd80fe9	-0.105499096
47	0xbc61f0f1	-0.013790355
48	0x3ec78836	0.38971108
49	0x3eef21e3	0.4670554
50	0xbe78ffb6	-0.24316296
51	0xbe3f7b8f	-0.18699478
52	0xbd08ae3a	-0.03336928
53	0xbe50fd40	-0.20409107
54	0x3d525111	0.051346842
55	0x3e0c3974	0.13693792
56	0x3e6f8016	0.23388705
57	0x3e440967	0.19144212
58	0xbdb88bf0	-0.09011066
59	0x3dd0362c	0.101665825
60	0xbda7997d	-0.081835724
61	0x3d027cde	0.031857364
62	0x3e22ff6d	0.1591775
63	0x3e275f7c	0.16345018
64	0x3e5540b1	0.20825459
65	0x3d265a7c	0.040613636
66	0xb9e82575	-0.00044278396
67	0x3bbe7956	0.005812804
68	0xbe4488c2	-0.19192794
69	0xbe1f7800	-0.1557312
70	0x3d9a10a0	0.07522702
71	0xbde4ee45	-0.11178259
72	0x3e25ef80	0.16204643
73	0xbe22442e	-0.15846321
74	0x3e5d8027	0.21630917
75	0x3f06264f	0.52402204
76	0xbdfabe78	-0.1224336
77	0xbd9a5889	-0.07536418
78	0x3cda6862	0.026661102
79	0xbed82e15	-0.42222658
80	0xbcf81bc7	-0.030286683
81	0x3e22a73d	0.15884109
82	0xbdc2dff8	-0.09515375
83	0xbf07a093	-0.5297939
84	0xbd36e28e	-0.044649653
85	0x3d69dae5	0.05709352
86	0xbe0a2c97	-0.13493572
87	0x3e899ec0	0.2687893
88	0x3d9e4a7d	0.07729051
89	0x3ddf4237	0.10901301
90	0x3e3b96da	0.18319264
91	0x3d0496ad	0.032370258
92	0x3e086846	0.13321027
93	0x3f2db52c	0.6785457
94	0x3e538285	0.20655258
95	0xbdf8a29a	-0.12140389
96	0xbe9f777f	-0.31145856
97	0xbf04fba1	-0.51946455
98	0x3eb20ea6	0.347768
99	0xbec7fe3a	-0.39061147
100	0x3e967a0c	0.2938999
101	0xbd40a677	-0.047033753
102	0x3e2dc72e	0.16970512
103	0xbedb8cab	-0.4288076
104	0x3d02e7c5	0.031959314
105	0x3de49a7e	0.111622795
106	0xbd0536ca	-0.032522954
107	0x3e3d957f	0.1851406
108	0xbe17dacd	-0.1482956
109	0x3c56aa04	0.013102058
110	0x3ededb24	0.43526566
111	0xbf154839	-0.5831333
112	0xbe7730da	-0.24139729
113	0x3e91841c	0.28421104
114	0xbe62cd63	-0.22148661
115	0xbe0f6f87	-0.14007388
116	0x3dea2846	0.11433463
117	0xbd69969b	-0.057028394
118	0x3ecd678f	0.4011807
119	0xbd5718ba	-0.052513815
120	0x3e61d9ae	0.22055694
121	0xbe141a94	-0.14463264
122	0x3d6ff4e5	0.05858316
123	0x3ee4f229	0.44716004
124	0x3e68be65	0.2272888
125	0xbda96427	-0.08271056
126	0xbe1ad478	-0.15120113
127	0x3dc7fd70	0.09765136

fc_logvar.0.bias f4 [4]
0	0xbb3063db	-0.0026914987
1	0xbc70869d	-0.014680532
2	0xbcae5c49	-0.02128424
3	0xbb4764d2	-0.0030425084

fc_logvar.1.weight f4 [1, 4]
0	0xbf06ed8c	-0.5270622
1	0x3ef0c481	0.4702492
2	0xbe076f6b	-0.13226096
3	0x3f60223f	0.87552255

temp_derivative_decoder.0.weight f4 [16, 32]
0	0x3e3fae13	0.18718748
1	0x3e6a7520	0.22896242
2	0xbd7d8a11	-0.06189925
3	0x3d7b6594	0.06137617
4	0xbdd49dee	-0.10381685
5	0x3df8039a	0.12110062
6	0x3e041b16	0.12900957
7	0xbcbeb84e	-0.023281243
8	0x3e96fc68	0.29489446
9	0xbe2ddb09	-0.16978087
10	0xbcdf4638	-0.027255163
11	0xbd54e2c8	-0.051974088
12	0x3ca842ed	0.020539725
13	0xbe42ef7c	-0.19036669
14	0x3d95443e	0.07288407
15	0xbe09a615	-0.13442262
16	0x3d7e9617	0.062154856
17	0x3d43c349	0.04779366
18	0xbf2ea7c2	-0.6822473
19	0x3d4e901f	0.050430413
20	0x3d7b2177	0.06131121
21	0xbd2b878f	-0.041877326
22	0x3d863a7d	0.065541245
23	0x3e7da04e	0.24768183
24	0xbe1267c7	-0.142974
25	0x3e7d7284	0.24750715
26	0xbd335820	-0.043785214
27	0xbe093cda	-0.1340212
28	0xbde84d97	-0.11342924
29	0xbd967f8a	-0.07348545
30	0x3e43bd47	0.19115172
31	0xbe4f6e13	-0.20256834
32	0xbe99adbe	-0.30015367
33	0x3e11872e	0.14211723
34	0x3d7edde8	0.062223345
35	0x3c8d9ec4	0.01728762
36	0xbe81a593	-0.25321636
37	0xbe7b499e	-0.24539801
38	0xbcccf0d5	-0.025017181
39	0xbe97663f	-0.29570195
40	0xbd8328a6	-0.064042374
41	0x3eb2912b	0.3487638
42	0xbe64c29e	-0.22339866
43	0x3f009c5e	0.502386
44	0x3f1111df	0.56667894
45	0x3ea81c68	0.32834172
46	0xbe9e3c98	-0.30905604
47	0x3e8a9a6f	0.27070948
48	0xbdbe5ed8	-0.09295434
49	0x3dc56dd6	0.0964009
50	0x3e9ac365	0.302272
51	0x3e32602b	0.17419498
52	0xbd644e2a	-0.055738606
53	0x3eb3bd82	0.3510552
54	0x3eaf725b	0.34266934
55	0x3e236da6	0.15959796
56	0xbddb570b	-0.107099615
57	0xbe14ccbf	-0.1453123
58	0x3e872b49	0.2640021
59	0x3e940ad7	0.2891452
60	0xbec167a1	-0.37774375
61	0x3ccbabd8	0.024862215
62	0x3d125764	0.035727873
63	0xbe185acd	-0.14878388
64	0x3d1cca55	0.038278896
65	0x3e58897b	0.21146195
66	0x3ca20c4e	0.019781258
67	0xbc9af126	-0.018913817
68	0xbece86fa	-0.40337354
69	0x3ecf0728	0.40435147
70	0xbd09e196	-0.0336624
71	0x3e287bf2	0.16453531
72	0xbd7b239d	-0.06131326
73	0x3e959947	0.29218504
74	0x3e876812	0.26446587
75	0xbe42ab6f	-0.19010709
76	0xbe2b37b0	-0.16720462
77	0x3e43fbfe	0.19139096
78	0x3e07c87f	0.13260077
79	0x3e0fedf6	0.14055619
80	0x3e3b34f4	0.18281919
81	0x3e16b78b	0.14718454
82	0xbe7bc989	-0.24588598
83	0x3dc76164	0.09735373
84	0xbe609269	-0.21930851
85	0xbe3aae1c	-0.1823048
86	0xbdd0e4fe	-0.10199927
87	0xbd51e150	-0.051240265
88	0x3e4f3ff1	0.20239235
89	0x3e0e15f6	0.13875565
90	0xbebedfb0	-0.37280035
91	0x3e0318e4	0.12802464
92	0x3c6d9617	0.014501116
93	0xbe0932e4	-0.1339832
94	0xbdd154bd	-0.10221241
95	0xbbe91b8a	-0.0071138786
96	0xbf0fe37d	-0.56206495
97	0xbee80545	-0.4531652
98	0xbe985ddb	-0.29759106
99	0x3e6490ac	0.22320813
100	0xbd352ecf	-0.044234093
101	0x3ce16fa7	0.02751906
102	0x3db9c6a3	0.0907109
103	0xbeb55dd5	-0.3542315
104	0x3d8ed56b	0.069743
105	0x3cd24146	0.02566589
106	0xbe0ef449	-0.13960375
107	0xbd1b21e5	-0.03787412
108	0x3d54d51e	0.051961057
109	0xbd19e6b5	-0.037573535
110	0xbdce6b14	-0.10079017
111	0x3c3fa5ad	0.011697215
112	0xbf02e621	-0.511324
113	0xbe32cec1	-0.17461683
114	0x3d23b567	0.03996792
115	0x3e8b18d6	0.27167386
116	0xbdbcecdb	-0.09224864
117	0xbecaa983	-0.39582452
118	0x3e1681ea	0.14697996
119	0x3dd8be8f	0.10583221
120	0xbee311e3	-0.44349584
121	0x3d2aa83f	0.04166436
122	0x3e4cbf0a	0.1999475
123	0xbc06998f	-0.008215322
124	0xbe9a2023	-0.30102643
125	0xbdb52eaf	-0.08846795
126	0xbdf32d0b	-0.11873826
127	0xbe99d73c	-0.30047023
128	0xbe90ea04	-0.2830354
129	0xbe6df3d9	-0.23237552
130	0xbcf25bc2	-0.02958477
131	0xbdec93f7	-0.115516596
132	0xbd4577f3	-0.048210096
133	0xbde9e8d1	-0.11421359
134	0x3ee3c239	0.44484118
135	0xbd56f1c2	-0.052476652
136	0x3d83f790	0.06443703
137	0x3f23c453	0.6397144
138	0x3e05d094	0.13067847
139	0x3e3a19fa	0.18173972
140	0x3dbab965	0.091173925
141	0xbf00dbd6	-0.50335443
142	0x3cefd4cc	0.029276274
143	0x3d84bb91	0.06481088
144	0x3df3afcf	0.11898767
145	0xbe3d65d6	-0.18495879
146	0x3d84a2d2	0.06476368
147	0x3d567b92	0.05236394
148	0x3f558882	0.8341142
149	0x3f1a1041	0.6018105
150	0x3e9bab14	0.3040396
151	0xbe3e9786	-0.18612489
152	0x3e91613e	0.28394502
153	0xbeb99d74	-0.3625294
154	0x3eb76f88	0.3582728
155	0x3c84c8e3	0.016209072
156	0x3e26b9ab	0.16281764
157	0x3e060aa0	0.1308999
158	0xbec10e95	-0.37706438
159	0x3f116eb9	0.56809574
160	0xbef8f5ca	-0.48625022
161	0x3ebf6f5b	0.37389645
162	0x3e238ae6	0.15970954
163	0xbe4b3bb0	-0.19846988
164	0xbeafbec5	-0.34325233
165	0xbdf17734	-0.11790314
166	0xbd90b4c0	-0.07065725
167	0xbe8a6ab4	-0.27034533
168	0xbe39038b	-0.18067758
169	0x3f271b02	0.65275586
170	0x3e716ba3	0.23576216
171	0xbd3db3c0	-0.046314
172	0xbe884913	-0.2661825
173	0x3d321b4c	0.043483064
174	0xbe90cc92	-0.28281075
175	0x3e4ac7f0	0.19802833
176	0x3e8a41ad	0.27003232
177	0xbd34830d	-0.044070292
178	0xbe87d2c7	-0.26527998
179	0xbed41084	-0.4141885
180	0x3e84c28b	0.25929675
181	0xbdaf0850	-0.08546507
182	0xbe2116c8	-0.15731347
183	0xbd40d45e	-0.04707753
184	0xbdf049de	-0.11732839
185	0xbf0c813d	-0.548847
186	0x3e470de4	0.19438893
187	0xbe429a89	-0.19004263
188	0xbea4cc2d	-0.32187024
189	0xbdef5dd1	-0.11687816
190	0x3e108ab0	0.14115405
191	0x3eb94ba5	0.36190525
192	0xbcc8bca6	-0.024504017
193	0x3ee2b20c	0.44276464
194	0xbe565d22	-0.20933965
195	0xbe45a8cd	-0.19302674
196	0x3e4ccca5	0.1999994
197	0x3df92b96	0.121665165
198	0x3dddeb08	0.10835844
199	0xbf2ecd9e	-0.68282497
200	0x3f0c5e83	0.54831713
201	0xbce73978	-0.028225645
202	0xbd5ffac9	-0.054682527
203	0xbe38e6af	-0.18056749
204	0xbe50394f	-0.20334361
205	0xbe861b6e	-0.26192802
206	0x3dc8a189	0.097964354
207	0x3f117eb2	0.56833947
208	0xbe91509f	-0.28381822
209	0x3dfb9af1	0.12285412
210	0x3ef2a6dd	0.47392932
211	0x3efb94ef	0.49137065
212	0xbf001ba4	-0.50042176
213	0x3de41192	0.11136164
214	0xbe5b7b2f	-0.2143371
215	0xbd4848cc	-0.04889755
216	0x3f36a98b	0.7135245
217	0x3aff38b4	0.0019471855
218	0x3f2064c9	0.62653786
219	0xbef0812d	-0.46973553
220	0x3d7f8537	0.062382903
221	0x3e89efa9	0.2694066
222	0xbc8d7a16	-0.01727013
223	0xbe6b55b0	-0.22981906
224	0xbe43b58f	-0.19112228
225	0x3ed2e9f1	0.41194108
226	0x3df52b69	0.119711705
227	0xbe82b69a	-0.2552994
228	0x3efe20c8	0.49634385
229	0xbde1a2e7	-0.11017399
230	0x3cecc0f0	0.028900594
231	0xbc153dfa	-0.009109015
232	0x3f2c844f	0.67389387
233	0xbe6c861b	-0.23098032
234	0xbc072d8e	-0.008250607
235	0xbea17570	-0.3153491
236	0xbdd413b9	-0.10355324
237	0x3e54c5a9	0.20778526
238	0x3e8933d0	0.26797342
239	0xbd254dd2	-0.04035742
240	0xbd6d9acf	-0.058008965
241	0xbeb899cc	-0.36054838
242	0xbed61f92	-0.4182096
243	0x3cdbe155	0.026840845
244	0xbe8d5d3e	-0.276102
245	0x3de770d1	0.11300815
246	0xbde6cbac	-0.11269316
247	0x3ceab23e	0.028649446
248	0xbd15f83f	-0.0366137
249	0xbd841270	-0.06448829
250	0x3e39ce0f	0.18145011
251	0xbc59396c	-0.013258319
252	0xbeae072a	-0.3398984
253	0xbe3195ba	-0.17342272
254	0xbf018482	-0.50592816
255	0xbcab9431	-0.020944687
