.archive/piae_sde/experiments/2024-11-27_11-19-4-621153/best_model.pth (torch, 15714 bytes, 15 tensors)

encoder.0.weight f4 [16, 18]
-0.22969045 0.10619187 -0.03640045 0.06049889 0.1653354 0.042394236 -0.056145273 0.14803992
0.050246447 -0.15767866 0.1174372 -0.07770748 0.10311612 0.3926731 -0.4449681 0.23501064
0.28514212 -0.21023177 -0.48639894 0.027411418 -0.15900798 0.5631222 -0.046947315 -0.035163086
-0.27949727 0.00038584368 -0.18975616 -0.13591516 0.16374783 0.3448668 0.32228756 0.046849985
0.9049048 -0.24025583 -0.21541452 0.035932086 -0.25387532 0.13758956 -0.37299457 0.080563076
-0.13681665 0.08860223 -0.23284222 0.39787707 0.10946642 -0.1071697 0.1763456 -0.26027107
0.04659245 0.4098083 -0.3682187 0.15772516 0.51741374 -0.4855868 0.102070816 -0.21878035
0.062070068 0.102660604 0.27970642 0.057591237 0.14515659 0.028293878 0.28334135 -0.664134
0.29512754 -0.04099179 0.020202912 -0.6536128 0.14376445 0.08513116 -0.041515607 0.083842084
0.381724 0.9451082 -0.046638373 -0.38522843 -0.07964488 0.14483194 -0.11973801 -0.48847306
0.32835943 0.19317952 0.15689224 -0.34076574 0.14622432 0.45645884 -0.19061124 -0.019722557
-0.10857384 -0.20747237 -0.23269671 0.17575285 0.30325463 0.062990464 0.23364347 -0.15293351
-0.018512605 0.10456626 -0.027139544 -0.081850715 0.13882543 0.049301382 0.072307475 0.33890218
-0.20499514 -0.1515334 0.18984202 0.14638332 -0.24754371 0.14637367 0.044462092 0.07655016
0.37674177 -0.2803882 -0.027293373 0.5306112 -0.20537198 0.72988886 0.08278489 0.15999527
0.03006246 0.12167082 0.09249581 -0.105425104 0.068977825 -0.28733903 0.18926784 0.18061166
-0.21245043 0.026245799 0.025087653 0.2638958 -0.3028877 0.30938163 -0.018749598 -0.29125568
0.14395168 -0.15294386 -0.049084652 0.0055135353 0.046841227 -0.1691926 0.34570828 0.27137208
-0.30561584 0.28064302 0.18035689 -0.06052207 0.4154308 0.17007776 0.13791676 -0.0027333715
0.55507374 0.09789098 0.028226398 -0.020195093 0.22687241 -0.018094465 -0.34570187 -0.15072139
0.21170233 -0.23292236 -0.25850067 0.10323923 0.20896932 0.13220389 0.21916416 -0.31834164
-0.0564124 0.17018832 -0.15631987 0.004271348 0.18675008 0.02147866 0.10790631 -0.13285568
0.27170762 0.31767464 0.38878435 0.014224641 0.25034034 -0.00693396 -0.4325471 0.05700299
0.20373945 0.14106463 0.3276369 0.08932866 -0.03643834 0.0655829 0.007511476 -0.031378772
-0.13073838 -0.17002605 -0.3307225 0.35516316 -0.26445532 0.3878946 0.6904712 -0.14519991
0.53528595 -0.12820905 -0.49775743 -0.2554338 0.1032119 0.041450508 -0.26725486 -0.09005119
0.37676808 -0.08623087 -0.22147569 -0.07248023 -0.08606607 0.5422425 -0.44184574 -0.47799313
-0.7463246 0.05379589 0.71951294 -0.251463 -0.37719542 0.10369293 0.5623234 -0.19520997
0.21907277 0.16858421 -0.66491306 0.19942652 -0.044672202 -0.032484315 -0.18874429 -0.044950448
-0.13811041 0.306916 -0.06318582 0.0063455743 0.235187 0.040368747 0.13027719 -0.12409616
0.008521277 -0.019840306 -0.27910304 -0.29614368 0.07703258 0.12011992 -0.029074011 0.32929927
-0.14137575 -0.0994429 0.10305411 0.1995661 0.3313413 0.056506604 0.04086764 0.37205076
00000000: f933 6bbe 207b d93d a318 15bd afcd 773d
00000010: af4d 293e 94a5 2d3d 96f8 65bd c797 173e
00000020: 38cf 4d3d 8476 21be ea82 f03d 1925 9fbd
00000030: 8b2e d33d 730c c93e dcd2 e3be a1a6 703e
00000040: 26fe 913e ff46 57be 4809 f9be e98d e03c
00000050: fdd2 22be c728 103f d44b 40bd 2b07 10bd
00000060: 441a 8fbe 104b ca39 704f 42be 582d 0bbe
00000070: 83ad 273e 6292 b03e e002 a53e c5e5 3f3d
00000080: d7a7 673f a005 76be a095 5cbe 862d 133d
00000090: f2fb 81be 47e4 0c3e 25f9 bebe 41fe a43d
000000a0: aa19 0cbe 1675 b53d 316e 6ebe 8bb6 cb3e
000000b0: ee2f e03d ca7b dbbd f193 343e 4042 85be
000000c0: bad7 3e3d 65d2 d13e 2987 bcbe b482 213e
000000d0: 3a75 043f d59e f8be 810a d13d f507 60be
000000e0: 2f3d 7e3d b93f d23d ae35 8f3e cae4 6b3d
000000f0: eea3 143e 90c8 e73c 1e12 913e b004 2abf
00000100: f51a 973e 02e7 27bd 9480 a53c 2b53 27bf
00000110: fd36 133e 3f59 ae3d 450c 2abd 66b5 ab3d
00000120: 5471 c33e 9cf2 713f e107 3fbd a93c c5be
00000130: db1c a3bd d34e 143e 3439 f5bd 2419 fabe
00000140: ba1e a83e dad0 453e 5ca8 203e d978 aebe
00000150: d4bb 153e f9b4 e93e 982f 43be 3391 a1bc
00000160: f65b debd a373 54be 0c48 6ebe 8ef8 333e
00000170: 3144 9b3e 2501 813d 3c40 6f3e 9a9a 1cbe
00000180: bfa7 97bc d626 d63d c053 debc 59a1 a7bd
00000190: 4128 0e3e 3ff0 493d f115 943d 9684 ad3e
000001a0: 3fea 51be 922b 1bbe f265 423e 82e5 153e
000001b0: 197c 7dbe fbe2 153e e21d 363d 55c6 9c3d
000001c0: 4ce4 c03e 0b8f 8fbe 5a96 dfbc 23d6 073f
000001d0: 084d 52be ffd9 3a3f 208b a93d cdd5 233e
000001e0: 8c45 f63c 8d2e f93d 716e bd3d 1ee9 d7bd
000001f0: 3f44 8d3d 1a1e 93be 6ecf 413e 43f2 383e
00000200: 9b8c 59be 6e01 d73c 9f84 cd3c 5a1d 873e
00000210: 1914 9bbe 4567 9e3e c298 99bc 771f 95be
00000220: 1268 133e 519d 1cbe fd0c 49bd e3aa b43b
00000230: 96dc 3f3d d340 2dbe ad00 b13e 48f1 8a3e
00000240: ae79 9cbe 71b0 8f3e 7aaf 383e fde5 77bd
00000250: 59b3 d43e dd28 2e3e 0d3a 0d3e 5d22 33bb
00000260: 5019 0e3f 117b c83d 0c3b e73c 2e70 a5bc
00000270: 3e51 683e d83a 94bc d6ff b0be b556 1abe
00000280: 7fc8 583e 3383 6ebe 335a 84be 176f d33d
00000290: 0efc 553e 7560 073e 926c 603e adfd a2be
000002a0: b010 67bd d945 2e3e 5112 20be aaf6 8b3b
000002b0: 6a3b 3f3e 04f4 af3c fcfd dc3d 520b 08be
000002c0: 431d 8b3e 40a6 a23e be0e c73e 780e 693c
000002d0: 9c2c 803e 4636 e3bb d076 ddbe f87b 693d
000002e0: 13a1 503e 3f73 103e 06c0 a73e f2f1 b63d
000002f0: 5e40 15bd 5450 863d d422 f63b 0787 00bd
00000300: 48e0 05be 4f1b 2ebe 7654 a9be f2d7 b53e
00000310: b066 87be 1f9a c63e b8c2 303f 49af 14be
00000320: 8008 093f 3c49 03be 10da febe 38c8 82be
00000330: c360 d33d 02c8 293d a1d5 88be c26c b8bd
00000340: bfe7 c03e cf99 b0bd 86ca 62be 8470 94bd
00000350: 6843 b0bd 68d0 0a3f 9b39 e2be 84bb f4be
00000360: 210f 3fbf 1459 5c3d 0032 383f c2bf 80be
00000370: c21f c1be f55c d43d 6df4 0f3f 1fe5 47be
00000380: 9d54 603e 57a1 2c3e be37 2abf 7736 4c3e
00000390: 33fa 36bd 460e 05bd 2f46 41be f61d 38bd
000003a0: d16c 0dbe 1824 9d3e 9167 81bd 89ee cf3b
000003b0: dcd4 703e b359 253d 6267 053e 2126 febd
000003c0: d49c 0b3c 2388 a2bc 98e6 8ebe 25a0 97be
000003d0: 42c3 9d3d 6f01 f63d 9f2c eebc ea99 a83e
000003e0: cec4 10be b8a8 cbbd 090e d33d 0e5b 4c3e
000003f0: 91a5 a93e 7873 673d d464 273d 707d be3e

encoder.0.bias f4 [16]
0.0062423656 -0.053527426 -0.29492757 -0.07656294 -0.0070357975 0.13834414 0.2035668 -0.0064017726
-0.023695014 -0.23063451 0.0 0.0 0.022393854 -0.20402558 0.0 -0.03127662
00000000: c28c cc3b 933f 5bbd bf00 97be 08cd 9cbd
00000010: 8c8c e6bb 16aa 0d3e d173 503e f6c5 d1bb
00000020: 0c1c c2bc 742b 6cbe 0000 0000 0000 0000
00000030: 5173 b73c 15ec 50be 0000 0000 ea1b 00bd

encoder.2.weight f4 [32, 16]
-0.6929245 0.24062887 -0.30407432 0.29272097 -0.4170733 0.051069487 -0.19403692 -0.30706707
-0.103613466 -0.47492227 0.02079398 -0.3756173 0.3095507 -0.35169953 0.5619983 0.37271917
0.022306051 0.082061 -0.18802956 -0.5196678 0.090824634 0.41833687 -0.21300265 0.9902116
-0.051008113 -0.8998282 0.3535777 -0.46209005 -0.43907863 0.1845447 0.44579628 -0.14213635
0.25619435 0.97281444 0.32725185 0.02680267 -0.43449038 -1.1069064 -0.16418995 -0.0720501
-0.18189289 -0.11057125 0.078237176 0.5281454 -0.082650624 0.5073143 0.28257197 0.1846536
-0.20291625 -0.20778604 -0.08762979 0.30721667 0.18366389 -0.23718946 0.24326794 -0.2629631
-0.33794233 -0.047039527 -0.10174527 -0.25621846 0.48867518 0.025164353 -0.5404494 0.4113933
-0.12302389 0.078746 0.13252491 -0.38237497 -0.24875335 -0.5418847 0.14477634 0.28213382
-0.17529258 -0.35242888 0.27567807 -0.13648371 -0.28879774 0.3352049 -0.032818362 -0.15347907
0.20574579 0.36977834 -0.094045766 0.13919318 0.3029886 -0.1128506 -0.8371666 -0.054022904
0.2668771 -0.046830375 0.29974335 -1.034969 0.31755382 0.2534853 0.16151036 0.13040482
-0.32140702 0.17466646 0.39508787 -0.3474 0.8059854 -0.6703927 0.002261 -0.9993326
-0.4501619 0.51548415 -0.44400913 0.15887058 0.30798972 0.025496103 -0.12470855 -0.10636377
-0.111163445 -0.028671604 0.3207549 -0.32637098 0.20382419 -0.33077216 0.77501965 0.014119275
0.2886409 -0.27993062 1.0496745 0.18914574 -0.05859761 -0.29507425 -0.18713444 -0.33675793
0.5650643 -0.43848547 -0.11853569 -0.2536221 0.015578024 0.34450227 -0.5230166 -0.5040192
-0.2488909 0.02436024 0.050992295 0.02573263 -0.301495 0.51956403 0.1460742 0.050647028
0.21901283 -0.24697644 -0.22480196 0.3987019 -0.35860264 0.472671 0.44660744 -0.5052961
-0.29712355 0.32175756 -0.12891981 0.5801931 -0.26908207 -0.017453963 -0.69393283 0.21381633
-0.122172415 0.44149667 -0.11382422 0.31466728 0.45754403 0.068861514 0.7203274 -0.52181345
-0.11115608 -0.10017881 0.41521388 0.09687593 -0.2924434 -0.11838792 0.31901196 0.00533957
-0.6199151 0.3582635 -0.13258253 -0.029868232 -0.5126993 -0.56909883 -0.73322606 0.675141
0.056421705 0.4653805 -0.24662942 0.4441339 -0.70784754 -0.09789863 -0.043724943 0.34485453
-0.47214872 -0.19113132 0.34847024 -0.56938916 -0.45996296 -0.22155559 0.0546142 -0.26196402
-0.9331533 0.6593375 -0.19375677 0.28246805 0.27406687 -0.15361604 -0.0021155144 0.46879265
0.11964121 -0.057903737 -0.60493636 -0.26376814 0.27252826 -0.02567975 -0.30562022 -0.4533834
0.09934051 0.6503402 0.25904113 0.29655948 -0.23694927 -0.3490571 -0.64394855 -0.054731358
-0.50965536 0.46247768 0.6127638 0.15720223 0.049525443 0.21218152 -0.27658713 -0.6115518
0.15305147 0.00511599 -0.26559561 -0.0006593898 -0.011572854 -0.47649753 0.4954199 -0.10582121
-0.051443636 0.7581867 -0.106685445 0.41876143 -0.28256896 0.07130479 -0.37197092 0.23061927
0.21207346 -0.2023838 0.17074503 -0.18748191 0.015678843 0.42961916 -0.6354619 -0.7007107
00000000: 8063 31bf 6a67 763e a1af 9bbe 86df 953e
00000010: a28a d5be 3d2e 513d 9db1 46be e537 9dbe
00000020: 4c33 d4bd 0329 f3be 2358 aa3c e950 c0be
00000030: 6e7d 9e3e f611 b4be 1fdf 0f3f 0cd5 be3e
00000040: 2ebb b63c 990f a83d d28a 40be f308 05bf
00000050: 4402 ba3d 4030 d63e 5e1d 5abe 827e 7d3f
00000060: e2ed 50bd 245b 66bf 2308 b53e 1197 ecbe
00000070: eace e0be 49f9 3c3e 693f e43e 318c 11be
00000080: e82b 833e 5e0a 793f 8e8d a73e 4691 db3c
00000090: 8675 debe 1caf 8dbf 6921 28be 018f 93bd
000000a0: 2142 3abe 2e73 e2bd d03a a03d 8934 073f
000000b0: bb44 a9bd 5adf 013f 46ad 903e d515 3d3e
000000c0: 47c9 4fbe ddc5 54be 3f77 b3bd 814b 9d3e
000000d0: 6312 3c3e cbe1 72be 3b1b 793e 19a3 86be
000000e0: c706 adbe 85ac 40bd d35f d0bd 112f 83be
000000f0: a233 fa3e 7925 ce3c e45a 0abf 25a2 d23e
00000100: f3f3 fbbd 9545 a13d 9cb4 073e a7c6 c3be
00000110: 33b9 7ebe f5b8 0abf 4040 143e d873 903e
00000120: e67f 33be 8f71 b4be ad25 8d3e 63c2 0bbe
00000130: 4cdd 93be fa9f ab3e 8c6c 06bd 9e29 1dbe
00000140: 06af 523e 9653 bd3e 119b c0bd a888 0e3e
00000150: 5221 9b3e 371e e7bd 8d50 56bf 1f47 5dbd
00000160: 1ea4 883e 35d1 3fbd f677 993e dd79 84bf
00000170: 6a96 a23e d3c8 813e f962 253e d788 053e
00000180: 768f a4be c4db 323e f548 ca3e 6ade b1be
00000190: 0f55 4e3f db9e 2bbf 492d 143b 43d4 7fbf
000001a0: 9f7b e6be c5f6 033f 2a55 e3be f8ae 223e
000001b0: d4b0 9d3e 34dd d03c 3267 ffbd 40d5 d9bd
000001c0: a9a9 e3bd b6e0 eabc fc39 a43e 191a a7be
000001d0: 4ab7 503e f85a a9be b067 463f 8854 673c
000001e0: bdc8 933e 1153 8fbe bc5b 863f 6caf 413e
000001f0: 0c04 70bd f913 97be 2ca0 3fbe 896b acbe
00000200: 0ea8 103f 2b81 e0be d7c2 f2bd c2da 81be
00000210: f83a 7f3c 9a62 b03e 6ae4 05bf 6707 01bf
00000220: 42dd 7ebe 208f c73c 4cdd 503d 3dcd d23c
00000230: 8d5d 9abe 2602 053f 7a94 153e 4273 4f3d
00000240: e644 603e 64e7 7cbe 7c32 66be a822 cc3e
00000250: c49a b7be ef01 f23e bba9 e43e 165b 01bf
00000260: 9420 98be 68bd a43e 8e03 04be 8987 143f
00000270: 20c5 89be 9dfb 8ebc 95a5 31bf abf2 5a3e
00000280: 8835 fabd da0b e23e ac1c e9bd 121c a13e
00000290: 3643 ea3e 4407 8d3d 6067 383f 9195 05bf
000002a0: cda5 e3bd 8c2a cdbd ea96 d43e e366 c63d
000002b0: 24bb 95be 5e75 f2bd 8955 a33e 8ff7 ae3b
000002c0: c2b2 1ebf 506e b73e b7c3 07be 39ae f4bc
000002d0: 4340 03bf 76b0 11bf b4b4 3bbf 0ad6 2c3f
000002e0: 721a 673d 5a46 ee3e 6c8c 7cbe 8565 e33e
000002f0: 7f35 35bf 147f c8bd ed18 33bd c690 b03e
00000300: 7abd f1be eeb7 43be b16a b23e 7dc3 11bf
00000310: 4480 ebbe 78df 62be 24b3 5f3d 2620 86be
00000320: 22e3 6ebf 58ca 283f 2d68 46be a79f 903e
00000330: 7e52 8c3e 864d 1dbe 71a4 0abb 9705 f03e
00000340: 7306 f53d 782c 6dbd 1cdd 1abf 9e0c 87be
00000350: d388 8b3e 575e d2bc 417a 9cbe de21 e8be
00000360: 0a73 cb3d b27c 263f 0aa1 843e a5d6 973e
00000370: d4a2 72be 9db7 b2be d0d9 24bf fd2d 60bd
00000380: c678 02bf e0c9 ec3e 17de 1c3f 9ff9 203e
00000390: 31db 4a3d 1d46 593e d49c 8dbe a98e 1cbf
000003a0: 86b9 1c3e 09a4 a73b 26fc 87be e7da 2cba
000003b0: 119c 3dbc 7cf7 f3be ada7 fd3e cab8 d8bd
000003c0: 90b6 52bd 8618 423f e67d dabd e667 d63e
000003d0: e1ac 90be 3f08 923d f972 bebe 7527 6c3e
000003e0: c929 593e b33d 4fbe c9d7 2e3e 42fb 3fbe
000003f0: eb70 803c 0bf7 db3e a2ad 22bf c761 33bf

encoder.2.bias f4 [32]
0.0 0.034414932 0.02606066 0.0 0.0 -0.07634077 -0.08685184 -0.01472534
0.019498292 0.041389823 0.0 -0.28854433 -0.19760823 -0.051109523 -0.020978663 -0.10405549
0.0 -0.21298957 0.0 -0.10449064 0.0 0.0 0.0 0.0
0.060199104 -0.08765627 -0.09453892 -0.101634346 -0.07816286 0.0 -0.029855756 0.0
00000000: 0000 0000 acf6 0c3d 2a7d d53c 0000 0000
00000010: 0000 0000 8d58 9cbd 61df b1bd 8d42 71bc
00000020: e2ba 9f3c 6088 293d 0000 0000 15bc 93be
00000030: d059 4abe 3858 51bd 72db abbc 0b1b d5bd
00000040: 0000 0000 f019 5abe 0000 0000 30ff d5bd
00000050: 0000 0000 0000 0000 0000 0000 0000 0000
00000060: 5693 763d 2185 b3bd 9f9d c1bd ab25 d0bd
00000070: d913 a0bd 0000 0000 0f94 f4bc 0000 0000

nee_decoder.0.weight f4 [16, 32]
-0.25841713 -0.5492558 0.2204878 -0.5022798 0.1470594 0.36263925 -0.01924414 -0.10790743
0.27120614 -0.5240033 -0.37949395 0.04549695 0.036780413 -0.3027367 -0.39912188 0.022768887
0.2648664 0.20424111 0.24037509 -0.29959127 -0.23520893 -0.23015556 0.018485986 -0.036320135
0.5660319 -0.3170433 0.09127596 0.007846587 0.06633543 0.050257012 -0.011167446 -0.6224543
-0.15724124 0.10604884 0.2569683 0.24662474 0.24790563 0.23663989 0.13448511 -0.55937344
0.6324157 -0.25004536 -0.1060098 0.09062694 0.013892775 0.07975014 -0.06834637 0.16592894
-0.0052857446 -0.0032222106 0.42511544 -0.17389049 0.14120857 0.3975745 -0.109359495 0.6208917
0.080267325 0.30135432 0.51164335 0.33782354 0.022328505 -0.15625347 -0.0033580505 -0.10012362
-0.66715366 -0.15749986 -0.7317283 0.24336533 0.42223072 -0.3959669 0.18458171 -0.224092
-0.41166627 0.3472208 -0.15014093 -0.3687588 0.12229761 -0.09290484 0.20050679 0.30601588
0.099375814 -0.052022804 -0.048755296 0.2973057 -0.25792453 -0.026356943 -0.25697958 0.017877446
0.045104083 0.281052 -0.16356927 -0.25966236 0.10423191 -0.1481263 -0.087211505 0.29991844
-0.3825882 -0.08032587 -0.16900615 0.33482376 -0.16585994 -0.010995576 0.04795785 0.09907733
0.1476433 0.41221675 -0.0031363287 0.3287106 0.01313286 0.23380624 -0.14872086 0.09823707
0.18479273 0.68607235 -0.296125 0.22883081 0.64790267 -0.02797952 -0.18824174 0.46618366
0.36121318 -0.2523396 -0.08381107 0.10341749 -0.3177259 0.3709444 0.5251961 -0.13015081
-0.40858087 0.5963656 -0.05519243 -0.3087272 -0.062442765 0.14413798 0.18180376 0.1274844
0.104120485 -0.76613533 -0.18968126 0.040200196 0.4822696 0.09970076 -0.13406247 -0.09256163
0.02652315 -0.14775197 0.009921077 0.20240586 -0.056645516 0.26588312 -0.0751127 0.38968915
-0.2502005 0.19137506 0.16403142 0.004336819 0.50607204 -0.0039310185 0.06973242 -0.020658271
0.10900829 0.2466503 -0.2774231 0.35046965 -0.009844869 -0.419403 0.29061943 -0.09612035
-0.35515133 -0.27953595 0.091410264 -0.35852233 0.08383851 -0.02628097 -0.47569597 -0.428536
-0.04631845 0.22359084 0.274725 0.26881805 -0.1323326 0.23811533 -0.12101091 -0.29016787
0.15742482 0.24604431 -0.18331215 -0.12960823 0.47171932 0.39978454 -0.14717935 0.45869136
0.029713538 -0.42920366 -0.028418744 -0.09116163 0.03846625 -0.17115963 0.16648148 0.091835216
0.29048795 -0.082814194 -0.21944143 0.23819958 0.0800284 -0.098251194 0.16018505 -0.19520387
0.032336064 0.10162018 0.096477605 0.08950586 0.20814511 -0.06811559 -0.26824766 0.3772687
-0.2394951 0.19898339 0.2630117 0.16714108 -0.69343334 -0.09745551 -0.23435275 0.6400371
0.020992309 -0.20398605 0.06380591 0.3551181 -0.16531709 0.33607268 -0.32103577 0.21727803
-0.29264832 -0.050718453 -0.16632688 0.26633736 0.4811127 0.12152518 -0.011653839 0.24058671
-0.23221332 -0.2103268 -0.2481685 0.11671687 0.16462062 -0.12144485 -0.03843546 -0.5565078
-0.29375857 0.74686104 0.21593125 -0.22753444 -0.3975433 0.066219084 -0.07287535 -0.049359664
00000000: 404f 84be 079c 0cbf 8ec7 613e 6995 00bf
00000010: bd96 163e daab b93e e3a5 9dbc 92fe dcbd
00000020: 88db 8a3e 1525 06bf 084d c2be 035b 3a3d
00000030: 0fa7 163d 4e00 9bbe b459 ccbe d185 ba3c
00000040: 929c 873e 9524 513e e324 763e 0764 99be
00000050: 9cda 70be e6ad 6bbe ec6f 973c 6cc4 14bd
00000060: 77e7 103f 8053 a2be e4ee ba3d f98e 003c
00000070: dfda 873d 4cda 4d3d aaf7 36bc 2a59 1fbf
00000080: d903 21be 2230 d93d 5991 833e 328b 7c3e
00000090: f9da 7d3e ba51 723e 77b6 093e 1933 0fbf
000000a0: ffe5 213f f205 80be ab1b d9bd 9e9a b93d
000000b0: 869e 633c 0b54 a33d 2ef9 8bbd 47e9 293e
000000c0: 0a34 adbb b92b 53bb bba8 d93e 5910 32be
000000d0: fb98 103e e38e cb3e dff7 dfbd c2f2 1e3f
000000e0: 3263 a43d 1d4b 9a3e 0ffb 023f 35f7 ac3e
000000f0: 45ea b63c e900 20be bd12 5cbb 9d0d cdbd
00000100: 95ca 2abf a547 21be 8c52 3bbf c334 793e
00000110: a02e d83e 2cbc cabe fd02 3d3e 6078 65be
00000120: ecc5 d2be edc6 b13e 8bbe 19be f4cd bcbe
00000130: 2b77 fa3d e544 bebd a751 4d3e 1dae 9c3e
00000140: 8c85 cb3d dd15 55bd a2b3 47bd 7438 983e
00000150: af0e 84be 84ea d7bc d492 83be b973 923c
00000160: 0fbf 383d 0ce6 8f3e b47e 27be 77f2 84be
00000170: 8a77 d53d 6cae 17be f29b b2bd e98e 993e
00000180: 9ae2 c3be e481 a4bd f30f 2dbe 056e ab3e
00000190: 30d7 29be ca26 34bc 736f 443d 0ee9 ca3d
000001a0: ce2f 173e 130e d33e dd8a 4dbb c14c a83e
000001b0: 352b 573c e76a 6f3e 484a 18be 8430 c93d
000001c0: 4e3a 3d3e 70a2 2f3f b29d 97be a052 6a3e
000001d0: f3dc 253f 4e35 e5bc 71c2 40be a0af ee3e
000001e0: eff0 b83e a832 81be 23a5 abbd 8dcc d33d
000001f0: f8ac a2be 6dec bd3e 4073 063f 4146 05be
00000200: 8331 d1be 6aab 183f 7511 62bd 7e11 9ebe
00000210: fcc3 7fbd e898 133e c42a 3a3e 458b 023e
00000220: 1f3d d53d 7221 44bf ce3b 42be f6a8 243d
00000230: 0aec f63e e92f cc3d ac47 09be f490 bdbd
00000240: 1447 d93c 4b4c 17be 038c 223c 7b43 4f3e
00000250: 2105 68bd d521 883e b0d4 99bd 5685 c73e
00000260: 481a 80be d3f7 433e daf7 273e e01b 8e3b
00000270: f08d 013f c6cf 80bb dfcf 8e3d 893b a9bc
00000280: bd3f df3d e591 7c3e 670a 8ebe c270 b33e
00000290: 604c 21bc fdbb d6be 12cc 943e bfda c4bd
000002a0: 65d6 b5be 561f 8fbe 4e35 bb3d 3d90 b7be
000002b0: 86b3 ab3d 304b d7bc 6c8e f3be 1269 dbbe
000002c0: 6ab8 3dbd fff4 643e c1a8 8c3e 85a2 893e
000002d0: 3282 07be 81d4 733e 91d4 f7bd e290 94be
000002e0: f933 213e 0af3 7b3e 2eb6 3bbe 05b8 04be
000002f0: 3285 f13e 8fb0 cc3e 2fb6 16be 98d9 ea3e
00000300: ce69 f33c 95c0 dbbe 6dce e8bc f3b2 babd
00000310: c98e 1d3d 7844 2fbe 1f7a 2a3e 1a14 bc3d
00000320: d6ba 943e 7d9a a9bd 41b5 60be 97ea 733e
00000330: eee5 a33d ec37 c9bd 8d07 243e 86e3 47be
00000340: d272 043d 3e1e d03d 0d96 c53d d94e b73d
00000350: fe23 553e 3080 8bbd c257 89be 5d29 c13e
00000360: 343e 75be 4dc2 4b3e 78a9 863e 0827 2b3e
00000370: d984 31bf c196 c7bd 2bfa 6fbe 79d9 233f
00000380: 10f8 ab3c b8e1 50be acac 823d 0ad2 b53e
00000390: e248 29be b811 ac3e cd5e a4be 227e 5e3e
000003a0: 00d6 95be 27be 4fbd 9851 2abe 5f5d 883e
000003b0: 6754 f63e 32e2 f83d beef 3ebc 5d5c 763e
000003c0: 54c9 6dbe e95f 57be e21f 7ebe 4109 ef3d
000003d0: 4f92 283e 14b8 f8bd 806e 1dbd 4c77 0ebf
000003e0: 8667 96be 4932 3f3f 151d 5d3e cafe 68be
000003f0: cc8a cbbe df9d 873d ac3f 95bd 5c2d 4abd

nee_decoder.0.bias f4 [16]
0.17398514 0.2069145 0.0044950168 -0.013313357 0.00032628793 0.061752725 0.077963054 0.04219251
-0.1496945 -0.08010294 0.043615837 0.0046309037 0.031168582 -0.14597346 -0.0644972 -0.08354057
00000000: 2929 323e 65e1 533e ef4a 933b 4420 5abc
00000010: a011 ab39 6df0 7c3d 18ab 9f3d 0ed2 2c3d
00000020: 8449 19be 030d a4bd 85a6 323d d6be 973b
00000030: 4155 ff3c 117a 15be 1c17 84bd 5217 abbd

nee_decoder.2.weight f4 [16, 16]
0.15167238 0.16281694 0.29330653 -0.3552531 0.37867653 -0.13197216 0.08226396 0.2324424
0.029561533 0.26189476 -0.1848008 0.24858853 0.2301396 -0.23898768 -0.0726755 -0.4090312
-0.38141805 -0.37320966 0.049146343 -0.2939601 -0.009084001 -0.07114013 -0.30964738 0.14520334
-0.35683557 0.22763586 0.639219 -0.7143036 0.08582469 -0.098579906 -0.06054037 -0.011113421
-0.5908827 -0.09463548 0.22005443 -0.56243527 0.11772232 0.5002666 0.18676849 0.53032315
-0.086353585 0.7047884 -0.14331093 0.608259 0.8040982 0.45252568 -0.5474751 0.4002207
-0.3336234 -0.09504153 0.05148118 -0.40712202 0.20974863 0.11658755 -0.8159863 -0.062067345
0.002752353 -0.11624705 0.05253673 0.38850197 0.6747048 -0.28691483 -0.38602617 -0.46269712
-0.009225535 -0.38582316 -0.04438348 -0.5080394 -0.40351593 0.5009372 -0.36045247 -0.31797174
0.4104404 -0.24242662 0.21195042 -0.044159327 0.46457404 -0.32931352 -0.02058799 -0.119687445
0.027104076 -0.8861715 -0.09938638 0.45905635 -0.23881446 0.27863032 -0.6585277 -0.011312759
0.18211009 -0.4138516 0.2890552 -0.41345763 -0.68966305 -0.08469583 -0.19133662 0.06849955
0.19427796 -0.2531006 0.18924557 -0.4122925 -0.01811501 -0.23558885 0.26223263 -0.27247638
-0.10363593 0.39174137 -0.16486071 -0.0421742 -0.26374972 -0.18219817 0.24178459 -0.01402129
0.4994337 0.31786552 0.45784622 -0.017351707 0.45332506 0.042752303 0.6686272 0.5897135
-0.117122985 0.72835743 -0.069357306 0.54820853 -0.29343712 -0.023935882 -1.2332575 -0.45950174
-0.24649313 -0.013219352 -0.048743017 0.6339942 0.14231475 -0.39041042 0.064587355 -0.43345562
-0.01971433 0.3175045 0.20526154 -0.34174412 0.11356802 -0.22446917 0.05106288 -0.21704365
0.14587934 -0.03191693 -0.7383024 -0.24645127 0.49494055 0.17231038 0.06487094 0.071458556
0.10432634 -0.0020671173 0.14707102 0.32588774 -0.21295221 -0.12942669 0.89121616 0.3990143
0.3314083 -0.19100642 0.12396298 0.0873279 -0.5154882 0.07370331 -0.18075375 -0.41039115
-0.43536508 -0.6603183 -0.33006504 -0.23117845 -0.47959182 -0.45445696 0.32665595 -0.69347876
-0.18914337 0.0064863036 -0.20842694 -0.08346708 -0.64031017 -0.117654644 -0.2956042 -0.41915947
0.0683699 0.27665517 0.22470348 0.15886231 -0.13848285 -0.5572002 0.13984185 0.04139155
0.028278029 -0.49953613 0.1873131 0.37103367 -0.5553594 -0.0045241383 0.16645363 0.20498055
-0.100511216 -0.37146834 -0.47292572 -0.30585822 -0.46051228 0.6280548 0.35399908 0.58217865
-0.0723913 0.19113448 0.5442994 0.1922144 0.38755718 0.03582561 0.2042715 0.41005173
0.47510168 0.21082689 -0.13125181 0.016116116 0.121322185 0.118684374 -0.4433999 -0.8122286
0.21213587 0.262726 0.2222706 0.18012743 0.43296468 0.92913246 0.61609983 0.4226474
-0.5278666 0.035207607 -0.41908178 0.012315612 0.87417066 0.0037356527 -0.21395466 -0.100278966
-0.003565257 0.039898727 0.08110853 -0.2590246 -0.075491354 0.03909119 0.056080632 -0.6430039
-0.14037536 -0.55406004 0.006205288 -0.2805875 0.27887857 0.07697848 -0.12398253 0.4340679
00000000: 0150 1b3e 7cb9 263e 462c 963e bce3 b5be
00000010: e4e1 c13e b623 07be 027a a83d 6105 6e3e
00000020: 072b f23c 1217 863e 6c3c 3dbe fe8d 7e3e
00000030: b7a9 6b3e 30b9 74be e4d6 94bd 8a6c d1be
00000040: 3a49 c3be 5615 bfbe ad4d 493d f081 96be
00000050: 10d5 14bc ebb1 91bd 1a8a 9ebe 2fb0 143e
00000060: 27b3 b6be 6019 693e dba3 233f 9adc 36bf
00000070: dbc4 af3d 43e4 c9bd 2ef9 77bd 1115 36bc
00000080: 1744 17bf 3fd0 c1bd f355 613e c2fb 0fbf
00000090: 6618 f13d 7911 003f 3d40 3f3e 42c3 073f
000000a0: 26da b0bd 036d 343f 1ac0 12be ddb6 1b3f
000000b0: 61d9 4d3f 72b1 e73e 5427 0cbf bae9 cc3e
000000c0: b0d0 aabe 22a5 c2bd eedd 523d 4c72 d0be
000000d0: 58c8 563e 74c5 ee3d 7ae4 50bf 543a 7ebd
000000e0: d260 343b ef12 eebd c130 573d bbe9 c63e
000000f0: 74b9 2c3f 80e6 92be 39a5 c5be a3e6 ecbe
00000100: b326 17bc 9d8a c5be 74cb 35bd df0e 02bf
00000110: a499 cebe 6c3d 003f 3a8d b8be 31cd a2be
00000120: 3e25 d23e af3e 78be 8809 593e 69e0 34bd
00000130: a6dc ed3e c89b a8be 25a8 a8bc b11e f5bd
00000140: 5e09 de3c 23dc 62bf 168b cbbd 6f09 eb3e
00000150: c78b 74be a2a8 8e3e 4595 28bf 2659 39bc
00000160: 117b 3a3e 5be4 d3be 0bff 933e b8b0 d3be
00000170: c28d 30bf 0275 adbd bfed 43be 7e49 8c3d
00000180: cdf0 463e 6796 81be 97c9 413e 0118 d3be
00000190: ee65 94bc 343e 71be 5b43 863e 0682 8bbe
000001a0: 133f d4bd 5392 c83e 3fd1 28be dbbe 2cbd
000001b0: 340a 87be 2892 3abe 6196 773e 8db9 65bc
000001c0: c6b5 ff3e 45bf a23e d26a ea3e 2b25 8ebc
000001d0: 391a e83e 0a1d 2f3d 272b 2b3f 77f7 163f
000001e0: 2dde efbd a275 3a3f 340b 8ebd 6557 0c3f
000001f0: 643d 96be 2f15 c4bc 62db 9dbf d043 ebbe
00000200: b268 7cbe fb95 58bc c2a6 47bd 724d 223f
00000210: f5ba 113e e0e3 c7be 6046 843d e5ed ddbe
00000220: f27f a1bc f38f a23e 1530 523e 16f9 aebe
00000230: 5a96 e83d 3fdb 65be 4f27 513d b140 5ebe
00000240: 6561 153e 54bb 02bd 6301 3dbf b95d 7cbe
00000250: d968 fd3e 2272 303e 0edb 843d dd58 923d
00000260: 0ca9 d53d 7978 07bb c999 163e c2da a63e
00000270: 2510 5abe 6e88 04be be26 643f 9a4b cc3e
00000280: 59ae a93e 3097 43be 4ee0 fd3d f8d8 b23d
00000290: 09f7 03bf c3f1 963d 8317 39be ca1e d2be
000002a0: 2ce8 debe 9f0a 29bf 49fe a8be 0bba 6cbe
000002b0: 0f8d f5be 95ae e8be 733f a73e d387 31bf
000002c0: cdae 41be 0f8b d43b df6d 55be caf0 aabd
000002d0: 5eeb 23bf ebf4 f0bd 6f59 97be 129c d6be
000002e0: 8505 8c3d bfa5 8d3e ab18 663e cdac 223e
000002f0: 73ce 0dbe aca4 0ebf b432 0f3e 308a 293d
00000300: 53a7 e73c 33c3 ffbe 01cf 3f3e 20f8 bd3e
00000310: 092c 0ebf 393f 94bb d272 2a3e 6ce6 513e
00000320: d3d8 cdbd 1931 bebe 5223 f2be 7399 9cbe
00000330: 44c8 ebbe 33c8 203f 5e3f b53e a909 153f
00000340: e441 94bd c2b8 433e 3557 0b3f dad3 443e
00000350: e56d c63e e0bd 123d 8c2c 513e 4df2 d13e
00000360: 8740 f33e 01e3 573e e066 06be f205 843c
00000370: c477 f83d cb10 f33d 5005 e3be 37ee 4fbf
00000380: 253a 593e 0684 863e e79a 633e 5373 383e
00000390: 8cad dd3e a0db 6d3f b8b8 1d3f 3d65 d83e
000003a0: 4422 07bf da35 103d e391 d6be 6cc7 493c
000003b0: a6c9 5f3f dad1 743b ee16 5bbe 0f5f cdbd
000003c0: 16a7 69bb d96c 233d 3b1c a63d df9e 84be
000003d0: 369b 9abd 151e 203d ceb4 653d e79b 24bf
000003e0: 8fbe 0fbe e1d6 0dbf bb55 cb3b 2aa9 8fbe
000003f0: 2cc9 8e3e e5a6 9d3d 8dea fdbd 263e de3e

nee_decoder.2.bias f4 [16]
-0.25404218 -0.04138632 -0.094882734 0.09287036 0.0 -0.066141136 0.0 0.08375028
-0.074198835 0.107064016 0.0 0.0 -0.04041312 0.08282807 0.08337695 -0.061549775
00000000: d111 82be b484 29bd e151 c2bd d132 be3d
00000010: 0000 0000 0175 87bd 0000 0000 4485 ab3d
00000020: 8ff5 97bd 6144 db3d 0000 0000 0000 0000
00000030: 3a88 25bd c3a1 a93d 89c1 aa3d 9e1b 7cbd

nee_decoder.4.weight f4 [1, 16]
0.5023542 0.2541847 0.5800303 -0.8207493 0.02797285 -0.39595553 -0.080318265 0.36263514
-0.11043864 -0.07744427 0.7993008 0.35735062 -0.44477817 0.15086989 0.29083169 -0.07434644
00000000: 499a 003f 7f24 823e de7c 143f a01c 52bf
00000010: 5127 e53c afba cabe e77d a4bd 50ab b93e
00000020: a72d e2bd 1a9b 9ebd fa9e 4c3f a9f6 b63e
00000030: f7b9 e3be a37d 1a3e e4e7 943e f242 98bd

k_decoder.0.weight f4 [16, 32]
0.050374616 0.13539489 -0.19979668 -0.25500652 0.78535277 0.026287884 -0.004192079 0.01739653
-0.5468991 -0.41763347 0.22429664 0.5425207 -0.56231004 0.04169758 0.34342727 -0.04161476
-0.038942616 0.106275834 0.42091048 0.33708918 0.1358375 -0.16570635 -0.26255196 0.32045794
0.48054206 0.56384385 0.20783807 0.7766086 -0.30232525 -0.09989997 -0.44245714 -0.18797019
0.19102743 -0.18945394 0.27954406 0.23581529 0.17362939 0.07480275 -0.16175303 0.27951083
0.30216935 -0.37372184 0.15428908 0.46043903 0.4697941 -0.042657834 0.023831977 -0.015409547
0.08244107 0.0365609 -0.20124155 0.40475675 0.12998231 0.008094475 -0.060461193 0.10136537
0.2650154 0.15103318 0.4836626 0.19517286 0.015394554 0.017183278 -0.4506342 -0.15923451
0.3207287 -0.13388953 0.1977643 0.0005040067 0.014160738 -0.3052026 -0.09563247 0.72533923
-0.089024365 -0.10279363 0.05513008 -0.22590213 -0.10661329 -0.16513185 0.053938076 -0.8803045
0.030709727 0.17502792 0.006787665 -0.07384838 0.025212007 0.16515769 -0.1858383 -0.4961544
0.16668954 0.24312629 -0.2661208 -0.17039393 0.19741729 -0.31620717 0.4805239 -0.026018022
0.04317023 -0.23499283 0.0089647835 0.21399781 -0.23049626 -0.19812632 -0.2970842 0.057825763
-0.31625563 -0.13563187 -0.022872567 -0.02009974 -0.4874987 -0.14668995 -0.2747719 -0.3280755
0.2565926 0.016230252 -0.03194857 -0.061330967 -0.2641748 0.15513758 0.5193965 0.21478748
-0.5671215 0.030901529 -0.15861861 0.33632278 0.18823473 -0.043348145 -0.07949998 0.21238074
0.12984306 -0.32230255 0.35753176 0.12020315 0.14588296 0.0009005429 0.2566369 0.06366413
-0.22154638 -0.25967604 0.2824989 -0.2657052 -0.36827597 -0.052185558 -0.47637525 -0.096004225
0.028005693 -0.20419389 0.040806096 -0.11143164 -0.12516119 -0.27554446 -0.27827018 0.043610163
-0.05186209 -0.070934646 0.17199473 0.21061502 -0.018541515 -0.13145441 0.1053635 -0.3557055
-0.51514137 0.1295266 0.24269982 -0.04398718 -0.20386225 0.28729147 0.5257876 -0.39922735
0.62517726 0.41471058 -0.32443973 0.2044183 0.31016 0.101120956 0.023844559 0.31350514
0.505298 -0.2653817 0.57785714 -0.07312063 0.20768857 -0.035912618 0.0971018 -0.12115626
-0.14492853 0.19067909 -0.48121092 -0.20542683 -0.13307361 0.37181327 0.09041328 -0.6271407
-0.45764047 0.08212449 0.105916254 -0.020549104 -0.7835725 -0.14501435 0.08598552 -0.2384933
-0.42096 -0.011086706 -0.15976316 -0.351022 0.3164475 -0.20219368 -0.24144232 -0.23213878
0.1894571 -0.22984368 -0.19092597 -0.0016697946 -0.04687075 -0.06885582 0.22561195 0.35573363
-0.034496073 -0.025088783 -0.09683523 0.08886051 0.14645632 -0.24447171 -0.030141369 -0.22615278
0.029253418 0.24788858 -0.14687379 -0.38783678 -0.04494245 -0.56671286 -0.23948261 0.8012322
-0.42369282 -0.08475685 0.12841043 0.269446 0.10983723 -0.2389292 -0.32438537 0.023961948
-0.5383651 0.41275117 -0.0815271 0.09628267 0.11166945 -0.12939954 0.022276718 0.2354226
0.3661764 0.44338036 -0.38489357 -0.32562885 0.049498465 0.3222024 -0.18884675 0.020935971
00000000: 9d55 4e3d f5a4 0a3e 8097 4cbe 3790 82be
00000010: e10c 493f b059 d73c b55d 89bb 2b83 8e3c
00000020: 9401 0cbf 0ed4 d5be 05ae 653e a3e2 0a3f
00000030: 8df3 0fbf 15cb 2a3d b3d5 af3e 3d74 2abd
00000040: 4b82 1fbd 25a7 d93d 9481 d73e f496 ac3e
00000050: fc18 0b3e edae 29be 366d 86be 1013 a43e
00000060: 9c09 f63e 1258 103f 81d3 543e d2cf 463f
00000070: 60ca 9abe 5b98 ccbd be89 e2be 427b 40be
00000080: b29c 433e 3700 42be 6620 8f3e 9079 713e
00000090: e7cb 313e 2f32 993d 96a2 25be 0b1c 8f3e
000000a0: f1b5 9a3e 7858 bfbe f5fd 1d3e aabe eb3e
000000b0: da88 f03e fbb9 2ebd 473b c33c 5378 7cbc
000000c0: ddd6 a83d e2c0 153d 4412 4ebe 473c cf3e
000000d0: 151a 053e b09e 043c 28a6 77bd a698 cf3d
000000e0: 19b0 873e 71a8 1a3e a0a2 f73e 65db 473e
000000f0: 7039 7c3c f2c3 8c3c 87b9 e6be 5f0e 23be
00000100: 8d36 a43e 561a 09be ba82 4a3e 511f 043a
00000110: 7102 683c 8443 9cbe f5da c3bd d5af 393f
00000120: 6852 b6bd 7785 d2bd 14d0 613d e352 67be
00000130: 1258 dabd 5318 29be 2cee 5c3d a35b 61bf
00000140: f792 fb3c 853a 333e 106b de3b d23d 97bd
00000150: 6989 ce3c 191f 293e 654c 3ebe f307 febe
00000160: aab0 2a3e 19f6 783e fc40 88be bf7b 2ebe
00000170: c227 4a3e e8e5 a1be 3b07 f63e bf23 d5bc
00000180: 44d3 303d f6a1 70be 07e1 123c 3e22 5b3e
00000190: 3607 6cbe a0e1 4abe 6c1b 98be b5da 6c3d
000001a0: 42ec a1be 15e3 0abe 405f bbbc 36a8 a4bc
000001b0: 6e99 f9be e435 16be e7ae 8cbe 83f9 a7be
000001c0: 1b60 833e 4ef5 843c 81dc 02bd 2e36 7bbd
000001d0: eb41 87be 63dc 1e3e 2bf7 043f 40f1 5b3e
000001e0: e02e 11bf 3425 fd3c eb6c 22be 8032 ac3e
000001f0: 9bc0 403e d38d 31bd e3d0 a2bd 567a 593e
00000200: 94f5 043e d704 a5be 670e b73e 122d f63d
00000210: 5862 153e 6912 6c3a e965 833e 5762 823d
00000220: 0edd 62be 42f4 84be b2a3 903e 830a 88be
00000230: ab8e bcbe 86c0 55bd 75e7 f3be dd9d c4bd
00000240: 326c e53c 3418 51be 4b24 273d 4636 e4bd
00000250: 412a 00be 2a14 8dbe 6e79 8ebe 92a0 323d
00000260: 586d 54bd 2f46 91bd 631f 303e 77ab 573e
00000270: 60e4 97bc fc9b 06be d2c8 d73d 081f b6be
00000280: 4ee0 03bf 9fa2 043e 4d86 783e e72b 34bd
00000290: 44c1 50be de17 933e 049a 063f 8767 ccbe
000002a0: 9e0b 203f f254 d43e f71c a6be 0853 513e
000002b0: 4bcd 9e3e 8118 cf3d aa55 c33c bf83 a03e
000002c0: 365b 013f 1ce0 87be 72ee 133f 45c0 95bd
000002d0: 50ac 543e 1c19 13bd 4fdd c63d c620 f8bd
000002e0: 2568 14be 6141 433e 4761 f6be 695b 52be
000002f0: 7344 08be 4f5e be3e 992a b93d 4b8c 20bf
00000300: da4f eabe e230 a83d 9fea d83d 9856 a8bc
00000310: 3598 48bf a47e 14be 2d19 b03d 9637 74be
00000320: 1288 d7be 04a5 35bc f498 23be 28b9 b3be
00000330: 6805 a23e dc0b 4fbe a83c 77be cab5 6dbe
00000340: 0b01 423e 245c 6bbe 1982 43be 02dd daba
00000350: 8bfb 3fbd 4804 8dbd d206 673e b822 b63e
00000360: c14b 0dbd fe86 cdbc 8d51 c6bd 80fc b53d
00000370: a5f8 153e cb56 7abe 08eb f6bc 9894 67be
00000380: dda4 ef3c 81d6 7d3e 1566 16be 8b92 c6be
00000390: 9315 38bd 1814 11bf ee3a 75be 8e1d 4d3f
000003a0: 44ee d8be 0095 adbd 067e 033e d3f4 893e
000003b0: 57f2 e03d dba9 74be d715 a6be d94b c43c
000003c0: 4cd2 09bf 1f54 d33e aef7 a6bd d92f c53d
000003d0: f4b2 e43d 5081 04be aa7d b63c 9f12 713e
000003e0: 797b bb3e c002 e33e c510 c5be d3b8 a6be
000003f0: e7be 4a3d b7f7 a43e 0b61 41be ea81 ab3c

k_decoder.0.bias f4 [16]
0.47702035 0.29145485 0.15024613 -0.09390508 -0.029041253 0.027407266 0.0 0.27503073
0.5512965 0.16793655 0.034816872 0.20832913 0.3705235 0.47707415 0.45291927 0.5988827
00000000: 033c f43e 9239 953e 1fda 193e 4e51 c0bd
00000010: ece7 edbc 3485 e03c 0000 0000 d4d0 8c3e
00000020: c421 0d3f 8ff7 2b3e 239c 0e3d 3b54 553e
00000030: 42b5 bd3e 1043 f43e 09e5 e73e 6050 193f

k_decoder.2.weight f4 [16, 16]
1.0412838 0.050366268 0.16596523 0.032194912 0.51991034 -0.2581989 -0.46012923 0.14512335
0.21168716 -0.34542134 -0.19616623 0.17738146 0.14912532 0.67508304 0.19440453 1.0254341
0.21725526 -0.018866146 -0.06639533 0.07305503 0.07635835 0.013413673 -0.22381113 -0.36503825
0.1517151 0.060123805 0.22541004 -0.19589365 -0.4946089 -0.29549065 -0.25238058 -0.27715525
0.54889816 0.2073805 0.0085654715 0.12910861 -0.6016023 -0.69957227 -0.81502664 0.008427049
0.3746689 -0.09812868 -0.36899602 0.40198243 0.6287217 0.5628356 0.51254773 0.48733574
-0.1588292 0.027249966 -0.0011349622 0.21716286 -0.32994565 0.14174195 -0.42061538 0.1986783
0.15780479 -1.0963027 0.89814574 -0.25341585 0.09419828 0.09425421 0.040313106 -0.055383
0.21152762 0.39056346 0.67433804 -0.47101218 -0.3333178 -1.2015951 -0.31480357 1.5172501
0.8527345 0.5202903 0.053185016 0.42288226 0.5716873 0.7806428 0.6930909 0.10674627
-0.04639087 0.37519872 -0.24928504 0.24805495 -0.28704798 -0.6782377 -0.23123577 0.4665531
0.18635787 0.45501527 0.70457435 0.57230383 0.9818207 -0.3718587 0.48977914 0.26255852
0.70321643 -0.120314986 0.19067557 -0.033880737 -0.07855672 -0.091591395 0.10257095 0.33541343
-0.39355063 0.5311304 0.5735334 0.5121249 0.8621574 0.07417601 0.8631482 0.020103188
0.14433199 -0.16082972 0.0757096 0.4814584 0.5220394 0.51084006 0.0007913306 -0.06268996
0.27544448 -0.21256293 -0.30775076 -0.08128028 -0.48230228 -0.029297592 -0.36842233 0.40564042
-0.68826133 -0.21057254 -0.2430566 0.19460605 0.5813456 0.34430954 -0.46314818 -0.17631736
-0.39696363 -0.35364732 -0.028961489 -0.27333277 0.3000647 0.33631298 0.14991072 -0.81319815
-0.53287727 -0.39754653 0.034399465 -0.21958911 0.22482768 -0.009292826 0.33854643 0.5348758
-0.4120837 -0.16098674 0.50447893 0.4656767 0.40936467 -0.22196893 0.15570913 0.039190758
-0.27559102 -0.30729264 0.61369973 -0.3385663 -0.24419966 -0.19474839 0.5011978 0.27851242
-0.029119939 0.4228543 0.4424143 -0.11129747 0.2707393 -0.5735535 0.009169808 0.12321663
-0.46470705 -0.33139074 0.18421888 -0.783088 0.06182211 0.3630211 0.12667418 0.5724147
-0.060297173 0.09339543 0.17090586 0.38055986 0.1022042 -0.16244796 -0.05236229 -0.05771656
0.17326301 0.30017018 -0.09984646 0.4344224 0.12850006 -0.100274175 -0.08174759 0.4001054
-0.52592415 -0.24873549 -0.49516523 0.2014649 -0.066324085 -0.40466508 0.109615386 -0.37668455
-0.23021743 -0.3832427 0.1509402 -0.14793089 0.008934634 0.26366112 -0.32084143 0.2186542
-0.0045520086 -0.16213354 -0.019458815 0.46808076 -0.2696833 0.24252814 -0.2394651 -0.4706692
0.47491094 0.36030385 -0.44797373 0.8742837 0.2880037 1.0452207 0.04983474 -0.039413683
0.12348374 -0.33678 -0.1537738 -0.004202824 -0.185902 -0.38219038 -0.17043902 0.40572774
0.04605365 0.4194602 -0.45138285 0.090191044 0.09872102 0.2635387 -0.04421984 0.27079505
0.7316593 0.43415532 0.24710946 0.30225325 0.08146634 0.12852246 0.20993355 0.54031104
00000000: ca48 853f dc4c 4e3d caf2 293e d0de 033d
00000010: d818 053f a532 84be 0f96 ebbe 379b 143e
00000020: 85c4 583e 11db b0be cddf 48be 7ca3 353e
00000030: 4fb4 183e 3ed2 2c3f fb11 473e 6d41 833f
00000040: 2a78 5e3e 2d8d 9abc 46fa 87bd e09d 953d
00000050: c461 9c3d 06c5 5b3c bf2e 65be 4be6 babe
00000060: 345b 1b3e 6144 763d e4d1 663e 5898 48be
00000070: 613d fdbe 8d4a 97be 0738 81be 4be7 8dbe
00000080: 9784 0c3f 8e5b 543e 3156 0c3c 0c35 043e
00000090: 9c02 1abf 2b17 33bf 96a5 50bf 9b11 0a3c
000000a0: 9ad4 bf3e b0f7 c8bd 0ced bcbe a4d0 cd3e
000000b0: e8f3 203f fe15 103f 5436 033f 1284 f93e
000000c0: 1fa4 22be 523b df3c 03c3 94ba f15f 5e3e
000000d0: a3ee a8be cd24 113e e65a d7be 5372 4b3e
000000e0: 9497 213e a653 8cbf e1ec 653f b9bf 81be
000000f0: 07eb c03d 5a08 c13d 5b1f 253d 49d9 62bd
00000100: b29a 583e eff7 c73e 6ba1 2c3f 8228 f1be
00000110: a1a8 aabe decd 99bf ef2d a1be 4035 c23f
00000120: cf4c 5a3f bf31 053f 88d8 593d 0684 d83e
00000130: 195a 123f 35d8 473f 686e 313f ca9d da3d
00000140: 5a04 3ebd 0c1a c03e 9444 7fbe 1e02 7e3e
00000150: f4f7 92be fca0 2dbf 12c9 6cbe 0ce0 ee3e
00000160: 99d4 3e3e c3f7 e83e fc5e 343f 8182 123f
00000170: 9a58 7b3f 4364 bebe 55c4 fa3e 126e 863e
00000180: fe05 343f b467 f6bd 7540 433e 87c6 0abd
00000190: 58e2 a0bd 4594 bbbd b810 d23d 4fbb ab3e
000001a0: 787f c9be 29f8 073f 16d3 123f 9e1a 033f
000001b0: 59b6 5c3f 98e9 973d 48f7 5c3f 71af a43c
000001c0: c4cb 133e 8cb0 24be a20d 9b3d b781 f63e
000001d0: 60a4 053f 6ac6 023f 4c71 4f3a 9863 80bd
000001e0: 0f07 8d3e 19aa 59be 8291 9dbe 4776 a6bd
000001f0: 53f0 f6be 8101 f0bc daa1 bcbe 1ab0 cf3e
00000200: e531 30bf 54a0 57be d4e3 78be cf46 473e
00000210: 11d3 143f 5749 b03e c221 edbe 8a8c 34be
00000220: d13e cbbe 4311 b5be a540 edbc 46f2 8bbe
00000230: 15a2 993e 3731 ac3e 3282 193e c12d 50bf
00000240: a56a 08bf 388b cbbe 74e6 0c3d f8db 60be
00000250: 3a39 663e f040 18bc f555 ad3e 9fed 083f
00000260: a2fc d2be b5d9 24be 8825 013f 2d6d ee3e
00000270: 3f98 d13e d34b 63be 3772 1f3e 7d86 203d
00000280: 441a 8dbe 7655 9dbe 6d1b 1d3f 9058 adbe
00000290: 7a0f 7abe 1f6c 47be 804e 003f 2e99 8e3e
000002a0: f08c eebc 5c80 d83e 2184 e23e eeef e3bd
000002b0: 579e 8a3e 67d4 12bf f63c 163c 0059 fc3d
000002c0: 15ee edbe 0cac a9be e0a3 3c3e 7578 48bf
000002d0: 2e39 7d3d e7dd b93e e0b6 013e c589 123f
000002e0: 2bfa 76bd 1a46 bf3d f201 2f3e bed8 c23e
000002f0: 7050 d13d c258 26be d779 56bd 3368 6cbd
00000300: dc6b 313e e8af 993e 4d7c ccbd 9d6c de3e
00000310: 8595 033e 8c5c cdbd 486b a7bd 9dda cc3e
00000320: f7a2 06bf 84b4 7ebe 4c86 fdbe d14c 4e3e
00000330: ecd4 87bd 4330 cfbe 087e e03d ccdc c0be
00000340: 1ebe 6bbe 6338 c4be 1190 1a3e 327b 17be
00000350: 9262 123c 97fe 863e 5445 a4be e3e6 5f3e
00000360: 0429 95bb 5606 26be 1868 9fbc 48a8 ef3e
00000370: ee13 8abe 4c59 783e 5736 75be 8efb f0be
00000380: 8727 f33e bf79 b83e d05c e5be 0ed1 5f3f
00000390: 3975 933e cbc9 853f 831f 4c3d 3e70 21bd
000003a0: 0be5 fc3d 6e6e acbe e176 1dbe d8b7 89bb
000003b0: 185d 3ebe 75ae c3be 9187 2ebe 8cbb cf3e
000003c0: c1a2 3c3d 7dc3 d63e a71b e7be 15b6 b83d
000003d0: 3f2e ca3d 8bee 863e dd1f 35bd a6a5 8a3e
000003e0: 064e 3b3f 9b49 de3e 430a 7d3e f0c0 9a3e
000003f0: d3d7 a63d 649b 033e d2f8 563e d351 0a3f

k_decoder.2.bias f4 [16]
0.3112879 0.0 0.28049088 0.002821209 0.70155287 0.33161977 0.21951167 -0.084731735
0.0 -0.11786271 0.0467684 -0.04767993 0.0 -0.05377358 -0.02124032 0.29124066
00000000: 2161 9f3e 0000 0000 809c 8f3e 08e4 383b
00000010: f898 333f 11ca a93e abc7 603e d587 adbd
00000020: 0000 0000 0162 f1bd 3990 3f3d 084c 43bd
00000030: 0000 0000 af41 5cbd 2e00 aebc 7f1d 953e

k_decoder.4.weight f4 [2, 16]
0.91753095 0.15743731 0.49106488 -0.2663486 0.9999071 0.29436457 0.24621582 -0.3515996
0.4470752 -0.28856567 0.035089914 -0.35404724 -0.6976159 -0.3156791 -0.20329385 0.42598307
0.23299626 0.42521897 0.6120834 -0.20107174 -0.079112865 -0.31553665 -0.42327592 0.16656989
-0.07311222 -0.08992269 0.6430585 -0.5176772 0.16865113 0.5402026 0.47353038 -0.06351407
00000000: 4fe3 6a3f 3f37 213e db6c fb3e d85e 88be
00000010: e9f9 7f3f f4b6 963e 0020 7c3e dd04 b4be
00000020: 0ae7 e43e e1be 93be 71ba 0f3d ae45 b5be
00000030: f596 32bf b1a0 a1be 432c 50be 741a da3e
00000040: 9296 6e3e 4db6 d93e 7fb1 1c3f c0e5 4dbe
00000050: ed05 a2bd 058e a1be 9fb7 d8be 4c91 2a3e
00000060: dcbb 95bd 6329 b8bd 7b9f 243f 7e86 04bf
00000070: e2b2 2c3e b84a 0a3f 9372 f23e aa13 82bd

k_decoder.4.bias f4 [2]
0.257044 -0.049716834
00000000: 459b 833e e1a3 4bbd
