.archive/piae_sde/experiments/2024-11-25_18-0-46-603734/41/best_model.pth (torch, 25314 bytes, 28 tensors)

encoder.0.weight f4 [16, 18]
-0.28736463 0.3891539 0.3732396 0.11184683 -0.29413888 0.26220208 -0.15358979 0.049357947
-0.006450837 0.034060948 -0.35598168 0.05957134 0.2911697 -0.23648842 -0.08163813 0.41745865
-0.37873375 -0.30681884 -0.25858906 -0.39242882 0.09560151 -0.15068373 0.22259049 -0.09361984
-0.07823306 -0.06247428 0.16301003 -0.3685781 0.41656473 0.04187941 0.36649802 -0.19541696
0.37425104 0.022937333 0.17614907 0.43755454 -0.33158913 0.17808796 -0.27249634 -0.22067693
0.44481644 0.24564074 0.12729071 -0.102163546 -0.07808962 0.16921754 0.09267763 0.17540778
0.27085686 -0.4090732 0.38869527 0.05624826 0.15440622 -0.10424915 0.3733981 -0.41270956
-0.21053393 0.24527353 0.08131292 0.32686773 -0.08084254 -0.32505658 0.14096929 0.19460349
0.41896513 -0.29918566 -0.027927954 0.11879213 -0.118670546 -0.0056046206 -0.2677179 -0.40248144
0.18765587 0.0027071554 -0.15463048 -0.387008 0.18800749 0.19788897 -0.14309303 -0.33403817
0.19273886 -0.10744278 0.09476817 -0.13057335 0.38183597 -0.16625923 -0.070328794 -0.3149594
-0.15902211 0.3505679 0.37998733 0.25563863 0.09746559 0.2820539 0.43351495 -0.326821
0.07032579 0.065606646 0.25239316 0.21712238 -0.12940648 -0.112807855 -0.095798306 0.26914513
-0.27266592 -0.084301606 0.45067912 -0.19506669 -0.1573949 -0.090457246 -0.029792305 0.015738688
0.2863545 -0.21535714 -0.34446713 0.2626202 0.121383265 -0.22376317 -0.17729756 0.10450535
0.07574991 -0.36250243 0.07240251 0.14486946 -0.13286944 0.41562173 0.17201433 0.13550343
0.39299732 0.24585192 -0.13184348 0.20775767 -0.024938535 0.12620656 0.12135961 -0.35685006
-0.09120683 0.066408455 0.020144496 0.3043767 -0.34639263 0.1854639 0.19619334 -0.29579857
-0.061378554 0.37897417 0.07460493 0.27446285 0.24160708 0.01834229 -0.16028084 0.20295154
0.3511711 0.40106645 0.120876126 -0.034500733 -0.35570046 0.25281277 0.16024533 -0.12095039
-0.27281368 0.37336382 0.10857674 0.31242648 0.28714278 0.00631137 -0.2583647 0.14715762
-0.38944492 -0.3738262 -0.17775863 0.09596987 -0.35495085 -0.059629932 0.33820087 -0.20236878
-0.29841202 -0.2272948 -0.39980358 -0.11087326 0.37865734 0.05447491 -0.005219367 -0.025097914
-0.39233625 0.148588 0.21072343 -0.32599536 0.04705037 -0.19921474 0.36504474 0.020922301
0.38081095 -0.033010993 -0.21365513 -0.0038947377 0.2728976 -0.09688265 0.18024907 -0.4189004
0.259779 0.055135738 -0.2572483 0.25521216 0.38910052 -0.058432117 0.4032401 -0.011697901
0.015831783 -0.1223694 0.1187702 -0.3960003 -0.41911632 0.15871435 -0.35886592 0.171915
-0.07278955 -0.20836245 0.32007587 -0.05110256 0.05278219 0.056053907 -0.15677415 0.071284726
0.10005778 -0.047942895 -0.26331362 0.22173849 -0.085840195 -0.2523896 0.10317906 -0.28471446
0.19643903 -0.032592468 -0.027333211 0.27883875 0.11013416 -0.38312662 -0.12397932 -0.27466592
0.20616537 0.16569479 0.08737135 -0.1019421 -0.014154832 0.18108319 0.3386652 -0.039655786
0.32967544 -0.28974763 -0.03979191 0.3307935 0.13541229 0.36586806 0.018132012 0.23210008
00000000: 7521 93be 2e3f c73e 4319 bf3e f30f e53d
00000010: 5f99 96be 5a3f 863e a446 1dbe 8f2b 4a3d
00000020: 8b61 d3bb 7e83 0b3d 3b43 b6be 1401 743d
00000030: 3214 953e 052a 72be e431 a7bd 24bd d53e
00000040: 64e9 c1be 5c17 9dbe c965 84be 6eec c8be
00000050: b9ca c33d d64c 1abe c3ee 633e c2bb bfbd
00000060: a838 a0bd 08e5 7fbd 1aec 263e 45b6 bcbe
00000070: f947 d53e bf89 2b3d a1a5 bb3e 621b 48be
00000080: d59d bf3e 13e7 bb3c 6c60 343e 2607 e03e
00000090: 0dc6 a9be b15c 363e a484 8bbe 22f9 61be
000000a0: fbbe e33e 3f89 7b3e 7f58 023e 1f3b d1bd
000000b0: 73ed 9fbd 5d47 2d3e c5cd bd3d 199e 333e
000000c0: c0ad 8a3e 0b72 d1be 1103 c73e 9364 663d
000000d0: aa1c 1e3e 9480 d5bd 092e bf3e ab4e d3be
000000e0: 3596 57be fc28 7b3e 6387 a63d 355b a73e
000000f0: c690 a5bd d16d a6be 415a 103e 2346 473e
00000100: 9982 d63e dd2e 99be 2ac9 e4bc 4a49 f33d
00000110: 8b09 f3bd f7a6 b7bb 5212 89be 0c12 cebe
00000120: dc28 403e 886a 313b 7457 1ebe ea25 c6be
00000130: 0985 403e 68a3 4a3e fb86 12be 0d07 abbe
00000140: 565d 453e f60a dcbd d015 c23d 05b5 05be
00000150: 0180 c33e dc3f 2abe 8b08 90bd 5c42 a1be
00000160: b1d6 22be a37d b33e b38d c23e 11e3 823e
00000170: 0a9c c73d 5e69 903e acf5 dd3e 1555 a7be
00000180: f806 903d c75c 863d ad39 813e 5455 5e3e
00000190: 2283 04be ce07 e7bd e731 c4bd 64cd 893e
000001a0: de9a 8bbe 52a6 acbd 6abf e63e 90bf 47be
000001b0: 212c 21be a641 b9bd fe0e f4bc 6cee 803c
000001c0: 0f9d 923e 9586 5cbe ff5d b0be 2876 863e
000001d0: ca97 f83d 2c22 65be 7e8d 35be e706 d63d
000001e0: c522 9b3d eb99 b9be c447 943d a958 143e
000001f0: ed0e 08be 5fcc d43e 8624 303e 69c1 0a3e
00000200: f236 c93e 9bc0 7b3e fa01 07be 6dbe 543e
00000210: e64b ccbc 4b3c 013e 638b f83d 0db5 b6be
00000220: a6ca babd 2801 883d 1206 a53c 43d7 9b3e
00000230: 605a b1be 40ea 3d3e e8e6 483e e972 97be
00000240: 1468 7bbd e708 c23e 78ca 983d 6586 8c3e
00000250: d967 773e 9242 963c a920 24be 87d2 4f3e
00000260: b3cc b33e 9558 cd3e e78d f73d a450 0dbd
00000270: 5f1e b6be ad70 813e 5a17 243e d7b4 f7bd
00000280: 3cae 8bbe 8b29 bf3e 7b5d de3d 5df6 9f3e
00000290: 6104 933e 9ccf ce3b 6148 84be 7db0 163e
000002a0: 5365 c7be 2666 bfbe 5c06 36be da8b c43d
000002b0: 1ebc b5be 843e 74bd aa28 ad3e c339 4fbe
000002c0: 76c9 98be f8bf 68be 0eb3 ccbe 8511 e3bd
000002d0: 60df c13e 1521 5f3d 3907 abbb 249a cdbc
000002e0: 4ce0 c8be 7427 183e e2c7 573e dde8 a6be
000002f0: e4b7 403d f3fe 4bbe 25e7 ba3e 3f65 ab3c
00000300: a7f9 c23e 8936 07bd 69c8 5abe db3e 7fbb
00000310: 3cb9 8b3e 696a c6bd 3693 383e 1d7a d6be
00000320: c101 853e 03d6 613d 0db6 83be 2bab 823e
00000330: 2f38 c73e 8456 6fbd 7d75 ce3e 8ea8 3fbc
00000340: a8b1 813c cf9c fabd ca3d f33d 8dc0 cabe
00000350: 6a96 d6be 0486 223e 46bd b7be 7c0a 303e
00000360: b012 95bd f75c 55be fce0 a33e eb50 51bd
00000370: 2332 583d c898 653d 6789 20be bafd 913d
00000380: 18eb cc3d c55f 44bd 0bd1 86be 6a0f 633e
00000390: fccc afbd 3639 81be 8b4f d33d 18c6 91be
000003a0: 5027 493e ae7f 05bd e6e9 dfbc f4c3 8e3e
000003b0: 058e e13d 2c29 c4be dfe8 fdbd 03a1 8cbe
000003c0: 041d 533e e5ab 293e c0ef b23d 05c7 d0bd
000003d0: abe9 67bc df6d 393e 8665 ad3e 1b6e 22bd
000003e0: 38cb a83e cd59 94be d8fc 22bd c45d a93e
000003f0: 85a9 0a3e 0f53 bb3e 9689 943c a5ab 6d3e

encoder.0.bias f4 [16]
0.0 0.028893756 0.07656073 0.0 -0.013737174 0.06266993 0.0 0.051972453
0.0 0.0 0.02508571 0.0 0.06693602 0.03478428 0.0 0.047230493
00000000: 0000 0000 99b2 ec3c dfcb 9c3d 0000 0000
00000010: e211 61bc 1859 803d 0000 0000 11e1 543d
00000020: 0000 0000 0000 0000 8c80 cd3c 0000 0000
00000030: c115 893d f679 0e3d 0000 0000 c374 413d

encoder.2.weight f4 [16, 16]
-0.32392138 0.15435949 -0.32724014 0.32105663 0.31839794 -0.3387337 0.16093071 -0.4155213
0.1364955 0.21868916 0.12099763 -0.16631784 -0.023616685 0.27978867 0.24912128 0.032323904
0.3398173 -0.44462058 -0.1703111 0.25087675 -0.10670842 0.017096093 -0.34783936 0.14052573
-0.31851262 -0.16769937 0.06759648 -0.39176014 -0.10038559 0.09801839 0.13983303 0.14123029
0.37613073 -0.22540326 -0.29442647 -0.30673024 -0.18920411 -0.020434776 -0.035227016 0.16465054
-0.06250437 -0.23697582 -0.14055881 0.34812945 -0.41500148 0.41684312 -0.09250588 -0.13019806
-0.15178756 0.19818102 -0.33554432 0.3861818 0.090517715 -0.11006126 -0.11013758 0.24597573
-0.33837083 -0.38192597 0.2929026 0.043336328 -0.06320994 0.32973427 -0.36854365 -0.29224682
0.40634742 -0.27886736 0.23126811 -0.3898907 0.1426385 0.17178275 -0.14414856 0.291517
-0.046882924 -0.05552944 0.16632003 -0.3533051 0.36098135 -0.38689345 0.10153143 -0.24384135
-0.10465475 -0.0059244996 0.33289745 -0.029065084 0.37533477 -0.01168079 0.094943434 0.24408823
-0.34616736 0.31398195 0.027241109 0.21332537 -0.40829995 0.095575474 -0.3276188 -0.06772848
0.026293859 0.4236075 -0.3601301 -0.35003647 0.01587812 0.13288218 0.0108838435 0.24980153
0.01023272 -0.10730684 0.42897943 -0.28493854 -0.21376355 0.4309614 -0.4014028 0.20310347
-0.42164266 0.3601066 -0.07404357 0.41028583 -0.16264921 -0.4259992 0.3273411 -0.15620415
-0.40502858 -0.029969193 -0.26793614 -0.3749007 -0.20605564 -0.12172443 0.08139507 -0.20973805
0.009791118 -0.29007903 -0.1017677 -0.31170514 0.37365374 -0.29474002 0.12875707 -0.08889135
-0.26573762 0.07287512 0.4152087 -0.122815706 -0.04437175 -0.21085967 -0.28254235 0.14624779
-0.2765234 -0.39359286 -0.23837118 0.26199737 -0.020797092 -0.13579513 -0.11731739 -0.33572754
0.03299944 0.14354864 -0.15870608 0.26205653 0.3823478 -0.2338338 -0.24004029 -0.06119753
-0.120802976 0.031524956 0.35946962 0.41777322 0.31773424 0.275842 -0.022400226 0.066649966
0.4238828 -0.16458297 -0.20488863 -0.11230192 0.3885622 0.17485419 0.06972031 0.45177695
-0.33834454 -0.058754865 0.4281814 0.11699043 -0.4004372 -0.17787634 -0.17484495 0.42900732
-0.18109599 0.2538221 0.13433671 0.29562965 0.19248788 0.2826347 0.4003246 0.4207947
0.3745644 0.21694921 0.2754362 0.24621543 -0.2705408 0.062650375 -0.39643115 -0.2515389
-0.38612512 -0.30717996 0.24139555 -0.22136247 0.3731836 -0.05326372 -0.1095754 0.0030753035
0.017461153 0.17051947 0.2476429 -0.33144173 -0.17117096 -0.30340686 0.2909745 0.20628333
-0.1669717 -0.05803359 -0.27258492 0.31608504 -0.3040505 0.357225 -0.36758032 -0.19862047
-0.05563784 0.17481454 0.3832025 -0.06783079 -0.15153241 0.09595624 0.20607221 0.35425636
-0.3952134 -0.22288126 -0.022572767 0.088175446 -0.052264065 0.4226701 -0.41100937 0.11103507
-0.3870919 -0.1650749 0.39179644 0.1379621 0.38560608 -0.1415299 -0.11865489 0.09356845
0.14930356 -0.14015813 0.40673676 0.17337717 0.39667016 0.19374353 -0.23442164 0.21301575
00000000: 06d9 a5be 6a10 1e3e 058c a7be 8961 a43e
00000010: 0e05 a33e 816e adbe 05cb 243e 35bf d4be
00000020: 7ac5 0b3e 0df0 5f3e 9bcd f73d 394f 2abe
00000030: c777 c1bc 7640 8f3e a619 7f3e 1266 043d
00000040: 88fc ad3e 4fa5 e3be 0866 2ebe eb72 803e
00000050: f289 dabd 1b0d 8c3c 0018 b2be fae5 0f3e
00000060: 1614 a3be 62b9 2bbe 0670 8a3d c994 c8be
00000070: f696 cdbd debd c83d 6430 0f3e ac9e 103e
00000080: 3594 c03e 1dd0 66be 11bf 96be bf0b 9dbe
00000090: b9be 41be d566 a7bc 344a 10bd 279a 283e
000000a0: 4b02 80bd caa9 72be a6ee 0fbe 063e b23e
000000b0: 137b d4be 766c d53e b973 bdbd a452 05be
000000c0: 336e 1bbe f7ef 4a3e 77cc abbe 9fb9 c53e
000000d0: 5a61 b93d cc67 e1bd d08f e1bd 10e1 7b3e
000000e0: f13e adbe cd8b c3be 54f7 953e 6f81 313d
000000f0: 3774 81bd eed2 a83e c1b1 bcbe 60a1 95be
00000100: c50c d03e b4c7 8ebe 8cd1 6c3e c19f c7be
00000110: d40f 123e d1e7 2f3e ae9b 13be b741 953e
00000120: 4f08 40bd d772 63bd cc4f 2a3e 68e4 b4be
00000130: 8cd2 b83e e616 c6be b6ef cf3d 8cb1 79be
00000140: 3b55 d6bd 4e22 c2bb 8971 aa3e e619 eebc
00000150: e12b c03e c960 3fbc b471 c23d 44f2 793e
00000160: d93c b1be 3ec2 a03e bf28 df3c f771 5a3e
00000170: b10c d1be 13bd c33d a7bd a7be 3bb5 8abd
00000180: 3866 d73c 15e3 d83e f962 b8be fb37 b3be
00000190: d512 823c 4412 083e 2652 323c f9cb 7f3e
000001a0: 23a7 273c b0c3 dbbd 31a3 db3e 77e3 91be
000001b0: d5e4 5abe f9a6 dc3e ab84 cdbe 5bfa 4f3e
000001c0: 8ce1 d7be e45f b83e 28a4 97bd fc10 d23e
000001d0: 848d 26be 911c dabe 4199 a73e fbf3 1fbe
000001e0: e85f cfbe f481 f5bc ed2e 89be fcf2 bfbe
000001f0: 4000 53be a84a f9bd 75b2 a63d 92c5 56be
00000200: ed6a 203c 3d85 94be 956b d0bd d197 9fbe
00000210: 8b4f bf3e 2ae8 96be e5d8 033e ab0c b6bd
00000220: c30e 88be 8d3f 953d 3c96 d43e cd86 fbbd
00000230: 27bf 35bd 99eb 57be 64a9 90be fbc1 153e
00000240: 7a94 8dbe 0185 c9be 9317 74be 8524 863e
00000250: aa5e aabc e10d 0bbe 1a44 f0bd 7be4 abbe
00000260: 6c2a 073d 6afe 123e d983 22be 462c 863e
00000270: 17c3 c33e 2172 6fbe 1fcd 75be 43aa 7abd
00000280: 8d67 f7bd 5020 013d 670c b83e 5fe6 d53e
00000290: 10ae a23e 2a3b 8d3e ae80 b7bc c77f 883d
000002a0: 2b07 d93e 7088 28be 53ce 51be 8dfe e5bd
000002b0: a0f1 c63e fa0c 333e 86c9 8e3d 4f4f e73e
000002c0: 7f3b adbe f1a8 70bd 983a db3e ae98 ef3d
000002d0: 1b06 cdbe 3725 36be 8e0a 33be d9a6 db3e
000002e0: 3a71 39be f8f4 813e 908f 093e c55c 973e
000002f0: 8b1b 453e 7fb5 903e 59f7 cc3e 6772 d73e
00000300: e8c6 bf3e ef27 5e3e f905 8d3e e61f 7c3e
00000310: 5384 8abe d74e 803d 06f9 cabe b5c9 80be
00000320: 31b2 c5be b146 9dbe 6530 773e d8ac 62be
00000330: ec11 bf3e 0f2b 5abd 1169 e0bd 088b 493b
00000340: b10a 8f3c a89c 2e3e 1a96 7d3e bbb2 a9be
00000350: 7147 2fbe 2558 9bbe 9cfa 943e f03b 533e
00000360: a1fa 2abe a1b4 6dbd 4090 8bbe e6d5 a13e
00000370: 82ac 9bbe 32e6 b63e 7d33 bcbe 2a63 4bbe
00000380: 81e4 63bd 9502 333e 1e33 c43e dfea 8abd
00000390: 502b 1bbe b584 c43d 9804 533e 1761 b53e
000003a0: 6959 cabe fc3a 64be 86ea b8bc 5495 b43d
000003b0: d812 56bd 3768 d83e d26f d2be 5b66 e33d
000003c0: e930 c6be 6509 29be 8b99 c83e f045 0d3e
000003d0: 296e c53e 37ed 10be 5601 f3bd d1a0 bf3d
000003e0: 08e3 183e 9d85 0fbe cd3f d03e c989 313e
000003f0: 5a18 cb3e b464 463e 3a0c 70be cd20 5a3e

encoder.2.bias f4 [16]
0.0 -0.014251876 0.0 -0.020151759 0.053565625 0.08542553 0.05702534 0.0
-0.012402657 0.0 0.043365933 0.052002456 0.053348884 0.0 0.05053504 0.016872907
00000000: 0000 0000 b380 69bc 0000 0000 4d15 a5bc
00000010: a167 5b3d 95f3 ae3d 6793 693d 0000 0000
00000020: 8434 4bbc 0000 0000 7aa0 313d 8700 553d
00000030: 5c84 5a3d 0000 0000 d5fd 4e3d 0d39 8a3c

encoder.4.weight f4 [32, 16]
-0.04641485 0.2455178 0.16480193 -0.047644936 0.01694737 0.13423665 0.08102384 -0.25599942
0.25032997 -0.15132467 0.19745108 0.026333204 -0.086585246 -0.23737505 0.14151873 -0.16490783
0.31581083 0.29455462 0.011389722 0.30035228 -0.041659914 -0.23483917 0.15023287 -0.30035904
0.08672887 -0.31764576 -0.116123326 -0.3290651 -0.39003634 -0.26926437 -0.25800323 0.09627557
0.2009906 -0.036623973 -0.19013378 -0.2964017 0.28217793 0.36177438 -0.045067593 0.20344701
-0.042247668 -0.3159718 -0.2404608 0.29715636 0.26347455 -0.24694529 -0.00847668 -0.19850291
-0.053241372 -0.112522125 -0.24247658 0.2158594 0.03779946 -0.015871184 0.18389282 0.053379953
-0.25991493 0.058169648 0.20015685 0.27067414 -0.13474862 0.10518985 0.1578987 -0.14805903
-0.09388838 0.017181272 -0.33932325 -0.2849004 -0.1433011 0.19893683 -0.2930841 -0.07766138
0.05933289 0.14998007 -0.0086791925 -0.1205476 0.2154601 0.18520264 -0.1967731 -0.31118324
-0.19488369 0.27599367 -0.16897056 0.06164611 -0.2567859 0.3022806 0.036684252 -0.26083302
-0.16341904 -0.13980147 -0.28593177 -0.31529507 0.018212477 -0.085077755 -0.18182674 0.24785693
0.107591465 -0.125117 -0.09789629 -0.032484427 0.17420156 0.00034456592 0.28218383 0.06798717
-0.11682075 -0.08931604 0.04487127 0.16076626 0.3253248 -0.21353461 0.20482148 -0.26167879
-0.12516451 -0.03979604 -0.08353248 0.27218604 0.019693753 -0.18708862 0.05803834 -0.13837345
0.04184835 0.14838126 0.16916095 0.32066357 -0.19206554 -0.17665438 -0.14880471 0.36908945
0.16172947 -0.34399474 0.17638667 -0.1857921 0.3105168 0.42976785 0.24573639 -0.21180059
0.16026703 0.1777655 0.121661365 -0.15872037 -0.3546827 -0.17023315 -0.25582632 0.20567274
0.12679432 0.21501945 -0.106243014 0.18403 -0.009888305 -0.22927241 -0.160587 -0.2536382
0.15675162 -0.2923301 0.2656861 -0.113065094 0.21169724 -0.31864634 0.4000207 0.35731754
0.036377575 -0.14548372 -0.09958529 0.13234724 -0.3265524 0.15193361 -0.32229012 -0.2635608
0.32980546 0.2817669 -0.024561865 -0.12132768 -0.14557847 0.3061151 0.20364268 0.0014002628
-0.27918544 -0.14197308 0.2502507 0.07441051 -0.37787163 0.07860557 0.042058583 0.2129939
-0.17201503 -0.20896268 -0.14370175 -0.07301252 0.13073197 -0.19166873 -0.31821528 -0.34001723
-0.035821956 -0.24073333 -0.19904059 -0.20268035 0.33910203 0.29613963 0.026573975 0.12591219
0.03784366 -0.059731398 0.26608765 -0.029327147 -0.19313376 -0.34014478 0.25176287 0.19727722
-0.23554926 -0.07503148 -0.074449584 -0.019916754 -0.36019903 0.25498307 0.12243961 -0.32221535
0.049727485 0.020753825 0.15018162 -0.14386949 -0.20923975 0.2779383 -0.11643546 -0.08386053
0.12552933 -0.033138342 0.14600009 -0.2688219 0.26859143 -0.44330907 -0.2870584 -0.28144985
-0.24226817 -0.0054867608 0.20052539 0.25168958 0.2501526 -0.15838149 -0.18281552 -0.2777407
0.15597466 -0.14597756 0.27893412 0.06825334 0.18427037 -0.17100579 -0.078997485 0.2638593
-0.07734256 0.31246847 0.15089408 0.061670016 0.20566323 -0.2702053 0.21298194 0.14137864
00000000: 7f1d 3ebd 0569 7b3e d6c1 283e 5627 43bd
00000010: 36d5 8a3c 5575 093e d4ef a53d 5b12 83be
00000020: 402b 803e dbf4 1abe 9e30 4a3e bbb8 d73c
00000030: 9b53 b1bd 7212 73be 49ea 103e 99dd 28be
00000040: f5b1 a13e ddcf 963e f59b 3a3c c6c7 993e
00000050: 96a3 2abd ae79 70be a5d6 193e a9c8 99be
00000060: e89e b13d 77a2 a2be 11d2 edbd 397b a8be
00000070: d8b2 c7be 05dd 89be 0019 84be 202c c53d
00000080: 7bd0 4d3e 0503 16bd 6eb2 42be f7c1 97be
00000090: a079 903e 7e3a b93e cc98 38bd 6a54 503e
000000a0: e40b 2dbd 0ec7 a1be 5b3b 76be e124 983e
000000b0: 23e6 863e 3adf 7cbe c6e1 0abc 5944 4bbe
000000c0: a013 5abd 0072 e6bd c84b 78be 3f0a 5d3e
000000d0: 9bd3 1a3d 4904 82bc 664e 3c3e f0a4 5a3d
000000e0: 9213 85be 4c43 6e3d ebf5 4c3e cd95 8a3e
000000f0: 8bfb 09be c76d d73d 32b0 213e c99c 17be
00000100: 8d48 c0bd bdbf 8c3c c7bb adbe 77de 91be
00000110: 86bd 12be 19b6 4b3e 1f0f 96be ee0c 9fbd
00000120: 0b07 733d 6094 193e 2c33 0ebc a9e1 f6bd
00000130: 93a1 5c3e c3a5 3d3e e37e 49be 6953 9fbe
00000140: 978f 47be 0b4f 8d3e 9e06 2dbe a280 7c3d
00000150: 7179 83be 86c4 9a3e 3a42 163d e88b 85be
00000160: 5257 27be 1e28 0fbe a665 92be 5b6e a1be
00000170: 5532 953c 3f3d aebd ca30 3abe 35ce 7d3e
00000180: ea58 dc3d ac1e 00be da7d c8bd 640e 05bd
00000190: e561 323e dba6 b439 667a 903e db3c 8b3d
000001a0: b83f efbd 54eb b6bd f0ca 373d e99f 243e
000001b0: f990 a63e d1a8 5abe b9bc 513e c3fa 85be
000001c0: 202b 00be 2c01 23bd 1413 abbd f85b 8b3e
000001d0: cb54 a13c 2994 3fbe 9cb9 6d3d c5b1 0dbe
000001e0: 2d69 2b3d 42f1 173e 8738 2d3e 042e a43e
000001f0: d4ac 44be e3e4 34be 4360 18be 4bf9 bc3e
00000200: 699c 253e 1420 b0be b59e 343e 4940 3ebe
00000210: 0ffc 9e3e 880a dc3e 52a2 7b3e 41e2 58be
00000220: 0a1d 243e 2908 363e 9829 f93d 9887 22be
00000230: f998 b5be 9951 2ebe abfb 82be e09b 523e
00000240: 5fd6 013e 0f2e 5c3e f095 d9bd 5c72 3c3e
00000250: 8f02 22bc 63c6 6abe eb70 24be dedc 81be
00000260: 7f83 203e 4aac 95be 0208 883e ac8e e7bd
00000270: 29c7 583e 9d25 a3be 83cf cc3e 53f2 b63e
00000280: a700 153d aff9 14be 5ff3 cbbd 0986 073e
00000290: e031 a7be 7c94 1b3e 3603 a5be 71f1 86be
000002a0: 43dc a83e c043 903e f735 c9bc a67a f8bd
000002b0: 8612 15be 1ebb 9c3e b587 503e 0689 b73a
000002c0: 65f1 8ebe 6461 11be dc20 803e 8a64 983d
000002d0: 6478 c1be f5fb a03d 9f45 2c3d 131b 5a3e
000002e0: b524 30be 50fa 55be 8d26 13be 9787 95bd
000002f0: 9ade 053e cf44 44be 1ded a2be bd16 aebe
00000300: 0bba 12bd cc82 76be 4cd1 4bbe 708b 4fbe
00000310: c89e ad3e 9d9f 973e aab1 d93c 20ef 003e
00000320: f401 1b3d e9a8 74bd a43c 883e 7c3f f0bc
00000330: dbc4 45be 7527 aebe 10e7 803e 0a03 4a3e
00000340: d333 71be 1baa 99bd 0679 98bd 7628 a3bc
00000350: 026c b8be 248d 823e 9ec1 fa3d 69f9 a4be
00000360: 0caf 4b3d ed03 aa3c 36c9 193e 8652 13be
00000370: f242 56be ee4d 8e3e b775 eebd 12bf abbd
00000380: c38a 003e 12bc 07bd 0c81 153e 06a3 89be
00000390: d184 893e 68f9 e2be 52f9 92be 321a 90be
000003a0: 2615 78be 49ca b3bb 8756 4d3e 75dd 803e
000003b0: 0014 803e c22e 22be fe33 3bbe 0734 8ebe
000003c0: d2b7 1f3e 247b 15be 74d0 8e3e 68c8 8b3d
000003d0: 5fb1 3c3e 241c 2fbe 6fc9 a1bd 9118 873e
000003e0: c765 9ebd defb 9f3e fa83 1a3e b399 7c3d
000003f0: 6299 523e 5958 8abe f017 5a3e 90c5 103e

encoder.4.bias f4 [32]
0.030921383 -0.049750663 0.039473884 -0.02942292 -0.02395603 -0.017748233 0.030888565 0.048047792
-0.020222062 0.058262587 -0.045828324 -0.048994627 0.0003800508 -0.062309984 -0.025104625 -0.04298795
-0.047108855 -0.025278773 0.03469802 -0.042789184 -0.018269839 0.024622642 0.030219354 -0.045972332
0.025001703 -0.007499314 0.061836693 0.061563533 -0.025639836 0.045578185 -0.045263678 0.038715947
00000000: d74e fd3c 5ac7 4bbd 5eaf 213d 5608 f1bc
00000010: 703f c4bc be64 91bc 040a fd3c c3cd 443d
00000020: bda8 a5bc c0a4 6e3d 7bb6 3bbd 97ae 48bd
00000030: 8e41 c739 c138 7fbd 37a8 cdbc 2214 30bd
00000040: 37f5 40bd 6e15 cfbc 831f 0e3d b643 2fbd
00000050: a1aa 95bc 6cb5 c93c 948e f73c 7c4d 3cbd
00000060: 5fd0 cc3c cebc f5bb 7948 7d3d 0b2a 7c3d
00000070: a20a d2bc 31b0 3a3d 6866 39bd 9d94 1e3d

nee_decoder.0.weight f4 [16, 32]
0.10865813 0.03354332 -0.31940836 -0.26896602 -0.12628691 -0.02624921 -0.2258567 0.112492606
0.21474028 0.067784406 0.14864059 0.07408893 0.2107363 0.17538524 -0.17328942 0.0043308153
0.13575755 0.18832575 -0.10635303 0.34776616 -0.13273712 0.15278684 -0.053104512 -0.20308618
0.33283097 0.16839245 -0.08672012 -0.15726684 -0.29770285 0.14515099 0.07169382 -0.15599938
-0.008095984 -0.21562836 -0.08198065 -0.19930989 0.32330775 0.26273406 0.019946406 0.073497236
0.0583703 -0.24023044 -0.17431773 -0.3492795 0.27259102 -0.20946196 0.28993 -0.06218277
0.20891069 0.268146 -0.17273925 -0.15601611 -0.3410405 0.101459585 -0.02586326 -0.35101116
-0.21085633 0.07480265 -0.030403815 0.33045754 -0.26745427 -0.112557314 0.3485634 0.34380165
0.2857777 0.25258347 0.28609526 0.042803213 -0.14445625 0.20659971 0.17638017 0.31962803
0.3184954 -0.13297574 0.22690806 0.20379771 0.22267507 -0.0659297 0.043918103 -0.34411177
-0.10936274 -0.07963023 -0.15984042 -0.19379206 0.118138514 0.009045963 0.3209179 -0.34482774
0.07153859 0.33212256 0.31648844 -0.07336144 -0.3365628 0.11825891 -0.13738112 0.32150012
0.03884123 -0.14966653 0.32582918 -0.10671211 0.27945822 -0.2261159 0.3446356 -0.33720854
0.30559117 0.14973098 0.06027859 -0.12323557 0.15623352 -0.31179315 0.32643417 -0.16770509
-0.0063955314 0.34833834 0.08380926 0.2951829 -0.3409174 0.058684006 -0.018117707 -0.11618023
0.21137449 0.31445754 -0.29061782 -0.2498539 0.040402517 -0.12095104 -0.07724809 -0.17975213
-0.06138389 0.16141227 0.1264123 0.12738387 -0.06943466 0.28286418 -0.3440618 0.046011545
-0.15209976 0.29688057 0.23681805 0.09518878 0.123826936 -0.20336533 -0.04937204 -0.15826575
-0.0059108003 -0.1437854 -0.162394 -0.141618 0.10614818 0.29585886 -0.046523333 -0.014442882
-0.29205236 -0.09330604 -0.081279054 -0.1805102 0.14252901 0.13125013 0.23037826 -0.14055611
-0.30018649 -0.11606597 0.01163645 -0.13041587 -0.06900046 0.28098047 -0.33939132 -0.019084599
0.34971958 -0.16395462 0.13054599 -0.1907319 -0.17061035 -0.3262256 0.31739193 -0.21861081
-0.025157243 0.3145243 -0.026771003 0.22141269 0.23173386 0.29320082 -0.3252113 0.3104612
-0.106989436 -0.280279 0.20197633 -0.33539346 -0.012796668 -0.07108504 0.33893374 -0.03942804
-0.14583716 0.17521097 -0.2376291 0.35074994 0.28270495 -0.23534547 0.07415803 -0.18854904
0.0665902 0.28259355 -0.22777611 -0.22387637 -0.29584077 0.061309025 0.03814269 0.088158324
0.28319183 -0.19232842 -0.25039825 0.2912951 0.33443 0.25686398 0.020735338 -0.13912144
0.20769352 -0.00845542 0.053600684 -0.28203538 0.33119333 -0.33355272 0.31323254 0.2226669
-0.03295901 -0.37035143 -0.105687834 -0.041031368 0.20051076 0.25296575 0.25702873 -0.15104003
0.32177812 -0.054778498 -0.020436127 -0.043797143 0.35998175 0.2040574 0.103381105 -0.09402359
-0.15086997 0.09713944 0.076046295 0.28366193 -0.18142153 -0.06126265 -0.18294138 -0.09935253
-0.048437476 0.29390642 0.21363401 -0.18470171 -0.027346978 0.15703899 -0.25249264 -0.13253112
00000000: 2788 de3d b864 093d 7e89 a3be eab5 89be
00000010: 5b51 01be 9508 d7bc fb46 67be 8662 e63d
00000020: e0e4 5b3e 8dd2 8a3d 3d35 183e f0bb 973d
00000030: 42cb 573e 3098 333e c872 31be 83e9 8d3b
00000040: 0704 0b3e 77d8 403e 9ecf d9bd 680e b23e
00000050: 3dec 07be 2774 1c3e 1e84 59bd d3f5 4fbe
00000060: d268 aa3e 126f 2c3e 519a b1bd 8f0a 21be
00000070: 826c 98be 76a2 143e 36d4 923d 4dbe 1fbe
00000080: 05a5 04bc aecd 5cbe 79e5 a7bd e417 4cbe
00000090: 9888 a53e 1485 863e a566 a33c b885 963d
000000a0: b215 6f3d f8fe 75be 5980 32be c3d4 b2be
000000b0: 0d91 8b3e 327d 56be b471 943e 5cb3 7ebd
000000c0: afec 553e 6f4a 893e 8fe2 30be b0c2 1fbe
000000d0: dc9c aebe 0bca cf3d 30df d3bc bcb7 b3be
000000e0: b9ea 57be 2232 993d 6c11 f9bc bb31 a93e
000000f0: c4ef 88be 7384 e6bd e776 b23e c506 b03e
00000100: 7451 923e 9f52 813e 147b 923e 6c52 2f3d
00000110: 57ec 13be e08e 533e 019d 343e 49a6 a33e
00000120: d411 a33e cb2a 08be 965a 683e 59b0 503e
00000130: ef04 643e 2706 87bd 78e3 333d 6b2f b0be
00000140: 92f9 dfbd 2d15 a3bd 35ad 23be 6d71 46be
00000150: 9bf2 f13d 8535 143c 5a4f a43e 438d b0be
00000160: d382 923d f80b aa3e c60a a23e 863e 96bd
00000170: f651 acbe ba31 f23d a3ad 0cbe aa9b a43e
00000180: fb17 1f3d 2f42 19be 15d3 a63e e18b dabd
00000190: 2615 8f3e ed8a 67be 1474 b03e 99a6 acbe
000001a0: 7276 9c3e 1453 193e afe6 763d ee62 fcbd
000001b0: aefb 1f3e 5aa3 9fbe 6122 a73e e2ba 2bbe
000001c0: 9b91 d1bb 6759 b23e 30a4 ab3d 3722 973e
000001d0: ba8c aebe a45e 703d 966b 94bc e7ef edbd
000001e0: 8e72 583e 9400 a13e dccb 94be b3d9 7fbe
000001f0: 1c7d 253d 2eb5 f7bd 3f34 9ebd f110 38be
00000200: ad6d 7bbd 4249 253e 3a72 013e eb70 023e
00000210: c233 8ebd 93d3 903e de28 b0be 9a76 3c3d
00000220: 0ac0 1bbe bb00 983e 6e80 723e 56f2 c23d
00000230: fa98 fd3d 003f 50be 563a 4abd 6b10 22be
00000240: 63af c1bb 7b3c 13be 9d4a 26be 4f04 11be
00000250: 3864 d93d d07a 973e 408f 3ebd d6a1 6cbc
00000260: e387 95be 3d17 bfbd a275 a6bd aad7 38be
00000270: 20f3 113e 6f66 063e 47e8 6b3e f1ed 0fbe
00000280: 0bb2 99be ffb3 edbd cfa6 3e3c bd8b 05be
00000290: 1d50 8dbd acdc 8f3e b3c4 adbe 4e57 9cbc
000002a0: 720e b33e b8e3 27be d9ad 053e 394f 43be
000002b0: 7bb4 2ebe 0b07 a7be 3281 a23e 83db 5fbe
000002c0: 9016 cebc 5409 a13e dd4e dbbc 02ba 623e
000002d0: a44b 6d3e 6b1e 963e 1882 a6be c5f4 9e3e
000002e0: 471d dbbd bb80 8fbe e2d2 4e3e b1b8 abbe
000002f0: 1ea9 51bc 0995 91bd b988 ad3e 4c7f 21bd
00000300: 5656 15be 816a 333e 0b55 73be 7f95 b33e
00000310: b4be 903e 67fe 70be 2ae0 973d 0013 41be
00000320: 7160 883d 1ab0 903e 243e 69be d93f 65be
00000330: 7178 97be 2c1f 7b3d 823b 1c3d 5a8c b43d
00000340: 85fe 903e bef1 44be 3334 80be a224 953e
00000350: 693a ab3e ad83 833e 28dd a93c da75 0ebe
00000360: 9cad 543e 9a88 0abc 648c 5b3d f166 90be
00000370: 2c92 a93e 6cc7 aabe 0460 a03e cb02 643e
00000380: 0700 07bd b49e bdbe dd72 d8bd 8210 28bd
00000390: b152 4d3e ba84 813e 4599 833e 3daa 1abe
000003a0: 1ac0 a43e 6b5f 60bd aa69 a7bc a264 33bd
000003b0: 874f b83e 6cf4 503e 79b9 d33d 718f c0bd
000003c0: a87d 1abe 0bf1 c63d 29be 9b3d 233c 913e
000003d0: 91c6 39be 8bee 7abd fc54 3bbe 5779 cbbd
000003e0: 6066 46bd e77a 963e e0c2 5a3e 7222 3dbe
000003f0: c506 e0bc d4ce 203e b746 81be 3db6 07be

nee_decoder.0.bias f4 [16]
0.02059999 -0.15060845 0.13109954 0.0 0.0 0.0 0.007501428 0.13458961
-0.022836568 0.13726501 -0.0077381795 -0.012486837 0.13536528 -0.1073095 0.0 -0.01657042
00000000: 4fc1 a83c 1a39 1abe f53e 063e 0000 0000
00000010: 0000 0000 0000 0000 8ace f53b dcd1 093e
00000020: c113 bbbc 338f 0c3e 8e90 fdbb 9795 4cbc
00000030: 329d 0a3e 15c5 dbbd 0000 0000 b0be 87bc

nee_decoder.2.weight f4 [16, 16]
0.27440834 -0.3920939 -0.030170487 0.2311079 0.04691808 0.4218646 -0.22788021 -0.18361782
0.19300026 0.26037604 0.056595635 0.13833414 0.55185884 -0.22658451 -0.34762412 -0.25498337
0.30867794 0.21341704 0.14992695 -0.16513865 0.27374148 -0.062000003 0.17077456 -0.3560057
-0.24465539 0.38663787 -0.055206157 0.36630192 0.07468021 -0.038864836 0.1702825 0.12784503
-0.25248367 -0.3367343 -0.3597198 -0.16897777 0.29330236 -0.28543586 -0.10759075 -0.17483492
-0.14205801 -0.3051234 -0.2709173 0.044038557 -0.033658385 0.3874425 0.28023028 0.20643985
0.1498577 0.13887198 -0.002677417 0.325492 -0.33615753 -0.25543043 0.043041047 0.30458856
0.4150562 -0.0898788 0.22133093 -0.20400584 -0.16995957 -0.4376756 -0.2249724 0.0723469
-0.09797993 -0.1935124 -0.42523602 0.04174109 0.35036013 -0.37527865 0.16228668 0.072029546
0.025578005 -0.065201834 -0.033373784 0.40643808 -0.39433444 -0.11724068 -0.114704534 -0.15084505
-0.27409846 -0.3514981 0.346835 0.2185098 -0.42446765 0.35206166 -0.13618205 -0.43137348
0.37609604 -0.36820325 -0.13376877 0.0768458 0.17568295 -0.15660198 0.08312493 0.07141194
-0.42249274 -0.22952192 0.1984208 0.36391667 -0.11365403 0.24159129 -0.38706464 0.024041023
-0.17339496 0.022286884 0.30893123 0.3973127 0.18357764 0.00021827225 0.37066963 -0.09122794
-0.030288417 -0.003953198 0.3040348 -0.043229736 -0.39335814 0.14056768 0.2040026 0.39959225
0.23052742 0.14899373 -0.38319907 0.36936474 0.1783309 -0.38761756 0.15078518 -0.42543057
-0.20699395 0.30424523 0.3844936 0.4163394 -0.2593769 0.3825314 -0.3740829 0.3239858
-0.10005649 0.17965329 0.2952417 -0.191671 0.5288158 -0.261148 0.27859378 -0.26926985
-0.26843295 0.35113308 -0.2666647 0.108028784 0.41959116 -0.12602817 0.23817337 -0.42413458
0.3857453 0.24831441 -0.24186066 0.20995371 0.108810045 0.37854472 0.2917314 0.25227186
-0.2876708 0.21803385 -0.5083155 0.32904586 0.32175064 -0.18797712 -0.03786504 -0.04322119
0.14537437 0.35788628 -0.052582268 0.41249344 -0.37116402 -0.16646592 0.033505205 -0.08901422
-0.09348185 0.15073381 -0.6041624 -0.23374198 -0.089091584 0.3019481 0.13584313 0.2056732
0.30667222 -0.17135403 0.15723945 -0.17365785 -0.40893918 0.09797808 -0.1192656 -0.41997206
-0.3072563 -0.43490016 0.16256501 0.27722058 -0.061730962 0.25932607 -0.25051102 -0.09833597
0.2510228 0.24586141 -0.2679377 -0.117474966 0.18623228 -0.03369787 0.28771535 0.052882705
-0.37094218 0.24852626 0.018794011 0.33476418 -0.2572329 -0.10964188 0.37766945 0.092952125
-0.21499355 0.17629334 -0.42426935 -0.25893128 -0.36271265 -0.29896313 0.15272532 0.07112209
-0.4062607 -0.04067464 -0.28189054 0.35797808 0.13244583 -0.02281571 0.18168904 -0.09436307
-0.22666633 -0.17409869 -0.2677141 0.15900756 0.20592387 0.13407439 -0.2858258 -0.00986766
0.32761246 0.1796107 0.564686 0.17310204 -0.40576485 0.29129395 0.00059695885 0.44992837
0.32170784 0.06850746 -0.40580514 0.09163736 0.26761708 0.029208163 0.255774 0.25539348
00000000: 407f 8c3e 88c0 c8be 1928 f7bc 8da7 6c3e
00000010: 2c2d 403d a3fe d73e 6e59 69be 4f06 3cbe
00000020: dca1 453e 0250 853e d3d0 673d 77a7 0d3e
00000030: 9f46 0d3f c505 68be cafb b1be 2e8d 82be
00000040: 090b 9e3e ff89 5a3e 7386 193e 1b1a 29be
00000050: d827 8c3e b7f3 7dbd 87df 2e3e 6146 b6be
00000060: f186 7abe 66f5 c53e da1f 62bd ed8b bb3e
00000070: f0f1 983d bc30 1fbd 895e 2e3e cfe9 023e
00000080: 8a45 81be 7068 acbe 322d b8be 8208 2dbe
00000090: ba2b 963e a624 92be 8a58 dcbd ed07 33be
000000a0: a877 11be 2239 9cbe acb5 8abe c661 343d
000000b0: 60dd 09bd dd5e c63e 587a 8f3e f864 533e
000000c0: 4c74 193e 7534 0e3e 9a77 2fbb e3a6 a63e
000000d0: d71c acbe c7c7 82be cf4b 303d 08f3 9b3e
000000e0: 3f82 d43e 6012 b8bd 93a4 623e e8e6 50be
000000f0: e209 2ebe 0417 e0be 2a5f 66be 9d2a 943d
00000100: b4a9 c8bd 1d28 46be 89b8 d9be b5f8 2a3d
00000110: 6762 b33e 8624 c0be 7b2e 263e 3a84 933d
00000120: f788 d13c 8a88 85bd f3b2 08bd a718 d03e
00000130: 34e6 c9be e21b f0bd 36ea eabd 2077 1abe
00000140: a256 8cbe 8ff7 b3be 5b94 b13e 08c1 5f3e
00000150: d353 d9be 6d41 b43e 4f73 0bbe fcdc dcbe
00000160: a98f c03e 2385 bcbe aefa 08be 5561 9d3d
00000170: 3be6 333e 455c 20be 673d aa3d 6c40 923d
00000180: f850 d8be cb07 6bbe d22e 4b3e 4953 ba3e
00000190: 72c3 e8bd b563 773e 562d c6be aef1 c43c
000001a0: 738e 31be fc92 b63c 3c2c 9e3e 926c cb3e
000001b0: c7fb 3b3e 03e0 6439 69c8 bd3e b7d5 babd
000001c0: 6a1f f8bc d489 81bb 73aa 9b3e aa11 31bd
000001d0: 3d66 c9be f9f0 0f3e 0fe6 503e 5b97 cc3e
000001e0: 610f 6c3e d091 183e ab32 c4be 601d bd3e
000001f0: 609c 363e cf75 c6be 6e67 1a3e 09d2 d9be
00000200: 39f6 53be 08c6 9b3e 58dc c43e 702a d53e
00000210: 0dcd 84be 28db c33e cb87 bfbe 77e1 a53e
00000220: 6bea ccbd 08f7 373e ec29 973e 6745 44be
00000230: 7960 073f 31b5 85be d8a3 8e3e bddd 89be
00000240: 0b70 89be b7c7 b33e 4788 88be 323e dd3d
00000250: a7d4 d63e 870d 01be b8e3 733e 2b28 d9be
00000260: 6880 c53e 2246 7e3e 52aa 77be 1bfe 563e
00000270: cdd7 de3d 9dd0 c13e d15d 953e c729 813e
00000280: 9649 93be 4444 5f3e f720 02bf b378 a83e
00000290: 80bc a43e 137d 40be 5f18 1bbd b408 31bd
000002a0: 05dd 143e df3c b73e 8160 57bd 5732 d33e
000002b0: 3609 bebe 0b76 2abe c13c 093d 164d b6bd
000002c0: 6a73 bfbd f759 1a3e 63aa 1abf 0f5a 6fbe
000002d0: a675 b6bd f198 9a3e 761a 0b3e ff9b 523e
000002e0: 2404 9d3e 6e77 2fbe 6103 213e 5dd3 31be
000002f0: 7a60 d1be bba8 c83d 8641 f4bd 9406 d7be
00000300: b350 9dbe 3cab debe 7177 263e dbef 8d3e
00000310: 9bd9 7cbd 63c6 843e fb42 80be 5e64 c9bd
00000320: 0f86 803e 18c3 7b3e 212f 89be b796 f0bd
00000330: adb3 3e3e c706 0abd 6d4f 933e 899b 583d
00000340: 22ec bdbe ab7d 7e3e e6f5 993c 3666 ab3e
00000350: 08b4 83be ec8b e0bd e45d c13e af5d be3d
00000360: 4527 5cbe 3e86 343e d539 d9be a492 84be
00000370: 79b5 b9be b211 99be 0764 1c3e 75a8 913d
00000380: 6701 d0be 749a 26bd f553 90be e748 b73e
00000390: e19f 073e 03e8 babc b10c 3a3e 6d41 c1bd
000003a0: 381b 68be ed46 32be d311 89be e1d2 223e
000003b0: b5dd 523e cc4a 093e c257 92be f7ab 21bc
000003c0: d2bc a73e deeb 373e 438f 103f a941 313e
000003d0: 69c0 cfbe 7b24 953e 3b7d 1c3a 035d e63e
000003e0: e4b6 a43e a44d 8c3d b1c5 cfbe 5eac bb3d
000003f0: 1b05 893e f545 ef3c cff4 823e efc2 823e

nee_decoder.2.bias f4 [16]
0.11751461 0.010980864 -0.0163103 -0.10698837 0.0 -0.0110625345 -0.04077144 0.110632576
0.12349291 -0.11471639 -0.118610166 -0.1059275 0.11592261 0.0 -0.0111919865 0.11628387
00000000: 80ab f03d 15e9 333c 2e9d 85bc b81c dbbd
00000010: 0000 0000 a23f 35bc f4ff 26bd 5593 e23d
00000020: dae9 fc3d 6df0 eabd e3e9 f2bd 84f0 d8bd
00000030: d568 ed3d 0000 0000 985e 37bc 3d26 ee3d

nee_decoder.4.weight f4 [1, 16]
0.52136743 0.075080395 -0.4755786 -0.24214438 -0.11035415 0.38970393 -0.51268715 0.4834287
0.7350827 -0.31541294 -0.6430425 -0.4890765 0.34678766 0.34614787 -0.48290855 0.48458076
00000000: 5678 053f c0c3 993d 0a7f f3be b2f4 77be
00000010: 5b01 e2bd 4687 c73e 773f 03bf f783 f73e
00000020: 612e 3c3f ce7d a1be 6f9e 24bf 3c68 fabe
00000030: 278e b13e 4b3a b13e ca3f f7be f81a f83e

fc_mu.0.weight f4 [4, 32]
-0.09128881 0.27291363 0.1917608 0.40543634 -0.2791159 0.25600424 -0.02024975 0.29647934
0.15498115 -0.36053 0.30903545 0.037584983 -0.19471833 0.19640708 0.2205387 -0.22664168
0.1842415 0.1662513 0.32385755 -0.14521378 0.34532428 0.2929096 -0.30301026 -0.1767644
0.32580224 0.26434347 0.23667745 -0.22075653 0.18515794 0.1345375 -0.10744835 -0.37084398
0.31316727 0.04664982 0.06357554 0.15972096 -0.31387633 -0.25989872 0.26497498 -0.4277193
-0.4262441 -0.28610656 -0.09285491 0.086297154 0.26077262 0.2969568 -0.35785484 -0.118575476
-0.051934313 -0.17678209 -0.44451407 0.35198063 -0.09705452 -0.20900959 -0.20063744 0.15386474
0.048840716 -0.22801463 -0.14746132 -0.33686367 -0.12763816 0.3068528 -0.09153564 -0.090186305
-0.1034929 0.16762954 -0.13388436 0.32625994 0.15008253 0.20048596 0.3893554 0.2401268
-0.13083746 -0.24447146 -0.34632316 0.32994378 -0.090134785 -0.19440143 0.12909086 -0.07473965
-0.28900042 -0.27817056 -0.2836562 0.40718585 0.07086827 0.19181281 -0.0977517 -0.02911045
0.2642873 0.3940104 -0.21538444 -0.11287877 -0.07305371 0.3388805 0.1581939 0.2788726
0.24393107 -0.2704761 0.06771369 -0.25588718 -0.032126345 0.09348199 -0.012590004 -0.19725831
0.40701047 -0.40129676 -0.31322265 0.13251448 -0.17646797 0.09182395 0.23462059 0.26111233
-0.28607956 0.17204526 0.24469145 0.08994108 -0.29497603 0.35984465 -0.26181784 -0.40266055
0.19485635 0.19907466 0.1925179 -0.18832383 0.33531567 -0.30799255 0.018483091 -0.18179661
00000000: a1f5 babd 56bb 8b3e f15c 443e 5a95 cf3e
00000010: 47e8 8ebe fd12 833e cee2 a5bc 24cc 973e
00000020: 61b3 1e3e 6397 b8be e539 9e3e b6f2 193d
00000030: 3e64 47be f01e 493e e6d4 613e c214 68be
00000040: cea9 3c3e c83d 2a3e a8d0 a53e ecb2 14be
00000050: 58ce b03e 3ff8 953e 2924 9bbe ba01 35be
00000060: 8dcf a63e 0758 873e 935b 723e 000e 62be
00000070: 0b9a 3d3e 33c4 093e e10d dcbd 43df bdbe
00000080: 7657 a03e e213 3f3d e533 823d e48d 233e
00000090: 66b4 a0be 7211 85be cdaa 873e 06fe dabe
000000a0: ab3c dabe 8f7c 92be b72a bebd 90bc b03d
000000b0: fd83 853e b90a 983e c038 b7be b3d7 f2bd
000000c0: 13b9 54bd 5d06 35be 5997 e3be ce36 b43e
000000d0: 85c4 c6bd 9c06 56be e773 4dbe b88e 1d3e
000000e0: 340d 483d ab7c 69be 1a00 17be 6579 acbe
000000f0: 94b3 02be cf1b 9d3e 0a77 bbbd 99b3 b8bd
00000100: 16f4 d3bd 14a7 2b3e fb18 09be 8b0b a73e
00000110: 3caf 193e 314c 4d3e 9759 c73e cde3 753e
00000120: 41fa 05be ba56 7abe 4551 b1be 64ee a83e
00000130: 9698 b8bd 2b11 47be 6530 043e 1a11 99bd
00000140: ddf7 93be 5f6c 8ebe 633b 91be aa7a d03e
00000150: 6223 913d 946a 443e 0b32 c8bd 0a79 eebc
00000160: aa50 873e bbbb c93e bd8d 5cbe fc2c e7bd
00000170: 2f9d 95bd bf81 ad3e 95fd 213e 64c8 8e3e
00000180: 11c9 793e d87b 8abe 7aad 8a3d a503 83be
00000190: ea96 03bd 7c73 bf3d 4e46 4ebc 15fe 49be
000001a0: ad63 d03e c576 cdbe b85e a0be e0b1 073e
000001b0: 05b4 34be 320e bc3d 6140 703e 84b0 853e
000001c0: 0579 92be a22c 303e 6590 7a3e 0733 b83d
000001d0: 1907 97be 8f3d b83e fd0c 86be 8629 cebe
000001e0: 6c88 473e 3ada 4b3e 6a23 453e f6d7 40be
000001f0: 7fae ab3e 33b1 9dbe da69 973c e428 3abe

fc_mu.0.bias f4 [4]
0.0 0.06785048 0.055159837 0.0
00000000: 0000 0000 31f5 8a3d 48ef 613d 0000 0000

fc_mu.2.weight f4 [1, 4]
-0.79643303 0.02478712 0.3463609 -0.15744759
00000000: 09e3 4bbf 5c0e cb3c 3756 b13e f139 21be

fc_logvar.0.weight f4 [4, 32]
-0.09128881 0.27291363 0.1917608 0.40543634 -0.2791159 0.25600424 -0.02024975 0.29647934
0.15498115 -0.36053 0.30903545 0.037584983 -0.19471833 0.19640708 0.2205387 -0.22664168
0.1842415 0.1662513 0.32385755 -0.14521378 0.34532428 0.2929096 -0.30301026 -0.1767644
0.32580224 0.26434347 0.23667745 -0.22075653 0.18515794 0.1345375 -0.10744835 -0.37084398
0.31316727 0.04664982 0.06357554 0.15972096 -0.31387633 -0.25989872 0.26497498 -0.4277193
-0.4262441 -0.28610656 -0.09285491 0.086297154 0.26077262 0.2969568 -0.35785484 -0.118575476
-0.051934313 -0.17678209 -0.44451407 0.35198063 -0.09705452 -0.20900959 -0.20063744 0.15386474
0.048840716 -0.22801463 -0.14746132 -0.33686367 -0.12763816 0.3068528 -0.09153564 -0.090186305
-0.1034929 0.16762954 -0.13388436 0.32625994 0.15008253 0.20048596 0.3893554 0.2401268
-0.13083746 -0.24447146 -0.34632316 0.32994378 -0.090134785 -0.19440143 0.12909086 -0.07473965
-0.28900042 -0.27817056 -0.2836562 0.40718585 0.07086827 0.19181281 -0.0977517 -0.02911045
0.2642873 0.3940104 -0.21538444 -0.11287877 -0.07305371 0.3388805 0.1581939 0.2788726
0.24393107 -0.2704761 0.06771369 -0.25588718 -0.032126345 0.09348199 -0.012590004 -0.19725831
0.40701047 -0.40129676 -0.31322265 0.13251448 -0.17646797 0.09182395 0.23462059 0.26111233
-0.28607956 0.17204526 0.24469145 0.08994108 -0.29497603 0.35984465 -0.26181784 -0.40266055
0.19485635 0.19907466 0.1925179 -0.18832383 0.33531567 -0.30799255 0.018483091 -0.18179661
00000000: a1f5 babd 56bb 8b3e f15c 443e 5a95 cf3e
00000010: 47e8 8ebe fd12 833e cee2 a5bc 24cc 973e
00000020: 61b3 1e3e 6397 b8be e539 9e3e b6f2 193d
00000030: 3e64 47be f01e 493e e6d4 613e c214 68be
00000040: cea9 3c3e c83d 2a3e a8d0 a53e ecb2 14be
00000050: 58ce b03e 3ff8 953e 2924 9bbe ba01 35be
00000060: 8dcf a63e 0758 873e 935b 723e 000e 62be
00000070: 0b9a 3d3e 33c4 093e e10d dcbd 43df bdbe
00000080: 7657 a03e e213 3f3d e533 823d e48d 233e
00000090: 66b4 a0be 7211 85be cdaa 873e 06fe dabe
000000a0: ab3c dabe 8f7c 92be b72a bebd 90bc b03d
000000b0: fd83 853e b90a 983e c038 b7be b3d7 f2bd
000000c0: 13b9 54bd 5d06 35be 5997 e3be ce36 b43e
000000d0: 85c4 c6bd 9c06 56be e773 4dbe b88e 1d3e
000000e0: 340d 483d ab7c 69be 1a00 17be 6579 acbe
000000f0: 94b3 02be cf1b 9d3e 0a77 bbbd 99b3 b8bd
00000100: 16f4 d3bd 14a7 2b3e fb18 09be 8b0b a73e
00000110: 3caf 193e 314c 4d3e 9759 c73e cde3 753e
00000120: 41fa 05be ba56 7abe 4551 b1be 64ee a83e
00000130: 9698 b8bd 2b11 47be 6530 043e 1a11 99bd
00000140: ddf7 93be 5f6c 8ebe 633b 91be aa7a d03e
00000150: 6223 913d 946a 443e 0b32 c8bd 0a79 eebc
00000160: aa50 873e bbbb c93e bd8d 5cbe fc2c e7bd
00000170: 2f9d 95bd bf81 ad3e 95fd 213e 64c8 8e3e
00000180: 11c9 793e d87b 8abe 7aad 8a3d a503 83be
00000190: ea96 03bd 7c73 bf3d 4e46 4ebc 15fe 49be
000001a0: ad63 d03e c576 cdbe b85e a0be e0b1 073e
000001b0: 05b4 34be 320e bc3d 6140 703e 84b0 853e
000001c0: 0579 92be a22c 303e 6590 7a3e 0733 b83d
000001d0: 1907 97be 8f3d b83e fd0c 86be 8629 cebe
000001e0: 6c88 473e 3ada 4b3e 6a23 453e f6d7 40be
000001f0: 7fae ab3e 33b1 9dbe da69 973c e428 3abe

fc_logvar.0.bias f4 [4]
0.0 0.06785048 0.055159837 0.0
00000000: 0000 0000 31f5 8a3d 48ef 613d 0000 0000

fc_logvar.2.weight f4 [1, 4]
-0.04220932 -0.7272188 0.49114898 -0.033889607
00000000: aee3 2cbd 032b 3abf e177 fb3e d4cf 0abd

temp_derivative_decoder.0.weight f4 [16, 32]
0.020688917 0.34042045 0.32148826 -0.017112842 -0.19337682 0.35281292 -0.24223934 -0.072464295
-0.13105537 0.21053961 -0.015528753 -0.19861846 0.17431313 0.23614517 0.14320336 -0.097473055
-0.09086076 0.32077414 -0.12558989 -0.34256104 0.31634605 0.19431737 -0.21634871 0.11412308
0.113728635 0.29194823 0.07627939 -0.16470878 -0.21294864 0.24454325 -0.16952735 -0.325011
-0.06644795 0.09084275 -0.019030929 0.04988717 -0.08332162 0.19629529 0.09066448 0.13311271
0.012339364 0.24218175 0.23751238 -0.15465744 -0.24230647 -0.0014505017 0.25488454 0.087294795
0.25549293 -0.07442507 -0.08625991 0.087551594 -0.07407383 -0.22762702 0.13651575 -0.1488251
-0.19088396 -0.18176654 0.22297785 -0.2025275 -0.15616013 -0.26442435 -0.12893215 -0.35702825
0.18021588 -0.23834509 0.25575694 0.041209716 0.28693 -0.16109782 -0.2960227 0.3359607
0.263997 0.3316074 0.06616868 -0.06080397 0.12972654 0.32243368 0.059042916 -0.28174207
-0.34855694 -0.31315514 -0.3081151 -0.18336847 0.21993329 -0.29034266 -0.20909594 0.3641657
0.21086825 0.21521534 0.26171547 0.10538833 0.10752259 -0.034198336 0.14286698 0.17445156
-0.28247705 0.21811293 -0.048841413 0.13835175 0.00534694 0.029097456 0.19427387 -0.35055342
-0.34264436 0.28700587 -0.014099426 -0.20830853 0.11800457 -0.35929418 -0.054775488 -0.13651189
-0.10416019 -0.011057883 0.1822233 0.17021617 -0.08812023 -0.026901256 -0.26021802 -0.051214743
0.037137687 0.101257585 0.0074931285 0.059627213 -0.094255954 -0.35006085 -0.014832776 -0.36134318
-0.000337514 0.29560822 0.15455411 0.30961245 0.3375849 -0.010536195 -0.32517874 0.21786533
0.25248057 0.3433953 -0.33005974 -0.11223464 -0.16919516 0.34646013 -0.33483192 0.17132188
0.1435686 -0.09081338 -0.25709662 0.049033742 -0.22439182 -0.3048863 0.27018142 -0.18595809
-0.03764299 0.08298066 0.068056054 0.034247924 0.16403699 0.28770715 -0.32342204 -0.017131189
-0.17437585 -0.06498669 -0.28019583 -0.0510634 -0.00877469 0.122478746 0.1057793 0.051866017
0.29680285 0.3520971 0.045262724 -0.13518353 0.30274224 0.2711542 0.26118755 0.1747588
0.35178173 0.25503406 -0.27512378 0.078325056 0.20852864 -0.18749835 0.21471427 0.20660396
-0.08396577 -0.0043190955 -0.31974787 0.3435463 0.32925728 -0.059620198 0.21078146 -0.2545091
-0.07259967 -0.24540769 0.2059556 -0.0030888102 -0.19945078 -0.030619035 -0.17483835 0.33060163
-0.073481925 0.1910493 -0.21653894 0.21806215 -0.02605026 0.13592328 -0.2148515 -0.020987034
-0.1754027 -0.23378234 0.25315762 0.25657573 -0.35237026 -0.0056734164 0.17958988 -0.19509143
-0.18852615 0.20669211 -0.23087102 0.028232245 0.099225044 -0.20127124 -0.1392383 0.08096537
0.29328138 -0.15624914 0.032634962 -0.0802225 0.082919165 -0.16095974 -0.11259117 0.17592591
0.31511846 0.17278488 0.32660237 -0.038054522 0.33910426 0.20501472 0.29343396 0.19401689
0.27444252 -0.34614986 -0.19274065 0.084905095 -0.2563705 -0.2728327 -0.17721352 0.11876684
0.16174409 -0.087823704 -0.22237457 0.24837725 0.2832964 -0.112917036 -0.056343835 -0.19674374
00000000: ce7b a93c 974b ae3e 1c9a a43e 3b30 8cbc
00000010: 9304 46be e5a3 b43e 970d 78be 2968 94bd
00000020: 6133 06be b297 573e 506c 7ebc a362 4bbe
00000030: 247f 323e 0ad0 713e e7a3 123e f49f c7bd
00000040: 3515 babd 823c a43e a39a 00be 2964 afbe
00000050: 1cf8 a13e 22fb 463e 848a 5dbe 5db9 e93d
00000060: 8fea e83d 3d7a 953e 5e38 9c3d 6ba9 28be
00000070: 350f 5abe 8c69 7a3e 9498 2dbe d767 a6be
00000080: dd15 88bd c40b ba3d c0e6 9bbc 7d56 4c3d
00000090: 87a4 aabd a201 493e 4dae b93d b34e 083e
000000a0: 0b2b 4a3c 7efe 773e 7236 733e 855e 1ebe
000000b0: 301f 78be c31e beba 3a80 823e 9dc7 b23d
000000c0: f8cf 823e 2c6c 98bd 09a9 b0bd 404e b33d
000000d0: 05b4 97bd 0f17 69be c9ca 0b3e 9b65 18be
000000e0: 1677 43be 0221 3abe 4e54 643e 5e63 4fbe
000000f0: 71e8 1fbe a162 87be ca06 04be 68cc b6be
00000100: 838a 383e bc10 74be 93f2 823e 85cb 283d
00000110: 7de8 923e d4f6 24be 4a90 97be 0a03 ac3e
00000120: 9d2a 873e 72c8 a93e 7283 873d 950d 79bd
00000130: 09d7 043e 0716 a53e fcd6 713d 7f40 90be
00000140: 0e76 b2be df55 a0be 43c1 9dbe f2c4 3bbe
00000150: 3136 613e cba7 94be 3f1d 56be ed73 ba3e
00000160: d9ed 573e 6961 5c3e 92ff 853e d6d5 d73d
00000170: ce34 dc3d 8e13 0cbd b94b 123e 6ea3 323e
00000180: d5a0 90be ff58 5f3e ef0d 48bd 15ac 0d3e
00000190: 6235 af3b ca5d ee3c bbef 463e bd7b b3be
000001a0: 156f afbe 6ff2 923e 4701 67bc d54e 55be
000001b0: 61ac f13d 68f5 b7be 435c 60bd c6c9 0bbe
000001c0: f051 d5bd 1f2c 35bc bf98 3a3e 264d 2e3e
000001d0: 6178 b4bd 0660 dcbc 4c3b 85be 8dc6 51bd
000001e0: b01d 183d 2360 cf3d eb88 f53b aa3b 743d
000001f0: 4409 c1bd 2d3b b3be 2c05 73bc f901 b9be
00000200: 5df4 b0b9 f659 973e 6f43 1e3e 8685 9e3e
00000210: eed7 ac3e 01a0 2cbc d47d a6be 1718 5f3e
00000220: 2245 813e 82d1 af3e 97fd a8be 46db e5bd
00000230: 7f41 2dbe 3963 b13e 176f abbe 016f 2f3e
00000240: a603 133e 5efc b9bd 2ba2 83be 9bd7 483d
00000250: f8c6 65be 0f1a 9cbe 3855 8a3e cc6b 3ebe
00000260: 892f 1abd c4f1 a93d f960 8b3d 8d47 0c3d
00000270: 50f9 273e 5a4e 933e 9397 a5be b556 8cbc
00000280: 958f 32be be17 85bd d475 8fbe db27 51bd
00000290: b8c3 0fbc 23d6 fa3d d1a2 d83d 7671 543d
000002a0: 8bf6 973e 1246 b43e 6865 393d 8d6d 0abe
000002b0: 0801 9b3e b9d4 8a3e 60ba 853e f9f3 323e
000002c0: bc1c b43e d393 823e 06dd 8cbe e368 a03d
000002d0: 8888 553e 91ff 3fbe 0fde 5b3e fd8f 533e
000002e0: 3ff6 abbd 3387 8dbb feb5 a3be 4de5 af3e
000002f0: 6994 a83e 4f34 74bd 18d7 573e 044f 82be
00000300: 23af 94bd 274c 7bbe 06e6 523e a36d 4abb
00000310: d33c 4cbe c5d4 fabc d308 33be 9e44 a93e
00000320: b17d 96bd 6da2 433e 62bc 5dbe af4b 5f3e
00000330: 5b67 d5bc 792f 0b3e 0802 5cbe 00ed abbc
00000340: c49c 33be a364 6fbe e09d 813e e55d 833e
00000350: e069 b4be 11e8 b9bb 69e6 373e 0cc6 47be
00000360: 000d 41be 19a7 533e 7469 6cbe 4f47 e73c
00000370: 8036 cb3d 0c1a 4ebe 7c94 0ebe 2cd1 a53d
00000380: fa28 963e c6ff 1fbe 3dac 053d b24b a4bd
00000390: 86d1 a93d a1d2 24be 3396 e6bd ec25 343e
000003a0: 3557 a13e 85ee 303e 6d38 a73e 0fdf 1bbd
000003b0: 139f ad3e 61ef 513e fa3c 963e 5dac 463e
000003c0: bb83 8c3e 8e3a b1be ce5d 45be b9e2 ad3d
000003d0: ff42 83be bab0 8bbe 7677 35be 073c f33d
000003e0: 3ea0 253e eadc b3bd 29b6 63be 9b56 7e3e
000003f0: 3a0c 913e 0c41 e7bd cbc8 66bd 3177 49be

temp_derivative_decoder.0.bias f4 [16]
0.0 -0.0059106867 0.012383239 -0.021264335 -0.0074234167 0.0021316404 0.0014719727 -0.0023776516
0.0037638796 -0.006452405 0.0 -0.006107229 0.0 0.0028030577 0.0022744667 -0.009033996
00000000: 0000 0000 6fae c1bb 12e3 4a3c 8b32 aebc
00000010: 2240 f3bb feb2 0b3b 35ef c03a 60d2 1bbb
00000020: 6cab 763b b26e d3bb 0000 0000 261f c8bb
00000030: 0000 0000 81b3 373b 380f 153b 5303 14bc
