.archive/piae_sde/experiments/2024-11-27_14-36-3-886755/best_model.pth (torch, 25314 bytes, 28 tensors)

encoder.0.weight f4 [16, 18]
00000000: 7521 93be 2e3f c73e 4319 bf3e f30f e53d
00000010: 5f99 96be 5a3f 863e a446 1dbe 8f2b 4a3d
00000020: 8b61 d3bb 7e83 0b3d 3b43 b6be 1401 743d
00000030: 3214 953e 052a 72be e431 a7bd 24bd d53e
00000040: 64e9 c1be 5c17 9dbe 5aca 8cbe ab3f c0be
00000050: ddb3 c83d 29fa f7bd e74c 813e e518 e1bd
00000060: e512 99bd 72a3 90bd 41a8 163e 9801 c4be
00000070: 10d6 c23e 4125 fc3c b249 7f3e 504c 44be
00000080: 61d2 c13e e796 f83b d87f 283e fb65 dc3e
00000090: 4613 a1be a80c b23a 827d 9bbe 424f 75be
000000a0: 92a3 e33e 0172 963d 2af3 f7bd acfa 06bd
000000b0: 786c 88bd ac1b 3f3e ac58 8f3d 6f85 7a3d
000000c0: e19e 05bd b91a 11bf 6213 6b3e 8257 6c3d
000000d0: 72d7 173e c7bf b9bd 092e bf3e ab4e d3be
000000e0: 3596 57be fc28 7b3e 6387 a63d 355b a73e
000000f0: c690 a5bd d16d a6be 415a 103e 2346 473e
00000100: 9982 d63e dd2e 99be 2ac9 e4bc 4a49 f33d
00000110: 8b09 f3bd f7a6 b7bb 5212 89be 0c12 cebe
00000120: 0824 3f3e 37a1 723b 495c 1fbe 5fa8 c6be
00000130: d789 413e 959e 493e e48b 13be 8689 abbe
00000140: 8358 443e a014 debd 0e0c c03d 1eb0 04be
00000150: 7802 c43e ae44 2bbe 4e12 92bd e5bf a0be
00000160: dfd1 21be 1b00 b43e 0de5 cf3e 9d47 b53d
00000170: 20da 213e ec35 313e fb10 c23e bb96 b2be
00000180: 60c7 e6bd d4b3 2f3e 40ce 8d3e df82 793e
00000190: c235 27be cc25 86bd a62c 87bd 5a65 5d3e
000001a0: 7569 a8be a5c0 a7bd 8017 e23e 5c8c 47be
000001b0: 212c 21be a641 b9bd fe0e f4bc 6cee 803c
000001c0: 0f9d 923e 9586 5cbe ff5d b0be 2876 863e
000001d0: ca97 f83d 2c22 65be 7e8d 35be e706 d63d
000001e0: c522 9b3d eb99 b9be c447 943d a958 143e
000001f0: ed0e 08be 5fcc d43e 6405 3c3e f49f 34bc
00000200: 9d26 ef3e 63f3 5b3e 853a f5bd f9ef 173e
00000210: ef02 03be be1b 5a3e b81d 153e 1754 a8be
00000220: cc8c 29be 5028 8a3d feb6 5fbe 9e7a 763e
00000230: e123 d0be 7970 4c3e 3b4e 433e f6e2 87be
00000240: 1468 7bbd e708 c23e 78ca 983d 6586 8c3e
00000250: d967 773e 9242 963c a920 24be 87d2 4f3e
00000260: b3cc b33e 9558 cd3e e78d f73d a450 0dbd
00000270: 5f1e b6be ad70 813e 5a17 243e d7b4 f7bd
00000280: 3cae 8bbe 8b29 bf3e 7b5d de3d 5df6 9f3e
00000290: 6104 933e 9ccf ce3b 6148 84be 7db0 163e
000002a0: 5365 c7be 2666 bfbe 5c06 36be da8b c43d
000002b0: 1ebc b5be 843e 74bd aa28 ad3e c339 4fbe
000002c0: 76c9 98be f8bf 68be 0eb3 ccbe 8511 e3bd
000002d0: 6700 bf3e 4d02 d83d 101a c1bc 7b42 883d
000002e0: fc88 bebe 1910 173e cf28 893e fb01 b6be
000002f0: 691c 223d 56dd 52be 1570 b53e 45a6 39ba
00000300: fad6 903e 18f9 b3bc 9693 4fbe 0317 87bc
00000310: 2b78 873e a853 dfbd 3693 383e 1d7a d6be
00000320: c101 853e 03d6 613d 0db6 83be 2bab 823e
00000330: 2f38 c73e 8456 6fbd 7d75 ce3e 8ea8 3fbc
00000340: a8b1 813c cf9c fabd ca3d f33d 8dc0 cabe
00000350: 6a96 d6be 0486 223e 46bd b7be 7c0a 303e
00000360: e837 aabd 2d1c d7bd 82d2 3f3e 516a c03c
00000370: e8b9 b63c fb3e febb b293 8bbc 34d3 3a3c
00000380: 934b 513d 8a7c ccbd 58f2 8fbb 7b84 0f3d
00000390: d056 033d 64b7 42be af56 223e 8376 b4be
000003a0: 2e09 413e 90bb e4bd 7f16 abbd 6108 57bc
000003b0: 1e1f 8ebd 7231 9fbd 0821 ad3a 81de 94be
000003c0: cb6e a1bc d2af 24bd 4e3f 4f3e a8bc a73c
000003d0: 7c42 11be c7f4 cd3c 1569 8b3d 448c 3abe
000003e0: 5e20 4b3e bad8 64be 7a00 533c ad59 233f
000003f0: 85a9 0a3e 0f53 bb3e 9689 943c a5ab 6d3e
-0.28736463 0.3891539 0.3732396 0.11184683 -0.29413888 0.26220208 -0.15358979 0.049357947
-0.006450837 0.034060948 -0.35598168 0.05957134 0.2911697 -0.23648842 -0.08163813 0.41745865
-0.37873375 -0.30681884 -0.27498132 -0.37548575 0.09799931 -0.12108261 0.25253984 -0.109910764
-0.07474307 -0.07062425 0.14712621 -0.38282466 0.38053942 0.030779483 0.24930456 -0.19169736
0.3785582 0.0075863483 0.16455019 0.43046555 -0.31460017 0.0013584094 -0.30369192 -0.23956016
0.44460732 0.07345963 -0.12106927 -0.032953903 -0.06661314 0.186629 0.06999335 0.06116241
-0.03262222 -0.566814 0.22956613 0.05770064 0.1482828 -0.09069782 0.3733981 -0.41270956
-0.21053393 0.24527353 0.08131292 0.32686773 -0.08084254 -0.32505658 0.14096929 0.19460349
0.41896513 -0.29918566 -0.027927954 0.11879213 -0.118670546 -0.0056046206 -0.2677179 -0.40248144
0.18666089 0.003702236 -0.15562548 -0.38800332 0.18900238 0.196894 -0.14408833 -0.3350336
0.1917439 -0.10843778 0.09377299 -0.12957808 0.38283134 -0.16725418 -0.071323976 -0.31396404
-0.15802716 0.3515633 0.4060444 0.0885155 0.15805864 0.17305726 0.3790358 -0.34880623
-0.112684965 0.17158443 0.2769642 0.2436633 -0.163291 -0.06550178 -0.06600313 0.21620694
-0.32892957 -0.08191041 0.44158554 -0.19487137 -0.1573949 -0.090457246 -0.029792305 0.015738688
0.2863545 -0.21535714 -0.34446713 0.2626202 0.121383265 -0.22376317 -0.17729756 0.10450535
0.07574991 -0.36250243 0.07240251 0.14486946 -0.13286944 0.41562173 0.18361431 -0.011024464
0.46709147 0.21479563 -0.11974052 0.14837636 -0.12794088 0.21299645 0.14562118 -0.32876655
-0.16557616 0.0674597 -0.2184715 0.24070212 -0.40652373 0.1996478 0.19072811 -0.26540345
-0.061378554 0.37897417 0.07460493 0.27446285 0.24160708 0.01834229 -0.16028084 0.20295154
0.3511711 0.40106645 0.120876126 -0.034500733 -0.35570046 0.25281277 0.16024533 -0.12095039
-0.27281368 0.37336382 0.10857674 0.31242648 0.28714278 0.00631137 -0.2583647 0.14715762
-0.38944492 -0.3738262 -0.17775863 0.09596987 -0.35495085 -0.059629932 0.33820087 -0.20236878
-0.29841202 -0.2272948 -0.39980358 -0.11087326 0.37304994 0.10547314 -0.023571998 0.06653305
-0.37213886 0.14752235 0.26788947 -0.35548386 0.039577875 -0.20592245 0.35437074 -0.0007081966
0.28289014 -0.021969363 -0.20271143 -0.016490465 0.26458868 -0.10904628 0.18024907 -0.4189004
0.259779 0.055135738 -0.2572483 0.25521216 0.38910052 -0.058432117 0.4032401 -0.011697901
0.015831783 -0.1223694 0.1187702 -0.3960003 -0.41911632 0.15871435 -0.35886592 0.171915
-0.083114445 -0.10503421 0.18732646 0.023488196 0.022305444 -0.0077589727 -0.0170382 0.011402894
0.051097464 -0.099846914 -0.0043929033 0.035038453 0.032065213 -0.1901527 0.1585338 -0.35246667
0.18851158 -0.11168587 -0.083539 -0.013124556 -0.06939529 -0.07773103 0.0013208697 -0.29076007
-0.01970615 -0.040206738 0.20238993 0.0204757 -0.14185518 0.025141133 0.06807152 -0.1821757
0.19836566 -0.223483 0.012878532 0.6380871 0.13541229 0.36586806 0.018132012 0.23210008

encoder.0.bias f4 [16]
00000000: 0000 0000 b904 4e3c 99b8 2c3d 0000 0000
00000010: 31c4 50bc aafa 0f3d 0000 0000 1d99 e83c
00000020: 0000 0000 0000 0000 ce9f 333c 0000 0000
00000030: 0d53 193d 14c4 f53c 0000 0000 2794 e03c
0.0 0.012574368 0.042168234 0.0 -0.012742088 0.03515116 0.0 0.028393323
0.0 0.0 0.010963393 0.0 0.03743272 0.030000724 0.0 0.027414395

encoder.2.weight f4 [16, 16]
00000000: 06d9 a5be 6a10 1e3e 058c a7be 8961 a43e
00000010: 0e05 a33e 816e adbe 05cb 243e 35bf d4be
00000020: 7ac5 0b3e 0df0 5f3e 9bcd f73d 394f 2abe
00000030: c777 c1bc 7640 8f3e a619 7f3e 1266 043d
00000040: 88fc ad3e 9784 e2be 551f 2cbe eb72 803e
00000050: f289 dabd 6651 a23c 0018 b2be 10c0 133e
00000060: 1614 a3be 62b9 2bbe 0a5a 8f3d c994 c8be
00000070: 2975 c9bd d561 a73e 6430 0f3e e3ad 133e
00000080: 3594 c03e 1dd0 66be 11bf 96be bf0b 9dbe
00000090: b9be 41be d566 a7bc 344a 10bd 279a 283e
000000a0: 4b02 80bd caa9 72be a6ee 0fbe 063e b23e
000000b0: 137b d4be 766c d53e b973 bdbd a452 05be
000000c0: 336e 1bbe 24de 563e 0967 a4be 9fb9 c53e
000000d0: 5a61 b93d 128c cebd d08f e1bd 83c0 813e
000000e0: f13e adbe cd8b c3be 8c6e 9a3e 6f81 313d
000000f0: d896 4ebd 19ac 773f c1b1 bcbe b982 90be
00000100: c50c d03e cd2d 94be b01a 633e c19f c7be
00000110: b7e5 0c3e 78e8 263e ae9b 13be e9dc 903e
00000120: 4f08 40bd d772 63bd 740c 213e 68e4 b4be
00000130: 7de0 b33e 1a5b 11bf b6ef cf3d 4764 81be
00000140: 3b55 d6bd 912e 753d cb1c a43e e619 eebc
00000150: 6e6c c63e 4789 d9bb b471 c23d d770 783e
00000160: d93c b1be 3ec2 a03e 161c 493c f771 5a3e
00000170: 9b17 ebbe d888 163d a7bd a7be ebad 88bd
00000180: 3866 d73c 14d4 d53e d01f bbbe fb37 b3be
00000190: acb5 8a3c e382 033e 2652 323c a8c1 7a3e
000001a0: 23a7 273c b0c3 dbbd cd76 d83e 77e3 91be
000001b0: c942 60be a4a4 a43e ab84 cdbe 463f 4a3e
000001c0: 8ce1 d7be e45f b83e 28a4 97bd fc10 d23e
000001d0: 848d 26be 911c dabe 4199 a73e fbf3 1fbe
000001e0: e85f cfbe f481 f5bc ed2e 89be fcf2 bfbe
000001f0: 4000 53be a84a f9bd 75b2 a63d 92c5 56be
00000200: ed6a 203c 65ec 8ebe db8a bbbd d197 9fbe
00000210: 8b4f bf3e 2e5a 91be e5d8 033e 42cd a1bd
00000220: c30e 88be 8d3f 953d 219a d93e cd86 fbbd
00000230: 97c8 0dbd 7142 50be 64a9 90be 6cc5 1f3e
00000240: 7a94 8dbe 0185 c9be 9317 74be 8524 863e
00000250: aa5e aabc e10d 0bbe 1a44 f0bd 7be4 abbe
00000260: 6c2a 073d 6afe 123e d983 22be 462c 863e
00000270: 17c3 c33e 2172 6fbe 1fcd 75be 43aa 7abd
00000280: 8d67 f7bd c514 b43c 1a9d b23e 5fe6 d53e
00000290: 24f4 9d3e f718 883e ae80 b7bc fb9f 693d
000002a0: 2b07 d93e 7088 28be e144 5bbe 8dfe e5bd
000002b0: 2ad1 c13e ea29 f93c 86c9 8e3d fd42 e23e
000002c0: 7f3b adbe 89bc a5bd 0060 d23e ae98 ef3d
000002d0: 5904 d3be e975 45be 8e0a 33be 3acc d43e
000002e0: 3a71 39be f8f4 813e 9fcb f83d c55c 973e
000002f0: 5b04 373e 45cc 943b 59f7 cc3e 89f4 cf3e
00000300: e8c6 bf3e 241c 4e3e 1b63 853e e61f 7c3e
00000310: 7666 91be abc2 453d 06f9 cabe 6937 88be
00000320: 31b2 c5be b146 9dbe 0d16 683e d8ac 62be
00000330: 5758 b73e 1b7b d5bd 1169 e0bd cd18 3abc
00000340: b10a 8f3c a89c 2e3e 1a96 7d3e bbb2 a9be
00000350: 7147 2fbe 2558 9bbe 9cfa 943e f03b 533e
00000360: a1fa 2abe a1b4 6dbd 4090 8bbe e6d5 a13e
00000370: 82ac 9bbe 32e6 b63e 7d33 bcbe 2a63 4bbe
00000380: 81e4 63bd a310 2b3e 9881 c03e dfea 8abd
00000390: 49ee 1cbe 546c b63d 9804 533e 6d75 b13e
000003a0: 6959 cabe fc3a 64be 1cf4 f7bc 5495 b43d
000003b0: 7921 74bd b5c7 ca3e d26f d2be c344 d43d
000003c0: e930 c6be f452 25be ec99 c83e f045 0d3e
000003d0: 724c be3e de45 10be 5601 f3bd 9c56 bd3d
000003e0: 08e3 183e 9d85 0fbe 3610 d03e c989 313e
000003f0: d0fd ca3e 01ff 8c3e 3a0c 70be 4a66 593e
-0.32392138 0.15435949 -0.32724014 0.32105663 0.31839794 -0.3387337 0.16093071 -0.4155213
0.1364955 0.21868916 0.12099763 -0.16631784 -0.023616685 0.27978867 0.24912128 0.032323904
0.3398173 -0.44241783 -0.16808827 0.25087675 -0.10670842 0.019814204 -0.34783936 0.14428735
-0.31851262 -0.16769937 0.069995955 -0.39176014 -0.098368 0.32691827 0.13983303 0.14421801
0.37613073 -0.22540326 -0.29442647 -0.30673024 -0.18920411 -0.020434776 -0.035227016 0.16465054
-0.06250437 -0.23697582 -0.14055881 0.34812945 -0.41500148 0.41684312 -0.09250588 -0.13019806
-0.15178756 0.20983177 -0.3210986 0.3861818 0.090517715 -0.1008531 -0.11013758 0.25342187
-0.33837083 -0.38192597 0.30162466 0.043336328 -0.050436825 0.96746975 -0.36854365 -0.28224733
0.40634742 -0.28941193 0.22178149 -0.3898907 0.13759504 0.16299617 -0.14414856 0.2829354
-0.046882924 -0.05552944 0.15727407 -0.3533051 0.35132208 -0.56779635 0.10153143 -0.25271818
-0.10465475 0.059858862 0.32053217 -0.029065084 0.387546 -0.006638679 0.094943434 0.24261795
-0.34616736 0.31398195 0.012274763 0.21332537 -0.45916447 0.036751598 -0.3276188 -0.06673797
0.026293859 0.41763365 -0.3654771 -0.35003647 0.016932331 0.12842898 0.0108838435 0.24487936
0.01023272 -0.10730684 0.42278138 -0.28493854 -0.21900477 0.3215686 -0.4014028 0.197507
-0.42164266 0.3601066 -0.07404357 0.41028583 -0.16264921 -0.4259992 0.3273411 -0.15620415
-0.40502858 -0.029969193 -0.26793614 -0.3749007 -0.20605564 -0.12172443 0.08139507 -0.20973805
0.009791118 -0.2791473 -0.09157344 -0.31170514 0.37365374 -0.28389114 0.12875707 -0.07900478
-0.26573762 0.07287512 0.42500404 -0.122815706 -0.034615126 -0.20337845 -0.28254235 0.15602654
-0.2765234 -0.39359286 -0.23837118 0.26199737 -0.020797092 -0.13579513 -0.11731739 -0.33572754
0.03299944 0.14354864 -0.15870608 0.26205653 0.3823478 -0.2338338 -0.24004029 -0.06119753
-0.120802976 0.02198256 0.34885484 0.41777322 0.30850327 0.26581547 -0.022400226 0.057037335
0.4238828 -0.16458297 -0.21412994 -0.11230192 0.37854892 0.030415494 0.06972031 0.44191733
-0.33834454 -0.08092601 0.41088867 0.11699043 -0.41214254 -0.1928326 -0.17484495 0.41562063
-0.18109599 0.2538221 0.12148213 0.29562965 0.17872755 0.0045409524 0.4003246 0.40616253
0.3745644 0.20127922 0.26052174 0.24621543 -0.28398484 0.048281353 -0.39643115 -0.26604775
-0.38612512 -0.30717996 0.22664662 -0.22136247 0.35809585 -0.10423871 -0.1095754 -0.011358452
0.017461153 0.17051947 0.2476429 -0.33144173 -0.17117096 -0.30340686 0.2909745 0.20628333
-0.1669717 -0.05803359 -0.27258492 0.31608504 -0.3040505 0.357225 -0.36758032 -0.19862047
-0.05563784 0.16705565 0.37598872 -0.06783079 -0.15325274 0.08907381 0.20607221 0.346599
-0.3952134 -0.22288126 -0.030267768 0.088175446 -0.059602235 0.3960549 -0.41100937 0.10364678
-0.3870919 -0.16144925 0.39179933 0.1379621 0.37167698 -0.14089152 -0.11865489 0.09245035
0.14930356 -0.14015813 0.40637368 0.17337717 0.3964677 0.27538303 -0.23442164 0.21230426

encoder.2.bias f4 [16]
00000000: 0000 0000 59f8 0ebc 0000 0000 4948 52bc
00000010: 64f6 143d 007b 7d3e cd9a 203d 0000 0000
00000020: 4e20 77bb 0000 0000 0138 dc3c bd3b d839
00000030: a412 103d 0000 0000 cfad 1a3d 16ad 3b3c
0.0 -0.008726203 0.0 -0.012834617 0.03636779 0.24753952 0.03921013 0.0
-0.0037708464 0.0 0.026882173 0.0004124324 0.035174027 0.0 0.037763413 0.011454841

encoder.4.weight f4 [32, 16]
00000000: 7f1d 3ebd 3b59 743e d6c1 283e 05e3 c2bc
00000010: 6db2 9f3c 4e15 f73d 9100 ab3d 5b12 83be
00000020: eef9 753e dbf4 1abe b83f 4c3e f304 e93c
00000030: d37f abbd 7212 73be 075a 133e 7498 26be
00000040: f5b1 a13e 3d8a 983e f59b 3a3c 3019 953e
00000050: bfb0 13bd 3409 98be a211 1d3e a9c8 99be
00000060: 43ab a93d 77a2 a2be ff95 e4bd a3d1 a5be
00000070: 5904 c5be 05dd 89be 16cd 81be a5c5 cc3d
00000080: 7bd0 4d3e 69ae 1bbd 6eb2 42be abcb 99be
00000090: 1678 933e 4379 fb3e 8697 37bd 6a54 503e
000000a0: c284 e9bc 0ec7 a1be e884 76be c1a0 983e
000000b0: 1918 853e 3adf 7cbe 4931 0ebc b40e 4bbe
000000c0: a013 5abd 2977 e4bd c84b 78be 4bf6 513e
000000d0: a11e 053d b0bf 97bd 8e5c 373e f0a4 5a3d
000000e0: a6a9 80be 4c43 6e3d 504d 483e 941f 883e
000000f0: 2805 10be c76d d73d 0367 1c3e 8629 1cbe
00000100: 8d48 c0bd a192 9b3c c7bb adbe 939f 9fbe
00000110: a82b 1bbe 27d9 303e f727 9abe ee0c 9fbd
00000120: c9b9 903d 6094 193e c31a 89bc 38c0 02be
00000130: 3c63 523e c3a5 3d3e e479 52be 58ea a2be
00000140: 978f 47be b144 8c3e 9e06 2dbe 2a5e 963d
00000150: 0a87 82be d578 bd3e 7773 1d3d e88b 85be
00000160: c67f 21be 1e28 0fbe 2235 91be 0578 a0be
00000170: 52f0 a13c 3f3d aebd 9d11 38be 57c6 7f3e
00000180: ea58 dc3d a17d eebd da7d c8bd f579 dfbc
00000190: 1098 2d3e 9906 fdbb 6056 8e3e db3c 8b3d
000001a0: d6fe b8bd 54eb b6bd 2144 283d 8028 203e
000001b0: 7746 a43e d1a8 5abe a783 4d3e 82e3 87be
000001c0: 202b 00be 36b5 40bd 1413 abbd ff3d 983e
000001d0: 84a7 2b3c 3fe0 4cbe d4ad 4c3d c5b1 0dbe
000001e0: 6b56 4b3d 42f1 173e 1524 243e 8c8f 9f3e
000001f0: b8c0 4dbe e3e4 34be d570 21be 39d7 b83e
00000200: 699c 253e eb84 bcbe b59e 343e 155f 24be
00000210: 7ab2 a43e 7251 043f 161a 833e 41e2 58be
00000220: 8c3e 143e 2908 363e abd3 063e b8e3 17be
00000230: 4e21 b0be 9951 2ebe 870f 7bbe 5b38 5c3e
00000240: 5fd6 013e 2db1 763e f095 d9bd b225 843e
00000250: 1905 d2bc d18a 8abe 08d5 32be dedc 81be
00000260: 36bd 3e3e 4aac 95be 7c1a 813e 6e60 02be
00000270: 2d50 4a3e 9d25 a3be 4ac2 c53e 9a02 b03e
00000280: a700 153d 265e 1bbe 5ff3 cbbd 68f5 0a3e
00000290: 3dbc a1be a5fc 233e 26f3 9fbe 71f1 86be
000002a0: 9123 9a3e c043 903e ca37 74bc b963 e3bd
000002b0: 7e06 0abe 1ebb 9c3e 07da 5a3e 57b4 303c
000002c0: 65f1 8ebe eae1 10be dc20 803e 7e13 7a3d
000002d0: 0f01 bfbe 3c99 a73b 82e7 3e3d 131b 5a3e
000002e0: 2bc8 4ebe 50fa 55be ebdb 0ebe 285f 8bbd
000002f0: 2a15 0b3e cf44 44be adae a0be 1002 acbe
00000300: 0bba 12bd 7d57 acbe 4cd1 4bbe 0fbf 52be
00000310: 783c b33e 9b72 a03e 7db9 1a3d 20ef 003e
00000320: e43e 1d3d e9a8 74bd f5bb 8d3e 04a7 95bc
00000330: 6d59 3abe 7527 aebe 208c 863e 73c9 543e
00000340: d333 71be bc5f 04be 0679 98bd 07b2 403e
00000350: 7f15 abbe 17a4 013f c62a 193e 69f9 a4be
00000360: df23 a43c ed03 aa3c 4d71 353e 9243 f0bd
00000370: bb56 39be ee4d 8e3e e364 b6bd 9b8c 6cbd
00000380: c38a 003e f373 103c 0c81 153e 5d86 bebe
00000390: 13fa 8c3e e953 34bf 67ab 8fbe 321a 90be
000003a0: 93cc 6dbe 49ca b3bb 5270 533e 9f94 843e
000003b0: e1e4 823e c22e 22be b8ef 34be 63e9 8abe
000003c0: d2b7 1f3e ee92 09be 74d0 8e3e 3311 933d
000003d0: a9e9 483e 9579 1dbe e2d8 8bbd 9118 873e
000003e0: c7eb a4bd defb 9f3e 9661 263e ebae 953d
000003f0: bf80 5e3e 5958 8abe b401 663e a5cf 1b3e
-0.04641485 0.23862164 0.16480193 -0.023789892 0.01949426 0.120646104 0.083497174 -0.25599942
0.24021122 -0.15132467 0.19946182 0.028444743 -0.0837399 -0.23737505 0.14389811 -0.16269094
0.31581083 0.29792967 0.011389722 0.2912078 -0.03605723 -0.2969452 0.15338758 -0.30035904
0.08284619 -0.31764576 -0.11161422 -0.32386503 -0.3847988 -0.26926437 -0.2535178 0.09998635
0.2009906 -0.038008127 -0.19013378 -0.300382 0.28802556 0.49115953 -0.04482224 0.20344701
-0.028505687 -0.3159718 -0.24074137 0.29810145 0.25994948 -0.24694529 -0.008678743 -0.19829828
-0.053241372 -0.111555405 -0.24247658 0.2050411 0.032499913 -0.07409608 0.179064 0.053379953
-0.2512943 0.058169648 0.19560742 0.26586592 -0.14064467 0.10518985 0.15273671 -0.15250215
-0.09388838 0.018990817 -0.33932325 -0.31176433 -0.15153372 0.17270337 -0.30108616 -0.07766138
0.07066686 0.14998007 -0.016736394 -0.12768638 0.20545667 0.18520264 -0.2055431 -0.31819415
-0.19488369 0.27396157 -0.16897056 0.07342179 -0.25493652 0.3700625 0.038440194 -0.26083302
-0.15771398 -0.13980147 -0.2836085 -0.31341568 0.019767914 -0.085077755 -0.17975469 0.24978004
0.107591465 -0.116450556 -0.09789629 -0.027279833 0.16952538 -0.007721734 0.27800274 0.06798717
-0.09032981 -0.08931604 0.041080598 0.1564045 0.3208501 -0.21353461 0.20069753 -0.26540762
-0.12516451 -0.047047816 -0.08353248 0.297348 0.010476951 -0.20007418 0.049970463 -0.13837345
0.04964296 0.14838126 0.16029389 0.31164205 -0.20093048 -0.17665438 -0.15765698 0.36101702
0.16172947 -0.36820158 0.17638667 -0.16051896 0.32167417 0.51686776 0.2560584 -0.21180059
0.14476985 0.1777655 0.13166682 -0.14832962 -0.3440041 -0.17023315 -0.24517642 0.21505873
0.12679432 0.24091025 -0.106243014 0.2581001 -0.025637196 -0.27059034 -0.17464077 -0.2536382
0.18626866 -0.2923301 0.25215518 -0.12732098 0.19757147 -0.31864634 0.38624793 0.34376985
0.036377575 -0.15172634 -0.09958529 0.13570178 -0.31588927 0.16014345 -0.31240195 -0.2635608
0.3010526 0.2817669 -0.014905879 -0.11103005 -0.13479039 0.3061151 0.21372233 0.010785184
-0.27918544 -0.1414868 0.2502507 0.061053745 -0.37305495 0.0051147025 0.0466075 0.2129939
-0.20193546 -0.20896268 -0.1395108 -0.06805259 0.13582292 -0.19166873 -0.31383267 -0.33595324
-0.035821956 -0.33660498 -0.19904059 -0.20580696 0.35007071 0.31337437 0.03777455 0.12591219
0.038390055 -0.059731398 0.27682462 -0.018268116 -0.18198176 -0.34014478 0.26278782 0.20779972
-0.23554926 -0.12927145 -0.074449584 0.18817912 -0.33414838 0.50641006 0.14957723 -0.32221535
0.020036636 0.020753825 0.17719002 -0.11731638 -0.18099491 0.2779383 -0.08905961 -0.05775128
0.12552933 0.008816707 0.14600009 -0.37211886 0.2753454 -0.70440537 -0.28060457 -0.28144985
-0.2322257 -0.0054867608 0.20648316 0.2589464 0.25565246 -0.15838149 -0.1766957 -0.27131185
0.15597466 -0.13434955 0.27893412 0.07181015 0.19620384 -0.15378411 -0.068284765 0.2638593
-0.080527835 0.31246847 0.16248164 0.073087536 0.217288 -0.2702053 0.22461587 0.15215929

encoder.4.bias f4 [32]
00000000: 1826 de3c 2759 1fbd bd10 093d 188f f9bc
00000010: 91ff c1bc 8ba3 73bc 02bd e93c 4ebd 0b3d
00000020: dbae 87bc 212c 243d 5604 10bd 317a 26bd
00000030: fa1c 563c 1e19 febc c1ec 2cbc 66a1 f9bc
00000040: 5408 1abd bda9 94bc e6ac 163c d406 15bd
00000050: 7268 a6bc 371a 353d 71b3 e53c 128e 03bd
00000060: 8c6e d63c c537 283a 95e8 1c3d 57a3 3e3d
00000070: 7189 f7bc 4621 143d 155c f9bc 3694 9d3c
0.027117774 -0.03890338 0.03346323 -0.03046374 -0.023681434 -0.014870535 0.028532509 0.034116082
-0.01656287 0.040081147 -0.035160385 -0.040643875 0.013068432 -0.031017836 -0.010554493 -0.030472469
-0.0376056 -0.018147344 0.009196496 -0.036383465 -0.020313475 0.044214454 0.028039666 -0.03211791
0.02617576 0.0006417002 0.038307745 0.04654249 -0.030216904 0.036164545 -0.030439416 0.019235712

nee_decoder.0.weight f4 [16, 32]
00000000: 4880 e43d ca61 023d 90e1 a0be 8a58 87be
00000010: ac27 05be f8e7 e7bc 1064 63be 982a eb3d
00000020: 6503 653e 9207 8d3d 15ba 143e b590 913d
00000030: c851 5c3e 3217 4e3e 2d8e 40be 6334 f83b
00000040: 3893 073e eafe 463e 1943 f9bd 337e b53e
00000050: 38c8 00be ab0e 183e 83b2 5bbd 0dca 56be
00000060: 1b19 ad3e 7b29 283e c929 a9bd 7368 1cbe
00000070: 3914 96be 884e 183e fed7 883d 1e87 1dbe
00000080: 5e76 62ba cef2 52be 0b9f 9dbd 5c9a 4abe
00000090: 1300 a83e 89f6 8d3e 49c6 983c e286 6b3d
000000a0: fb6d 763d 07f1 83be e202 26be 918d aabe
000000b0: 57a0 863e ecca 31be 5cc6 423e cdab a1bd
000000c0: def1 583e e56b 893e 5cd9 6ebe 28c9 18be
000000d0: b630 b2be 4cf0 eb3d 7923 203c e1dd a9be
000000e0: be3f 57be a52d bc3d 3924 bcbc b4e3 a73e
000000f0: c33d 94be 4d70 f4bd 44a9 ad3e 0e68 a73e
00000100: 463c 913e 77d7 813e a215 963e 8e94 2e3d
00000110: 8435 15be 1b76 493e a4aa 333e ac8c a53e
00000120: 3734 a83e c156 07be 8862 623e 48c5 483e
00000130: 3cea 693e 3dc0 20bc 211c 713d 8a38 adbe
00000140: 8763 e3bd 551a aebd 9d6f 2dbe 28d2 54be
00000150: 2930 fa3d 12ca 913b 85bc 9e3e eb36 a0be
00000160: b718 8a3d 5f61 a83e fb73 9c3e ce11 94bd
00000170: f374 bbbe 657a ee3d 9a1c 05be 77c6 a63e
00000180: 60d0 fd3c f909 13be 63b7 a33e 4f3d ebbd
00000190: 8663 933e 2f14 60be c5c0 ac3e ccdb b0be
000001a0: 13c6 953e 50e9 123e a8fc 8c3d 179a ecbd
000001b0: 2cd0 173e 7bc4 9cbe c26e a53e 04c3 32be
000001c0: c49b 513b ce19 ae3e 2d40 0c3e 5cc0 933e
000001d0: a5f8 b1be 002e 893d 710a 3cbc deb8 e8bd
000001e0: 2092 4f3e 1eac a43e 58a6 98be 9c3b 84be
000001f0: 53c7 133d 9161 02be 7efb 8ebd dd61 3fbe
00000200: ad6d 7bbd 4249 253e 3a72 013e eb70 023e
00000210: c233 8ebd 93d3 903e de28 b0be 9a76 3c3d
00000220: 0ac0 1bbe bb00 983e 6e80 723e 56f2 c23d
00000230: fa98 fd3d 003f 50be 563a 4abd 6b10 22be
00000240: 63af c1bb 7b3c 13be 9d4a 26be 4f04 11be
00000250: 3864 d93d d07a 973e 408f 3ebd d6a1 6cbc
00000260: e387 95be 3d17 bfbd a275 a6bd aad7 38be
00000270: 20f3 113e 6f66 063e 47e8 6b3e f1ed 0fbe
00000280: 0bb2 99be ffb3 edbd cfa6 3e3c bd8b 05be
00000290: 1d50 8dbd acdc 8f3e b3c4 adbe 4e57 9cbc
000002a0: 720e b33e b8e3 27be d9ad 053e 394f 43be
000002b0: 7bb4 2ebe 0b07 a7be 3281 a23e 83db 5fbe
000002c0: 9016 cebc 5409 a13e dd4e dbbc 02ba 623e
000002d0: a44b 6d3e 6b1e 963e 1882 a6be c5f4 9e3e
000002e0: 471d dbbd bb80 8fbe e2d2 4e3e b1b8 abbe
000002f0: 1ea9 51bc 0995 91bd b988 ad3e 4c7f 21bd
00000300: b704 14be b51c 313e 4588 72be 85fd b33e
00000310: 3665 903e cf37 72be 2678 9a3d 38d5 3fbe
00000320: 6b91 873d 4f58 913e bd7d 6abe 2a4a 66be
00000330: ab21 97be fadd 703d cc3c 263d 93b7 b53d
00000340: c364 903e b882 44be e2d4 7fbe 6478 953e
00000350: ab0a ac3e 4542 833e 1504 a53c 2e2d 17be
00000360: 347c 553e 2b8b 1dbc ddd9 623d c8da 8fbe
00000370: 6043 aa3e 42ed a9be 48ca 9f3e 0270 653e
00000380: 37ae 43bd d567 b9be 93eb afbd dc0b 4ebd
00000390: bea9 553e cee2 823e 1ad3 7a3e 8aec 1ebe
000003a0: c8ce a73e 3c8a 7bbd bb8c 79bc 83cf 30bd
000003b0: f230 b73e 5bc0 703e 6d5d ee3d 35a1 c4bd
000003c0: bd62 0fbe dbba b63d 3953 b33d d77e 883e
000003d0: baff 3dbe 7423 6bbd cacb 41be c1f3 a6bd
000003e0: 0de4 75bd 760a 973e ce78 453e ed04 46be
000003f0: cbe8 13bd 65ea 153e 2b5a 71be 9d10 0dbe
0.1115728 0.03183154 -0.3142209 -0.26434737 -0.13003415 -0.028308854 -0.2220614 0.114827335
0.22364576 0.068862095 0.1452411 0.07107679 0.21515572 0.20126036 -0.18804236 0.0075746044
0.13239753 0.1943318 -0.12171001 0.35447845 -0.12576377 0.14849345 -0.05363704 -0.20975514
0.33808216 0.16422074 -0.08259923 -0.15274219 -0.29312304 0.14873707 0.06681822 -0.15383574
-0.0008638854 -0.20600435 -0.07696351 -0.19785446 0.32812557 0.27727154 0.018649237 0.05750168
0.06016348 -0.25769827 -0.16212037 -0.33311132 0.26294205 -0.17362565 0.1902098 -0.078940965
0.21186015 0.2684013 -0.23325104 -0.14920485 -0.34802788 0.11520442 0.009774082 -0.33177093
-0.2102041 0.091883935 -0.022966491 0.3279091 -0.2895337 -0.11935482 0.33918202 0.32696575
0.28366297 0.253597 0.2931338 0.04262214 -0.14571196 0.1967396 0.17545563 0.32333887
0.32852337 -0.13216688 0.22107899 0.19606507 0.2284326 -0.009811458 0.058864716 -0.33832198
-0.11102968 -0.08501116 -0.16937108 -0.20783293 0.12216217 0.0044491375 0.31003204 -0.312919
0.06742995 0.32886788 0.30557236 -0.072299585 -0.36612663 0.11644439 -0.12999192 0.32573292
0.03098315 -0.14359273 0.3197585 -0.11486303 0.28786868 -0.218827 0.3374082 -0.34542692
0.2925268 0.14346814 0.06884128 -0.11552828 0.14825505 -0.30618653 0.32311064 -0.17457205
0.0031983713 0.34004062 0.13696356 0.28857696 -0.34760013 0.06698227 -0.011477099 -0.113633856
0.20270586 0.32162565 -0.2981441 -0.25826728 0.036078762 -0.12732531 -0.06981562 -0.18689676
-0.06138389 0.16141227 0.1264123 0.12738387 -0.06943466 0.28286418 -0.3440618 0.046011545
-0.15209976 0.29688057 0.23681805 0.09518878 0.123826936 -0.20336533 -0.04937204 -0.15826575
-0.0059108003 -0.1437854 -0.162394 -0.141618 0.10614818 0.29585886 -0.046523333 -0.014442882
-0.29205236 -0.09330604 -0.081279054 -0.1805102 0.14252901 0.13125013 0.23037826 -0.14055611
-0.30018649 -0.11606597 0.01163645 -0.13041587 -0.06900046 0.28098047 -0.33939132 -0.019084599
0.34971958 -0.16395462 0.13054599 -0.1907319 -0.17061035 -0.3262256 0.31739193 -0.21861081
-0.025157243 0.3145243 -0.026771003 0.22141269 0.23173386 0.29320082 -0.3252113 0.3104612
-0.106989436 -0.280279 0.20197633 -0.33539346 -0.012796668 -0.07108504 0.33893374 -0.03942804
-0.14454924 0.17296107 -0.23684795 0.35154358 0.28202218 -0.23654102 0.07542448 -0.1873368
0.06619533 0.28387687 -0.22899528 -0.22489229 -0.29517874 0.058805443 0.040585324 0.08872905
0.28201875 -0.1919049 -0.24983552 0.29193413 0.3360189 0.25636497 0.020143548 -0.14763328
0.20848161 -0.0096157 0.055383552 -0.28096604 0.33254528 -0.33188826 0.31209016 0.22406009
-0.047773566 -0.3621203 -0.08589854 -0.05030428 0.20865533 0.25563663 0.24494591 -0.1551992
0.3277495 -0.061411127 -0.015231307 -0.04316665 0.3577953 0.23510878 0.11638913 -0.0960106
-0.1400251 0.089223586 0.08756108 0.2665927 -0.18554583 -0.057406858 -0.18925396 -0.08151961
-0.06003194 0.2950017 0.19284365 -0.19337817 -0.03611068 0.14640196 -0.23569553 -0.13775869

nee_decoder.0.bias f4 [16]
00000000: 91a0 e23c 6814 84bc e846 813d 1334 f23b
00000010: 0000 0000 0000 0000 528a 063c b3a5 793d
00000020: 872e a43d 0b42 b73d 22f0 0bbc c7ea 55bc
00000030: 7093 7d3d f661 55bd 0000 0000 81ee 023c
0.027664455 -0.016123012 0.063123524 0.0073914616 0.0 0.0 0.008211689 0.06094904
0.08016687 0.089481436 -0.008541139 -0.013056464 0.061908185 -0.052095376 0.0 0.007991434

nee_decoder.2.weight f4 [16, 16]
00000000: 1738 913e e4e2 93be 9817 3dbe d103 7c3e
00000010: 2c2d 403d a3fe d73e 6751 63be 37a2 4fbe
00000020: 3e51 4e3e 3fc7 7d3e 1fac 613d 7394 0c3e
00000030: 068f fb3e 55cd 70be cafb b1be 4995 8abe
00000040: 7541 bd3e 5e4b 7d3e 1507 1d3f 55e0 3ebe
00000050: d827 8c3e b7f3 7dbd dbb5 333e 144a 8fbe
00000060: 54ab 71be 182c dd3e 77a4 64bd 98a5 b83e
00000070: 3b16 953e 401d ed3b 895e 2e3e d85c 8b3d
00000080: 2640 82be 7068 acbe 25d5 babe 8208 2dbe
00000090: ba2b 963e a624 92be 5db3 c8bd 1c56 29be
000000a0: 1a0a 07be d21c 98be 9357 89be 34fa 1e3d
000000b0: 3a2f d3bc d577 ca3e 587a 8f3e 157a 513e
000000c0: 3be4 113e c09a 0d3d 0ba4 1c3e 09f9 9e3e
000000d0: d71c acbe c7c7 82be 578d 183d 1180 a43e
000000e0: 1556 ce3e beaa a4bd 0353 643e 2d13 4cbe
000000f0: 04b7 c4bd a438 ddbe 2a5f 66be efb5 5a3e
00000100: b4a9 c8bd 1d28 46be 89b8 d9be b5f8 2a3d
00000110: 6762 b33e 8624 c0be 7b2e 263e 3a84 933d
00000120: f788 d13c 8a88 85bd f3b2 08bd a718 d03e
00000130: 34e6 c9be e21b f0bd 36ea eabd 2077 1abe
00000140: 670b 8fbe 695c ccbe 8d1f 913e 08c1 5f3e
00000150: d353 d9be 6d41 b43e 6f6e 02be 6fbb e4be
00000160: 3e41 b63e 7d6c c7be 5c86 09be 0b72 9f3d
00000170: a0ad 203e ccf1 31be 673d aa3d ccea 863d
00000180: 0c0d edbe c66d 7bbe 3a1e 243e 4953 ba3e
00000190: 72c3 e8bd b563 773e 7e91 c8be 6faf 09bc
000001a0: eb79 44be 5594 22bc 6cf2 9e3e ade0 cb3e
000001b0: 31be 0f3e 8726 9bbc 69c8 bd3e c2a3 9bbd
000001c0: ca2a 4ebc baae c93d e937 183e b642 e7bc
000001d0: 3d66 c9be f9f0 0f3e 9193 573e 8a12 c53e
000001e0: 6715 793e b045 113e 685e c2be 0094 bc3e
000001f0: 2c0d f03d 0a1e c8be 6e67 1a3e 1ba8 10bf
00000200: 4bcb 4bbe b076 d13e a085 563e ac03 d03e
00000210: 0dcd 84be 28db c33e 4678 bfbe 47e0 913e
00000220: 39ea e6bd de5d 1e3e bd63 963e 01a1 45be
00000230: 4a06 e93e 9681 95be d8a3 8e3e 0793 93be
00000240: 733d 8ebe 7ae4 7e3e c16d eebd 6084 be3d
00000250: a7d4 d63e 870d 01be 48d7 6d3e a6e7 cfbe
00000260: bbd1 c03e 05fd 843e 4f25 76be c504 583e
00000270: a77b 283e b5b5 c53e d15d 953e 59f0 883e
00000280: 19c8 97be aff1 ea3d 4635 aebe 5fca a03e
00000290: 80bc a43e 137d 40be cb30 33bd 4ae3 b0bc
000002a0: 3e0f 0d3e 00f4 be3e 3b55 53bd 73d8 d23e
000002b0: 810a 9abe 276e 20be c13c 093d acc5 d7bd
000002c0: 2971 aebd e8cd 413d dfc8 cfbe 1cb6 7ebe
000002d0: a675 b6bd f198 9a3e 41f7 033e e054 773e
000002e0: d91b 9b3e 602c 16be 0eb4 263e 0f83 3fbe
000002f0: 1bbb 9cbe a6e2 ed3d 8641 f4bd 9406 d7be
00000300: 17c2 97be 5f09 aabe 6aea 263c c79d 953e
00000310: 9bd9 7cbd 63c6 843e 397d 7abe 5792 f0bd
00000320: 43b0 843e 1ac5 6e3e 08d4 89be 942b f2bd
00000330: 47fa 023e 0d54 2dbd 6d4f 933e 70f9 0b3d
00000340: 22ec bdbe ab7d 7e3e e6f5 993c 3666 ab3e
00000350: 08b4 83be ec8b e0bd e45d c13e af5d be3d
00000360: 4527 5cbe 3e86 343e d539 d9be a492 84be
00000370: 79b5 b9be b211 99be 0764 1c3e 75a8 913d
00000380: 29f0 cebe 749a 26bd e8fb 92be e748 b73e
00000390: e19f 073e 03e8 babc b10c 3a3e 7560 c0bd
000003a0: 857d 64be 6b1f 30be c675 88be c53a 233e
000003b0: fec8 553e b154 0c3e c257 92be 0fc8 1ebc
000003c0: 8178 ac3e a387 903e c5fe d33e ae9d 403e
000003d0: 69c0 cfbe 7b24 953e b797 d43b 5faa dc3e
000003e0: 0df4 a83e c1d6 653d ef88 d0be 8683 b93d
000003f0: 1f6f 563e 8515 aa3c cff4 823e 455e 753e
0.28363106 -0.2888404 -0.18466032 0.24610831 0.04691808 0.4218646 -0.22199021 -0.20276724
0.20148179 0.24783038 0.055095788 0.13728504 0.49132556 -0.23515828 -0.34762412 -0.2706702
0.36964002 0.24735782 0.6133893 -0.18640263 0.27374148 -0.062000003 0.17549841 -0.27986205
-0.23600513 0.43197703 -0.05582091 0.36063838 0.29118523 0.007236153 0.1702825 0.06804818
-0.25439566 -0.3367343 -0.3649074 -0.16897777 0.29330236 -0.28543586 -0.09799836 -0.16536754
-0.13187447 -0.29709488 -0.26824626 0.03881283 -0.025779355 0.3954455 0.28023028 0.20456727
0.1424722 0.03457141 0.15296952 0.31049374 -0.33615753 -0.25543043 0.037244167 0.32128957
0.4030005 -0.08040379 0.22297291 -0.1992919 -0.0960522 -0.43207276 -0.2249724 0.21358465
-0.09797993 -0.1935124 -0.42523602 0.04174109 0.35036013 -0.37527865 0.16228668 0.072029546
0.025578005 -0.065201834 -0.033373784 0.40643808 -0.39433444 -0.11724068 -0.114704534 -0.15084505
-0.27938387 -0.39914253 0.28344384 0.2185098 -0.42446765 0.35206166 -0.1273744 -0.4467425
0.3559665 -0.38949957 -0.1343016 0.07785424 0.15691233 -0.17377394 0.08312493 0.06587753
-0.46299016 -0.24553594 0.16027156 0.36391667 -0.11365403 0.24159129 -0.39173502 -0.008403643
-0.19187133 -0.00992306 0.31044328 0.39819852 0.14037396 -0.01893927 0.37066963 -0.07599594
-0.012583444 0.098477796 0.14865078 -0.028230052 -0.39335814 0.14056768 0.21052386 0.38490707
0.2432457 0.1418674 -0.3796265 0.36831665 0.11721262 -0.39085418 0.15078518 -0.5650651
-0.19901769 0.40910864 0.20949411 0.406278 -0.2593769 0.3825314 -0.3739645 0.28491423
-0.11275143 0.15465495 0.2937297 -0.192997 0.4551261 -0.2920043 0.27859378 -0.2882311
-0.27781257 0.24891844 -0.11642028 0.09302592 0.41959116 -0.12602817 0.23226655 -0.4060642
0.37660012 0.2597429 -0.2403767 0.2109557 0.1645342 0.38615194 0.2917314 0.2674587
-0.2964485 0.11471879 -0.3402502 0.31404397 0.32175064 -0.18797712 -0.043747704 -0.021592755
0.13775346 0.37295532 -0.051594954 0.41180763 -0.3008614 -0.1566702 0.033505205 -0.1053575
-0.08517677 0.047315508 -0.4058294 -0.24874157 -0.089091584 0.3019481 0.12887289 0.24153471
0.30294684 -0.14665365 0.16279623 -0.18702339 -0.306115 0.116154954 -0.1192656 -0.41997206
-0.29640266 -0.33210275 0.010187725 0.29221937 -0.061730962 0.25932607 -0.24461831 -0.11746662
0.25915727 0.23317376 -0.2691958 -0.11824718 0.12790786 -0.042316485 0.28771535 0.03417343
-0.37094218 0.24852626 0.018794011 0.33476418 -0.2572329 -0.10964188 0.37766945 0.092952125
-0.21499355 0.17629334 -0.42426935 -0.25893128 -0.36271265 -0.29896313 0.15272532 0.07112209
-0.40417603 -0.04067464 -0.28707814 0.35797808 0.13244583 -0.02281571 0.18168904 -0.09393398
-0.22313507 -0.17199485 -0.26652354 0.15940388 0.20877454 0.13704182 -0.2858258 -0.009691252
0.33685687 0.28228483 0.4140531 0.1881015 -0.40576485 0.29129395 0.0064878124 0.43098733
0.32998696 0.05611301 -0.40729472 0.09058289 0.20940827 0.020762214 0.255774 0.23961742

nee_decoder.2.bias f4 [16]
00000000: 461d 9f3d fa5c 4f3e 7728 f6bb 7286 77bd
00000010: 0000 0000 779b f6bc d566 85bd 0537 953d
00000020: 697d 15bc e5ed 9fbd 54ee 9dbd 83ad 4abd
00000030: cadf 9e3d 0000 0000 4e52 0bbc 7521 a03d
0.07769255 0.20250311 -0.007512148 -0.06043095 0.0 -0.030103428 -0.06513754 0.07285885
-0.009124138 -0.07809047 -0.07711473 -0.04948188 0.07757528 0.0 -0.00850351 0.078188814

nee_decoder.4.weight f4 [1, 16]
00000000: 595d f63e b5d1 a33e 6aa9 f5be 6fab 4dbe
00000010: 5b01 e2bd 7311 bc3e 596c 00bf ef2b f63e
00000020: ac0b 313f 3bc3 9ebe f609 1bbf 6d3c e2be
00000030: 2a3f aa3e 4b3a b13e 92a3 f8be 9665 f33e
0.48118094 0.3199593 -0.47980815 -0.20084928 -0.11035415 0.36732063 -0.50165325 0.48080394
0.69158435 -0.31008324 -0.60562074 -0.44186726 0.33251315 0.34614787 -0.48562294 0.4753844

fc_mu.0.weight f4 [4, 32]
00000000: a1f5 babd 56bb 8b3e f15c 443e 5a95 cf3e
00000010: 47e8 8ebe fd12 833e cee2 a5bc 24cc 973e
00000020: 61b3 1e3e 6397 b8be e539 9e3e b6f2 193d
00000030: 3e64 47be f01e 493e e6d4 613e c214 68be
00000040: cea9 3c3e c83d 2a3e a8d0 a53e ecb2 14be
00000050: 58ce b03e 3ff8 953e 2924 9bbe ba01 35be
00000060: 8dcf a63e 0758 873e 935b 723e 000e 62be
00000070: 0b9a 3d3e 33c4 093e e10d dcbd 43df bdbe
00000080: 0112 883e 2aec a53d 932a 8a3d 6d35 eb3d
00000090: 25e5 8cbe b885 6abe 94fb 653e 4fe0 eabe
000000a0: e4c8 edbe 83ee 9fbe 42ab 82bd 1093 e63d
000000b0: 6f8f 6a3e 2dae 9e3e e735 b5be f6bd 18be
000000c0: 28a6 49bc 3eb9 61be 6898 c4be 1f30 993e
000000d0: 49c9 09be a5c5 32be 71f5 39be a791 263e
000000e0: edd1 ae3b 6410 51be dcd9 47be 9b01 c0be
000000f0: ce97 22be 9a04 8a3e 38a0 3bbd a7cc f3bd
00000100: 2905 f4bd f9c9 293e b22f f8bd f2ef a03e
00000110: 5575 1f3e c948 483e 8e8e c23e e8b5 783e
00000120: 126b 07be ec89 74be 2b30 b2be 0ff2 a43e
00000130: f117 b4bd 9f2f 7abe 8e64 633e 310e 8ebd
00000140: 884f 8fbe a9bf 92be 097b 74be 3bfe c63e
00000150: f878 943d 1fd1 433e 3a2c f2bd bba5 3bbd
00000160: fe67 813e 856c c43e 9c7f 74be 5796 f5bd
00000170: ee31 72bd adec aa3e a2cb 353e 6912 913e
00000180: 11c9 793e d87b 8abe 7aad 8a3d a503 83be
00000190: ea96 03bd 7c73 bf3d 4e46 4ebc 15fe 49be
000001a0: ad63 d03e c576 cdbe b85e a0be e0b1 073e
000001b0: 05b4 34be 320e bc3d 6140 703e 84b0 853e
000001c0: 0579 92be a22c 303e 6590 7a3e 0733 b83d
000001d0: 1907 97be 8f3d b83e fd0c 86be 8629 cebe
000001e0: 6c88 473e 3ada 4b3e 6a23 453e f6d7 40be
000001f0: 7fae ab3e 33b1 9dbe da69 973c e428 3abe
-0.09128881 0.27291363 0.1917608 0.40543634 -0.2791159 0.25600424 -0.02024975 0.29647934
0.15498115 -0.36053 0.30903545 0.037584983 -0.19471833 0.19640708 0.2205387 -0.22664168
0.1842415 0.1662513 0.32385755 -0.14521378 0.34532428 0.2929096 -0.30301026 -0.1767644
0.32580224 0.26434347 0.23667745 -0.22075653 0.18515794 0.1345375 -0.10744835 -0.37084398
0.26576236 0.08101685 0.06746402 0.114847995 -0.27518573 -0.22902572 0.2245925 -0.4587426
-0.4644233 -0.31236658 -0.06380321 0.11258519 0.22906278 0.3099226 -0.35392687 -0.14916214
-0.012307681 -0.2204332 -0.38397527 0.29919526 -0.1345569 -0.17458208 -0.18160035 0.162665
0.0053350837 -0.20416409 -0.195167 -0.37501225 -0.15878221 0.26956636 -0.045807093 -0.11904269
-0.11915047 0.16580953 -0.12118472 0.31433064 0.15572102 0.19559015 0.37999386 0.24288142
-0.13224438 -0.23880738 -0.34802374 0.32215926 -0.08793629 -0.24432229 0.22206327 -0.069363005
-0.27990365 -0.2866185 -0.23875059 0.38865837 0.072496355 0.19122742 -0.11824842 -0.04581235
0.25274652 0.38364044 -0.23876804 -0.11991566 -0.059129648 0.33383694 0.17753461 0.28334358
0.24393107 -0.2704761 0.06771369 -0.25588718 -0.032126345 0.09348199 -0.012590004 -0.19725831
0.40701047 -0.40129676 -0.31322265 0.13251448 -0.17646797 0.09182395 0.23462059 0.26111233
-0.28607956 0.17204526 0.24469145 0.08994108 -0.29497603 0.35984465 -0.26181784 -0.40266055
0.19485635 0.19907466 0.1925179 -0.18832383 0.33531567 -0.30799255 0.018483091 -0.18179661

fc_mu.0.bias f4 [4]
00000000: 0000 0000 5e19 babd 8534 76bc 0000 0000
0.0 -0.0908687 -0.01502717 0.0

fc_mu.2.weight f4 [1, 4]
00000000: 09e3 4bbf 4cb2 b23c fe02 943e f139 21be
-0.79643303 0.021813534 0.28908533 -0.15744759

fc_logvar.0.weight f4 [4, 32]
00000000: a1f5 babd 56bb 8b3e f15c 443e 5a95 cf3e
00000010: 47e8 8ebe fd12 833e cee2 a5bc 24cc 973e
00000020: 61b3 1e3e 6397 b8be e539 9e3e b6f2 193d
00000030: 3e64 47be f01e 493e e6d4 613e c214 68be
00000040: cea9 3c3e c83d 2a3e a8d0 a53e ecb2 14be
00000050: 58ce b03e 3ff8 953e 2924 9bbe ba01 35be
00000060: 8dcf a63e 0758 873e 935b 723e 000e 62be
00000070: 0b9a 3d3e 33c4 093e e10d dcbd 43df bdbe
00000080: 0112 883e 2aec a53d 932a 8a3d 6d35 eb3d
00000090: 25e5 8cbe b885 6abe 94fb 653e 4fe0 eabe
000000a0: e4c8 edbe 83ee 9fbe 42ab 82bd 1093 e63d
000000b0: 6f8f 6a3e 2dae 9e3e e735 b5be f6bd 18be
000000c0: 28a6 49bc 3eb9 61be 6898 c4be 1f30 993e
000000d0: 49c9 09be a5c5 32be 71f5 39be a791 263e
000000e0: edd1 ae3b 6410 51be dcd9 47be 9b01 c0be
000000f0: ce97 22be 9a04 8a3e 38a0 3bbd a7cc f3bd
00000100: 2905 f4bd f9c9 293e b22f f8bd f2ef a03e
00000110: 5575 1f3e c948 483e 8e8e c23e e8b5 783e
00000120: 126b 07be ec89 74be 2b30 b2be 0ff2 a43e
00000130: f117 b4bd 9f2f 7abe 8e64 633e 310e 8ebd
00000140: 884f 8fbe a9bf 92be 097b 74be 3bfe c63e
00000150: f878 943d 1fd1 433e 3a2c f2bd bba5 3bbd
00000160: fe67 813e 856c c43e 9c7f 74be 5796 f5bd
00000170: ee31 72bd adec aa3e a2cb 353e 6912 913e
00000180: 11c9 793e d87b 8abe 7aad 8a3d a503 83be
00000190: ea96 03bd 7c73 bf3d 4e46 4ebc 15fe 49be
000001a0: ad63 d03e c576 cdbe b85e a0be e0b1 073e
000001b0: 05b4 34be 320e bc3d 6140 703e 84b0 853e
000001c0: 0579 92be a22c 303e 6590 7a3e 0733 b83d
000001d0: 1907 97be 8f3d b83e fd0c 86be 8629 cebe
000001e0: 6c88 473e 3ada 4b3e 6a23 453e f6d7 40be
000001f0: 7fae ab3e 33b1 9dbe da69 973c e428 3abe
-0.09128881 0.27291363 0.1917608 0.40543634 -0.2791159 0.25600424 -0.02024975 0.29647934
0.15498115 -0.36053 0.30903545 0.037584983 -0.19471833 0.19640708 0.2205387 -0.22664168
0.1842415 0.1662513 0.32385755 -0.14521378 0.34532428 0.2929096 -0.30301026 -0.1767644
0.32580224 0.26434347 0.23667745 -0.22075653 0.18515794 0.1345375 -0.10744835 -0.37084398
0.26576236 0.08101685 0.06746402 0.114847995 -0.27518573 -0.22902572 0.2245925 -0.4587426
-0.4644233 -0.31236658 -0.06380321 0.11258519 0.22906278 0.3099226 -0.35392687 -0.14916214
-0.012307681 -0.2204332 -0.38397527 0.29919526 -0.1345569 -0.17458208 -0.18160035 0.162665
0.0053350837 -0.20416409 -0.195167 -0.37501225 -0.15878221 0.26956636 -0.045807093 -0.11904269
-0.11915047 0.16580953 -0.12118472 0.31433064 0.15572102 0.19559015 0.37999386 0.24288142
-0.13224438 -0.23880738 -0.34802374 0.32215926 -0.08793629 -0.24432229 0.22206327 -0.069363005
-0.27990365 -0.2866185 -0.23875059 0.38865837 0.072496355 0.19122742 -0.11824842 -0.04581235
0.25274652 0.38364044 -0.23876804 -0.11991566 -0.059129648 0.33383694 0.17753461 0.28334358
0.24393107 -0.2704761 0.06771369 -0.25588718 -0.032126345 0.09348199 -0.012590004 -0.19725831
0.40701047 -0.40129676 -0.31322265 0.13251448 -0.17646797 0.09182395 0.23462059 0.26111233
-0.28607956 0.17204526 0.24469145 0.08994108 -0.29497603 0.35984465 -0.26181784 -0.40266055
0.19485635 0.19907466 0.1925179 -0.18832383 0.33531567 -0.30799255 0.018483091 -0.18179661

fc_logvar.0.bias f4 [4]
00000000: 0000 0000 5e19 babd 8534 76bc 0000 0000
0.0 -0.0908687 -0.01502717 0.0

fc_logvar.2.weight f4 [1, 4]
00000000: aee3 2cbd aee8 9fbe a261 203f d4cf 0abd
-0.04220932 -0.31232208 0.62648976 -0.033889607

temp_derivative_decoder.0.weight f4 [16, 32]
00000000: ce7b a93c 974b ae3e 1c9a a43e 3b30 8cbc
00000010: 9304 46be e5a3 b43e 970d 78be 2968 94bd
00000020: 6133 06be b297 573e 506c 7ebc a362 4bbe
00000030: 247f 323e 0ad0 713e e7a3 123e f49f c7bd
00000040: 3515 babd 823c a43e a39a 00be 2964 afbe
00000050: 1cf8 a13e 22fb 463e 848a 5dbe 5db9 e93d
00000060: 8fea e83d 3d7a 953e 5e38 9c3d 6ba9 28be
00000070: 350f 5abe 8c69 7a3e 9498 2dbe d767 a6be
00000080: 7ead 88bd 35bd ba3d 31a5 98bc 3d00 4b3d
00000090: 7bef a9bd 2a5c 493e 2c11 b93d 29e8 073e
000000a0: 4c91 433c a09d 773e bf87 733e 97fe 1dbe
000000b0: 6580 78be 6ce5 00bb a0b5 823e d10b b23d
000000c0: 03f9 823e d014 99bd f1f3 afbd 6094 b23d
000000d0: 4633 98bd 3cb5 68be 4a30 0c3e d798 14be
000000e0: 9acd 43be 6ac2 39be effa 633e 9dbb 4fbe
000000f0: ba57 20be 5e93 87be a1ae 03be 30f9 b6be
00000100: 75fc 353e 495f 71be b546 843e c7ea 1d3d
00000110: e747 943e 9139 22be e1ba 98be 6493 aa3e
00000120: 7fc2 853e 6c4d a83e 230d 8c3d cf5b 6dbd
00000130: 00f1 013e e44b a33e e198 6d3d 2bb9 91be
00000140: 0a59 b1be 3aa3 a1be 30d9 9cbe f23d 3ebe
00000150: 690d 5f3e b341 93be 0fee 52be 1b0f b93e
00000160: b681 553e 9c5f 5f3e 1dee 843e 5676 d23d
00000170: 56c2 d43d 07d9 16bd 05e2 143e a9e8 2f3e
00000180: 79d3 90be c02c 5e3e c7cf 57bd 22a9 0a3e
00000190: 57a3 123c 6a30 003d 1bf9 433e 29f7 b4be
000001a0: 21a1 b0be 9267 913e e8aa 2ebc 09c5 51be
000001b0: abdf ea3d eb43 b6be ebc4 70bd 6b70 0fbe
000001c0: 8a65 cebd f9de 71bc d1af 403e 7bd7 2b3e
000001d0: 36a0 bcbd c2c9 c3bc b7e2 83be 1004 6abd
000001e0: b103 083d d408 d73d 2a69 c43b ccd1 663d
000001f0: 0cdf c7bd d878 b3be 69d3 4cbc 4d66 babe
00000200: 6b31 e3ba 6e11 983e 7098 1e3e 8b1b 9e3e
00000210: ca4e ad3e a256 19bc 05ee a6be a530 5e3e
00000220: 16f1 803e d044 af3e f7ab a8be 05be e3bd
00000230: 5351 2ebe 3971 b03e 1178 acbe cc75 2e3e
00000240: 038d 133e c830 bbbd e270 83be f079 463d
00000250: a16a 66be bcb6 9bbe 68cf 8a3e 07af 3dbe
00000260: 4d06 1dbd d8e3 ab3d 50fb 893d 918b 083d
00000270: dea3 263e 55a1 923e d70c a5be 0eb8 93bc
00000280: 6d1d 31be 9b1e 88bd db06 90be 5373 4cbd
00000290: 02e3 22bc aef7 f73d c8df da3d 2642 593d
000002a0: 1270 983e fa01 b53e 779f 353d e9cb 0bbe
000002b0: b0b0 9b3e 5db2 8b3e f911 873e 764d 343e
000002c0: 5bb2 b33e b511 833e 73ee 8cbe 8024 a23d
000002d0: 0a78 563e 2b27 41be 0173 5a3e cd75 533e
000002e0: 5d2a aabd 79ce b9bb 583a a3be 7982 b03e
000002f0: c476 a93e 4936 6ebd d47f 563e a3ae 81be
00000300: b2c4 96bd b3b0 7abe 26bb 543e c3ed a5bb
00000310: 873b 4abe 3c49 edbc 3446 34be 8a21 a83e
00000320: 8bf4 9abd bd7c 413e 4378 5cbe 7b5c 613e
00000330: f383 e6bc 6a96 083e f8dd 5cbe 084e bdbc
00000340: c234 32be e44b 71be f733 823e 787a 823e
00000350: b88a b4be d303 6bbb 897a 3a3e 1aaa 48be
00000360: 45b5 42be 3acf 553e c0ce 6dbe a76f d83c
00000370: 083a c53d d3ae 4fbe d6d4 0cbe edb3 a13d
00000380: 5e83 953e 909b 1ebe 7915 0a3d f4a7 a6bd
00000390: 1635 ac3d a47c 23be f3a4 e8bd 4aed 323e
000003a0: 6dd6 a03e ed7d 2f3e 03a8 a73e 367d 16bd
000003b0: 62f3 ac3e 2234 503e 7ee3 943e 7351 453e
000003c0: 58ea 8c3e 05bd b1be 2431 45be e31d ac3d
000003d0: 75b2 83be ed1a 8bbe 4101 34be 1863 f23d
000003e0: 06bb 243e e512 b1bd 6291 64be d724 7d3e
000003f0: 391f 903e 7e02 eabd 92c9 61bd bfb0 4abe
0.020688917 0.34042045 0.32148826 -0.017112842 -0.19337682 0.35281292 -0.24223934 -0.072464295
-0.13105537 0.21053961 -0.015528753 -0.19861846 0.17431313 0.23614517 0.14320336 -0.097473055
-0.09086076 0.32077414 -0.12558989 -0.34256104 0.31634605 0.19431737 -0.21634871 0.11412308
0.113728635 0.29194823 0.07627939 -0.16470878 -0.21294864 0.24454325 -0.16952735 -0.325011
-0.06673716 0.091181196 -0.018633457 0.049560774 -0.082976304 0.19664064 0.090364784 0.13272156
0.011936497 0.24181223 0.23782252 -0.1542915 -0.24267729 -0.0019667996 0.25529194 0.0869366
0.25580606 -0.07474673 -0.0859145 0.087197065 -0.07431655 -0.22725385 0.13690296 -0.14511429
-0.191214 -0.1814057 0.22263692 -0.20286413 -0.15658465 -0.2647962 -0.12859584 -0.3573699
0.17772086 -0.23571505 0.25835195 0.03855398 0.28961107 -0.15842272 -0.29830077 0.33315575
0.2612495 0.32871568 0.06838443 -0.057948884 0.1268959 0.31893837 0.058007125 -0.28461584
-0.34638244 -0.31569844 -0.3063445 -0.18578318 0.2178246 -0.28761062 -0.20598625 0.36144337
0.20850262 0.21813816 0.25962916 0.10276477 0.10388629 -0.036828067 0.14539345 0.17178597
-0.2828634 0.21696758 -0.052688386 0.13541082 0.008950076 0.03129617 0.19137995 -0.35344818
-0.34497932 0.2839933 -0.010660864 -0.20485319 0.114684425 -0.35598692 -0.058781546 -0.14007728
-0.10077961 -0.0147626335 0.18817069 0.16781418 -0.09210245 -0.023899917 -0.25758907 -0.05713278
0.033206645 0.10499731 0.005993982 0.05635242 -0.0975934 -0.35053134 -0.012501576 -0.36406174
-0.0017333453 0.29700798 0.15487838 0.3088039 0.33849174 -0.009359034 -0.3260347 0.21698244
0.25183934 0.34232187 -0.329437 -0.11120228 -0.1702321 0.34461382 -0.33685353 0.17037123
0.1440926 -0.09140164 -0.2567206 0.048456132 -0.22501613 -0.30412853 0.27111363 -0.18523799
-0.038336087 0.08393067 0.06737387 0.033336226 0.16273448 0.28638712 -0.3223636 -0.0180321
-0.17296381 -0.066464625 -0.2813023 -0.04991467 -0.009941818 0.12107788 0.10687214 0.0530416
0.29773003 0.3535307 0.04434153 -0.13652004 0.3040824 0.27284518 0.263809 0.17607674
0.35097012 0.25599447 -0.27525672 0.07917118 0.20944229 -0.18862598 0.21332933 0.20650406
-0.083088614 -0.0056703654 -0.3188045 0.34474543 0.33098423 -0.05815724 0.209472 -0.2532855
-0.073617354 -0.24481468 0.20774516 -0.005063744 -0.1974927 -0.028965585 -0.17604905 0.32838088
-0.07566174 0.1889524 -0.21530251 0.22007935 -0.02813909 0.13338628 -0.2156905 -0.023108497
-0.17402938 -0.23564106 0.2543027 0.2548406 -0.35262084 -0.0035860434 0.18210806 -0.19596139
-0.19014461 0.20879832 -0.232234 0.026420427 0.09630209 -0.20281534 -0.13753065 0.07895646
0.29201788 -0.1548903 0.033711884 -0.08137503 0.08408563 -0.15965515 -0.113595866 0.17473331
0.31413594 0.1713788 0.3274537 -0.036740504 0.33779436 0.20332387 0.29079813 0.19269352
0.2752254 -0.34714523 -0.19257027 0.08404138 -0.2572209 -0.2716898 -0.17578603 0.11835307
0.16086969 -0.08646182 -0.22321084 0.24721085 0.2814882 -0.114262566 -0.055123873 -0.19793986

temp_derivative_decoder.0.bias f4 [16]
00000000: 0000 0000 d1d0 c9bb 15fa 183c 0b38 96bc
00000010: cc88 0fbc 39fb 7b3b 346f 90b9 467e 84bb
00000020: e409 a63b c8b6 f8bb 0000 0000 cfc9 c4bb
00000030: 0000 0000 6f8e 903b 756c 803b 3efc 41bc
0.0 -0.006158926 0.009336968 -0.01833727 -0.008760642 0.00384493 -0.00027548673 -0.0040433733
0.005067097 -0.0075901486 0.0 -0.006005503 0.0 0.0044115107 0.003919179 -0.011839924
