.archive/piae_sde/experiments/PIAE_sampling_night/best_model.pth (torch, 25122 bytes, 28 tensors)

encoder.0.weight f4 [16, 18]
-0.18068007 -0.4054777 -0.006491619 0.08526246 0.529044 -0.5799395 -0.23000728 -0.3890127
-0.46663842 -0.06742309 -0.59603274 -0.05755478 -0.6251174 -0.40883005 0.32367334 -0.18516782
-0.13258803 -0.24527204 -0.09877065 -0.15803815 0.36804998 -0.35589188 -0.020883467 -0.13507578
0.2607532 0.054129988 0.3906748 -0.15548892 0.26783076 0.47593173 0.015661366 -0.07245917
0.2588356 0.3003956 -0.44586682 0.07310791 0.044207625 0.3182873 -0.3643026 -0.18339059
-0.44978547 -0.43234122 0.22217026 -0.28016067 -0.05031603 0.07396413 -0.24099572 0.6300213
-0.063253954 -0.036910623 0.62219024 -0.2176698 0.085335284 0.14104672 -0.16782376 0.11446805
0.5517039 0.048646897 -0.44267976 0.45746475 0.03579296 -0.27380204 0.124583915 -0.31091446
-0.13824269 0.0048987893 0.016961988 0.21672349 0.4510883 -0.374778 -0.49251232 0.42377907
0.21404272 0.28693625 -0.09251317 -0.13402042 -0.15602845 -0.022702713 -0.025123524 -0.048793793
-0.6354526 0.11269811 0.117880106 0.18315822 -0.2752527 0.2648865 0.079296075 0.24704671
0.37948114 -0.5467659 -0.2636924 -0.067598075 -0.0057459865 0.46861276 -0.15907562 0.29754376
-0.014459778 0.024469733 -0.4025219 -0.23109023 -0.41814542 -0.1393701 -0.19811349 0.18809073
-0.031666968 0.5050199 -0.34907722 0.48984787 0.33307523 0.4701873 -0.26346126 -0.019133752
0.11146595 0.26485318 0.74011445 0.65789336 0.68710804 0.24124755 0.19795816 -0.34739506
0.25533408 0.43687698 -0.27626583 -0.2299406 -0.17061433 0.49139908 -0.30376777 -0.25050524
0.18594068 0.047756337 0.33969018 -0.36990732 -0.4797492 -0.49853757 -0.2326013 0.82985806
-0.15466252 0.14362708 0.49332404 0.3438677 0.0338942 -0.32799485 0.7973063 0.714812
-0.10998982 0.25426957 0.66126996 0.27267906 -0.013385123 0.28471953 -0.22835664 0.18199289
-0.3535539 0.18444727 0.4283769 0.3492188 0.13507764 -0.44734958 -0.28247494 0.08382715
0.062578544 0.03485295 0.4567761 -0.26092008 -0.09748116 -0.18244523 -0.104142345 0.16971643
0.5878871 0.6159227 0.059468623 0.13270955 -0.40649563 0.24708465 0.22302489 -0.25312972
0.41422513 -0.6791495 0.10445221 -0.38749576 -0.24088188 -0.13490808 0.043961078 -0.16928254
-0.46671632 0.18347986 0.36493605 0.034353778 -0.38319656 -0.14290479 -0.0028871628 0.534968
0.077399984 0.10185748 -0.3080915 -0.47482425 0.16633847 0.07745868 0.2828009 -0.005150431
0.14836392 0.081546746 -0.5634879 0.028186884 0.09593644 0.0605916 0.36253294 0.25880307
0.29433566 -0.04941681 -0.20408532 0.5397936 -0.112795465 -0.15936399 -0.5411449 0.06541728
0.5198393 -0.32689577 0.58580846 -0.13250947 0.4403785 0.2490016 -0.09128295 -0.45812508
-0.5288707 0.18869695 -0.29424348 -0.5691483 0.1990282 0.6651236 -0.15897238 0.4641929
0.17781155 -0.08159419 0.11387853 -0.083462186 -0.10442697 0.18529302 0.9098924 0.22431453
-0.15168355 0.7723501 0.22249839 -0.2266271 0.40255657 0.37297872 0.33123285 0.2848851
-0.05740812 -0.40134293 0.051456515 -0.41142932 -0.300713 0.07843277 -0.2690666 -0.1368412
00000000: 3204 39be c69a cfbe a6b7 d4bb 169e ae3d
00000010: 6d6f 073f ea76 14bf 0787 6bbe ac2c c7be
00000020: 3beb eebe 1e15 8abd 9a95 18bf 90be 6bbd
00000030: b207 20bf 2c52 d1be 83b8 a53e a29c 3dbe
00000040: 28c5 07be 9828 7bbe 4448 cabd c1d4 21be
00000050: 0c71 bc3e 7637 b6be ce13 abbc 4e51 0abe
00000060: 7281 853e 68b7 5d3d 8706 c83e 7d38 1fbe
00000070: 1d21 893e 53ad f33e 444c 803c 7965 94bd
00000080: 1a86 843e 74cd 993e a848 e4be 9ab9 953d
00000090: 0e13 353d 8ef6 a23e df85 babe beca 3bbe
000000a0: 484a e6be d45b ddbe 9a80 633e 3871 8fbe
000000b0: 2e18 4ebd 817a 973d 95c7 76be 1349 213f
000000c0: 4a8b 81bd 982f 17bd dc47 1f3f d5e4 5ebe
000000d0: 44c4 ae3d 8d6e 103e fed9 2bbe 3a6e ea3d
000000e0: 773c 0d3f f841 473d eca6 e2be d238 ea3e
000000f0: a49b 123d c82f 8cbe da25 ff3d 2e30 9fbe
00000100: 7e8f 0dbe 0686 a03b def3 8a3c c3ec 5d3e
00000110: 0cf5 e63e e7e2 bfbe 932a fcbe 92f9 d83e
00000120: 042e 5b3e 4fe9 923e 8b77 bdbd a63c 09be
00000130: ecc5 1fbe 0afb b9bc d9cf cdbc 00dc 47bd
00000140: 06ad 22bf 44ce e63d 206b f13d d48d 3b3e
00000150: eced 8cbe 349f 873e fb65 a23d d0f9 7c3e
00000160: 5a4b c23e daf8 0bbf b102 87be dc70 8abd
00000170: d448 bcbb 03ee ef3e b8e4 22be a857 983e
00000180: b4e8 6cbc c074 c83c 5a17 cebe eba2 6cbe
00000190: 2817 d6be 09b7 0ebe 43de 4abe db9a 403e
000001a0: 39b5 01bd fc48 013f 40ba b2be 57cd fa3e
000001b0: d688 aa3e 64bc f03e 65e4 86be 63be 9cbc
000001c0: 4348 e43d d69a 873e 2478 3d3f b36b 283f
000001d0: 50e6 2f3f 9909 773e 8bb5 4a3e c4dd b1be
000001e0: 26bb 823e 57ae df3e b772 8dbe 8c75 6bbe
000001f0: 86b5 2ebe a998 fb3e 7387 9bbe 3942 80be
00000200: 3c67 3e3e 269c 433d dfeb ad3e 7e64 bdbe
00000210: b0a1 f5be 5140 ffbe 092f 6ebe 9471 543f
00000220: da5f 1ebe fa12 133e f894 fc3e 6d0f b03e
00000230: a5d4 0a3d f1ee a7be 441c 4c3f ebfd 363f
00000240: 5842 e1bd 9f2f 823e fd48 293f 979c 8b3e
00000250: 464d 5bbc c2c6 913e 53d6 69be 585c 3a3e
00000260: 0405 b5be bfdf 3c3e 3854 db3e cecc b23e
00000270: cb51 0a3e 010b e5be 8ea0 90be 92ad ab3d
00000280: 2e29 803d f8c1 0e3d 8fde e93e 5197 85be
00000290: 34a4 c7bd ecd2 3abe 9548 d5bd 25ca 2d3e
000002a0: c57f 163f 1cad 1d3f 5f95 733d 03e5 073e
000002b0: 3220 d0be c203 7d3e a360 643e 389a 81be
000002c0: 5115 d43e bedc 2dbf 0aeb d53d d865 c6be
000002d0: bda9 76be 5825 0abe 8810 343d 6758 2dbe
000002e0: 71f5 eebe 25e2 3b3e e6d8 ba3e 8cb6 0c3d
000002f0: 5732 c4be a255 12be 8e36 3dbb aaf3 083f
00000300: e283 9e3d a89a d03d 2bbe 9dbe 2a1c f3be
00000310: a254 2a3e a8a2 9e3d 48cb 903e f2c4 a8bb
00000320: b6ec 173e fb01 a73d be40 10bf 2ee8 e63c
00000330: 537a c43d e62e 783d eb9d b93e d681 843e
00000340: 2ab3 963e 4869 4abd befb 50be ea2f 0a3f
00000350: 4f01 e7bd 5030 23be 7988 0abf 7ff9 853d
00000360: 3014 053f e25e a7be 8bf7 153f 90b0 07be
00000370: 4a79 e13e 47fa 7e3e 8ef2 babd 5f8f eabe
00000380: 1264 07bf c639 413e 15a7 96be b4b3 11bf
00000390: 0cce 4b3e 8a45 2a3f a8c9 22be b1aa ed3e
000003a0: 3b14 363e db1a a7bd 2639 e93d 39ee aabd
000003b0: cfdd d5bd 74bd 3d3e b5ee 683f b5b2 653e
000003c0: ef52 1bbe bcb8 453f 9ed6 633e ef10 68be
000003d0: e51b ce3e 11f7 be3e 5a97 a93e 76dc 913e
000003e0: c724 6bbd d27c cdbe 11c4 523d dda6 d2be
000003f0: 0ef7 99be 5ca1 a03d 19c3 89be 1920 0cbe

encoder.0.bias f4 [16]
0.0 0.0 -0.037050862 0.0 0.0018053324 0.0 -0.0019849625 -0.010864602
0.006781748 -0.0036024828 -0.008603031 0.0 0.0034471762 0.011213113 0.02819863 -0.01725803
00000000: 0000 0000 0000 0000 a5c2 17bd 0000 0000
00000010: e7a0 ec3a 0000 0000 2516 02bb 7201 32bc
00000020: 6d39 de3b a217 6cbb baf3 0cbc 0000 0000
00000030: 05ea 613b 34b7 373c d000 e73c b660 8dbc

encoder.2.weight f4 [16, 16]
-0.17961861 -0.24835597 -0.45391074 0.26036018 0.83331686 -0.34028763 -0.106100924 -0.76143944
0.08901283 -0.15521559 -0.4619517 -0.30786973 0.13262442 0.0065958765 0.33266926 0.15136626
-0.45659012 -0.010326022 0.30131856 0.40259972 0.16705461 0.10114239 -0.30968428 0.064785175
-0.38820377 -0.55952054 -0.44592187 0.39309126 0.19512796 -0.3573534 -0.38018882 -0.09446648
-0.054217942 -0.2700161 -0.36352068 0.025012743 -0.5310624 0.4301558 0.35901722 0.119672745
0.70814216 0.44165617 -0.05492233 -0.0008701113 0.15312546 0.063058786 0.34346154 -0.15807614
-0.061622046 -0.05097423 0.110025406 0.2621858 -0.09993479 0.22028348 0.12879936 0.47421107
0.039882578 -0.29431668 -0.036144257 -0.18648113 0.011197302 0.06478009 -0.05486563 -0.04978132
0.6815846 0.2582784 -0.41272306 -0.23994306 -0.6337318 0.3559048 -0.68552744 0.15257291
-0.19651008 0.8685928 -0.265928 0.24796896 -0.5621377 0.057948425 -0.08750241 -0.0006359624
-0.082238354 -0.1944224 -0.076675646 0.18530479 0.053829443 -0.2794024 -0.7411489 0.046863496
-0.11492091 0.0079828035 -0.30162466 -0.24872446 -0.17725648 -0.45057842 -0.5566179 0.12842727
0.36346775 -0.16034363 -0.0015163538 0.07870407 -0.029048929 -0.204392 0.29530174 -0.059504546
0.12607776 -0.56112814 -0.051027685 -0.11938621 0.08363977 0.5469575 0.4397011 -0.18654305
0.035924118 -0.3865576 0.111276135 0.3305581 0.1617361 0.067875825 -0.04707915 -0.1507202
-0.008958225 -0.39716324 0.055358794 0.25088564 -0.07029119 0.071733996 0.20366237 -0.15775485
0.57734144 -0.5799407 -0.30967125 -0.24403535 -0.43877944 0.12241056 -0.08706373 0.044598773
-0.083122715 -0.18422917 -0.088220015 0.56076056 0.070562676 0.029772587 0.43753347 -0.3090276
0.46426928 -0.15590152 0.002673077 0.24792 0.014191498 0.0033748935 -0.32884324 0.7246997
-0.59141046 -0.730456 -0.48056844 0.2936343 -0.045767143 -0.5696949 0.10018587 -0.42802998
-0.5698838 0.1910253 0.4203152 0.45542213 -0.05032922 1.0272354 0.66457003 -0.29238373
-0.36969283 0.00016568981 0.34183356 0.5021475 -0.0074099293 -0.21408547 -0.10646416 -0.658394
0.23026887 0.14047983 0.0030784528 0.28678653 0.39631087 -0.10204663 0.4796995 -0.17106791
-0.51625854 -0.42256445 0.5669849 -0.54272044 0.20137568 -0.3006931 0.29126176 -0.0530111
0.39917937 -0.18035485 0.18983164 0.26428974 -0.5024389 0.061720084 -0.058034983 0.2807105
-0.09593666 -0.13131258 0.26077795 0.24700968 -0.12927075 0.37983817 0.50162715 0.061597902
-0.5920178 0.03387879 0.012623088 -0.18563105 0.4644112 0.39676124 0.32703224 0.40632507
0.10572155 -0.21303597 -0.4744101 0.19903117 -0.4401646 0.29741675 -0.3766575 0.4553487
0.38625956 -0.06013811 -0.6561519 0.11880719 0.0007058921 0.27313754 0.13860732 0.26846203
-0.19680761 0.32893136 0.09916873 -0.10745294 -0.4760628 0.3695971 -0.019987963 0.44559062
-0.54059917 -0.01906863 -0.19489121 -0.14309056 0.13569751 0.08181117 0.114857845 0.16695935
0.6343938 0.5585089 0.40755543 -0.16082299 -0.28075194 -0.050889418 0.22455181 -0.12031382
00000000: f1ed 37be 0751 7ebe fd66 e8be ee4d 853e
00000010: 4154 553f 2e3a aebe 714b d9bd b2ed 42bf
00000020: 5c4c b63d d6f0 1ebe ef84 ecbe 1aa1 9dbe
00000030: b2ce 073e 3922 d83b a053 aa3e c2ff 1a3e
00000040: 2ec6 e9be 7a2e 29bc 6d46 9a3e 8d21 ce3e
00000050: 5d10 2b3e be23 cf3d f08e 9ebe 17ae 843d
00000060: a5c2 c6be bd3c 0fbf df4f e4be 4243 c93e
00000070: a0cf 473e 06f7 b6be 1ca8 c2be a477 c1bd
00000080: a213 5ebd 8d3f 8abe 621f babe 86e7 cc3c
00000090: b5f3 07bf 623d dc3e 1bd1 b73e fc16 f53d
000000a0: ce48 353f c220 e23e 3df6 60bd 2e18 64ba
000000b0: eccc 1c3e f724 813d 31da af3e b6de 21be
000000c0: 6667 7cbd 5bca 50bd 0055 e13d 383d 863e
000000d0: 9caa ccbd fe91 613e fbe3 033e cbcb f23e
000000e0: ea5b 233d adb0 96be 000c 14bd e9f4 3ebe
000000f0: e374 373c 6cab 843d c8ba 60bd 7fe7 4bbd
00000100: 547c 2e3f 113d 843e 7050 d3be a2b3 75be
00000110: 3f3c 22bf 2739 b63e ba7e 2fbf 133c 1c3e
00000120: f039 49be 195c 5e3f b727 88be 93eb 7d3e
00000130: 42e8 0fbf 545b 6d3d 7734 b3bd b7b6 26ba
00000140: 956c a8bd aa16 47be 1f08 9dbd 8ac0 3d3e
00000150: 437c 5c3d d50d 8fbe efbb 3dbf f0f3 3f3d
00000160: a75b ebbd 4eca 023c 8c6e 9abe a0b1 7ebe
00000170: b982 35be 37b2 e6be 837e 0ebf 7082 033e
00000180: 7218 ba3e 1f31 24be 64c0 c6ba 992f a13d
00000190: 05f8 edbc 234c 51be ca31 973e 0abb 73bd
000001a0: 871a 013e 18a6 0fbf 6802 51bd c280 f4bd
000001b0: 544b ab3d 6805 0c3f 8120 e13e 2405 3fbe
000001c0: 2b25 133d e1ea c5be bee4 e33d e93e a93e
000001d0: 269e 253e 7b02 8b3d 11d6 40bd 6556 1abe
000001e0: 85c5 12bc fb58 cbbe e7bf 623d 1574 803e
000001f0: d4f4 8fbd 46e9 923d de8c 503e 7d8a 21be
00000200: a6cc 133f fe76 14bf 3b8d 9ebe 67e4 79be
00000210: b3a7 e0be 63b2 fa3d 784e b2bd 34ad 363d
00000220: 3e3c aabd 92a6 3cbe b2ac b4bd 018e 0f3f
00000230: 2a83 903d a4e5 f33c 6304 e03e de38 9ebe
00000240: b4b4 ed3e a6a4 1fbe ca2e 2f3b bede 7d3e
00000250: 7583 683c 512d 5d3b 245e a8be eb85 393f
00000260: ad66 17bf 2aff 3abf 110d f6be 3c57 963e
00000270: 5476 3bbd 86d7 11bf 402e cd3d bf26 dbbe
00000280: e8e3 11bf 239c 433e 8e33 d73e 172d e93e
00000290: 0326 4ebd 737c 833f 4321 2a3f 52b3 95be
000002a0: 6148 bdbe 05bd 2d39 cf04 af3e bd8c 003f
000002b0: fece f2bb 3939 5bbe e209 dabd 828c 28bf
000002c0: 9acb 6b3e f2d9 0f3e debf 493b afd5 923e
000002d0: 42e9 ca3e d3fd d0bd 2c9b f53e 6d2c 2fbe
000002e0: 8529 04bf 5e5a d8be ec25 113f baef 0abf
000002f0: 6d35 4e3e 72f4 99be 4320 953e 2b22 59bd
00000300: 3d61 cc3e f1ae 38be 3a63 423e fc50 873e
00000310: d69f 00bf 33ce 7c3d 17b6 6dbd 49b9 8f3e
00000320: 717a c4bd ce76 06be b084 853e 1bf0 7c3e
00000330: 8d5f 04be 267a c23e a36a 003f 154e 7c3d
00000340: 7b8e 17bf 7cc4 0a3d 12d1 4e3c 1116 3ebe
00000350: 4ec7 ed3e 4a24 cb3e c570 a73e d709 d03e
00000360: 8a84 d83d 1a26 5abe e1e5 f2be d4ce 4b3e
00000370: 415d e1be 0247 983e 40d9 c0be 7723 e93e
00000380: d0c3 c53e 6153 76bd 92f9 27bf 2f51 f33d
00000390: 9e0b 393a afd8 8b3e 14ef 0d3e db73 893e
000003a0: ef87 49be b169 a83e fa18 cb3d 4910 dcbd
000003b0: 81be f3be d53b bd3e ccbd a3bc 7424 e43e
000003c0: b564 0abf d135 9cbc 9091 47be 5586 12be
000003d0: 4af4 0a3e 9d8c a73d 973a eb3d 64f7 2a3e
000003e0: a267 223f 70fa 0e3f 1bab d03e c8ae 24be
000003f0: b8be 8fbe 6c71 50bd e9f0 653e 1867 f6bd

encoder.2.bias f4 [16]
0.015665056 -0.008104446 0.0025126257 -0.020906275 -0.016502406 -0.0021679339 0.01568912 -0.0013816044
-0.019751599 0.007155946 -0.01173104 -0.013705367 0.004142666 -0.042505465 -0.0019051386 0.0073426063
00000000: 0154 803c 83c8 04bc ddaa 243b a343 abbc
00000010: 0e30 87bc e513 0ebb 7886 803c f316 b5ba
00000020: 1bce a1bc 6d7c ea3b 8c33 40bc 7a8c 60bc
00000030: 33bf 873b 361a 2ebd d8b5 f9ba 3f9a f03b

encoder.3.weight f4 [32, 16]
0.033156592 0.017148241 0.15931739 0.56786925 0.27467543 -0.1521183 0.012946381 0.60767174
-0.31030518 0.07701748 0.16071574 0.4592019 0.004176746 0.2913377 0.043549694 0.28030756
-0.060943987 0.20677961 0.12356729 0.25750104 -0.35455644 -0.13625097 0.071601085 0.21026333
-0.3827384 0.15679693 0.2268372 0.62454796 -0.4966693 0.13401547 -0.17638294 -0.057737872
-0.08092869 -0.17717545 -0.44813186 0.5886401 0.20204417 -0.09416332 -0.06056934 -0.2978187
-0.06598374 0.13513654 0.9093931 0.2723206 0.19077352 -0.23011146 -0.56660634 -0.38110918
0.61980665 -0.08293273 0.3056675 0.011817471 -0.18068369 -0.08882206 0.025971608 0.3509825
-0.564467 0.27572677 0.00940961 -0.29383773 -0.03159407 0.090389654 -0.23743992 0.43787986
0.08947054 0.030387627 -0.19424334 -0.62765425 -0.7103519 0.4627957 -0.02655879 0.02335706
0.0915051 -0.14548747 0.33859497 -0.16547228 -0.42630088 0.23746064 -0.17924783 0.7944393
0.06007295 -0.22052805 -0.15688366 0.14874336 -0.16207285 0.18371485 -0.30392563 -0.105871916
-0.3943136 0.31731543 0.26979393 0.23166743 0.14826863 0.045310456 -0.20491646 0.1738534
0.1312073 0.2260142 0.20746402 -0.8102449 -0.2874313 -0.3077984 -0.05065503 -0.13632914
-0.19058283 0.4395438 -0.043604556 0.23467053 -0.008278965 0.22674637 -0.08168997 -0.04269987
-0.6356209 -0.36125848 0.047078643 -0.34867164 -0.49158832 -0.3800556 0.11211498 0.1732474
-0.40600175 0.74662566 -0.10165824 0.19634657 0.08178868 -0.02620979 -0.3637343 -0.25174177
-0.25439873 0.12852329 -0.18044895 0.18877904 0.60439336 -0.45495278 0.448558 -0.32077315
0.27905157 -0.3130729 -0.082331695 0.014626001 0.08133392 -0.22576928 -0.7911632 0.14573091
-0.39954802 -0.34583807 0.12004862 0.10572376 0.6164517 0.27076337 -0.5190948 -0.54203415
0.5885643 -0.298581 -0.4702659 0.09932532 -0.20621507 -0.54234034 -0.06195052 -0.090176165
0.16610438 -0.30366609 -0.051650062 -0.46784464 0.054464456 0.049950086 1.1213089 0.036937136
0.21518329 0.40030774 0.10332933 0.48270628 -0.03402472 -0.29283515 0.24519415 0.43095648
-0.29746738 -0.4709905 -1.2901618 -0.11473591 -0.11534292 0.17960599 -0.2900379 -0.34231132
-0.22644556 0.06944263 0.51123524 -0.06980617 -0.13307825 -0.44203225 0.49105138 -0.016078185
0.05639567 -0.16034105 -0.26736304 0.27930963 -0.605138 0.19687118 0.29129142 0.24379337
-0.031192882 -0.2417106 -0.017940553 0.3322453 -0.8981081 0.118689306 -0.17336184 -0.22391747
0.2456057 -0.2171942 -0.35391486 0.60365736 -0.003569668 -0.24127515 -0.21819744 0.31240302
-0.36413106 -0.08736787 0.06386174 -0.548458 0.5232975 -0.0025292665 0.20391995 0.40991473
0.38144377 0.4098754 -0.20930259 -0.12827179 0.16724513 0.3766855 0.5134037 -0.30129394
-0.31499147 -0.3915629 0.038510185 0.90304226 0.12238005 0.4444569 0.034523003 -1.03946
-0.30331162 -0.01775881 -0.52309364 -0.7691772 0.13740237 0.18522069 -0.32673666 -0.015126795
-0.36593062 -0.5057528 0.08590001 0.10564758 0.40109864 0.3542121 -0.0299625 0.4362874
00000000: 35cf 073d 787a 8c3c 1924 233e e15f 113f
00000010: 42a2 8c3e e6c4 1bbe 0f1d 543c 6090 1b3f
00000020: 52e0 9ebe 57bb 9d3d ab92 243e 831c eb3e
00000030: 16dd 883b 372a 953e 2a61 323d 7984 8f3e
00000040: 67a0 79bd 09be 533e d910 fd3d 2dd7 833e
00000050: 6c88 b5be 6085 0bbe 97a3 923d 454f 573e
00000060: 4af6 c3be 608f 203e 0348 683e 60e2 1f3f
00000070: 704b febe 5a3b 093e bb9d 34be 8c7e 6cbd
00000080: f1bd a5bd 7b6d 35be 8a71 e5be 1eb1 163f
00000090: abe4 4e3e b3d8 c0bd 8e17 78bd b17b 98be
000000a0: 7c22 87bd 3c61 0a3e fccd 683f 9b6d 8b3e
000000b0: 225a 433e 57a2 6bbe 1d0d 11bf be20 c3be
000000c0: a6ab 1e3f a3d8 a9bd 7380 9c3e 119e 413c
000000d0: 2505 39be 57e8 b5bd 69c2 d43c fab3 b33e
000000e0: e980 10bf 0f2c 8d3e c42a 1a3c e671 96be
000000f0: c968 01bd 361e b93d 7323 73be ca31 e03e
00000100: 553c b73d 79ef f83c bae7 46be f3ad 20bf
00000110: 9fd9 35bf 8ff3 ec3e d291 d9bc 4e57 bf3c
00000120: 0767 bb3d abfa 14be 525c ad3e 9171 29be
00000130: 1c44 dabe e228 733e be8c 37be 6060 4b3f
00000140: 0e0f 763d 1bd2 61be 1ca6 20be 2e50 183e
00000150: 6df6 25be bf1f 3c3e 249c 9bbe 60d3 d8bd
00000160: 79e3 c9be 2b77 a23e 6e22 8a3e 3a3a 6d3e
00000170: bbd3 173e 7597 393d 9fd5 51be a006 323e
00000180: 355b 063e 4470 673e 7371 543e 366c 4fbf
00000190: 322a 93be c097 9dbe a67b 4fbd de99 0bbe
000001a0: 2528 43be e30b e13e b19a 32bd 794d 703e
000001b0: 7fa4 07bc 3330 683e 124d a7bd 0fe6 2ebd
000001c0: 0db8 22bf dff6 b8be 89d5 403d 1785 b2be
000001d0: 77b1 fbbe a696 c2be 8a9c e53d c467 313e
000001e0: 76df cfbe dc22 3f3f 3232 d0bd 130f 493e
000001f0: d380 a73d eab5 d6bc 623b babe 4ce4 80be
00000200: 8d40 82be 9c9b 033e 9cc7 38be 4b4f 413e
00000210: 86b9 1a3f 92ef e8be 65a9 e53e 613c a4be
00000220: d9df 8e3e 174b a0be 859d a8bd e5a1 6f3c
00000230: 6692 a63d 1030 67be ac89 4abf 7c3a 153e
00000240: 8f91 ccbe b011 b1be 0ddc f53d b385 d83d
00000250: c7cf 1d3f 7fa1 8a3e 66e3 04bf c0c2 0abf
00000260: 26ac 163f 9cdf 98be b1c6 f0be 136b cb3d
00000270: 0b2a 53be d1d6 0abf d4bf 7dbd 48ae b8bd
00000280: 4417 2a3e 1f7a 9bbe 048f 53bd 5589 efbe
00000290: 1f16 5f3d 7698 4c3d 0d87 8f3f 654b 173d
000002a0: 0259 5c3e 23f5 cc3e 549e d33d 4725 f73e
000002b0: 815d 0bbd 7dee 95be 2d14 7b3e 54a6 dc3e
000002c0: a54d 98be ab25 f1be 0624 a5bf a9fa eabd
000002d0: e938 ecbd a2ea 373e d97f 94be 6e43 afbe
000002e0: 58e1 67be f037 8e3d 50e0 023f 8af6 8ebd
000002f0: aa45 08be 0d52 e2be 166b fb3e 66b6 83bc
00000300: 25ff 663d 7230 24be cfe3 88be ac01 8f3e
00000310: 53ea 1abf 9998 493e 2624 953e f8a4 793e
00000320: 3788 ffbc fc82 77be 11f8 92bc 0e1c aa3e
00000330: 6aea 65bf 6113 f33d c485 31be 9f4a 65be
00000340: 1080 7b3e 2868 5ebe 5434 b5be 4a89 1a3f
00000350: 17f1 69bb d510 77be 266f 5fbe 4af3 9f3e
00000360: 636f babe eded b2bd f2c9 823d be67 0cbf
00000370: d3f6 053f 0dc2 25bb 64d0 503e 58e0 d13e
00000380: 994c c33e 30db d13e 6b53 56be ae59 03be
00000390: 4f42 2b3e ecdc c03e 6d6e 033f 3343 9abe
000003a0: 9046 a1be ef7a c8be dbbc 1d3d c72d 673f
000003b0: 64a2 fa3d db8f e33e fe67 0d3d 060d 85bf
000003c0: a94b 9bbe ed7a 91bc 77e9 05bf cce8 44bf
000003d0: 35b3 0c3e 7eaa 3d3e 074a a7be 60d6 77bc
000003e0: 425b bbbe 0479 01bf 58ec af3d c25d d83d
000003f0: cd5c cd3e 4a5b b53e eb73 f5bc 1061 df3e

encoder.3.bias f4 [32]
-0.031629845 -0.018156288 -0.00918398 0.008585726 0.0033068212 -0.008223418 0.0114778355 0.010292399
-0.012842072 -0.006219267 0.018276999 -0.0045383964 -0.0077904984 0.032047328 -0.0066506816 0.020158693
-0.010230225 0.0049487064 -0.01288321 0.03829507 -0.00807791 0.017015036 -0.010641554 -0.008987538
-0.0005837808 0.010189369 -0.017108912 -0.032904055 -0.015389138 -0.021576287 -0.0058808224 0.01932099
00000000: 4c8e 01bd 7fbc 94bc 6778 16bc 25ab 0c3c
00000010: 41b7 583b 84bb 06bc 880d 3c3c 73a1 283c
00000020: 8e67 52bc feca cbbb a5b9 953c d4b6 94bb
00000030: 7047 ffbb 0f44 033d f6ed d9bb d823 a53c
00000040: ac9c 27bc c228 a23b 1914 53bc 4bdb 1c3d
00000050: 3659 04bc 1e63 8b3c ea59 2ebc 7740 13bc
00000060: de08 19ba 50f1 263c fd27 8cbc 67c6 06bd
00000070: b922 7cbc c1c0 b0bc eab3 c0bb 0e47 9e3c

nee_decoder.0.weight f4 [16, 32]
-0.052205693 -0.26899678 -0.19587497 -0.19651045 0.119287 -0.059474487 -0.21016271 -0.2693668
-0.07797513 -0.21668793 -0.24626535 0.06757191 -0.24340482 0.11263613 -0.027289692 -0.032186233
-0.07795547 -0.33209133 0.37681732 0.17522658 0.4305632 -0.16577518 -0.15531795 -0.05731976
-0.19153957 0.124337375 0.07562741 0.2620461 0.040824596 0.43579572 0.050416276 0.18460956
-0.07420816 0.0699343 -0.32542002 -0.0025685227 -0.31679973 -0.39535257 -0.028676994 -0.02262382
-0.43606496 0.20297071 -0.14121887 0.117787346 -0.065936856 -0.27199516 -0.10213711 -0.29458365
-0.05591426 0.08133021 -0.40507773 -0.25528288 0.01513015 -0.69343835 -0.048240405 0.15513882
-0.11586919 -0.33553627 -0.21123803 -0.027693795 -0.13396592 -0.15504166 -0.33929718 0.076532625
0.08226176 -0.09404468 -0.060142145 -0.25953344 0.20738441 0.045249734 -0.31503996 -0.014300563
-0.016302384 0.08204043 -0.045995172 -0.15100756 0.022501377 -0.07326899 -0.28262246 0.31257972
0.01256337 0.42068413 -0.3859473 0.6048068 0.091018 -0.210518 -0.35378376 0.19862771
-0.48061842 -0.29358783 0.17374131 0.20104133 0.3716864 -0.39507487 -0.15431565 -0.55754447
0.13171484 0.46450025 0.00915437 0.1917155 -0.11777195 -0.03718118 0.19403149 -0.030104084
0.5293655 0.06252928 -0.07704928 -0.049215242 0.007026121 0.37776217 0.37297267 0.43539453
-0.18756448 -0.2667099 0.13724524 0.005081464 0.035247736 -0.33527276 0.41925576 -0.042249378
-0.369182 -0.35580257 0.04348183 -0.22939755 0.19190249 -0.022359576 0.19302939 0.24219193
-0.34634846 0.0148174055 -0.14445774 0.19430538 0.23404776 -0.23527868 -0.05328099 -0.45800203
-0.08985396 0.27971753 -0.102797516 0.13137797 -0.26539686 0.11207325 0.13444434 -0.10894764
0.15754913 -0.49303472 0.17391978 -0.053809933 -0.111453414 -0.048449744 -0.015222373 -0.102817684
0.66739154 0.14871094 -0.2868981 0.047984116 0.11332134 0.27025315 0.29162982 0.3482219
-0.2553295 0.10244395 0.51802266 -0.14066958 -0.25476328 0.32433796 -0.060926948 -0.4924185
0.060737714 -0.094528526 0.47110733 -0.15375967 0.3261884 -0.21854931 -0.14156581 -0.09931746
0.571031 -0.41222277 0.09019488 -0.35673267 0.21145287 0.09995557 0.22703886 0.0013084649
0.09229348 0.35380834 0.47309592 0.22919372 0.15317944 -0.17538834 -0.27812186 -0.08084529
0.08756063 -0.16928343 0.058253482 -0.0774619 -0.5343073 -0.06247441 0.45312148 0.1973048
0.15697485 0.25808746 0.22998619 0.45245525 -0.43855426 -0.27353722 -0.03656641 -0.22341491
0.05504175 0.38227192 -0.08209973 0.007455651 0.1548586 -0.039809134 -0.2853758 0.0066722445
-0.1792294 -0.14532925 0.14795017 -0.15794232 -0.21600676 0.09556951 0.106520325 0.07922919
-0.04042751 0.23322666 -0.078717805 -0.1050912 0.079061575 0.0013579127 -0.17856066 -0.12160944
-0.07876757 0.3411571 0.37737074 -0.078293264 0.07779716 0.0713013 -0.21862301 0.101516195
0.07665976 -0.24880676 -0.3054905 -0.038591936 0.23207633 0.13494977 0.17511335 0.19106743
-0.7654637 -0.14358358 -0.09610423 -0.36141163 -0.10715028 0.18648931 -0.43911076 -0.054423112
00000000: a3d5 55bd f2b9 89be 7393 48be 093a 49be
00000010: be4c f43d 859b 73bd e534 57be 72ea 89be
00000020: 6db1 9fbd 71e3 5dbe fc2c 7cbe 2463 8a3d
00000030: 1d3f 79be c5ad e63d a28e dfbc b6d5 03bd
00000040: 1ea7 9fbd e007 aabe 33ee c03e 996e 333e
00000050: c872 dc3e f8c0 29be ab0b 1fbe 20c8 6abd
00000060: f322 44be 98a4 fe3d 8be2 9a3d e82a 863e
00000070: b137 273d 9e20 df3e 4c81 4e3d 4a0a 3d3e
00000080: 73fa 97bd b739 8f3d 749d a6be a954 28bb
00000090: 9333 a2be a76b cabe 04ec eabc 9755 b9bc
000000a0: e843 dfbe 8ed7 4f3e ae9b 10be 7e3a f13d
000000b0: e709 87bd f342 8bbe 432d d1bd abd3 96be
000000c0: 5a06 65bd 7490 a63d 5966 cfbe 70b4 82be
000000d0: 73e4 773c 2d85 31bf bb97 45bd b6dc 1e3e
000000e0: d34c edbd 69cb abbe c84e 58be 19de e2bc
000000f0: 5d2e 09be 3ec3 1ebe 5cb8 adbe 23bd 9c3d
00000100: db78 a83d 7f9a c0bd 9c57 76bd 91e1 84be
00000110: 945c 543e c957 393d eb4c a1be e94c 6abc
00000120: 948c 85bc d004 a83d 6f65 3cbd baa1 1abe
00000130: cf54 b83c 0d0e 96bd e4b3 90be 730a a03e
00000140: 98d6 4d3c e963 d73e e29a c5be 9ed4 1a3f
00000150: a567 ba3d 0892 57be 2523 b5be 1065 4b3e
00000160: 9e13 f6be 2551 96be 3ee9 313e c7dd 4d3e
00000170: ae4d be3e 4147 cabe ec04 1ebe 3cbb 0ebf
00000180: 41e0 063e fad2 ed3e 36fc 153c 1151 443e
00000190: 6c32 f1bd 4b4b 18bd 31b0 463e d79c f6bc
000001a0: 7f84 073f 5a0f 803d 03cc 9dbd ec95 49bd
000001b0: 603b e63b 0b6a c13e 46f6 be3e 08ec de3e
000001c0: e710 40be 338e 88be 048a 0c3e 6982 a63b
000001d0: ee5f 103d dfa8 abbe b1a8 d63e af0d 2dbd
000001e0: 6c05 bdbe c12b b6be 011a 323d 31e7 6abe
000001f0: 1682 443e 6e2b b7bc 7fa9 453e 2901 783e
00000200: 9654 b1be b4c4 723c bbec 13be fdf7 463e
00000210: 37aa 6f3e e5ec 70be 2b3d 5abd 3e7f eabe
00000220: 5a05 b8bd 2337 8f3e 8187 d2bd f287 063e
00000230: 19e2 87be a986 e53d c7ab 093e f11f dfbd
00000240: 8f54 213e 0c6f fcbe 0718 323e ce67 5cbd
00000250: b041 e4bd 3d73 46bd 4367 79bc 1492 d2bd
00000260: 2cda 2a3f ae47 183e 4fe4 92be fe8a 443d
00000270: 0515 e83d 9f5e 8a3e 8150 953e 244a b23e
00000280: 8cba 82be 22ce d13d 229d 043f b00b 10be
00000290: 5570 82be a00f a63e 898e 79bd 471e fcbe
000002a0: 1cc8 783d 2c98 c1bd fb34 f13e 2d73 1dbe
000002b0: 2a02 a73e 64cb 5fbe a1f6 10be f466 cbbd
000002c0: 162f 123f dd0e d3be 18b8 b83d aaa5 b6be
000002d0: 1a87 583e 82b5 cc3d e07c 683e cc80 ab3a
000002e0: 5d04 bd3d 5e26 b53e a139 f23e c2b1 6a3e
000002f0: 12db 1c3e 0099 33be fd65 8ebe 3792 a5bd
00000300: fd52 b33d a358 2dbe 349b 6e3d 58a4 9ebd
00000310: 5dc8 08bf 2be5 7fbd 8aff e73e 450a 4a3e
00000320: 04be 203e 0a24 843e 8081 6b3e 37a8 e73e
00000330: 2f8a e0be 120d 8cbe a9c6 15bd e1c6 64be
00000340: 7573 613d 25b9 c33e e723 a8bd 894e f43b
00000350: 4193 1e3e e70e 23bd c71c 92be d8a2 da3b
00000360: e987 37be 31d1 14be 4080 173e a2bb 21be
00000370: e030 5dbe f2b9 c33d 5427 da3d ea42 a23d
00000380: 5197 25bd f8d2 6e3e cd36 a1bd 0e3a d7bd
00000390: 09eb a13d fdfb b13a 9bd8 36be 5f0e f9bd
000003a0: e450 a1bd 25ac ae3e bd36 c13e 3858 a0bd
000003b0: 1e54 9f3d 6a06 923d b6de 5fbe b9e7 cf3d
000003c0: cbff 9c3d 33c7 7ebe 4069 9cbe 9412 1ebd
000003d0: 6ba5 6d3e 4630 0a3e ea50 333e 2ea7 433e
000003e0: 6ef5 43bf 9307 13be 4bd2 c4bd f20a b9be
000003f0: 9b71 dbbd 0ef7 3e3e 20d3 e0be c5ea 5ebd

nee_decoder.0.bias f4 [16]
-0.011849921 -0.023191715 -0.05679755 -0.018337598 -0.0066992645 0.0 0.041025963 0.0019112692
0.037743676 -0.014245882 0.0 -0.025597336 0.0 0.0 0.002257241 -0.01818726
00000000: 2c26 42bc 8dfc bdbc 8ca4 68bd bb38 96bc
00000010: 8185 dbbb 0000 0000 d70a 283d 8d83 fa3a
00000020: 1d99 1a3d 8f67 69bc 0000 0000 81b1 d1bc
00000030: 0000 0000 0000 0000 38ee 133b 73fd 94bc

nee_decoder.2.weight f4 [16, 16]
0.3943953 -0.052553114 0.41037953 -0.37634224 0.066831365 -0.063087866 -0.068031736 0.544341
0.03969907 0.54970187 -1.0087438 0.2362864 0.2524264 0.17925648 0.011360885 0.21803278
-0.82415706 -0.2636408 -0.17173414 0.06515812 -0.04105637 -0.0027920243 -0.027873611 -0.7450256
-0.5347875 -0.5563997 0.069530085 0.6298538 0.49524447 -0.14846987 -0.25732914 0.21096548
0.0321195 -0.03489254 -0.0871177 -0.3180865 0.037971407 -0.33655047 0.3472115 0.14077142
1.0933032 0.60636044 0.57858706 0.13126284 -0.15337363 0.5687827 -0.11208716 0.20589733
-0.15821855 0.24899971 0.94057244 -0.0006402965 -0.71910536 -0.21868023 -0.25931078 -0.8665041
0.37770677 -0.40125465 0.4199456 -0.0669693 0.21663602 0.19667593 0.576706 -0.01910614
-0.43830854 0.21635564 -0.16797718 -0.40110874 0.6114469 -0.06769771 0.038291052 0.012333306
-0.07886377 -0.16110274 -0.62969345 -0.14698613 0.2973042 -0.17344989 0.14083083 0.04393882
-0.38413 -0.16537945 -0.17613263 -0.5456086 0.35215402 -0.15397654 0.039747223 0.14588264
1.0084746 0.1963769 0.95256597 0.00840714 0.42979905 0.005277808 0.28165942 -0.025509857
-0.15925492 0.2854864 0.3814943 0.007586122 -0.649562 -0.43065763 0.10902742 0.761824
-0.20558012 -0.07009539 0.34957692 0.25961685 -0.121105045 -0.19695202 -0.4021391 -0.21514028
-0.02202091 -0.30714786 -0.6820849 -0.07335319 0.39650378 0.30043286 -0.031543646 -0.6401334
0.26796722 0.20695032 0.07148838 -0.15698288 0.047085196 -0.55426216 -0.2473258 0.1845309
-0.24406958 -0.11126754 -0.1123709 -0.124152474 -0.04911378 -0.13775465 -0.18106951 0.8084807
-0.43019968 0.5874606 -0.1804574 -0.24302924 0.58018553 -0.07806311 -0.20043442 -0.29563573
-0.20362629 0.009113422 -0.24769413 -0.27935675 0.17548655 -0.4103957 0.18640973 0.26341292
0.2628264 0.06891371 -0.2413943 -0.61791456 0.058855195 -0.061353236 0.42519775 -0.20637052
0.045470666 0.095640846 -0.2800976 0.37109706 0.11030943 0.10657327 0.025526138 0.07092978
-0.2462155 -0.67403847 -0.16809571 0.0019309475 -0.0063693738 -0.15317665 -0.0028947731 0.020024871
0.230678 0.09022412 0.23776211 0.11530721 0.105246544 -0.115169995 0.19710122 0.5018209
-0.8324072 0.16203219 0.76601726 0.21687959 0.36331096 0.5118099 0.50814116 0.091920994
0.5856837 0.1345695 -0.10349449 0.6482926 0.63311416 0.004011749 -0.23278399 0.42734465
0.044110928 -0.33253226 -0.29366127 0.11876168 -0.28855357 0.03836847 0.09318626 0.16126141
-0.14860135 0.07565579 -0.11107475 -0.6917081 -0.14782114 -0.073833115 0.3430258 0.121942274
0.34080127 -0.599262 -0.34244403 -0.047809254 -0.034680635 -0.313514 0.12759209 0.5313553
0.13010584 0.06263138 -0.007060789 0.5734338 -0.2539212 0.36449155 -0.2245837 -0.0033445521
-0.40461144 0.18430996 -0.4018076 -0.02675268 0.028696856 -0.35240972 -0.37361982 0.09234544
-0.0019734853 0.28199077 0.18044007 0.14107247 0.10648151 -0.30436432 0.3707689 -0.08753508
-0.1665038 0.49938902 0.18345138 -0.16391772 -0.14047533 -0.8840532 -0.2502989 0.33110723
00000000: 2eee c93e ef41 57bd 441d d23e eeaf c0be
00000010: e2de 883d 3634 81bd 3954 8bbd ef59 0b3f
00000020: 7e9b 223d 43b9 0c3f 841e 81bf 10f5 713e
00000030: 083e 813e 038f 373e 0123 3a3c fc43 5f3e
00000040: f5fb 52bf edfb 86be 13db 2fbe 9f71 853d
00000050: b92a 28bd 65fa 36bb 3357 e4bc ffb9 3ebf
00000060: d5e7 08bf 3670 0ebf ca65 8e3d 193e 213f
00000070: af90 fd3e 7c08 18be a5c0 83be 5607 583e
00000080: bd8f 033d 7beb 0ebd c46a b2bd 3cdc a2be
00000090: e887 1b3d 5850 acbe b5c5 b13e 6226 103e
000000a0: 5cf1 8b3f 703a 1b3f 481e 143f c469 063e
000000b0: fa0d 1dbe be9b 113f f48d e5bd c0d6 523e
000000c0: 0b04 22be c8f9 7e3e 5bc9 703f 92d9 27ba
000000d0: 4a17 38bf b6ed 5fbe 62c4 84be 36d3 5dbf
000000e0: c862 c13e 4071 cdbe 1c03 d73e 3327 89bd
000000f0: d5d5 5d3e 6a65 493e 01a3 133f 7b84 9cbc
00000100: fa69 e0be 558c 5d3e 3602 2cbe 205e cdbe
00000110: c987 1c3f 19a5 8abd 14d7 1c3d a211 4a3c
00000120: 5483 a1bd 1ef8 24be 9733 21bf 8883 16be
00000130: 4238 983e d99c 31be f535 103e 31f9 333d
00000140: b0ac c4be 3b59 29be 1d5c 34be 01ad 0bbf
00000150: 884d b43e 07ac 1dbe fccd 223d 4262 153e
00000160: b215 813f 0717 493e 5ddb 733f 1abe 093c
00000170: 9f0e dc3e 76f1 ac3b aa35 903e 0cfa d0bc
00000180: b913 23be 462b 923e 3953 c33e 0195 f83b
00000190: b249 26bf 287f dcbe c549 df3d e606 433f
000001a0: 9883 52be 2c8e 8fbd bffb b23e 80ec 843e
000001b0: ec05 f8bd caad 49be 2de5 cdbe bc4d 5cbe
000001c0: 3265 b4bc 7c42 9dbe 1e9d 2ebf 333a 96bd
000001d0: 8b02 cb3e 56d2 993e e933 01bd c8df 23bf
000001e0: 0033 893e c9ea 533e 8068 923d 1fc0 20be
000001f0: 68dc 403d 20e4 0dbf f942 7dbe abf5 3c3e
00000200: 60ed 79be 3ce0 e3bd b722 e6bd a743 febd
00000210: 882b 49bd 8e0f 0dbe 496a 39be 97f8 4e3f
00000220: 2243 dcbe d163 163f d3c9 38be a8dc 78be
00000230: 0a87 143f 8ddf 9fbd ae3e 4dbe 915d 97be
00000240: 6983 50be 7650 153c 88a3 7dbe d907 8fbe
00000250: bfb2 333e 631f d2be 31e2 3e3e 0fde 863e
00000260: 2f91 863e a222 8d3d 1130 77be a62f 1ebf
00000270: 2512 713d 884d 7bbd 85b3 d93e cb52 53be
00000280: 733f 3a3d 59df c33d f468 8fbe 6f00 be3e
00000290: e9e9 e13d 1643 da3d 311c d13c a243 913d
000002a0: eb1f 7cbe c98d 2cbf 4821 2cbe d917 fd3a
000002b0: 2eb6 d0bb 57da 1cbe 3cb6 3dbb 330b a43c
000002c0: db36 6c3e 6cc7 b83d e977 733e 3026 ec3d
000002d0: 808b d73d 3fde ebbd e7d4 493e 5677 003f
000002e0: a318 55bf c4eb 253e b519 443f af15 5e3e
000002f0: e503 ba3e f905 033f 8a15 023f 1341 bc3d
00000300: 5eef 153f 96cc 093e ebf4 d3bd 81f6 253f
00000310: c513 223f fd74 833b ed5e 6ebe ebcc da3e
00000320: a9ad 343d ab41 aabe c55a 96be 5339 f33d
00000330: 4bbd 93be 4228 1d3d 70d8 be3d b621 253e
00000340: f42a 18be 6cf1 9a3d 297b e3bd c813 31bf
00000350: 6d5e 17be d135 97bd 14a1 af3e dfbc f93d
00000360: 817d ae3e 3c69 19bf d354 afbe a3d3 43bd
00000370: 480d 0ebd e884 a0be 80a7 023e e706 083f
00000380: 773a 053e e244 803d 315e e7bb 8fcc 123f
00000390: f601 82be a39e ba3e 45f9 65be 4630 5bbb
000003a0: 3b29 cfbe c0bb 3c3e bab9 cdbe 7028 dbbc
000003b0: ab15 eb3c 0c6f b4be 194b bfbe 9b1f bd3d
000003c0: 9755 01bb 1861 903e 48c5 383e 4d75 103e
000003d0: fa12 da3d a4d5 9bbe 6cd5 bd3e 9845 b3bd
000003e0: f97f 2abe ebaf ff3e aeda 3b3e 0cda 27be
000003f0: c4d8 0fbe 4f51 62bf 2d27 80be e386 a93e

nee_decoder.2.bias f4 [16]
-0.017042128 -0.0139001375 -0.020103503 -0.014407849 -0.013000585 0.014537472 -0.03222171 -0.007970711
-0.001040811 -0.008872161 -0.011900776 0.011039451 -0.013821851 -0.019896988 -0.009407717 -0.034913376
00000000: ef9b 8bbc 67bd 63bc 1ab0 a4bc e60e 6cbc
00000010: 6800 55bc 942e 6e3c e9fa 03bd 9697 02bc
00000020: d26b 88ba 8a5c 11bc 79fb 42bc d0de 343c
00000030: 0c75 62bc 02ff a2bc d322 1abc 5401 0fbd

nee_decoder.3.weight f4 [1, 16]
0.1503138 0.1940879 0.11865762 0.474264 0.5038042 -0.5160422 0.025498556 0.15598142
0.070698135 0.18869384 0.53749967 -0.3515292 0.5803073 0.060711253 0.16638665 0.02154519
00000000: dceb 193e fabe 463e c402 f33d bbd2 f23e
00000010: 50f9 003f 571b 04bf 59e2 d03c 98b9 1f3e
00000020: 2fca 903d f538 413e 9499 093f a3fb b3be
00000030: 058f 143f 5dac 783d 4361 2a3e 8a7f b03c

fc_mu.0.weight f4 [4, 32]
-0.23431812 0.23449132 0.15355581 0.3824624 -0.63136226 -0.15850015 -0.10861962 0.5447825
-0.13826117 -0.4763258 0.055458568 -0.90055877 -0.06256976 0.23013097 -0.45892298 -0.017103342
0.49401042 0.33789676 0.13404457 -0.3147138 -0.10151661 0.16688421 -0.0004618822 0.27880636
-0.44930658 0.27211174 0.13858877 0.33889338 0.24674614 0.16807109 -0.1804404 0.18073767
-0.29116288 -0.09640625 -0.12808712 0.24001972 0.11068548 -0.26895893 0.19727717 0.34648687
0.058880888 -0.05761599 0.18122795 -0.2302914 -0.3285169 -0.05647497 -0.21201786 -0.15189308
-0.1957865 -0.05476536 -0.46170947 0.30919167 -0.0042060744 0.22482327 0.1037667 -0.17451538
-0.108279884 0.6000884 -0.029879447 -0.3698578 -0.40013868 -0.23337641 -0.41561976 -0.25562322
-0.108795315 -0.028553152 0.40660566 0.31365022 0.11532746 -0.139 0.08544714 -0.08167728
0.4088471 0.116857044 0.28139094 -0.26483467 0.3984874 0.22293139 -0.1856089 0.35281405
-0.18556122 0.40348247 -0.1012581 -0.15449099 -0.09045733 0.115048565 -0.42199036 0.12871484
0.37444142 -0.10100402 -0.20667063 -0.03710934 -0.34467155 0.18985754 -0.011640203 -0.066274576
0.44281152 -0.18916544 -0.15441562 0.5878362 -0.07085724 0.23485237 0.43712276 -0.08842539
-0.60579383 0.16800393 -0.035963506 -0.27202183 -0.3830371 -0.24179581 0.06955004 -0.13238974
0.38718182 0.039309006 0.033547487 0.20680474 -0.040784854 -0.06939485 -0.2196859 -0.34842074
0.11096732 0.097345956 -0.0039391755 -0.09291048 0.06493459 0.14649872 -0.22095962 0.43930724
00000000: 17f1 6fbe 7e1e 703e bc3d 1d3e 1dd2 c33e
00000010: f5a0 21bf dd4d 22be f773 debd de76 0b3f
00000020: 5694 0dbe fae0 f3be 8628 633d 058b 66bf
00000030: 9324 80bd 74a7 6b3e f4f7 eabe 4f1c 8cbc
00000040: efee fc3e ce00 ad3e fb42 093e 2b22 a1be
00000050: f1e7 cfbd b2e3 2a3e c828 f2b9 b5bf 8e3e
00000060: 830b e6be 3b52 8b3e 37ea 0d3e 6f83 ad3e
00000070: 05ab 7c3e d41a 2c3e 5ec5 38be 4c13 393e
00000080: 4d13 95be a470 c5bd 4529 03be bbc7 753e
00000090: 12af e23d fcb4 89be 0703 4a3e ba66 b13e
000000a0: 162d 713d bffe 6bbd d293 393e 82d1 6bbe
000000b0: 5e33 a8be 4c52 67bd 361b 59be dc89 1bbe
000000c0: 427c 48be a451 60bd 2f65 ecbe 5f4e 9e3e
000000d0: 1cd3 89bb 1238 663e a383 d43d 29b4 32be
000000e0: d8c1 ddbd 659f 193f bec5 f4bc 005e bdbe
000000f0: fade ccbe 3afa 6ebe 1dcc d4be 0ce1 82be
00000100: 14d0 debd 4de8 e9bc 9e2e d03e c396 a03e
00000110: ce30 ec3d 0456 0ebe e9fe ae3d 6b46 a7bd
00000120: 6854 d13e bf52 ef3d 7912 903e 6998 87be
00000130: 8a06 cc3e 2048 643e 4210 3ebe 0ba4 b43e
00000140: c303 3ebe 4195 ce3e 6860 cfbd e332 1ebe
00000150: b141 b9bd 959e eb3d 1f0f d8be d3cd 033e
00000160: c9b6 bf3e 32db cebd 77a1 53be f7ff 17bd
00000170: ca78 b0be 046a 423e 8db6 3ebc f7ba 87bd
00000180: 31b8 e23e 96b4 41be 211f 1ebe 6f7c 163f
00000190: 9a1d 91bd 247d 703e 8ece df3e 5f18 b5bd
000001a0: 4e15 1bbf 3909 2c3e 784e 13bd 7246 8bbe
000001b0: 701d c4be 5299 77be 4070 8e3d 2d91 07be
000001c0: b23c c63e 7b02 213d 1769 093d 9fc4 533e
000001d0: 050e 27bd e31e 8ebd 57f5 60be 3464 b2be
000001e0: d642 e33d 515d c73d 3314 81bb da47 bebd
000001f0: 6dfc 843d c303 163e 3d43 62be e1ec e03e

fc_mu.0.bias f4 [4]
0.0027163217 0.01415727 0.013678843 0.0060027316
00000000: 5104 323b e5f3 673c 3a1d 603c 90b2 c43b

fc_mu.1.weight f4 [1, 4]
-0.30783722 1.0881872 0.8705374 0.011507322
00000000: d79c 9dbe b849 8b3f 8adb 5e3f 3589 3c3c

fc_logvar.0.weight f4 [4, 32]
-0.23431812 0.23449132 0.15355581 0.3824624 -0.63136226 -0.15850015 -0.10861962 0.5447825
-0.13826117 -0.4763258 0.055458568 -0.90055877 -0.06256976 0.23013097 -0.45892298 -0.017103342
0.49401042 0.33789676 0.13404457 -0.3147138 -0.10151661 0.16688421 -0.0004618822 0.27880636
-0.44930658 0.27211174 0.13858877 0.33889338 0.24674614 0.16807109 -0.1804404 0.18073767
-0.29116288 -0.09640625 -0.12808712 0.24001972 0.11068548 -0.26895893 0.19727717 0.34648687
0.058880888 -0.05761599 0.18122795 -0.2302914 -0.3285169 -0.05647497 -0.21201786 -0.15189308
-0.1957865 -0.05476536 -0.46170947 0.30919167 -0.0042060744 0.22482327 0.1037667 -0.17451538
-0.108279884 0.6000884 -0.029879447 -0.3698578 -0.40013868 -0.23337641 -0.41561976 -0.25562322
-0.108795315 -0.028553152 0.40660566 0.31365022 0.11532746 -0.139 0.08544714 -0.08167728
0.4088471 0.116857044 0.28139094 -0.26483467 0.3984874 0.22293139 -0.1856089 0.35281405
-0.18556122 0.40348247 -0.1012581 -0.15449099 -0.09045733 0.115048565 -0.42199036 0.12871484
0.37444142 -0.10100402 -0.20667063 -0.03710934 -0.34467155 0.18985754 -0.011640203 -0.066274576
0.44281152 -0.18916544 -0.15441562 0.5878362 -0.07085724 0.23485237 0.43712276 -0.08842539
-0.60579383 0.16800393 -0.035963506 -0.27202183 -0.3830371 -0.24179581 0.06955004 -0.13238974
0.38718182 0.039309006 0.033547487 0.20680474 -0.040784854 -0.06939485 -0.2196859 -0.34842074
0.11096732 0.097345956 -0.0039391755 -0.09291048 0.06493459 0.14649872 -0.22095962 0.43930724
00000000: 17f1 6fbe 7e1e 703e bc3d 1d3e 1dd2 c33e
00000010: f5a0 21bf dd4d 22be f773 debd de76 0b3f
00000020: 5694 0dbe fae0 f3be 8628 633d 058b 66bf
00000030: 9324 80bd 74a7 6b3e f4f7 eabe 4f1c 8cbc
00000040: efee fc3e ce00 ad3e fb42 093e 2b22 a1be
00000050: f1e7 cfbd b2e3 2a3e c828 f2b9 b5bf 8e3e
00000060: 830b e6be 3b52 8b3e 37ea 0d3e 6f83 ad3e
00000070: 05ab 7c3e d41a 2c3e 5ec5 38be 4c13 393e
00000080: 4d13 95be a470 c5bd 4529 03be bbc7 753e
00000090: 12af e23d fcb4 89be 0703 4a3e ba66 b13e
000000a0: 162d 713d bffe 6bbd d293 393e 82d1 6bbe
000000b0: 5e33 a8be 4c52 67bd 361b 59be dc89 1bbe
000000c0: 427c 48be a451 60bd 2f65 ecbe 5f4e 9e3e
000000d0: 1cd3 89bb 1238 663e a383 d43d 29b4 32be
000000e0: d8c1 ddbd 659f 193f bec5 f4bc 005e bdbe
000000f0: fade ccbe 3afa 6ebe 1dcc d4be 0ce1 82be
00000100: 14d0 debd 4de8 e9bc 9e2e d03e c396 a03e
00000110: ce30 ec3d 0456 0ebe e9fe ae3d 6b46 a7bd
00000120: 6854 d13e bf52 ef3d 7912 903e 6998 87be
00000130: 8a06 cc3e 2048 643e 4210 3ebe 0ba4 b43e
00000140: c303 3ebe 4195 ce3e 6860 cfbd e332 1ebe
00000150: b141 b9bd 959e eb3d 1f0f d8be d3cd 033e
00000160: c9b6 bf3e 32db cebd 77a1 53be f7ff 17bd
00000170: ca78 b0be 046a 423e 8db6 3ebc f7ba 87bd
00000180: 31b8 e23e 96b4 41be 211f 1ebe 6f7c 163f
00000190: 9a1d 91bd 247d 703e 8ece df3e 5f18 b5bd
000001a0: 4e15 1bbf 3909 2c3e 784e 13bd 7246 8bbe
000001b0: 701d c4be 5299 77be 4070 8e3d 2d91 07be
000001c0: b23c c63e 7b02 213d 1769 093d 9fc4 533e
000001d0: 050e 27bd e31e 8ebd 57f5 60be 3464 b2be
000001e0: d642 e33d 515d c73d 3314 81bb da47 bebd
000001f0: 6dfc 843d c303 163e 3d43 62be e1ec e03e

fc_logvar.0.bias f4 [4]
0.0027163217 0.01415727 0.013678843 0.0060027316
00000000: 5104 323b e5f3 673c 3a1d 603c 90b2 c43b

fc_logvar.1.weight f4 [1, 4]
-0.5759037 -0.7584513 -0.6477456 -0.6593026
00000000: 6d6e 13bf dd29 42bf a8d2 25bf 0ec8 28bf

temp_derivative_decoder.0.weight f4 [16, 32]
-0.15936837 -0.4408161 0.021509834 -0.20970947 -0.25902706 0.10420447 0.10481989 -0.22669865
-0.09008353 0.11758221 -0.47038567 -0.14977193 0.36772677 -0.33266345 -0.3289755 -0.1988984
0.26392823 -0.2219556 -0.21884556 -0.0783513 0.19338039 0.23772033 0.2127671 -0.098497555
-0.22609939 -0.103102356 -0.19468743 -0.06883869 -0.035285644 -0.12015388 0.13807468 -0.32437965
0.2418576 0.23668908 -0.25873297 -0.29815084 0.17350881 -0.19129269 -0.045290105 -0.07427929
-0.11090984 -0.00805081 0.11907299 0.40803066 0.6006915 0.0186948 0.20000418 -0.24379356
0.088530816 0.09764136 -0.5164378 0.49944842 0.09379496 0.18758431 0.16090533 -0.09674759
-0.44037095 0.07212857 0.41730857 -0.3372464 -0.5575806 0.010382465 -0.20311719 0.2483654
0.16896859 0.34175578 0.04489918 0.36248565 -0.22085747 0.1561151 -0.021008767 0.50324404
-0.05133907 -0.09723679 0.03653533 -0.065341495 -0.024063505 -0.1434626 0.12894706 -0.14499359
0.15600044 -0.12867196 0.28119898 0.2541135 0.44165707 0.26766613 0.09660192 0.21004735
0.47798592 0.3007456 0.013941597 0.22094159 -0.013062214 -0.0230045 0.5707026 0.19694306
-0.12509023 0.044554833 0.2712232 -0.21440184 -0.22519301 0.47180083 0.13034497 0.24228802
0.1119473 -0.15120447 -0.16990189 -0.027179677 0.23305146 0.41955748 -0.035531837 0.06103652
0.0774042 0.57389253 -0.16598298 0.20703349 0.16550933 -0.2963069 0.3280861 -0.5214995
-0.24906869 -0.12386076 0.14515787 0.025365224 -0.19385143 0.19181776 0.03470333 -0.39762396
-0.10942898 -0.30768654 0.36339518 0.07949325 0.17143852 0.5446434 0.040651605 -0.04618839
0.24387784 -0.062248737 0.28442958 -0.14235662 0.01870937 -0.42122337 0.20286986 -0.7168059
0.045310095 -0.37302 0.17597544 0.38503253 -0.123155095 0.049866334 -0.11948776 -0.04469818
-0.030821439 -0.19040099 0.43712202 0.17846766 0.03812377 0.027896352 -0.5284069 0.19572426
-0.33434168 0.551755 0.2777919 -0.10343287 0.111883484 0.19512841 0.14634259 0.042534873
0.25687933 -0.07020851 0.12728985 0.25943044 0.30044428 -0.20300129 -0.17368028 -0.07222277
0.063761614 0.09472605 0.1595026 0.28970075 0.36513948 -0.23248439 -0.4037237 0.18035667
0.012047749 0.06659226 0.27536413 0.0082649635 -0.23080236 0.12683137 0.19227132 -0.4287507
-0.040265486 0.14848237 -0.02254065 0.071570955 0.31109488 0.0033703132 0.39050156 0.23653054
0.037923545 0.0042680004 -0.26207656 0.14818363 0.006588788 0.38826418 -0.13376161 0.060002327
0.012618846 -0.514273 0.15903871 0.20810995 -0.20046617 0.22995293 -0.2447105 -0.0022606628
0.22629485 0.02277092 -0.30313066 -0.34094626 -0.1997418 0.38561603 0.36521986 0.304153
-0.24264629 0.097029574 -0.09843822 0.4279048 -0.06919305 0.060965605 0.013758851 0.0434737
-0.031833682 0.28938708 0.096552886 -0.11806559 0.17054036 -0.12172674 0.2094604 0.18647878
-0.13138832 0.08315583 -0.12436216 -0.020589568 -0.26928565 -0.106859 -0.22061951 0.1025233
-0.33125928 -0.19409023 -0.08520096 -0.07583487 0.21267185 0.41732764 0.19461767 -0.30983245
00000000: 7631 23be a6b2 e1be 6435 b03c 14be 56be
00000010: 329f 84be 2769 d53d cfab d63d b123 68be
00000020: b77d b8bd f1ce f03d 64d6 f0be d05d 19be
00000030: af46 bc3e dd52 aabe 7a6f a8be 06ac 4bbe
00000040: 9a21 873e 5448 63be 0d19 60be a576 a0bd
00000050: 8205 463e f56c 733e 9edf 593e 16b9 c9bd
00000060: 9986 67be 5427 d3bd 245c 47be 4dfb 8cbd
00000070: ae87 10bd 3d13 f6bd 7363 0d3e 1715 a6be
00000080: 85a9 773e 9f5e 723e a678 84be 3aa7 98be
00000090: 4bac 313e 3be2 43be 1e82 39bd be1f 98bd
000000a0: b324 e3bd 8be7 03bc 8adc f33d 65e9 d03e
000000b0: ebc6 193f d625 993c e5cd 4c3e 05a5 79be
000000c0: a54f b53d 31f8 c73d 4535 04bf b4b7 ff3e
000000d0: 9217 c03d 1a16 403e 5ec4 243e 9a23 c6bd
000000e0: 4d78 e1be 25b8 933d 78a9 d53e 8fab acbe
000000f0: 9abd 0ebf 371b 2a3c f4fd 4fbe 8053 7e3e
00000100: 1a06 2d3e 9dfa ae3e 34e8 373d b897 b93e
00000110: 7628 62be a3dc 1f3e 941a acbc 9ad4 003f
00000120: eb48 52bd 1524 c7bd 12a6 153d c3d1 85bd
00000130: d420 c5bc dce7 12be b30a 043e 3379 14be
00000140: 94be 1f3e 95c2 03be 50f9 8f3e 2a1b 823e
00000150: e020 e23e 890b 893e 3ad7 c53d a716 573e
00000160: 92ba f43e 54fb 993e 4c6b 643c 833e 623e
00000170: e502 56bc ef73 bcbc 9119 123f 71ab 493e
00000180: a717 00be 217f 363d c4dd 8a3e 288c 5bbe
00000190: ff98 66be e18f f13e 2779 053e 5a1a 783e
000001a0: a044 e53d 58d5 1abe c3fa 2dbe eaa7 debc
000001b0: 0ba5 6e3e 3dd0 d63e d589 11bd 6e01 7a3d
000001c0: 1886 9e3d 9fea 123f 71f7 29be 9600 543e
000001d0: 477b 293e 8ab5 97be e7fa a73e fe80 05bf
000001e0: dd0b 7fbe b6aa fdbd 44a4 143e bbca cf3c
000001f0: fd80 46be e06b 443e 1425 0e3d 5e95 cbbe
00000200: 4d1c e0bd 1789 9dbe ef0e ba3e 5bcd a23d
00000210: 948d 2f3e c06d 0b3f 4c82 263d 0a30 3dbd
00000220: 1dbb 793e 88f8 7ebd c1a0 913e efc5 11be
00000230: 6544 993c 97aa d7be 1ebd 4f3e 9780 37bf
00000240: 1497 393d 7afc bebe e832 343e fc22 c53e
00000250: bd38 fcbd a440 4c3d 00b6 f4bd 7015 37bd
00000260: 3e7d fcbc 7af8 42be 75ce df3e 3ac0 363e
00000270: ac27 1c3d e486 e43c ad45 07bf f16b 483e
00000280: d52e abbe d13f 0d3f bd3a 8e3e 9dd4 d3bd
00000290: 2b23 e53d becf 473e d5da 153e 0c39 2e3d
000002a0: b085 833e 7bc9 8fbd 4558 023e 11d4 843e
000002b0: d5d3 993e 92df 4fbe 3ed9 31be 88e9 93bd
000002c0: 7395 823d bbff c13d a654 233e a853 943e
000002d0: 90f3 ba3e 6310 6ebe dfb4 cebe 6baf 383e
000002e0: ec63 453c 8661 883d 87fc 8c3e c569 073c
000002f0: 7457 6cbe 15e0 013e c6e2 443e 3685 dbbe
00000300: 6ced 24bd c30b 183e 2ba7 b8bc cb93 923d
00000310: d447 9f3e 79e0 5c3b d2ef c73e 1035 723e
00000320: b855 1b3d 95da 8b3b e62e 86be 73bd 173e
00000330: c2e6 d73b 90ca c63e cef8 08be 00c5 753d
00000340: 47bf 4e3c 65a7 03bf 0bdb 223e c61a 553e
00000350: 0147 4dbe c878 6b3e 6495 7abe a127 14bb
00000360: d6b9 673e 158a ba3c f133 9bbe 8290 aebe
00000370: 1d89 4cbe 776f c53e 19fe ba3e f1b9 9b3e
00000380: 4578 78be 71b7 c63d fa99 c9bd 5716 db3e
00000390: 16b5 8dbd 12b7 793d ce6c 613c 7a11 323d
000003a0: 0964 02bd 8b2a 943e 85bd c53d 5fcc f1bd
000003b0: 22a2 2e3e de4b f9bd c97c 563e 4bf4 3e3e
000003c0: a98a 06be 9b4d aa3d 97b1 febd 74ab a8bc
000003d0: cfdf 89be e4d8 dabd 15ea 61be bcf7 d13d
000003e0: d19a a9be 97bf 46be d77d aebd 504f 9bbd
000003f0: a6c6 593e f8ab d53e db49 473e 5ca2 9ebe

temp_derivative_decoder.0.bias f4 [16]
-0.02086237 0.0 -0.02648978 0.021968009 -0.029172828 -0.02620398 0.16222154 -0.012297513
-7.2346615e-05 -0.031446405 -0.019464577 0.0 0.031325556 -0.008252291 -0.026285807 -0.027840732
00000000: 90e7 aabc 0000 0000 1801 d9bc 41f6 b33c
00000010: dbfb eebc bba9 d6bc 671d 263e 827b 49bc
00000020: cbb8 97b8 f2cd 00bd 2d74 9fbc 0000 0000
00000030: 3a4f 003d 9e34 07bc 5555 d7bc 3f12 e4bc
