.archive/piae_sde/experiments/2024-11-25_17-40-13-661442/123/best_model.pth (torch, 25314 bytes, 28 tensors)

encoder.0.weight f4 [16, 18]
0	0xbd7c5ffd	-0.06161498
1	0xbe7a7d00	-0.24461746
2	0x3eaa78fd	0.33295432
3	0x3e6dba9e	0.2321572
4	0xbe59ac94	-0.2125724
5	0x3cf9de21	0.030501427
6	0xbebdf897	-0.37103721
7	0xbe8d8b66	-0.27645415
8	0xbe2646e2	-0.16237977
9	0x3df168b3	0.11787548
10	0x3c204ac1	0.009783448
11	0x3eaea997	0.34113762
12	0xbdf76bbe	-0.12081097
13	0x3dd1ffbe	0.10253857
14	0x3e3d1bc4	0.18467623
15	0x3e99cdb8	0.30039763
16	0xbe2a1647	-0.1661006
17	0x3e96c281	0.2944527
18	0x3e3696b9	0.17830934
19	0x3dbc48f1	0.091936
20	0xbdb913bb	-0.090369664
21	0x3ecd1e73	0.40062293
22	0xbe8a5f6f	-0.27025935
23	0x3ec7e84e	0.39044422
24	0xbde9d7a8	-0.11418086
25	0xbe24ff98	-0.16113126
26	0xbe367d3b	-0.17821209
27	0xbeb4978e	-0.35271877
28	0xbed37783	-0.41302118
29	0xbd8151b8	-0.06314415
30	0x3d5d4b10	0.054026663
31	0xbe71a2e2	-0.23597291
32	0x3be6c251	0.0070422073
33	0xbe27ba35	-0.16379626
34	0xbea2e713	-0.3181692
35	0xbdf02334	-0.117254645
36	0x3df489de	0.119403586
37	0xba4d3964	-0.0007828681
38	0xbcff5dcb	-0.031172654
39	0xbeab5580	-0.3346367
40	0xbe5457d8	-0.20736635
41	0xbe62ef21	-0.22161533
42	0x3eb6d3b0	0.3570838
43	0xbc6cf820	-0.0144634545
44	0x3ebb4c5f	0.36581704
45	0x3e8fe7ea	0.28106624
46	0xbe8e317d	-0.27772132
47	0x3e9b560f	0.30339095
48	0xbe13add8	-0.14421785
49	0xbebb70e4	-0.36609566
50	0xbdaab4de	-0.08335279
51	0x3e172ed0	0.14763951
52	0xbe412d25	-0.18864878
53	0xbeb9a88d	-0.36261407
54	0x3d8edde8	0.06975919
55	0xbe84e038	-0.25952315
56	0xbe946aa2	-0.28987604
57	0xbea26169	-0.31714943
58	0xbde147c3	-0.110000156
59	0xbe842681	-0.25810626
60	0xbed6c59d	-0.41947642
61	0x3eb7e353	0.35915622
62	0x3c9e3759	0.019313501
63	0x3df40477	0.11914914
64	0xbe5a3c0d	-0.2131197
65	0x3dcee13a	0.10101552
66	0xbe80e54e	-0.25174946
67	0x3e9490bc	0.29016674
68	0x3df46a05	0.11934284
69	0xbec4c1bb	-0.38429055
70	0xbe8a0349	-0.2695563
71	0xbe991227	-0.29896662
72	0x3e2dc60b	0.16970079
73	0x3e19a32d	0.15003653
74	0x3c10e9c8	0.0088448
75	0x3cbd629a	0.023118306
76	0x3d0d1a30	0.034448802
77	0xbea43136	-0.32068795
78	0xbe32361d	-0.17403455
79	0xbe406db6	-0.18791851
80	0x3edd782c	0.43255746
81	0x3d04609b	0.032318693
82	0xbde25347	-0.1105104
83	0x3e458cb8	0.19291961
84	0xbe0398fa	-0.12851325
85	0x3d583c7c	0.052792057
86	0x3e4c23ff	0.19935606
87	0x3e45bba5	0.19309862
88	0x3e431c12	0.19053677
89	0x3ee7c750	0.4526925
90	0xbcda2e95	-0.02663354
91	0x3c51c5dd	0.012803522
92	0xbd7c7e54	-0.061643913
93	0x3ec0cfc3	0.3765851
94	0xbeaf9c99	-0.34299162
95	0x3eaaa6e7	0.3333046
96	0x3dd445a6	0.10364847
97	0xbdad4882	-0.084610954
98	0x3eb9a6bf	0.3626003
99	0xbe8e19f0	-0.27754164
100	0xbe6f5c2d	-0.23375006
101	0xbe1677bd	-0.14694114
102	0xbe1c45b8	-0.1526097
103	0x3d16686e	0.036720686
104	0xbe905166	-0.28187102
105	0xbe94ff76	-0.2910115
106	0xbec47b09	-0.38375118
107	0xbec28afd	-0.37996665
108	0xbdbc5e45	-0.09197668
109	0xbd1e823d	-0.038698424
110	0xbe70aed8	-0.23504198
111	0xbe1c21b9	-0.15247239
112	0x3d4120e2	0.0471505
113	0x3e70331b	0.23456995
114	0xbd6c63f3	-0.057712507
115	0x3ea8c930	0.32965994
116	0xbea81c96	-0.3283431
117	0x3d95a6d9	0.07307214
118	0x3c9255e2	0.017863218
119	0x3c6e2e38	0.014537387
120	0xbd7b9fd9	-0.06143174
121	0xbdd16e6c	-0.102261394
122	0xbe7a2413	-0.24427824
123	0x3e2d071a	0.1689724
124	0x3ebe5fcb	0.3718246
125	0xbc664790	-0.014055148
126	0x3de0276a	0.10945018
127	0x3dabf7b9	0.08396859
128	0xbde69bd0	-0.112601876
129	0xbd495793	-0.049155783
130	0xbd576699	-0.05258808
131	0xbe73e85c	-0.23819107
132	0xbdca6ea6	-0.09884386
133	0xbd063faa	-0.03277556
134	0xbe75f13a	-0.24017802
135	0x3e97daef	0.2965922
136	0xbe5959ea	-0.21225706
137	0xbe326861	-0.1742263
138	0xbdea1d54	-0.11431375
139	0xbe7eeaae	-0.2489421
140	0x3e4f7162	0.20258096
141	0xbe3c1cad	-0.18370314
142	0x3dc6d40d	0.09708414
143	0xbedb396b	-0.42817244
144	0x3dc27bf3	0.09496298
145	0x3e0528b6	0.13003811
146	0x3d84774b	0.06468066
147	0x3d93bf7e	0.072142586
148	0x3e157c56	0.14598212
149	0xbc199f3a	-0.0093763415
150	0xbe5ebf78	-0.21752727
151	0xbd1ce354	-0.038302734
152	0x3eb8ea2f	0.36116168
153	0x3dfa293a	0.122148946
154	0x3e78eae1	0.24308349
155	0x3f22b4b2	0.6355697
156	0xbe6796d1	-0.22616126
157	0x3e2f7edd	0.17138238
158	0x3e811e5f	0.25218484
159	0xbe901385	-0.28139892
160	0x3dc7d6eb	0.09757789
161	0xbe28e48d	-0.16493435
162	0xbdcd9343	-0.100378536
163	0xbe0e3b32	-0.13889769
164	0x3e9f7123	0.31141004
165	0x3e45016a	0.1923882
166	0xbdc9a38a	-0.09845646
167	0x3e35d8fa	0.17758551
168	0x3e9028d5	0.28156152
169	0xbe093736	-0.13399968
170	0xbe86b82c	-0.26312387
171	0xbd5590ff	-0.052140232
172	0x3e6182a5	0.22022493
173	0xbe42d739	-0.19027413
174	0x3e29dc9d	0.16588064
175	0x3db371ad	0.08761916
176	0x3ddf1e1f	0.10894417
177	0xbe289c22	-0.1646581
178	0x3ed1b8c3	0.40961275
179	0xbd59a11b	-0.053132158
180	0x3ec3db6d	0.38253346
181	0x3e85b761	0.2611647
182	0x3e80a47d	0.25125495
183	0xba16714e	-0.00057389296
184	0xbcf00979	-0.029301392
185	0xbea06d71	-0.31333497
186	0xbdbc272d	-0.0918716
187	0x3e29bd3b	0.16576092
188	0xbe077c2c	-0.13230962
189	0xbe89bbba	-0.26901037
190	0x3e57c574	0.21071416
191	0x3e4cf3f5	0.20014937
192	0xbe6f5783	-0.23373227
193	0x3e46c9d2	0.19412926
194	0x3e947527	0.2899563
195	0x3d6f265d	0.058386195
196	0xbea20f16	-0.31652135
197	0xbe57be3c	-0.21068662
198	0xbd201cd1	-0.03908998
199	0xbd13c4e1	-0.03607643
200	0xbd86b66e	-0.065777645
201	0xbdac38b1	-0.084092505
202	0xbbbf0030	-0.00582888
203	0xbde71ac3	-0.11284401
204	0x3d81533a	0.06314702
205	0xbda0f622	-0.07859446
206	0x3ea06eae	0.31334442
207	0xbe6a0a11	-0.22855403
208	0xbe6e55ea	-0.23274961
209	0xbe3e656f	-0.18593381
210	0x3e67af64	0.226255
211	0xbe5521fb	-0.20813744
212	0xbd201044	-0.039078012
213	0xbebb8199	-0.36622313
214	0x3ee294e4	0.4425422
215	0xbcbcfc83	-0.023069626
216	0xbeac934b	-0.33706126
217	0x3e9c910d	0.30579415
218	0xbdc400f0	-0.09570491
219	0xbe918e4d	-0.2842888
220	0x3eab4479	0.33450678
221	0x3e908a28	0.28230405
222	0xbdb6008b	-0.08886822
223	0xbdaeed32	-0.08541335
224	0xbe22c632	-0.15895918
225	0xbcf6717b	-0.030083409
226	0x3ea64f70	0.3248248
227	0xbe8209ed	-0.25398198
228	0xbea2e079	-0.31811884
229	0xbe89e802	-0.2693482
230	0xbe4e41f7	-0.20142351
231	0x3e29a1c8	0.16565621
232	0xbe803c4d	-0.25046006
233	0xbec9088f	-0.39264342
234	0xbeade71d	-0.33965388
235	0x3e967b3a	0.2939089
236	0xbe0e8932	-0.13919523
237	0xbdf73488	-0.120705664
238	0xbe4146a4	-0.18874604
239	0xbe6401cc	-0.2226631
240	0x3e99326f	0.2992129
241	0x3e47d0b3	0.19513206
242	0x3d79bcbf	0.060971018
243	0x3b9a7831	0.004714035
244	0xbd798133	-0.06091423
245	0x3e516efc	0.20452493
246	0xbca25c60	-0.019819438
247	0xbea03f5f	-0.31298348
248	0x3d87c817	0.06629961
249	0x3cec87a6	0.028873276
250	0xbe861471	-0.2618747
251	0xbd4ee7fa	-0.0505142
252	0x3e7defcb	0.24798505
253	0xbe0c3f92	-0.13696125
254	0x3cbdef77	0.023185475
255	0x3ec7cbe7	0.39022753

encoder.0.bias f4 [16]
0	0xbd143034	-0.036178783
1	0x00000000	0.0
2	0x00000000	0.0
3	0x00000000	0.0
4	0xbcb86b5d	-0.022512132
5	0x00000000	0.0
6	0xbc972452	-0.018449936
7	0xbc08f4d3	-0.008359152
8	0xbd7206d7	-0.059088554
9	0xbc87a1af	-0.016556589
10	0x00000000	0.0
11	0xbd334c52	-0.043773957
12	0x00000000	0.0
13	0x00000000	0.0
14	0x00000000	0.0
15	0xb9efab78	-0.00045713386

encoder.2.weight f4 [16, 16]
0	0x3f0f45a9	0.5596567
1	0xbe291782	-0.16512874
2	0xbddf6ccf	-0.109094255
3	0x3da9b78c	0.08286962
4	0x3ed92e99	0.42418364
5	0x3de387ec	0.111099094
6	0x3e8b7f98	0.27245784
7	0x3e70b85b	0.23507826
8	0x3c8d31a0	0.017235577
9	0xbe8beb7b	-0.27328095
10	0xbcecf5f0	-0.028925866
11	0xbc848362	-0.01617593
12	0xbe6d7599	-0.23189391
13	0x3e155baf	0.14585756
14	0x3ed12de7	0.40855333
15	0x3ddd7980	0.1081419
16	0xbda3f14d	-0.08005009
17	0x3e1327e0	0.1437068
18	0x3ebc1ed2	0.36742264
19	0x3de5beae	0.1121801
20	0x3e1c77cc	0.15280074
21	0x3dfa98f8	0.12236208
22	0x3e918edf	0.28429314
23	0xbe349370	-0.17634368
24	0xbbc61aa5	-0.0060456567
25	0xbe574d8f	-0.2102568
26	0xbde808c3	-0.11329796
27	0x3e9e6167	0.30933687
28	0xbe2f278f	-0.17104934
29	0xbe6dae22	-0.23210958
30	0x3e3bf3cd	0.18354721
31	0x3e8c8db0	0.2745185
32	0xbeb1dc3b	-0.34738335
33	0x3d377e15	0.044797976
34	0xbe81694b	-0.25275645
35	0x3e02bd30	0.12767482
36	0x3e148c96	0.14506754
37	0xbe2c5a46	-0.16831312
38	0xbe494fe2	-0.19659379
39	0x3ed8ea5b	0.423663
40	0xbca742c3	-0.020417577
41	0x3ecbb15a	0.39783746
42	0xbe3bc3a5	-0.18336351
43	0x3e6d7309	0.23188414
44	0xbe444084	-0.19165236
45	0xbd6ec327	-0.05829158
46	0xbedd3aa5	-0.43208805
47	0x3ed3b434	0.41348422
48	0x3e96a696	0.2942397
49	0xbe9cee3e	-0.30650514
50	0xbe9e0bc1	-0.30868343
51	0xbe1c6db1	-0.15276219
52	0x3eb7324e	0.35780567
53	0x3ddd3e40	0.10802889
54	0x3db5be9e	0.08874248
55	0xbebe4fae	-0.37170166
56	0xbec0947a	-0.3761328
57	0xbe829618	-0.25505137
58	0xbea96283	-0.3308297
59	0xbdca0bfd	-0.09865568
60	0xbeaec58a	-0.34135085
61	0xbe4d9650	-0.20076871
62	0xbdc83fe3	-0.097778104
63	0xbe546a8f	-0.20743774
64	0xbec0dfb8	-0.37670684
65	0x3e01f114	0.1268962
66	0x3ebf266f	0.3733401
67	0xbed1c7a4	-0.40972626
68	0x3ecd04c2	0.40042692
69	0xbe1eddbe	-0.15514275
70	0x3e83db2b	0.2575315
71	0x3e45cdfe	0.19316861
72	0x3ed11601	0.408371
73	0xbe9502b5	-0.29103628
74	0xbc77ed45	-0.015132253
75	0xbea05ac5	-0.31319252
76	0x3b507d25	0.0031812873
77	0x3e1cf4d5	0.15327771
78	0x3e8a96cb	0.2706817
79	0xbe945544	-0.28971303
80	0xbe0bd1b8	-0.1365422
81	0xbe25728b	-0.16156976
82	0xbd92812e	-0.07153545
83	0xbdc8ae55	-0.09798876
84	0xbea943cf	-0.33059546
85	0x3ecb2aa8	0.39680982
86	0x3e228a1b	0.15872996
87	0xbbf96153	-0.007610479
88	0xbe1db3db	-0.1540064
89	0x3e4fdb59	0.20298518
90	0x3ed9ec3d	0.42563048
91	0x3e8eebf8	0.27914405
92	0xbed307c6	-0.41216868
93	0xbe61f554	-0.22066242
94	0xbecf2efd	-0.40465537
95	0xbd7e6219	-0.062105272
96	0xbd744d37	-0.05964395
97	0xbea3d773	-0.32000312
98	0xbea42cdd	-0.32065478
99	0x3df35c07	0.11882787
100	0x3ec24098	0.37939906
101	0xbd928a45	-0.07155279
102	0x3e8db00c	0.27673376
103	0xbdfe82aa	-0.12427266
104	0xbd4b5e94	-0.049650744
105	0xbed7191f	-0.42011353
106	0xbddde141	-0.108339794
107	0xbec7f9f8	-0.390579
108	0x3dbd778a	0.09251316
109	0x3eb46ef2	0.35240895
110	0xbe5881bf	-0.21143244
111	0x3c0b5874	0.008504976
112	0xbd2a5924	-0.041588917
113	0x3e9021f5	0.28150907
114	0x3eb49fc6	0.35278147
115	0xbecf13c3	-0.40444764
116	0xbe19ce40	-0.15020084
117	0xbdcb6388	-0.099310935
118	0x3d94640b	0.07245644
119	0xbd57dd30	-0.052701175
120	0xbe9af222	-0.30262858
121	0x3e956aff	0.29183194
122	0xbc67f000	-0.014156342
123	0xbe84edab	-0.25962576
124	0xbeb81364	-0.35952294
125	0xbeaf60cb	-0.34253535
126	0xbecc99d5	-0.39961115
127	0xbe4fcdd8	-0.20293367
128	0xbe450bd0	-0.19242787
129	0xbe0dd555	-0.13850911
130	0xbc2811a8	-0.010258116
131	0x3de59885	0.112107314
132	0x3f05442c	0.5205715
133	0xbe7cec44	-0.24699503
134	0x3df894c2	0.12137748
135	0xbe45a586	-0.19301423
136	0xbee6e3de	-0.45095724
137	0x3e51b9da	0.20481053
138	0xbebd2d11	-0.36948445
139	0xbeb44426	-0.35208243
140	0x3d4c89ae	0.04993599
141	0xbea03ff6	-0.31298798
142	0x3e627fc8	0.22119057
143	0xbd94000e	-0.07226573
144	0x3eb650ef	0.35608622
145	0xbe4729e8	-0.1944958
146	0xbe3bf14d	-0.18353768
147	0x3e3c5329	0.18391098
148	0x3d9781ed	0.07397828
149	0x3e22d43d	0.15901275
150	0x3dd45d91	0.10369409
151	0xbe3ef329	-0.18647446
152	0x3e750ed9	0.23931445
153	0x3e7297ec	0.23690766
154	0xbe3b6557	-0.18300377
155	0x3da5c422	0.0809405
156	0x3dffe07c	0.12493989
157	0xbe8947f4	-0.26812708
158	0xbdcddf4d	-0.10052357
159	0xbeeee6ec	-0.46660554
160	0xbdd5fc24	-0.10448483
161	0xbdb20d07	-0.08693891
162	0xbe580b2f	-0.21098016
163	0x3df654cd	0.12027893
164	0x3ec7be59	0.3901241
165	0xbd6610fb	-0.056168538
166	0xbeb4b32f	-0.35292956
167	0x3ec1993b	0.37812218
168	0xbc307f9a	-0.01077261
169	0x3ebb1600	0.36540222
170	0xbdfdaf68	-0.12386972
171	0xbe8b8fa0	-0.27258015
172	0xbdcffcf9	-0.101556726
173	0x3daa0006	0.08300786
174	0x3e49df14	0.19714004
175	0x3ee07d16	0.43845433
176	0x3deaca86	0.114644095
177	0x3e1b22e5	0.1515003
178	0xbe2c1609	-0.1680528
179	0xbcd908d5	-0.02649347
180	0x3e244a4c	0.16043967
181	0x3d2a8ff9	0.04164121
182	0x3eb70b7e	0.35750955
183	0x3e80160e	0.25016826
184	0x3dba8881	0.09108067
185	0x3ed20bea	0.41024715
186	0xbeb4e6f2	-0.35332447
187	0x3ea69b6e	0.32540458
188	0x3e67e3c1	0.22645475
189	0xbe6b682a	-0.22988954
190	0x3e8c4500	0.27396393
191	0x3d844fb4	0.06460515
192	0x3e1520a6	0.14563236
193	0xbe24487e	-0.16043279
194	0xbd6646ff	-0.05622005
195	0xbecc54ec	-0.3990854
196	0x3e9ce0af	0.3064017
197	0xbeda4c69	-0.4263642
198	0x3e8dc9b9	0.27692965
199	0x3edae78b	0.42754778
200	0x3edb0f9f	0.42785355
201	0x3ee5f5d7	0.44914123
202	0xbdef78db	-0.11692973
203	0xbea7845e	-0.32718176
204	0x3dd6df09	0.10491759
205	0x3defb713	0.117048405
206	0x3df93c3b	0.12169691
207	0xbe66debb	-0.22545902
208	0x3eb09523	0.34488782
209	0x3e96c440	0.29446602
210	0xbde8a1c0	-0.11358976
211	0xbe05f335	-0.13081057
212	0xbd279d57	-0.040921535
213	0x3e14ec1a	0.1454319
214	0xbe73c51d	-0.23805661
215	0xbeb91063	-0.36145315
216	0xbdcc6586	-0.099803016
217	0xbe63dd71	-0.22252442
218	0xbebb7ea5	-0.3662006
219	0xbe82bf76	-0.25536698
220	0x3bdb88b8	0.0066996478
221	0xbc566a6c	-0.013086896
222	0xbe3e53cb	-0.18586652
223	0xbe0d566f	-0.13802503
224	0x3d9f8a1c	0.07790014
225	0x3ebd028d	0.3691601
226	0xbe6ae05c	-0.22937149
227	0x3e8ed645	0.2789785
228	0xbe9540fe	-0.29151148
229	0xbdc22d5f	-0.0948131
230	0x3ec8dfeb	0.39233336
231	0xbe2a0bcf	-0.16606067
232	0xbea33e4e	-0.31883472
233	0xbe556e0e	-0.20842764
234	0x3ec5ce47	0.3863394
235	0xbec5759c	-0.3856629
236	0xbddf02c0	-0.108891964
237	0xbe8975c9	-0.26847675
238	0x3ce55f3a	0.02799951
239	0x3e6794a9	0.22615303
240	0x3f1572db	0.5837838
241	0x3e7a0c10	0.24418664
242	0xbe74e561	-0.23915626
243	0xbe0019f6	-0.12509903
244	0x3ebcff82	0.36913687
245	0xbeccd0f2	-0.40003163
246	0x3e6fe972	0.23428896
247	0xbece26ec	-0.4026407
248	0xbe054332	-0.13013914
249	0x3d4ccf27	0.050002243
250	0xbd0e25bd	-0.03470396
251	0x3e2e19e0	0.17002058
252	0x3dfefd7a	0.124506906
253	0xbe4d47d7	-0.20046936
254	0x3d8f570a	0.06999023
255	0x3e975acc	0.2956146

encoder.2.bias f4 [16]
0	0xbd069a7f	-0.032862183
1	0x3c9bc8b4	0.019016601
2	0xbd24dc93	-0.04024942
3	0x00000000	0.0
4	0xbcd93c0f	-0.026517896
5	0x3cbed17c	0.02329325
6	0x00000000	0.0
7	0x00000000	0.0
8	0x3e9e5cb2	0.30930096
9	0xbda0525c	-0.07828209
10	0x3c9ffe9f	0.019530592
11	0xbd14b16d	-0.03630202
12	0x3c0a71d4	0.00844999
13	0x00000000	0.0
14	0x00000000	0.0
15	0xbcaf73b8	-0.021417484

encoder.4.weight f4 [32, 16]
0	0xbe50a21f	-0.20374344
1	0x3e4a23f4	0.19740278
2	0xbe5363c9	-0.20643534
3	0xbd1fdd38	-0.03902933
4	0x3e81677f	0.25274274
5	0x3e927950	0.2860818
6	0x3dd7a24d	0.10529003
7	0xbd1cb3ef	-0.038257536
8	0xbf3efc8d	-0.7460411
9	0x3ebacdb5	0.36485067
10	0xbe3201be	-0.17383477
11	0x3e880400	0.26565552
12	0x3e882205	0.26588455
13	0x3e6082d5	0.21924908
14	0xbe19d603	-0.15023045
15	0xbd3720a3	-0.04470886
16	0x3d72a53f	0.059239622
17	0xbe6d1092	-0.23150852
18	0xbdeeb477	-0.11655515
19	0xbdd677d6	-0.10472076
20	0x3e7adcb5	0.24498256
21	0xbe8c8bda	-0.27450448
22	0x3d94a36d	0.072577335
23	0x3e8e9169	0.27845314
24	0x3ab423ec	0.0013743616
25	0xbc98d286	-0.018655073
26	0x3c8395b5	0.016062597
27	0xbdb6137d	-0.08890436
28	0xbe807e83	-0.2509652
29	0x3d42984a	0.047508515
30	0xbea77549	-0.3270667
31	0xbe2f7a9d	-0.17136617
32	0xbe5e3f8d	-0.2170393
33	0xbd160949	-0.03662995
34	0xbca11301	-0.019662382
35	0x3eb18bf5	0.3467709
36	0x3dfe0ab7	0.124043874
37	0xbd6fbe97	-0.05853137
38	0x3ce8ee94	0.028434075
39	0xbe68bffd	-0.22729488
40	0x3d1d3f2a	0.038390316
41	0x3e4b0603	0.19826512
42	0x3e6a9bd1	0.22911002
43	0xbe37319f	-0.17890023
44	0xbe8a502f	-0.270143
45	0x3e9477eb	0.2899774
46	0x3de6652b	0.11249765
47	0xbc717507	-0.014737374
48	0xbd168c7d	-0.036755074
49	0x3d453c47	0.048153188
50	0x3e4c96bc	0.19979376
51	0x3dd7f190	0.10544121
52	0xbd9d07df	-0.07667517
53	0x3d90b0e9	0.07064993
54	0xbe66464c	-0.22487754
55	0x3c865f55	0.01640288
56	0x3f6736f4	0.90318227
57	0xbe7dd5dc	-0.24788612
58	0xbe5055c3	-0.20345215
59	0x3e519837	0.20468222
60	0xbeaa3ae1	-0.33248046
61	0x3e83253b	0.25614342
62	0xbe8c9b63	-0.274623
63	0x3ea665d3	0.3249956
64	0x3c8df1e1	0.01732725
65	0x3e739aae	0.23789474
66	0xbe8e6dec	-0.2781824
67	0xbea60e6e	-0.32432884
68	0xbe7d9cb7	-0.24766813
69	0xbea04e69	-0.31309822
70	0xbbae1896	-0.0053129895
71	0xbe7b07aa	-0.24514642
72	0x3ec7822a	0.38966495
73	0x3deffa2e	0.1171764
74	0xbead3115	-0.3382651
75	0x3e3b6358	0.18299615
76	0x3e823d45	0.2543737
77	0xba514ae5	-0.00079838774
78	0x3eaf4b4d	0.34237137
79	0x3c1df299	0.009640359
80	0xbe03bbe9	-0.12864651
81	0x3e760307	0.24024592
82	0xbd7f7f77	-0.06237742
83	0x3eb25db5	0.34837118
84	0xbeaef4a5	-0.34171024
85	0x3cf9bb4d	0.03048482
86	0x3e9b6a68	0.3035462
87	0xbdb1a39b	-0.086737834
88	0x3f03fb4a	0.5155531
89	0x3e4acb76	0.19804177
90	0x3e7b3249	0.24530901
91	0x3d90ce3d	0.07070587
92	0xbcf2d1d8	-0.029641077
93	0x3ddbbb8f	0.10729133
94	0xbe8dfbf3	-0.27731284
95	0x3ec5d914	0.3864218
96	0x3d1ff1e9	0.039049063
97	0x3c8d9b64	0.01728601
98	0xbe33ed56	-0.17571005
99	0x3ea6cecd	0.3257965
100	0xbe05460d	-0.13015004
101	0x3e530c85	0.20610245
102	0xbe9665e6	-0.29374617
103	0xbeb3069e	-0.34965986
104	0x3f479ea7	0.7797646
105	0x3e9023fe	0.2815246
106	0x3df34e9b	0.11880227
107	0xbe3ae8c0	-0.1825285
108	0xbe8cec23	-0.27523908
109	0x3e9acca8	0.30234265
110	0xbd257d54	-0.040402725
111	0x3ebb5d8c	0.36594808
112	0x3e8ee80e	0.2791142
113	0x3e3745b4	0.17897683
114	0xbe7df981	-0.2480221
115	0x3e1e03fa	0.15431204
116	0xbc515ad7	-0.012778006
117	0x3e8cb758	0.2748363
118	0xbcd959b4	-0.026532032
119	0xbda8b982	-0.08238508
120	0x3f17f382	0.5935594
121	0x3d91236b	0.070868336
122	0xbe5a5ce1	-0.21324493
123	0x3c2fe54c	0.010735821
124	0x3e8a486f	0.27008387
125	0xbe90cdc6	-0.28281993
126	0x3eb4204b	0.35180888
127	0x3e526e2a	0.20549837
128	0x3eaa6b1b	0.3328484
129	0xbe9da470	-0.30789518
130	0x3e36436f	0.17799161
131	0x3e045e1d	0.12926526
132	0xbe760d2c	-0.24028462
133	0xbe85176b	-0.2599443
134	0xbe6e29d4	-0.23258144
135	0xbdf29d5d	-0.11846421
136	0x3eaa9c0e	0.33322185
137	0xbc6b1c4e	-0.01435001
138	0xbe9fbc93	-0.31198558
139	0x3ebfc40e	0.37454265
140	0x3eb1553b	0.34635338
141	0x3e2cdf40	0.16882038
142	0x3d5821d3	0.052766632
143	0xbcc8dbb9	-0.024518834
144	0x3ec2e934	0.38068545
145	0x3e222364	0.15833813
146	0x3e762906	0.24039087
147	0x3e1578ff	0.14596938
148	0x3e9a38c4	0.30121434
149	0x3eba41b7	0.3637826
150	0xbeaf6404	-0.34255993
151	0x3e01ee9d	0.1268868
152	0x3e2ca454	0.16859561
153	0x3d0e099b	0.03467713
154	0x3e823171	0.25428346
155	0xbe12b551	-0.14326979
156	0xbda6ec0c	-0.08150491
157	0xbd3e6d50	-0.046490967
158	0xbea979b4	-0.33100665
159	0x3e93e0c5	0.28882423
160	0xbca78091	-0.020447047
161	0x3e809acc	0.251181
162	0x3e12355e	0.1427817
163	0x3e888100	0.2666092
164	0xbe6f82bd	-0.23389716
165	0xbe1def76	-0.15423378
166	0x3e00eb91	0.12589861
167	0x3e102d21	0.14079715
168	0xbd16cda9	-0.036817227
169	0xbe55d4a3	-0.20881896
170	0x3e23fba0	0.16013956
171	0x3dfa74aa	0.12229283
172	0x3e7b939f	0.24568032
173	0x3e3f50e1	0.18683197
174	0x3eaac9fa	0.3335722
175	0x3e3a3261	0.1818328
176	0xbe30b7ef	-0.17257665
177	0x3e8b5909	0.27216366
178	0xbe4e1b86	-0.20127687
179	0x3c190502	0.009339573
180	0xbe91330c	-0.28359258
181	0xbe658b24	-0.22416359
182	0x3dfac81a	0.122451976
183	0xbd225cd7	-0.03963932
184	0x3f1584e8	0.58405924
185	0x3c1b7068	0.009487249
186	0xbeb5093c	-0.35358608
187	0x3da2cfda	0.07949801
188	0x3e6938a3	0.22775511
189	0xbdbed8ca	-0.09318693
190	0xbde97291	-0.11398805
191	0xbea7c61b	-0.3276833
192	0x3e8a1187	0.26966497
193	0xbe80ba57	-0.25142166
194	0x3cd43fbc	0.025909297
195	0x3e967dae	0.2939276
196	0x3d3191f4	0.043352082
197	0xbea6203f	-0.32446477
198	0xbcc988b8	-0.024601325
199	0xbea44b2d	-0.32088605
200	0x3f1cd1ad	0.6125744
201	0x3eaca611	0.3372045
202	0xbcba13a9	-0.022714453
203	0x3e39a5f8	0.18129718
204	0xbeacd78b	-0.33758196
205	0x3e4a2a4b	0.19742696
206	0x3d74ae20	0.05973637
207	0x3df65598	0.120280445
208	0xbe2fb7e0	-0.17159986
209	0xbeaabddc	-0.33347976
210	0xbe244b1d	-0.16044278
211	0xba9fbbfc	-0.0012186761
212	0xbea7ef92	-0.32799965
213	0xbe82bcd8	-0.255347
214	0xbe9b2fa1	-0.30309775
215	0x3eaab32a	0.33339816
216	0x3e168365	0.1469856
217	0xbe20fcfb	-0.15721504
218	0xbcbc11bc	-0.022957675
219	0xbec8eb4c	-0.39242017
220	0xbdb9388f	-0.09043991
221	0x3d58baa6	0.052912377
222	0xbe72e161	-0.23718788
223	0xbe01e3b0	-0.12684512
224	0x3dbf33c6	0.09336047
225	0x3e866f19	0.26256636
226	0x3da8f13b	0.08249136
227	0x3e55b225	0.20868738
228	0x3e68eae7	0.22745858
229	0x3d56e233	0.052461814
230	0xbcde6442	-0.027147416
231	0x3e772765	0.24136122
232	0x3e6e2723	0.23257117
233	0xbe895609	-0.26823452
234	0x3e918b10	0.2842641
235	0xbde9f90f	-0.11424457
236	0x3d474400	0.048648834
237	0xbdb07ed7	-0.08617943
238	0xbea8a9a0	-0.32941914
239	0x3e4ff2e3	0.20307498
240	0x3e85c240	0.26124763
241	0xbcb598d2	-0.022167597
242	0xbe89958f	-0.26871917
243	0xbe6f4d82	-0.2336941
244	0xbce82992	-0.028340135
245	0x3ecb1e99	0.39671782
246	0xbe918f5a	-0.2842968
247	0x3d9ec123	0.07751682
248	0x3e58982a	0.21151796
249	0x3d149a99	0.03628025
250	0x3d4a6614	0.049413756
251	0x3e3867ff	0.18008421
252	0x3e9c6bf0	0.305511
253	0x3e90b992	0.2826658
254	0xbea72dc4	-0.32652104
255	0x3e4f272a	0.20229784

encoder.4.bias f4 [32]
0	0xbcd170cd	-0.025566483
1	0x3db50eda	0.08840723
2	0xbcacc802	-0.021091465
3	0x3dfefb12	0.124502316
4	0xbca864a7	-0.020555807
5	0x3d5ff2f6	0.054675065
6	0x3c7afc19	0.015318894
7	0x3cd705f1	0.02624795
8	0xbcdd10a0	-0.026985466
9	0xbcca2005	-0.024673471
10	0xbc857410	-0.016290694
11	0xbc872cfd	-0.016500944
12	0xbd776129	-0.060395394
13	0xbba926f7	-0.0051621157
14	0x3d0816e2	0.033224948
15	0x3c9c1558	0.019053146
16	0x3c1ffcc9	0.0097648585
17	0xbd452f09	-0.04814056
18	0x3d85a074	0.06524745
19	0xbdc115e8	-0.094280064
20	0x3d8f91b9	0.07010216
21	0xbcd34c85	-0.025793323
22	0x3bdac3c6	0.00667617
23	0xbd2635c7	-0.04057863
24	0xbcb220e9	-0.021744208
25	0xbd9887b2	-0.07447757
26	0x3d597553	0.053090405
27	0x3d4c7abb	0.049921732
28	0xbc9584da	-0.018251825
29	0x3d946b89	0.07247073
30	0x3c371c6f	0.011176213
31	0xbd91300e	-0.07089244

nee_decoder.0.weight f4 [16, 32]
0	0x3b3b45bf	0.0028575507
1	0xbe54eca1	-0.20793392
2	0xbe949122	-0.29016978
3	0x3e43fa3a	0.19138423
4	0xbec59e19	-0.3859718
5	0x3e820994	0.25397933
6	0xbec2306c	-0.37927568
7	0xbe8bb362	-0.27285296
8	0x3e292c75	0.16520865
9	0xbe82f4e5	-0.25577465
10	0x3db0e5ac	0.086375564
11	0xbd8f6e1b	-0.07003423
12	0xbe446985	-0.19180878
13	0x3e48ed05	0.19621666
14	0xbe131f1f	-0.1436734
15	0x3e90484c	0.28180158
16	0xbc91d033	-0.017799472
17	0x3ea296bd	0.3175563
18	0x3e8b6e07	0.27232382
19	0x3d948f89	0.0725394
20	0x3dac67b5	0.08418218
21	0x3eb55323	0.3541499
22	0xbe6ba53e	-0.23012254
23	0xbea3874a	-0.31939155
24	0xbe33a840	-0.17544651
25	0x3cca3061	0.024681272
26	0x3e99753d	0.29972258
27	0x3e26cea0	0.16289759
28	0x3cfafbc3	0.030637627
29	0x3e24930f	0.16071723
30	0x3e483606	0.19551858
31	0xbe344a08	-0.17606366
32	0xbd93becb	-0.07214125
33	0xbe9b7bc9	-0.30367878
34	0xbe56a6f3	-0.20962124
35	0xbe83bbaa	-0.25729114
36	0xbea7dad8	-0.32784152
37	0x3e48ffaa	0.19628778
38	0x3e21b2d7	0.15790878
39	0xbda34afe	-0.07973288
40	0x3d805a86	0.06267266
41	0x3b465948	0.0030265618
42	0x3e0817a6	0.13290271
43	0xbcaae7a3	-0.020862406
44	0xbe80756f	-0.25089595
45	0x3e24bc2a	0.16087404
46	0x3d9a8029	0.07543976
47	0xbe3ddbcc	-0.18540877
48	0xbe9886c5	-0.2979032
49	0xbb055079	-0.0020342155
50	0xbe99b8d1	-0.30023816
51	0xbe6818e1	-0.2266574
52	0xbe87f63d	-0.26555052
53	0xbe49a1ee	-0.19690678
54	0x3e88888d	0.2666668
55	0xbd97d671	-0.07413948
56	0x3db909cc	0.09035072
57	0x3e891904	0.26776898
58	0xbe85f746	-0.26165217
59	0xbe8df2cd	-0.27724305
60	0x3e915572	0.28385502
61	0x3e5995c8	0.21248543
62	0x3e2c5196	0.16827998
63	0x3e66ebb6	0.22550854
64	0xbd39750f	-0.04527765
65	0x3e24264c	0.16030234
66	0xbcc67fa3	-0.024230784
67	0x3e423eb5	0.18969233
68	0x3d151ec2	0.036406286
69	0xbdc6a162	-0.0969875
70	0xbec2dd9a	-0.38059694
71	0x3e5439ca	0.2072517
72	0xbea149d7	-0.31501648
73	0x3de605e7	0.112315945
74	0x3ea7a37f	0.32741925
75	0xbea40360	-0.32033825
76	0x3e4dfe4c	0.20116538
77	0x3e2b6ebe	0.16741464
78	0xbe6450f9	-0.22296514
79	0xbe27de20	-0.16393328
80	0xbcf20741	-0.029544475
81	0xbe13bb06	-0.14426813
82	0xbe9eb78e	-0.30999416
83	0x3ea1937c	0.31557834
84	0xbdeac683	-0.11463644
85	0xbeb1475f	-0.34624764
86	0x3d360ac0	0.044443846
87	0x3d4754c3	0.04866482
88	0x3eabff6f	0.33593318
89	0x3e81e3eb	0.253692
90	0x3e29e898	0.16592634
91	0xbed6d12e	-0.41956466
92	0x3e726fde	0.23675486
93	0xbe640cbf	-0.22270487
94	0xbd303084	-0.043015018
95	0x3e685df9	0.22692098
96	0xbd9defe1	-0.07711769
97	0x3e8ad194	0.2711302
98	0x3d527597	0.051381674
99	0xbe09473c	-0.1340608
100	0xbdd0ffe6	-0.10205059
101	0xbe11f0d0	-0.14252019
102	0x3e512922	0.20425847
103	0x3dc99c91	0.09844316
104	0xbdfd7ebf	-0.123776905
105	0x3da4f477	0.080544405
106	0xbd2b42a2	-0.041811593
107	0xbe47e100	-0.19519424
108	0xbeb07219	-0.3446205
109	0xbd7227da	-0.059120037
110	0x3ea0aa9f	0.31380174
111	0xbea0fc45	-0.31442466
112	0xbe9c3080	-0.30505753
113	0x3e52c7ab	0.2058398
114	0xbe925ea1	-0.2858782
115	0xbe165325	-0.14680155
116	0xbe99192a	-0.2990201
117	0xbd2fe536	-0.042943202
118	0xbe895724	-0.26824296
119	0x3e0f8630	0.14016032
120	0xbe031307	-0.12800227
121	0x3dcb2339	0.099188276
122	0xbdd26615	-0.10273377
123	0x3ea01a46	0.31270045
124	0xbd06b11a	-0.03288374
125	0xbe555508	-0.20833218
126	0x3e468ed1	0.19390418
127	0x3e0c2313	0.13685255
128	0xbe1e64de	-0.15468165
129	0x3e3c859d	0.18410344
130	0xbe9f4f99	-0.31115416
131	0x3d9b329c	0.07578012
132	0x3e625242	0.22101691
133	0x3e1fb905	0.15597923
134	0x3e5069d9	0.20352878
135	0x3e8af57e	0.2714042
136	0x3e48f766	0.19625625
137	0x3e5c20a8	0.21496832
138	0xbd1aa308	-0.037753135
139	0xbe81672c	-0.25274026
140	0xbeac3d79	-0.3364065
141	0xbe8b2eb8	-0.2718408
142	0x3e83d129	0.25745514
143	0x3e6917ad	0.22762938
144	0xbd03e20d	-0.032198
145	0x3db07bb3	0.08617344
146	0xbe103dec	-0.14086121
147	0x3d158e86	0.036512874
148	0x3e77dd4a	0.24205509
149	0xbe3ea5a1	-0.1861787
150	0x3d20278c	0.039100215
151	0x3e4f0c62	0.20219567
152	0xbe8a9937	-0.2707002
153	0x3e06bacc	0.13157195
154	0xbeaeb7cd	-0.34124604
155	0xbd95d178	-0.073153436
156	0xbe314bf7	-0.17314135
157	0xbead3b42	-0.33834273
158	0xbe8805f9	-0.26567057
159	0xbe836d3d	-0.2566928
160	0x3e955196	0.29163808
161	0xbddc7b90	-0.10765755
162	0x3b8731c7	0.004125807
163	0x3e8318e0	0.25604916
164	0x3e6562f8	0.22401035
165	0xbe96be96	-0.2944228
166	0x3e8de310	0.27712297
167	0xbe6d96be	-0.23202035
168	0x3e79ac22	0.2438207
169	0xbeadcaa3	-0.33943662
170	0xbe97ddab	-0.29661307
171	0x3e6e827c	0.23291963
172	0x3dec014d	0.115236856
173	0xbe160796	-0.14651331
174	0x3e2b6865	0.16739042
175	0xbe64bf50	-0.22338605
176	0x3ca7f1b3	0.020500993
177	0xbe0ab784	-0.13546568
178	0x3c1e325d	0.009655562
179	0x3e2e3f4d	0.17016335
180	0xbd6ebb45	-0.058284063
181	0xbe9575bd	-0.2919139
182	0xbe3a6080	-0.18200874
183	0x3db20b12	0.08693518
184	0xbe023abf	-0.12717722
185	0x3e47f7dd	0.19528146
186	0x3db5cfcf	0.08877527
187	0xbeaf556f	-0.34244868
188	0x3e8655fe	0.26237482
189	0x3db900a7	0.090333275
190	0x3e7baebd	0.24578376
191	0x3d954290	0.072880864
192	0x3e0321ca	0.12805858
193	0x3ccab7c5	0.024745831
194	0x3e5b92b4	0.21442682
195	0xbdedbe06	-0.1160851
196	0xbe542ffe	-0.20721433
197	0xbd187fb1	-0.03723115
198	0xbe823425	-0.25430408
199	0x3e30f375	0.17280371
200	0x3e4cfe21	0.20018817
201	0xbd0d2dfa	-0.034467675
202	0x3e718f0e	0.23589727
203	0x3e4cd75c	0.20004028
204	0xbe747833	-0.23873977
205	0xbdaf2ede	-0.08553861
206	0xbe916331	-0.2839599
207	0xbdfc1b66	-0.12309913
208	0xbe9d5033	-0.3072525
209	0x3dee9a44	0.116505176
210	0xbb0cc3fc	-0.002147912
211	0xbe3f6fce	-0.18694994
212	0xbea01cdf	-0.31272027
213	0x3c3ce501	0.011529208
214	0x3e5c8de2	0.21538499
215	0x3eb3e4ca	0.3513549
216	0xbe41d333	-0.18928222
217	0x3d4673b1	0.048450176
218	0xbea18cbe	-0.3155269
219	0x3e897cb0	0.26852942
220	0x3e8ae0c8	0.2712462
221	0x3da3beee	0.07995401
222	0xbe57839d	-0.210463
223	0x3e53db32	0.20689085
224	0xbe83cfba	-0.2574442
225	0x3e2fb68e	0.17159483
226	0x3eabdc22	0.33566386
227	0x3e74019d	0.2382874
228	0xbd6560cc	-0.056000516
229	0xbb40a036	-0.0029392368
230	0xbb3b9e3a	-0.0028628246
231	0x3da25828	0.07926971
232	0x3d0c8762	0.0343088
233	0xbdbb919c	-0.09158632
234	0xbe46b669	-0.19405521
235	0xbe66549b	-0.22493212
236	0xbe49d0f2	-0.19708613
237	0x3cf815db	0.030283859
238	0x3e16e6c7	0.14736472
239	0xbe809a4e	-0.25117725
240	0x3e231637	0.15926443
241	0xbe54f2d4	-0.20795757
242	0x3ea3cbbb	0.31991372
243	0x3e423c2e	0.18968269
244	0xbce6370d	-0.028102422
245	0xbea4b997	-0.32172844
246	0xbde45a92	-0.111500874
247	0x3c8861d7	0.016648216
248	0xbda1e908	-0.07905775
249	0xbc59ba93	-0.013289112
250	0xbdc73a38	-0.09727901
251	0xbd104a8d	-0.035227347
252	0x3e2c1ff4	0.16809064
253	0xbdf3cf25	-0.11904744
254	0xbd69d803	-0.05709077
255	0x3c43b859	0.011945807

nee_decoder.0.bias f4 [16]
0	0xbdf01ef9	-0.117246576
1	0xbe1daab3	-0.15397148
2	0xbe48cf26	-0.19610271
3	0xbc1d518e	-0.009601964
4	0x3d0a742c	0.033802196
5	0x3c182cc7	0.0092880195
6	0xbc0bf12c	-0.008541387
7	0x00000000	0.0
8	0x00000000	0.0
9	0x3ddba256	0.107243225
10	0xbd923e9a	-0.071408466
11	0x3e4cf088	0.2001363
12	0x3e9d37b0	0.3070655
13	0x3cc128a7	0.023578955
14	0xbe6c5c5f	-0.23082112
15	0xbc1e60a0	-0.009666592

nee_decoder.2.weight f4 [16, 16]
0	0x3d1413f5	0.036151845
1	0x3ea663d4	0.32498038
2	0xbec4514f	-0.38343284
3	0x3df4ae97	0.11947363
4	0x3ec4e447	0.38455412
5	0xbdb10be0	-0.08644843
6	0x3ea5a338	0.3235109
7	0x3e37de2f	0.1795585
8	0x3ebba157	0.3664653
9	0x3eb92e26	0.3616802
10	0x3e657d41	0.22411062
11	0x3d5e4264	0.054262534
12	0xbe9fcf79	-0.31212977
13	0xbe1de8e4	-0.15420872
14	0xbef1d693	-0.4723402
15	0xbda1e841	-0.07905627
16	0x3e868a0a	0.2627719
17	0x3e700a89	0.23441519
18	0x3d030f73	0.031997155
19	0xbed60170	-0.41797972
20	0x3e6c4371	0.23072602
21	0x3e252fa8	0.1613146
22	0xbe61449b	-0.21998827
23	0xbecb69c8	-0.39729142
24	0xbe763211	-0.24042536
25	0x3e138854	0.14407474
26	0xbe6f8c42	-0.23393348
27	0xbe9971d9	-0.2996967
28	0xbeafea0f	-0.3435826
29	0xbe8416ba	-0.2579859
30	0xbd8e1fb4	-0.06939641
31	0x3ea34dc6	0.31895274
32	0xbe89d06c	-0.26916826
33	0xbec993c3	-0.39370546
34	0x3eaf1805	0.34198013
35	0x3e6298d0	0.22128606
36	0x3e06dea3	0.13170867
37	0xbe9ac77f	-0.30230328
38	0x3e9543b9	0.2915323
39	0x3e34c0e0	0.17651701
40	0x3d7aacdc	0.061200008
41	0x3e9feb5d	0.31234255
42	0x3e1b6a47	0.1517726
43	0x3e905b01	0.2819443
44	0xbdc92f12	-0.09823431
45	0x3e89950f	0.26871535
46	0xbe9b5aa9	-0.30342606
47	0x3dc911fc	0.09817883
48	0xbf2be802	-0.6715089
49	0xbe944264	-0.28956902
50	0xbec38bb9	-0.38192537
51	0xbea49b2e	-0.32149643
52	0x3e4c5444	0.1995402
53	0x3ed5e0aa	0.41772968
54	0x3e869adc	0.26290023
55	0xbc5187e1	-0.012788744
56	0xbc01013b	-0.0078738285
57	0xbf1148c4	-0.56751657
58	0x3eba1484	0.36343777
59	0x3dc3f3e8	0.09568006
60	0xbe9c7bc9	-0.3056319
61	0xbeb047ca	-0.3442977
62	0x3f012499	0.5044647
63	0x3e6c4707	0.2307397
64	0xbeecb2a2	-0.46230036
65	0xbed21a22	-0.41035563
66	0x3e30b5ee	0.172569
67	0xbe577bd7	-0.21043335
68	0x3e8abd18	0.27097392
69	0x3e8eef65	0.2791702
70	0xbeaed113	-0.34143886
71	0x3dce3912	0.10069479
72	0xbd9633c5	-0.07334093
73	0xbee6b9b7	-0.45063564
74	0x3da95744	0.08268598
75	0xbb64cde3	-0.0034912757
76	0x3ce2066a	0.02759095
77	0xbecc20b2	-0.39868695
78	0xbe1616b7	-0.14657103
79	0xbda29b45	-0.079397716
80	0xbec12d82	-0.37730032
81	0x3eb2736e	0.3485369
82	0xbde1dc35	-0.11028329
83	0x3e5c1ef3	0.21496181
84	0xbdf31527	-0.11869269
85	0xbea65c60	-0.32492352
86	0xbdd5cc5c	-0.10439369
87	0x3da88ba8	0.08229762
88	0x3eaf8ea2	0.34288508
89	0x3d8b2f85	0.06796173
90	0x3e886cf9	0.2664564
91	0x3e3f3346	0.18671903
92	0xbeaa643d	-0.332796
93	0x3bc97425	0.0061478787
94	0x3eefce18	0.46836925
95	0xbdf8fc63	-0.12157514
96	0x3e44a8d8	0.19205034
97	0x3ec89682	0.39177328
98	0xbc19452c	-0.009354871
99	0xbe13e8f7	-0.14444338
100	0xbe7de8d0	-0.24795842
101	0xbc1f9220	-0.009739429
102	0xbe8a76dc	-0.27043808
103	0x3edd2343	0.43190965
104	0xbebaa450	-0.36453485
105	0x3ec38e45	0.3819448
106	0x3e85cf65	0.26134792
107	0xbec7f221	-0.39051917
108	0xbe947c2c	-0.29000986
109	0x3eca90d2	0.39563614
110	0x3d0961eb	0.033540647
111	0xbe97f4d7	-0.29678985
112	0x3c4a99ea	0.012365798
113	0xbdcaa356	-0.09894435
114	0x3d725cbb	0.059170466
115	0x3e35c421	0.17750598
116	0xbebb204f	-0.36548087
117	0xbe5852d9	-0.21125354
118	0xbbc59517	-0.006029736
119	0x3eca9f94	0.39574873
120	0xbeabc497	-0.33548424
121	0xbe68eea0	-0.22747278
122	0x3e5ce6a9	0.21572365
123	0x3ec8d4ab	0.39224753
124	0x3c795c45	0.015219753
125	0x3ba0b44b	0.004904305
126	0x3e9159dd	0.28388873
127	0xbd9ae50e	-0.0756322
128	0x3e84d401	0.25942996
129	0x3ee1e59b	0.44120488
130	0x3ea5b907	0.32367727
131	0xbed46331	-0.41481927
132	0x3eacc98d	0.3374752
133	0x3ed80edc	0.42198837
134	0x3e44c260	0.19214773
135	0xbe12a127	-0.14319287
136	0xbd6dc3e4	-0.058048144
137	0xbe8f7d9f	-0.2802553
138	0xbdc1b101	-0.09457589
139	0x3e87f276	0.2655217
140	0xbe18f064	-0.14935452
141	0xbd9572b8	-0.072972715
142	0x3c5bac2a	0.013407746
143	0x3ba9c1df	0.005180582
144	0x3d978641	0.07398654
145	0xbd89b20b	-0.06723412
146	0xbeda36c7	-0.42619917
147	0xbe1ccfd8	-0.15313661
148	0xbe4dc64b	-0.20095174
149	0xbe18551d	-0.14876218
150	0xbe4db9e9	-0.2009045
151	0xbe9c5bb5	-0.30538717
152	0xbeb38d1a	-0.3506859
153	0xbe07e8f4	-0.13272458
154	0x3dfe7fd1	0.12426723
155	0x3ef16073	0.47143897
156	0x3d97fcfb	0.07421299
157	0x3d8c0e6b	0.068386875
158	0x3dfce08e	0.12347518
159	0x3dd1bb82	0.102408424
160	0xbeb18bf3	-0.34677085
161	0xbed85d9b	-0.42258915
162	0xbe890d83	-0.2676812
163	0xbdb8ba90	-0.09019959
164	0xbe956195	-0.29176012
165	0x3ea597f1	0.32342485
166	0xbe0b9e81	-0.13634683
167	0xbe50de0f	-0.20397209
168	0xbe9d35f0	-0.30705214
169	0xbe427539	-0.1899003
170	0xbea61aaa	-0.32442218
171	0x3eb9cb49	0.36287907
172	0x3dec0165	0.115237035
173	0xbebeee08	-0.37290978
174	0x3ed8c412	0.4233709
175	0xbdad4e6d	-0.08462224
176	0x3e157785	0.14596374
177	0xbd883c47	-0.06652122
178	0xbda0100c	-0.07815561
179	0x3e76d0d2	0.24103096
180	0x3ec194e9	0.37808922
181	0x3e2731a0	0.16327524
182	0x3eda56fe	0.42644495
183	0x3ed52095	0.4162642
184	0xbcc54f26	-0.024085592
185	0xbd26defa	-0.04073999
186	0xbd095632	-0.033529468
187	0xbdc86de5	-0.09786586
188	0xbe2349e2	-0.15946153
189	0xbeb67941	-0.35639384
190	0xbed4ad11	-0.4153829
191	0xbe306c52	-0.17228821
192	0xbe2a8fbe	-0.16656396
193	0xbed7db7d	-0.42159644
194	0xbdc25b29	-0.09490044
195	0x3e909f6b	0.28246626
196	0xbd843893	-0.06456103
197	0xbe450ddf	-0.19243573
198	0xbc1190db	-0.008884634
199	0x3e91e46a	0.2849458
200	0xbe46f74c	-0.19430274
201	0xbe36d7d5	-0.17855771
202	0xbcdb376b	-0.026759824
203	0xbc7d559c	-0.015462305
204	0x3ecd37b3	0.40081558
205	0xbec22038	-0.37915206
206	0x3c98a688	0.018634096
207	0x3e23b607	0.15987407
208	0x3ce4ef5e	0.02794617
209	0x3e81cd77	0.2535207
210	0x3e3d808e	0.18506071
211	0x3ed749f4	0.4204861
212	0x3ec9eac3	0.3943692
213	0xbea03e8d	-0.31297722
214	0x3e0f1f2a	0.13976732
215	0x3edcc372	0.43117863
216	0xbea1d27d	-0.31605902
217	0xbddf9f9e	-0.109191164
218	0x3dc165d2	0.09443249
219	0x3ec78425	0.38968006
220	0x3e7de60b	0.24794786
221	0x3e31bafd	0.17356487
222	0xbefbc277	-0.49171802
223	0x3e033262	0.12812188
224	0x3db0c4cf	0.08631288
225	0x3bf99517	0.00761665
226	0x3e7ec869	0.24881138
227	0x3ec1a4fc	0.37821186
228	0x3eaccd3a	0.33750325
229	0xbeacbce0	-0.3373785
230	0xbe9f54d1	-0.31119397
231	0x3d2738e1	0.04082573
232	0xbeb929ce	-0.36164707
233	0x3dae285f	0.08503794
234	0xbd82cb97	-0.06386488
235	0x3ed38b96	0.41317433
236	0x3e0c4476	0.13697991
237	0x3b479c93	0.0030458316
238	0x3e33a684	0.1754399
239	0xbebf314f	-0.37342307
240	0xbe86692e	-0.2625212
241	0xbe8588dd	-0.2608098
242	0xbe6bda3c	-0.23032469
243	0x3ed6629d	0.4187211
244	0xbe81b8c6	-0.25336283
245	0x3eb70036	0.35742348
246	0x3e8403be	0.25784105
247	0xbe91e309	-0.28493527
248	0xbe96c579	-0.29447535
249	0x3e6971c6	0.22797307
250	0x3dd224ee	0.1026095
251	0xbe1b2b65	-0.15153272
252	0x3d983afb	0.07433125
253	0xbe58500b	-0.21124284
254	0xbe5ad24c	-0.21369284
255	0x3eadd765	0.33953395

nee_decoder.2.bias f4 [16]
0	0x3d95e471	0.07318962
1	0x00000000	0.0
2	0x3e07a0f3	0.13244991
3	0xbe2be6cc	-0.16787261
4	0xbd567776	-0.05236002
5	0xbe0b5d8e	-0.13609907
6	0xbe04cdc6	-0.12969121
7	0xbe04872f	-0.12942193
8	0xbe08543b	-0.13313381
9	0x3e8ad7f3	0.2711788
10	0x00000000	0.0
11	0x00000000	0.0
12	0x00000000	0.0
13	0x3e08727b	0.13324921
14	0xbe0617c4	-0.13095003
15	0x00000000	0.0

nee_decoder.4.weight f4 [1, 16]
0	0xbe502e2b	-0.20330112
1	0x3f12ffae	0.57421386
2	0xbf170332	-0.5898925
3	0x3e5965d7	0.21230255
4	0xbee7133e	-0.45131868
5	0x3db78f9a	0.08962937
6	0x3f14ca2c	0.5812099
7	0x3edabf2e	0.42723984
8	0x3f08c3e7	0.53423923
9	0xbed8b6c5	-0.42326942
10	0x3e65c6d3	0.22439127
11	0xbed9428b	-0.4243358
12	0x3f0baad3	0.5455753
13	0xbe37df1f	-0.17956208
14	0x3ed29c37	0.41134807
15	0xbdd783f7	-0.10523217

fc_mu.0.weight f4 [4, 32]
0	0xbed5564c	-0.41667402
1	0x3e6f1b42	0.23350242
2	0xbe92c6b8	-0.28667235
3	0x3ea2bac8	0.31783128
4	0x3cd05c56	0.025434654
5	0x3f0715a6	0.5276741
6	0x3fa49ae8	1.2859774
7	0x3ed1c7ad	0.40972653
8	0x3e3247c7	0.17410193
9	0xbe8771e4	-0.2645408
10	0xbe9722f3	-0.29518852
11	0x3ead7361	0.3387709
12	0x3ebc58ba	0.36786443
13	0xbec5900f	-0.3858647
14	0x3ec5fbcb	0.38668665
15	0xbced443c	-0.0289632
16	0xbe8099c0	-0.25117302
17	0xbea299df	-0.3175802
18	0xba97b063	-0.0011572953
19	0xbef28ca9	-0.4737294
20	0xbea82fc1	-0.32848933
21	0xbe9a28fc	-0.30109394
22	0xbcf3e45b	-0.029771974
23	0xbece630a	-0.40309936
24	0xbe6a1b91	-0.22862078
25	0x3ec5b8ca	0.38617545
26	0xbe7584ce	-0.23976442
27	0xbe42f655	-0.1903928
28	0x3e3b7618	0.18306768
29	0x3c6a9d11	0.014319674
30	0xbdb42b95	-0.08797375
31	0x3e1b8f1e	0.15191314
32	0x3eb94fc1	0.3619366
33	0x3e31b61b	0.17354624
34	0xbe1c0e60	-0.15239859
35	0x3eaddbb5	0.33956686
36	0xbe5782f8	-0.21046054
37	0xbe23bb5d	-0.15989442
38	0xbebdde6b	-0.37083754
39	0xbe43646f	-0.19081281
40	0x3e14a5cf	0.14516376
41	0x3da0c1b3	0.07849445
42	0x3e94f590	0.290936
43	0x3d160ca5	0.036633153
44	0xbeb19322	-0.34682566
45	0x3e9ef9b8	0.31049895
46	0xbe8f5d77	-0.28000996
47	0xbe1907c0	-0.14944363
48	0x3bb843de	0.005623325
49	0x3eb9dd0f	0.36301467
50	0xbe9d3e13	-0.3071142
51	0x3e92b46a	0.2865327
52	0xbe2c89e4	-0.16849476
53	0xbec4d6f6	-0.38445252
54	0xbe75b1bf	-0.23993586
55	0xbeb45738	-0.35222793
56	0x3dc2f5a8	0.095195115
57	0x3e257bf4	0.16160566
58	0xbe1a9950	-0.15097547
59	0x3daca912	0.08430685
60	0x3d9a53bf	0.075355045
61	0xbdd19678	-0.10233778
62	0xbecf45b2	-0.4048286
63	0x3e99a1ce	0.3000626
64	0x3cd0c09f	0.025482474
65	0xbd997645	-0.07493261
66	0x3e4308ef	0.19046377
67	0x3bcbe42e	0.0062222695
68	0xbd752041	-0.059845213
69	0x3e345be0	0.17613173
70	0x3e8d9d0b	0.27658877
71	0xbe5b66ee	-0.21425983
72	0x3e9ad3b5	0.30239645
73	0xbe6d6902	-0.23184589
74	0xbe160b82	-0.14652827
75	0x3dfce8d7	0.12349098
76	0xbe2787d6	-0.16360411
77	0x3e6b0d1f	0.22954224
78	0xbdd36ec2	-0.1032386
79	0x3ca635ae	0.020289268
80	0x3ec0c520	0.37650394
81	0xbc710b8c	-0.014712226
82	0xbcf11644	-0.029429562
83	0xbcd3bd11	-0.02584699
84	0xbdd76647	-0.10517555
85	0x3e2cb79a	0.16866913
86	0x3eba1b6b	0.36349043
87	0x3ea51925	0.32245746
88	0xbcda12d5	-0.026620308
89	0xb768b398	-1.38700925e-05
90	0xbe4724a5	-0.19447573
91	0xbe82a6a4	-0.25517762
92	0xbded1c0b	-0.115776144
93	0x3e3a7792	0.18209675
94	0xbe630f7a	-0.22173873
95	0xbe7a87dc	-0.24465889
96	0x3e5027b8	0.20327652
97	0xbe3497ba	-0.17636004
98	0xbe87baf2	-0.26509815
99	0xbe506217	-0.20349918
100	0xbebee7b3	-0.37286147
101	0x3d0ee698	0.03488788
102	0xbd289947	-0.0411618
103	0xbeaf8346	-0.3427984
104	0x3ec1b9b1	0.37836984
105	0x3e54cab8	0.20780456
106	0x3df021bc	0.11725184
107	0xbd06996d	-0.032861162
108	0xbdd5b2d0	-0.104344964
109	0xbeaef710	-0.3417287
110	0x3ea71358	0.32631946
111	0xbd9962b1	-0.07489527
112	0xbaf56f8f	-0.0018725264
113	0x3e8e4bdb	0.27792248
114	0x3e175795	0.14779504
115	0x3eb9dd50	0.3630166
116	0xbe837df8	-0.25682044
117	0x3e83270e	0.25615734
118	0xbdee8dc0	-0.116481304
119	0x3eb6a57c	0.3567313
120	0xbdded2f7	-0.10880082
121	0x3e49dc12	0.19712856
122	0xbe959558	-0.29215503
123	0xbe1cfc10	-0.15330529
124	0x3dcaaeaf	0.098965995
125	0x3d9a0697	0.07520788
126	0xbdf715ca	-0.12064703
127	0x3ce03e0a	0.027373333

fc_mu.0.bias f4 [4]
0	0x3f1d1f5f	0.61375993
1	0x00000000	0.0
2	0x00000000	0.0
3	0xbe3cfb80	-0.18455315

fc_mu.2.weight f4 [1, 4]
0	0x3eeb67ba	0.45977575
1	0x3d2f6046	0.042816423
2	0xbd458533	-0.04822273
3	0xbec8f649	-0.392504

fc_logvar.0.weight f4 [4, 32]
0	0xbed5564c	-0.41667402
1	0x3e6f1b42	0.23350242
2	0xbe92c6b8	-0.28667235
3	0x3ea2bac8	0.31783128
4	0x3cd05c56	0.025434654
5	0x3f0715a6	0.5276741
6	0x3fa49ae8	1.2859774
7	0x3ed1c7ad	0.40972653
8	0x3e3247c7	0.17410193
9	0xbe8771e4	-0.2645408
10	0xbe9722f3	-0.29518852
11	0x3ead7361	0.3387709
12	0x3ebc58ba	0.36786443
13	0xbec5900f	-0.3858647
14	0x3ec5fbcb	0.38668665
15	0xbced443c	-0.0289632
16	0xbe8099c0	-0.25117302
17	0xbea299df	-0.3175802
18	0xba97b063	-0.0011572953
19	0xbef28ca9	-0.4737294
20	0xbea82fc1	-0.32848933
21	0xbe9a28fc	-0.30109394
22	0xbcf3e45b	-0.029771974
23	0xbece630a	-0.40309936
24	0xbe6a1b91	-0.22862078
25	0x3ec5b8ca	0.38617545
26	0xbe7584ce	-0.23976442
27	0xbe42f655	-0.1903928
28	0x3e3b7618	0.18306768
29	0x3c6a9d11	0.014319674
30	0xbdb42b95	-0.08797375
31	0x3e1b8f1e	0.15191314
32	0x3eb94fc1	0.3619366
33	0x3e31b61b	0.17354624
34	0xbe1c0e60	-0.15239859
35	0x3eaddbb5	0.33956686
36	0xbe5782f8	-0.21046054
37	0xbe23bb5d	-0.15989442
38	0xbebdde6b	-0.37083754
39	0xbe43646f	-0.19081281
40	0x3e14a5cf	0.14516376
41	0x3da0c1b3	0.07849445
42	0x3e94f590	0.290936
43	0x3d160ca5	0.036633153
44	0xbeb19322	-0.34682566
45	0x3e9ef9b8	0.31049895
46	0xbe8f5d77	-0.28000996
47	0xbe1907c0	-0.14944363
48	0x3bb843de	0.005623325
49	0x3eb9dd0f	0.36301467
50	0xbe9d3e13	-0.3071142
51	0x3e92b46a	0.2865327
52	0xbe2c89e4	-0.16849476
53	0xbec4d6f6	-0.38445252
54	0xbe75b1bf	-0.23993586
55	0xbeb45738	-0.35222793
56	0x3dc2f5a8	0.095195115
57	0x3e257bf4	0.16160566
58	0xbe1a9950	-0.15097547
59	0x3daca912	0.08430685
60	0x3d9a53bf	0.075355045
61	0xbdd19678	-0.10233778
62	0xbecf45b2	-0.4048286
63	0x3e99a1ce	0.3000626
64	0x3cd0c09f	0.025482474
65	0xbd997645	-0.07493261
66	0x3e4308ef	0.19046377
67	0x3bcbe42e	0.0062222695
68	0xbd752041	-0.059845213
69	0x3e345be0	0.17613173
70	0x3e8d9d0b	0.27658877
71	0xbe5b66ee	-0.21425983
72	0x3e9ad3b5	0.30239645
73	0xbe6d6902	-0.23184589
74	0xbe160b82	-0.14652827
75	0x3dfce8d7	0.12349098
76	0xbe2787d6	-0.16360411
77	0x3e6b0d1f	0.22954224
78	0xbdd36ec2	-0.1032386
79	0x3ca635ae	0.020289268
80	0x3ec0c520	0.37650394
81	0xbc710b8c	-0.014712226
82	0xbcf11644	-0.029429562
83	0xbcd3bd11	-0.02584699
84	0xbdd76647	-0.10517555
85	0x3e2cb79a	0.16866913
86	0x3eba1b6b	0.36349043
87	0x3ea51925	0.32245746
88	0xbcda12d5	-0.026620308
89	0xb768b398	-1.38700925e-05
90	0xbe4724a5	-0.19447573
91	0xbe82a6a4	-0.25517762
92	0xbded1c0b	-0.115776144
93	0x3e3a7792	0.18209675
94	0xbe630f7a	-0.22173873
95	0xbe7a87dc	-0.24465889
96	0x3e5027b8	0.20327652
97	0xbe3497ba	-0.17636004
98	0xbe87baf2	-0.26509815
99	0xbe506217	-0.20349918
100	0xbebee7b3	-0.37286147
101	0x3d0ee698	0.03488788
102	0xbd289947	-0.0411618
103	0xbeaf8346	-0.3427984
104	0x3ec1b9b1	0.37836984
105	0x3e54cab8	0.20780456
106	0x3df021bc	0.11725184
107	0xbd06996d	-0.032861162
108	0xbdd5b2d0	-0.104344964
109	0xbeaef710	-0.3417287
110	0x3ea71358	0.32631946
111	0xbd9962b1	-0.07489527
112	0xbaf56f8f	-0.0018725264
113	0x3e8e4bdb	0.27792248
114	0x3e175795	0.14779504
115	0x3eb9dd50	0.3630166
116	0xbe837df8	-0.25682044
117	0x3e83270e	0.25615734
118	0xbdee8dc0	-0.116481304
119	0x3eb6a57c	0.3567313
120	0xbdded2f7	-0.10880082
121	0x3e49dc12	0.19712856
122	0xbe959558	-0.29215503
123	0xbe1cfc10	-0.15330529
124	0x3dcaaeaf	0.098965995
125	0x3d9a0697	0.07520788
126	0xbdf715ca	-0.12064703
127	0x3ce03e0a	0.027373333

fc_logvar.0.bias f4 [4]
0	0x3f1d1f5f	0.61375993
1	0x00000000	0.0
2	0x00000000	0.0
3	0xbe3cfb80	-0.18455315

fc_logvar.2.weight f4 [1, 4]
0	0xbf81ede9	-1.015073
1	0x3f66cb15	0.9015363
2	0x3f88420e	1.0645158
3	0xbf3b6bd0	-0.73211384

temp_derivative_decoder.0.weight f4 [16, 32]
0	0x3db21d3a	0.08696981
1	0x3d08ffb3	0.03344698
2	0xbdc6d043	-0.097076915
3	0xbe3a2a7d	-0.1818027
4	0xbd946325	-0.07245473
5	0x3da7a38c	0.08185491
6	0x3e512c34	0.20427018
7	0xbe8e99de	-0.27851766
8	0x3d3e8ba1	0.04651988
9	0xbe861d01	-0.26194003
10	0xbe0c7332	-0.13715819
11	0xbe520425	-0.20509394
12	0xbe6ee544	-0.23329645
13	0x3d8d03e6	0.06885509
14	0x3da22dc0	0.07918882
15	0x3e9e9601	0.3097382
16	0x3e493827	0.19650327
17	0x3dd0b4e6	0.10190754
18	0x3db74b5d	0.08949921
19	0x3e402f0b	0.18767945
20	0x3e6261c1	0.22107603
21	0xbe02faac	-0.12790936
22	0xbea21b01	-0.31661227
23	0xbe7f836b	-0.24952476
24	0x3e5bfdbb	0.21483509
25	0x3d182bb5	0.037151057
26	0x3e213488	0.15742695
27	0xbe820fe7	-0.25402758
28	0x3e3b332e	0.18281242
29	0xbe905708	-0.281914
30	0xbea51d3e	-0.32248873
31	0x3eb4fede	0.35350698
32	0xbe56dd3f	-0.20982836
33	0x3e29a764	0.1656776
34	0x3d864ec3	0.06557991
35	0xbdd88477	-0.10572141
36	0x3e96b5e5	0.2943565
37	0xbc34a836	-0.011026433
38	0x3eabb93a	0.33539754
39	0x3e45ee99	0.19329299
40	0x3e18f2a1	0.14936306
41	0xbd5ef99b	-0.05443726
42	0xbd9f0732	-0.07765044
43	0xbe6a512e	-0.2288253
44	0xbca99833	-0.020702457
45	0xbd894728	-0.06703025
46	0xbdb4a08b	-0.08819684
47	0x3e6031a2	0.21893933
48	0xbe2499a2	-0.16074231
49	0x3d9b7e58	0.075924575
50	0x3df9298e	0.12166129
51	0x3e4ce30b	0.20008485
52	0x3e486463	0.19569544
53	0xbd878acb	-0.066182695
54	0x3e25447a	0.16139403
55	0xbe983333	-0.29726562
56	0x3e6022bc	0.2188825
57	0x3b1ca998	0.0023904797
58	0xbe89b0ef	-0.26892802
59	0xbd88d18f	-0.06680595
60	0x3d4bcab2	0.049753852
61	0xbe00a604	-0.1256333
62	0x3dac37cd	0.08409081
63	0xbe7c6e93	-0.24651556
64	0x3dd37429	0.1032489
65	0x3d777425	0.0604135
66	0x3eafbf3e	0.34325594
67	0x3e62d0fb	0.22150032
68	0xbea3f480	-0.32022476
69	0x3ea9eb32	0.33187252
70	0x3e49921a	0.1968464
71	0xbe5f10a3	-0.2178369
72	0xbd4e2293	-0.05032594
73	0x3e573174	0.21014959
74	0x3e29fa6c	0.16599435
75	0xbc4a925f	-0.012363999
76	0x3e502df1	0.20330025
77	0xbe01b69c	-0.12667316
78	0xbc8bb036	-0.017051797
79	0xbeb69633	-0.35661468
80	0xbe0517ac	-0.12997311
81	0xbe858e1f	-0.26084992
82	0xbe90382c	-0.28167856
83	0x3dc1373b	0.094343625
84	0xbe9555a9	-0.29166916
85	0x3ea61126	0.32434958
86	0xbe389eab	-0.18029277
87	0x3eba78e5	0.3642036
88	0x3e3e1e24	0.18566185
89	0x3e4a37a0	0.19747782
90	0x3cf6d9ea	0.030133206
91	0xbead538f	-0.33852813
92	0x3dd5bc98	0.10436362
93	0x3e91dfea	0.28491145
94	0xbd8682b6	-0.065679
95	0x3e0e062b	0.1386954
96	0xbe8bb36f	-0.27285334
97	0x3bd626b2	0.0065353746
98	0xbd9f82f4	-0.07788649
99	0x3e70cb18	0.23514974
100	0xbe936aad	-0.28792325
101	0xbe9dab9e	-0.30794996
102	0x3dd37a92	0.10326113
103	0x3e9c9a19	0.30586317
104	0x3dd75b59	0.1051547
105	0x3e82091a	0.2539757
106	0xbe094de1	-0.13408615
107	0x3da9fdb1	0.08300341
108	0xbe7fa431	-0.24964978
109	0x3e6c95ea	0.23104063
110	0x3d9aaec6	0.07552867
111	0x3e9c6f2d	0.3055357
112	0x3ea1b5e7	0.31584093
113	0x3ddc4e81	0.10757161
114	0x3dd34b5f	0.1031711
115	0xbe9c8855	-0.30572763
116	0xbd7dff32	-0.06201095
117	0xbbf6273c	-0.0075120013
118	0xbdf6cc41	-0.12050677
119	0x3e42fd1c	0.19041866
120	0x3d322b2c	0.043498203
121	0xbe90aa71	-0.28255036
122	0x3cc4f456	0.02404229
123	0xbe7b91d9	-0.24567355
124	0x3e51653c	0.20448774
125	0x3c365e8c	0.01113094
126	0xbcd404b8	-0.025881156
127	0xbe0664c1	-0.13124372
128	0xbc834f88	-0.016029134
129	0xbeac47b5	-0.33648458
130	0x3ceaf067	0.028679086
131	0x3de9a1be	0.11407803
132	0xbe0799db	-0.13242285
133	0x3e4870a9	0.19574226
134	0x3d9bb18d	0.076022245
135	0x3d67bc9b	0.056576353
136	0xbe5e0155	-0.21680196
137	0xbe5d8ff3	-0.21636944
138	0xbd669b46	-0.056300424
139	0x3d87e268	0.066349804
140	0xbeb51f98	-0.35375667
141	0xbe8246c7	-0.25444624
142	0xbea9435e	-0.3305921
143	0xbe898906	-0.26862353
144	0x3e2321ee	0.15930912
145	0xbcf99138	-0.030464754
146	0xbe76c095	-0.24096902
147	0xbe9c02c3	-0.30470857
148	0x3e270770	0.16311431
149	0x3b258670	0.0025257133
150	0xbe9572f0	-0.29189253
151	0xbe567baf	-0.20945619
152	0xbeac293c	-0.3362521
153	0x3eaa32c4	0.33241856
154	0x3e9718d6	0.29511136
155	0xbe27e8cc	-0.16397399
156	0xbe52bbda	-0.20579472
157	0x3e8aaf83	0.2708703
158	0xbe4b776e	-0.19869778
159	0xbe721d24	-0.23643929
160	0xbc46d022	-0.012134584
161	0xbe43d9f2	-0.19126108
162	0xbe247126	-0.16058788
163	0xbeaa858d	-0.33305016
164	0x3eac0c17	0.33602974
165	0xbd2e2326	-0.04251399
166	0xbe6cb611	-0.23116328
167	0xbe827d1e	-0.25486082
168	0x3e484c1a	0.1956028
169	0xbea59777	-0.3234212
170	0x3d3a215d	0.045441974
171	0x3ccfd1a7	0.025368525
172	0x3e58b08c	0.21161097
173	0x3dd830e5	0.10556201
174	0xbe8a7a1e	-0.27046293
175	0xbe413695	-0.18868478
176	0x3e55d744	0.20882899
177	0xbdf1ad80	-0.118006706
178	0x3e19be01	0.15013887
179	0x3e9d5003	0.30725107
180	0xbd28b883	-0.04119159
181	0xbe206a98	-0.15665662
182	0x3e65daaf	0.22446702
183	0x3ea110ac	0.31458032
184	0xbe3ca869	-0.18423618
185	0xbe473eb2	-0.1945751
186	0xbea13814	-0.31488097
187	0x3caa1d8f	0.020766048
188	0x3dcf9505	0.10135845
189	0x3d4763bd	0.048679102
190	0xbdddc945	-0.10829405
191	0xbd9ee09b	-0.07757684
192	0xbe15643e	-0.1458902
193	0x3e054b03	0.13016896
194	0xbd8baed9	-0.06820459
195	0xbe75877c	-0.23977464
196	0xbe5a4cca	-0.21318355
197	0x3e418ce1	0.18901397
198	0x3ea24a3a	0.31697255
199	0x3e27500c	0.16339129
200	0xbddb0a89	-0.10695369
201	0x3da1f505	0.07908062
202	0x3e9930cc	0.29920042
203	0xbea185fe	-0.3154754
204	0x3e9933ff	0.29922482
205	0x3d5f9b4c	0.054591462
206	0xbdabc944	-0.08387998
207	0xbea229f2	-0.31672627
208	0x3d371fd5	0.04470809
209	0x3eb34ec2	0.35021025
210	0x3e71ddca	0.23619762
211	0x3e208698	0.15676343
212	0x3b823571	0.003973656
213	0x3e9a873b	0.30181298
214	0x3e1e4152	0.15454605
215	0x3e166f23	0.14690833
216	0xbdf285f7	-0.11841958
217	0x3e34c512	0.17653301
218	0x3e116e26	0.14202175
219	0x3da749b1	0.081683524
220	0xbd6cb2ae	-0.05778759
221	0xbe188148	-0.14893067
222	0xba35062e	-0.0006905523
223	0x3e383de5	0.17992361
224	0x3d2c1356	0.042010628
225	0x3dcd1521	0.10013796
226	0x3e240301	0.16016771
227	0x3c8e8bed	0.017400706
228	0xbe7e4109	-0.24829496
229	0xbe6054bd	-0.21907325
230	0xbe2882a7	-0.1645609
231	0xbe135779	-0.14388837
232	0x3d8def5e	0.06930421
233	0xbcdd37d4	-0.02700416
234	0x3dab0ea8	0.08352405
235	0x3e0b2b5b	0.13590758
236	0xbe426950	-0.18985486
237	0x3ea1f23c	0.31630123
238	0xbe25398c	-0.16135234
239	0x3e85a4ff	0.26102445
240	0xbe128dd3	-0.14311914
241	0xbe8da03e	-0.27661318
242	0xbe900403	-0.2812806
243	0xbe73fd84	-0.23827177
244	0xbe11b823	-0.14230399
245	0xbe3452e7	-0.1760975
246	0xbe4c29c1	-0.19937803
247	0xbe107bbd	-0.14109702
248	0xbe040770	-0.12893462
249	0x3e3840ed	0.17993517
250	0x3e86b9a0	0.26313496
251	0x3ea0ae0d	0.3138279
252	0xbe4b49f4	-0.1985243
253	0x3e892bef	0.2679133
254	0xbe059179	-0.13043775
255	0x3e06ff37	0.13183294
