.archive/piae_sde/experiments/ae_day/best_model.pth (torch, 16034 bytes, 15 tensors)

encoder.0.weight f4 [16, 20]
0.3214913 -0.02732128 -0.16025615 0.017832436 -0.196522 -0.0970286 -0.10982841 0.05338312
0.065250345 -0.21281405 -0.017049331 0.38528258 0.033930846 0.26503658 -0.23973972 0.1530614
0.06043601 0.2122068 -0.086832315 0.6217434 -0.27733555 0.28678963 0.059782874 0.03592229
0.2731683 0.027485544 -0.58056176 0.11932751 0.01542618 0.29022333 0.020462565 -0.16454874
-0.079747625 0.5485056 -0.46421862 -0.2244957 0.111066036 0.28919378 -0.36676866 -0.20904492
-0.001568539 0.045590542 0.10225959 0.026064383 -0.0037102462 -0.14932004 -0.12544681 -0.13272785
-0.3150651 0.42105368 0.024940433 -0.02793297 -0.024655433 0.163806 -0.14317407 0.26737046
-0.116359495 -0.22419581 0.1601755 -0.0693735 0.09513496 -0.2226767 -0.15424748 0.022294318
-0.12461864 -0.1463331 0.25936285 0.0732777 0.19740249 -0.1573142 -0.02538993 -0.04867337
-0.028877983 -0.03859885 0.020808743 -0.3131068 -0.6470245 0.10687767 0.016978959 -1.4426162
0.040354 -0.10252156 -0.031285036 1.4147925e-05 -0.06378016 -0.0946426 0.10269845 0.058105037
0.13275707 -0.17886043 0.12304904 -0.087989986 0.045123972 -0.4248225 0.36177227 0.059496053
0.63055724 -0.04351001 0.10812125 -0.6342804 -0.15789068 -0.12464332 -0.049955722 -0.012853913
-0.0037307302 -0.07623615 0.13665664 0.010002968 0.23369294 0.025154172 -0.008985994 -0.11793403
0.013436165 -0.09614845 0.06162274 -0.17490888 0.35973617 -0.12350897 0.00443005 0.85680765
0.14902107 -0.051994916 -0.0024623966 -0.004864902 0.05961341 0.08896784 0.10166733 -0.11173613
-0.3315418 -0.07578108 0.015168702 -0.21309601 0.02285669 -0.10574812 0.11097276 0.0391092
0.4218154 0.06768963 0.033388995 0.5356879 0.27159452 -0.029601598 -0.23277168 -0.29152268
0.15928489 0.14442663 0.041281693 -0.117173195 -0.38953638 0.27145407 0.12386346 -0.13133746
0.089176685 0.087029144 -0.20014383 -0.13030773 -0.6779613 -0.19711468 0.34557977 0.4488446
-0.08213319 0.012926351 -0.006295043 -0.01990202 0.012784817 -0.031052502 -0.033179425 0.022969292
0.06470355 0.08143686 -0.012915824 -0.07549039 0.001229662 0.1640234 -0.16677004 -0.14636438
0.11229534 0.27941668 0.025645599 0.58617276 -0.022787737 -0.0045784265 0.039086614 0.059532043
0.019877616 0.03812718 0.0148855075 -0.014685265 -0.029970976 -0.02631411 -0.00844811 -0.045840397
0.016277362 0.24934421 -0.2636515 -0.09583401 -0.9902615 -0.017450705 0.041709922 0.94152355
0.28817174 -0.006129443 -0.36227763 -0.20581375 0.7184822 -0.3225396 0.21165976 -0.49329922
-0.086355925 -0.14498124 0.3040516 -1.0470266 0.13026202 -0.013307222 -0.1558474 0.1277222
0.37986135 0.118721105 0.20666774 0.20661497 0.06575903 0.017751176 -0.013390912 -0.048899017
-0.0018757054 0.013712508 -0.028810287 -0.0018003682 0.1360264 -0.13494472 -0.1309113 0.13891168
-0.038468864 0.3126327 -0.29829475 0.041995984 0.817117 0.010170811 0.07436388 -0.7131396
-0.04660767 0.15711866 0.14372349 -0.016171385 0.09295559 0.115380004 -0.19902593 -0.025091866
-0.1512368 0.10623866 0.0033748187 0.04608794 -0.03719086 -0.109658115 0.11064049 0.25628746
00000000: 829a a43e e1d0 dfbc 301a 24be 5415 923c
00000010: 103d 49be eeb6 c6bd b8ed e0bd 42a8 5a3d
00000020: f9a1 853d edeb 59be 0aab 8bbc c243 c53e
00000030: 12fb 0a3d e0b2 873e 547e 75be 21bc 1c3e
00000040: c08b 773d bd4c 593e 24d5 b1bd 932a 1f3f
00000050: edfe 8dbe 17d6 923e e3de 743d 4023 133d
00000060: b7dc 8b3e 5d29 e13c b29f 14bf fb61 f43d
00000070: 17be 7c3c 2798 943e 1ca1 a73c 777f 28be
00000080: b952 a3bd dd6a 0c3f 10ae edbe 33e2 65be
00000090: 9776 e33d 3511 943e 1ac9 bbbe df0f 56be
000000a0: 6f97 cdba 26bd 3a3d 7a6d d13d f984 d53c
000000b0: 9a27 73bb 5ae7 18be 2175 00be cfe9 07be
000000c0: 3650 a1be 5994 d73e e14f cc3c afd3 e4bc
000000d0: 31fa c9bc c3bc 273e 399c 12be c8e4 883e
000000e0: e34d eebd 9693 65be 0c05 243e b213 8ebd
000000f0: 1ed6 c23d 5c05 64be 0df3 1dbe 93a2 b63c
00000100: 0f38 ffbd 58d8 15be 35cb 843e 9e12 963d
00000110: e123 4a3e f916 21be 8bfe cfbc ba5d 47bd
00000120: 8591 ecbc d419 1ebd 1977 aa3c 894f a0be
00000130: 66a3 25bf aee2 da3d 7517 8b3c a6a7 b8bf
00000140: 3c4a 253d d3f6 d1bd bd24 00bd e05c 6d37
00000150: 2c9f 82bd fbd3 c1bd 9153 d23d 8cff 6d3d
00000160: 78f1 073e 3027 37be 2301 fc3d 1834 b4bd
00000170: ead3 383d 5682 d9be 373a b93e 22b2 733d
00000180: 336c 213f 8d37 32bd ad6e dd3d 3360 22bf
00000190: 18ae 21be ff44 ffbd 5f9e 4cbd 3899 52bc
000001a0: 447f 74bb b321 9cbd b8ef 0b3e 7de3 233c
000001b0: 344d 6f3e 1f10 ce3c fe39 13bc 6687 f1bd
000001c0: 5c23 5c3c 7be9 c4bd 2068 7c3d 501b 33be
000001d0: 572f b83e 45f2 fcbd f429 913b bf57 5b3f
000001e0: fb98 183e 9ff8 54bd 2960 21bb c169 9fbb
000001f0: 312d 743d c534 b63d f636 d03d ead5 e4bd
00000200: d9bf a9be 1c33 9bbd 2686 783c d735 5abe
00000210: f43d bb3c 7892 d8bd b045 e33d f830 203d
00000220: 30f8 d73e dca0 8a3d e6c2 083d d822 093f
00000230: 700e 8b3e 0d7f f2bc b35b 6ebe 7642 95be
00000240: 941b 233e 93e4 133e fe16 293d 80f8 efbd
00000250: 5071 c7be 07fc 8a3e 20ac fd3d 547d 06be
00000260: 44a2 b63d 563c b23d 81f2 4cbe 646f 05be
00000270: df8e 2dbf 6ed8 49be d5ef b03e f6ce e53e
00000280: 7235 a8bd 0cc9 533c a646 cebb 9009 a3bc
00000290: 6977 513c d161 febc 26e7 07bd 192a bc3c
000002a0: 4b83 843d 5ec8 a63d e49c 53bc b59a 9abd
000002b0: 9c2c a13a c0f5 273e c4c5 2abe 8be0 15be
000002c0: 19fb e53d b40f 8f3e b816 d23c 6b0f 163f
000002d0: 59ad babc a006 96bb 4919 203d dfd7 733d
000002e0: 62d6 a23c 3f2b 1c3d 58e2 733c 779a 70bc
000002f0: b185 f5bc b090 d7bc f169 0abc 24c3 3bbd
00000300: 1a58 853c 1754 7f3e 54fd 86be 9f44 c4bd
00000310: c781 7dbf c8f4 8ebc 06d8 2a3d b007 713f
00000320: 3f8b 933e 7fd9 c8bb 747c b9be d7c0 52be
00000330: 73ee 373f e923 a5be 56bd 583e b791 fcbe
00000340: 60db b0bd f675 14be a7ac 9b3e f804 86bf
00000350: 6863 053e 8906 5abc 7696 1fbe 9cc9 023e
00000360: 307d c23e 0d24 f33d b5a0 533e e092 533e
00000370: acac 863d ea6a 913c 8e65 5bbc 564a 48bd
00000380: 3bda f5ba 6daa 603c 8d03 ecbc 55fa ebba
00000390: 814a 0b3e f32e 0abe 9d0d 06be dd3e 0e3e
000003a0: 8791 1dbd 6511 a03e 17ba 98be fb03 2c3d
000003b0: 942e 513f 79a3 263c 174c 983d 5190 36bf
000003c0: afe7 3ebd b7e3 203e 402c 133e da79 84bc
000003d0: 805f be3d 5a4c ec3d 74cd 4bbe 758d cdbc
000003e0: d2dd 1abe a893 d93d 102c 5d3b b5c6 3c3d
000003f0: 7155 18bd 6f94 e0bd 7b97 e23d 1c38 833e

encoder.0.bias f4 [16]
0.82279307 -0.17721578 -0.181944 -0.35220605 0.55782425 1.2536899 0.7899905 -0.58399546
0.9274062 -0.62756836 0.2746051 0.6139753 0.24448282 0.24264051 0.60022616 0.53038794
00000000: 91a2 523f 0e78 35be 874f 3abe 5a54 b4be
00000010: 92cd 0e3f e978 a03f d13c 4a3f ba80 15bf
00000020: 7e6a 6d3f 52a8 20bf 0a99 8c3e 7c2d 1d3f
00000030: b459 7a3e c176 783e 6ca8 193f 81c7 073f

encoder.2.weight f4 [32, 16]
-0.24667113 -0.4935868 -0.14949618 -0.15158257 -0.065962255 0.23414424 0.185424 -0.09198104
-0.06171247 -0.6298573 0.0010292843 0.18576229 0.191633 -0.5381717 0.32179916 0.14193863
0.4189249 0.030176325 -0.23148412 -0.134064 0.15646423 -0.3081891 0.024856947 -0.17931622
0.012219163 -0.2128763 -0.010914409 0.052105706 0.5353794 0.07205944 0.45449373 -0.14219314
0.3392873 -0.042471398 -0.55798924 -0.0131162675 0.016340537 0.12506714 0.17112775 0.08749806
-0.25862068 0.36193252 0.6059537 -0.049912743 -0.3342688 0.39126897 -0.21605073 -0.09559175
-0.6531442 -0.00701914 -0.18605036 0.0807366 -0.22617784 0.40281293 -0.61647207 0.09848825
0.2108326 0.012065399 0.8430539 0.14143129 -0.15676707 0.2771602 0.31631866 -0.15887816
0.37715137 -0.2460754 0.12003995 -0.043531395 0.27530193 0.27814552 0.36996004 -0.07440697
0.062771015 0.11394126 -0.3757476 0.11923647 -0.6500696 -0.094340965 0.1782015 -0.18936503
0.42070165 0.015385213 -0.23134546 -0.28098398 0.005538213 -0.03617582 -0.13346262 0.09634664
-0.42101878 -0.10404056 -0.110421136 0.08888114 0.38283548 0.3593074 0.11512244 0.14787112
-0.049934942 0.46424326 -0.60409695 -0.43737376 -0.2794022 0.27749366 0.19770716 -0.34279394
0.30494943 0.30919188 -0.41643107 -0.29573312 0.4181042 0.022477644 -0.40776888 0.6396883
0.4518483 -0.3443999 -0.44712046 0.0965858 -0.6427009 0.48529434 0.08570601 0.09199493
-0.19675681 -0.12224506 0.39335355 0.10672469 -0.32982245 0.038368598 -0.021441504 -0.07455666
0.11827611 0.22519861 0.16948693 -0.49615708 0.021528173 0.44079384 0.62296844 0.42462966
0.6158587 0.42900214 -0.46411473 -0.63275176 0.06656558 -0.33531502 -0.21628007 -0.30923846
0.7130715 -0.41550964 0.4083922 -0.18514659 -0.5591167 0.69610935 0.020635389 0.07832109
-0.9614112 -0.38231087 -0.5785432 0.1596749 -0.2686705 -0.46414036 0.19040543 0.16513008
-0.24554706 -0.5565905 0.0033558253 0.10604955 0.17959495 0.30585593 0.009231323 -0.34244266
0.17890993 0.73198646 0.22367914 -0.43817306 -0.036025412 0.18432327 -0.43098176 0.11059314
-0.09986447 -0.41635442 0.23002693 -0.20813707 0.38039652 -0.05545473 0.122264124 0.7543344
-0.033414423 0.091164865 0.06794731 -0.15320396 -0.22429828 0.38534945 0.19398664 0.36418617
-0.38128883 -0.1202135 -0.28254908 0.38400272 0.15942806 0.26526347 -0.1133801 0.61994815
-0.091120094 0.028437132 -0.50824225 0.035116717 0.02777397 -0.56498957 0.46193072 -0.21247661
-0.13410601 -0.536389 -0.19814461 0.10531394 0.24998644 0.05985938 -0.47940055 -0.3482806
-0.014514732 -0.10022834 -0.36052316 0.68565464 -0.10156623 -0.50867325 -0.11623586 0.39232466
0.94390476 -0.1602953 -0.1336476 -0.057937935 -0.94811106 0.12322801 0.24375398 -0.31789148
-0.14646871 -0.7308373 0.5103931 -0.16136593 -0.57027864 0.6571776 0.1445637 -0.35883212
-0.11523546 0.02779195 -0.3389401 -0.44417924 -0.28066015 0.014228773 -0.10110562 -0.11510449
0.36168987 -0.09835907 0.18042511 -0.2865244 -0.24610928 -0.22839907 0.34985787 -0.58025354
00000000: 5b97 7cbe 69b7 fcbe 8715 19be 7638 1bbe
00000010: 3817 87bd 82c3 6f3e cadf 3d3e 8e60 bcbd
00000020: 37c6 7cbd 543e 21bf 0de9 863a 7838 3e3e
00000030: 713b 443e 9fc5 09bf dcc2 a43e 5c58 113e
00000040: 537d d63e 5734 f73c 2c0a 6dbe 1348 09be
00000050: 2938 203e f6ca 9dbe cca0 cb3c ac9e 37be
00000060: e232 483c 3ffc 59be 59d2 32bc cb6c 553d
00000070: a00e 093f e693 933d 67b3 e83e 149b 11be
00000080: 11b7 ad3e 7df6 2dbd 62d8 0ebf 9de5 56bc
00000090: 97dc 853c 9a11 003e 1d3c 2f3e 2f32 b33d
000000a0: ee69 84be 384f b93e c81f 1b3f 4e71 4cbd
000000b0: 4825 abbe 6854 c83e 673c 5dbe 9cc5 c3bd
000000c0: 7534 27bf d000 e6bb fc83 3ebe 3b59 a53d
000000d0: 2a9b 67be 7f3d ce3e 1dd1 1dbf 35b4 c93d
000000e0: 80e4 573e f4ad 453c 61d2 573f 5dd3 103e
000000f0: 8c87 20be f1e7 8d3e 85f4 a13e f5b0 22be
00000100: fc19 c13e 31fb 7bbe 81d7 f53d fa4d 32bd
00000110: 60f4 8c3e 1769 8e3e 676b bd3e ae62 98bd
00000120: 178e 803d 095a e93d fd61 c0be 4032 f43d
00000130: f66a 26bf d635 c1bd 747a 363e e8e8 41be
00000140: 3566 d73e 4312 7c3c d3e5 6cbe 22dd 8fbe
00000150: e679 b53b 192d 14bd 6daa 08be 6351 c53d
00000160: c68f d7be 3813 d5bd 7a24 e2bd 5107 b63d
00000170: 0303 c43e 24f7 b73e 50c5 eb3d 876b 173e
00000180: 9588 4cbd 4bb1 ed3e 19a6 1abf 74ef dfbe
00000190: ce0d 8fbe a613 8e3e bf73 4a3e b082 afbe
000001a0: 5522 9c3e 664e 9e3e 7436 d5be 556a 97be
000001b0: c111 d63e 0923 b83c 15c7 d0be 9dc2 233f
000001c0: a958 e73e 2f55 b0be f9ec e4be c7ce c53d
000001d0: 0c88 24bf 8078 f83e a286 af3d d667 bc3d
000001e0: 9e7a 49be 9e5b fabd a365 c93e 7992 da3d
000001f0: 7dde a8be 6428 1d3d 18a6 afbc 2ab1 98bd
00000200: bf3a f23d 779a 663e fb8d 2d3e 4d08 febe
00000210: da5b b03c bbaf e13e dc7a 1f3f 0f69 d93e
00000220: eaa8 1d3f 2ba6 db3e 72a0 edbe 05fc 21bf
00000230: 8953 883d 69ae abbe 8678 5dbe 8154 9ebe
00000240: db8b 363f aebd d4be c818 d13e 1197 3dbe
00000250: 4622 0fbf 3934 323f 8c0b a93c cf66 a03d
00000260: 0b1f 76bf 40be c3be 681b 14bf d181 233e
00000270: 2e8f 89be cea3 edbe a4f9 423e dc17 293e
00000280: b070 7bbe b77c 0ebf 68ed 5b3b 8230 d93d
00000290: bde7 373e 2699 9c3e fa3e 173c a554 afbe
000002a0: 2a34 373e 7763 3b3f 250c 653e 3858 e0be
000002b0: 628f 13bd 3dbf 3c3e a4a9 dcbe a87e e23d
000002c0: be85 ccbd 682c d5be 2e8c 6b3e e221 55be
000002d0: 55c3 c23e 8024 63bd 9d65 fa3d 0f1c 413f
000002e0: 90dd 08bd a5b4 ba3d f627 8b3d 80e1 1cbe
000002f0: 73ae 65be 864c c53e 6fa4 463e 9c76 ba3e
00000300: 4a38 c3be 7f32 f6bd 46aa 90be 019c c43e
00000310: 1c41 233e 9dd0 873e d333 e8bd ecb4 1e3f
00000320: 2c9d babd fdf4 e83c 2a1c 02bf 8cd6 0f3d
00000330: 3d86 e33c 28a3 10bf 2f82 ec3e 7893 59be
00000340: 1653 09be ca50 09bf 6ce6 4abe d6ae d73d
00000350: 72fc 7f3e 1c2f 753d fd73 f5be d651 b2be
00000360: 33cf 6dbc 8444 cdbd 7e96 b8be 1087 2f3f
00000370: f501 d0bd 6938 02bf 110d eebd c7de c83e
00000380: bea3 713f 7324 24be ebda 08be 5450 6dbd
00000390: 68b7 72bf f85e fc3d a59a 793e acc2 a2be
000003a0: e5fb 15be 2718 3bbf 1fa9 023f 1c3d 25be
000003b0: c8fd 11bf cb3c 283f 8208 143e d8b8 b7be
000003c0: 9200 ecbd f2ab e33c 8f89 adbe 766b e3be
000003d0: b0b2 8fbe cd1f 693c 7710 cfbd e7bb ebbd
000003e0: 6a2f b93e 7b70 c9bd 5cc1 383e 53b3 92be
000003f0: 1204 7cbe 72e1 69be 9220 b33e 7f8b 14bf

encoder.2.bias f4 [32]
0.66105264 0.27280018 0.019939635 0.46118495 -0.72901237 0.5606086 0.33864972 0.30944997
0.12334598 -0.13747181 -0.6411257 0.34744513 0.33196652 0.47973186 -0.38228995 -0.17803352
-0.36398932 0.43006623 0.5249435 -0.055127006 0.31201276 -0.17685913 0.21933956 -0.5512904
0.3807207 0.21795169 0.09491893 -0.042186633 -0.35136023 -0.5817682 -0.5552058 0.38792852
00000000: bf3a 293f 77ac 8b3e 7258 a33c 6f20 ec3e
00000010: 8ea0 3abf 0c84 0f3f 7f63 ad3e 3a70 9e3e
00000020: d19c fc3d 69c5 0cbe d020 24bf 54e4 b13e
00000030: 84f7 a93e 6a9f f53e 82bb c3be 6b4e 36be
00000040: cf5c babe a431 dc3e b262 063f dbcc 61bd
00000050: 23c0 9f3e 8f1a 35be 8d9a 603e 5e21 0dbf
00000060: d3ed c23e ba2e 5f3e db64 c23d e4cb 2cbd
00000070: 7de5 b3be c3ee 14bf f821 0ebf 919e c63e

nee_decoder.0.weight f4 [16, 32]
-0.43044475 0.12617202 0.5597712 -0.030884255 0.20952006 0.08380433 0.07046323 -0.22069156
-0.29484153 -0.36247227 -0.59078205 -0.03623504 0.2274846 0.073313035 -0.20098552 0.20249942
-0.069553986 0.45374542 0.7591153 -0.10971092 0.018419703 -0.4260099 -0.28411004 -0.06463129
0.27746022 0.02047094 -0.35149324 0.09823934 -0.10700891 0.26946342 -0.14655513 0.1261391
0.050776515 -0.087073654 0.3010466 0.3400096 0.22117773 -0.4487932 0.57654697 0.3051007
0.48878348 0.034128193 -0.13959226 0.056900937 0.4327102 -0.11646962 -0.04807725 -0.6324993
-0.32005197 0.16361763 0.008584448 -0.10485926 -0.31367892 0.0155763235 0.23702528 0.16824354
-0.1495663 0.41887984 0.49210292 0.21109833 -0.14299993 -0.030656792 -0.23531964 -0.16610292
0.3102569 0.37831062 -0.17616376 0.36921847 -0.042135138 0.28693256 0.08638848 -0.27446282
0.39799297 0.45695788 0.27385628 -0.07454016 0.63545024 -0.13738467 0.011012561 0.65886974
0.51785934 -0.43255478 -0.21785194 -0.020964554 0.061239153 0.05524866 -0.3490096 0.27480385
-0.1356785 0.40168205 -0.8043302 0.31218636 -0.012197363 0.037793692 0.5657483 0.22118498
-0.13581817 -0.0277492 0.24146004 -0.1997841 -0.1230062 -0.5427841 0.36670145 0.28795636
0.105805635 0.10291987 0.44895804 -0.09415694 -0.22453628 0.26909295 0.038034093 -0.1854297
-0.32189035 0.07562396 -0.2135091 -0.06966007 -0.08196804 0.116642 0.8968002 0.6024792
-0.4250108 0.47857228 -0.29023388 0.075854205 -0.16060074 0.2105792 0.5442643 -0.50278914
-0.11158972 -0.007580641 0.13265505 0.21167909 -0.09178422 0.020751527 0.11164244 -0.2783525
-0.2672024 -0.83376735 0.12831154 -0.25468612 -0.2461402 0.046926834 0.2108857 0.5843348
0.043736454 0.38399184 -0.063989565 0.32297537 -0.3173589 0.041523743 0.14444277 0.29142272
-0.104490064 0.02467902 0.006931111 -0.10371634 0.09695685 0.2584707 0.14078441 0.44839108
0.43426347 0.5531077 -0.2521341 -0.26671273 -0.366917 -0.17692344 0.086242214 -0.5192606
0.11653789 0.5317473 0.020715328 -0.25155562 -0.16258194 0.112649485 -0.288974 -0.09551233
-0.030124387 0.20035385 0.41033322 0.17771125 -0.21425009 -0.34282932 0.5474342 -0.055389706
-0.05472922 0.0021707145 0.11779446 -0.046704605 0.18084566 -0.18477459 -0.6181167 0.36387742
-0.48482865 0.03842844 -0.10803026 0.32774007 -0.42389172 0.16509514 -0.25323528 -0.28765023
0.13665895 0.057434384 -0.19811086 0.3875952 -0.3736992 -0.44273323 0.4201939 0.3800344
0.23372895 0.2613172 0.31780794 -0.273173 -0.10572495 0.018372014 0.018318588 -0.06299933
-0.03764081 -0.05407245 -0.40811685 -0.65526956 0.44615158 0.20582797 0.25644276 -0.33095428
-0.49441105 0.5385044 0.39179653 0.12301724 -0.32747352 -0.031574883 0.058472723 -0.2635969
0.090622164 -0.31668922 -0.11230514 0.30498618 0.1576612 -0.20713891 -0.04387654 0.4615366
0.09556045 0.09604896 0.16322082 0.2098947 0.6977195 -0.16810536 -0.38681662 -0.3269017
-0.008894515 0.102495775 -0.23141812 -0.17338191 -0.07110672 -0.26733595 -0.25882345 0.099659726
00000000: 4163 dcbe 3d33 013e 2a4d 0f3f fa00 fdbc
00000010: 6d8c 563e 9ba1 ab3d 074f 903d f8fc 61be
00000020: 78f5 96be f795 b9be 7e3d 17bf 316b 14bd
00000030: b9f1 683e 2525 963d 26cf 4dbe 025c 4f3e
00000040: 5272 8ebd 5251 e83e 6155 423f 1eb0 e0bd
00000050: ebe4 963c f81d dabe df76 91be 695d 84bd
00000060: 440f 8e3e acb2 a73c ecf6 b3be b531 c93d
00000070: 7d27 dbbd 1cf7 893e 8c12 16be 9c2a 013e
00000080: 09fb 4f3d ac53 b2bd c822 9a3e bd15 ae3e
00000090: 6a7c 623e 39c8 e5be 9598 133f 2936 9c3e
000000a0: d441 fa3e 01ca 0b3d 46f1 0ebe f510 693d
000000b0: 318c dd3e a087 eebd a7ec 44bd 79eb 21bf
000000c0: dadd a3be 618b 273e c9a5 0c3c 74c0 d6bd
000000d0: 869a a0be d633 7f3c c1b6 723e 0948 2c3e
000000e0: e827 19be 6b77 d63e eaf4 fb3e 292a 583e
000000f0: 936e 12be f423 fbbc a2f7 70be e216 2abe
00000100: fed9 9e3e eeb1 c13e 4664 34be 340a bd3e
00000110: e595 2cbd d3e8 923e 72ec b03d 6486 8cbe
00000120: bcc5 cb3e 62f6 e93e e436 8c3e 83a8 98bd
00000130: deac 223f 91ae 0cbe 076e 343c b0ab 283f
00000140: 6e92 043f d277 ddbe 9414 5fbe dbbd abbc
00000150: e8d5 7a3d 6b4c 623d 63b1 b2be 17b3 8c3e
00000160: 4eef 0abe 45a9 cd3e 96e8 4dbf e4d6 9f3e
00000170: 73d7 47bc 8fcd 1a3d e1d4 103f 517e 623e
00000180: eb13 0bbe 4a52 e3bc 4d41 773e 3494 4cbe
00000190: adea fbbd e6f3 0abf 4bc0 bb3e 046f 933e
000001a0: a0b0 d83d a7c7 d23d d4dd e53e 5bd5 c0bd
000001b0: d7ec 65be 8dc6 893e a3c9 1b3d 49e1 3dbe
000001c0: d0ce a4be bce0 9a3d 21a2 5abe f0a9 8ebd
000001d0: dcde a7bd 00e2 ee3d b394 653f 143c 1a3f
000001e0: 049b d9be 6d07 f53e 8999 94be 7359 9b3d
000001f0: 8574 24be 13a2 573e e854 0b3f cab6 00bf
00000200: 2789 e4bd 0767 f8bb bad6 073e 67c2 583e
00000210: 5df9 bbbd 1bff a93c cba4 e43d 3884 8ebe
00000220: c1ce 88be c771 55bf 1a64 033e 3866 82be
00000230: 2d0c 7cbe 5a36 403d 6cf2 573e f796 153f
00000240: ff24 333d 949a c43e f60c 83bd 075d a53e
00000250: de7c a2be cd14 2a3d cee8 133e 5c35 953e
00000260: e3fe d5bd a82b ca3c 601e e33b 3c69 d4bd
00000270: 5091 c63d 4656 843e ca29 103e 8493 e53e
00000280: c857 de3e 7798 0d3f b917 81be 928e 88be
00000290: 8cdc bbbe 6b2b 35be c29f b03d 43ee 04bf
000002a0: 6bab ee3d 9720 083f 31b3 a93c e6cb 80be
000002b0: e17b 26be c6b4 e63d 66f4 93be f89b c3bd
000002c0: 6bc7 f6bc 8f29 4d3e 3217 d23e f0f9 353e
000002d0: 6064 5bbe 5387 afbe a624 0c3f 51e0 62bd
000002e0: bf2b 60bd 8c42 0e3b 393e f13d 544d 3fbd
000002f0: 9b2f 393e 8d35 3dbe e53c 1ebf 244e ba3e
00000300: 763b f8be 2467 1d3d f83e ddbd 8ccd a73e
00000310: 5608 d9be b30e 293e 0ea8 81be e446 93be
00000320: 53f0 0b3e 5140 6b3d 93dd 4abe e172 c63e
00000330: 8055 bfbe eead e2be a823 d73e de93 c23e
00000340: a456 6f3e 5ecb 853e b9b7 a23e 55dd 8bbe
00000350: 5386 d8bd e880 963c dd10 963c cb05 81bd
00000360: 402d 1abd 137b 5dbd b1f4 d0be bfbf 27bf
00000370: fb6d e43e 91c4 523e 774c 833e d772 a9be
00000380: 7223 fdbe 6ddb 093f 8e99 c83e 76f0 fb3d
00000390: 9caa a7be aa54 01bd 1881 6f3d 2cf6 86be
000003a0: 1d98 b93d 1725 a2be 3d00 e6bd 2627 9c3e
000003b0: f071 213e 391c 54be e3b7 33bd 864e ec3e
000003c0: 32b5 c33d 51b5 c43d 5c23 273e a3ee 563e
000003d0: bf9d 323f d023 2cbe d40c c6be a95f a7be
000003e0: 4dba 11bc 4ee9 d13d dff8 6cbe 078b 31be
000003f0: 66a0 91bd 42e0 88be 8284 84be 661a cc3d

nee_decoder.0.bias f4 [16]
0.341149 -0.13011575 -0.10386983 -0.41730943 -0.048356324 -0.29410124 0.17228523 0.19785647
0.005671973 0.2877521 -0.14364742 -0.217928 0.20545387 -0.21793452 0.1353027 0.15900446
00000000: 15ab ae3e 103d 05be b5b9 d4bd 95a9 d5be
00000010: 4811 46bd 7094 96be 8a6b 303e e39a 4a3e
00000020: f5db b93b 3e54 933e 4f18 13be 8528 5fbe
00000030: 8062 523e 3a2a 5fbe ca8c 0a3e 11d2 223e

nee_decoder.2.weight f4 [16, 16]
0.4414301 -0.16558085 -0.52485776 0.200226 0.1792725 -0.33933273 0.057583433 0.0013447149
-0.28167194 -0.30537435 -0.030987121 -0.17352599 -0.42504582 -0.040859554 -0.38346118 0.7336654
0.39732102 0.3288553 0.06827031 -0.24775513 -0.012124285 -0.48263946 0.21470802 -0.5434838
-0.0059472397 -0.15831092 -0.27786115 0.27902257 -0.24886818 -0.28223535 -0.41899052 0.16120197
0.30171353 0.031747382 0.0059051737 -0.5016887 0.19757007 -0.23696971 -0.5411335 -0.09516875
-0.41914338 0.12916607 -0.16740371 0.8967748 -0.61071134 -0.6886227 -0.22156054 0.1365716
0.28661475 -1.0436474 -0.11398695 -0.5797854 0.32836774 0.14623386 -0.4600461 0.29316357
0.12820378 0.24265714 -1.0322591 0.5441586 0.5370636 -0.14545739 0.32950902 -0.0437952
0.09925761 0.05026094 0.13787085 -0.25708485 0.26482758 0.029245256 -0.33686543 0.40606996
0.5350998 0.17043857 -0.21751396 0.5858668 0.09942565 -0.5137499 0.37213045 -0.41943112
-0.22476579 0.26702622 -0.043472324 0.69862646 0.13326316 -0.44171077 0.39944062 -0.41461056
0.44743508 0.13442582 0.28691348 0.65295285 -0.18890378 -0.95672095 0.33386615 0.018614627
-0.6551221 0.3831662 -0.28422365 0.5076072 -0.37747806 0.28470305 0.14580363 -0.2630953
-0.85842067 -0.35993648 0.20793274 -0.3818719 -0.16600402 1.1457797 -0.106979 -0.677608
-0.13134539 -0.16744034 -0.026417367 0.27527723 0.119761415 0.3963471 0.65426296 -0.34335414
-0.11160705 0.17186488 0.2132283 -0.08665988 -0.22098538 0.25745943 0.13358666 -0.6065657
0.032646775 0.10882743 0.6974366 -0.43405202 -0.23937294 -0.6841804 0.18798813 -0.3384365
0.28516385 0.08444682 -0.013540686 0.4965346 -0.00707233 0.07332043 0.1753906 -0.40723187
-0.3242133 -0.23289391 -0.15769309 -0.38602474 0.066220954 0.9026144 0.32979247 -0.13466817
-0.29724455 0.653228 0.15849824 0.7699872 0.02656722 -0.0324139 -0.074872285 0.48148152
-0.41096985 -0.07512012 0.53484446 -0.9008907 0.2008617 -0.215649 -0.36718646 0.33992594
0.38597068 0.04147272 -0.40520787 0.5706641 0.3897454 0.2907803 0.3092902 0.23513952
0.577543 -0.040582795 -0.3443772 0.21433394 0.070018746 -0.21171741 -0.42254624 -0.09860087
0.51906705 0.30438676 0.17443553 -0.2230524 0.105190106 0.32139456 0.2230126 -0.26425308
0.32128796 0.36432385 -0.38260746 -0.06648178 0.25095865 0.1440243 0.57739043 -0.242941
0.10624049 -0.27700546 0.82396865 -1.2206026 -0.16454339 0.72082525 -0.033544976 -0.30653343
0.27477553 0.14290532 0.194027 -0.6583845 -0.31332067 0.28414103 -0.25765693 -0.2636313
0.973441 -0.46326968 -0.90219754 0.40480602 0.38649625 0.056560203 0.021166397 0.02123311
0.270696 -0.44438452 0.041026052 0.060774814 0.21014398 0.13342215 0.18045998 -0.20886736
-0.13517028 0.029507417 -1.0413169 0.24059784 0.33841765 -0.29142413 0.19269603 0.55658317
0.17046776 -0.34877083 0.34524015 0.39152637 0.30775288 -0.33168373 0.4267971 -0.1284695
0.25526178 0.28506872 0.5222141 0.13558896 -0.079311356 0.14904068 -0.20704016 -0.49859455
00000000: 2003 e23e 078e 29be 145d 06bf 0b08 4d3e
00000010: 3693 373e 05bd adbe 9bdc 6b3d 2541 b03a
00000020: 4e37 90be 075a 9cbe b4d8 fdbc ccb0 31be
00000030: 9b9f d9be 595c 27bd 0655 c4be 7fd1 3b3f
00000040: a96d cb3e b95f a83e 4ed1 8b3d 85b3 7dbe
00000050: f0a4 46bc 851c f7be 6bdc 5b3e c121 0bbf
00000060: 10e1 c2bb 421c 22be d143 8ebe 0cdc 8e3e
00000070: 4dd7 7ebe 2781 90be ed85 d6be 2112 253e
00000080: 327a 9a3e 8b09 023d 3080 c13b ac6e 00bf
00000090: cf4f 4a3e 30a8 72be ba87 0abf d5e7 c2bd
000000a0: f699 d6be 1c44 043e e16b 2bbe 0993 653f
000000b0: 9457 1cbf 9449 30bf c4e0 62be 6dd9 0b3e
000000c0: 2bbf 923e 3d96 85bf fd71 e9bd d16c 14bf
000000d0: d11f a83e 54be 153e 2a8b ebbe 8919 963e
000000e0: da47 033e 1d7b 783e 1121 84bf fa4d 0b3f
000000f0: 007d 093f c8f2 14be 68b5 a83e 9862 33bd
00000100: 9347 cb3d 6ade 4d3d 042e 0d3e a0a0 83be
00000110: 7b97 873e bf93 ef3c a079 acbe 67e8 cf3e
00000120: 4dfc 083f 7387 2e3e fbbb 5ebe 5efb 153f
00000130: ad9f cb3d 1d85 03bf e287 be3e adbf d6be
00000140: 0129 66be a9b7 883e 0910 32bd 2fd9 323f
00000150: 2376 083e ea27 e2be 7b83 cc3e d647 d4be
00000160: 3616 e53e eca6 093e 53e6 923e eb27 273f
00000170: fe6f 41be aaeb 74bf 81f0 aa3e b47d 983c
00000180: 15b6 27bf 5c2e c43e c385 91be 8cf2 013f
00000190: ce44 c1be 99c4 913e 8c4d 153e 6db4 86be
000001a0: 75c1 5bbf 9849 b8be 52ec 543e b784 c3be
000001b0: f5fc 29be e9a8 923f ce17 dbbd b877 2dbf
000001c0: 687f 06be 7b75 2bbe 3c69 d8bc 23f1 8c3e
000001d0: 7945 f53d 02ee ca3e c77d 273f 1dcc afbe
000001e0: 3d92 e4bd 59fd 2f3e 8558 5a3e bc7a b1bd
000001f0: fe49 62be b9d1 833e f1ca 083e e447 1bbf
00000200: a0b8 053d eae0 de3d 348b 323f 113c debe
00000210: 2e1e 75be 7226 2fbf f67f 403e 8d47 adbe
00000220: ff00 923e 74f2 ac3d c1d9 5dbc c839 fe3e
00000230: 01bf e7bb 0629 963d 9899 333e b280 d0be
00000240: 49ff a5be be7b 6ebe 4c7a 21be 09a5 c5be
00000250: da9e 873d bd11 673f 8fda a83e 74e6 09be
00000260: 7030 98be f339 273f 5d4d 223e e21d 453f
00000270: 80a3 d93c 70c4 04bd a456 99bd bf84 f63e
00000280: a46a d2be 94d8 99bd 91eb 083f c6a0 66bf
00000290: b1ae 4d3e 17d3 5cbe ddff bbbe c60a ae3e
000002a0: f39d c53e 4ddf 293d 6877 cfbe 0b17 123f
000002b0: b68c c73e 28e1 943e 495b 9e3e 6ac8 703e
000002c0: dcd9 133f 253a 26bd 3552 b0be 5b7a 5b3e
000002d0: fd65 8f3d 73cc 58be fb57 d8be 41ef c9bd
000002e0: 94e1 043f 95d8 9b3e 3a9f 323e d967 64be
000002f0: e96d d73d d48d a43e 6a5d 643e 2e4c 87be
00000300: db7f a43e a888 ba3e 20e5 c3be 9927 88bd
00000310: a77d 803e 1b7b 133e dccf 133f 87c5 78be
00000320: 9d94 d93d a9d3 8dbe 9cef 523f b53c 9cbf
00000330: 107e 28be 0188 383f 7566 09bd f3f1 9cbe
00000340: 61af 8c3e c655 123e 04af 463e e38b 28bf
00000350: 916b a0be ef7a 913e 9ceb 83be affa 86be
00000360: 6e33 793f af31 edbe 6bf6 66bf bc42 cf3e
00000370: d6e2 c53e acab 673d 2765 ad3c 0ff1 ad3c
00000380: ab98 8a3e 5e86 e3be ef0a 283d 03ef 783d
00000390: fc2f 573e d19f 083e 80ca 383e 53e1 55be
000003a0: 146a 0abe 8ab9 f13c df49 85bf 485f 763e
000003b0: 1445 ad3e 8b35 95be 1c52 453e 3c7c 0e3f
000003c0: 1a8f 2e3e 1792 b2be 51c3 b03e 2576 c83e
000003d0: c991 9d3e 73d2 a9be 2685 da3e 828d 03be
000003e0: acb1 823e 87f4 913e d3af 053f d5d7 0a3e
000003f0: fe6d a2bd 1f9e 183e 5602 54be c947 ffbe

nee_decoder.2.bias f4 [16]
0.12875198 0.037623283 0.1257711 0.124938056 -0.032935973 0.08316022 -0.11304212 -0.10346069
0.16888566 0.05283096 0.14211415 -0.16421668 -0.13404073 0.19085686 0.16429894 0.047014654
00000000: 8fd7 033e df1a 1a3d 24ca 003e 86df ff3d
00000010: dfe7 06bd e84f aa3d a182 e7bd 33e3 d3bd
00000020: 5df0 2c3e 4765 583d 5f86 113e 6b28 28be
00000030: f941 09be fb6f 433e fb3d 283e 7092 403d

nee_decoder.3.weight f4 [1, 16]
0.08310772 0.026247848 0.51833564 0.8935627 -0.01968079 0.19011423 -0.871185 -0.48830727
-0.048061326 0.059417535 -0.071322195 -0.21784103 -0.26926583 -0.044194 0.045645174 -0.066353515
00000000: 6134 aa3d ba05 d73c a5b1 043f 86c0 643f
00000010: 9c39 a1bc 4ead 423e fb05 5fbf 6903 fabe
00000020: f4db 44bd cd5f 733d 5f11 92bd b811 5fbe
00000030: 36dd 89be c504 35bd 6ff6 3a3d 5ae4 87bd

k_decoder.0.weight f4 [16, 32]
0.01279997 0.29924044 -0.05416495 0.034866795 0.56055474 0.33658636 -0.06807774 0.33056164
0.30788037 -0.6414144 -0.055049166 -0.16395527 0.04415471 0.29189312 -0.23080795 -0.5406589
-0.8661458 0.2044223 0.4662246 -0.18169992 0.48386666 -0.026979359 0.35016167 -0.22223428
0.0756443 0.30339524 0.1894662 0.20900628 0.13645531 -0.15362647 -0.098379105 -0.16222674
0.0031939575 0.20707746 0.3708331 -0.14319219 -0.40226343 0.3154528 0.6073362 0.16803066
0.49380445 0.27535242 0.4487456 0.24654935 -0.15538202 -0.35810456 -0.09227235 -0.22386047
0.34816277 -0.19349566 -0.5410936 0.035212692 0.20437594 0.27762422 0.35670406 -0.7159701
0.32711628 0.16213185 0.18947253 0.37208176 -0.110896416 0.0033128192 0.24946874 0.23742563
0.758648 0.6262757 0.43807918 0.20373702 -0.20340385 0.06377168 -0.26302 -0.0946717
0.020967532 0.1709633 -0.5199378 0.17620146 -0.117453806 0.1335928 -0.341296 -0.25437614
-0.52946216 0.25438592 0.23871405 -0.15073997 -0.30418566 0.069464274 0.0749661 -0.39769527
0.3557271 0.16636921 0.03715762 -0.02335743 -1.077362 -0.33589548 0.1484276 0.80313003
0.55508715 0.17300741 -0.032024756 0.26734653 -0.22254202 0.42088738 0.4549674 0.5019776
-0.14586215 0.28891152 -0.8034265 0.6524951 0.30851138 0.3086028 -0.50886595 -0.049098648
0.06604402 0.005312442 0.27587113 -0.21691751 0.0013471486 -0.1922384 0.075403646 -0.58952606
0.5949465 -0.21352729 0.22280258 0.07978214 -0.49048764 -0.5130539 -0.040926673 -0.014528469
-0.0031610664 0.6264102 0.08138985 0.119485766 0.1750968 0.4895949 0.44431898 0.091401756
0.5212043 -0.090552524 -0.07330739 0.43546236 -0.1233837 0.21759227 -0.20099677 -0.31821278
0.24129398 0.06633443 0.0050660484 -0.24524632 0.48671913 -0.019288382 0.18324669 0.19981958
0.507985 0.1263225 -0.16979685 0.17038788 -0.28025302 0.099701725 -0.019671082 -0.083562694
-0.21928483 0.24543798 -0.072780184 0.30672613 0.5156476 0.17508696 0.29947078 0.1320881
0.7233928 -0.39560962 0.2841911 -0.06943814 -0.1482533 -0.29735583 -0.37770802 0.06153313
-0.073003255 -0.037537932 -0.023568269 0.48356226 0.5343635 0.781418 0.19045155 0.43627375
0.4307517 0.39249307 0.068603694 0.19966929 -0.19833359 -0.18961272 -0.052793425 0.46038988
0.21581069 0.27555278 0.26507914 0.1900576 -0.039191287 0.15479675 0.4113571 0.33706594
0.36054277 0.17895737 0.038740743 0.18173432 0.121722534 0.3224042 -0.23891099 -0.62799054
0.049727336 0.0452317 -0.3130583 0.21240951 0.491586 0.25180602 0.1500044 -0.029524771
0.061200693 0.4210961 -0.4139858 -0.08177803 -0.68016124 0.13858208 -0.06553539 0.11722864
0.34011683 0.35672653 0.36458117 0.24008083 -0.21339121 -0.21054071 0.6419447 0.5500849
0.5229531 0.018227682 0.16698945 0.022093654 -0.1418114 -0.22115713 0.6165719 -0.025326801
0.40530962 -0.3708354 -0.057585623 0.0003864889 0.15570498 0.25735018 0.060867436 -0.0519698
-0.19892783 -0.13915864 0.25036514 0.52218807 -0.6581702 -0.23847303 0.06346511 -0.10642457
00000000: f7b6 513c 0b36 993e 11dc 5dbd 7cd0 0e3d
00000010: 8480 0f3f 0c55 ac3e 586c 8bbd 603f a93e
00000020: 7fa2 9d3e bc33 24bf 3c7b 61bd e4e3 27be
00000030: 92db 343d 0473 953e eb58 6cbe 9f68 0abf
00000040: bbbb 5dbf 1454 513e feb4 ee3e 8b0f 3abe
00000050: 5fbd f73e d103 ddbc 6448 b33e 6291 63be
00000060: 66eb 9a3d 9f56 9b3e 6d03 423e be05 563e
00000070: f1ba 0b3e 4250 1dbe fc7a c9bd c41e 26be
00000080: b751 513b 1d0c 543e d6dd bd3e f9a0 12be
00000090: 79f5 cdbe 0883 a13e 637a 1b3f 3b10 2c3e
000000a0: f0d3 fc3e fefa 8c3e fcc1 e53e 6f77 7c3e
000000b0: 771c 1fbe 7b59 b7be 49f9 bcbd ae3b 65be
000000c0: 6442 b23e ba23 46be 1c85 0abf 2f3b 103d
000000d0: ed47 513e c324 8e3e eaa1 b63e d149 37bf
000000e0: c97b a73e e405 263e 1605 423e 8081 be3e
000000f0: a91d e3bd e21b 593b bc74 7f3e b41f 733e
00000100: c136 423f 9b53 203f ea4b e03e 70a0 503e
00000110: 1949 50be ba9a 823d 8faa 86be 3ce3 c1bd
00000120: 1ac4 ab3c 0111 2f3e a51a 05bf 286e 343e
00000130: 9f8b f0bd 8dcc 083e 59be aebe 973d 82be
00000140: d58a 07bf df3e 823e 7571 743e 945b 1abe
00000150: 39be 9bbe 4943 8e3d d487 993d b79e cbbe
00000160: dd21 b63e b15c 2a3e 9732 183d 1558 bfbc
00000170: ffe6 89bf 7efa abbe 68fd 173e ee99 4d3f
00000180: 311a 0e3f db28 313e 642c 03bd a5e1 883e
00000190: 0ee2 63be 8d7e d73e 7df1 e83e 9b81 003f
000001a0: e35c 15be 36ec 933e 5cad 4dbf eb09 273f
000001b0: 34f5 9d3e 3001 9e3e 0a45 02bf aa1b 49bd
000001c0: 1642 873d fe13 ae3b fb3e 8d3e a01f 5ebe
000001d0: ce92 b03a 25da 44be 3a6d 9a3d 2eeb 16bf
000001e0: 6a4e 183f e6a6 5abe 5c26 643e d264 a33d
000001f0: 3221 fbbe 8057 03bf baa2 27bd d108 6ebc
00000200: e529 4fbb 6b5c 203f b9af a63d f4b4 f43d
00000210: 934c 333e 2fac fa3e c77d e33e d830 bb3d
00000220: a56d 053f 9a73 b9bd 2f22 96bd ecf4 de3e
00000230: 98b0 fcbd 82d0 5e3e 19d2 4dbe c9ec a2be
00000240: c515 773e 58da 873d 1801 a63b da21 7bbe
00000250: 4033 f93e ab02 9ebc 05a5 3b3e 819d 4c3e
00000260: 4e0b 023f af5a 013e 3adf 2dbe 297a 2e3e
00000270: 537d 8fbe 6b30 cc3d 4025 a1bc eb22 abbd
00000280: 348c 60be 1854 7b3e c70d 95bd 350b 9d3e
00000290: 7b01 043f ff49 333e 3c54 993e 1a42 073e
000002a0: 4530 393f 588d cabe 7f81 913e 9535 8ebd
000002b0: b7cf 17be 063f 98be f262 c1be 2a0a 7c3d
000002c0: bb82 95bd 60c1 19bd 3e12 c1bc 7995 f73e
000002d0: 0ccc 083f 030b 483f bb05 433e 465f df3e
000002e0: 7d8b dc3e daf4 c83e 1880 8c3d 1b76 4c3e
000002f0: f617 4bbe d629 42be eb3d 58bd 39b8 eb3e
00000300: 7afd 5c3e 4115 8d3e 74b8 873e 769e 423e
00000310: 0b87 20bd 0a83 1e3e 669d d23e e893 ac3e
00000320: 1099 b83e 9a40 373e 9dae 1e3d 9018 3a3e
00000330: aa49 f93d 2a12 a53e 15a5 74be fdc3 20bf
00000340: e4ae 4b3d e044 393d 2d49 a0be e181 593e
00000350: 29b1 fb3e b8ec 803e c19a 193e efdd f1bc
00000360: 94ad 7a3d e899 d73e f2f5 d3be 3d7b a7bd
00000370: 0c1f 2ebf 76e8 0d3e 6b37 86bd 9215 f03d
00000380: cb23 ae3e dca4 b63e 62aa ba3e c0d7 753e
00000390: 3a83 5abe fc97 57be 7d56 243f 5dd2 0c3f
000003a0: 41e0 053f 3852 953c 48ff 2a3e c0fd b43c
000003b0: 0237 11be 0477 62be a8d7 1d3f 277a cfbc
000003c0: be84 cf3e 23de bdbe e7de 6bbd a9a1 ca39
000003d0: 2071 1f3e 67c3 833e 2250 793d 49de 54bd
000003e0: bdb3 4bbe 9a7f 0ebe dc2f 803e 1eae 053f
000003f0: d87d 28bf 4632 74be fff9 813d 20f5 d9bd

k_decoder.0.bias f4 [16]
0.5458909 -0.26100084 0.6403875 0.9110444 0.52349263 0.34023967 0.5287944 0.4273729
0.889692 0.4593336 0.50522095 0.7792969 -0.020894373 -0.072661586 -0.529459 0.75905144
00000000: 82bf 0b3f e7a1 85be 6ff0 233f 353a 693f
00000010: 9d03 063f e533 ae3e 125f 073f 9fd0 da3e
00000020: dbc2 633f c62d eb3e 2956 013f 0080 473f
00000030: ad2a abbc 99cf 94bd a08a 07bf 3251 423f

k_decoder.2.weight f4 [16, 16]
-0.35537928 -0.22682731 -0.20392631 0.09894518 -0.35325208 -0.7319042 -0.056047812 -0.06573453
-0.58398026 0.38249868 0.052780386 -0.31059498 0.42428988 0.40257996 0.3088164 -0.27642304
-0.28563824 0.07533508 0.27316335 1.0091857 0.51801735 -0.2924641 0.60357803 0.09956669
-0.14621648 0.0069040153 -0.09741739 1.4519209 -0.063621566 -0.41392887 -0.3226239 -0.2454877
0.1876367 -0.3576364 0.14506583 0.20051454 0.28512046 -0.3867188 -0.65843457 -0.34328866
-0.41917613 -0.50340116 -0.6883633 0.61747205 0.2802438 0.8742509 -0.3795601 0.49612722
-0.120979175 -1.0677627 0.24929245 -0.09766857 0.17201395 -0.13722268 0.21956854 0.090242825
0.7281662 -0.19286543 0.37754616 0.5574523 0.41774222 -0.8858375 -0.5887616 0.27406865
-0.41327524 -0.09260369 -0.27084675 -0.86166286 0.2308828 -0.22840762 -0.5992825 0.0142683415
0.18918428 -0.14576906 0.7474046 -0.052081175 -0.17511135 0.026446505 0.5416726 -0.4047768
0.30601656 0.09273061 0.05659631 0.25524557 -0.16201873 0.1529583 0.51757705 0.2579506
0.17087154 0.5696325 0.1455622 0.38481298 -0.40166596 -0.6615589 -0.5015184 -0.0722253
0.69223875 -0.47879973 0.27619234 0.74981153 0.31263393 -1.0980412 -0.19646826 -0.45304298
1.0229939 0.32667944 0.22966832 0.7310942 -0.21400216 0.23145846 -0.5174826 0.01575275
-0.2379834 0.21387498 0.33970287 -0.099351026 0.44919723 0.14559138 1.1107683 0.59070534
-0.6683014 0.59206295 1.1737763 -0.13961656 -0.31138352 -0.6007722 0.47283846 -0.07088162
-0.29173833 -0.10185267 0.38205594 0.7865221 -0.4523919 0.53638405 0.13018593 0.1804972
0.8624163 -0.8508809 0.065493844 0.48160475 0.28679112 -0.19962557 -0.9528302 0.227393
-0.51543665 0.8097168 -0.37402746 0.24603951 -0.06282929 -0.22750562 -0.39853448 -0.73478115
-0.71678656 -0.29123494 0.230216 -0.07367449 -0.03870887 0.5262238 -0.45017868 0.10160361
-0.006557175 0.57622886 -0.656838 -1.2356963 -0.23352395 0.37642998 -0.71697336 0.08072612
-0.1984667 0.39595482 -0.35606682 -0.48003024 0.25925443 -0.30267742 0.75745016 0.05677565
-0.4700734 -0.31272197 -0.50102055 0.086181074 -0.72599995 -0.54377794 -0.48007676 -0.2923008
-0.4739547 -0.8156801 -0.8879518 -0.6318225 0.1072975 0.119955055 0.48365653 -0.9155759
-0.44215217 -0.5016544 0.39121923 0.47059116 0.3829364 -0.42713976 0.011523771 0.046518378
0.4290785 -0.04246257 0.019469919 0.4870641 -0.12629324 -0.53575253 -0.14539513 0.46015015
-0.5549133 0.60659516 0.32355446 -0.058874752 0.20259108 -0.025228309 0.5126197 0.87034154
0.10442912 0.14722392 0.45694515 -0.4240403 0.03369723 -0.36244756 0.4804099 0.10912873
0.4714344 0.8590617 0.22567944 -0.5018119 0.3433903 0.24903338 0.59843993 -0.09603541
-0.4013617 0.11588298 0.33514318 -0.15303431 -0.19879147 0.30283934 0.33035395 0.15315603
-0.472723 -0.6043599 -0.34802145 -0.08831773 -0.17291254 -0.5237208 -0.23228668 -0.27418104
-0.30712956 -0.70777524 0.098241486 0.42423376 0.10294709 0.3680672 -0.57850456 0.042590372
00000000: 46f4 b5be 6b45 68be 0fd2 50be c5a3 ca3d
00000010: 75dd b4be 135e 3bbf 6492 65bd d39f 86bd
00000020: bb7f 15bf ded6 c33e 3f30 583d 4e06 9fbe
00000030: 863c d93e f61e ce3e 2f1d 9e3e 5287 8dbe
00000040: 2d3f 92be 4749 9a3d 11dc 8b3e ff2c 813f
00000050: c99c 043f dbbd 95be 1784 1a3f 9fe9 cb3d
00000060: c6b9 15be 143b e23b c582 c7bd 8bd8 b93f
00000070: 064c 82bd 7cee d3be f62e a5be 2161 7bbe
00000080: d623 403e 1e1c b7be 238c 143e af53 4d3e
00000090: 4ffb 913e 0200 c6be 2b8f 28bf 88c3 afbe
000000a0: 419e d6be e6de 00bf 9438 30bf a612 1e3f
000000b0: 1e7c 8f3e e8ce 5f3f b455 c2be 6304 fe3e
000000c0: eec3 f7bd 73ac 88bf 8546 7f3e 7606 c8bd
000000d0: 6d24 303e 1a84 0cbe 93d6 603e 3bd1 b83d
000000e0: 1a69 3a3f 847e 45be bb4d c13e 32b5 0e3f
000000f0: 4fe2 d53e 3fc6 62bf 15b9 16bf ba52 8c3e
00000100: d098 d3be 01a7 bdbd 6dac 8abe f095 5cbf
00000110: 8a6c 6c3e b0e3 69be 946a 19bf c3c5 693c
00000120: 86b9 413e 7c44 15be e855 3f3f 1253 55bd
00000130: 6450 33be 57a6 d83c 0eab 0a3f e83e cfbe
00000140: 34ae 9c3e 8ce9 bd3d 88d1 673d 8caf 823e
00000150: 3de8 25be 1aa1 1c3e ee7f 043f 1a12 843e
00000160: f3f8 2e3e 6fd3 113f 420e 153e 3506 c53e
00000170: 29a7 cdbe ed5b 29bf 8363 00bf dcea 93bd
00000180: 8f36 313f 3d25 f5be 1569 8d3e a6f3 3f3f
00000190: 8e11 a03e 9d8c 8cbf fa2e 49be 40f5 e7be
000001a0: 77f1 823f 8742 a73e 2c2e 6b3e fd28 3b3f
000001b0: 6223 5bbe 7203 6d3e bd79 04bf e90b 813c
000001c0: ecb1 73be 0b02 5b3e 89ed ad3e 8d78 cbbd
000001d0: 2efd e53e e815 153e a82d 8e3f 7738 173f
000001e0: cd15 2bbf 7091 173f 4d3e 963f a5f7 0ebe
000001f0: a96d 9fbe 35cc 19bf e217 f23e 622a 91bd
00000200: ba5e 95be 2298 d0bd d69c c33e 8359 493f
00000210: e99f e7be 7750 093f 764f 053e 42d4 383e
00000220: 51c7 5c3f 55d3 59bf a321 863d e694 f63e
00000230: 49d6 923e a56a 4cbe aeec 73bf b6d9 683e
00000240: a8f3 03bf 9a49 4f3f 8780 bfbe c8f1 7b3e
00000250: a5ac 80bd 3cf7 68be b60c ccbe 9e1a 3cbf
00000260: 537f 37bf bf1c 95be bebd 6b3e a7e2 96bd
00000270: 318d 1ebd 9ab6 063f d27d e6be 8e15 d03d
00000280: 92dd d6bb bc83 133f 8926 28bf 4c2b 9ebf
00000290: e720 6fbe 6ebb c03e 918b 37bf bc53 a53d
000002a0: db3a 4bbe 97ba ca3e 644e b6be 86c6 f5be
000002b0: ffbc 843e 89f8 9abe 41e8 413f 958d 683d
000002c0: 76ad f0be 181d a0be e242 00bf b47f b03d
000002d0: 22db 39bf 0835 0bbf 9fcc f5be 73a8 95be
000002e0: 31aa f2be 69d0 50bf cf50 63bf 1fbf 21bf
000002f0: cbbe db3d ffaa f53d d4a1 f73e 2f63 6abf
00000300: c561 e2be 6c6c 00bf e34d c83e 53f1 f03e
00000310: 3d10 c43e 10b2 dabe 33ce 3c3c 0e8a 3e3d
00000320: 2db0 db3e 3bed 2dbd 617f 9f3c 7760 f93e
00000330: 0453 01be 1427 09bf 76e2 14be cd98 eb3e
00000340: cc0e 0ebf d249 1b3f eea8 a53e a726 71bd
00000350: 0974 4f3e 99ab cebc 0b3b 033f b4ce 5e3f
00000360: efde d53d dec1 163e b7f4 e93e cf1b d9be
00000370: 1b06 0a3d ba92 b9be 49f8 f53e e27e df3d
00000380: da5f f13e 78eb 5b3f 8318 673e bf76 00bf
00000390: dad0 af3e 9b02 7f3e 5c33 193f 37ae c4bd
000003a0: 487f cdbe 0e54 ed3d e397 ab3e 07b5 1cbe
000003b0: fe8f 4bbe c20d 9b3e 2724 a93e efd4 1c3e
000003c0: c008 f2be 55b7 1abf de2f b2be eddf b4bd
000003d0: fc0f 31be 9112 06bf 8fdc 6dbe 7561 8cbe
000003e0: 1640 9dbe c230 35bf d532 c93d 2b35 d93e
000003f0: edd5 d23d 4e73 bc3e e018 14bf 3e73 2e3d

k_decoder.2.bias f4 [16]
-0.5666945 0.5811644 -0.26332194 0.5401896 -0.61307335 0.5852003 0.6261732 0.29959804
0.62707114 -0.5444999 -0.6824477 -0.5973583 0.6405572 0.25314742 0.27820104 -0.49259588
00000000: e412 11bf 31c7 143f 22d2 86be de49 0a3f
00000010: 60f2 1cbf b0cf 153f e34c 203f ea64 993e
00000020: bc87 203f 5864 0bbf e4b4 2ebf 79ec 18bf
00000030: 8ffb 233f 8a9c 813e 5e70 8e3e 8735 fcbe

k_decoder.3.weight f4 [4, 16]
-0.45229688 0.3156122 -0.045453355 0.44094056 -0.6386229 0.6635362 0.79898304 0.18108495
0.994506 -0.3576876 -0.69990087 -1.1033205 0.8941966 0.13482822 0.1127463 -0.48358318
-0.69246316 -0.05276299 0.31988072 0.7488793 -0.20276432 -0.20286429 0.08220843 0.036766622
0.048051164 -0.29633534 0.8812807 -0.069332816 -0.15678777 -0.26111105 0.1674555 -0.13772559
0.15203467 0.043151323 0.19101629 0.18644209 0.64013803 0.15023847 0.084664844 -0.12589154
0.01724354 0.32496592 0.0046194764 -0.20245743 -0.12964933 -0.038771793 -0.24137793 -0.49445683
-0.13583797 -0.0057719825 -0.9717354 -0.20465569 -0.001224744 0.49246997 -0.41253924 0.7377923
-0.6674358 -0.21714586 0.1457041 -0.7112689 -0.1667982 0.31991038 0.42026448 -0.78772336
00000000: 7593 e7be ec97 a13e 4c2d 3abd f6c2 e13e
00000010: ca7c 23bf 82dd 293f 278a 4c3f 556e 393e
00000020: f297 7e3f d422 b7be b42c 33bf 9b39 8dbf
00000030: 12ea 643f 6910 0a3e 88e7 e63d 3798 f7be
00000040: 4445 31bf 011e 58bd 68c7 a33e 8eb6 3f3f
00000050: 73a1 4fbe a8bb 4fbe e55c a83d 9998 163d
00000060: 4cd1 443d 44b9 97be 9d9b 613f 5dfe 8dbd
00000070: f98c 20be 59b0 85be 7479 2b3e f007 0dbe
00000080: faae 1b3e 71bf 303d c699 433e adea 3e3e
00000090: 16e0 233f 1dd8 193e c364 ad3d b6e9 00be
000000a0: 5342 8d3c ef61 a63e fa5e 973b 0051 4fbe
000000b0: cbc2 04be 2ccf 1ebd c72b 77be 7229 fdbe
000000c0: 1c19 0bbe e622 bdbb a7c3 78bf 4391 51be
000000d0: 9787 a0ba 0625 fc3e 5838 d3be f5df 3c3f
000000e0: 13dd 2abf 7c5b 5ebe 7533 153e b815 36bf
000000f0: 26cd 2abe 4bcb a33e e82c d73e 3da8 49bf

k_decoder.3.bias f4 [4]
0.73963434 0.2503393 -0.0060618254 0.075917184
00000000: ad58 3d3f 792c 803e 47a2 c6bb 787a 9b3d
